<?xml version="1.0"?>
<net name="torch_jit" version="11">
	<layers>
		<layer id="1" name="input_ids" type="Parameter" version="opset1">
			<data shape="?,?" element_type="i64" />
			<rt_info>
				<attribute name="fused_names" version="0" value="input_ids" />
			</rt_info>
			<output>
				<port id="0" precision="I64" names="input_ids">
					<dim>-1</dim>
					<dim>-1</dim>
				</port>
			</output>
		</layer>
		<layer id="0" name="attention_mask" type="Parameter" version="opset1">
			<data shape="?,?" element_type="i64" />
			<rt_info>
				<attribute name="fused_names" version="0" value="attention_mask" />
			</rt_info>
			<output>
				<port id="0" precision="I64" names="attention_mask">
					<dim>-1</dim>
					<dim>-1</dim>
				</port>
			</output>
		</layer>
		<layer id="2" name="distilbert.transformer.layer.0.attention.q_lin.bias" type="Const" version="opset1">
			<data element_type="f32" shape="32" offset="0" size="128" />
			<rt_info>
				<attribute name="fused_names" version="0" value="distilbert.transformer.layer.0.attention.q_lin.bias" />
			</rt_info>
			<output>
				<port id="0" precision="FP32" names="distilbert.embeddings.LayerNorm.bias,distilbert.transformer.layer.0.attention.k_lin.bias,distilbert.transformer.layer.0.attention.out_lin.bias,distilbert.transformer.layer.0.attention.q_lin.bias,distilbert.transformer.layer.0.attention.v_lin.bias,distilbert.transformer.layer.0.ffn.lin2.bias,distilbert.transformer.layer.0.output_layer_norm.bias,distilbert.transformer.layer.0.sa_layer_norm.bias,distilbert.transformer.layer.1.attention.k_lin.bias,distilbert.transformer.layer.1.attention.out_lin.bias,distilbert.transformer.layer.1.attention.q_lin.bias,distilbert.transformer.layer.1.attention.v_lin.bias,distilbert.transformer.layer.1.ffn.lin2.bias,distilbert.transformer.layer.1.output_layer_norm.bias,distilbert.transformer.layer.1.sa_layer_norm.bias,distilbert.transformer.layer.2.attention.k_lin.bias,distilbert.transformer.layer.2.attention.out_lin.bias,distilbert.transformer.layer.2.attention.q_lin.bias,distilbert.transformer.layer.2.attention.v_lin.bias,distilbert.transformer.layer.2.ffn.lin2.bias,distilbert.transformer.layer.2.output_layer_norm.bias,distilbert.transformer.layer.2.sa_layer_norm.bias,distilbert.transformer.layer.3.attention.k_lin.bias,distilbert.transformer.layer.3.attention.out_lin.bias,distilbert.transformer.layer.3.attention.q_lin.bias,distilbert.transformer.layer.3.attention.v_lin.bias,distilbert.transformer.layer.3.ffn.lin2.bias,distilbert.transformer.layer.3.output_layer_norm.bias,distilbert.transformer.layer.3.sa_layer_norm.bias,distilbert.transformer.layer.4.attention.k_lin.bias,distilbert.transformer.layer.4.attention.out_lin.bias,distilbert.transformer.layer.4.attention.q_lin.bias,distilbert.transformer.layer.4.attention.v_lin.bias,distilbert.transformer.layer.4.ffn.lin2.bias,distilbert.transformer.layer.4.output_layer_norm.bias,distilbert.transformer.layer.4.sa_layer_norm.bias,pre_classifier.bias">
					<dim>32</dim>
				</port>
			</output>
		</layer>
		<layer id="3" name="distilbert.transformer.layer.1.ffn.lin1.bias" type="Const" version="opset1">
			<data element_type="f32" shape="37" offset="128" size="148" />
			<rt_info>
				<attribute name="fused_names" version="0" value="distilbert.transformer.layer.1.ffn.lin1.bias" />
			</rt_info>
			<output>
				<port id="0" precision="FP32" names="distilbert.transformer.layer.0.ffn.lin1.bias,distilbert.transformer.layer.1.ffn.lin1.bias,distilbert.transformer.layer.2.ffn.lin1.bias,distilbert.transformer.layer.3.ffn.lin1.bias,distilbert.transformer.layer.4.ffn.lin1.bias">
					<dim>37</dim>
				</port>
			</output>
		</layer>
		<layer id="4" name="/distilbert/transformer/layer.0/attention/Constant_12" type="Const" version="opset1">
			<data element_type="i64" shape="" offset="276" size="8" />
			<rt_info>
				<attribute name="fused_names" version="0" value="/distilbert/transformer/layer.0/attention/Constant_12" />
			</rt_info>
			<output>
				<port id="0" precision="I64" names="/distilbert/transformer/layer.0/attention/Constant_12_output_0" />
			</output>
		</layer>
		<layer id="5" name="/distilbert/transformer/layer.0/attention/Equal" type="Equal" version="opset1">
			<data auto_broadcast="numpy" />
			<rt_info>
				<attribute name="fused_names" version="0" value="/distilbert/transformer/layer.0/attention/Equal" />
			</rt_info>
			<input>
				<port id="0" precision="I64">
					<dim>-1</dim>
					<dim>-1</dim>
				</port>
				<port id="1" precision="I64" />
			</input>
			<output>
				<port id="2" precision="BOOL" names="/distilbert/transformer/layer.0/attention/Equal_output_0">
					<dim>-1</dim>
					<dim>-1</dim>
				</port>
			</output>
		</layer>
		<layer id="6" name="distilbert.embeddings.word_embeddings.weight" type="Const" version="opset1">
			<data element_type="f32" shape="1124, 32" offset="284" size="143872" />
			<rt_info>
				<attribute name="fused_names" version="0" value="distilbert.embeddings.word_embeddings.weight" />
			</rt_info>
			<output>
				<port id="0" precision="FP32" names="distilbert.embeddings.word_embeddings.weight">
					<dim>1124</dim>
					<dim>32</dim>
				</port>
			</output>
		</layer>
		<layer id="7" name="Constant_4465520" type="Const" version="opset1">
			<data element_type="i64" shape="" offset="276" size="8" />
			<rt_info>
				<attribute name="fused_names" version="0" value="Constant_4465520" />
			</rt_info>
			<output>
				<port id="0" precision="I64" />
			</output>
		</layer>
		<layer id="8" name="/distilbert/embeddings/word_embeddings/Gather" type="Gather" version="opset8">
			<data batch_dims="0" />
			<rt_info>
				<attribute name="fused_names" version="0" value="/distilbert/embeddings/word_embeddings/Gather" />
			</rt_info>
			<input>
				<port id="0" precision="FP32">
					<dim>1124</dim>
					<dim>32</dim>
				</port>
				<port id="1" precision="I64">
					<dim>-1</dim>
					<dim>-1</dim>
				</port>
				<port id="2" precision="I64" />
			</input>
			<output>
				<port id="3" precision="FP32" names="/distilbert/embeddings/word_embeddings/Gather_output_0">
					<dim>-1</dim>
					<dim>-1</dim>
					<dim>32</dim>
				</port>
			</output>
		</layer>
		<layer id="9" name="distilbert.embeddings.position_embeddings.weight" type="Const" version="opset1">
			<data element_type="f32" shape="512, 32" offset="144156" size="65536" />
			<rt_info>
				<attribute name="fused_names" version="0" value="distilbert.embeddings.position_embeddings.weight" />
			</rt_info>
			<output>
				<port id="0" precision="FP32" names="distilbert.embeddings.position_embeddings.weight">
					<dim>512</dim>
					<dim>32</dim>
				</port>
			</output>
		</layer>
		<layer id="10" name="Constant_55" type="Const" version="opset1">
			<data element_type="i64" shape="1, 512" offset="209692" size="4096" />
			<rt_info>
				<attribute name="fused_names" version="0" value="Constant_55" />
			</rt_info>
			<output>
				<port id="0" precision="I64" names="onnx::Slice_96">
					<dim>1</dim>
					<dim>512</dim>
				</port>
			</output>
		</layer>
		<layer id="11" name="/distilbert/embeddings/Constant_1" type="Const" version="opset1">
			<data element_type="i64" shape="1" offset="276" size="8" />
			<rt_info>
				<attribute name="fused_names" version="0" value="/distilbert/embeddings/Constant_1" />
			</rt_info>
			<output>
				<port id="0" precision="I64" names="/distilbert/embeddings/Constant_1_output_0">
					<dim>1</dim>
				</port>
			</output>
		</layer>
		<layer id="12" name="/distilbert/embeddings/Shape" type="ShapeOf" version="opset3">
			<data output_type="i64" />
			<rt_info>
				<attribute name="fused_names" version="0" value="/distilbert/embeddings/Shape" />
			</rt_info>
			<input>
				<port id="0" precision="FP32">
					<dim>-1</dim>
					<dim>-1</dim>
					<dim>32</dim>
				</port>
			</input>
			<output>
				<port id="1" precision="I64" names="/distilbert/embeddings/Shape_output_0">
					<dim>3</dim>
				</port>
			</output>
		</layer>
		<layer id="13" name="/distilbert/embeddings/Constant" type="Const" version="opset1">
			<data element_type="i64" shape="" offset="213788" size="8" />
			<rt_info>
				<attribute name="fused_names" version="0" value="/distilbert/embeddings/Constant" />
			</rt_info>
			<output>
				<port id="0" precision="I64" names="/distilbert/embeddings/Constant_output_0" />
			</output>
		</layer>
		<layer id="14" name="Constant_4465524" type="Const" version="opset1">
			<data element_type="i64" shape="" offset="276" size="8" />
			<rt_info>
				<attribute name="fused_names" version="0" value="Constant_4465524" />
			</rt_info>
			<output>
				<port id="0" precision="I64" />
			</output>
		</layer>
		<layer id="15" name="/distilbert/embeddings/Gather" type="Gather" version="opset8">
			<data batch_dims="0" />
			<rt_info>
				<attribute name="fused_names" version="0" value="/distilbert/embeddings/Constant, /distilbert/embeddings/Gather, Constant_4465524" />
			</rt_info>
			<input>
				<port id="0" precision="I64">
					<dim>3</dim>
				</port>
				<port id="1" precision="I64" />
				<port id="2" precision="I64" />
			</input>
			<output>
				<port id="3" precision="I64" names="/distilbert/embeddings/Gather_output_0" />
			</output>
		</layer>
		<layer id="16" name="Constant_4465528" type="Const" version="opset1">
			<data element_type="i64" shape="1" offset="276" size="8" />
			<rt_info>
				<attribute name="fused_names" version="0" value="Constant_4465528" />
			</rt_info>
			<output>
				<port id="0" precision="I64">
					<dim>1</dim>
				</port>
			</output>
		</layer>
		<layer id="17" name="/distilbert/embeddings/Unsqueeze" type="Unsqueeze" version="opset1">
			<rt_info>
				<attribute name="fused_names" version="0" value="/distilbert/embeddings/Unsqueeze, Constant_4465528" />
			</rt_info>
			<input>
				<port id="0" precision="I64" />
				<port id="1" precision="I64">
					<dim>1</dim>
				</port>
			</input>
			<output>
				<port id="2" precision="I64" names="/distilbert/embeddings/Unsqueeze_output_0">
					<dim>1</dim>
				</port>
			</output>
		</layer>
		<layer id="18" name="/distilbert/embeddings/Constant_3" type="Const" version="opset1">
			<data element_type="i64" shape="1" offset="213788" size="8" />
			<rt_info>
				<attribute name="fused_names" version="0" value="/distilbert/embeddings/Constant_3" />
			</rt_info>
			<output>
				<port id="0" precision="I64" names="/distilbert/embeddings/Constant_3_output_0">
					<dim>1</dim>
				</port>
			</output>
		</layer>
		<layer id="19" name="/distilbert/embeddings/Constant_2" type="Const" version="opset1">
			<data element_type="i64" shape="1" offset="213788" size="8" />
			<rt_info>
				<attribute name="fused_names" version="0" value="/distilbert/embeddings/Constant_2" />
			</rt_info>
			<output>
				<port id="0" precision="I64" names="/distilbert/embeddings/Constant_2_output_0">
					<dim>1</dim>
				</port>
			</output>
		</layer>
		<layer id="20" name="/distilbert/embeddings/Slice" type="Slice" version="opset8">
			<rt_info>
				<attribute name="fused_names" version="0" value="/distilbert/embeddings/Slice" />
			</rt_info>
			<input>
				<port id="0" precision="I64">
					<dim>1</dim>
					<dim>512</dim>
				</port>
				<port id="1" precision="I64">
					<dim>1</dim>
				</port>
				<port id="2" precision="I64">
					<dim>1</dim>
				</port>
				<port id="3" precision="I64">
					<dim>1</dim>
				</port>
				<port id="4" precision="I64">
					<dim>1</dim>
				</port>
			</input>
			<output>
				<port id="5" precision="I64" names="/distilbert/embeddings/Slice_output_0">
					<dim>1</dim>
					<dim>-1</dim>
				</port>
			</output>
		</layer>
		<layer id="21" name="Constant_4465539" type="Const" version="opset1">
			<data element_type="i64" shape="" offset="276" size="8" />
			<rt_info>
				<attribute name="fused_names" version="0" value="Constant_4465539" />
			</rt_info>
			<output>
				<port id="0" precision="I64" />
			</output>
		</layer>
		<layer id="22" name="/distilbert/embeddings/position_embeddings/Gather" type="Gather" version="opset8">
			<data batch_dims="0" />
			<rt_info>
				<attribute name="fused_names" version="0" value="/distilbert/embeddings/position_embeddings/Gather" />
			</rt_info>
			<input>
				<port id="0" precision="FP32">
					<dim>512</dim>
					<dim>32</dim>
				</port>
				<port id="1" precision="I64">
					<dim>1</dim>
					<dim>-1</dim>
				</port>
				<port id="2" precision="I64" />
			</input>
			<output>
				<port id="3" precision="FP32" names="/distilbert/embeddings/position_embeddings/Gather_output_0">
					<dim>1</dim>
					<dim>-1</dim>
					<dim>32</dim>
				</port>
			</output>
		</layer>
		<layer id="23" name="/distilbert/embeddings/Add" type="Add" version="opset1">
			<data auto_broadcast="numpy" />
			<rt_info>
				<attribute name="fused_names" version="0" value="/distilbert/embeddings/Add" />
			</rt_info>
			<input>
				<port id="0" precision="FP32">
					<dim>-1</dim>
					<dim>-1</dim>
					<dim>32</dim>
				</port>
				<port id="1" precision="FP32">
					<dim>1</dim>
					<dim>-1</dim>
					<dim>32</dim>
				</port>
			</input>
			<output>
				<port id="2" precision="FP32" names="/distilbert/embeddings/Add_output_0">
					<dim>-1</dim>
					<dim>-1</dim>
					<dim>32</dim>
				</port>
			</output>
		</layer>
		<layer id="24" name="Constant_4465542" type="Const" version="opset1">
			<data element_type="i64" shape="1" offset="213796" size="8" />
			<rt_info>
				<attribute name="fused_names" version="0" value="Constant_4465542" />
			</rt_info>
			<output>
				<port id="0" precision="I64">
					<dim>1</dim>
				</port>
			</output>
		</layer>
		<layer id="25" name="/distilbert/embeddings/LayerNorm/ReduceMean" type="ReduceMean" version="opset1">
			<data keep_dims="true" />
			<rt_info>
				<attribute name="fused_names" version="0" value="/distilbert/embeddings/LayerNorm/ReduceMean" />
			</rt_info>
			<input>
				<port id="0" precision="FP32">
					<dim>-1</dim>
					<dim>-1</dim>
					<dim>32</dim>
				</port>
				<port id="1" precision="I64">
					<dim>1</dim>
				</port>
			</input>
			<output>
				<port id="2" precision="FP32" names="/distilbert/embeddings/LayerNorm/ReduceMean_output_0">
					<dim>-1</dim>
					<dim>-1</dim>
					<dim>1</dim>
				</port>
			</output>
		</layer>
		<layer id="26" name="/distilbert/embeddings/LayerNorm/Sub" type="Subtract" version="opset1">
			<data auto_broadcast="numpy" />
			<rt_info>
				<attribute name="fused_names" version="0" value="/distilbert/embeddings/LayerNorm/Sub" />
			</rt_info>
			<input>
				<port id="0" precision="FP32">
					<dim>-1</dim>
					<dim>-1</dim>
					<dim>32</dim>
				</port>
				<port id="1" precision="FP32">
					<dim>-1</dim>
					<dim>-1</dim>
					<dim>1</dim>
				</port>
			</input>
			<output>
				<port id="2" precision="FP32" names="/distilbert/embeddings/LayerNorm/Sub_output_0">
					<dim>-1</dim>
					<dim>-1</dim>
					<dim>32</dim>
				</port>
			</output>
		</layer>
		<layer id="27" name="/distilbert/embeddings/LayerNorm/Constant" type="Const" version="opset1">
			<data element_type="f32" shape="" offset="213804" size="4" />
			<rt_info>
				<attribute name="fused_names" version="0" value="/distilbert/embeddings/LayerNorm/Constant" />
			</rt_info>
			<output>
				<port id="0" precision="FP32" names="/distilbert/embeddings/LayerNorm/Constant_output_0" />
			</output>
		</layer>
		<layer id="28" name="/distilbert/embeddings/LayerNorm/Pow" type="Power" version="opset1">
			<data auto_broadcast="numpy" />
			<rt_info>
				<attribute name="fused_names" version="0" value="/distilbert/embeddings/LayerNorm/Pow" />
			</rt_info>
			<input>
				<port id="0" precision="FP32">
					<dim>-1</dim>
					<dim>-1</dim>
					<dim>32</dim>
				</port>
				<port id="1" precision="FP32" />
			</input>
			<output>
				<port id="2" precision="FP32" names="/distilbert/embeddings/LayerNorm/Pow_output_0">
					<dim>-1</dim>
					<dim>-1</dim>
					<dim>32</dim>
				</port>
			</output>
		</layer>
		<layer id="29" name="Constant_4465547" type="Const" version="opset1">
			<data element_type="i64" shape="1" offset="213796" size="8" />
			<rt_info>
				<attribute name="fused_names" version="0" value="Constant_4465547" />
			</rt_info>
			<output>
				<port id="0" precision="I64">
					<dim>1</dim>
				</port>
			</output>
		</layer>
		<layer id="30" name="/distilbert/embeddings/LayerNorm/ReduceMean_1" type="ReduceMean" version="opset1">
			<data keep_dims="true" />
			<rt_info>
				<attribute name="fused_names" version="0" value="/distilbert/embeddings/LayerNorm/ReduceMean_1" />
			</rt_info>
			<input>
				<port id="0" precision="FP32">
					<dim>-1</dim>
					<dim>-1</dim>
					<dim>32</dim>
				</port>
				<port id="1" precision="I64">
					<dim>1</dim>
				</port>
			</input>
			<output>
				<port id="2" precision="FP32" names="/distilbert/embeddings/LayerNorm/ReduceMean_1_output_0">
					<dim>-1</dim>
					<dim>-1</dim>
					<dim>1</dim>
				</port>
			</output>
		</layer>
		<layer id="31" name="/distilbert/embeddings/LayerNorm/Constant_1" type="Const" version="opset1">
			<data element_type="f32" shape="" offset="213808" size="4" />
			<rt_info>
				<attribute name="fused_names" version="0" value="/distilbert/embeddings/LayerNorm/Constant_1" />
			</rt_info>
			<output>
				<port id="0" precision="FP32" names="/distilbert/embeddings/LayerNorm/Constant_1_output_0" />
			</output>
		</layer>
		<layer id="32" name="/distilbert/embeddings/LayerNorm/Add" type="Add" version="opset1">
			<data auto_broadcast="numpy" />
			<rt_info>
				<attribute name="fused_names" version="0" value="/distilbert/embeddings/LayerNorm/Add" />
			</rt_info>
			<input>
				<port id="0" precision="FP32">
					<dim>-1</dim>
					<dim>-1</dim>
					<dim>1</dim>
				</port>
				<port id="1" precision="FP32" />
			</input>
			<output>
				<port id="2" precision="FP32" names="/distilbert/embeddings/LayerNorm/Add_output_0">
					<dim>-1</dim>
					<dim>-1</dim>
					<dim>1</dim>
				</port>
			</output>
		</layer>
		<layer id="33" name="/distilbert/embeddings/LayerNorm/Sqrt" type="Sqrt" version="opset1">
			<rt_info>
				<attribute name="fused_names" version="0" value="/distilbert/embeddings/LayerNorm/Sqrt" />
			</rt_info>
			<input>
				<port id="0" precision="FP32">
					<dim>-1</dim>
					<dim>-1</dim>
					<dim>1</dim>
				</port>
			</input>
			<output>
				<port id="1" precision="FP32" names="/distilbert/embeddings/LayerNorm/Sqrt_output_0">
					<dim>-1</dim>
					<dim>-1</dim>
					<dim>1</dim>
				</port>
			</output>
		</layer>
		<layer id="34" name="/distilbert/embeddings/LayerNorm/Div" type="Divide" version="opset1">
			<data auto_broadcast="numpy" m_pythondiv="true" />
			<rt_info>
				<attribute name="fused_names" version="0" value="/distilbert/embeddings/LayerNorm/Div" />
			</rt_info>
			<input>
				<port id="0" precision="FP32">
					<dim>-1</dim>
					<dim>-1</dim>
					<dim>32</dim>
				</port>
				<port id="1" precision="FP32">
					<dim>-1</dim>
					<dim>-1</dim>
					<dim>1</dim>
				</port>
			</input>
			<output>
				<port id="2" precision="FP32" names="/distilbert/embeddings/LayerNorm/Div_output_0">
					<dim>-1</dim>
					<dim>-1</dim>
					<dim>32</dim>
				</port>
			</output>
		</layer>
		<layer id="35" name="distilbert.transformer.layer.0.sa_layer_norm.weight" type="Const" version="opset1">
			<data element_type="f32" shape="32" offset="213812" size="128" />
			<rt_info>
				<attribute name="fused_names" version="0" value="distilbert.transformer.layer.0.sa_layer_norm.weight" />
			</rt_info>
			<output>
				<port id="0" precision="FP32" names="distilbert.embeddings.LayerNorm.weight,distilbert.transformer.layer.0.output_layer_norm.weight,distilbert.transformer.layer.0.sa_layer_norm.weight,distilbert.transformer.layer.1.output_layer_norm.weight,distilbert.transformer.layer.1.sa_layer_norm.weight,distilbert.transformer.layer.2.output_layer_norm.weight,distilbert.transformer.layer.2.sa_layer_norm.weight,distilbert.transformer.layer.3.output_layer_norm.weight,distilbert.transformer.layer.3.sa_layer_norm.weight,distilbert.transformer.layer.4.output_layer_norm.weight,distilbert.transformer.layer.4.sa_layer_norm.weight">
					<dim>32</dim>
				</port>
			</output>
		</layer>
		<layer id="36" name="/distilbert/embeddings/LayerNorm/Mul" type="Multiply" version="opset1">
			<data auto_broadcast="numpy" />
			<rt_info>
				<attribute name="fused_names" version="0" value="/distilbert/embeddings/LayerNorm/Mul" />
			</rt_info>
			<input>
				<port id="0" precision="FP32">
					<dim>-1</dim>
					<dim>-1</dim>
					<dim>32</dim>
				</port>
				<port id="1" precision="FP32">
					<dim>32</dim>
				</port>
			</input>
			<output>
				<port id="2" precision="FP32" names="/distilbert/embeddings/LayerNorm/Mul_output_0">
					<dim>-1</dim>
					<dim>-1</dim>
					<dim>32</dim>
				</port>
			</output>
		</layer>
		<layer id="37" name="/distilbert/embeddings/LayerNorm/Add_1" type="Add" version="opset1">
			<data auto_broadcast="numpy" />
			<rt_info>
				<attribute name="fused_names" version="0" value="/distilbert/embeddings/LayerNorm/Add_1" />
			</rt_info>
			<input>
				<port id="0" precision="FP32">
					<dim>-1</dim>
					<dim>-1</dim>
					<dim>32</dim>
				</port>
				<port id="1" precision="FP32">
					<dim>32</dim>
				</port>
			</input>
			<output>
				<port id="2" precision="FP32" names="/distilbert/embeddings/LayerNorm/Add_1_output_0">
					<dim>-1</dim>
					<dim>-1</dim>
					<dim>32</dim>
				</port>
			</output>
		</layer>
		<layer id="38" name="/distilbert/transformer/layer.0/attention/Shape" type="ShapeOf" version="opset3">
			<data output_type="i64" />
			<rt_info>
				<attribute name="fused_names" version="0" value="/distilbert/transformer/layer.0/attention/Shape" />
			</rt_info>
			<input>
				<port id="0" precision="FP32">
					<dim>-1</dim>
					<dim>-1</dim>
					<dim>32</dim>
				</port>
			</input>
			<output>
				<port id="1" precision="I64" names="/distilbert/transformer/layer.0/attention/Shape_output_0">
					<dim>3</dim>
				</port>
			</output>
		</layer>
		<layer id="39" name="/distilbert/transformer/layer.0/attention/Constant" type="Const" version="opset1">
			<data element_type="i64" shape="" offset="276" size="8" />
			<rt_info>
				<attribute name="fused_names" version="0" value="/distilbert/transformer/layer.0/attention/Constant" />
			</rt_info>
			<output>
				<port id="0" precision="I64" names="/distilbert/transformer/layer.0/attention/Constant_output_0" />
			</output>
		</layer>
		<layer id="40" name="Constant_4465557" type="Const" version="opset1">
			<data element_type="i64" shape="" offset="276" size="8" />
			<rt_info>
				<attribute name="fused_names" version="0" value="Constant_4465557" />
			</rt_info>
			<output>
				<port id="0" precision="I64" />
			</output>
		</layer>
		<layer id="41" name="/distilbert/transformer/layer.0/attention/Gather" type="Gather" version="opset8">
			<data batch_dims="0" />
			<rt_info>
				<attribute name="fused_names" version="0" value="/distilbert/transformer/layer.0/attention/Constant, /distilbert/transformer/layer.0/attention/Gather, Constant_4465557" />
			</rt_info>
			<input>
				<port id="0" precision="I64">
					<dim>3</dim>
				</port>
				<port id="1" precision="I64" />
				<port id="2" precision="I64" />
			</input>
			<output>
				<port id="3" precision="I64" names="/distilbert/transformer/layer.0/attention/Gather_output_0" />
			</output>
		</layer>
		<layer id="42" name="Constant_4465619" type="Const" version="opset1">
			<data element_type="i64" shape="1" offset="276" size="8" />
			<rt_info>
				<attribute name="fused_names" version="0" value="Constant_4465619" />
			</rt_info>
			<output>
				<port id="0" precision="I64">
					<dim>1</dim>
				</port>
			</output>
		</layer>
		<layer id="43" name="/distilbert/transformer/layer.0/attention/Unsqueeze_3" type="Unsqueeze" version="opset1">
			<rt_info>
				<attribute name="fused_names" version="0" value="/distilbert/transformer/layer.0/attention/Unsqueeze_3, Constant_4465619" />
			</rt_info>
			<input>
				<port id="0" precision="I64" />
				<port id="1" precision="I64">
					<dim>1</dim>
				</port>
			</input>
			<output>
				<port id="2" precision="I64" names="/distilbert/transformer/layer.0/attention/Unsqueeze_3_output_0">
					<dim>1</dim>
				</port>
			</output>
		</layer>
		<layer id="44" name="/distilbert/transformer/layer.0/attention/Constant_13" type="Const" version="opset1">
			<data element_type="i64" shape="1" offset="213788" size="8" />
			<rt_info>
				<attribute name="fused_names" version="0" value="/distilbert/transformer/layer.0/attention/Constant_13" />
			</rt_info>
			<output>
				<port id="0" precision="I64" names="/distilbert/transformer/layer.0/attention/Constant_13_output_0">
					<dim>1</dim>
				</port>
			</output>
		</layer>
		<layer id="45" name="/distilbert/transformer/layer.0/attention/Constant_14" type="Const" version="opset1">
			<data element_type="i64" shape="1" offset="213788" size="8" />
			<rt_info>
				<attribute name="fused_names" version="0" value="/distilbert/transformer/layer.0/attention/Constant_14" />
			</rt_info>
			<output>
				<port id="0" precision="I64" names="/distilbert/transformer/layer.0/attention/Constant_14_output_0">
					<dim>1</dim>
				</port>
			</output>
		</layer>
		<layer id="46" name="/distilbert/transformer/layer.0/attention/Shape_1" type="ShapeOf" version="opset3">
			<data output_type="i64" />
			<rt_info>
				<attribute name="fused_names" version="0" value="/distilbert/transformer/layer.0/attention/Shape_1" />
			</rt_info>
			<input>
				<port id="0" precision="FP32">
					<dim>-1</dim>
					<dim>-1</dim>
					<dim>32</dim>
				</port>
			</input>
			<output>
				<port id="1" precision="I64" names="/distilbert/transformer/layer.0/attention/Shape_1_output_0">
					<dim>3</dim>
				</port>
			</output>
		</layer>
		<layer id="47" name="/distilbert/transformer/layer.0/attention/Constant_1" type="Const" version="opset1">
			<data element_type="i64" shape="" offset="213788" size="8" />
			<rt_info>
				<attribute name="fused_names" version="0" value="/distilbert/transformer/layer.0/attention/Constant_1" />
			</rt_info>
			<output>
				<port id="0" precision="I64" names="/distilbert/transformer/layer.0/attention/Constant_1_output_0" />
			</output>
		</layer>
		<layer id="48" name="Constant_4465561" type="Const" version="opset1">
			<data element_type="i64" shape="" offset="276" size="8" />
			<rt_info>
				<attribute name="fused_names" version="0" value="Constant_4465561" />
			</rt_info>
			<output>
				<port id="0" precision="I64" />
			</output>
		</layer>
		<layer id="49" name="/distilbert/transformer/layer.0/attention/Gather_1" type="Gather" version="opset8">
			<data batch_dims="0" />
			<rt_info>
				<attribute name="fused_names" version="0" value="/distilbert/transformer/layer.0/attention/Constant_1, /distilbert/transformer/layer.0/attention/Gather_1, Constant_4465561" />
			</rt_info>
			<input>
				<port id="0" precision="I64">
					<dim>3</dim>
				</port>
				<port id="1" precision="I64" />
				<port id="2" precision="I64" />
			</input>
			<output>
				<port id="3" precision="I64" names="/distilbert/transformer/layer.0/attention/Gather_1_output_0" />
			</output>
		</layer>
		<layer id="50" name="Constant_4465623" type="Const" version="opset1">
			<data element_type="i64" shape="1" offset="276" size="8" />
			<rt_info>
				<attribute name="fused_names" version="0" value="Constant_4465623" />
			</rt_info>
			<output>
				<port id="0" precision="I64">
					<dim>1</dim>
				</port>
			</output>
		</layer>
		<layer id="51" name="/distilbert/transformer/layer.0/attention/Unsqueeze_4" type="Unsqueeze" version="opset1">
			<rt_info>
				<attribute name="fused_names" version="0" value="/distilbert/transformer/layer.0/attention/Unsqueeze_4, Constant_4465623" />
			</rt_info>
			<input>
				<port id="0" precision="I64" />
				<port id="1" precision="I64">
					<dim>1</dim>
				</port>
			</input>
			<output>
				<port id="2" precision="I64" names="/distilbert/transformer/layer.0/attention/Unsqueeze_4_output_0">
					<dim>1</dim>
				</port>
			</output>
		</layer>
		<layer id="52" name="/distilbert/transformer/layer.0/attention/Concat_3" type="Concat" version="opset1">
			<data axis="0" />
			<rt_info>
				<attribute name="fused_names" version="0" value="/distilbert/transformer/layer.0/attention/Concat_3, /distilbert/transformer/layer.0/attention/Constant_13, /distilbert/transformer/layer.0/attention/Constant_14" />
			</rt_info>
			<input>
				<port id="0" precision="I64">
					<dim>1</dim>
				</port>
				<port id="1" precision="I64">
					<dim>1</dim>
				</port>
				<port id="2" precision="I64">
					<dim>1</dim>
				</port>
				<port id="3" precision="I64">
					<dim>1</dim>
				</port>
			</input>
			<output>
				<port id="4" precision="I64" names="/distilbert/transformer/layer.0/attention/Concat_3_output_0">
					<dim>4</dim>
				</port>
			</output>
		</layer>
		<layer id="53" name="/distilbert/transformer/layer.0/attention/Reshape_3" type="Reshape" version="opset1">
			<data special_zero="true" />
			<rt_info>
				<attribute name="fused_names" version="0" value="/distilbert/transformer/layer.0/attention/Reshape_3" />
			</rt_info>
			<input>
				<port id="0" precision="BOOL">
					<dim>-1</dim>
					<dim>-1</dim>
				</port>
				<port id="1" precision="I64">
					<dim>4</dim>
				</port>
			</input>
			<output>
				<port id="2" precision="BOOL" names="/distilbert/transformer/layer.0/attention/Reshape_3_output_0">
					<dim>-1</dim>
					<dim>1</dim>
					<dim>1</dim>
					<dim>-1</dim>
				</port>
			</output>
		</layer>
		<layer id="54" name="onnx::MatMul_622" type="Const" version="opset1">
			<data element_type="f32" shape="32, 32" offset="213940" size="4096" />
			<rt_info>
				<attribute name="fused_names" version="0" value="onnx::MatMul_622" />
			</rt_info>
			<output>
				<port id="0" precision="FP32" names="onnx::MatMul_622">
					<dim>32</dim>
					<dim>32</dim>
				</port>
			</output>
		</layer>
		<layer id="55" name="/distilbert/transformer/layer.0/attention/q_lin/MatMul" type="MatMul" version="opset1">
			<data transpose_a="false" transpose_b="false" />
			<rt_info>
				<attribute name="fused_names" version="0" value="/distilbert/transformer/layer.0/attention/q_lin/MatMul" />
			</rt_info>
			<input>
				<port id="0" precision="FP32">
					<dim>-1</dim>
					<dim>-1</dim>
					<dim>32</dim>
				</port>
				<port id="1" precision="FP32">
					<dim>32</dim>
					<dim>32</dim>
				</port>
			</input>
			<output>
				<port id="2" precision="FP32" names="/distilbert/transformer/layer.0/attention/q_lin/MatMul_output_0">
					<dim>-1</dim>
					<dim>-1</dim>
					<dim>32</dim>
				</port>
			</output>
		</layer>
		<layer id="56" name="/distilbert/transformer/layer.0/attention/q_lin/Add" type="Add" version="opset1">
			<data auto_broadcast="numpy" />
			<rt_info>
				<attribute name="fused_names" version="0" value="/distilbert/transformer/layer.0/attention/q_lin/Add" />
			</rt_info>
			<input>
				<port id="0" precision="FP32">
					<dim>32</dim>
				</port>
				<port id="1" precision="FP32">
					<dim>-1</dim>
					<dim>-1</dim>
					<dim>32</dim>
				</port>
			</input>
			<output>
				<port id="2" precision="FP32" names="/distilbert/transformer/layer.0/attention/q_lin/Add_output_0">
					<dim>-1</dim>
					<dim>-1</dim>
					<dim>32</dim>
				</port>
			</output>
		</layer>
		<layer id="57" name="Constant_4465565" type="Const" version="opset1">
			<data element_type="i64" shape="1" offset="276" size="8" />
			<rt_info>
				<attribute name="fused_names" version="0" value="Constant_4465565" />
			</rt_info>
			<output>
				<port id="0" precision="I64">
					<dim>1</dim>
				</port>
			</output>
		</layer>
		<layer id="58" name="/distilbert/transformer/layer.0/attention/Unsqueeze" type="Unsqueeze" version="opset1">
			<rt_info>
				<attribute name="fused_names" version="0" value="/distilbert/transformer/layer.0/attention/Unsqueeze, Constant_4465565" />
			</rt_info>
			<input>
				<port id="0" precision="I64" />
				<port id="1" precision="I64">
					<dim>1</dim>
				</port>
			</input>
			<output>
				<port id="2" precision="I64" names="/distilbert/transformer/layer.0/attention/Unsqueeze_output_0">
					<dim>1</dim>
				</port>
			</output>
		</layer>
		<layer id="59" name="/distilbert/transformer/layer.0/attention/Constant_2" type="Const" version="opset1">
			<data element_type="i64" shape="1" offset="213796" size="8" />
			<rt_info>
				<attribute name="fused_names" version="0" value="/distilbert/transformer/layer.0/attention/Constant_2" />
			</rt_info>
			<output>
				<port id="0" precision="I64" names="/distilbert/transformer/layer.0/attention/Constant_2_output_0">
					<dim>1</dim>
				</port>
			</output>
		</layer>
		<layer id="60" name="/distilbert/transformer/layer.0/attention/Constant_3" type="Const" version="opset1">
			<data element_type="i64" shape="1" offset="218036" size="8" />
			<rt_info>
				<attribute name="fused_names" version="0" value="/distilbert/transformer/layer.0/attention/Constant_3" />
			</rt_info>
			<output>
				<port id="0" precision="I64" names="/distilbert/transformer/layer.0/attention/Constant_3_output_0">
					<dim>1</dim>
				</port>
			</output>
		</layer>
		<layer id="61" name="/distilbert/transformer/layer.0/attention/Constant_4" type="Const" version="opset1">
			<data element_type="i64" shape="1" offset="218044" size="8" />
			<rt_info>
				<attribute name="fused_names" version="0" value="/distilbert/transformer/layer.0/attention/Constant_4" />
			</rt_info>
			<output>
				<port id="0" precision="I64" names="/distilbert/transformer/layer.0/attention/Constant_4_output_0">
					<dim>1</dim>
				</port>
			</output>
		</layer>
		<layer id="62" name="/distilbert/transformer/layer.0/attention/Concat" type="Concat" version="opset1">
			<data axis="0" />
			<rt_info>
				<attribute name="fused_names" version="0" value="/distilbert/transformer/layer.0/attention/Concat, /distilbert/transformer/layer.0/attention/Constant_2, /distilbert/transformer/layer.0/attention/Constant_3, /distilbert/transformer/layer.0/attention/Constant_4" />
			</rt_info>
			<input>
				<port id="0" precision="I64">
					<dim>1</dim>
				</port>
				<port id="1" precision="I64">
					<dim>1</dim>
				</port>
				<port id="2" precision="I64">
					<dim>1</dim>
				</port>
				<port id="3" precision="I64">
					<dim>1</dim>
				</port>
			</input>
			<output>
				<port id="4" precision="I64" names="/distilbert/transformer/layer.0/attention/Concat_output_0">
					<dim>4</dim>
				</port>
			</output>
		</layer>
		<layer id="63" name="/distilbert/transformer/layer.0/attention/Reshape" type="Reshape" version="opset1">
			<data special_zero="true" />
			<rt_info>
				<attribute name="fused_names" version="0" value="/distilbert/transformer/layer.0/attention/Reshape" />
			</rt_info>
			<input>
				<port id="0" precision="FP32">
					<dim>-1</dim>
					<dim>-1</dim>
					<dim>32</dim>
				</port>
				<port id="1" precision="I64">
					<dim>4</dim>
				</port>
			</input>
			<output>
				<port id="2" precision="FP32" names="/distilbert/transformer/layer.0/attention/Reshape_output_0">
					<dim>-1</dim>
					<dim>-1</dim>
					<dim>4</dim>
					<dim>8</dim>
				</port>
			</output>
		</layer>
		<layer id="64" name="Constant_4465590" type="Const" version="opset1">
			<data element_type="i64" shape="4" offset="218052" size="32" />
			<rt_info>
				<attribute name="fused_names" version="0" value="Constant_4465590" />
			</rt_info>
			<output>
				<port id="0" precision="I64">
					<dim>4</dim>
				</port>
			</output>
		</layer>
		<layer id="65" name="/distilbert/transformer/layer.0/attention/Transpose" type="Transpose" version="opset1">
			<rt_info>
				<attribute name="fused_names" version="0" value="/distilbert/transformer/layer.0/attention/Transpose" />
			</rt_info>
			<input>
				<port id="0" precision="FP32">
					<dim>-1</dim>
					<dim>-1</dim>
					<dim>4</dim>
					<dim>8</dim>
				</port>
				<port id="1" precision="I64">
					<dim>4</dim>
				</port>
			</input>
			<output>
				<port id="2" precision="FP32" names="/distilbert/transformer/layer.0/attention/Transpose_output_0">
					<dim>-1</dim>
					<dim>4</dim>
					<dim>-1</dim>
					<dim>8</dim>
				</port>
			</output>
		</layer>
		<layer id="66" name="/distilbert/transformer/layer.0/attention/Constant_11" type="Const" version="opset1">
			<data element_type="f32" shape="" offset="218084" size="4" />
			<rt_info>
				<attribute name="fused_names" version="0" value="/distilbert/transformer/layer.0/attention/Constant_11" />
			</rt_info>
			<output>
				<port id="0" precision="FP32" names="/distilbert/transformer/layer.0/attention/Constant_11_output_0" />
			</output>
		</layer>
		<layer id="67" name="/distilbert/transformer/layer.0/attention/Div" type="Divide" version="opset1">
			<data auto_broadcast="numpy" m_pythondiv="true" />
			<rt_info>
				<attribute name="fused_names" version="0" value="/distilbert/transformer/layer.0/attention/Div" />
			</rt_info>
			<input>
				<port id="0" precision="FP32">
					<dim>-1</dim>
					<dim>4</dim>
					<dim>-1</dim>
					<dim>8</dim>
				</port>
				<port id="1" precision="FP32" />
			</input>
			<output>
				<port id="2" precision="FP32" names="/distilbert/transformer/layer.0/attention/Div_output_0">
					<dim>-1</dim>
					<dim>4</dim>
					<dim>-1</dim>
					<dim>8</dim>
				</port>
			</output>
		</layer>
		<layer id="68" name="onnx::MatMul_632" type="Const" version="opset1">
			<data element_type="f32" shape="32, 32" offset="218088" size="4096" />
			<rt_info>
				<attribute name="fused_names" version="0" value="onnx::MatMul_632" />
			</rt_info>
			<output>
				<port id="0" precision="FP32" names="onnx::MatMul_632">
					<dim>32</dim>
					<dim>32</dim>
				</port>
			</output>
		</layer>
		<layer id="69" name="/distilbert/transformer/layer.0/attention/k_lin/MatMul" type="MatMul" version="opset1">
			<data transpose_a="false" transpose_b="false" />
			<rt_info>
				<attribute name="fused_names" version="0" value="/distilbert/transformer/layer.0/attention/k_lin/MatMul" />
			</rt_info>
			<input>
				<port id="0" precision="FP32">
					<dim>-1</dim>
					<dim>-1</dim>
					<dim>32</dim>
				</port>
				<port id="1" precision="FP32">
					<dim>32</dim>
					<dim>32</dim>
				</port>
			</input>
			<output>
				<port id="2" precision="FP32" names="/distilbert/transformer/layer.0/attention/k_lin/MatMul_output_0">
					<dim>-1</dim>
					<dim>-1</dim>
					<dim>32</dim>
				</port>
			</output>
		</layer>
		<layer id="70" name="/distilbert/transformer/layer.0/attention/k_lin/Add" type="Add" version="opset1">
			<data auto_broadcast="numpy" />
			<rt_info>
				<attribute name="fused_names" version="0" value="/distilbert/transformer/layer.0/attention/k_lin/Add" />
			</rt_info>
			<input>
				<port id="0" precision="FP32">
					<dim>32</dim>
				</port>
				<port id="1" precision="FP32">
					<dim>-1</dim>
					<dim>-1</dim>
					<dim>32</dim>
				</port>
			</input>
			<output>
				<port id="2" precision="FP32" names="/distilbert/transformer/layer.0/attention/k_lin/Add_output_0">
					<dim>-1</dim>
					<dim>-1</dim>
					<dim>32</dim>
				</port>
			</output>
		</layer>
		<layer id="71" name="Constant_4465571" type="Const" version="opset1">
			<data element_type="i64" shape="1" offset="276" size="8" />
			<rt_info>
				<attribute name="fused_names" version="0" value="Constant_4465571" />
			</rt_info>
			<output>
				<port id="0" precision="I64">
					<dim>1</dim>
				</port>
			</output>
		</layer>
		<layer id="72" name="/distilbert/transformer/layer.0/attention/Unsqueeze_1" type="Unsqueeze" version="opset1">
			<rt_info>
				<attribute name="fused_names" version="0" value="/distilbert/transformer/layer.0/attention/Unsqueeze_1, Constant_4465571" />
			</rt_info>
			<input>
				<port id="0" precision="I64" />
				<port id="1" precision="I64">
					<dim>1</dim>
				</port>
			</input>
			<output>
				<port id="2" precision="I64" names="/distilbert/transformer/layer.0/attention/Unsqueeze_1_output_0">
					<dim>1</dim>
				</port>
			</output>
		</layer>
		<layer id="73" name="/distilbert/transformer/layer.0/attention/Constant_5" type="Const" version="opset1">
			<data element_type="i64" shape="1" offset="213796" size="8" />
			<rt_info>
				<attribute name="fused_names" version="0" value="/distilbert/transformer/layer.0/attention/Constant_5" />
			</rt_info>
			<output>
				<port id="0" precision="I64" names="/distilbert/transformer/layer.0/attention/Constant_5_output_0">
					<dim>1</dim>
				</port>
			</output>
		</layer>
		<layer id="74" name="/distilbert/transformer/layer.0/attention/Constant_6" type="Const" version="opset1">
			<data element_type="i64" shape="1" offset="218036" size="8" />
			<rt_info>
				<attribute name="fused_names" version="0" value="/distilbert/transformer/layer.0/attention/Constant_6" />
			</rt_info>
			<output>
				<port id="0" precision="I64" names="/distilbert/transformer/layer.0/attention/Constant_6_output_0">
					<dim>1</dim>
				</port>
			</output>
		</layer>
		<layer id="75" name="/distilbert/transformer/layer.0/attention/Constant_7" type="Const" version="opset1">
			<data element_type="i64" shape="1" offset="218044" size="8" />
			<rt_info>
				<attribute name="fused_names" version="0" value="/distilbert/transformer/layer.0/attention/Constant_7" />
			</rt_info>
			<output>
				<port id="0" precision="I64" names="/distilbert/transformer/layer.0/attention/Constant_7_output_0">
					<dim>1</dim>
				</port>
			</output>
		</layer>
		<layer id="76" name="/distilbert/transformer/layer.0/attention/Concat_1" type="Concat" version="opset1">
			<data axis="0" />
			<rt_info>
				<attribute name="fused_names" version="0" value="/distilbert/transformer/layer.0/attention/Concat_1, /distilbert/transformer/layer.0/attention/Constant_5, /distilbert/transformer/layer.0/attention/Constant_6, /distilbert/transformer/layer.0/attention/Constant_7" />
			</rt_info>
			<input>
				<port id="0" precision="I64">
					<dim>1</dim>
				</port>
				<port id="1" precision="I64">
					<dim>1</dim>
				</port>
				<port id="2" precision="I64">
					<dim>1</dim>
				</port>
				<port id="3" precision="I64">
					<dim>1</dim>
				</port>
			</input>
			<output>
				<port id="4" precision="I64" names="/distilbert/transformer/layer.0/attention/Concat_1_output_0">
					<dim>4</dim>
				</port>
			</output>
		</layer>
		<layer id="77" name="/distilbert/transformer/layer.0/attention/Reshape_1" type="Reshape" version="opset1">
			<data special_zero="true" />
			<rt_info>
				<attribute name="fused_names" version="0" value="/distilbert/transformer/layer.0/attention/Reshape_1" />
			</rt_info>
			<input>
				<port id="0" precision="FP32">
					<dim>-1</dim>
					<dim>-1</dim>
					<dim>32</dim>
				</port>
				<port id="1" precision="I64">
					<dim>4</dim>
				</port>
			</input>
			<output>
				<port id="2" precision="FP32" names="/distilbert/transformer/layer.0/attention/Reshape_1_output_0">
					<dim>-1</dim>
					<dim>-1</dim>
					<dim>4</dim>
					<dim>8</dim>
				</port>
			</output>
		</layer>
		<layer id="78" name="Constant_4465614" type="Const" version="opset1">
			<data element_type="i64" shape="4" offset="222184" size="32" />
			<rt_info>
				<attribute name="fused_names" version="0" value="Constant_4465614" />
			</rt_info>
			<output>
				<port id="0" precision="I64">
					<dim>4</dim>
				</port>
			</output>
		</layer>
		<layer id="79" name="/distilbert/transformer/layer.0/attention/Transpose_2" type="Transpose" version="opset1">
			<rt_info>
				<attribute name="fused_names" version="0" value="/distilbert/transformer/layer.0/attention/Transpose_2" />
			</rt_info>
			<input>
				<port id="0" precision="FP32">
					<dim>-1</dim>
					<dim>-1</dim>
					<dim>4</dim>
					<dim>8</dim>
				</port>
				<port id="1" precision="I64">
					<dim>4</dim>
				</port>
			</input>
			<output>
				<port id="2" precision="FP32" names="/distilbert/transformer/layer.0/attention/Transpose_2_output_0">
					<dim>-1</dim>
					<dim>4</dim>
					<dim>8</dim>
					<dim>-1</dim>
				</port>
			</output>
		</layer>
		<layer id="80" name="/distilbert/transformer/layer.0/attention/MatMul" type="MatMul" version="opset1">
			<data transpose_a="false" transpose_b="false" />
			<rt_info>
				<attribute name="fused_names" version="0" value="/distilbert/transformer/layer.0/attention/MatMul" />
			</rt_info>
			<input>
				<port id="0" precision="FP32">
					<dim>-1</dim>
					<dim>4</dim>
					<dim>-1</dim>
					<dim>8</dim>
				</port>
				<port id="1" precision="FP32">
					<dim>-1</dim>
					<dim>4</dim>
					<dim>8</dim>
					<dim>-1</dim>
				</port>
			</input>
			<output>
				<port id="2" precision="FP32" names="/distilbert/transformer/layer.0/attention/MatMul_output_0">
					<dim>-1</dim>
					<dim>4</dim>
					<dim>-1</dim>
					<dim>-1</dim>
				</port>
			</output>
		</layer>
		<layer id="81" name="/distilbert/transformer/layer.0/attention/Shape_2" type="ShapeOf" version="opset3">
			<data output_type="i64" />
			<rt_info>
				<attribute name="fused_names" version="0" value="/distilbert/transformer/layer.0/attention/Shape_2" />
			</rt_info>
			<input>
				<port id="0" precision="FP32">
					<dim>-1</dim>
					<dim>4</dim>
					<dim>-1</dim>
					<dim>-1</dim>
				</port>
			</input>
			<output>
				<port id="1" precision="I64" names="/distilbert/transformer/layer.0/attention/Shape_2_output_0">
					<dim>4</dim>
				</port>
			</output>
		</layer>
		<layer id="82" name="/distilbert/transformer/layer.0/attention/Expand" type="Broadcast" version="opset3">
			<data mode="bidirectional" />
			<rt_info>
				<attribute name="fused_names" version="0" value="/distilbert/transformer/layer.0/attention/Expand" />
			</rt_info>
			<input>
				<port id="0" precision="BOOL">
					<dim>-1</dim>
					<dim>1</dim>
					<dim>1</dim>
					<dim>-1</dim>
				</port>
				<port id="1" precision="I64">
					<dim>4</dim>
				</port>
			</input>
			<output>
				<port id="2" precision="BOOL" names="/distilbert/transformer/layer.0/attention/Expand_output_0">
					<dim>-1</dim>
					<dim>4</dim>
					<dim>-1</dim>
					<dim>-1</dim>
				</port>
			</output>
		</layer>
		<layer id="83" name="/distilbert/transformer/layer.0/attention/Cast" type="Convert" version="opset1">
			<data destination_type="boolean" />
			<rt_info>
				<attribute name="fused_names" version="0" value="/distilbert/transformer/layer.0/attention/Cast" />
			</rt_info>
			<input>
				<port id="0" precision="BOOL">
					<dim>-1</dim>
					<dim>4</dim>
					<dim>-1</dim>
					<dim>-1</dim>
				</port>
			</input>
			<output>
				<port id="1" precision="BOOL" names="/distilbert/transformer/layer.0/attention/Cast_output_0">
					<dim>-1</dim>
					<dim>4</dim>
					<dim>-1</dim>
					<dim>-1</dim>
				</port>
			</output>
		</layer>
		<layer id="84" name="/distilbert/transformer/layer.0/attention/Constant_15" type="Const" version="opset1">
			<data element_type="f32" shape="" offset="222216" size="4" />
			<rt_info>
				<attribute name="fused_names" version="0" value="/distilbert/transformer/layer.0/attention/Constant_15" />
			</rt_info>
			<output>
				<port id="0" precision="FP32" names="/distilbert/transformer/layer.0/attention/Constant_15_output_0" />
			</output>
		</layer>
		<layer id="85" name="/distilbert/transformer/layer.0/attention/Where" type="Select" version="opset1">
			<data auto_broadcast="numpy" />
			<rt_info>
				<attribute name="fused_names" version="0" value="/distilbert/transformer/layer.0/attention/Where" />
			</rt_info>
			<input>
				<port id="0" precision="BOOL">
					<dim>-1</dim>
					<dim>4</dim>
					<dim>-1</dim>
					<dim>-1</dim>
				</port>
				<port id="1" precision="FP32" />
				<port id="2" precision="FP32">
					<dim>-1</dim>
					<dim>4</dim>
					<dim>-1</dim>
					<dim>-1</dim>
				</port>
			</input>
			<output>
				<port id="3" precision="FP32" names="/distilbert/transformer/layer.0/attention/Where_output_0">
					<dim>-1</dim>
					<dim>4</dim>
					<dim>-1</dim>
					<dim>-1</dim>
				</port>
			</output>
		</layer>
		<layer id="86" name="/distilbert/transformer/layer.0/attention/Softmax" type="SoftMax" version="opset8">
			<data axis="3" />
			<rt_info>
				<attribute name="fused_names" version="0" value="/distilbert/transformer/layer.0/attention/Softmax" />
			</rt_info>
			<input>
				<port id="0" precision="FP32">
					<dim>-1</dim>
					<dim>4</dim>
					<dim>-1</dim>
					<dim>-1</dim>
				</port>
			</input>
			<output>
				<port id="1" precision="FP32" names="/distilbert/transformer/layer.0/attention/Softmax_output_0">
					<dim>-1</dim>
					<dim>4</dim>
					<dim>-1</dim>
					<dim>-1</dim>
				</port>
			</output>
		</layer>
		<layer id="87" name="onnx::MatMul_633" type="Const" version="opset1">
			<data element_type="f32" shape="32, 32" offset="222220" size="4096" />
			<rt_info>
				<attribute name="fused_names" version="0" value="onnx::MatMul_633" />
			</rt_info>
			<output>
				<port id="0" precision="FP32" names="onnx::MatMul_633">
					<dim>32</dim>
					<dim>32</dim>
				</port>
			</output>
		</layer>
		<layer id="88" name="/distilbert/transformer/layer.0/attention/v_lin/MatMul" type="MatMul" version="opset1">
			<data transpose_a="false" transpose_b="false" />
			<rt_info>
				<attribute name="fused_names" version="0" value="/distilbert/transformer/layer.0/attention/v_lin/MatMul" />
			</rt_info>
			<input>
				<port id="0" precision="FP32">
					<dim>-1</dim>
					<dim>-1</dim>
					<dim>32</dim>
				</port>
				<port id="1" precision="FP32">
					<dim>32</dim>
					<dim>32</dim>
				</port>
			</input>
			<output>
				<port id="2" precision="FP32" names="/distilbert/transformer/layer.0/attention/v_lin/MatMul_output_0">
					<dim>-1</dim>
					<dim>-1</dim>
					<dim>32</dim>
				</port>
			</output>
		</layer>
		<layer id="89" name="/distilbert/transformer/layer.0/attention/v_lin/Add" type="Add" version="opset1">
			<data auto_broadcast="numpy" />
			<rt_info>
				<attribute name="fused_names" version="0" value="/distilbert/transformer/layer.0/attention/v_lin/Add" />
			</rt_info>
			<input>
				<port id="0" precision="FP32">
					<dim>32</dim>
				</port>
				<port id="1" precision="FP32">
					<dim>-1</dim>
					<dim>-1</dim>
					<dim>32</dim>
				</port>
			</input>
			<output>
				<port id="2" precision="FP32" names="/distilbert/transformer/layer.0/attention/v_lin/Add_output_0">
					<dim>-1</dim>
					<dim>-1</dim>
					<dim>32</dim>
				</port>
			</output>
		</layer>
		<layer id="90" name="Constant_4465577" type="Const" version="opset1">
			<data element_type="i64" shape="1" offset="276" size="8" />
			<rt_info>
				<attribute name="fused_names" version="0" value="Constant_4465577" />
			</rt_info>
			<output>
				<port id="0" precision="I64">
					<dim>1</dim>
				</port>
			</output>
		</layer>
		<layer id="91" name="/distilbert/transformer/layer.0/attention/Unsqueeze_2" type="Unsqueeze" version="opset1">
			<rt_info>
				<attribute name="fused_names" version="0" value="/distilbert/transformer/layer.0/attention/Unsqueeze_2, Constant_4465577" />
			</rt_info>
			<input>
				<port id="0" precision="I64" />
				<port id="1" precision="I64">
					<dim>1</dim>
				</port>
			</input>
			<output>
				<port id="2" precision="I64" names="/distilbert/transformer/layer.0/attention/Unsqueeze_2_output_0">
					<dim>1</dim>
				</port>
			</output>
		</layer>
		<layer id="92" name="/distilbert/transformer/layer.0/attention/Constant_8" type="Const" version="opset1">
			<data element_type="i64" shape="1" offset="213796" size="8" />
			<rt_info>
				<attribute name="fused_names" version="0" value="/distilbert/transformer/layer.0/attention/Constant_8" />
			</rt_info>
			<output>
				<port id="0" precision="I64" names="/distilbert/transformer/layer.0/attention/Constant_8_output_0">
					<dim>1</dim>
				</port>
			</output>
		</layer>
		<layer id="93" name="/distilbert/transformer/layer.0/attention/Constant_9" type="Const" version="opset1">
			<data element_type="i64" shape="1" offset="218036" size="8" />
			<rt_info>
				<attribute name="fused_names" version="0" value="/distilbert/transformer/layer.0/attention/Constant_9" />
			</rt_info>
			<output>
				<port id="0" precision="I64" names="/distilbert/transformer/layer.0/attention/Constant_9_output_0">
					<dim>1</dim>
				</port>
			</output>
		</layer>
		<layer id="94" name="/distilbert/transformer/layer.0/attention/Constant_10" type="Const" version="opset1">
			<data element_type="i64" shape="1" offset="218044" size="8" />
			<rt_info>
				<attribute name="fused_names" version="0" value="/distilbert/transformer/layer.0/attention/Constant_10" />
			</rt_info>
			<output>
				<port id="0" precision="I64" names="/distilbert/transformer/layer.0/attention/Constant_10_output_0">
					<dim>1</dim>
				</port>
			</output>
		</layer>
		<layer id="95" name="/distilbert/transformer/layer.0/attention/Concat_2" type="Concat" version="opset1">
			<data axis="0" />
			<rt_info>
				<attribute name="fused_names" version="0" value="/distilbert/transformer/layer.0/attention/Concat_2, /distilbert/transformer/layer.0/attention/Constant_10, /distilbert/transformer/layer.0/attention/Constant_8, /distilbert/transformer/layer.0/attention/Constant_9" />
			</rt_info>
			<input>
				<port id="0" precision="I64">
					<dim>1</dim>
				</port>
				<port id="1" precision="I64">
					<dim>1</dim>
				</port>
				<port id="2" precision="I64">
					<dim>1</dim>
				</port>
				<port id="3" precision="I64">
					<dim>1</dim>
				</port>
			</input>
			<output>
				<port id="4" precision="I64" names="/distilbert/transformer/layer.0/attention/Concat_2_output_0">
					<dim>4</dim>
				</port>
			</output>
		</layer>
		<layer id="96" name="/distilbert/transformer/layer.0/attention/Reshape_2" type="Reshape" version="opset1">
			<data special_zero="true" />
			<rt_info>
				<attribute name="fused_names" version="0" value="/distilbert/transformer/layer.0/attention/Reshape_2" />
			</rt_info>
			<input>
				<port id="0" precision="FP32">
					<dim>-1</dim>
					<dim>-1</dim>
					<dim>32</dim>
				</port>
				<port id="1" precision="I64">
					<dim>4</dim>
				</port>
			</input>
			<output>
				<port id="2" precision="FP32" names="/distilbert/transformer/layer.0/attention/Reshape_2_output_0">
					<dim>-1</dim>
					<dim>-1</dim>
					<dim>4</dim>
					<dim>8</dim>
				</port>
			</output>
		</layer>
		<layer id="97" name="Constant_4465610" type="Const" version="opset1">
			<data element_type="i64" shape="4" offset="218052" size="32" />
			<rt_info>
				<attribute name="fused_names" version="0" value="Constant_4465610" />
			</rt_info>
			<output>
				<port id="0" precision="I64">
					<dim>4</dim>
				</port>
			</output>
		</layer>
		<layer id="98" name="/distilbert/transformer/layer.0/attention/Transpose_1" type="Transpose" version="opset1">
			<rt_info>
				<attribute name="fused_names" version="0" value="/distilbert/transformer/layer.0/attention/Transpose_1" />
			</rt_info>
			<input>
				<port id="0" precision="FP32">
					<dim>-1</dim>
					<dim>-1</dim>
					<dim>4</dim>
					<dim>8</dim>
				</port>
				<port id="1" precision="I64">
					<dim>4</dim>
				</port>
			</input>
			<output>
				<port id="2" precision="FP32" names="/distilbert/transformer/layer.0/attention/Transpose_1_output_0">
					<dim>-1</dim>
					<dim>4</dim>
					<dim>-1</dim>
					<dim>8</dim>
				</port>
			</output>
		</layer>
		<layer id="99" name="/distilbert/transformer/layer.0/attention/MatMul_1" type="MatMul" version="opset1">
			<data transpose_a="false" transpose_b="false" />
			<rt_info>
				<attribute name="fused_names" version="0" value="/distilbert/transformer/layer.0/attention/MatMul_1" />
			</rt_info>
			<input>
				<port id="0" precision="FP32">
					<dim>-1</dim>
					<dim>4</dim>
					<dim>-1</dim>
					<dim>-1</dim>
				</port>
				<port id="1" precision="FP32">
					<dim>-1</dim>
					<dim>4</dim>
					<dim>-1</dim>
					<dim>8</dim>
				</port>
			</input>
			<output>
				<port id="2" precision="FP32" names="/distilbert/transformer/layer.0/attention/MatMul_1_output_0">
					<dim>-1</dim>
					<dim>4</dim>
					<dim>-1</dim>
					<dim>8</dim>
				</port>
			</output>
		</layer>
		<layer id="100" name="Constant_4465650" type="Const" version="opset1">
			<data element_type="i64" shape="4" offset="218052" size="32" />
			<rt_info>
				<attribute name="fused_names" version="0" value="Constant_4465650" />
			</rt_info>
			<output>
				<port id="0" precision="I64">
					<dim>4</dim>
				</port>
			</output>
		</layer>
		<layer id="101" name="/distilbert/transformer/layer.0/attention/Transpose_3" type="Transpose" version="opset1">
			<rt_info>
				<attribute name="fused_names" version="0" value="/distilbert/transformer/layer.0/attention/Transpose_3" />
			</rt_info>
			<input>
				<port id="0" precision="FP32">
					<dim>-1</dim>
					<dim>4</dim>
					<dim>-1</dim>
					<dim>8</dim>
				</port>
				<port id="1" precision="I64">
					<dim>4</dim>
				</port>
			</input>
			<output>
				<port id="2" precision="FP32" names="/distilbert/transformer/layer.0/attention/Transpose_3_output_0">
					<dim>-1</dim>
					<dim>-1</dim>
					<dim>4</dim>
					<dim>8</dim>
				</port>
			</output>
		</layer>
		<layer id="102" name="Constant_4465652" type="Const" version="opset1">
			<data element_type="i64" shape="1" offset="276" size="8" />
			<rt_info>
				<attribute name="fused_names" version="0" value="Constant_4465652" />
			</rt_info>
			<output>
				<port id="0" precision="I64">
					<dim>1</dim>
				</port>
			</output>
		</layer>
		<layer id="103" name="/distilbert/transformer/layer.0/attention/Unsqueeze_5" type="Unsqueeze" version="opset1">
			<rt_info>
				<attribute name="fused_names" version="0" value="/distilbert/transformer/layer.0/attention/Unsqueeze_5, Constant_4465652" />
			</rt_info>
			<input>
				<port id="0" precision="I64" />
				<port id="1" precision="I64">
					<dim>1</dim>
				</port>
			</input>
			<output>
				<port id="2" precision="I64" names="/distilbert/transformer/layer.0/attention/Unsqueeze_5_output_0">
					<dim>1</dim>
				</port>
			</output>
		</layer>
		<layer id="104" name="/distilbert/transformer/layer.0/attention/Constant_16" type="Const" version="opset1">
			<data element_type="i64" shape="1" offset="213796" size="8" />
			<rt_info>
				<attribute name="fused_names" version="0" value="/distilbert/transformer/layer.0/attention/Constant_16" />
			</rt_info>
			<output>
				<port id="0" precision="I64" names="/distilbert/transformer/layer.0/attention/Constant_16_output_0">
					<dim>1</dim>
				</port>
			</output>
		</layer>
		<layer id="105" name="/distilbert/transformer/layer.0/attention/Constant_17" type="Const" version="opset1">
			<data element_type="i64" shape="1" offset="226316" size="8" />
			<rt_info>
				<attribute name="fused_names" version="0" value="/distilbert/transformer/layer.0/attention/Constant_17" />
			</rt_info>
			<output>
				<port id="0" precision="I64" names="/distilbert/transformer/layer.0/attention/Constant_17_output_0">
					<dim>1</dim>
				</port>
			</output>
		</layer>
		<layer id="106" name="/distilbert/transformer/layer.0/attention/Concat_4" type="Concat" version="opset1">
			<data axis="0" />
			<rt_info>
				<attribute name="fused_names" version="0" value="/distilbert/transformer/layer.0/attention/Concat_4, /distilbert/transformer/layer.0/attention/Constant_16, /distilbert/transformer/layer.0/attention/Constant_17" />
			</rt_info>
			<input>
				<port id="0" precision="I64">
					<dim>1</dim>
				</port>
				<port id="1" precision="I64">
					<dim>1</dim>
				</port>
				<port id="2" precision="I64">
					<dim>1</dim>
				</port>
			</input>
			<output>
				<port id="3" precision="I64" names="/distilbert/transformer/layer.0/attention/Concat_4_output_0">
					<dim>3</dim>
				</port>
			</output>
		</layer>
		<layer id="107" name="/distilbert/transformer/layer.0/attention/Reshape_4" type="Reshape" version="opset1">
			<data special_zero="true" />
			<rt_info>
				<attribute name="fused_names" version="0" value="/distilbert/transformer/layer.0/attention/Reshape_4" />
			</rt_info>
			<input>
				<port id="0" precision="FP32">
					<dim>-1</dim>
					<dim>-1</dim>
					<dim>4</dim>
					<dim>8</dim>
				</port>
				<port id="1" precision="I64">
					<dim>3</dim>
				</port>
			</input>
			<output>
				<port id="2" precision="FP32" names="/distilbert/transformer/layer.0/attention/Reshape_4_output_0">
					<dim>-1</dim>
					<dim>-1</dim>
					<dim>32</dim>
				</port>
			</output>
		</layer>
		<layer id="108" name="onnx::MatMul_638" type="Const" version="opset1">
			<data element_type="f32" shape="32, 32" offset="226324" size="4096" />
			<rt_info>
				<attribute name="fused_names" version="0" value="onnx::MatMul_638" />
			</rt_info>
			<output>
				<port id="0" precision="FP32" names="onnx::MatMul_638">
					<dim>32</dim>
					<dim>32</dim>
				</port>
			</output>
		</layer>
		<layer id="109" name="/distilbert/transformer/layer.0/attention/out_lin/MatMul" type="MatMul" version="opset1">
			<data transpose_a="false" transpose_b="false" />
			<rt_info>
				<attribute name="fused_names" version="0" value="/distilbert/transformer/layer.0/attention/out_lin/MatMul" />
			</rt_info>
			<input>
				<port id="0" precision="FP32">
					<dim>-1</dim>
					<dim>-1</dim>
					<dim>32</dim>
				</port>
				<port id="1" precision="FP32">
					<dim>32</dim>
					<dim>32</dim>
				</port>
			</input>
			<output>
				<port id="2" precision="FP32" names="/distilbert/transformer/layer.0/attention/out_lin/MatMul_output_0">
					<dim>-1</dim>
					<dim>-1</dim>
					<dim>32</dim>
				</port>
			</output>
		</layer>
		<layer id="110" name="/distilbert/transformer/layer.0/attention/out_lin/Add" type="Add" version="opset1">
			<data auto_broadcast="numpy" />
			<rt_info>
				<attribute name="fused_names" version="0" value="/distilbert/transformer/layer.0/attention/out_lin/Add" />
			</rt_info>
			<input>
				<port id="0" precision="FP32">
					<dim>32</dim>
				</port>
				<port id="1" precision="FP32">
					<dim>-1</dim>
					<dim>-1</dim>
					<dim>32</dim>
				</port>
			</input>
			<output>
				<port id="2" precision="FP32" names="/distilbert/transformer/layer.0/attention/out_lin/Add_output_0">
					<dim>-1</dim>
					<dim>-1</dim>
					<dim>32</dim>
				</port>
			</output>
		</layer>
		<layer id="111" name="/distilbert/transformer/layer.0/Add" type="Add" version="opset1">
			<data auto_broadcast="numpy" />
			<rt_info>
				<attribute name="fused_names" version="0" value="/distilbert/transformer/layer.0/Add" />
			</rt_info>
			<input>
				<port id="0" precision="FP32">
					<dim>-1</dim>
					<dim>-1</dim>
					<dim>32</dim>
				</port>
				<port id="1" precision="FP32">
					<dim>-1</dim>
					<dim>-1</dim>
					<dim>32</dim>
				</port>
			</input>
			<output>
				<port id="2" precision="FP32" names="/distilbert/transformer/layer.0/Add_output_0">
					<dim>-1</dim>
					<dim>-1</dim>
					<dim>32</dim>
				</port>
			</output>
		</layer>
		<layer id="112" name="Constant_4465667" type="Const" version="opset1">
			<data element_type="i64" shape="1" offset="213796" size="8" />
			<rt_info>
				<attribute name="fused_names" version="0" value="Constant_4465667" />
			</rt_info>
			<output>
				<port id="0" precision="I64">
					<dim>1</dim>
				</port>
			</output>
		</layer>
		<layer id="113" name="/distilbert/transformer/layer.0/sa_layer_norm/ReduceMean" type="ReduceMean" version="opset1">
			<data keep_dims="true" />
			<rt_info>
				<attribute name="fused_names" version="0" value="/distilbert/transformer/layer.0/sa_layer_norm/ReduceMean" />
			</rt_info>
			<input>
				<port id="0" precision="FP32">
					<dim>-1</dim>
					<dim>-1</dim>
					<dim>32</dim>
				</port>
				<port id="1" precision="I64">
					<dim>1</dim>
				</port>
			</input>
			<output>
				<port id="2" precision="FP32" names="/distilbert/transformer/layer.0/sa_layer_norm/ReduceMean_output_0">
					<dim>-1</dim>
					<dim>-1</dim>
					<dim>1</dim>
				</port>
			</output>
		</layer>
		<layer id="114" name="/distilbert/transformer/layer.0/sa_layer_norm/Sub" type="Subtract" version="opset1">
			<data auto_broadcast="numpy" />
			<rt_info>
				<attribute name="fused_names" version="0" value="/distilbert/transformer/layer.0/sa_layer_norm/Sub" />
			</rt_info>
			<input>
				<port id="0" precision="FP32">
					<dim>-1</dim>
					<dim>-1</dim>
					<dim>32</dim>
				</port>
				<port id="1" precision="FP32">
					<dim>-1</dim>
					<dim>-1</dim>
					<dim>1</dim>
				</port>
			</input>
			<output>
				<port id="2" precision="FP32" names="/distilbert/transformer/layer.0/sa_layer_norm/Sub_output_0">
					<dim>-1</dim>
					<dim>-1</dim>
					<dim>32</dim>
				</port>
			</output>
		</layer>
		<layer id="115" name="/distilbert/transformer/layer.0/sa_layer_norm/Constant" type="Const" version="opset1">
			<data element_type="f32" shape="" offset="213804" size="4" />
			<rt_info>
				<attribute name="fused_names" version="0" value="/distilbert/transformer/layer.0/sa_layer_norm/Constant" />
			</rt_info>
			<output>
				<port id="0" precision="FP32" names="/distilbert/transformer/layer.0/sa_layer_norm/Constant_output_0" />
			</output>
		</layer>
		<layer id="116" name="/distilbert/transformer/layer.0/sa_layer_norm/Pow" type="Power" version="opset1">
			<data auto_broadcast="numpy" />
			<rt_info>
				<attribute name="fused_names" version="0" value="/distilbert/transformer/layer.0/sa_layer_norm/Pow" />
			</rt_info>
			<input>
				<port id="0" precision="FP32">
					<dim>-1</dim>
					<dim>-1</dim>
					<dim>32</dim>
				</port>
				<port id="1" precision="FP32" />
			</input>
			<output>
				<port id="2" precision="FP32" names="/distilbert/transformer/layer.0/sa_layer_norm/Pow_output_0">
					<dim>-1</dim>
					<dim>-1</dim>
					<dim>32</dim>
				</port>
			</output>
		</layer>
		<layer id="117" name="Constant_4465672" type="Const" version="opset1">
			<data element_type="i64" shape="1" offset="213796" size="8" />
			<rt_info>
				<attribute name="fused_names" version="0" value="Constant_4465672" />
			</rt_info>
			<output>
				<port id="0" precision="I64">
					<dim>1</dim>
				</port>
			</output>
		</layer>
		<layer id="118" name="/distilbert/transformer/layer.0/sa_layer_norm/ReduceMean_1" type="ReduceMean" version="opset1">
			<data keep_dims="true" />
			<rt_info>
				<attribute name="fused_names" version="0" value="/distilbert/transformer/layer.0/sa_layer_norm/ReduceMean_1" />
			</rt_info>
			<input>
				<port id="0" precision="FP32">
					<dim>-1</dim>
					<dim>-1</dim>
					<dim>32</dim>
				</port>
				<port id="1" precision="I64">
					<dim>1</dim>
				</port>
			</input>
			<output>
				<port id="2" precision="FP32" names="/distilbert/transformer/layer.0/sa_layer_norm/ReduceMean_1_output_0">
					<dim>-1</dim>
					<dim>-1</dim>
					<dim>1</dim>
				</port>
			</output>
		</layer>
		<layer id="119" name="/distilbert/transformer/layer.0/sa_layer_norm/Constant_1" type="Const" version="opset1">
			<data element_type="f32" shape="" offset="213808" size="4" />
			<rt_info>
				<attribute name="fused_names" version="0" value="/distilbert/transformer/layer.0/sa_layer_norm/Constant_1" />
			</rt_info>
			<output>
				<port id="0" precision="FP32" names="/distilbert/transformer/layer.0/sa_layer_norm/Constant_1_output_0" />
			</output>
		</layer>
		<layer id="120" name="/distilbert/transformer/layer.0/sa_layer_norm/Add" type="Add" version="opset1">
			<data auto_broadcast="numpy" />
			<rt_info>
				<attribute name="fused_names" version="0" value="/distilbert/transformer/layer.0/sa_layer_norm/Add" />
			</rt_info>
			<input>
				<port id="0" precision="FP32">
					<dim>-1</dim>
					<dim>-1</dim>
					<dim>1</dim>
				</port>
				<port id="1" precision="FP32" />
			</input>
			<output>
				<port id="2" precision="FP32" names="/distilbert/transformer/layer.0/sa_layer_norm/Add_output_0">
					<dim>-1</dim>
					<dim>-1</dim>
					<dim>1</dim>
				</port>
			</output>
		</layer>
		<layer id="121" name="/distilbert/transformer/layer.0/sa_layer_norm/Sqrt" type="Sqrt" version="opset1">
			<rt_info>
				<attribute name="fused_names" version="0" value="/distilbert/transformer/layer.0/sa_layer_norm/Sqrt" />
			</rt_info>
			<input>
				<port id="0" precision="FP32">
					<dim>-1</dim>
					<dim>-1</dim>
					<dim>1</dim>
				</port>
			</input>
			<output>
				<port id="1" precision="FP32" names="/distilbert/transformer/layer.0/sa_layer_norm/Sqrt_output_0">
					<dim>-1</dim>
					<dim>-1</dim>
					<dim>1</dim>
				</port>
			</output>
		</layer>
		<layer id="122" name="/distilbert/transformer/layer.0/sa_layer_norm/Div" type="Divide" version="opset1">
			<data auto_broadcast="numpy" m_pythondiv="true" />
			<rt_info>
				<attribute name="fused_names" version="0" value="/distilbert/transformer/layer.0/sa_layer_norm/Div" />
			</rt_info>
			<input>
				<port id="0" precision="FP32">
					<dim>-1</dim>
					<dim>-1</dim>
					<dim>32</dim>
				</port>
				<port id="1" precision="FP32">
					<dim>-1</dim>
					<dim>-1</dim>
					<dim>1</dim>
				</port>
			</input>
			<output>
				<port id="2" precision="FP32" names="/distilbert/transformer/layer.0/sa_layer_norm/Div_output_0">
					<dim>-1</dim>
					<dim>-1</dim>
					<dim>32</dim>
				</port>
			</output>
		</layer>
		<layer id="123" name="/distilbert/transformer/layer.0/sa_layer_norm/Mul" type="Multiply" version="opset1">
			<data auto_broadcast="numpy" />
			<rt_info>
				<attribute name="fused_names" version="0" value="/distilbert/transformer/layer.0/sa_layer_norm/Mul" />
			</rt_info>
			<input>
				<port id="0" precision="FP32">
					<dim>-1</dim>
					<dim>-1</dim>
					<dim>32</dim>
				</port>
				<port id="1" precision="FP32">
					<dim>32</dim>
				</port>
			</input>
			<output>
				<port id="2" precision="FP32" names="/distilbert/transformer/layer.0/sa_layer_norm/Mul_output_0">
					<dim>-1</dim>
					<dim>-1</dim>
					<dim>32</dim>
				</port>
			</output>
		</layer>
		<layer id="124" name="/distilbert/transformer/layer.0/sa_layer_norm/Add_1" type="Add" version="opset1">
			<data auto_broadcast="numpy" />
			<rt_info>
				<attribute name="fused_names" version="0" value="/distilbert/transformer/layer.0/sa_layer_norm/Add_1" />
			</rt_info>
			<input>
				<port id="0" precision="FP32">
					<dim>-1</dim>
					<dim>-1</dim>
					<dim>32</dim>
				</port>
				<port id="1" precision="FP32">
					<dim>32</dim>
				</port>
			</input>
			<output>
				<port id="2" precision="FP32" names="/distilbert/transformer/layer.0/sa_layer_norm/Add_1_output_0">
					<dim>-1</dim>
					<dim>-1</dim>
					<dim>32</dim>
				</port>
			</output>
		</layer>
		<layer id="125" name="onnx::MatMul_639" type="Const" version="opset1">
			<data element_type="f32" shape="32, 37" offset="230420" size="4736" />
			<rt_info>
				<attribute name="fused_names" version="0" value="onnx::MatMul_639" />
			</rt_info>
			<output>
				<port id="0" precision="FP32" names="onnx::MatMul_639">
					<dim>32</dim>
					<dim>37</dim>
				</port>
			</output>
		</layer>
		<layer id="126" name="/distilbert/transformer/layer.0/ffn/lin1/MatMul" type="MatMul" version="opset1">
			<data transpose_a="false" transpose_b="false" />
			<rt_info>
				<attribute name="fused_names" version="0" value="/distilbert/transformer/layer.0/ffn/lin1/MatMul" />
			</rt_info>
			<input>
				<port id="0" precision="FP32">
					<dim>-1</dim>
					<dim>-1</dim>
					<dim>32</dim>
				</port>
				<port id="1" precision="FP32">
					<dim>32</dim>
					<dim>37</dim>
				</port>
			</input>
			<output>
				<port id="2" precision="FP32" names="/distilbert/transformer/layer.0/ffn/lin1/MatMul_output_0">
					<dim>-1</dim>
					<dim>-1</dim>
					<dim>37</dim>
				</port>
			</output>
		</layer>
		<layer id="127" name="/distilbert/transformer/layer.0/ffn/lin1/Add" type="Add" version="opset1">
			<data auto_broadcast="numpy" />
			<rt_info>
				<attribute name="fused_names" version="0" value="/distilbert/transformer/layer.0/ffn/lin1/Add" />
			</rt_info>
			<input>
				<port id="0" precision="FP32">
					<dim>37</dim>
				</port>
				<port id="1" precision="FP32">
					<dim>-1</dim>
					<dim>-1</dim>
					<dim>37</dim>
				</port>
			</input>
			<output>
				<port id="2" precision="FP32" names="/distilbert/transformer/layer.0/ffn/lin1/Add_output_0">
					<dim>-1</dim>
					<dim>-1</dim>
					<dim>37</dim>
				</port>
			</output>
		</layer>
		<layer id="128" name="/distilbert/transformer/layer.0/ffn/activation/Constant" type="Const" version="opset1">
			<data element_type="f32" shape="" offset="235156" size="4" />
			<rt_info>
				<attribute name="fused_names" version="0" value="/distilbert/transformer/layer.0/ffn/activation/Constant" />
			</rt_info>
			<output>
				<port id="0" precision="FP32" names="/distilbert/transformer/layer.0/ffn/activation/Constant_output_0" />
			</output>
		</layer>
		<layer id="129" name="/distilbert/transformer/layer.0/ffn/activation/Div" type="Divide" version="opset1">
			<data auto_broadcast="numpy" m_pythondiv="true" />
			<rt_info>
				<attribute name="fused_names" version="0" value="/distilbert/transformer/layer.0/ffn/activation/Div" />
			</rt_info>
			<input>
				<port id="0" precision="FP32">
					<dim>-1</dim>
					<dim>-1</dim>
					<dim>37</dim>
				</port>
				<port id="1" precision="FP32" />
			</input>
			<output>
				<port id="2" precision="FP32" names="/distilbert/transformer/layer.0/ffn/activation/Div_output_0">
					<dim>-1</dim>
					<dim>-1</dim>
					<dim>37</dim>
				</port>
			</output>
		</layer>
		<layer id="130" name="/distilbert/transformer/layer.0/ffn/activation/Erf" type="Erf" version="opset1">
			<rt_info>
				<attribute name="fused_names" version="0" value="/distilbert/transformer/layer.0/ffn/activation/Erf" />
			</rt_info>
			<input>
				<port id="0" precision="FP32">
					<dim>-1</dim>
					<dim>-1</dim>
					<dim>37</dim>
				</port>
			</input>
			<output>
				<port id="1" precision="FP32" names="/distilbert/transformer/layer.0/ffn/activation/Erf_output_0">
					<dim>-1</dim>
					<dim>-1</dim>
					<dim>37</dim>
				</port>
			</output>
		</layer>
		<layer id="131" name="/distilbert/transformer/layer.0/ffn/activation/Constant_1" type="Const" version="opset1">
			<data element_type="f32" shape="" offset="235160" size="4" />
			<rt_info>
				<attribute name="fused_names" version="0" value="/distilbert/transformer/layer.0/ffn/activation/Constant_1" />
			</rt_info>
			<output>
				<port id="0" precision="FP32" names="/distilbert/transformer/layer.0/ffn/activation/Constant_1_output_0" />
			</output>
		</layer>
		<layer id="132" name="/distilbert/transformer/layer.0/ffn/activation/Add" type="Add" version="opset1">
			<data auto_broadcast="numpy" />
			<rt_info>
				<attribute name="fused_names" version="0" value="/distilbert/transformer/layer.0/ffn/activation/Add" />
			</rt_info>
			<input>
				<port id="0" precision="FP32">
					<dim>-1</dim>
					<dim>-1</dim>
					<dim>37</dim>
				</port>
				<port id="1" precision="FP32" />
			</input>
			<output>
				<port id="2" precision="FP32" names="/distilbert/transformer/layer.0/ffn/activation/Add_output_0">
					<dim>-1</dim>
					<dim>-1</dim>
					<dim>37</dim>
				</port>
			</output>
		</layer>
		<layer id="133" name="/distilbert/transformer/layer.0/ffn/activation/Mul" type="Multiply" version="opset1">
			<data auto_broadcast="numpy" />
			<rt_info>
				<attribute name="fused_names" version="0" value="/distilbert/transformer/layer.0/ffn/activation/Mul" />
			</rt_info>
			<input>
				<port id="0" precision="FP32">
					<dim>-1</dim>
					<dim>-1</dim>
					<dim>37</dim>
				</port>
				<port id="1" precision="FP32">
					<dim>-1</dim>
					<dim>-1</dim>
					<dim>37</dim>
				</port>
			</input>
			<output>
				<port id="2" precision="FP32" names="/distilbert/transformer/layer.0/ffn/activation/Mul_output_0">
					<dim>-1</dim>
					<dim>-1</dim>
					<dim>37</dim>
				</port>
			</output>
		</layer>
		<layer id="134" name="/distilbert/transformer/layer.0/ffn/activation/Constant_2" type="Const" version="opset1">
			<data element_type="f32" shape="" offset="235164" size="4" />
			<rt_info>
				<attribute name="fused_names" version="0" value="/distilbert/transformer/layer.0/ffn/activation/Constant_2" />
			</rt_info>
			<output>
				<port id="0" precision="FP32" names="/distilbert/transformer/layer.0/ffn/activation/Constant_2_output_0" />
			</output>
		</layer>
		<layer id="135" name="/distilbert/transformer/layer.0/ffn/activation/Mul_1" type="Multiply" version="opset1">
			<data auto_broadcast="numpy" />
			<rt_info>
				<attribute name="fused_names" version="0" value="/distilbert/transformer/layer.0/ffn/activation/Mul_1" />
			</rt_info>
			<input>
				<port id="0" precision="FP32">
					<dim>-1</dim>
					<dim>-1</dim>
					<dim>37</dim>
				</port>
				<port id="1" precision="FP32" />
			</input>
			<output>
				<port id="2" precision="FP32" names="/distilbert/transformer/layer.0/ffn/activation/Mul_1_output_0">
					<dim>-1</dim>
					<dim>-1</dim>
					<dim>37</dim>
				</port>
			</output>
		</layer>
		<layer id="136" name="onnx::MatMul_640" type="Const" version="opset1">
			<data element_type="f32" shape="37, 32" offset="235168" size="4736" />
			<rt_info>
				<attribute name="fused_names" version="0" value="onnx::MatMul_640" />
			</rt_info>
			<output>
				<port id="0" precision="FP32" names="onnx::MatMul_640">
					<dim>37</dim>
					<dim>32</dim>
				</port>
			</output>
		</layer>
		<layer id="137" name="/distilbert/transformer/layer.0/ffn/lin2/MatMul" type="MatMul" version="opset1">
			<data transpose_a="false" transpose_b="false" />
			<rt_info>
				<attribute name="fused_names" version="0" value="/distilbert/transformer/layer.0/ffn/lin2/MatMul" />
			</rt_info>
			<input>
				<port id="0" precision="FP32">
					<dim>-1</dim>
					<dim>-1</dim>
					<dim>37</dim>
				</port>
				<port id="1" precision="FP32">
					<dim>37</dim>
					<dim>32</dim>
				</port>
			</input>
			<output>
				<port id="2" precision="FP32" names="/distilbert/transformer/layer.0/ffn/lin2/MatMul_output_0">
					<dim>-1</dim>
					<dim>-1</dim>
					<dim>32</dim>
				</port>
			</output>
		</layer>
		<layer id="138" name="/distilbert/transformer/layer.0/ffn/lin2/Add" type="Add" version="opset1">
			<data auto_broadcast="numpy" />
			<rt_info>
				<attribute name="fused_names" version="0" value="/distilbert/transformer/layer.0/ffn/lin2/Add" />
			</rt_info>
			<input>
				<port id="0" precision="FP32">
					<dim>32</dim>
				</port>
				<port id="1" precision="FP32">
					<dim>-1</dim>
					<dim>-1</dim>
					<dim>32</dim>
				</port>
			</input>
			<output>
				<port id="2" precision="FP32" names="/distilbert/transformer/layer.0/ffn/lin2/Add_output_0">
					<dim>-1</dim>
					<dim>-1</dim>
					<dim>32</dim>
				</port>
			</output>
		</layer>
		<layer id="139" name="/distilbert/transformer/layer.0/Add_1" type="Add" version="opset1">
			<data auto_broadcast="numpy" />
			<rt_info>
				<attribute name="fused_names" version="0" value="/distilbert/transformer/layer.0/Add_1" />
			</rt_info>
			<input>
				<port id="0" precision="FP32">
					<dim>-1</dim>
					<dim>-1</dim>
					<dim>32</dim>
				</port>
				<port id="1" precision="FP32">
					<dim>-1</dim>
					<dim>-1</dim>
					<dim>32</dim>
				</port>
			</input>
			<output>
				<port id="2" precision="FP32" names="/distilbert/transformer/layer.0/Add_1_output_0">
					<dim>-1</dim>
					<dim>-1</dim>
					<dim>32</dim>
				</port>
			</output>
		</layer>
		<layer id="140" name="Constant_4465693" type="Const" version="opset1">
			<data element_type="i64" shape="1" offset="213796" size="8" />
			<rt_info>
				<attribute name="fused_names" version="0" value="Constant_4465693" />
			</rt_info>
			<output>
				<port id="0" precision="I64">
					<dim>1</dim>
				</port>
			</output>
		</layer>
		<layer id="141" name="/distilbert/transformer/layer.0/output_layer_norm/ReduceMean" type="ReduceMean" version="opset1">
			<data keep_dims="true" />
			<rt_info>
				<attribute name="fused_names" version="0" value="/distilbert/transformer/layer.0/output_layer_norm/ReduceMean" />
			</rt_info>
			<input>
				<port id="0" precision="FP32">
					<dim>-1</dim>
					<dim>-1</dim>
					<dim>32</dim>
				</port>
				<port id="1" precision="I64">
					<dim>1</dim>
				</port>
			</input>
			<output>
				<port id="2" precision="FP32" names="/distilbert/transformer/layer.0/output_layer_norm/ReduceMean_output_0">
					<dim>-1</dim>
					<dim>-1</dim>
					<dim>1</dim>
				</port>
			</output>
		</layer>
		<layer id="142" name="/distilbert/transformer/layer.0/output_layer_norm/Sub" type="Subtract" version="opset1">
			<data auto_broadcast="numpy" />
			<rt_info>
				<attribute name="fused_names" version="0" value="/distilbert/transformer/layer.0/output_layer_norm/Sub" />
			</rt_info>
			<input>
				<port id="0" precision="FP32">
					<dim>-1</dim>
					<dim>-1</dim>
					<dim>32</dim>
				</port>
				<port id="1" precision="FP32">
					<dim>-1</dim>
					<dim>-1</dim>
					<dim>1</dim>
				</port>
			</input>
			<output>
				<port id="2" precision="FP32" names="/distilbert/transformer/layer.0/output_layer_norm/Sub_output_0">
					<dim>-1</dim>
					<dim>-1</dim>
					<dim>32</dim>
				</port>
			</output>
		</layer>
		<layer id="143" name="/distilbert/transformer/layer.0/output_layer_norm/Constant" type="Const" version="opset1">
			<data element_type="f32" shape="" offset="213804" size="4" />
			<rt_info>
				<attribute name="fused_names" version="0" value="/distilbert/transformer/layer.0/output_layer_norm/Constant" />
			</rt_info>
			<output>
				<port id="0" precision="FP32" names="/distilbert/transformer/layer.0/output_layer_norm/Constant_output_0" />
			</output>
		</layer>
		<layer id="144" name="/distilbert/transformer/layer.0/output_layer_norm/Pow" type="Power" version="opset1">
			<data auto_broadcast="numpy" />
			<rt_info>
				<attribute name="fused_names" version="0" value="/distilbert/transformer/layer.0/output_layer_norm/Pow" />
			</rt_info>
			<input>
				<port id="0" precision="FP32">
					<dim>-1</dim>
					<dim>-1</dim>
					<dim>32</dim>
				</port>
				<port id="1" precision="FP32" />
			</input>
			<output>
				<port id="2" precision="FP32" names="/distilbert/transformer/layer.0/output_layer_norm/Pow_output_0">
					<dim>-1</dim>
					<dim>-1</dim>
					<dim>32</dim>
				</port>
			</output>
		</layer>
		<layer id="145" name="Constant_4465698" type="Const" version="opset1">
			<data element_type="i64" shape="1" offset="213796" size="8" />
			<rt_info>
				<attribute name="fused_names" version="0" value="Constant_4465698" />
			</rt_info>
			<output>
				<port id="0" precision="I64">
					<dim>1</dim>
				</port>
			</output>
		</layer>
		<layer id="146" name="/distilbert/transformer/layer.0/output_layer_norm/ReduceMean_1" type="ReduceMean" version="opset1">
			<data keep_dims="true" />
			<rt_info>
				<attribute name="fused_names" version="0" value="/distilbert/transformer/layer.0/output_layer_norm/ReduceMean_1" />
			</rt_info>
			<input>
				<port id="0" precision="FP32">
					<dim>-1</dim>
					<dim>-1</dim>
					<dim>32</dim>
				</port>
				<port id="1" precision="I64">
					<dim>1</dim>
				</port>
			</input>
			<output>
				<port id="2" precision="FP32" names="/distilbert/transformer/layer.0/output_layer_norm/ReduceMean_1_output_0">
					<dim>-1</dim>
					<dim>-1</dim>
					<dim>1</dim>
				</port>
			</output>
		</layer>
		<layer id="147" name="/distilbert/transformer/layer.0/output_layer_norm/Constant_1" type="Const" version="opset1">
			<data element_type="f32" shape="" offset="213808" size="4" />
			<rt_info>
				<attribute name="fused_names" version="0" value="/distilbert/transformer/layer.0/output_layer_norm/Constant_1" />
			</rt_info>
			<output>
				<port id="0" precision="FP32" names="/distilbert/transformer/layer.0/output_layer_norm/Constant_1_output_0" />
			</output>
		</layer>
		<layer id="148" name="/distilbert/transformer/layer.0/output_layer_norm/Add" type="Add" version="opset1">
			<data auto_broadcast="numpy" />
			<rt_info>
				<attribute name="fused_names" version="0" value="/distilbert/transformer/layer.0/output_layer_norm/Add" />
			</rt_info>
			<input>
				<port id="0" precision="FP32">
					<dim>-1</dim>
					<dim>-1</dim>
					<dim>1</dim>
				</port>
				<port id="1" precision="FP32" />
			</input>
			<output>
				<port id="2" precision="FP32" names="/distilbert/transformer/layer.0/output_layer_norm/Add_output_0">
					<dim>-1</dim>
					<dim>-1</dim>
					<dim>1</dim>
				</port>
			</output>
		</layer>
		<layer id="149" name="/distilbert/transformer/layer.0/output_layer_norm/Sqrt" type="Sqrt" version="opset1">
			<rt_info>
				<attribute name="fused_names" version="0" value="/distilbert/transformer/layer.0/output_layer_norm/Sqrt" />
			</rt_info>
			<input>
				<port id="0" precision="FP32">
					<dim>-1</dim>
					<dim>-1</dim>
					<dim>1</dim>
				</port>
			</input>
			<output>
				<port id="1" precision="FP32" names="/distilbert/transformer/layer.0/output_layer_norm/Sqrt_output_0">
					<dim>-1</dim>
					<dim>-1</dim>
					<dim>1</dim>
				</port>
			</output>
		</layer>
		<layer id="150" name="/distilbert/transformer/layer.0/output_layer_norm/Div" type="Divide" version="opset1">
			<data auto_broadcast="numpy" m_pythondiv="true" />
			<rt_info>
				<attribute name="fused_names" version="0" value="/distilbert/transformer/layer.0/output_layer_norm/Div" />
			</rt_info>
			<input>
				<port id="0" precision="FP32">
					<dim>-1</dim>
					<dim>-1</dim>
					<dim>32</dim>
				</port>
				<port id="1" precision="FP32">
					<dim>-1</dim>
					<dim>-1</dim>
					<dim>1</dim>
				</port>
			</input>
			<output>
				<port id="2" precision="FP32" names="/distilbert/transformer/layer.0/output_layer_norm/Div_output_0">
					<dim>-1</dim>
					<dim>-1</dim>
					<dim>32</dim>
				</port>
			</output>
		</layer>
		<layer id="151" name="/distilbert/transformer/layer.0/output_layer_norm/Mul" type="Multiply" version="opset1">
			<data auto_broadcast="numpy" />
			<rt_info>
				<attribute name="fused_names" version="0" value="/distilbert/transformer/layer.0/output_layer_norm/Mul" />
			</rt_info>
			<input>
				<port id="0" precision="FP32">
					<dim>-1</dim>
					<dim>-1</dim>
					<dim>32</dim>
				</port>
				<port id="1" precision="FP32">
					<dim>32</dim>
				</port>
			</input>
			<output>
				<port id="2" precision="FP32" names="/distilbert/transformer/layer.0/output_layer_norm/Mul_output_0">
					<dim>-1</dim>
					<dim>-1</dim>
					<dim>32</dim>
				</port>
			</output>
		</layer>
		<layer id="152" name="/distilbert/transformer/layer.0/output_layer_norm/Add_1" type="Add" version="opset1">
			<data auto_broadcast="numpy" />
			<rt_info>
				<attribute name="fused_names" version="0" value="/distilbert/transformer/layer.0/output_layer_norm/Add_1" />
			</rt_info>
			<input>
				<port id="0" precision="FP32">
					<dim>-1</dim>
					<dim>-1</dim>
					<dim>32</dim>
				</port>
				<port id="1" precision="FP32">
					<dim>32</dim>
				</port>
			</input>
			<output>
				<port id="2" precision="FP32" names="/distilbert/transformer/layer.0/output_layer_norm/Add_1_output_0">
					<dim>-1</dim>
					<dim>-1</dim>
					<dim>32</dim>
				</port>
			</output>
		</layer>
		<layer id="153" name="/distilbert/transformer/layer.1/attention/Shape" type="ShapeOf" version="opset3">
			<data output_type="i64" />
			<rt_info>
				<attribute name="fused_names" version="0" value="/distilbert/transformer/layer.1/attention/Shape" />
			</rt_info>
			<input>
				<port id="0" precision="FP32">
					<dim>-1</dim>
					<dim>-1</dim>
					<dim>32</dim>
				</port>
			</input>
			<output>
				<port id="1" precision="I64" names="/distilbert/transformer/layer.1/attention/Shape_output_0">
					<dim>3</dim>
				</port>
			</output>
		</layer>
		<layer id="154" name="/distilbert/transformer/layer.1/attention/Constant" type="Const" version="opset1">
			<data element_type="i64" shape="" offset="276" size="8" />
			<rt_info>
				<attribute name="fused_names" version="0" value="/distilbert/transformer/layer.1/attention/Constant" />
			</rt_info>
			<output>
				<port id="0" precision="I64" names="/distilbert/transformer/layer.1/attention/Constant_output_0" />
			</output>
		</layer>
		<layer id="155" name="Constant_4465708" type="Const" version="opset1">
			<data element_type="i64" shape="" offset="276" size="8" />
			<rt_info>
				<attribute name="fused_names" version="0" value="Constant_4465708" />
			</rt_info>
			<output>
				<port id="0" precision="I64" />
			</output>
		</layer>
		<layer id="156" name="/distilbert/transformer/layer.1/attention/Gather" type="Gather" version="opset8">
			<data batch_dims="0" />
			<rt_info>
				<attribute name="fused_names" version="0" value="/distilbert/transformer/layer.1/attention/Constant, /distilbert/transformer/layer.1/attention/Gather, Constant_4465708" />
			</rt_info>
			<input>
				<port id="0" precision="I64">
					<dim>3</dim>
				</port>
				<port id="1" precision="I64" />
				<port id="2" precision="I64" />
			</input>
			<output>
				<port id="3" precision="I64" names="/distilbert/transformer/layer.1/attention/Gather_output_0" />
			</output>
		</layer>
		<layer id="157" name="Constant_4465768" type="Const" version="opset1">
			<data element_type="i64" shape="1" offset="276" size="8" />
			<rt_info>
				<attribute name="fused_names" version="0" value="Constant_4465768" />
			</rt_info>
			<output>
				<port id="0" precision="I64">
					<dim>1</dim>
				</port>
			</output>
		</layer>
		<layer id="158" name="/distilbert/transformer/layer.1/attention/Unsqueeze_3" type="Unsqueeze" version="opset1">
			<rt_info>
				<attribute name="fused_names" version="0" value="/distilbert/transformer/layer.1/attention/Unsqueeze_3, Constant_4465768" />
			</rt_info>
			<input>
				<port id="0" precision="I64" />
				<port id="1" precision="I64">
					<dim>1</dim>
				</port>
			</input>
			<output>
				<port id="2" precision="I64" names="/distilbert/transformer/layer.1/attention/Unsqueeze_3_output_0">
					<dim>1</dim>
				</port>
			</output>
		</layer>
		<layer id="159" name="/distilbert/transformer/layer.1/attention/Constant_12" type="Const" version="opset1">
			<data element_type="i64" shape="1" offset="213788" size="8" />
			<rt_info>
				<attribute name="fused_names" version="0" value="/distilbert/transformer/layer.1/attention/Constant_12" />
			</rt_info>
			<output>
				<port id="0" precision="I64" names="/distilbert/transformer/layer.1/attention/Constant_12_output_0">
					<dim>1</dim>
				</port>
			</output>
		</layer>
		<layer id="160" name="/distilbert/transformer/layer.1/attention/Constant_13" type="Const" version="opset1">
			<data element_type="i64" shape="1" offset="213788" size="8" />
			<rt_info>
				<attribute name="fused_names" version="0" value="/distilbert/transformer/layer.1/attention/Constant_13" />
			</rt_info>
			<output>
				<port id="0" precision="I64" names="/distilbert/transformer/layer.1/attention/Constant_13_output_0">
					<dim>1</dim>
				</port>
			</output>
		</layer>
		<layer id="161" name="/distilbert/transformer/layer.1/attention/Shape_1" type="ShapeOf" version="opset3">
			<data output_type="i64" />
			<rt_info>
				<attribute name="fused_names" version="0" value="/distilbert/transformer/layer.1/attention/Shape_1" />
			</rt_info>
			<input>
				<port id="0" precision="FP32">
					<dim>-1</dim>
					<dim>-1</dim>
					<dim>32</dim>
				</port>
			</input>
			<output>
				<port id="1" precision="I64" names="/distilbert/transformer/layer.1/attention/Shape_1_output_0">
					<dim>3</dim>
				</port>
			</output>
		</layer>
		<layer id="162" name="/distilbert/transformer/layer.1/attention/Constant_1" type="Const" version="opset1">
			<data element_type="i64" shape="" offset="213788" size="8" />
			<rt_info>
				<attribute name="fused_names" version="0" value="/distilbert/transformer/layer.1/attention/Constant_1" />
			</rt_info>
			<output>
				<port id="0" precision="I64" names="/distilbert/transformer/layer.1/attention/Constant_1_output_0" />
			</output>
		</layer>
		<layer id="163" name="Constant_4465712" type="Const" version="opset1">
			<data element_type="i64" shape="" offset="276" size="8" />
			<rt_info>
				<attribute name="fused_names" version="0" value="Constant_4465712" />
			</rt_info>
			<output>
				<port id="0" precision="I64" />
			</output>
		</layer>
		<layer id="164" name="/distilbert/transformer/layer.1/attention/Gather_1" type="Gather" version="opset8">
			<data batch_dims="0" />
			<rt_info>
				<attribute name="fused_names" version="0" value="/distilbert/transformer/layer.1/attention/Constant_1, /distilbert/transformer/layer.1/attention/Gather_1, Constant_4465712" />
			</rt_info>
			<input>
				<port id="0" precision="I64">
					<dim>3</dim>
				</port>
				<port id="1" precision="I64" />
				<port id="2" precision="I64" />
			</input>
			<output>
				<port id="3" precision="I64" names="/distilbert/transformer/layer.1/attention/Gather_1_output_0" />
			</output>
		</layer>
		<layer id="165" name="Constant_4465772" type="Const" version="opset1">
			<data element_type="i64" shape="1" offset="276" size="8" />
			<rt_info>
				<attribute name="fused_names" version="0" value="Constant_4465772" />
			</rt_info>
			<output>
				<port id="0" precision="I64">
					<dim>1</dim>
				</port>
			</output>
		</layer>
		<layer id="166" name="/distilbert/transformer/layer.1/attention/Unsqueeze_4" type="Unsqueeze" version="opset1">
			<rt_info>
				<attribute name="fused_names" version="0" value="/distilbert/transformer/layer.1/attention/Unsqueeze_4, Constant_4465772" />
			</rt_info>
			<input>
				<port id="0" precision="I64" />
				<port id="1" precision="I64">
					<dim>1</dim>
				</port>
			</input>
			<output>
				<port id="2" precision="I64" names="/distilbert/transformer/layer.1/attention/Unsqueeze_4_output_0">
					<dim>1</dim>
				</port>
			</output>
		</layer>
		<layer id="167" name="/distilbert/transformer/layer.1/attention/Concat_3" type="Concat" version="opset1">
			<data axis="0" />
			<rt_info>
				<attribute name="fused_names" version="0" value="/distilbert/transformer/layer.1/attention/Concat_3, /distilbert/transformer/layer.1/attention/Constant_12, /distilbert/transformer/layer.1/attention/Constant_13" />
			</rt_info>
			<input>
				<port id="0" precision="I64">
					<dim>1</dim>
				</port>
				<port id="1" precision="I64">
					<dim>1</dim>
				</port>
				<port id="2" precision="I64">
					<dim>1</dim>
				</port>
				<port id="3" precision="I64">
					<dim>1</dim>
				</port>
			</input>
			<output>
				<port id="4" precision="I64" names="/distilbert/transformer/layer.1/attention/Concat_3_output_0">
					<dim>4</dim>
				</port>
			</output>
		</layer>
		<layer id="168" name="/distilbert/transformer/layer.1/attention/Reshape_3" type="Reshape" version="opset1">
			<data special_zero="true" />
			<rt_info>
				<attribute name="fused_names" version="0" value="/distilbert/transformer/layer.1/attention/Reshape_3" />
			</rt_info>
			<input>
				<port id="0" precision="BOOL">
					<dim>-1</dim>
					<dim>-1</dim>
				</port>
				<port id="1" precision="I64">
					<dim>4</dim>
				</port>
			</input>
			<output>
				<port id="2" precision="BOOL" names="/distilbert/transformer/layer.1/attention/Reshape_3_output_0">
					<dim>-1</dim>
					<dim>1</dim>
					<dim>1</dim>
					<dim>-1</dim>
				</port>
			</output>
		</layer>
		<layer id="169" name="onnx::MatMul_641" type="Const" version="opset1">
			<data element_type="f32" shape="32, 32" offset="239904" size="4096" />
			<rt_info>
				<attribute name="fused_names" version="0" value="onnx::MatMul_641" />
			</rt_info>
			<output>
				<port id="0" precision="FP32" names="onnx::MatMul_641">
					<dim>32</dim>
					<dim>32</dim>
				</port>
			</output>
		</layer>
		<layer id="170" name="/distilbert/transformer/layer.1/attention/q_lin/MatMul" type="MatMul" version="opset1">
			<data transpose_a="false" transpose_b="false" />
			<rt_info>
				<attribute name="fused_names" version="0" value="/distilbert/transformer/layer.1/attention/q_lin/MatMul" />
			</rt_info>
			<input>
				<port id="0" precision="FP32">
					<dim>-1</dim>
					<dim>-1</dim>
					<dim>32</dim>
				</port>
				<port id="1" precision="FP32">
					<dim>32</dim>
					<dim>32</dim>
				</port>
			</input>
			<output>
				<port id="2" precision="FP32" names="/distilbert/transformer/layer.1/attention/q_lin/MatMul_output_0">
					<dim>-1</dim>
					<dim>-1</dim>
					<dim>32</dim>
				</port>
			</output>
		</layer>
		<layer id="171" name="/distilbert/transformer/layer.1/attention/q_lin/Add" type="Add" version="opset1">
			<data auto_broadcast="numpy" />
			<rt_info>
				<attribute name="fused_names" version="0" value="/distilbert/transformer/layer.1/attention/q_lin/Add" />
			</rt_info>
			<input>
				<port id="0" precision="FP32">
					<dim>32</dim>
				</port>
				<port id="1" precision="FP32">
					<dim>-1</dim>
					<dim>-1</dim>
					<dim>32</dim>
				</port>
			</input>
			<output>
				<port id="2" precision="FP32" names="/distilbert/transformer/layer.1/attention/q_lin/Add_output_0">
					<dim>-1</dim>
					<dim>-1</dim>
					<dim>32</dim>
				</port>
			</output>
		</layer>
		<layer id="172" name="Constant_4465716" type="Const" version="opset1">
			<data element_type="i64" shape="1" offset="276" size="8" />
			<rt_info>
				<attribute name="fused_names" version="0" value="Constant_4465716" />
			</rt_info>
			<output>
				<port id="0" precision="I64">
					<dim>1</dim>
				</port>
			</output>
		</layer>
		<layer id="173" name="/distilbert/transformer/layer.1/attention/Unsqueeze" type="Unsqueeze" version="opset1">
			<rt_info>
				<attribute name="fused_names" version="0" value="/distilbert/transformer/layer.1/attention/Unsqueeze, Constant_4465716" />
			</rt_info>
			<input>
				<port id="0" precision="I64" />
				<port id="1" precision="I64">
					<dim>1</dim>
				</port>
			</input>
			<output>
				<port id="2" precision="I64" names="/distilbert/transformer/layer.1/attention/Unsqueeze_output_0">
					<dim>1</dim>
				</port>
			</output>
		</layer>
		<layer id="174" name="/distilbert/transformer/layer.1/attention/Constant_2" type="Const" version="opset1">
			<data element_type="i64" shape="1" offset="213796" size="8" />
			<rt_info>
				<attribute name="fused_names" version="0" value="/distilbert/transformer/layer.1/attention/Constant_2" />
			</rt_info>
			<output>
				<port id="0" precision="I64" names="/distilbert/transformer/layer.1/attention/Constant_2_output_0">
					<dim>1</dim>
				</port>
			</output>
		</layer>
		<layer id="175" name="/distilbert/transformer/layer.1/attention/Constant_3" type="Const" version="opset1">
			<data element_type="i64" shape="1" offset="218036" size="8" />
			<rt_info>
				<attribute name="fused_names" version="0" value="/distilbert/transformer/layer.1/attention/Constant_3" />
			</rt_info>
			<output>
				<port id="0" precision="I64" names="/distilbert/transformer/layer.1/attention/Constant_3_output_0">
					<dim>1</dim>
				</port>
			</output>
		</layer>
		<layer id="176" name="/distilbert/transformer/layer.1/attention/Constant_4" type="Const" version="opset1">
			<data element_type="i64" shape="1" offset="218044" size="8" />
			<rt_info>
				<attribute name="fused_names" version="0" value="/distilbert/transformer/layer.1/attention/Constant_4" />
			</rt_info>
			<output>
				<port id="0" precision="I64" names="/distilbert/transformer/layer.1/attention/Constant_4_output_0">
					<dim>1</dim>
				</port>
			</output>
		</layer>
		<layer id="177" name="/distilbert/transformer/layer.1/attention/Concat" type="Concat" version="opset1">
			<data axis="0" />
			<rt_info>
				<attribute name="fused_names" version="0" value="/distilbert/transformer/layer.1/attention/Concat, /distilbert/transformer/layer.1/attention/Constant_2, /distilbert/transformer/layer.1/attention/Constant_3, /distilbert/transformer/layer.1/attention/Constant_4" />
			</rt_info>
			<input>
				<port id="0" precision="I64">
					<dim>1</dim>
				</port>
				<port id="1" precision="I64">
					<dim>1</dim>
				</port>
				<port id="2" precision="I64">
					<dim>1</dim>
				</port>
				<port id="3" precision="I64">
					<dim>1</dim>
				</port>
			</input>
			<output>
				<port id="4" precision="I64" names="/distilbert/transformer/layer.1/attention/Concat_output_0">
					<dim>4</dim>
				</port>
			</output>
		</layer>
		<layer id="178" name="/distilbert/transformer/layer.1/attention/Reshape" type="Reshape" version="opset1">
			<data special_zero="true" />
			<rt_info>
				<attribute name="fused_names" version="0" value="/distilbert/transformer/layer.1/attention/Reshape" />
			</rt_info>
			<input>
				<port id="0" precision="FP32">
					<dim>-1</dim>
					<dim>-1</dim>
					<dim>32</dim>
				</port>
				<port id="1" precision="I64">
					<dim>4</dim>
				</port>
			</input>
			<output>
				<port id="2" precision="FP32" names="/distilbert/transformer/layer.1/attention/Reshape_output_0">
					<dim>-1</dim>
					<dim>-1</dim>
					<dim>4</dim>
					<dim>8</dim>
				</port>
			</output>
		</layer>
		<layer id="179" name="Constant_4465741" type="Const" version="opset1">
			<data element_type="i64" shape="4" offset="218052" size="32" />
			<rt_info>
				<attribute name="fused_names" version="0" value="Constant_4465741" />
			</rt_info>
			<output>
				<port id="0" precision="I64">
					<dim>4</dim>
				</port>
			</output>
		</layer>
		<layer id="180" name="/distilbert/transformer/layer.1/attention/Transpose" type="Transpose" version="opset1">
			<rt_info>
				<attribute name="fused_names" version="0" value="/distilbert/transformer/layer.1/attention/Transpose" />
			</rt_info>
			<input>
				<port id="0" precision="FP32">
					<dim>-1</dim>
					<dim>-1</dim>
					<dim>4</dim>
					<dim>8</dim>
				</port>
				<port id="1" precision="I64">
					<dim>4</dim>
				</port>
			</input>
			<output>
				<port id="2" precision="FP32" names="/distilbert/transformer/layer.1/attention/Transpose_output_0">
					<dim>-1</dim>
					<dim>4</dim>
					<dim>-1</dim>
					<dim>8</dim>
				</port>
			</output>
		</layer>
		<layer id="181" name="/distilbert/transformer/layer.1/attention/Constant_11" type="Const" version="opset1">
			<data element_type="f32" shape="" offset="218084" size="4" />
			<rt_info>
				<attribute name="fused_names" version="0" value="/distilbert/transformer/layer.1/attention/Constant_11" />
			</rt_info>
			<output>
				<port id="0" precision="FP32" names="/distilbert/transformer/layer.1/attention/Constant_11_output_0" />
			</output>
		</layer>
		<layer id="182" name="/distilbert/transformer/layer.1/attention/Div" type="Divide" version="opset1">
			<data auto_broadcast="numpy" m_pythondiv="true" />
			<rt_info>
				<attribute name="fused_names" version="0" value="/distilbert/transformer/layer.1/attention/Div" />
			</rt_info>
			<input>
				<port id="0" precision="FP32">
					<dim>-1</dim>
					<dim>4</dim>
					<dim>-1</dim>
					<dim>8</dim>
				</port>
				<port id="1" precision="FP32" />
			</input>
			<output>
				<port id="2" precision="FP32" names="/distilbert/transformer/layer.1/attention/Div_output_0">
					<dim>-1</dim>
					<dim>4</dim>
					<dim>-1</dim>
					<dim>8</dim>
				</port>
			</output>
		</layer>
		<layer id="183" name="onnx::MatMul_651" type="Const" version="opset1">
			<data element_type="f32" shape="32, 32" offset="244000" size="4096" />
			<rt_info>
				<attribute name="fused_names" version="0" value="onnx::MatMul_651" />
			</rt_info>
			<output>
				<port id="0" precision="FP32" names="onnx::MatMul_651">
					<dim>32</dim>
					<dim>32</dim>
				</port>
			</output>
		</layer>
		<layer id="184" name="/distilbert/transformer/layer.1/attention/k_lin/MatMul" type="MatMul" version="opset1">
			<data transpose_a="false" transpose_b="false" />
			<rt_info>
				<attribute name="fused_names" version="0" value="/distilbert/transformer/layer.1/attention/k_lin/MatMul" />
			</rt_info>
			<input>
				<port id="0" precision="FP32">
					<dim>-1</dim>
					<dim>-1</dim>
					<dim>32</dim>
				</port>
				<port id="1" precision="FP32">
					<dim>32</dim>
					<dim>32</dim>
				</port>
			</input>
			<output>
				<port id="2" precision="FP32" names="/distilbert/transformer/layer.1/attention/k_lin/MatMul_output_0">
					<dim>-1</dim>
					<dim>-1</dim>
					<dim>32</dim>
				</port>
			</output>
		</layer>
		<layer id="185" name="/distilbert/transformer/layer.1/attention/k_lin/Add" type="Add" version="opset1">
			<data auto_broadcast="numpy" />
			<rt_info>
				<attribute name="fused_names" version="0" value="/distilbert/transformer/layer.1/attention/k_lin/Add" />
			</rt_info>
			<input>
				<port id="0" precision="FP32">
					<dim>32</dim>
				</port>
				<port id="1" precision="FP32">
					<dim>-1</dim>
					<dim>-1</dim>
					<dim>32</dim>
				</port>
			</input>
			<output>
				<port id="2" precision="FP32" names="/distilbert/transformer/layer.1/attention/k_lin/Add_output_0">
					<dim>-1</dim>
					<dim>-1</dim>
					<dim>32</dim>
				</port>
			</output>
		</layer>
		<layer id="186" name="Constant_4465722" type="Const" version="opset1">
			<data element_type="i64" shape="1" offset="276" size="8" />
			<rt_info>
				<attribute name="fused_names" version="0" value="Constant_4465722" />
			</rt_info>
			<output>
				<port id="0" precision="I64">
					<dim>1</dim>
				</port>
			</output>
		</layer>
		<layer id="187" name="/distilbert/transformer/layer.1/attention/Unsqueeze_1" type="Unsqueeze" version="opset1">
			<rt_info>
				<attribute name="fused_names" version="0" value="/distilbert/transformer/layer.1/attention/Unsqueeze_1, Constant_4465722" />
			</rt_info>
			<input>
				<port id="0" precision="I64" />
				<port id="1" precision="I64">
					<dim>1</dim>
				</port>
			</input>
			<output>
				<port id="2" precision="I64" names="/distilbert/transformer/layer.1/attention/Unsqueeze_1_output_0">
					<dim>1</dim>
				</port>
			</output>
		</layer>
		<layer id="188" name="/distilbert/transformer/layer.1/attention/Constant_5" type="Const" version="opset1">
			<data element_type="i64" shape="1" offset="213796" size="8" />
			<rt_info>
				<attribute name="fused_names" version="0" value="/distilbert/transformer/layer.1/attention/Constant_5" />
			</rt_info>
			<output>
				<port id="0" precision="I64" names="/distilbert/transformer/layer.1/attention/Constant_5_output_0">
					<dim>1</dim>
				</port>
			</output>
		</layer>
		<layer id="189" name="/distilbert/transformer/layer.1/attention/Constant_6" type="Const" version="opset1">
			<data element_type="i64" shape="1" offset="218036" size="8" />
			<rt_info>
				<attribute name="fused_names" version="0" value="/distilbert/transformer/layer.1/attention/Constant_6" />
			</rt_info>
			<output>
				<port id="0" precision="I64" names="/distilbert/transformer/layer.1/attention/Constant_6_output_0">
					<dim>1</dim>
				</port>
			</output>
		</layer>
		<layer id="190" name="/distilbert/transformer/layer.1/attention/Constant_7" type="Const" version="opset1">
			<data element_type="i64" shape="1" offset="218044" size="8" />
			<rt_info>
				<attribute name="fused_names" version="0" value="/distilbert/transformer/layer.1/attention/Constant_7" />
			</rt_info>
			<output>
				<port id="0" precision="I64" names="/distilbert/transformer/layer.1/attention/Constant_7_output_0">
					<dim>1</dim>
				</port>
			</output>
		</layer>
		<layer id="191" name="/distilbert/transformer/layer.1/attention/Concat_1" type="Concat" version="opset1">
			<data axis="0" />
			<rt_info>
				<attribute name="fused_names" version="0" value="/distilbert/transformer/layer.1/attention/Concat_1, /distilbert/transformer/layer.1/attention/Constant_5, /distilbert/transformer/layer.1/attention/Constant_6, /distilbert/transformer/layer.1/attention/Constant_7" />
			</rt_info>
			<input>
				<port id="0" precision="I64">
					<dim>1</dim>
				</port>
				<port id="1" precision="I64">
					<dim>1</dim>
				</port>
				<port id="2" precision="I64">
					<dim>1</dim>
				</port>
				<port id="3" precision="I64">
					<dim>1</dim>
				</port>
			</input>
			<output>
				<port id="4" precision="I64" names="/distilbert/transformer/layer.1/attention/Concat_1_output_0">
					<dim>4</dim>
				</port>
			</output>
		</layer>
		<layer id="192" name="/distilbert/transformer/layer.1/attention/Reshape_1" type="Reshape" version="opset1">
			<data special_zero="true" />
			<rt_info>
				<attribute name="fused_names" version="0" value="/distilbert/transformer/layer.1/attention/Reshape_1" />
			</rt_info>
			<input>
				<port id="0" precision="FP32">
					<dim>-1</dim>
					<dim>-1</dim>
					<dim>32</dim>
				</port>
				<port id="1" precision="I64">
					<dim>4</dim>
				</port>
			</input>
			<output>
				<port id="2" precision="FP32" names="/distilbert/transformer/layer.1/attention/Reshape_1_output_0">
					<dim>-1</dim>
					<dim>-1</dim>
					<dim>4</dim>
					<dim>8</dim>
				</port>
			</output>
		</layer>
		<layer id="193" name="Constant_4465765" type="Const" version="opset1">
			<data element_type="i64" shape="4" offset="222184" size="32" />
			<rt_info>
				<attribute name="fused_names" version="0" value="Constant_4465765" />
			</rt_info>
			<output>
				<port id="0" precision="I64">
					<dim>4</dim>
				</port>
			</output>
		</layer>
		<layer id="194" name="/distilbert/transformer/layer.1/attention/Transpose_2" type="Transpose" version="opset1">
			<rt_info>
				<attribute name="fused_names" version="0" value="/distilbert/transformer/layer.1/attention/Transpose_2" />
			</rt_info>
			<input>
				<port id="0" precision="FP32">
					<dim>-1</dim>
					<dim>-1</dim>
					<dim>4</dim>
					<dim>8</dim>
				</port>
				<port id="1" precision="I64">
					<dim>4</dim>
				</port>
			</input>
			<output>
				<port id="2" precision="FP32" names="/distilbert/transformer/layer.1/attention/Transpose_2_output_0">
					<dim>-1</dim>
					<dim>4</dim>
					<dim>8</dim>
					<dim>-1</dim>
				</port>
			</output>
		</layer>
		<layer id="195" name="/distilbert/transformer/layer.1/attention/MatMul" type="MatMul" version="opset1">
			<data transpose_a="false" transpose_b="false" />
			<rt_info>
				<attribute name="fused_names" version="0" value="/distilbert/transformer/layer.1/attention/MatMul" />
			</rt_info>
			<input>
				<port id="0" precision="FP32">
					<dim>-1</dim>
					<dim>4</dim>
					<dim>-1</dim>
					<dim>8</dim>
				</port>
				<port id="1" precision="FP32">
					<dim>-1</dim>
					<dim>4</dim>
					<dim>8</dim>
					<dim>-1</dim>
				</port>
			</input>
			<output>
				<port id="2" precision="FP32" names="/distilbert/transformer/layer.1/attention/MatMul_output_0">
					<dim>-1</dim>
					<dim>4</dim>
					<dim>-1</dim>
					<dim>-1</dim>
				</port>
			</output>
		</layer>
		<layer id="196" name="/distilbert/transformer/layer.1/attention/Shape_2" type="ShapeOf" version="opset3">
			<data output_type="i64" />
			<rt_info>
				<attribute name="fused_names" version="0" value="/distilbert/transformer/layer.1/attention/Shape_2" />
			</rt_info>
			<input>
				<port id="0" precision="FP32">
					<dim>-1</dim>
					<dim>4</dim>
					<dim>-1</dim>
					<dim>-1</dim>
				</port>
			</input>
			<output>
				<port id="1" precision="I64" names="/distilbert/transformer/layer.1/attention/Shape_2_output_0">
					<dim>4</dim>
				</port>
			</output>
		</layer>
		<layer id="197" name="/distilbert/transformer/layer.1/attention/Expand" type="Broadcast" version="opset3">
			<data mode="bidirectional" />
			<rt_info>
				<attribute name="fused_names" version="0" value="/distilbert/transformer/layer.1/attention/Expand" />
			</rt_info>
			<input>
				<port id="0" precision="BOOL">
					<dim>-1</dim>
					<dim>1</dim>
					<dim>1</dim>
					<dim>-1</dim>
				</port>
				<port id="1" precision="I64">
					<dim>4</dim>
				</port>
			</input>
			<output>
				<port id="2" precision="BOOL" names="/distilbert/transformer/layer.1/attention/Expand_output_0">
					<dim>-1</dim>
					<dim>4</dim>
					<dim>-1</dim>
					<dim>-1</dim>
				</port>
			</output>
		</layer>
		<layer id="198" name="/distilbert/transformer/layer.1/attention/Cast" type="Convert" version="opset1">
			<data destination_type="boolean" />
			<rt_info>
				<attribute name="fused_names" version="0" value="/distilbert/transformer/layer.1/attention/Cast" />
			</rt_info>
			<input>
				<port id="0" precision="BOOL">
					<dim>-1</dim>
					<dim>4</dim>
					<dim>-1</dim>
					<dim>-1</dim>
				</port>
			</input>
			<output>
				<port id="1" precision="BOOL" names="/distilbert/transformer/layer.1/attention/Cast_output_0">
					<dim>-1</dim>
					<dim>4</dim>
					<dim>-1</dim>
					<dim>-1</dim>
				</port>
			</output>
		</layer>
		<layer id="199" name="/distilbert/transformer/layer.1/attention/Constant_14" type="Const" version="opset1">
			<data element_type="f32" shape="" offset="222216" size="4" />
			<rt_info>
				<attribute name="fused_names" version="0" value="/distilbert/transformer/layer.1/attention/Constant_14" />
			</rt_info>
			<output>
				<port id="0" precision="FP32" names="/distilbert/transformer/layer.1/attention/Constant_14_output_0" />
			</output>
		</layer>
		<layer id="200" name="/distilbert/transformer/layer.1/attention/Where" type="Select" version="opset1">
			<data auto_broadcast="numpy" />
			<rt_info>
				<attribute name="fused_names" version="0" value="/distilbert/transformer/layer.1/attention/Where" />
			</rt_info>
			<input>
				<port id="0" precision="BOOL">
					<dim>-1</dim>
					<dim>4</dim>
					<dim>-1</dim>
					<dim>-1</dim>
				</port>
				<port id="1" precision="FP32" />
				<port id="2" precision="FP32">
					<dim>-1</dim>
					<dim>4</dim>
					<dim>-1</dim>
					<dim>-1</dim>
				</port>
			</input>
			<output>
				<port id="3" precision="FP32" names="/distilbert/transformer/layer.1/attention/Where_output_0">
					<dim>-1</dim>
					<dim>4</dim>
					<dim>-1</dim>
					<dim>-1</dim>
				</port>
			</output>
		</layer>
		<layer id="201" name="/distilbert/transformer/layer.1/attention/Softmax" type="SoftMax" version="opset8">
			<data axis="3" />
			<rt_info>
				<attribute name="fused_names" version="0" value="/distilbert/transformer/layer.1/attention/Softmax" />
			</rt_info>
			<input>
				<port id="0" precision="FP32">
					<dim>-1</dim>
					<dim>4</dim>
					<dim>-1</dim>
					<dim>-1</dim>
				</port>
			</input>
			<output>
				<port id="1" precision="FP32" names="/distilbert/transformer/layer.1/attention/Softmax_output_0">
					<dim>-1</dim>
					<dim>4</dim>
					<dim>-1</dim>
					<dim>-1</dim>
				</port>
			</output>
		</layer>
		<layer id="202" name="onnx::MatMul_652" type="Const" version="opset1">
			<data element_type="f32" shape="32, 32" offset="248096" size="4096" />
			<rt_info>
				<attribute name="fused_names" version="0" value="onnx::MatMul_652" />
			</rt_info>
			<output>
				<port id="0" precision="FP32" names="onnx::MatMul_652">
					<dim>32</dim>
					<dim>32</dim>
				</port>
			</output>
		</layer>
		<layer id="203" name="/distilbert/transformer/layer.1/attention/v_lin/MatMul" type="MatMul" version="opset1">
			<data transpose_a="false" transpose_b="false" />
			<rt_info>
				<attribute name="fused_names" version="0" value="/distilbert/transformer/layer.1/attention/v_lin/MatMul" />
			</rt_info>
			<input>
				<port id="0" precision="FP32">
					<dim>-1</dim>
					<dim>-1</dim>
					<dim>32</dim>
				</port>
				<port id="1" precision="FP32">
					<dim>32</dim>
					<dim>32</dim>
				</port>
			</input>
			<output>
				<port id="2" precision="FP32" names="/distilbert/transformer/layer.1/attention/v_lin/MatMul_output_0">
					<dim>-1</dim>
					<dim>-1</dim>
					<dim>32</dim>
				</port>
			</output>
		</layer>
		<layer id="204" name="/distilbert/transformer/layer.1/attention/v_lin/Add" type="Add" version="opset1">
			<data auto_broadcast="numpy" />
			<rt_info>
				<attribute name="fused_names" version="0" value="/distilbert/transformer/layer.1/attention/v_lin/Add" />
			</rt_info>
			<input>
				<port id="0" precision="FP32">
					<dim>32</dim>
				</port>
				<port id="1" precision="FP32">
					<dim>-1</dim>
					<dim>-1</dim>
					<dim>32</dim>
				</port>
			</input>
			<output>
				<port id="2" precision="FP32" names="/distilbert/transformer/layer.1/attention/v_lin/Add_output_0">
					<dim>-1</dim>
					<dim>-1</dim>
					<dim>32</dim>
				</port>
			</output>
		</layer>
		<layer id="205" name="Constant_4465728" type="Const" version="opset1">
			<data element_type="i64" shape="1" offset="276" size="8" />
			<rt_info>
				<attribute name="fused_names" version="0" value="Constant_4465728" />
			</rt_info>
			<output>
				<port id="0" precision="I64">
					<dim>1</dim>
				</port>
			</output>
		</layer>
		<layer id="206" name="/distilbert/transformer/layer.1/attention/Unsqueeze_2" type="Unsqueeze" version="opset1">
			<rt_info>
				<attribute name="fused_names" version="0" value="/distilbert/transformer/layer.1/attention/Unsqueeze_2, Constant_4465728" />
			</rt_info>
			<input>
				<port id="0" precision="I64" />
				<port id="1" precision="I64">
					<dim>1</dim>
				</port>
			</input>
			<output>
				<port id="2" precision="I64" names="/distilbert/transformer/layer.1/attention/Unsqueeze_2_output_0">
					<dim>1</dim>
				</port>
			</output>
		</layer>
		<layer id="207" name="/distilbert/transformer/layer.1/attention/Constant_8" type="Const" version="opset1">
			<data element_type="i64" shape="1" offset="213796" size="8" />
			<rt_info>
				<attribute name="fused_names" version="0" value="/distilbert/transformer/layer.1/attention/Constant_8" />
			</rt_info>
			<output>
				<port id="0" precision="I64" names="/distilbert/transformer/layer.1/attention/Constant_8_output_0">
					<dim>1</dim>
				</port>
			</output>
		</layer>
		<layer id="208" name="/distilbert/transformer/layer.1/attention/Constant_9" type="Const" version="opset1">
			<data element_type="i64" shape="1" offset="218036" size="8" />
			<rt_info>
				<attribute name="fused_names" version="0" value="/distilbert/transformer/layer.1/attention/Constant_9" />
			</rt_info>
			<output>
				<port id="0" precision="I64" names="/distilbert/transformer/layer.1/attention/Constant_9_output_0">
					<dim>1</dim>
				</port>
			</output>
		</layer>
		<layer id="209" name="/distilbert/transformer/layer.1/attention/Constant_10" type="Const" version="opset1">
			<data element_type="i64" shape="1" offset="218044" size="8" />
			<rt_info>
				<attribute name="fused_names" version="0" value="/distilbert/transformer/layer.1/attention/Constant_10" />
			</rt_info>
			<output>
				<port id="0" precision="I64" names="/distilbert/transformer/layer.1/attention/Constant_10_output_0">
					<dim>1</dim>
				</port>
			</output>
		</layer>
		<layer id="210" name="/distilbert/transformer/layer.1/attention/Concat_2" type="Concat" version="opset1">
			<data axis="0" />
			<rt_info>
				<attribute name="fused_names" version="0" value="/distilbert/transformer/layer.1/attention/Concat_2, /distilbert/transformer/layer.1/attention/Constant_10, /distilbert/transformer/layer.1/attention/Constant_8, /distilbert/transformer/layer.1/attention/Constant_9" />
			</rt_info>
			<input>
				<port id="0" precision="I64">
					<dim>1</dim>
				</port>
				<port id="1" precision="I64">
					<dim>1</dim>
				</port>
				<port id="2" precision="I64">
					<dim>1</dim>
				</port>
				<port id="3" precision="I64">
					<dim>1</dim>
				</port>
			</input>
			<output>
				<port id="4" precision="I64" names="/distilbert/transformer/layer.1/attention/Concat_2_output_0">
					<dim>4</dim>
				</port>
			</output>
		</layer>
		<layer id="211" name="/distilbert/transformer/layer.1/attention/Reshape_2" type="Reshape" version="opset1">
			<data special_zero="true" />
			<rt_info>
				<attribute name="fused_names" version="0" value="/distilbert/transformer/layer.1/attention/Reshape_2" />
			</rt_info>
			<input>
				<port id="0" precision="FP32">
					<dim>-1</dim>
					<dim>-1</dim>
					<dim>32</dim>
				</port>
				<port id="1" precision="I64">
					<dim>4</dim>
				</port>
			</input>
			<output>
				<port id="2" precision="FP32" names="/distilbert/transformer/layer.1/attention/Reshape_2_output_0">
					<dim>-1</dim>
					<dim>-1</dim>
					<dim>4</dim>
					<dim>8</dim>
				</port>
			</output>
		</layer>
		<layer id="212" name="Constant_4465761" type="Const" version="opset1">
			<data element_type="i64" shape="4" offset="218052" size="32" />
			<rt_info>
				<attribute name="fused_names" version="0" value="Constant_4465761" />
			</rt_info>
			<output>
				<port id="0" precision="I64">
					<dim>4</dim>
				</port>
			</output>
		</layer>
		<layer id="213" name="/distilbert/transformer/layer.1/attention/Transpose_1" type="Transpose" version="opset1">
			<rt_info>
				<attribute name="fused_names" version="0" value="/distilbert/transformer/layer.1/attention/Transpose_1" />
			</rt_info>
			<input>
				<port id="0" precision="FP32">
					<dim>-1</dim>
					<dim>-1</dim>
					<dim>4</dim>
					<dim>8</dim>
				</port>
				<port id="1" precision="I64">
					<dim>4</dim>
				</port>
			</input>
			<output>
				<port id="2" precision="FP32" names="/distilbert/transformer/layer.1/attention/Transpose_1_output_0">
					<dim>-1</dim>
					<dim>4</dim>
					<dim>-1</dim>
					<dim>8</dim>
				</port>
			</output>
		</layer>
		<layer id="214" name="/distilbert/transformer/layer.1/attention/MatMul_1" type="MatMul" version="opset1">
			<data transpose_a="false" transpose_b="false" />
			<rt_info>
				<attribute name="fused_names" version="0" value="/distilbert/transformer/layer.1/attention/MatMul_1" />
			</rt_info>
			<input>
				<port id="0" precision="FP32">
					<dim>-1</dim>
					<dim>4</dim>
					<dim>-1</dim>
					<dim>-1</dim>
				</port>
				<port id="1" precision="FP32">
					<dim>-1</dim>
					<dim>4</dim>
					<dim>-1</dim>
					<dim>8</dim>
				</port>
			</input>
			<output>
				<port id="2" precision="FP32" names="/distilbert/transformer/layer.1/attention/MatMul_1_output_0">
					<dim>-1</dim>
					<dim>4</dim>
					<dim>-1</dim>
					<dim>8</dim>
				</port>
			</output>
		</layer>
		<layer id="215" name="Constant_4465799" type="Const" version="opset1">
			<data element_type="i64" shape="4" offset="218052" size="32" />
			<rt_info>
				<attribute name="fused_names" version="0" value="Constant_4465799" />
			</rt_info>
			<output>
				<port id="0" precision="I64">
					<dim>4</dim>
				</port>
			</output>
		</layer>
		<layer id="216" name="/distilbert/transformer/layer.1/attention/Transpose_3" type="Transpose" version="opset1">
			<rt_info>
				<attribute name="fused_names" version="0" value="/distilbert/transformer/layer.1/attention/Transpose_3" />
			</rt_info>
			<input>
				<port id="0" precision="FP32">
					<dim>-1</dim>
					<dim>4</dim>
					<dim>-1</dim>
					<dim>8</dim>
				</port>
				<port id="1" precision="I64">
					<dim>4</dim>
				</port>
			</input>
			<output>
				<port id="2" precision="FP32" names="/distilbert/transformer/layer.1/attention/Transpose_3_output_0">
					<dim>-1</dim>
					<dim>-1</dim>
					<dim>4</dim>
					<dim>8</dim>
				</port>
			</output>
		</layer>
		<layer id="217" name="Constant_4465801" type="Const" version="opset1">
			<data element_type="i64" shape="1" offset="276" size="8" />
			<rt_info>
				<attribute name="fused_names" version="0" value="Constant_4465801" />
			</rt_info>
			<output>
				<port id="0" precision="I64">
					<dim>1</dim>
				</port>
			</output>
		</layer>
		<layer id="218" name="/distilbert/transformer/layer.1/attention/Unsqueeze_5" type="Unsqueeze" version="opset1">
			<rt_info>
				<attribute name="fused_names" version="0" value="/distilbert/transformer/layer.1/attention/Unsqueeze_5, Constant_4465801" />
			</rt_info>
			<input>
				<port id="0" precision="I64" />
				<port id="1" precision="I64">
					<dim>1</dim>
				</port>
			</input>
			<output>
				<port id="2" precision="I64" names="/distilbert/transformer/layer.1/attention/Unsqueeze_5_output_0">
					<dim>1</dim>
				</port>
			</output>
		</layer>
		<layer id="219" name="/distilbert/transformer/layer.1/attention/Constant_15" type="Const" version="opset1">
			<data element_type="i64" shape="1" offset="213796" size="8" />
			<rt_info>
				<attribute name="fused_names" version="0" value="/distilbert/transformer/layer.1/attention/Constant_15" />
			</rt_info>
			<output>
				<port id="0" precision="I64" names="/distilbert/transformer/layer.1/attention/Constant_15_output_0">
					<dim>1</dim>
				</port>
			</output>
		</layer>
		<layer id="220" name="/distilbert/transformer/layer.1/attention/Constant_16" type="Const" version="opset1">
			<data element_type="i64" shape="1" offset="226316" size="8" />
			<rt_info>
				<attribute name="fused_names" version="0" value="/distilbert/transformer/layer.1/attention/Constant_16" />
			</rt_info>
			<output>
				<port id="0" precision="I64" names="/distilbert/transformer/layer.1/attention/Constant_16_output_0">
					<dim>1</dim>
				</port>
			</output>
		</layer>
		<layer id="221" name="/distilbert/transformer/layer.1/attention/Concat_4" type="Concat" version="opset1">
			<data axis="0" />
			<rt_info>
				<attribute name="fused_names" version="0" value="/distilbert/transformer/layer.1/attention/Concat_4, /distilbert/transformer/layer.1/attention/Constant_15, /distilbert/transformer/layer.1/attention/Constant_16" />
			</rt_info>
			<input>
				<port id="0" precision="I64">
					<dim>1</dim>
				</port>
				<port id="1" precision="I64">
					<dim>1</dim>
				</port>
				<port id="2" precision="I64">
					<dim>1</dim>
				</port>
			</input>
			<output>
				<port id="3" precision="I64" names="/distilbert/transformer/layer.1/attention/Concat_4_output_0">
					<dim>3</dim>
				</port>
			</output>
		</layer>
		<layer id="222" name="/distilbert/transformer/layer.1/attention/Reshape_4" type="Reshape" version="opset1">
			<data special_zero="true" />
			<rt_info>
				<attribute name="fused_names" version="0" value="/distilbert/transformer/layer.1/attention/Reshape_4" />
			</rt_info>
			<input>
				<port id="0" precision="FP32">
					<dim>-1</dim>
					<dim>-1</dim>
					<dim>4</dim>
					<dim>8</dim>
				</port>
				<port id="1" precision="I64">
					<dim>3</dim>
				</port>
			</input>
			<output>
				<port id="2" precision="FP32" names="/distilbert/transformer/layer.1/attention/Reshape_4_output_0">
					<dim>-1</dim>
					<dim>-1</dim>
					<dim>32</dim>
				</port>
			</output>
		</layer>
		<layer id="223" name="onnx::MatMul_657" type="Const" version="opset1">
			<data element_type="f32" shape="32, 32" offset="252192" size="4096" />
			<rt_info>
				<attribute name="fused_names" version="0" value="onnx::MatMul_657" />
			</rt_info>
			<output>
				<port id="0" precision="FP32" names="onnx::MatMul_657">
					<dim>32</dim>
					<dim>32</dim>
				</port>
			</output>
		</layer>
		<layer id="224" name="/distilbert/transformer/layer.1/attention/out_lin/MatMul" type="MatMul" version="opset1">
			<data transpose_a="false" transpose_b="false" />
			<rt_info>
				<attribute name="fused_names" version="0" value="/distilbert/transformer/layer.1/attention/out_lin/MatMul" />
			</rt_info>
			<input>
				<port id="0" precision="FP32">
					<dim>-1</dim>
					<dim>-1</dim>
					<dim>32</dim>
				</port>
				<port id="1" precision="FP32">
					<dim>32</dim>
					<dim>32</dim>
				</port>
			</input>
			<output>
				<port id="2" precision="FP32" names="/distilbert/transformer/layer.1/attention/out_lin/MatMul_output_0">
					<dim>-1</dim>
					<dim>-1</dim>
					<dim>32</dim>
				</port>
			</output>
		</layer>
		<layer id="225" name="/distilbert/transformer/layer.1/attention/out_lin/Add" type="Add" version="opset1">
			<data auto_broadcast="numpy" />
			<rt_info>
				<attribute name="fused_names" version="0" value="/distilbert/transformer/layer.1/attention/out_lin/Add" />
			</rt_info>
			<input>
				<port id="0" precision="FP32">
					<dim>32</dim>
				</port>
				<port id="1" precision="FP32">
					<dim>-1</dim>
					<dim>-1</dim>
					<dim>32</dim>
				</port>
			</input>
			<output>
				<port id="2" precision="FP32" names="/distilbert/transformer/layer.1/attention/out_lin/Add_output_0">
					<dim>-1</dim>
					<dim>-1</dim>
					<dim>32</dim>
				</port>
			</output>
		</layer>
		<layer id="226" name="/distilbert/transformer/layer.1/Add" type="Add" version="opset1">
			<data auto_broadcast="numpy" />
			<rt_info>
				<attribute name="fused_names" version="0" value="/distilbert/transformer/layer.1/Add" />
			</rt_info>
			<input>
				<port id="0" precision="FP32">
					<dim>-1</dim>
					<dim>-1</dim>
					<dim>32</dim>
				</port>
				<port id="1" precision="FP32">
					<dim>-1</dim>
					<dim>-1</dim>
					<dim>32</dim>
				</port>
			</input>
			<output>
				<port id="2" precision="FP32" names="/distilbert/transformer/layer.1/Add_output_0">
					<dim>-1</dim>
					<dim>-1</dim>
					<dim>32</dim>
				</port>
			</output>
		</layer>
		<layer id="227" name="Constant_4465816" type="Const" version="opset1">
			<data element_type="i64" shape="1" offset="213796" size="8" />
			<rt_info>
				<attribute name="fused_names" version="0" value="Constant_4465816" />
			</rt_info>
			<output>
				<port id="0" precision="I64">
					<dim>1</dim>
				</port>
			</output>
		</layer>
		<layer id="228" name="/distilbert/transformer/layer.1/sa_layer_norm/ReduceMean" type="ReduceMean" version="opset1">
			<data keep_dims="true" />
			<rt_info>
				<attribute name="fused_names" version="0" value="/distilbert/transformer/layer.1/sa_layer_norm/ReduceMean" />
			</rt_info>
			<input>
				<port id="0" precision="FP32">
					<dim>-1</dim>
					<dim>-1</dim>
					<dim>32</dim>
				</port>
				<port id="1" precision="I64">
					<dim>1</dim>
				</port>
			</input>
			<output>
				<port id="2" precision="FP32" names="/distilbert/transformer/layer.1/sa_layer_norm/ReduceMean_output_0">
					<dim>-1</dim>
					<dim>-1</dim>
					<dim>1</dim>
				</port>
			</output>
		</layer>
		<layer id="229" name="/distilbert/transformer/layer.1/sa_layer_norm/Sub" type="Subtract" version="opset1">
			<data auto_broadcast="numpy" />
			<rt_info>
				<attribute name="fused_names" version="0" value="/distilbert/transformer/layer.1/sa_layer_norm/Sub" />
			</rt_info>
			<input>
				<port id="0" precision="FP32">
					<dim>-1</dim>
					<dim>-1</dim>
					<dim>32</dim>
				</port>
				<port id="1" precision="FP32">
					<dim>-1</dim>
					<dim>-1</dim>
					<dim>1</dim>
				</port>
			</input>
			<output>
				<port id="2" precision="FP32" names="/distilbert/transformer/layer.1/sa_layer_norm/Sub_output_0">
					<dim>-1</dim>
					<dim>-1</dim>
					<dim>32</dim>
				</port>
			</output>
		</layer>
		<layer id="230" name="/distilbert/transformer/layer.1/sa_layer_norm/Constant" type="Const" version="opset1">
			<data element_type="f32" shape="" offset="213804" size="4" />
			<rt_info>
				<attribute name="fused_names" version="0" value="/distilbert/transformer/layer.1/sa_layer_norm/Constant" />
			</rt_info>
			<output>
				<port id="0" precision="FP32" names="/distilbert/transformer/layer.1/sa_layer_norm/Constant_output_0" />
			</output>
		</layer>
		<layer id="231" name="/distilbert/transformer/layer.1/sa_layer_norm/Pow" type="Power" version="opset1">
			<data auto_broadcast="numpy" />
			<rt_info>
				<attribute name="fused_names" version="0" value="/distilbert/transformer/layer.1/sa_layer_norm/Pow" />
			</rt_info>
			<input>
				<port id="0" precision="FP32">
					<dim>-1</dim>
					<dim>-1</dim>
					<dim>32</dim>
				</port>
				<port id="1" precision="FP32" />
			</input>
			<output>
				<port id="2" precision="FP32" names="/distilbert/transformer/layer.1/sa_layer_norm/Pow_output_0">
					<dim>-1</dim>
					<dim>-1</dim>
					<dim>32</dim>
				</port>
			</output>
		</layer>
		<layer id="232" name="Constant_4465821" type="Const" version="opset1">
			<data element_type="i64" shape="1" offset="213796" size="8" />
			<rt_info>
				<attribute name="fused_names" version="0" value="Constant_4465821" />
			</rt_info>
			<output>
				<port id="0" precision="I64">
					<dim>1</dim>
				</port>
			</output>
		</layer>
		<layer id="233" name="/distilbert/transformer/layer.1/sa_layer_norm/ReduceMean_1" type="ReduceMean" version="opset1">
			<data keep_dims="true" />
			<rt_info>
				<attribute name="fused_names" version="0" value="/distilbert/transformer/layer.1/sa_layer_norm/ReduceMean_1" />
			</rt_info>
			<input>
				<port id="0" precision="FP32">
					<dim>-1</dim>
					<dim>-1</dim>
					<dim>32</dim>
				</port>
				<port id="1" precision="I64">
					<dim>1</dim>
				</port>
			</input>
			<output>
				<port id="2" precision="FP32" names="/distilbert/transformer/layer.1/sa_layer_norm/ReduceMean_1_output_0">
					<dim>-1</dim>
					<dim>-1</dim>
					<dim>1</dim>
				</port>
			</output>
		</layer>
		<layer id="234" name="/distilbert/transformer/layer.1/sa_layer_norm/Constant_1" type="Const" version="opset1">
			<data element_type="f32" shape="" offset="213808" size="4" />
			<rt_info>
				<attribute name="fused_names" version="0" value="/distilbert/transformer/layer.1/sa_layer_norm/Constant_1" />
			</rt_info>
			<output>
				<port id="0" precision="FP32" names="/distilbert/transformer/layer.1/sa_layer_norm/Constant_1_output_0" />
			</output>
		</layer>
		<layer id="235" name="/distilbert/transformer/layer.1/sa_layer_norm/Add" type="Add" version="opset1">
			<data auto_broadcast="numpy" />
			<rt_info>
				<attribute name="fused_names" version="0" value="/distilbert/transformer/layer.1/sa_layer_norm/Add" />
			</rt_info>
			<input>
				<port id="0" precision="FP32">
					<dim>-1</dim>
					<dim>-1</dim>
					<dim>1</dim>
				</port>
				<port id="1" precision="FP32" />
			</input>
			<output>
				<port id="2" precision="FP32" names="/distilbert/transformer/layer.1/sa_layer_norm/Add_output_0">
					<dim>-1</dim>
					<dim>-1</dim>
					<dim>1</dim>
				</port>
			</output>
		</layer>
		<layer id="236" name="/distilbert/transformer/layer.1/sa_layer_norm/Sqrt" type="Sqrt" version="opset1">
			<rt_info>
				<attribute name="fused_names" version="0" value="/distilbert/transformer/layer.1/sa_layer_norm/Sqrt" />
			</rt_info>
			<input>
				<port id="0" precision="FP32">
					<dim>-1</dim>
					<dim>-1</dim>
					<dim>1</dim>
				</port>
			</input>
			<output>
				<port id="1" precision="FP32" names="/distilbert/transformer/layer.1/sa_layer_norm/Sqrt_output_0">
					<dim>-1</dim>
					<dim>-1</dim>
					<dim>1</dim>
				</port>
			</output>
		</layer>
		<layer id="237" name="/distilbert/transformer/layer.1/sa_layer_norm/Div" type="Divide" version="opset1">
			<data auto_broadcast="numpy" m_pythondiv="true" />
			<rt_info>
				<attribute name="fused_names" version="0" value="/distilbert/transformer/layer.1/sa_layer_norm/Div" />
			</rt_info>
			<input>
				<port id="0" precision="FP32">
					<dim>-1</dim>
					<dim>-1</dim>
					<dim>32</dim>
				</port>
				<port id="1" precision="FP32">
					<dim>-1</dim>
					<dim>-1</dim>
					<dim>1</dim>
				</port>
			</input>
			<output>
				<port id="2" precision="FP32" names="/distilbert/transformer/layer.1/sa_layer_norm/Div_output_0">
					<dim>-1</dim>
					<dim>-1</dim>
					<dim>32</dim>
				</port>
			</output>
		</layer>
		<layer id="238" name="/distilbert/transformer/layer.1/sa_layer_norm/Mul" type="Multiply" version="opset1">
			<data auto_broadcast="numpy" />
			<rt_info>
				<attribute name="fused_names" version="0" value="/distilbert/transformer/layer.1/sa_layer_norm/Mul" />
			</rt_info>
			<input>
				<port id="0" precision="FP32">
					<dim>-1</dim>
					<dim>-1</dim>
					<dim>32</dim>
				</port>
				<port id="1" precision="FP32">
					<dim>32</dim>
				</port>
			</input>
			<output>
				<port id="2" precision="FP32" names="/distilbert/transformer/layer.1/sa_layer_norm/Mul_output_0">
					<dim>-1</dim>
					<dim>-1</dim>
					<dim>32</dim>
				</port>
			</output>
		</layer>
		<layer id="239" name="/distilbert/transformer/layer.1/sa_layer_norm/Add_1" type="Add" version="opset1">
			<data auto_broadcast="numpy" />
			<rt_info>
				<attribute name="fused_names" version="0" value="/distilbert/transformer/layer.1/sa_layer_norm/Add_1" />
			</rt_info>
			<input>
				<port id="0" precision="FP32">
					<dim>-1</dim>
					<dim>-1</dim>
					<dim>32</dim>
				</port>
				<port id="1" precision="FP32">
					<dim>32</dim>
				</port>
			</input>
			<output>
				<port id="2" precision="FP32" names="/distilbert/transformer/layer.1/sa_layer_norm/Add_1_output_0">
					<dim>-1</dim>
					<dim>-1</dim>
					<dim>32</dim>
				</port>
			</output>
		</layer>
		<layer id="240" name="onnx::MatMul_658" type="Const" version="opset1">
			<data element_type="f32" shape="32, 37" offset="256288" size="4736" />
			<rt_info>
				<attribute name="fused_names" version="0" value="onnx::MatMul_658" />
			</rt_info>
			<output>
				<port id="0" precision="FP32" names="onnx::MatMul_658">
					<dim>32</dim>
					<dim>37</dim>
				</port>
			</output>
		</layer>
		<layer id="241" name="/distilbert/transformer/layer.1/ffn/lin1/MatMul" type="MatMul" version="opset1">
			<data transpose_a="false" transpose_b="false" />
			<rt_info>
				<attribute name="fused_names" version="0" value="/distilbert/transformer/layer.1/ffn/lin1/MatMul" />
			</rt_info>
			<input>
				<port id="0" precision="FP32">
					<dim>-1</dim>
					<dim>-1</dim>
					<dim>32</dim>
				</port>
				<port id="1" precision="FP32">
					<dim>32</dim>
					<dim>37</dim>
				</port>
			</input>
			<output>
				<port id="2" precision="FP32" names="/distilbert/transformer/layer.1/ffn/lin1/MatMul_output_0">
					<dim>-1</dim>
					<dim>-1</dim>
					<dim>37</dim>
				</port>
			</output>
		</layer>
		<layer id="242" name="/distilbert/transformer/layer.1/ffn/lin1/Add" type="Add" version="opset1">
			<data auto_broadcast="numpy" />
			<rt_info>
				<attribute name="fused_names" version="0" value="/distilbert/transformer/layer.1/ffn/lin1/Add" />
			</rt_info>
			<input>
				<port id="0" precision="FP32">
					<dim>37</dim>
				</port>
				<port id="1" precision="FP32">
					<dim>-1</dim>
					<dim>-1</dim>
					<dim>37</dim>
				</port>
			</input>
			<output>
				<port id="2" precision="FP32" names="/distilbert/transformer/layer.1/ffn/lin1/Add_output_0">
					<dim>-1</dim>
					<dim>-1</dim>
					<dim>37</dim>
				</port>
			</output>
		</layer>
		<layer id="243" name="/distilbert/transformer/layer.1/ffn/activation/Constant" type="Const" version="opset1">
			<data element_type="f32" shape="" offset="235156" size="4" />
			<rt_info>
				<attribute name="fused_names" version="0" value="/distilbert/transformer/layer.1/ffn/activation/Constant" />
			</rt_info>
			<output>
				<port id="0" precision="FP32" names="/distilbert/transformer/layer.1/ffn/activation/Constant_output_0" />
			</output>
		</layer>
		<layer id="244" name="/distilbert/transformer/layer.1/ffn/activation/Div" type="Divide" version="opset1">
			<data auto_broadcast="numpy" m_pythondiv="true" />
			<rt_info>
				<attribute name="fused_names" version="0" value="/distilbert/transformer/layer.1/ffn/activation/Div" />
			</rt_info>
			<input>
				<port id="0" precision="FP32">
					<dim>-1</dim>
					<dim>-1</dim>
					<dim>37</dim>
				</port>
				<port id="1" precision="FP32" />
			</input>
			<output>
				<port id="2" precision="FP32" names="/distilbert/transformer/layer.1/ffn/activation/Div_output_0">
					<dim>-1</dim>
					<dim>-1</dim>
					<dim>37</dim>
				</port>
			</output>
		</layer>
		<layer id="245" name="/distilbert/transformer/layer.1/ffn/activation/Erf" type="Erf" version="opset1">
			<rt_info>
				<attribute name="fused_names" version="0" value="/distilbert/transformer/layer.1/ffn/activation/Erf" />
			</rt_info>
			<input>
				<port id="0" precision="FP32">
					<dim>-1</dim>
					<dim>-1</dim>
					<dim>37</dim>
				</port>
			</input>
			<output>
				<port id="1" precision="FP32" names="/distilbert/transformer/layer.1/ffn/activation/Erf_output_0">
					<dim>-1</dim>
					<dim>-1</dim>
					<dim>37</dim>
				</port>
			</output>
		</layer>
		<layer id="246" name="/distilbert/transformer/layer.1/ffn/activation/Constant_1" type="Const" version="opset1">
			<data element_type="f32" shape="" offset="235160" size="4" />
			<rt_info>
				<attribute name="fused_names" version="0" value="/distilbert/transformer/layer.1/ffn/activation/Constant_1" />
			</rt_info>
			<output>
				<port id="0" precision="FP32" names="/distilbert/transformer/layer.1/ffn/activation/Constant_1_output_0" />
			</output>
		</layer>
		<layer id="247" name="/distilbert/transformer/layer.1/ffn/activation/Add" type="Add" version="opset1">
			<data auto_broadcast="numpy" />
			<rt_info>
				<attribute name="fused_names" version="0" value="/distilbert/transformer/layer.1/ffn/activation/Add" />
			</rt_info>
			<input>
				<port id="0" precision="FP32">
					<dim>-1</dim>
					<dim>-1</dim>
					<dim>37</dim>
				</port>
				<port id="1" precision="FP32" />
			</input>
			<output>
				<port id="2" precision="FP32" names="/distilbert/transformer/layer.1/ffn/activation/Add_output_0">
					<dim>-1</dim>
					<dim>-1</dim>
					<dim>37</dim>
				</port>
			</output>
		</layer>
		<layer id="248" name="/distilbert/transformer/layer.1/ffn/activation/Mul" type="Multiply" version="opset1">
			<data auto_broadcast="numpy" />
			<rt_info>
				<attribute name="fused_names" version="0" value="/distilbert/transformer/layer.1/ffn/activation/Mul" />
			</rt_info>
			<input>
				<port id="0" precision="FP32">
					<dim>-1</dim>
					<dim>-1</dim>
					<dim>37</dim>
				</port>
				<port id="1" precision="FP32">
					<dim>-1</dim>
					<dim>-1</dim>
					<dim>37</dim>
				</port>
			</input>
			<output>
				<port id="2" precision="FP32" names="/distilbert/transformer/layer.1/ffn/activation/Mul_output_0">
					<dim>-1</dim>
					<dim>-1</dim>
					<dim>37</dim>
				</port>
			</output>
		</layer>
		<layer id="249" name="/distilbert/transformer/layer.1/ffn/activation/Constant_2" type="Const" version="opset1">
			<data element_type="f32" shape="" offset="235164" size="4" />
			<rt_info>
				<attribute name="fused_names" version="0" value="/distilbert/transformer/layer.1/ffn/activation/Constant_2" />
			</rt_info>
			<output>
				<port id="0" precision="FP32" names="/distilbert/transformer/layer.1/ffn/activation/Constant_2_output_0" />
			</output>
		</layer>
		<layer id="250" name="/distilbert/transformer/layer.1/ffn/activation/Mul_1" type="Multiply" version="opset1">
			<data auto_broadcast="numpy" />
			<rt_info>
				<attribute name="fused_names" version="0" value="/distilbert/transformer/layer.1/ffn/activation/Mul_1" />
			</rt_info>
			<input>
				<port id="0" precision="FP32">
					<dim>-1</dim>
					<dim>-1</dim>
					<dim>37</dim>
				</port>
				<port id="1" precision="FP32" />
			</input>
			<output>
				<port id="2" precision="FP32" names="/distilbert/transformer/layer.1/ffn/activation/Mul_1_output_0">
					<dim>-1</dim>
					<dim>-1</dim>
					<dim>37</dim>
				</port>
			</output>
		</layer>
		<layer id="251" name="onnx::MatMul_659" type="Const" version="opset1">
			<data element_type="f32" shape="37, 32" offset="261024" size="4736" />
			<rt_info>
				<attribute name="fused_names" version="0" value="onnx::MatMul_659" />
			</rt_info>
			<output>
				<port id="0" precision="FP32" names="onnx::MatMul_659">
					<dim>37</dim>
					<dim>32</dim>
				</port>
			</output>
		</layer>
		<layer id="252" name="/distilbert/transformer/layer.1/ffn/lin2/MatMul" type="MatMul" version="opset1">
			<data transpose_a="false" transpose_b="false" />
			<rt_info>
				<attribute name="fused_names" version="0" value="/distilbert/transformer/layer.1/ffn/lin2/MatMul" />
			</rt_info>
			<input>
				<port id="0" precision="FP32">
					<dim>-1</dim>
					<dim>-1</dim>
					<dim>37</dim>
				</port>
				<port id="1" precision="FP32">
					<dim>37</dim>
					<dim>32</dim>
				</port>
			</input>
			<output>
				<port id="2" precision="FP32" names="/distilbert/transformer/layer.1/ffn/lin2/MatMul_output_0">
					<dim>-1</dim>
					<dim>-1</dim>
					<dim>32</dim>
				</port>
			</output>
		</layer>
		<layer id="253" name="/distilbert/transformer/layer.1/ffn/lin2/Add" type="Add" version="opset1">
			<data auto_broadcast="numpy" />
			<rt_info>
				<attribute name="fused_names" version="0" value="/distilbert/transformer/layer.1/ffn/lin2/Add" />
			</rt_info>
			<input>
				<port id="0" precision="FP32">
					<dim>32</dim>
				</port>
				<port id="1" precision="FP32">
					<dim>-1</dim>
					<dim>-1</dim>
					<dim>32</dim>
				</port>
			</input>
			<output>
				<port id="2" precision="FP32" names="/distilbert/transformer/layer.1/ffn/lin2/Add_output_0">
					<dim>-1</dim>
					<dim>-1</dim>
					<dim>32</dim>
				</port>
			</output>
		</layer>
		<layer id="254" name="/distilbert/transformer/layer.1/Add_1" type="Add" version="opset1">
			<data auto_broadcast="numpy" />
			<rt_info>
				<attribute name="fused_names" version="0" value="/distilbert/transformer/layer.1/Add_1" />
			</rt_info>
			<input>
				<port id="0" precision="FP32">
					<dim>-1</dim>
					<dim>-1</dim>
					<dim>32</dim>
				</port>
				<port id="1" precision="FP32">
					<dim>-1</dim>
					<dim>-1</dim>
					<dim>32</dim>
				</port>
			</input>
			<output>
				<port id="2" precision="FP32" names="/distilbert/transformer/layer.1/Add_1_output_0">
					<dim>-1</dim>
					<dim>-1</dim>
					<dim>32</dim>
				</port>
			</output>
		</layer>
		<layer id="255" name="Constant_4465842" type="Const" version="opset1">
			<data element_type="i64" shape="1" offset="213796" size="8" />
			<rt_info>
				<attribute name="fused_names" version="0" value="Constant_4465842" />
			</rt_info>
			<output>
				<port id="0" precision="I64">
					<dim>1</dim>
				</port>
			</output>
		</layer>
		<layer id="256" name="/distilbert/transformer/layer.1/output_layer_norm/ReduceMean" type="ReduceMean" version="opset1">
			<data keep_dims="true" />
			<rt_info>
				<attribute name="fused_names" version="0" value="/distilbert/transformer/layer.1/output_layer_norm/ReduceMean" />
			</rt_info>
			<input>
				<port id="0" precision="FP32">
					<dim>-1</dim>
					<dim>-1</dim>
					<dim>32</dim>
				</port>
				<port id="1" precision="I64">
					<dim>1</dim>
				</port>
			</input>
			<output>
				<port id="2" precision="FP32" names="/distilbert/transformer/layer.1/output_layer_norm/ReduceMean_output_0">
					<dim>-1</dim>
					<dim>-1</dim>
					<dim>1</dim>
				</port>
			</output>
		</layer>
		<layer id="257" name="/distilbert/transformer/layer.1/output_layer_norm/Sub" type="Subtract" version="opset1">
			<data auto_broadcast="numpy" />
			<rt_info>
				<attribute name="fused_names" version="0" value="/distilbert/transformer/layer.1/output_layer_norm/Sub" />
			</rt_info>
			<input>
				<port id="0" precision="FP32">
					<dim>-1</dim>
					<dim>-1</dim>
					<dim>32</dim>
				</port>
				<port id="1" precision="FP32">
					<dim>-1</dim>
					<dim>-1</dim>
					<dim>1</dim>
				</port>
			</input>
			<output>
				<port id="2" precision="FP32" names="/distilbert/transformer/layer.1/output_layer_norm/Sub_output_0">
					<dim>-1</dim>
					<dim>-1</dim>
					<dim>32</dim>
				</port>
			</output>
		</layer>
		<layer id="258" name="/distilbert/transformer/layer.1/output_layer_norm/Constant" type="Const" version="opset1">
			<data element_type="f32" shape="" offset="213804" size="4" />
			<rt_info>
				<attribute name="fused_names" version="0" value="/distilbert/transformer/layer.1/output_layer_norm/Constant" />
			</rt_info>
			<output>
				<port id="0" precision="FP32" names="/distilbert/transformer/layer.1/output_layer_norm/Constant_output_0" />
			</output>
		</layer>
		<layer id="259" name="/distilbert/transformer/layer.1/output_layer_norm/Pow" type="Power" version="opset1">
			<data auto_broadcast="numpy" />
			<rt_info>
				<attribute name="fused_names" version="0" value="/distilbert/transformer/layer.1/output_layer_norm/Pow" />
			</rt_info>
			<input>
				<port id="0" precision="FP32">
					<dim>-1</dim>
					<dim>-1</dim>
					<dim>32</dim>
				</port>
				<port id="1" precision="FP32" />
			</input>
			<output>
				<port id="2" precision="FP32" names="/distilbert/transformer/layer.1/output_layer_norm/Pow_output_0">
					<dim>-1</dim>
					<dim>-1</dim>
					<dim>32</dim>
				</port>
			</output>
		</layer>
		<layer id="260" name="Constant_4465847" type="Const" version="opset1">
			<data element_type="i64" shape="1" offset="213796" size="8" />
			<rt_info>
				<attribute name="fused_names" version="0" value="Constant_4465847" />
			</rt_info>
			<output>
				<port id="0" precision="I64">
					<dim>1</dim>
				</port>
			</output>
		</layer>
		<layer id="261" name="/distilbert/transformer/layer.1/output_layer_norm/ReduceMean_1" type="ReduceMean" version="opset1">
			<data keep_dims="true" />
			<rt_info>
				<attribute name="fused_names" version="0" value="/distilbert/transformer/layer.1/output_layer_norm/ReduceMean_1" />
			</rt_info>
			<input>
				<port id="0" precision="FP32">
					<dim>-1</dim>
					<dim>-1</dim>
					<dim>32</dim>
				</port>
				<port id="1" precision="I64">
					<dim>1</dim>
				</port>
			</input>
			<output>
				<port id="2" precision="FP32" names="/distilbert/transformer/layer.1/output_layer_norm/ReduceMean_1_output_0">
					<dim>-1</dim>
					<dim>-1</dim>
					<dim>1</dim>
				</port>
			</output>
		</layer>
		<layer id="262" name="/distilbert/transformer/layer.1/output_layer_norm/Constant_1" type="Const" version="opset1">
			<data element_type="f32" shape="" offset="213808" size="4" />
			<rt_info>
…
		<edge from-layer="3" from-port="0" to-layer="127" to-port="0" />
		<edge from-layer="3" from-port="0" to-layer="357" to-port="0" />
		<edge from-layer="3" from-port="0" to-layer="472" to-port="0" />
		<edge from-layer="4" from-port="0" to-layer="5" to-port="1" />
		<edge from-layer="5" from-port="2" to-layer="398" to-port="0" />
		<edge from-layer="5" from-port="2" to-layer="168" to-port="0" />
		<edge from-layer="5" from-port="2" to-layer="53" to-port="0" />
		<edge from-layer="5" from-port="2" to-layer="283" to-port="0" />
		<edge from-layer="5" from-port="2" to-layer="513" to-port="0" />
		<edge from-layer="6" from-port="0" to-layer="8" to-port="0" />
		<edge from-layer="7" from-port="0" to-layer="8" to-port="2" />
		<edge from-layer="8" from-port="3" to-layer="23" to-port="0" />
		<edge from-layer="8" from-port="3" to-layer="12" to-port="0" />
		<edge from-layer="9" from-port="0" to-layer="22" to-port="0" />
		<edge from-layer="10" from-port="0" to-layer="20" to-port="0" />
		<edge from-layer="11" from-port="0" to-layer="20" to-port="1" />
		<edge from-layer="12" from-port="1" to-layer="15" to-port="0" />
		<edge from-layer="13" from-port="0" to-layer="15" to-port="1" />
		<edge from-layer="14" from-port="0" to-layer="15" to-port="2" />
		<edge from-layer="15" from-port="3" to-layer="17" to-port="0" />
		<edge from-layer="16" from-port="0" to-layer="17" to-port="1" />
		<edge from-layer="17" from-port="2" to-layer="20" to-port="2" />
		<edge from-layer="18" from-port="0" to-layer="20" to-port="3" />
		<edge from-layer="19" from-port="0" to-layer="20" to-port="4" />
		<edge from-layer="20" from-port="5" to-layer="22" to-port="1" />
		<edge from-layer="21" from-port="0" to-layer="22" to-port="2" />
		<edge from-layer="22" from-port="3" to-layer="23" to-port="1" />
		<edge from-layer="23" from-port="2" to-layer="25" to-port="0" />
		<edge from-layer="23" from-port="2" to-layer="26" to-port="0" />
		<edge from-layer="24" from-port="0" to-layer="25" to-port="1" />
		<edge from-layer="25" from-port="2" to-layer="26" to-port="1" />
		<edge from-layer="26" from-port="2" to-layer="34" to-port="0" />
		<edge from-layer="26" from-port="2" to-layer="28" to-port="0" />
		<edge from-layer="27" from-port="0" to-layer="28" to-port="1" />
		<edge from-layer="28" from-port="2" to-layer="30" to-port="0" />
		<edge from-layer="29" from-port="0" to-layer="30" to-port="1" />
		<edge from-layer="30" from-port="2" to-layer="32" to-port="0" />
		<edge from-layer="31" from-port="0" to-layer="32" to-port="1" />
		<edge from-layer="32" from-port="2" to-layer="33" to-port="0" />
		<edge from-layer="33" from-port="1" to-layer="34" to-port="1" />
		<edge from-layer="34" from-port="2" to-layer="36" to-port="0" />
		<edge from-layer="35" from-port="0" to-layer="611" to-port="1" />
		<edge from-layer="35" from-port="0" to-layer="266" to-port="1" />
		<edge from-layer="35" from-port="0" to-layer="583" to-port="1" />
		<edge from-layer="35" from-port="0" to-layer="123" to-port="1" />
		<edge from-layer="35" from-port="0" to-layer="353" to-port="1" />
		<edge from-layer="35" from-port="0" to-layer="496" to-port="1" />
		<edge from-layer="35" from-port="0" to-layer="238" to-port="1" />
		<edge from-layer="35" from-port="0" to-layer="468" to-port="1" />
		<edge from-layer="35" from-port="0" to-layer="151" to-port="1" />
		<edge from-layer="35" from-port="0" to-layer="381" to-port="1" />
		<edge from-layer="35" from-port="0" to-layer="36" to-port="1" />
		<edge from-layer="36" from-port="2" to-layer="37" to-port="0" />
		<edge from-layer="37" from-port="2" to-layer="55" to-port="0" />
		<edge from-layer="37" from-port="2" to-layer="69" to-port="0" />
		<edge from-layer="37" from-port="2" to-layer="88" to-port="0" />
		<edge from-layer="37" from-port="2" to-layer="111" to-port="1" />
		<edge from-layer="37" from-port="2" to-layer="38" to-port="0" />
		<edge from-layer="37" from-port="2" to-layer="46" to-port="0" />
		<edge from-layer="38" from-port="1" to-layer="41" to-port="0" />
		<edge from-layer="39" from-port="0" to-layer="41" to-port="1" />
		<edge from-layer="40" from-port="0" to-layer="41" to-port="2" />
		<edge from-layer="41" from-port="3" to-layer="72" to-port="0" />
		<edge from-layer="41" from-port="3" to-layer="58" to-port="0" />
		<edge from-layer="41" from-port="3" to-layer="103" to-port="0" />
		<edge from-layer="41" from-port="3" to-layer="91" to-port="0" />
		<edge from-layer="41" from-port="3" to-layer="43" to-port="0" />
		<edge from-layer="42" from-port="0" to-layer="43" to-port="1" />
		<edge from-layer="43" from-port="2" to-layer="52" to-port="0" />
		<edge from-layer="44" from-port="0" to-layer="52" to-port="1" />
		<edge from-layer="45" from-port="0" to-layer="52" to-port="2" />
		<edge from-layer="46" from-port="1" to-layer="49" to-port="0" />
		<edge from-layer="47" from-port="0" to-layer="49" to-port="1" />
		<edge from-layer="48" from-port="0" to-layer="49" to-port="2" />
		<edge from-layer="49" from-port="3" to-layer="51" to-port="0" />
		<edge from-layer="50" from-port="0" to-layer="51" to-port="1" />
		<edge from-layer="51" from-port="2" to-layer="52" to-port="3" />
		<edge from-layer="52" from-port="4" to-layer="53" to-port="1" />
		<edge from-layer="53" from-port="2" to-layer="82" to-port="0" />
		<edge from-layer="54" from-port="0" to-layer="55" to-port="1" />
		<edge from-layer="55" from-port="2" to-layer="56" to-port="1" />
		<edge from-layer="56" from-port="2" to-layer="63" to-port="0" />
		<edge from-layer="57" from-port="0" to-layer="58" to-port="1" />
		<edge from-layer="58" from-port="2" to-layer="62" to-port="0" />
		<edge from-layer="59" from-port="0" to-layer="62" to-port="1" />
		<edge from-layer="60" from-port="0" to-layer="62" to-port="2" />
		<edge from-layer="61" from-port="0" to-layer="62" to-port="3" />
		<edge from-layer="62" from-port="4" to-layer="63" to-port="1" />
		<edge from-layer="63" from-port="2" to-layer="65" to-port="0" />
		<edge from-layer="64" from-port="0" to-layer="65" to-port="1" />
		<edge from-layer="65" from-port="2" to-layer="67" to-port="0" />
		<edge from-layer="66" from-port="0" to-layer="67" to-port="1" />
		<edge from-layer="67" from-port="2" to-layer="80" to-port="0" />
		<edge from-layer="68" from-port="0" to-layer="69" to-port="1" />
		<edge from-layer="69" from-port="2" to-layer="70" to-port="1" />
		<edge from-layer="70" from-port="2" to-layer="77" to-port="0" />
		<edge from-layer="71" from-port="0" to-layer="72" to-port="1" />
		<edge from-layer="72" from-port="2" to-layer="76" to-port="0" />
		<edge from-layer="73" from-port="0" to-layer="76" to-port="1" />
		<edge from-layer="74" from-port="0" to-layer="76" to-port="2" />
		<edge from-layer="75" from-port="0" to-layer="76" to-port="3" />
		<edge from-layer="76" from-port="4" to-layer="77" to-port="1" />
		<edge from-layer="77" from-port="2" to-layer="79" to-port="0" />
		<edge from-layer="78" from-port="0" to-layer="79" to-port="1" />
		<edge from-layer="79" from-port="2" to-layer="80" to-port="1" />
		<edge from-layer="80" from-port="2" to-layer="81" to-port="0" />
		<edge from-layer="80" from-port="2" to-layer="85" to-port="2" />
		<edge from-layer="81" from-port="1" to-layer="82" to-port="1" />
		<edge from-layer="82" from-port="2" to-layer="83" to-port="0" />
		<edge from-layer="83" from-port="1" to-layer="85" to-port="0" />
		<edge from-layer="84" from-port="0" to-layer="85" to-port="1" />
		<edge from-layer="85" from-port="3" to-layer="86" to-port="0" />
		<edge from-layer="86" from-port="1" to-layer="99" to-port="0" />
		<edge from-layer="87" from-port="0" to-layer="88" to-port="1" />
		<edge from-layer="88" from-port="2" to-layer="89" to-port="1" />
		<edge from-layer="89" from-port="2" to-layer="96" to-port="0" />
		<edge from-layer="90" from-port="0" to-layer="91" to-port="1" />
		<edge from-layer="91" from-port="2" to-layer="95" to-port="0" />
		<edge from-layer="92" from-port="0" to-layer="95" to-port="1" />
		<edge from-layer="93" from-port="0" to-layer="95" to-port="2" />
		<edge from-layer="94" from-port="0" to-layer="95" to-port="3" />
		<edge from-layer="95" from-port="4" to-layer="96" to-port="1" />
		<edge from-layer="96" from-port="2" to-layer="98" to-port="0" />
		<edge from-layer="97" from-port="0" to-layer="98" to-port="1" />
		<edge from-layer="98" from-port="2" to-layer="99" to-port="1" />
		<edge from-layer="99" from-port="2" to-layer="101" to-port="0" />
		<edge from-layer="100" from-port="0" to-layer="101" to-port="1" />
		<edge from-layer="101" from-port="2" to-layer="107" to-port="0" />
		<edge from-layer="102" from-port="0" to-layer="103" to-port="1" />
		<edge from-layer="103" from-port="2" to-layer="106" to-port="0" />
		<edge from-layer="104" from-port="0" to-layer="106" to-port="1" />
		<edge from-layer="105" from-port="0" to-layer="106" to-port="2" />
		<edge from-layer="106" from-port="3" to-layer="107" to-port="1" />
		<edge from-layer="107" from-port="2" to-layer="109" to-port="0" />
		<edge from-layer="108" from-port="0" to-layer="109" to-port="1" />
		<edge from-layer="109" from-port="2" to-layer="110" to-port="1" />
		<edge from-layer="110" from-port="2" to-layer="111" to-port="0" />
		<edge from-layer="111" from-port="2" to-layer="114" to-port="0" />
		<edge from-layer="111" from-port="2" to-layer="113" to-port="0" />
		<edge from-layer="112" from-port="0" to-layer="113" to-port="1" />
		<edge from-layer="113" from-port="2" to-layer="114" to-port="1" />
		<edge from-layer="114" from-port="2" to-layer="116" to-port="0" />
		<edge from-layer="114" from-port="2" to-layer="122" to-port="0" />
		<edge from-layer="115" from-port="0" to-layer="116" to-port="1" />
		<edge from-layer="116" from-port="2" to-layer="118" to-port="0" />
		<edge from-layer="117" from-port="0" to-layer="118" to-port="1" />
		<edge from-layer="118" from-port="2" to-layer="120" to-port="0" />
		<edge from-layer="119" from-port="0" to-layer="120" to-port="1" />
		<edge from-layer="120" from-port="2" to-layer="121" to-port="0" />
		<edge from-layer="121" from-port="1" to-layer="122" to-port="1" />
		<edge from-layer="122" from-port="2" to-layer="123" to-port="0" />
		<edge from-layer="123" from-port="2" to-layer="124" to-port="0" />
		<edge from-layer="124" from-port="2" to-layer="139" to-port="1" />
		<edge from-layer="124" from-port="2" to-layer="126" to-port="0" />
		<edge from-layer="125" from-port="0" to-layer="126" to-port="1" />
		<edge from-layer="126" from-port="2" to-layer="127" to-port="1" />
		<edge from-layer="127" from-port="2" to-layer="129" to-port="0" />
		<edge from-layer="127" from-port="2" to-layer="133" to-port="0" />
		<edge from-layer="128" from-port="0" to-layer="129" to-port="1" />
		<edge from-layer="129" from-port="2" to-layer="130" to-port="0" />
		<edge from-layer="130" from-port="1" to-layer="132" to-port="0" />
		<edge from-layer="131" from-port="0" to-layer="132" to-port="1" />
		<edge from-layer="132" from-port="2" to-layer="133" to-port="1" />
		<edge from-layer="133" from-port="2" to-layer="135" to-port="0" />
		<edge from-layer="134" from-port="0" to-layer="135" to-port="1" />
		<edge from-layer="135" from-port="2" to-layer="137" to-port="0" />
		<edge from-layer="136" from-port="0" to-layer="137" to-port="1" />
		<edge from-layer="137" from-port="2" to-layer="138" to-port="1" />
		<edge from-layer="138" from-port="2" to-layer="139" to-port="0" />
		<edge from-layer="139" from-port="2" to-layer="142" to-port="0" />
		<edge from-layer="139" from-port="2" to-layer="141" to-port="0" />
		<edge from-layer="140" from-port="0" to-layer="141" to-port="1" />
		<edge from-layer="141" from-port="2" to-layer="142" to-port="1" />
		<edge from-layer="142" from-port="2" to-layer="144" to-port="0" />
		<edge from-layer="142" from-port="2" to-layer="150" to-port="0" />
		<edge from-layer="143" from-port="0" to-layer="144" to-port="1" />
		<edge from-layer="144" from-port="2" to-layer="146" to-port="0" />
		<edge from-layer="145" from-port="0" to-layer="146" to-port="1" />
		<edge from-layer="146" from-port="2" to-layer="148" to-port="0" />
		<edge from-layer="147" from-port="0" to-layer="148" to-port="1" />
		<edge from-layer="148" from-port="2" to-layer="149" to-port="0" />
		<edge from-layer="149" from-port="1" to-layer="150" to-port="1" />
		<edge from-layer="150" from-port="2" to-layer="151" to-port="0" />
		<edge from-layer="151" from-port="2" to-layer="152" to-port="0" />
		<edge from-layer="152" from-port="2" to-layer="184" to-port="0" />
		<edge from-layer="152" from-port="2" to-layer="170" to-port="0" />
		<edge from-layer="152" from-port="2" to-layer="161" to-port="0" />
		<edge from-layer="152" from-port="2" to-layer="153" to-port="0" />
		<edge from-layer="152" from-port="2" to-layer="226" to-port="1" />
		<edge from-layer="152" from-port="2" to-layer="203" to-port="0" />
		<edge from-layer="153" from-port="1" to-layer="156" to-port="0" />
		<edge from-layer="154" from-port="0" to-layer="156" to-port="1" />
		<edge from-layer="155" from-port="0" to-layer="156" to-port="2" />
		<edge from-layer="156" from-port="3" to-layer="158" to-port="0" />
		<edge from-layer="156" from-port="3" to-layer="206" to-port="0" />
		<edge from-layer="156" from-port="3" to-layer="187" to-port="0" />
		<edge from-layer="156" from-port="3" to-layer="173" to-port="0" />
		<edge from-layer="156" from-port="3" to-layer="218" to-port="0" />
		<edge from-layer="157" from-port="0" to-layer="158" to-port="1" />
		<edge from-layer="158" from-port="2" to-layer="167" to-port="0" />
		<edge from-layer="159" from-port="0" to-layer="167" to-port="1" />
		<edge from-layer="160" from-port="0" to-layer="167" to-port="2" />
		<edge from-layer="161" from-port="1" to-layer="164" to-port="0" />
		<edge from-layer="162" from-port="0" to-layer="164" to-port="1" />
		<edge from-layer="163" from-port="0" to-layer="164" to-port="2" />
		<edge from-layer="164" from-port="3" to-layer="166" to-port="0" />
		<edge from-layer="165" from-port="0" to-layer="166" to-port="1" />
		<edge from-layer="166" from-port="2" to-layer="167" to-port="3" />
		<edge from-layer="167" from-port="4" to-layer="168" to-port="1" />
		<edge from-layer="168" from-port="2" to-layer="197" to-port="0" />
		<edge from-layer="169" from-port="0" to-layer="170" to-port="1" />
		<edge from-layer="170" from-port="2" to-layer="171" to-port="1" />
		<edge from-layer="171" from-port="2" to-layer="178" to-port="0" />
		<edge from-layer="172" from-port="0" to-layer="173" to-port="1" />
		<edge from-layer="173" from-port="2" to-layer="177" to-port="0" />
		<edge from-layer="174" from-port="0" to-layer="177" to-port="1" />
		<edge from-layer="175" from-port="0" to-layer="177" to-port="2" />
		<edge from-layer="176" from-port="0" to-layer="177" to-port="3" />
		<edge from-layer="177" from-port="4" to-layer="178" to-port="1" />
		<edge from-layer="178" from-port="2" to-layer="180" to-port="0" />
		<edge from-layer="179" from-port="0" to-layer="180" to-port="1" />
		<edge from-layer="180" from-port="2" to-layer="182" to-port="0" />
		<edge from-layer="181" from-port="0" to-layer="182" to-port="1" />
		<edge from-layer="182" from-port="2" to-layer="195" to-port="0" />
		<edge from-layer="183" from-port="0" to-layer="184" to-port="1" />
		<edge from-layer="184" from-port="2" to-layer="185" to-port="1" />
		<edge from-layer="185" from-port="2" to-layer="192" to-port="0" />
		<edge from-layer="186" from-port="0" to-layer="187" to-port="1" />
		<edge from-layer="187" from-port="2" to-layer="191" to-port="0" />
		<edge from-layer="188" from-port="0" to-layer="191" to-port="1" />
		<edge from-layer="189" from-port="0" to-layer="191" to-port="2" />
		<edge from-layer="190" from-port="0" to-layer="191" to-port="3" />
		<edge from-layer="191" from-port="4" to-layer="192" to-port="1" />
		<edge from-layer="192" from-port="2" to-layer="194" to-port="0" />
		<edge from-layer="193" from-port="0" to-layer="194" to-port="1" />
		<edge from-layer="194" from-port="2" to-layer="195" to-port="1" />
		<edge from-layer="195" from-port="2" to-layer="200" to-port="2" />
		<edge from-layer="195" from-port="2" to-layer="196" to-port="0" />
		<edge from-layer="196" from-port="1" to-layer="197" to-port="1" />
		<edge from-layer="197" from-port="2" to-layer="198" to-port="0" />
		<edge from-layer="198" from-port="1" to-layer="200" to-port="0" />
		<edge from-layer="199" from-port="0" to-layer="200" to-port="1" />
		<edge from-layer="200" from-port="3" to-layer="201" to-port="0" />
		<edge from-layer="201" from-port="1" to-layer="214" to-port="0" />
		<edge from-layer="202" from-port="0" to-layer="203" to-port="1" />
		<edge from-layer="203" from-port="2" to-layer="204" to-port="1" />
		<edge from-layer="204" from-port="2" to-layer="211" to-port="0" />
		<edge from-layer="205" from-port="0" to-layer="206" to-port="1" />
		<edge from-layer="206" from-port="2" to-layer="210" to-port="0" />
		<edge from-layer="207" from-port="0" to-layer="210" to-port="1" />
		<edge from-layer="208" from-port="0" to-layer="210" to-port="2" />
		<edge from-layer="209" from-port="0" to-layer="210" to-port="3" />
		<edge from-layer="210" from-port="4" to-layer="211" to-port="1" />
		<edge from-layer="211" from-port="2" to-layer="213" to-port="0" />
		<edge from-layer="212" from-port="0" to-layer="213" to-port="1" />
		<edge from-layer="213" from-port="2" to-layer="214" to-port="1" />
		<edge from-layer="214" from-port="2" to-layer="216" to-port="0" />
		<edge from-layer="215" from-port="0" to-layer="216" to-port="1" />
		<edge from-layer="216" from-port="2" to-layer="222" to-port="0" />
		<edge from-layer="217" from-port="0" to-layer="218" to-port="1" />
		<edge from-layer="218" from-port="2" to-layer="221" to-port="0" />
		<edge from-layer="219" from-port="0" to-layer="221" to-port="1" />
		<edge from-layer="220" from-port="0" to-layer="221" to-port="2" />
		<edge from-layer="221" from-port="3" to-layer="222" to-port="1" />
		<edge from-layer="222" from-port="2" to-layer="224" to-port="0" />
		<edge from-layer="223" from-port="0" to-layer="224" to-port="1" />
		<edge from-layer="224" from-port="2" to-layer="225" to-port="1" />
		<edge from-layer="225" from-port="2" to-layer="226" to-port="0" />
		<edge from-layer="226" from-port="2" to-layer="229" to-port="0" />
		<edge from-layer="226" from-port="2" to-layer="228" to-port="0" />
		<edge from-layer="227" from-port="0" to-layer="228" to-port="1" />
		<edge from-layer="228" from-port="2" to-layer="229" to-port="1" />
		<edge from-layer="229" from-port="2" to-layer="231" to-port="0" />
		<edge from-layer="229" from-port="2" to-layer="237" to-port="0" />
		<edge from-layer="230" from-port="0" to-layer="231" to-port="1" />
		<edge from-layer="231" from-port="2" to-layer="233" to-port="0" />
		<edge from-layer="232" from-port="0" to-layer="233" to-port="1" />
		<edge from-layer="233" from-port="2" to-layer="235" to-port="0" />
		<edge from-layer="234" from-port="0" to-layer="235" to-port="1" />
		<edge from-layer="235" from-port="2" to-layer="236" to-port="0" />
		<edge from-layer="236" from-port="1" to-layer="237" to-port="1" />
		<edge from-layer="237" from-port="2" to-layer="238" to-port="0" />
		<edge from-layer="238" from-port="2" to-layer="239" to-port="0" />
		<edge from-layer="239" from-port="2" to-layer="254" to-port="1" />
		<edge from-layer="239" from-port="2" to-layer="241" to-port="0" />
		<edge from-layer="240" from-port="0" to-layer="241" to-port="1" />
		<edge from-layer="241" from-port="2" to-layer="242" to-port="1" />
		<edge from-layer="242" from-port="2" to-layer="248" to-port="0" />
		<edge from-layer="242" from-port="2" to-layer="244" to-port="0" />
		<edge from-layer="243" from-port="0" to-layer="244" to-port="1" />
		<edge from-layer="244" from-port="2" to-layer="245" to-port="0" />
		<edge from-layer="245" from-port="1" to-layer="247" to-port="0" />
		<edge from-layer="246" from-port="0" to-layer="247" to-port="1" />
		<edge from-layer="247" from-port="2" to-layer="248" to-port="1" />
		<edge from-layer="248" from-port="2" to-layer="250" to-port="0" />
		<edge from-layer="249" from-port="0" to-layer="250" to-port="1" />
		<edge from-layer="250" from-port="2" to-layer="252" to-port="0" />
		<edge from-layer="251" from-port="0" to-layer="252" to-port="1" />
		<edge from-layer="252" from-port="2" to-layer="253" to-port="1" />
		<edge from-layer="253" from-port="2" to-layer="254" to-port="0" />
		<edge from-layer="254" from-port="2" to-layer="257" to-port="0" />
		<edge from-layer="254" from-port="2" to-layer="256" to-port="0" />
		<edge from-layer="255" from-port="0" to-layer="256" to-port="1" />
		<edge from-layer="256" from-port="2" to-layer="257" to-port="1" />
		<edge from-layer="257" from-port="2" to-layer="259" to-port="0" />
		<edge from-layer="257" from-port="2" to-layer="265" to-port="0" />
		<edge from-layer="258" from-port="0" to-layer="259" to-port="1" />
		<edge from-layer="259" from-port="2" to-layer="261" to-port="0" />
		<edge from-layer="260" from-port="0" to-layer="261" to-port="1" />
		<edge from-layer="261" from-port="2" to-layer="263" to-port="0" />
		<edge from-layer="262" from-port="0" to-layer="263" to-port="1" />
		<edge from-layer="263" from-port="2" to-layer="264" to-port="0" />
		<edge from-layer="264" from-port="1" to-layer="265" to-port="1" />
		<edge from-layer="265" from-port="2" to-layer="266" to-port="0" />
		<edge from-layer="266" from-port="2" to-layer="267" to-port="0" />
		<edge from-layer="267" from-port="2" to-layer="318" to-port="0" />
		<edge from-layer="267" from-port="2" to-layer="341" to-port="1" />
		<edge from-layer="267" from-port="2" to-layer="276" to-port="0" />
		<edge from-layer="267" from-port="2" to-layer="299" to-port="0" />
		<edge from-layer="267" from-port="2" to-layer="268" to-port="0" />
		<edge from-layer="267" from-port="2" to-layer="285" to-port="0" />
		<edge from-layer="268" from-port="1" to-layer="271" to-port="0" />
		<edge from-layer="269" from-port="0" to-layer="271" to-port="1" />
		<edge from-layer="270" from-port="0" to-layer="271" to-port="2" />
		<edge from-layer="271" from-port="3" to-layer="333" to-port="0" />
		<edge from-layer="271" from-port="3" to-layer="321" to-port="0" />
		<edge from-layer="271" from-port="3" to-layer="288" to-port="0" />
		<edge from-layer="271" from-port="3" to-layer="302" to-port="0" />
		<edge from-layer="271" from-port="3" to-layer="273" to-port="0" />
		<edge from-layer="272" from-port="0" to-layer="273" to-port="1" />
		<edge from-layer="273" from-port="2" to-layer="282" to-port="0" />
		<edge from-layer="274" from-port="0" to-layer="282" to-port="1" />
		<edge from-layer="275" from-port="0" to-layer="282" to-port="2" />
		<edge from-layer="276" from-port="1" to-layer="279" to-port="0" />
		<edge from-layer="277" from-port="0" to-layer="279" to-port="1" />
		<edge from-layer="278" from-port="0" to-layer="279" to-port="2" />
		<edge from-layer="279" from-port="3" to-layer="281" to-port="0" />
		<edge from-layer="280" from-port="0" to-layer="281" to-port="1" />
		<edge from-layer="281" from-port="2" to-layer="282" to-port="3" />
		<edge from-layer="282" from-port="4" to-layer="283" to-port="1" />
		<edge from-layer="283" from-port="2" to-layer="312" to-port="0" />
		<edge from-layer="284" from-port="0" to-layer="285" to-port="1" />
		<edge from-layer="285" from-port="2" to-layer="286" to-port="1" />
		<edge from-layer="286" from-port="2" to-layer="293" to-port="0" />
		<edge from-layer="287" from-port="0" to-layer="288" to-port="1" />
		<edge from-layer="288" from-port="2" to-layer="292" to-port="0" />
		<edge from-layer="289" from-port="0" to-layer="292" to-port="1" />
		<edge from-layer="290" from-port="0" to-layer="292" to-port="2" />
		<edge from-layer="291" from-port="0" to-layer="292" to-port="3" />
		<edge from-layer="292" from-port="4" to-layer="293" to-port="1" />
		<edge from-layer="293" from-port="2" to-layer="295" to-port="0" />
		<edge from-layer="294" from-port="0" to-layer="295" to-port="1" />
		<edge from-layer="295" from-port="2" to-layer="297" to-port="0" />
		<edge from-layer="296" from-port="0" to-layer="297" to-port="1" />
		<edge from-layer="297" from-port="2" to-layer="310" to-port="0" />
		<edge from-layer="298" from-port="0" to-layer="299" to-port="1" />
		<edge from-layer="299" from-port="2" to-layer="300" to-port="1" />
		<edge from-layer="300" from-port="2" to-layer="307" to-port="0" />
		<edge from-layer="301" from-port="0" to-layer="302" to-port="1" />
		<edge from-layer="302" from-port="2" to-layer="306" to-port="0" />
		<edge from-layer="303" from-port="0" to-layer="306" to-port="1" />
		<edge from-layer="304" from-port="0" to-layer="306" to-port="2" />
		<edge from-layer="305" from-port="0" to-layer="306" to-port="3" />
		<edge from-layer="306" from-port="4" to-layer="307" to-port="1" />
		<edge from-layer="307" from-port="2" to-layer="309" to-port="0" />
		<edge from-layer="308" from-port="0" to-layer="309" to-port="1" />
		<edge from-layer="309" from-port="2" to-layer="310" to-port="1" />
		<edge from-layer="310" from-port="2" to-layer="311" to-port="0" />
		<edge from-layer="310" from-port="2" to-layer="315" to-port="2" />
		<edge from-layer="311" from-port="1" to-layer="312" to-port="1" />
		<edge from-layer="312" from-port="2" to-layer="313" to-port="0" />
		<edge from-layer="313" from-port="1" to-layer="315" to-port="0" />
		<edge from-layer="314" from-port="0" to-layer="315" to-port="1" />
		<edge from-layer="315" from-port="3" to-layer="316" to-port="0" />
		<edge from-layer="316" from-port="1" to-layer="329" to-port="0" />
		<edge from-layer="317" from-port="0" to-layer="318" to-port="1" />
		<edge from-layer="318" from-port="2" to-layer="319" to-port="1" />
		<edge from-layer="319" from-port="2" to-layer="326" to-port="0" />
		<edge from-layer="320" from-port="0" to-layer="321" to-port="1" />
		<edge from-layer="321" from-port="2" to-layer="325" to-port="0" />
		<edge from-layer="322" from-port="0" to-layer="325" to-port="1" />
		<edge from-layer="323" from-port="0" to-layer="325" to-port="2" />
		<edge from-layer="324" from-port="0" to-layer="325" to-port="3" />
		<edge from-layer="325" from-port="4" to-layer="326" to-port="1" />
		<edge from-layer="326" from-port="2" to-layer="328" to-port="0" />
		<edge from-layer="327" from-port="0" to-layer="328" to-port="1" />
		<edge from-layer="328" from-port="2" to-layer="329" to-port="1" />
		<edge from-layer="329" from-port="2" to-layer="331" to-port="0" />
		<edge from-layer="330" from-port="0" to-layer="331" to-port="1" />
		<edge from-layer="331" from-port="2" to-layer="337" to-port="0" />
		<edge from-layer="332" from-port="0" to-layer="333" to-port="1" />
		<edge from-layer="333" from-port="2" to-layer="336" to-port="0" />
		<edge from-layer="334" from-port="0" to-layer="336" to-port="1" />
		<edge from-layer="335" from-port="0" to-layer="336" to-port="2" />
		<edge from-layer="336" from-port="3" to-layer="337" to-port="1" />
		<edge from-layer="337" from-port="2" to-layer="339" to-port="0" />
		<edge from-layer="338" from-port="0" to-layer="339" to-port="1" />
		<edge from-layer="339" from-port="2" to-layer="340" to-port="1" />
		<edge from-layer="340" from-port="2" to-layer="341" to-port="0" />
		<edge from-layer="341" from-port="2" to-layer="344" to-port="0" />
		<edge from-layer="341" from-port="2" to-layer="343" to-port="0" />
		<edge from-layer="342" from-port="0" to-layer="343" to-port="1" />
		<edge from-layer="343" from-port="2" to-layer="344" to-port="1" />
		<edge from-layer="344" from-port="2" to-layer="346" to-port="0" />
		<edge from-layer="344" from-port="2" to-layer="352" to-port="0" />
		<edge from-layer="345" from-port="0" to-layer="346" to-port="1" />
		<edge from-layer="346" from-port="2" to-layer="348" to-port="0" />
		<edge from-layer="347" from-port="0" to-layer="348" to-port="1" />
		<edge from-layer="348" from-port="2" to-layer="350" to-port="0" />
		<edge from-layer="349" from-port="0" to-layer="350" to-port="1" />
		<edge from-layer="350" from-port="2" to-layer="351" to-port="0" />
		<edge from-layer="351" from-port="1" to-layer="352" to-port="1" />
		<edge from-layer="352" from-port="2" to-layer="353" to-port="0" />
		<edge from-layer="353" from-port="2" to-layer="354" to-port="0" />
		<edge from-layer="354" from-port="2" to-layer="356" to-port="0" />
		<edge from-layer="354" from-port="2" to-layer="369" to-port="1" />
		<edge from-layer="355" from-port="0" to-layer="356" to-port="1" />
		<edge from-layer="356" from-port="2" to-layer="357" to-port="1" />
		<edge from-layer="357" from-port="2" to-layer="359" to-port="0" />
		<edge from-layer="357" from-port="2" to-layer="363" to-port="0" />
		<edge from-layer="358" from-port="0" to-layer="359" to-port="1" />
		<edge from-layer="359" from-port="2" to-layer="360" to-port="0" />
		<edge from-layer="360" from-port="1" to-layer="362" to-port="0" />
		<edge from-layer="361" from-port="0" to-layer="362" to-port="1" />
		<edge from-layer="362" from-port="2" to-layer="363" to-port="1" />
		<edge from-layer="363" from-port="2" to-layer="365" to-port="0" />
		<edge from-layer="364" from-port="0" to-layer="365" to-port="1" />
		<edge from-layer="365" from-port="2" to-layer="367" to-port="0" />
		<edge from-layer="366" from-port="0" to-layer="367" to-port="1" />
		<edge from-layer="367" from-port="2" to-layer="368" to-port="1" />
		<edge from-layer="368" from-port="2" to-layer="369" to-port="0" />
		<edge from-layer="369" from-port="2" to-layer="371" to-port="0" />
		<edge from-layer="369" from-port="2" to-layer="372" to-port="0" />
		<edge from-layer="370" from-port="0" to-layer="371" to-port="1" />
		<edge from-layer="371" from-port="2" to-layer="372" to-port="1" />
		<edge from-layer="372" from-port="2" to-layer="374" to-port="0" />
		<edge from-layer="372" from-port="2" to-layer="380" to-port="0" />
		<edge from-layer="373" from-port="0" to-layer="374" to-port="1" />
		<edge from-layer="374" from-port="2" to-layer="376" to-port="0" />
		<edge from-layer="375" from-port="0" to-layer="376" to-port="1" />
		<edge from-layer="376" from-port="2" to-layer="378" to-port="0" />
		<edge from-layer="377" from-port="0" to-layer="378" to-port="1" />
		<edge from-layer="378" from-port="2" to-layer="379" to-port="0" />
		<edge from-layer="379" from-port="1" to-layer="380" to-port="1" />
		<edge from-layer="380" from-port="2" to-layer="381" to-port="0" />
		<edge from-layer="381" from-port="2" to-layer="382" to-port="0" />
		<edge from-layer="382" from-port="2" to-layer="456" to-port="1" />
		<edge from-layer="382" from-port="2" to-layer="383" to-port="0" />
		<edge from-layer="382" from-port="2" to-layer="433" to-port="0" />
		<edge from-layer="382" from-port="2" to-layer="414" to-port="0" />
		<edge from-layer="382" from-port="2" to-layer="400" to-port="0" />
		<edge from-layer="382" from-port="2" to-layer="391" to-port="0" />
		<edge from-layer="383" from-port="1" to-layer="386" to-port="0" />
		<edge from-layer="384" from-port="0" to-layer="386" to-port="1" />
		<edge from-layer="385" from-port="0" to-layer="386" to-port="2" />
		<edge from-layer="386" from-port="3" to-layer="448" to-port="0" />
		<edge from-layer="386" from-port="3" to-layer="403" to-port="0" />
		<edge from-layer="386" from-port="3" to-layer="436" to-port="0" />
		<edge from-layer="386" from-port="3" to-layer="417" to-port="0" />
		<edge from-layer="386" from-port="3" to-layer="388" to-port="0" />
		<edge from-layer="387" from-port="0" to-layer="388" to-port="1" />
		<edge from-layer="388" from-port="2" to-layer="397" to-port="0" />
		<edge from-layer="389" from-port="0" to-layer="397" to-port="1" />
		<edge from-layer="390" from-port="0" to-layer="397" to-port="2" />
		<edge from-layer="391" from-port="1" to-layer="394" to-port="0" />
		<edge from-layer="392" from-port="0" to-layer="394" to-port="1" />
		<edge from-layer="393" from-port="0" to-layer="394" to-port="2" />
		<edge from-layer="394" from-port="3" to-layer="396" to-port="0" />
		<edge from-layer="395" from-port="0" to-layer="396" to-port="1" />
		<edge from-layer="396" from-port="2" to-layer="397" to-port="3" />
		<edge from-layer="397" from-port="4" to-layer="398" to-port="1" />
		<edge from-layer="398" from-port="2" to-layer="427" to-port="0" />
		<edge from-layer="399" from-port="0" to-layer="400" to-port="1" />
		<edge from-layer="400" from-port="2" to-layer="401" to-port="1" />
		<edge from-layer="401" from-port="2" to-layer="408" to-port="0" />
		<edge from-layer="402" from-port="0" to-layer="403" to-port="1" />
		<edge from-layer="403" from-port="2" to-layer="407" to-port="0" />
		<edge from-layer="404" from-port="0" to-layer="407" to-port="1" />
		<edge from-layer="405" from-port="0" to-layer="407" to-port="2" />
		<edge from-layer="406" from-port="0" to-layer="407" to-port="3" />
		<edge from-layer="407" from-port="4" to-layer="408" to-port="1" />
		<edge from-layer="408" from-port="2" to-layer="410" to-port="0" />
		<edge from-layer="409" from-port="0" to-layer="410" to-port="1" />
		<edge from-layer="410" from-port="2" to-layer="412" to-port="0" />
		<edge from-layer="411" from-port="0" to-layer="412" to-port="1" />
		<edge from-layer="412" from-port="2" to-layer="425" to-port="0" />
		<edge from-layer="413" from-port="0" to-layer="414" to-port="1" />
		<edge from-layer="414" from-port="2" to-layer="415" to-port="1" />
		<edge from-layer="415" from-port="2" to-layer="422" to-port="0" />
		<edge from-layer="416" from-port="0" to-layer="417" to-port="1" />
		<edge from-layer="417" from-port="2" to-layer="421" to-port="0" />
		<edge from-layer="418" from-port="0" to-layer="421" to-port="1" />
		<edge from-layer="419" from-port="0" to-layer="421" to-port="2" />
		<edge from-layer="420" from-port="0" to-layer="421" to-port="3" />
		<edge from-layer="421" from-port="4" to-layer="422" to-port="1" />
		<edge from-layer="422" from-port="2" to-layer="424" to-port="0" />
		<edge from-layer="423" from-port="0" to-layer="424" to-port="1" />
		<edge from-layer="424" from-port="2" to-layer="425" to-port="1" />
		<edge from-layer="425" from-port="2" to-layer="430" to-port="2" />
		<edge from-layer="425" from-port="2" to-layer="426" to-port="0" />
		<edge from-layer="426" from-port="1" to-layer="427" to-port="1" />
		<edge from-layer="427" from-port="2" to-layer="428" to-port="0" />
		<edge from-layer="428" from-port="1" to-layer="430" to-port="0" />
		<edge from-layer="429" from-port="0" to-layer="430" to-port="1" />
		<edge from-layer="430" from-port="3" to-layer="431" to-port="0" />
		<edge from-layer="431" from-port="1" to-layer="444" to-port="0" />
		<edge from-layer="432" from-port="0" to-layer="433" to-port="1" />
		<edge from-layer="433" from-port="2" to-layer="434" to-port="1" />
		<edge from-layer="434" from-port="2" to-layer="441" to-port="0" />
		<edge from-layer="435" from-port="0" to-layer="436" to-port="1" />
		<edge from-layer="436" from-port="2" to-layer="440" to-port="0" />
		<edge from-layer="437" from-port="0" to-layer="440" to-port="1" />
		<edge from-layer="438" from-port="0" to-layer="440" to-port="2" />
		<edge from-layer="439" from-port="0" to-layer="440" to-port="3" />
		<edge from-layer="440" from-port="4" to-layer="441" to-port="1" />
		<edge from-layer="441" from-port="2" to-layer="443" to-port="0" />
		<edge from-layer="442" from-port="0" to-layer="443" to-port="1" />
		<edge from-layer="443" from-port="2" to-layer="444" to-port="1" />
		<edge from-layer="444" from-port="2" to-layer="446" to-port="0" />
		<edge from-layer="445" from-port="0" to-layer="446" to-port="1" />
		<edge from-layer="446" from-port="2" to-layer="452" to-port="0" />
		<edge from-layer="447" from-port="0" to-layer="448" to-port="1" />
		<edge from-layer="448" from-port="2" to-layer="451" to-port="0" />
		<edge from-layer="449" from-port="0" to-layer="451" to-port="1" />
		<edge from-layer="450" from-port="0" to-layer="451" to-port="2" />
		<edge from-layer="451" from-port="3" to-layer="452" to-port="1" />
		<edge from-layer="452" from-port="2" to-layer="454" to-port="0" />
		<edge from-layer="453" from-port="0" to-layer="454" to-port="1" />
		<edge from-layer="454" from-port="2" to-layer="455" to-port="1" />
		<edge from-layer="455" from-port="2" to-layer="456" to-port="0" />
		<edge from-layer="456" from-port="2" to-layer="459" to-port="0" />
		<edge from-layer="456" from-port="2" to-layer="458" to-port="0" />
		<edge from-layer="457" from-port="0" to-layer="458" to-port="1" />
		<edge from-layer="458" from-port="2" to-layer="459" to-port="1" />
		<edge from-layer="459" from-port="2" to-layer="467" to-port="0" />
		<edge from-layer="459" from-port="2" to-layer="461" to-port="0" />
		<edge from-layer="460" from-port="0" to-layer="461" to-port="1" />
		<edge from-layer="461" from-port="2" to-layer="463" to-port="0" />
		<edge from-layer="462" from-port="0" to-layer="463" to-port="1" />
		<edge from-layer="463" from-port="2" to-layer="465" to-port="0" />
		<edge from-layer="464" from-port="0" to-layer="465" to-port="1" />
		<edge from-layer="465" from-port="2" to-layer="466" to-port="0" />
		<edge from-layer="466" from-port="1" to-layer="467" to-port="1" />
		<edge from-layer="467" from-port="2" to-layer="468" to-port="0" />
		<edge from-layer="468" from-port="2" to-layer="469" to-port="0" />
		<edge from-layer="469" from-port="2" to-layer="484" to-port="1" />
		<edge from-layer="469" from-port="2" to-layer="471" to-port="0" />
		<edge from-layer="470" from-port="0" to-layer="471" to-port="1" />
		<edge from-layer="471" from-port="2" to-layer="472" to-port="1" />
		<edge from-layer="472" from-port="2" to-layer="478" to-port="0" />
		<edge from-layer="472" from-port="2" to-layer="474" to-port="0" />
		<edge from-layer="473" from-port="0" to-layer="474" to-port="1" />
		<edge from-layer="474" from-port="2" to-layer="475" to-port="0" />
		<edge from-layer="475" from-port="1" to-layer="477" to-port="0" />
		<edge from-layer="476" from-port="0" to-layer="477" to-port="1" />
		<edge from-layer="477" from-port="2" to-layer="478" to-port="1" />
		<edge from-layer="478" from-port="2" to-layer="480" to-port="0" />
		<edge from-layer="479" from-port="0" to-layer="480" to-port="1" />
		<edge from-layer="480" from-port="2" to-layer="482" to-port="0" />
		<edge from-layer="481" from-port="0" to-layer="482" to-port="1" />
		<edge from-layer="482" from-port="2" to-layer="483" to-port="1" />
		<edge from-layer="483" from-port="2" to-layer="484" to-port="0" />
		<edge from-layer="484" from-port="2" to-layer="486" to-port="0" />
		<edge from-layer="484" from-port="2" to-layer="487" to-port="0" />
		<edge from-layer="485" from-port="0" to-layer="486" to-port="1" />
		<edge from-layer="486" from-port="2" to-layer="487" to-port="1" />
		<edge from-layer="487" from-port="2" to-layer="495" to-port="0" />
		<edge from-layer="487" from-port="2" to-layer="489" to-port="0" />
		<edge from-layer="488" from-port="0" to-layer="489" to-port="1" />
		<edge from-layer="489" from-port="2" to-layer="491" to-port="0" />
		<edge from-layer="490" from-port="0" to-layer="491" to-port="1" />
		<edge from-layer="491" from-port="2" to-layer="493" to-port="0" />
		<edge from-layer="492" from-port="0" to-layer="493" to-port="1" />
		<edge from-layer="493" from-port="2" to-layer="494" to-port="0" />
		<edge from-layer="494" from-port="1" to-layer="495" to-port="1" />
		<edge from-layer="495" from-port="2" to-layer="496" to-port="0" />
		<edge from-layer="496" from-port="2" to-layer="497" to-port="0" />
		<edge from-layer="497" from-port="2" to-layer="571" to-port="1" />
		<edge from-layer="497" from-port="2" to-layer="529" to-port="0" />
		<edge from-layer="497" from-port="2" to-layer="515" to-port="0" />
		<edge from-layer="497" from-port="2" to-layer="548" to-port="0" />
		<edge from-layer="497" from-port="2" to-layer="506" to-port="0" />
		<edge from-layer="497" from-port="2" to-layer="498" to-port="0" />
		<edge from-layer="498" from-port="1" to-layer="501" to-port="0" />
		<edge from-layer="499" from-port="0" to-layer="501" to-port="1" />
		<edge from-layer="500" from-port="0" to-layer="501" to-port="2" />
		<edge from-layer="501" from-port="3" to-layer="532" to-port="0" />
		<edge from-layer="501" from-port="3" to-layer="563" to-port="0" />
		<edge from-layer="501" from-port="3" to-layer="503" to-port="0" />
		<edge from-layer="501" from-port="3" to-layer="518" to-port="0" />
		<edge from-layer="501" from-port="3" to-layer="551" to-port="0" />
		<edge from-layer="502" from-port="0" to-layer="503" to-port="1" />
		<edge from-layer="503" from-port="2" to-layer="512" to-port="0" />
		<edge from-layer="504" from-port="0" to-layer="512" to-port="1" />
		<edge from-layer="505" from-port="0" to-layer="512" to-port="2" />
		<edge from-layer="506" from-port="1" to-layer="509" to-port="0" />
		<edge from-layer="507" from-port="0" to-layer="509" to-port="1" />
		<edge from-layer="508" from-port="0" to-layer="509" to-port="2" />
		<edge from-layer="509" from-port="3" to-layer="511" to-port="0" />
		<edge from-layer="510" from-port="0" to-layer="511" to-port="1" />
		<edge from-layer="511" from-port="2" to-layer="512" to-port="3" />
		<edge from-layer="512" from-port="4" to-layer="513" to-port="1" />
		<edge from-layer="513" from-port="2" to-layer="542" to-port="0" />
		<edge from-layer="514" from-port="0" to-layer="515" to-port="1" />
		<edge from-layer="515" from-port="2" to-layer="516" to-port="1" />
		<edge from-layer="516" from-port="2" to-layer="523" to-port="0" />
		<edge from-layer="517" from-port="0" to-layer="518" to-port="1" />
		<edge from-layer="518" from-port="2" to-layer="522" to-port="0" />
		<edge from-layer="519" from-port="0" to-layer="522" to-port="1" />
		<edge from-layer="520" from-port="0" to-layer="522" to-port="2" />
		<edge from-layer="521" from-port="0" to-layer="522" to-port="3" />
		<edge from-layer="522" from-port="4" to-layer="523" to-port="1" />
		<edge from-layer="523" from-port="2" to-layer="525" to-port="0" />
		<edge from-layer="524" from-port="0" to-layer="525" to-port="1" />
		<edge from-layer="525" from-port="2" to-layer="527" to-port="0" />
		<edge from-layer="526" from-port="0" to-layer="527" to-port="1" />
		<edge from-layer="527" from-port="2" to-layer="540" to-port="0" />
		<edge from-layer="528" from-port="0" to-layer="529" to-port="1" />
		<edge from-layer="529" from-port="2" to-layer="530" to-port="1" />
		<edge from-layer="530" from-port="2" to-layer="537" to-port="0" />
		<edge from-layer="531" from-port="0" to-layer="532" to-port="1" />
		<edge from-layer="532" from-port="2" to-layer="536" to-port="0" />
		<edge from-layer="533" from-port="0" to-layer="536" to-port="1" />
		<edge from-layer="534" from-port="0" to-layer="536" to-port="2" />
		<edge from-layer="535" from-port="0" to-layer="536" to-port="3" />
		<edge from-layer="536" from-port="4" to-layer="537" to-port="1" />
		<edge from-layer="537" from-port="2" to-layer="539" to-port="0" />
		<edge from-layer="538" from-port="0" to-layer="539" to-port="1" />
		<edge from-layer="539" from-port="2" to-layer="540" to-port="1" />
		<edge from-layer="540" from-port="2" to-layer="545" to-port="2" />
		<edge from-layer="540" from-port="2" to-layer="541" to-port="0" />
		<edge from-layer="541" from-port="1" to-layer="542" to-port="1" />
		<edge from-layer="542" from-port="2" to-layer="543" to-port="0" />
		<edge from-layer="543" from-port="1" to-layer="545" to-port="0" />
		<edge from-layer="544" from-port="0" to-layer="545" to-port="1" />
		<edge from-layer="545" from-port="3" to-layer="546" to-port="0" />
		<edge from-layer="546" from-port="1" to-layer="559" to-port="0" />
		<edge from-layer="547" from-port="0" to-layer="548" to-port="1" />
		<edge from-layer="548" from-port="2" to-layer="549" to-port="1" />
		<edge from-layer="549" from-port="2" to-layer="556" to-port="0" />
		<edge from-layer="550" from-port="0" to-layer="551" to-port="1" />
		<edge from-layer="551" from-port="2" to-layer="555" to-port="0" />
		<edge from-layer="552" from-port="0" to-layer="555" to-port="1" />
		<edge from-layer="553" from-port="0" to-layer="555" to-port="2" />
		<edge from-layer="554" from-port="0" to-layer="555" to-port="3" />
		<edge from-layer="555" from-port="4" to-layer="556" to-port="1" />
		<edge from-layer="556" from-port="2" to-layer="558" to-port="0" />
		<edge from-layer="557" from-port="0" to-layer="558" to-port="1" />
		<edge from-layer="558" from-port="2" to-layer="559" to-port="1" />
		<edge from-layer="559" from-port="2" to-layer="561" to-port="0" />
		<edge from-layer="560" from-port="0" to-layer="561" to-port="1" />
		<edge from-layer="561" from-port="2" to-layer="567" to-port="0" />
		<edge from-layer="562" from-port="0" to-layer="563" to-port="1" />
		<edge from-layer="563" from-port="2" to-layer="566" to-port="0" />
		<edge from-layer="564" from-port="0" to-layer="566" to-port="1" />
		<edge from-layer="565" from-port="0" to-layer="566" to-port="2" />
		<edge from-layer="566" from-port="3" to-layer="567" to-port="1" />
		<edge from-layer="567" from-port="2" to-layer="569" to-port="0" />
		<edge from-layer="568" from-port="0" to-layer="569" to-port="1" />
		<edge from-layer="569" from-port="2" to-layer="570" to-port="1" />
		<edge from-layer="570" from-port="2" to-layer="571" to-port="0" />
		<edge from-layer="571" from-port="2" to-layer="574" to-port="0" />
		<edge from-layer="571" from-port="2" to-layer="573" to-port="0" />
		<edge from-layer="572" from-port="0" to-layer="573" to-port="1" />
		<edge from-layer="573" from-port="2" to-layer="574" to-port="1" />
		<edge from-layer="574" from-port="2" to-layer="582" to-port="0" />
		<edge from-layer="574" from-port="2" to-layer="576" to-port="0" />
		<edge from-layer="575" from-port="0" to-layer="576" to-port="1" />
		<edge from-layer="576" from-port="2" to-layer="578" to-port="0" />
		<edge from-layer="577" from-port="0" to-layer="578" to-port="1" />
		<edge from-layer="578" from-port="2" to-layer="580" to-port="0" />
		<edge from-layer="579" from-port="0" to-layer="580" to-port="1" />
		<edge from-layer="580" from-port="2" to-layer="581" to-port="0" />
		<edge from-layer="581" from-port="1" to-layer="582" to-port="1" />
		<edge from-layer="582" from-port="2" to-layer="583" to-port="0" />
		<edge from-layer="583" from-port="2" to-layer="584" to-port="0" />
		<edge from-layer="584" from-port="2" to-layer="599" to-port="1" />
		<edge from-layer="584" from-port="2" to-layer="586" to-port="0" />
		<edge from-layer="585" from-port="0" to-layer="586" to-port="1" />
		<edge from-layer="586" from-port="2" to-layer="587" to-port="1" />
		<edge from-layer="587" from-port="2" to-layer="593" to-port="0" />
		<edge from-layer="587" from-port="2" to-layer="589" to-port="0" />
		<edge from-layer="588" from-port="0" to-layer="589" to-port="1" />
		<edge from-layer="589" from-port="2" to-layer="590" to-port="0" />
		<edge from-layer="590" from-port="1" to-layer="592" to-port="0" />
		<edge from-layer="591" from-port="0" to-layer="592" to-port="1" />
		<edge from-layer="592" from-port="2" to-layer="593" to-port="1" />
		<edge from-layer="593" from-port="2" to-layer="595" to-port="0" />
		<edge from-layer="594" from-port="0" to-layer="595" to-port="1" />
		<edge from-layer="595" from-port="2" to-layer="597" to-port="0" />
		<edge from-layer="596" from-port="0" to-layer="597" to-port="1" />
		<edge from-layer="597" from-port="2" to-layer="598" to-port="1" />
		<edge from-layer="598" from-port="2" to-layer="599" to-port="0" />
		<edge from-layer="599" from-port="2" to-layer="601" to-port="0" />
		<edge from-layer="599" from-port="2" to-layer="602" to-port="0" />
		<edge from-layer="600" from-port="0" to-layer="601" to-port="1" />
		<edge from-layer="601" from-port="2" to-layer="602" to-port="1" />
		<edge from-layer="602" from-port="2" to-layer="604" to-port="0" />
		<edge from-layer="602" from-port="2" to-layer="610" to-port="0" />
		<edge from-layer="603" from-port="0" to-layer="604" to-port="1" />
		<edge from-layer="604" from-port="2" to-layer="606" to-port="0" />
		<edge from-layer="605" from-port="0" to-layer="606" to-port="1" />
		<edge from-layer="606" from-port="2" to-layer="608" to-port="0" />
		<edge from-layer="607" from-port="0" to-layer="608" to-port="1" />
		<edge from-layer="608" from-port="2" to-layer="609" to-port="0" />
		<edge from-layer="609" from-port="1" to-layer="610" to-port="1" />
		<edge from-layer="610" from-port="2" to-layer="611" to-port="0" />
		<edge from-layer="611" from-port="2" to-layer="612" to-port="0" />
		<edge from-layer="612" from-port="2" to-layer="615" to-port="0" />
		<edge from-layer="613" from-port="0" to-layer="615" to-port="1" />
		<edge from-layer="614" from-port="0" to-layer="615" to-port="2" />
		<edge from-layer="615" from-port="3" to-layer="617" to-port="0" />
		<edge from-layer="616" from-port="0" to-layer="617" to-port="1" />
		<edge from-layer="617" from-port="2" to-layer="619" to-port="0" />
		<edge from-layer="618" from-port="0" to-layer="619" to-port="1" />
		<edge from-layer="619" from-port="2" to-layer="622" to-port="0" />
		<edge from-layer="620" from-port="0" to-layer="621" to-port="0" />
		<edge from-layer="621" from-port="2" to-layer="622" to-port="1" />
		<edge from-layer="622" from-port="2" to-layer="623" to-port="0" />
		<edge from-layer="623" from-port="1" to-layer="625" to-port="0" />
		<edge from-layer="624" from-port="0" to-layer="625" to-port="1" />
		<edge from-layer="625" from-port="2" to-layer="627" to-port="0" />
		<edge from-layer="626" from-port="0" to-layer="627" to-port="1" />
		<edge from-layer="627" from-port="2" to-layer="631" to-port="0" />
		<edge from-layer="628" from-port="0" to-layer="630" to-port="0" />
		<edge from-layer="629" from-port="0" to-layer="630" to-port="1" />
		<edge from-layer="630" from-port="2" to-layer="631" to-port="1" />
		<edge from-layer="631" from-port="2" to-layer="632" to-port="0" />
	</edges>
	<rt_info />
</net>
