<?xml version="1.0"?>
<net name="torch_jit" version="11">
	<layers>
		<layer id="9" name="encoder_attention_mask" type="Parameter" version="opset1">
			<data shape="?,?" element_type="i64" />
			<rt_info>
				<attribute name="fused_names" version="0" value="encoder_attention_mask" />
			</rt_info>
			<output>
				<port id="0" precision="I64" names="encoder_attention_mask">
					<dim>-1</dim>
					<dim>-1</dim>
				</port>
			</output>
		</layer>
		<layer id="8" name="input_ids" type="Parameter" version="opset1">
			<data shape="?,?" element_type="i64" />
			<rt_info>
				<attribute name="fused_names" version="0" value="input_ids" />
			</rt_info>
			<output>
				<port id="0" precision="I64" names="input_ids">
					<dim>-1</dim>
					<dim>-1</dim>
				</port>
			</output>
		</layer>
		<layer id="7" name="past_key_values.0.decoder.key" type="Parameter" version="opset1">
			<data shape="?,4,?,4" element_type="f32" />
			<rt_info>
				<attribute name="fused_names" version="0" value="past_key_values.0.decoder.key" />
			</rt_info>
			<output>
				<port id="0" precision="FP32" names="past_key_values.0.decoder.key">
					<dim>-1</dim>
					<dim>4</dim>
					<dim>-1</dim>
					<dim>4</dim>
				</port>
			</output>
		</layer>
		<layer id="6" name="past_key_values.0.decoder.value" type="Parameter" version="opset1">
			<data shape="?,4,?,4" element_type="f32" />
			<rt_info>
				<attribute name="fused_names" version="0" value="past_key_values.0.decoder.value" />
			</rt_info>
			<output>
				<port id="0" precision="FP32" names="past_key_values.0.decoder.value">
					<dim>-1</dim>
					<dim>4</dim>
					<dim>-1</dim>
					<dim>4</dim>
				</port>
			</output>
		</layer>
		<layer id="5" name="past_key_values.0.encoder.key" type="Parameter" version="opset1">
			<data shape="?,4,?,4" element_type="f32" />
			<rt_info>
				<attribute name="fused_names" version="0" value="past_key_values.0.encoder.key" />
			</rt_info>
			<output>
				<port id="0" precision="FP32" names="past_key_values.0.encoder.key">
					<dim>-1</dim>
					<dim>4</dim>
					<dim>-1</dim>
					<dim>4</dim>
				</port>
			</output>
		</layer>
		<layer id="4" name="past_key_values.0.encoder.value" type="Parameter" version="opset1">
			<data shape="?,4,?,4" element_type="f32" />
			<rt_info>
				<attribute name="fused_names" version="0" value="past_key_values.0.encoder.value" />
			</rt_info>
			<output>
				<port id="0" precision="FP32" names="past_key_values.0.encoder.value">
					<dim>-1</dim>
					<dim>4</dim>
					<dim>-1</dim>
					<dim>4</dim>
				</port>
			</output>
		</layer>
		<layer id="3" name="past_key_values.1.decoder.key" type="Parameter" version="opset1">
			<data shape="?,4,?,4" element_type="f32" />
			<rt_info>
				<attribute name="fused_names" version="0" value="past_key_values.1.decoder.key" />
			</rt_info>
			<output>
				<port id="0" precision="FP32" names="past_key_values.1.decoder.key">
					<dim>-1</dim>
					<dim>4</dim>
					<dim>-1</dim>
					<dim>4</dim>
				</port>
			</output>
		</layer>
		<layer id="2" name="past_key_values.1.decoder.value" type="Parameter" version="opset1">
			<data shape="?,4,?,4" element_type="f32" />
			<rt_info>
				<attribute name="fused_names" version="0" value="past_key_values.1.decoder.value" />
			</rt_info>
			<output>
				<port id="0" precision="FP32" names="past_key_values.1.decoder.value">
					<dim>-1</dim>
					<dim>4</dim>
					<dim>-1</dim>
					<dim>4</dim>
				</port>
			</output>
		</layer>
		<layer id="1" name="past_key_values.1.encoder.key" type="Parameter" version="opset1">
			<data shape="?,4,?,4" element_type="f32" />
			<rt_info>
				<attribute name="fused_names" version="0" value="past_key_values.1.encoder.key" />
			</rt_info>
			<output>
				<port id="0" precision="FP32" names="past_key_values.1.encoder.key">
					<dim>-1</dim>
					<dim>4</dim>
					<dim>-1</dim>
					<dim>4</dim>
				</port>
			</output>
		</layer>
		<layer id="0" name="past_key_values.1.encoder.value" type="Parameter" version="opset1">
			<data shape="?,4,?,4" element_type="f32" />
			<rt_info>
				<attribute name="fused_names" version="0" value="past_key_values.1.encoder.value" />
			</rt_info>
			<output>
				<port id="0" precision="FP32" names="past_key_values.1.encoder.value">
					<dim>-1</dim>
					<dim>4</dim>
					<dim>-1</dim>
					<dim>4</dim>
				</port>
			</output>
		</layer>
		<layer id="10" name="model.decoder.layers.0.self_attn.v_proj.bias" type="Const" version="opset1">
			<data element_type="f32" shape="16" offset="0" size="64" />
			<rt_info>
				<attribute name="fused_names" version="0" value="model.decoder.layers.0.self_attn.v_proj.bias" />
			</rt_info>
			<output>
				<port id="0" precision="FP32" names="model.decoder.layer_norm.bias,model.decoder.layernorm_embedding.bias,model.decoder.layers.0.encoder_attn.out_proj.bias,model.decoder.layers.0.encoder_attn.q_proj.bias,model.decoder.layers.0.encoder_attn_layer_norm.bias,model.decoder.layers.0.fc2.bias,model.decoder.layers.0.final_layer_norm.bias,model.decoder.layers.0.self_attn.k_proj.bias,model.decoder.layers.0.self_attn.out_proj.bias,model.decoder.layers.0.self_attn.q_proj.bias,model.decoder.layers.0.self_attn.v_proj.bias,model.decoder.layers.0.self_attn_layer_norm.bias,model.decoder.layers.1.encoder_attn.out_proj.bias,model.decoder.layers.1.encoder_attn.q_proj.bias,model.decoder.layers.1.encoder_attn_layer_norm.bias,model.decoder.layers.1.fc2.bias,model.decoder.layers.1.final_layer_norm.bias,model.decoder.layers.1.self_attn.k_proj.bias,model.decoder.layers.1.self_attn.out_proj.bias,model.decoder.layers.1.self_attn.q_proj.bias,model.decoder.layers.1.self_attn.v_proj.bias,model.decoder.layers.1.self_attn_layer_norm.bias">
					<dim>16</dim>
				</port>
			</output>
		</layer>
		<layer id="11" name="model.shared.weight" type="Const" version="opset1">
			<data element_type="f32" shape="1030, 16" offset="64" size="65920" />
			<rt_info>
				<attribute name="fused_names" version="0" value="model.shared.weight" />
			</rt_info>
			<output>
				<port id="0" precision="FP32" names="model.shared.weight">
					<dim>1030</dim>
					<dim>16</dim>
				</port>
			</output>
		</layer>
		<layer id="12" name="/model/decoder/Constant_1" type="Const" version="opset1">
			<data element_type="i64" shape="1" offset="65984" size="8" />
			<rt_info>
				<attribute name="fused_names" version="0" value="/model/decoder/Constant_1" />
			</rt_info>
			<output>
				<port id="0" precision="I64" names="/model/decoder/Constant_1_output_0">
					<dim>1</dim>
				</port>
			</output>
		</layer>
		<layer id="13" name="/model/decoder/Shape" type="ShapeOf" version="opset3">
			<data output_type="i64" />
			<rt_info>
				<attribute name="fused_names" version="0" value="/model/decoder/Shape" />
			</rt_info>
			<input>
				<port id="0" precision="I64">
					<dim>-1</dim>
					<dim>-1</dim>
				</port>
			</input>
			<output>
				<port id="1" precision="I64" names="/model/decoder/Shape_output_0">
					<dim>2</dim>
				</port>
			</output>
		</layer>
		<layer id="14" name="/model/decoder/Constant" type="Const" version="opset1">
			<data element_type="i64" shape="" offset="65992" size="8" />
			<rt_info>
				<attribute name="fused_names" version="0" value="/model/decoder/Constant" />
			</rt_info>
			<output>
				<port id="0" precision="I64" names="/model/decoder/Constant_output_0" />
			</output>
		</layer>
		<layer id="15" name="Constant_4484467" type="Const" version="opset1">
			<data element_type="i64" shape="" offset="66000" size="8" />
			<rt_info>
				<attribute name="fused_names" version="0" value="Constant_4484467" />
			</rt_info>
			<output>
				<port id="0" precision="I64" />
			</output>
		</layer>
		<layer id="16" name="/model/decoder/Gather" type="Gather" version="opset8">
			<data batch_dims="0" />
			<rt_info>
				<attribute name="fused_names" version="0" value="/model/decoder/Constant, /model/decoder/Gather, Constant_4484467" />
			</rt_info>
			<input>
				<port id="0" precision="I64">
					<dim>2</dim>
				</port>
				<port id="1" precision="I64" />
				<port id="2" precision="I64" />
			</input>
			<output>
				<port id="3" precision="I64" names="/model/decoder/Gather_output_0" />
			</output>
		</layer>
		<layer id="17" name="Constant_4484470" type="Const" version="opset1">
			<data element_type="i64" shape="1" offset="66000" size="8" />
			<rt_info>
				<attribute name="fused_names" version="0" value="Constant_4484470" />
			</rt_info>
			<output>
				<port id="0" precision="I64">
					<dim>1</dim>
				</port>
			</output>
		</layer>
		<layer id="18" name="/model/decoder/Unsqueeze" type="Unsqueeze" version="opset1">
			<rt_info>
				<attribute name="fused_names" version="0" value="/model/decoder/Unsqueeze, Constant_4484470" />
			</rt_info>
			<input>
				<port id="0" precision="I64" />
				<port id="1" precision="I64">
					<dim>1</dim>
				</port>
			</input>
			<output>
				<port id="2" precision="I64" names="/model/decoder/Unsqueeze_output_0">
					<dim>1</dim>
				</port>
			</output>
		</layer>
		<layer id="19" name="/model/decoder/Concat" type="Concat" version="opset1">
			<data axis="0" />
			<rt_info>
				<attribute name="fused_names" version="0" value="/model/decoder/Concat, /model/decoder/Constant_1" />
			</rt_info>
			<input>
				<port id="0" precision="I64">
					<dim>1</dim>
				</port>
				<port id="1" precision="I64">
					<dim>1</dim>
				</port>
			</input>
			<output>
				<port id="2" precision="I64" names="/model/decoder/Concat_output_0">
					<dim>2</dim>
				</port>
			</output>
		</layer>
		<layer id="20" name="/model/decoder/Reshape" type="Reshape" version="opset1">
			<data special_zero="true" />
			<rt_info>
				<attribute name="fused_names" version="0" value="/model/decoder/Reshape" />
			</rt_info>
			<input>
				<port id="0" precision="I64">
					<dim>-1</dim>
					<dim>-1</dim>
				</port>
				<port id="1" precision="I64">
					<dim>2</dim>
				</port>
			</input>
			<output>
				<port id="2" precision="I64" names="/model/decoder/Reshape_output_0">
					<dim>-1</dim>
					<dim>-1</dim>
				</port>
			</output>
		</layer>
		<layer id="21" name="Constant_4484484" type="Const" version="opset1">
			<data element_type="i64" shape="" offset="66000" size="8" />
			<rt_info>
				<attribute name="fused_names" version="0" value="Constant_4484484" />
			</rt_info>
			<output>
				<port id="0" precision="I64" />
			</output>
		</layer>
		<layer id="22" name="/model/decoder/embed_tokens/Gather" type="Gather" version="opset8">
			<data batch_dims="0" />
			<rt_info>
				<attribute name="fused_names" version="0" value="/model/decoder/embed_tokens/Gather" />
			</rt_info>
			<input>
				<port id="0" precision="FP32">
					<dim>1030</dim>
					<dim>16</dim>
				</port>
				<port id="1" precision="I64">
					<dim>-1</dim>
					<dim>-1</dim>
				</port>
				<port id="2" precision="I64" />
			</input>
			<output>
				<port id="3" precision="FP32" names="/model/decoder/embed_tokens/Gather_output_0">
					<dim>-1</dim>
					<dim>-1</dim>
					<dim>16</dim>
				</port>
			</output>
		</layer>
		<layer id="23" name="/model/decoder/Constant_3" type="Const" version="opset1">
			<data element_type="f32" shape="" offset="66008" size="4" />
			<rt_info>
				<attribute name="fused_names" version="0" value="/model/decoder/Constant_3" />
			</rt_info>
			<output>
				<port id="0" precision="FP32" names="/model/decoder/Constant_3_output_0" />
			</output>
		</layer>
		<layer id="24" name="/model/decoder/Mul" type="Multiply" version="opset1">
			<data auto_broadcast="numpy" />
			<rt_info>
				<attribute name="fused_names" version="0" value="/model/decoder/Mul" />
			</rt_info>
			<input>
				<port id="0" precision="FP32">
					<dim>-1</dim>
					<dim>-1</dim>
					<dim>16</dim>
				</port>
				<port id="1" precision="FP32" />
			</input>
			<output>
				<port id="2" precision="FP32" names="/model/decoder/Mul_output_0">
					<dim>-1</dim>
					<dim>-1</dim>
					<dim>16</dim>
				</port>
			</output>
		</layer>
		<layer id="25" name="model.decoder.embed_positions.weight" type="Const" version="opset1">
			<data element_type="f32" shape="102, 16" offset="66012" size="6528" />
			<rt_info>
				<attribute name="fused_names" version="0" value="model.decoder.embed_positions.weight" />
			</rt_info>
			<output>
				<port id="0" precision="FP32" names="model.decoder.embed_positions.weight">
					<dim>102</dim>
					<dim>16</dim>
				</port>
			</output>
		</layer>
		<layer id="26" name="/model/decoder/Shape_1" type="ShapeOf" version="opset3">
			<data output_type="i64" />
			<rt_info>
				<attribute name="fused_names" version="0" value="/model/decoder/Shape_1" />
			</rt_info>
			<input>
				<port id="0" precision="FP32">
					<dim>-1</dim>
					<dim>4</dim>
					<dim>-1</dim>
					<dim>4</dim>
				</port>
			</input>
			<output>
				<port id="1" precision="I64" names="/model/decoder/Shape_1_output_0">
					<dim>4</dim>
				</port>
			</output>
		</layer>
		<layer id="27" name="/model/decoder/Constant_2" type="Const" version="opset1">
			<data element_type="i64" shape="" offset="72540" size="8" />
			<rt_info>
				<attribute name="fused_names" version="0" value="/model/decoder/Constant_2" />
			</rt_info>
			<output>
				<port id="0" precision="I64" names="/model/decoder/Constant_2_output_0" />
			</output>
		</layer>
		<layer id="28" name="Constant_4484482" type="Const" version="opset1">
			<data element_type="i64" shape="" offset="66000" size="8" />
			<rt_info>
				<attribute name="fused_names" version="0" value="Constant_4484482" />
			</rt_info>
			<output>
				<port id="0" precision="I64" />
			</output>
		</layer>
		<layer id="29" name="/model/decoder/Gather_1" type="Gather" version="opset8">
			<data batch_dims="0" />
			<rt_info>
				<attribute name="fused_names" version="0" value="/model/decoder/Constant_2, /model/decoder/Gather_1, Constant_4484482" />
			</rt_info>
			<input>
				<port id="0" precision="I64">
					<dim>4</dim>
				</port>
				<port id="1" precision="I64" />
				<port id="2" precision="I64" />
			</input>
			<output>
				<port id="3" precision="I64" names="/model/decoder/Gather_1_output_0" />
			</output>
		</layer>
		<layer id="30" name="/model/decoder/embed_positions/Cast" type="Convert" version="opset1">
			<data destination_type="i64" />
			<rt_info>
				<attribute name="fused_names" version="0" value="/model/decoder/embed_positions/Cast" />
			</rt_info>
			<input>
				<port id="0" precision="I64" />
			</input>
			<output>
				<port id="1" precision="I64" names="/model/decoder/embed_positions/Cast_output_0" />
			</output>
		</layer>
		<layer id="31" name="/model/decoder/embed_positions/Add" type="Add" version="opset1">
			<data auto_broadcast="numpy" />
			<rt_info>
				<attribute name="fused_names" version="0" value="/model/decoder/embed_positions/Add" />
			</rt_info>
			<input>
				<port id="0" precision="I64" />
				<port id="1" precision="I64" />
			</input>
			<output>
				<port id="2" precision="I64" names="/model/decoder/embed_positions/Add_output_0" />
			</output>
		</layer>
		<layer id="32" name="/model/decoder/embed_positions/Cast_1" type="Convert" version="opset1">
			<data destination_type="i64" />
			<rt_info>
				<attribute name="fused_names" version="0" value="/model/decoder/embed_positions/Cast_1" />
			</rt_info>
			<input>
				<port id="0" precision="I64" />
			</input>
			<output>
				<port id="1" precision="I64" names="/model/decoder/embed_positions/Cast_1_output_0" />
			</output>
		</layer>
		<layer id="33" name="/model/decoder/embed_positions/Constant_1" type="Const" version="opset1">
			<data element_type="i64" shape="" offset="65992" size="8" />
			<rt_info>
				<attribute name="fused_names" version="0" value="/model/decoder/embed_positions/Constant_1" />
			</rt_info>
			<output>
				<port id="0" precision="I64" names="/model/decoder/embed_positions/Constant_1_output_0" />
			</output>
		</layer>
		<layer id="34" name="/model/decoder/embed_positions/Range" type="Range" version="opset4">
			<data output_type="i64" />
			<rt_info>
				<attribute name="fused_names" version="0" value="/model/decoder/embed_positions/Range" />
			</rt_info>
			<input>
				<port id="0" precision="I64" />
				<port id="1" precision="I64" />
				<port id="2" precision="I64" />
			</input>
			<output>
				<port id="3" precision="I64" names="/model/decoder/embed_positions/Range_output_0">
					<dim>-1</dim>
				</port>
			</output>
		</layer>
		<layer id="35" name="/model/decoder/embed_positions/Shape" type="ShapeOf" version="opset3">
			<data output_type="i64" />
			<rt_info>
				<attribute name="fused_names" version="0" value="/model/decoder/embed_positions/Shape" />
			</rt_info>
			<input>
				<port id="0" precision="I64">
					<dim>-1</dim>
					<dim>-1</dim>
				</port>
			</input>
			<output>
				<port id="1" precision="I64" names="/model/decoder/embed_positions/Shape_output_0">
					<dim>2</dim>
				</port>
			</output>
		</layer>
		<layer id="36" name="/model/decoder/embed_positions/Constant" type="Const" version="opset1">
			<data element_type="i64" shape="" offset="66000" size="8" />
			<rt_info>
				<attribute name="fused_names" version="0" value="/model/decoder/embed_positions/Constant" />
			</rt_info>
			<output>
				<port id="0" precision="I64" names="/model/decoder/embed_positions/Constant_output_0" />
			</output>
		</layer>
		<layer id="37" name="Constant_4484582" type="Const" version="opset1">
			<data element_type="i64" shape="" offset="66000" size="8" />
			<rt_info>
				<attribute name="fused_names" version="0" value="Constant_4484582" />
			</rt_info>
			<output>
				<port id="0" precision="I64" />
			</output>
		</layer>
		<layer id="38" name="/model/decoder/embed_positions/Gather" type="Gather" version="opset8">
			<data batch_dims="0" />
			<rt_info>
				<attribute name="fused_names" version="0" value="/model/decoder/embed_positions/Constant, /model/decoder/embed_positions/Gather, Constant_4484582" />
			</rt_info>
			<input>
				<port id="0" precision="I64">
					<dim>2</dim>
				</port>
				<port id="1" precision="I64" />
				<port id="2" precision="I64" />
			</input>
			<output>
				<port id="3" precision="I64" names="/model/decoder/embed_positions/Gather_output_0" />
			</output>
		</layer>
		<layer id="39" name="Constant_4484673" type="Const" version="opset1">
			<data element_type="i64" shape="1" offset="66000" size="8" />
			<rt_info>
				<attribute name="fused_names" version="0" value="Constant_4484673" />
			</rt_info>
			<output>
				<port id="0" precision="I64">
					<dim>1</dim>
				</port>
			</output>
		</layer>
		<layer id="40" name="/model/decoder/embed_positions/Unsqueeze" type="Unsqueeze" version="opset1">
			<rt_info>
				<attribute name="fused_names" version="0" value="/model/decoder/embed_positions/Unsqueeze, Constant_4484673" />
			</rt_info>
			<input>
				<port id="0" precision="I64" />
				<port id="1" precision="I64">
					<dim>1</dim>
				</port>
			</input>
			<output>
				<port id="2" precision="I64" names="/model/decoder/embed_positions/Unsqueeze_output_0">
					<dim>1</dim>
				</port>
			</output>
		</layer>
		<layer id="41" name="/model/decoder/embed_positions/Constant_2" type="Const" version="opset1">
			<data element_type="i64" shape="1" offset="65984" size="8" />
			<rt_info>
				<attribute name="fused_names" version="0" value="/model/decoder/embed_positions/Constant_2" />
			</rt_info>
			<output>
				<port id="0" precision="I64" names="/model/decoder/embed_positions/Constant_2_output_0">
					<dim>1</dim>
				</port>
			</output>
		</layer>
		<layer id="42" name="/model/decoder/embed_positions/Concat" type="Concat" version="opset1">
			<data axis="0" />
			<rt_info>
				<attribute name="fused_names" version="0" value="/model/decoder/embed_positions/Concat, /model/decoder/embed_positions/Constant_2" />
			</rt_info>
			<input>
				<port id="0" precision="I64">
					<dim>1</dim>
				</port>
				<port id="1" precision="I64">
					<dim>1</dim>
				</port>
			</input>
			<output>
				<port id="2" precision="I64" names="/model/decoder/embed_positions/Concat_output_0">
					<dim>2</dim>
				</port>
			</output>
		</layer>
		<layer id="43" name="Constant_4498698" type="Const" version="opset1">
			<data element_type="i64" shape="1" offset="65984" size="8" />
			<rt_info>
				<attribute name="fused_names" version="0" value="/model/decoder/embed_positions/Reshape" />
			</rt_info>
			<output>
				<port id="0" precision="I64">
					<dim>1</dim>
				</port>
			</output>
		</layer>
		<layer id="44" name="/model/decoder/embed_positions/Reshape" type="Reshape" version="opset1">
			<data special_zero="true" />
			<rt_info>
				<attribute name="fused_names" version="0" value="/model/decoder/embed_positions/Reshape" />
			</rt_info>
			<input>
				<port id="0" precision="I64">
					<dim>2</dim>
				</port>
				<port id="1" precision="I64">
					<dim>1</dim>
				</port>
			</input>
			<output>
				<port id="2" precision="I64" names="/model/decoder/embed_positions/Reshape_output_0">
					<dim>2</dim>
				</port>
			</output>
		</layer>
		<layer id="45" name="Constant_4484683" type="Const" version="opset1">
			<data element_type="i64" shape="" offset="65992" size="8" />
			<rt_info>
				<attribute name="fused_names" version="0" value="Constant_4484683" />
			</rt_info>
			<output>
				<port id="0" precision="I64" />
			</output>
		</layer>
		<layer id="46" name="/model/decoder/embed_positions/Shape_1" type="ShapeOf" version="opset3">
			<data output_type="i64" />
			<rt_info>
				<attribute name="fused_names" version="0" value="/model/decoder/embed_positions/Shape_1" />
			</rt_info>
			<input>
				<port id="0" precision="I64">
					<dim>2</dim>
				</port>
			</input>
			<output>
				<port id="1" precision="I64" names="/model/decoder/embed_positions/Shape_1_output_0">
					<dim>1</dim>
				</port>
			</output>
		</layer>
		<layer id="47" name="/model/decoder/embed_positions/ConstantOfShape" type="Broadcast" version="opset3">
			<data mode="numpy" />
			<rt_info>
				<attribute name="fused_names" version="0" value="/model/decoder/embed_positions/ConstantOfShape, Constant_4484683" />
			</rt_info>
			<input>
				<port id="0" precision="I64" />
				<port id="1" precision="I64">
					<dim>1</dim>
				</port>
			</input>
			<output>
				<port id="2" precision="I64" names="/model/decoder/embed_positions/ConstantOfShape_output_0">
					<dim>2</dim>
				</port>
			</output>
		</layer>
		<layer id="48" name="/model/decoder/embed_positions/Constant_4" type="Const" version="opset1">
			<data element_type="i64" shape="" offset="65984" size="8" />
			<rt_info>
				<attribute name="fused_names" version="0" value="/model/decoder/embed_positions/Constant_4" />
			</rt_info>
			<output>
				<port id="0" precision="I64" names="/model/decoder/embed_positions/Constant_4_output_0" />
			</output>
		</layer>
		<layer id="49" name="/model/decoder/embed_positions/Mul" type="Multiply" version="opset1">
			<data auto_broadcast="numpy" />
			<rt_info>
				<attribute name="fused_names" version="0" value="/model/decoder/embed_positions/Constant_4, /model/decoder/embed_positions/Mul" />
			</rt_info>
			<input>
				<port id="0" precision="I64">
					<dim>2</dim>
				</port>
				<port id="1" precision="I64" />
			</input>
			<output>
				<port id="2" precision="I64" names="/model/decoder/embed_positions/Mul_output_0">
					<dim>2</dim>
				</port>
			</output>
		</layer>
		<layer id="50" name="/model/decoder/embed_positions/Equal" type="Equal" version="opset1">
			<data auto_broadcast="numpy" />
			<rt_info>
				<attribute name="fused_names" version="0" value="/model/decoder/embed_positions/Equal" />
			</rt_info>
			<input>
				<port id="0" precision="I64">
					<dim>2</dim>
				</port>
				<port id="1" precision="I64">
					<dim>2</dim>
				</port>
			</input>
			<output>
				<port id="2" precision="BOOL" names="/model/decoder/embed_positions/Equal_output_0">
					<dim>2</dim>
				</port>
			</output>
		</layer>
		<layer id="51" name="/model/decoder/embed_positions/Where" type="Select" version="opset1">
			<data auto_broadcast="numpy" />
			<rt_info>
				<attribute name="fused_names" version="0" value="/model/decoder/embed_positions/Where" />
			</rt_info>
			<input>
				<port id="0" precision="BOOL">
					<dim>2</dim>
				</port>
				<port id="1" precision="I64">
					<dim>2</dim>
				</port>
				<port id="2" precision="I64">
					<dim>2</dim>
				</port>
			</input>
			<output>
				<port id="3" precision="I64" names="/model/decoder/embed_positions/Where_output_0">
					<dim>2</dim>
				</port>
			</output>
		</layer>
		<layer id="52" name="/model/decoder/embed_positions/Expand" type="Broadcast" version="opset3">
			<data mode="bidirectional" />
			<rt_info>
				<attribute name="fused_names" version="0" value="/model/decoder/embed_positions/Expand" />
			</rt_info>
			<input>
				<port id="0" precision="I64">
					<dim>-1</dim>
				</port>
				<port id="1" precision="I64">
					<dim>2</dim>
				</port>
			</input>
			<output>
				<port id="2" precision="I64" names="/model/decoder/embed_positions/Expand_output_0">
					<dim>-1</dim>
					<dim>-1</dim>
				</port>
			</output>
		</layer>
		<layer id="53" name="/model/decoder/embed_positions/Constant_5" type="Const" version="opset1">
			<data element_type="i64" shape="" offset="72540" size="8" />
			<rt_info>
				<attribute name="fused_names" version="0" value="/model/decoder/embed_positions/Constant_5" />
			</rt_info>
			<output>
				<port id="0" precision="I64" names="/model/decoder/embed_positions/Constant_5_output_0" />
			</output>
		</layer>
		<layer id="54" name="/model/decoder/embed_positions/Add_1" type="Add" version="opset1">
			<data auto_broadcast="numpy" />
			<rt_info>
				<attribute name="fused_names" version="0" value="/model/decoder/embed_positions/Add_1" />
			</rt_info>
			<input>
				<port id="0" precision="I64">
					<dim>-1</dim>
					<dim>-1</dim>
				</port>
				<port id="1" precision="I64" />
			</input>
			<output>
				<port id="2" precision="I64" names="/model/decoder/embed_positions/Add_1_output_0">
					<dim>-1</dim>
					<dim>-1</dim>
				</port>
			</output>
		</layer>
		<layer id="55" name="Constant_4484736" type="Const" version="opset1">
			<data element_type="i64" shape="" offset="66000" size="8" />
			<rt_info>
				<attribute name="fused_names" version="0" value="Constant_4484736" />
			</rt_info>
			<output>
				<port id="0" precision="I64" />
			</output>
		</layer>
		<layer id="56" name="/model/decoder/embed_positions/Gather_1" type="Gather" version="opset8">
			<data batch_dims="0" />
			<rt_info>
				<attribute name="fused_names" version="0" value="/model/decoder/embed_positions/Gather_1" />
			</rt_info>
			<input>
				<port id="0" precision="FP32">
					<dim>102</dim>
					<dim>16</dim>
				</port>
				<port id="1" precision="I64">
					<dim>-1</dim>
					<dim>-1</dim>
				</port>
				<port id="2" precision="I64" />
			</input>
			<output>
				<port id="3" precision="FP32" names="/model/decoder/embed_positions/Gather_1_output_0">
					<dim>-1</dim>
					<dim>-1</dim>
					<dim>16</dim>
				</port>
			</output>
		</layer>
		<layer id="57" name="/model/decoder/Cast_3" type="Convert" version="opset1">
			<data destination_type="f32" />
			<rt_info>
				<attribute name="fused_names" version="0" value="/model/decoder/Cast_3" />
			</rt_info>
			<input>
				<port id="0" precision="FP32">
					<dim>-1</dim>
					<dim>-1</dim>
					<dim>16</dim>
				</port>
			</input>
			<output>
				<port id="1" precision="FP32" names="/model/decoder/Cast_3_output_0">
					<dim>-1</dim>
					<dim>-1</dim>
					<dim>16</dim>
				</port>
			</output>
		</layer>
		<layer id="58" name="/model/decoder/Add" type="Add" version="opset1">
			<data auto_broadcast="numpy" />
			<rt_info>
				<attribute name="fused_names" version="0" value="/model/decoder/Add" />
			</rt_info>
			<input>
				<port id="0" precision="FP32">
					<dim>-1</dim>
					<dim>-1</dim>
					<dim>16</dim>
				</port>
				<port id="1" precision="FP32">
					<dim>-1</dim>
					<dim>-1</dim>
					<dim>16</dim>
				</port>
			</input>
			<output>
				<port id="2" precision="FP32" names="/model/decoder/Add_output_0">
					<dim>-1</dim>
					<dim>-1</dim>
					<dim>16</dim>
				</port>
			</output>
		</layer>
		<layer id="59" name="Constant_4484740" type="Const" version="opset1">
			<data element_type="i64" shape="1" offset="65984" size="8" />
			<rt_info>
				<attribute name="fused_names" version="0" value="Constant_4484740" />
			</rt_info>
			<output>
				<port id="0" precision="I64">
					<dim>1</dim>
				</port>
			</output>
		</layer>
		<layer id="60" name="/model/decoder/layernorm_embedding/ReduceMean" type="ReduceMean" version="opset1">
			<data keep_dims="true" />
			<rt_info>
				<attribute name="fused_names" version="0" value="/model/decoder/layernorm_embedding/ReduceMean" />
			</rt_info>
			<input>
				<port id="0" precision="FP32">
					<dim>-1</dim>
					<dim>-1</dim>
					<dim>16</dim>
				</port>
				<port id="1" precision="I64">
					<dim>1</dim>
				</port>
			</input>
			<output>
				<port id="2" precision="FP32" names="/model/decoder/layernorm_embedding/ReduceMean_output_0">
					<dim>-1</dim>
					<dim>-1</dim>
					<dim>1</dim>
				</port>
			</output>
		</layer>
		<layer id="61" name="/model/decoder/layernorm_embedding/Sub" type="Subtract" version="opset1">
			<data auto_broadcast="numpy" />
			<rt_info>
				<attribute name="fused_names" version="0" value="/model/decoder/layernorm_embedding/Sub" />
			</rt_info>
			<input>
				<port id="0" precision="FP32">
					<dim>-1</dim>
					<dim>-1</dim>
					<dim>16</dim>
				</port>
				<port id="1" precision="FP32">
					<dim>-1</dim>
					<dim>-1</dim>
					<dim>1</dim>
				</port>
			</input>
			<output>
				<port id="2" precision="FP32" names="/model/decoder/layernorm_embedding/Sub_output_0">
					<dim>-1</dim>
					<dim>-1</dim>
					<dim>16</dim>
				</port>
			</output>
		</layer>
		<layer id="62" name="/model/decoder/layernorm_embedding/Constant" type="Const" version="opset1">
			<data element_type="f32" shape="" offset="72548" size="4" />
			<rt_info>
				<attribute name="fused_names" version="0" value="/model/decoder/layernorm_embedding/Constant" />
			</rt_info>
			<output>
				<port id="0" precision="FP32" names="/model/decoder/layernorm_embedding/Constant_output_0" />
			</output>
		</layer>
		<layer id="63" name="/model/decoder/layernorm_embedding/Pow" type="Power" version="opset1">
			<data auto_broadcast="numpy" />
			<rt_info>
				<attribute name="fused_names" version="0" value="/model/decoder/layernorm_embedding/Pow" />
			</rt_info>
			<input>
				<port id="0" precision="FP32">
					<dim>-1</dim>
					<dim>-1</dim>
					<dim>16</dim>
				</port>
				<port id="1" precision="FP32" />
			</input>
			<output>
				<port id="2" precision="FP32" names="/model/decoder/layernorm_embedding/Pow_output_0">
					<dim>-1</dim>
					<dim>-1</dim>
					<dim>16</dim>
				</port>
			</output>
		</layer>
		<layer id="64" name="Constant_4484745" type="Const" version="opset1">
			<data element_type="i64" shape="1" offset="65984" size="8" />
			<rt_info>
				<attribute name="fused_names" version="0" value="Constant_4484745" />
			</rt_info>
			<output>
				<port id="0" precision="I64">
					<dim>1</dim>
				</port>
			</output>
		</layer>
		<layer id="65" name="/model/decoder/layernorm_embedding/ReduceMean_1" type="ReduceMean" version="opset1">
			<data keep_dims="true" />
			<rt_info>
				<attribute name="fused_names" version="0" value="/model/decoder/layernorm_embedding/ReduceMean_1" />
			</rt_info>
			<input>
				<port id="0" precision="FP32">
					<dim>-1</dim>
					<dim>-1</dim>
					<dim>16</dim>
				</port>
				<port id="1" precision="I64">
					<dim>1</dim>
				</port>
			</input>
			<output>
				<port id="2" precision="FP32" names="/model/decoder/layernorm_embedding/ReduceMean_1_output_0">
					<dim>-1</dim>
					<dim>-1</dim>
					<dim>1</dim>
				</port>
			</output>
		</layer>
		<layer id="66" name="/model/decoder/layernorm_embedding/Constant_1" type="Const" version="opset1">
			<data element_type="f32" shape="" offset="72552" size="4" />
			<rt_info>
				<attribute name="fused_names" version="0" value="/model/decoder/layernorm_embedding/Constant_1" />
			</rt_info>
			<output>
				<port id="0" precision="FP32" names="/model/decoder/layernorm_embedding/Constant_1_output_0" />
			</output>
		</layer>
		<layer id="67" name="/model/decoder/layernorm_embedding/Add" type="Add" version="opset1">
			<data auto_broadcast="numpy" />
			<rt_info>
				<attribute name="fused_names" version="0" value="/model/decoder/layernorm_embedding/Add" />
			</rt_info>
			<input>
				<port id="0" precision="FP32">
					<dim>-1</dim>
					<dim>-1</dim>
					<dim>1</dim>
				</port>
				<port id="1" precision="FP32" />
			</input>
			<output>
				<port id="2" precision="FP32" names="/model/decoder/layernorm_embedding/Add_output_0">
					<dim>-1</dim>
					<dim>-1</dim>
					<dim>1</dim>
				</port>
			</output>
		</layer>
		<layer id="68" name="/model/decoder/layernorm_embedding/Sqrt" type="Sqrt" version="opset1">
			<rt_info>
				<attribute name="fused_names" version="0" value="/model/decoder/layernorm_embedding/Sqrt" />
			</rt_info>
			<input>
				<port id="0" precision="FP32">
					<dim>-1</dim>
					<dim>-1</dim>
					<dim>1</dim>
				</port>
			</input>
			<output>
				<port id="1" precision="FP32" names="/model/decoder/layernorm_embedding/Sqrt_output_0">
					<dim>-1</dim>
					<dim>-1</dim>
					<dim>1</dim>
				</port>
			</output>
		</layer>
		<layer id="69" name="/model/decoder/layernorm_embedding/Div" type="Divide" version="opset1">
			<data auto_broadcast="numpy" m_pythondiv="true" />
			<rt_info>
				<attribute name="fused_names" version="0" value="/model/decoder/layernorm_embedding/Div" />
			</rt_info>
			<input>
				<port id="0" precision="FP32">
					<dim>-1</dim>
					<dim>-1</dim>
					<dim>16</dim>
				</port>
				<port id="1" precision="FP32">
					<dim>-1</dim>
					<dim>-1</dim>
					<dim>1</dim>
				</port>
			</input>
			<output>
				<port id="2" precision="FP32" names="/model/decoder/layernorm_embedding/Div_output_0">
					<dim>-1</dim>
					<dim>-1</dim>
					<dim>16</dim>
				</port>
			</output>
		</layer>
		<layer id="70" name="model.decoder.layers.0.encoder_attn_layer_norm.weight" type="Const" version="opset1">
			<data element_type="f32" shape="16" offset="72556" size="64" />
			<rt_info>
				<attribute name="fused_names" version="0" value="model.decoder.layers.0.encoder_attn_layer_norm.weight" />
			</rt_info>
			<output>
				<port id="0" precision="FP32" names="model.decoder.layer_norm.weight,model.decoder.layernorm_embedding.weight,model.decoder.layers.0.encoder_attn_layer_norm.weight,model.decoder.layers.0.final_layer_norm.weight,model.decoder.layers.0.self_attn_layer_norm.weight,model.decoder.layers.1.encoder_attn_layer_norm.weight,model.decoder.layers.1.final_layer_norm.weight,model.decoder.layers.1.self_attn_layer_norm.weight">
					<dim>16</dim>
				</port>
			</output>
		</layer>
		<layer id="71" name="/model/decoder/layernorm_embedding/Mul" type="Multiply" version="opset1">
			<data auto_broadcast="numpy" />
			<rt_info>
				<attribute name="fused_names" version="0" value="/model/decoder/layernorm_embedding/Mul" />
			</rt_info>
			<input>
				<port id="0" precision="FP32">
					<dim>-1</dim>
					<dim>-1</dim>
					<dim>16</dim>
				</port>
				<port id="1" precision="FP32">
					<dim>16</dim>
				</port>
			</input>
			<output>
				<port id="2" precision="FP32" names="/model/decoder/layernorm_embedding/Mul_output_0">
					<dim>-1</dim>
					<dim>-1</dim>
					<dim>16</dim>
				</port>
			</output>
		</layer>
		<layer id="72" name="/model/decoder/layernorm_embedding/Add_1" type="Add" version="opset1">
			<data auto_broadcast="numpy" />
			<rt_info>
				<attribute name="fused_names" version="0" value="/model/decoder/layernorm_embedding/Add_1" />
			</rt_info>
			<input>
				<port id="0" precision="FP32">
					<dim>-1</dim>
					<dim>-1</dim>
					<dim>16</dim>
				</port>
				<port id="1" precision="FP32">
					<dim>16</dim>
				</port>
			</input>
			<output>
				<port id="2" precision="FP32" names="/model/decoder/layernorm_embedding/Add_1_output_0">
					<dim>-1</dim>
					<dim>-1</dim>
					<dim>16</dim>
				</port>
			</output>
		</layer>
		<layer id="73" name="Constant_4484753" type="Const" version="opset1">
			<data element_type="i64" shape="1" offset="65984" size="8" />
			<rt_info>
				<attribute name="fused_names" version="0" value="Constant_4484753" />
			</rt_info>
			<output>
				<port id="0" precision="I64">
					<dim>1</dim>
				</port>
			</output>
		</layer>
		<layer id="74" name="/model/decoder/layers.0/self_attn_layer_norm/ReduceMean" type="ReduceMean" version="opset1">
			<data keep_dims="true" />
			<rt_info>
				<attribute name="fused_names" version="0" value="/model/decoder/layers.0/self_attn_layer_norm/ReduceMean" />
			</rt_info>
			<input>
				<port id="0" precision="FP32">
					<dim>-1</dim>
					<dim>-1</dim>
					<dim>16</dim>
				</port>
				<port id="1" precision="I64">
					<dim>1</dim>
				</port>
			</input>
			<output>
				<port id="2" precision="FP32" names="/model/decoder/layers.0/self_attn_layer_norm/ReduceMean_output_0">
					<dim>-1</dim>
					<dim>-1</dim>
					<dim>1</dim>
				</port>
			</output>
		</layer>
		<layer id="75" name="/model/decoder/layers.0/self_attn_layer_norm/Sub" type="Subtract" version="opset1">
			<data auto_broadcast="numpy" />
			<rt_info>
				<attribute name="fused_names" version="0" value="/model/decoder/layers.0/self_attn_layer_norm/Sub" />
			</rt_info>
			<input>
				<port id="0" precision="FP32">
					<dim>-1</dim>
					<dim>-1</dim>
					<dim>16</dim>
				</port>
				<port id="1" precision="FP32">
					<dim>-1</dim>
					<dim>-1</dim>
					<dim>1</dim>
				</port>
			</input>
			<output>
				<port id="2" precision="FP32" names="/model/decoder/layers.0/self_attn_layer_norm/Sub_output_0">
					<dim>-1</dim>
					<dim>-1</dim>
					<dim>16</dim>
				</port>
			</output>
		</layer>
		<layer id="76" name="/model/decoder/layers.0/self_attn_layer_norm/Constant" type="Const" version="opset1">
			<data element_type="f32" shape="" offset="72548" size="4" />
			<rt_info>
				<attribute name="fused_names" version="0" value="/model/decoder/layers.0/self_attn_layer_norm/Constant" />
			</rt_info>
			<output>
				<port id="0" precision="FP32" names="/model/decoder/layers.0/self_attn_layer_norm/Constant_output_0" />
			</output>
		</layer>
		<layer id="77" name="/model/decoder/layers.0/self_attn_layer_norm/Pow" type="Power" version="opset1">
			<data auto_broadcast="numpy" />
			<rt_info>
				<attribute name="fused_names" version="0" value="/model/decoder/layers.0/self_attn_layer_norm/Pow" />
			</rt_info>
			<input>
				<port id="0" precision="FP32">
					<dim>-1</dim>
					<dim>-1</dim>
					<dim>16</dim>
				</port>
				<port id="1" precision="FP32" />
			</input>
			<output>
				<port id="2" precision="FP32" names="/model/decoder/layers.0/self_attn_layer_norm/Pow_output_0">
					<dim>-1</dim>
					<dim>-1</dim>
					<dim>16</dim>
				</port>
			</output>
		</layer>
		<layer id="78" name="Constant_4484758" type="Const" version="opset1">
			<data element_type="i64" shape="1" offset="65984" size="8" />
			<rt_info>
				<attribute name="fused_names" version="0" value="Constant_4484758" />
			</rt_info>
			<output>
				<port id="0" precision="I64">
					<dim>1</dim>
				</port>
			</output>
		</layer>
		<layer id="79" name="/model/decoder/layers.0/self_attn_layer_norm/ReduceMean_1" type="ReduceMean" version="opset1">
			<data keep_dims="true" />
			<rt_info>
				<attribute name="fused_names" version="0" value="/model/decoder/layers.0/self_attn_layer_norm/ReduceMean_1" />
			</rt_info>
			<input>
				<port id="0" precision="FP32">
					<dim>-1</dim>
					<dim>-1</dim>
					<dim>16</dim>
				</port>
				<port id="1" precision="I64">
					<dim>1</dim>
				</port>
			</input>
			<output>
				<port id="2" precision="FP32" names="/model/decoder/layers.0/self_attn_layer_norm/ReduceMean_1_output_0">
					<dim>-1</dim>
					<dim>-1</dim>
					<dim>1</dim>
				</port>
			</output>
		</layer>
		<layer id="80" name="/model/decoder/layers.0/self_attn_layer_norm/Constant_1" type="Const" version="opset1">
			<data element_type="f32" shape="" offset="72552" size="4" />
			<rt_info>
				<attribute name="fused_names" version="0" value="/model/decoder/layers.0/self_attn_layer_norm/Constant_1" />
			</rt_info>
			<output>
				<port id="0" precision="FP32" names="/model/decoder/layers.0/self_attn_layer_norm/Constant_1_output_0" />
			</output>
		</layer>
		<layer id="81" name="/model/decoder/layers.0/self_attn_layer_norm/Add" type="Add" version="opset1">
			<data auto_broadcast="numpy" />
			<rt_info>
				<attribute name="fused_names" version="0" value="/model/decoder/layers.0/self_attn_layer_norm/Add" />
			</rt_info>
			<input>
				<port id="0" precision="FP32">
					<dim>-1</dim>
					<dim>-1</dim>
					<dim>1</dim>
				</port>
				<port id="1" precision="FP32" />
			</input>
			<output>
				<port id="2" precision="FP32" names="/model/decoder/layers.0/self_attn_layer_norm/Add_output_0">
					<dim>-1</dim>
					<dim>-1</dim>
					<dim>1</dim>
				</port>
			</output>
		</layer>
		<layer id="82" name="/model/decoder/layers.0/self_attn_layer_norm/Sqrt" type="Sqrt" version="opset1">
			<rt_info>
				<attribute name="fused_names" version="0" value="/model/decoder/layers.0/self_attn_layer_norm/Sqrt" />
			</rt_info>
			<input>
				<port id="0" precision="FP32">
					<dim>-1</dim>
					<dim>-1</dim>
					<dim>1</dim>
				</port>
			</input>
			<output>
				<port id="1" precision="FP32" names="/model/decoder/layers.0/self_attn_layer_norm/Sqrt_output_0">
					<dim>-1</dim>
					<dim>-1</dim>
					<dim>1</dim>
				</port>
			</output>
		</layer>
		<layer id="83" name="/model/decoder/layers.0/self_attn_layer_norm/Div" type="Divide" version="opset1">
			<data auto_broadcast="numpy" m_pythondiv="true" />
			<rt_info>
				<attribute name="fused_names" version="0" value="/model/decoder/layers.0/self_attn_layer_norm/Div" />
			</rt_info>
			<input>
				<port id="0" precision="FP32">
					<dim>-1</dim>
					<dim>-1</dim>
					<dim>16</dim>
				</port>
				<port id="1" precision="FP32">
					<dim>-1</dim>
					<dim>-1</dim>
					<dim>1</dim>
				</port>
			</input>
			<output>
				<port id="2" precision="FP32" names="/model/decoder/layers.0/self_attn_layer_norm/Div_output_0">
					<dim>-1</dim>
					<dim>-1</dim>
					<dim>16</dim>
				</port>
			</output>
		</layer>
		<layer id="84" name="/model/decoder/layers.0/self_attn_layer_norm/Mul" type="Multiply" version="opset1">
			<data auto_broadcast="numpy" />
			<rt_info>
				<attribute name="fused_names" version="0" value="/model/decoder/layers.0/self_attn_layer_norm/Mul" />
			</rt_info>
			<input>
				<port id="0" precision="FP32">
					<dim>-1</dim>
					<dim>-1</dim>
					<dim>16</dim>
				</port>
				<port id="1" precision="FP32">
					<dim>16</dim>
				</port>
			</input>
			<output>
				<port id="2" precision="FP32" names="/model/decoder/layers.0/self_attn_layer_norm/Mul_output_0">
					<dim>-1</dim>
					<dim>-1</dim>
					<dim>16</dim>
				</port>
			</output>
		</layer>
		<layer id="85" name="/model/decoder/layers.0/self_attn_layer_norm/Add_1" type="Add" version="opset1">
			<data auto_broadcast="numpy" />
			<rt_info>
				<attribute name="fused_names" version="0" value="/model/decoder/layers.0/self_attn_layer_norm/Add_1" />
			</rt_info>
			<input>
				<port id="0" precision="FP32">
					<dim>-1</dim>
					<dim>-1</dim>
					<dim>16</dim>
				</port>
				<port id="1" precision="FP32">
					<dim>16</dim>
				</port>
			</input>
			<output>
				<port id="2" precision="FP32" names="/model/decoder/layers.0/self_attn_layer_norm/Add_1_output_0">
					<dim>-1</dim>
					<dim>-1</dim>
					<dim>16</dim>
				</port>
			</output>
		</layer>
		<layer id="86" name="onnx::MatMul_596" type="Const" version="opset1">
			<data element_type="f32" shape="16, 16" offset="72620" size="1024" />
			<rt_info>
				<attribute name="fused_names" version="0" value="onnx::MatMul_596" />
			</rt_info>
			<output>
				<port id="0" precision="FP32" names="onnx::MatMul_596">
					<dim>16</dim>
					<dim>16</dim>
				</port>
			</output>
		</layer>
		<layer id="87" name="/model/decoder/layers.0/self_attn/q_proj/MatMul" type="MatMul" version="opset1">
			<data transpose_a="false" transpose_b="false" />
			<rt_info>
				<attribute name="fused_names" version="0" value="/model/decoder/layers.0/self_attn/q_proj/MatMul" />
			</rt_info>
			<input>
				<port id="0" precision="FP32">
					<dim>-1</dim>
					<dim>-1</dim>
					<dim>16</dim>
				</port>
				<port id="1" precision="FP32">
					<dim>16</dim>
					<dim>16</dim>
				</port>
			</input>
			<output>
				<port id="2" precision="FP32" names="/model/decoder/layers.0/self_attn/q_proj/MatMul_output_0">
					<dim>-1</dim>
					<dim>-1</dim>
					<dim>16</dim>
				</port>
			</output>
		</layer>
		<layer id="88" name="/model/decoder/layers.0/self_attn/q_proj/Add" type="Add" version="opset1">
			<data auto_broadcast="numpy" />
			<rt_info>
				<attribute name="fused_names" version="0" value="/model/decoder/layers.0/self_attn/q_proj/Add" />
			</rt_info>
			<input>
				<port id="0" precision="FP32">
					<dim>16</dim>
				</port>
				<port id="1" precision="FP32">
					<dim>-1</dim>
					<dim>-1</dim>
					<dim>16</dim>
				</port>
			</input>
			<output>
				<port id="2" precision="FP32" names="/model/decoder/layers.0/self_attn/q_proj/Add_output_0">
					<dim>-1</dim>
					<dim>-1</dim>
					<dim>16</dim>
				</port>
			</output>
		</layer>
		<layer id="89" name="/model/decoder/layers.0/self_attn/Constant_2" type="Const" version="opset1">
			<data element_type="f32" shape="" offset="73644" size="4" />
			<rt_info>
				<attribute name="fused_names" version="0" value="/model/decoder/layers.0/self_attn/Constant_2" />
			</rt_info>
			<output>
				<port id="0" precision="FP32" names="/model/decoder/layers.0/self_attn/Constant_2_output_0" />
			</output>
		</layer>
		<layer id="90" name="/model/decoder/layers.0/self_attn/Mul" type="Multiply" version="opset1">
			<data auto_broadcast="numpy" />
			<rt_info>
				<attribute name="fused_names" version="0" value="/model/decoder/layers.0/self_attn/Mul" />
			</rt_info>
			<input>
				<port id="0" precision="FP32">
					<dim>-1</dim>
					<dim>-1</dim>
					<dim>16</dim>
				</port>
				<port id="1" precision="FP32" />
			</input>
			<output>
				<port id="2" precision="FP32" names="/model/decoder/layers.0/self_attn/Mul_output_0">
					<dim>-1</dim>
					<dim>-1</dim>
					<dim>16</dim>
				</port>
			</output>
		</layer>
		<layer id="91" name="/model/decoder/layers.0/self_attn/Shape" type="ShapeOf" version="opset3">
			<data output_type="i64" />
			<rt_info>
				<attribute name="fused_names" version="0" value="/model/decoder/layers.0/self_attn/Shape" />
			</rt_info>
			<input>
				<port id="0" precision="FP32">
					<dim>-1</dim>
					<dim>-1</dim>
					<dim>16</dim>
				</port>
			</input>
			<output>
				<port id="1" precision="I64" names="/model/decoder/layers.0/self_attn/Shape_output_0">
					<dim>3</dim>
				</port>
			</output>
		</layer>
		<layer id="92" name="/model/decoder/layers.0/self_attn/Constant" type="Const" version="opset1">
			<data element_type="i64" shape="" offset="66000" size="8" />
			<rt_info>
				<attribute name="fused_names" version="0" value="/model/decoder/layers.0/self_attn/Constant" />
			</rt_info>
			<output>
				<port id="0" precision="I64" names="/model/decoder/layers.0/self_attn/Constant_output_0" />
			</output>
		</layer>
		<layer id="93" name="Constant_4484768" type="Const" version="opset1">
			<data element_type="i64" shape="" offset="66000" size="8" />
			<rt_info>
				<attribute name="fused_names" version="0" value="Constant_4484768" />
			</rt_info>
			<output>
				<port id="0" precision="I64" />
			</output>
		</layer>
		<layer id="94" name="/model/decoder/layers.0/self_attn/Gather" type="Gather" version="opset8">
			<data batch_dims="0" />
			<rt_info>
				<attribute name="fused_names" version="0" value="/model/decoder/layers.0/self_attn/Constant, /model/decoder/layers.0/self_attn/Gather, Constant_4484768" />
			</rt_info>
			<input>
				<port id="0" precision="I64">
					<dim>3</dim>
				</port>
				<port id="1" precision="I64" />
				<port id="2" precision="I64" />
			</input>
			<output>
				<port id="3" precision="I64" names="/model/decoder/layers.0/self_attn/Gather_output_0" />
			</output>
		</layer>
		<layer id="95" name="Constant_4484816" type="Const" version="opset1">
			<data element_type="i64" shape="1" offset="66000" size="8" />
			<rt_info>
				<attribute name="fused_names" version="0" value="Constant_4484816" />
			</rt_info>
			<output>
				<port id="0" precision="I64">
					<dim>1</dim>
				</port>
			</output>
		</layer>
		<layer id="96" name="/model/decoder/layers.0/self_attn/Unsqueeze_2" type="Unsqueeze" version="opset1">
			<rt_info>
				<attribute name="fused_names" version="0" value="/model/decoder/layers.0/self_attn/Unsqueeze_2, Constant_4484816" />
			</rt_info>
			<input>
				<port id="0" precision="I64" />
				<port id="1" precision="I64">
					<dim>1</dim>
				</port>
			</input>
			<output>
				<port id="2" precision="I64" names="/model/decoder/layers.0/self_attn/Unsqueeze_2_output_0">
					<dim>1</dim>
				</port>
			</output>
		</layer>
		<layer id="97" name="/model/decoder/layers.0/self_attn/Shape_1" type="ShapeOf" version="opset3">
			<data output_type="i64" />
			<rt_info>
				<attribute name="fused_names" version="0" value="/model/decoder/layers.0/self_attn/Shape_1" />
			</rt_info>
			<input>
				<port id="0" precision="FP32">
					<dim>-1</dim>
					<dim>-1</dim>
					<dim>16</dim>
				</port>
			</input>
			<output>
				<port id="1" precision="I64" names="/model/decoder/layers.0/self_attn/Shape_1_output_0">
					<dim>3</dim>
				</port>
			</output>
		</layer>
		<layer id="98" name="/model/decoder/layers.0/self_attn/Constant_1" type="Const" version="opset1">
			<data element_type="i64" shape="" offset="65992" size="8" />
			<rt_info>
				<attribute name="fused_names" version="0" value="/model/decoder/layers.0/self_attn/Constant_1" />
			</rt_info>
			<output>
				<port id="0" precision="I64" names="/model/decoder/layers.0/self_attn/Constant_1_output_0" />
			</output>
		</layer>
		<layer id="99" name="Constant_4484772" type="Const" version="opset1">
			<data element_type="i64" shape="" offset="66000" size="8" />
			<rt_info>
				<attribute name="fused_names" version="0" value="Constant_4484772" />
			</rt_info>
			<output>
				<port id="0" precision="I64" />
			</output>
		</layer>
		<layer id="100" name="/model/decoder/layers.0/self_attn/Gather_1" type="Gather" version="opset8">
			<data batch_dims="0" />
			<rt_info>
				<attribute name="fused_names" version="0" value="/model/decoder/layers.0/self_attn/Constant_1, /model/decoder/layers.0/self_attn/Gather_1, Constant_4484772" />
			</rt_info>
			<input>
				<port id="0" precision="I64">
					<dim>3</dim>
				</port>
				<port id="1" precision="I64" />
				<port id="2" precision="I64" />
			</input>
			<output>
				<port id="3" precision="I64" names="/model/decoder/layers.0/self_attn/Gather_1_output_0" />
			</output>
		</layer>
		<layer id="101" name="Constant_4484818" type="Const" version="opset1">
			<data element_type="i64" shape="1" offset="66000" size="8" />
			<rt_info>
				<attribute name="fused_names" version="0" value="Constant_4484818" />
			</rt_info>
			<output>
				<port id="0" precision="I64">
					<dim>1</dim>
				</port>
			</output>
		</layer>
		<layer id="102" name="/model/decoder/layers.0/self_attn/Unsqueeze_3" type="Unsqueeze" version="opset1">
			<rt_info>
				<attribute name="fused_names" version="0" value="/model/decoder/layers.0/self_attn/Unsqueeze_3, Constant_4484818" />
			</rt_info>
			<input>
				<port id="0" precision="I64" />
				<port id="1" precision="I64">
					<dim>1</dim>
				</port>
			</input>
			<output>
				<port id="2" precision="I64" names="/model/decoder/layers.0/self_attn/Unsqueeze_3_output_0">
					<dim>1</dim>
				</port>
			</output>
		</layer>
		<layer id="103" name="/model/decoder/layers.0/self_attn/Constant_10" type="Const" version="opset1">
			<data element_type="i64" shape="1" offset="73648" size="8" />
			<rt_info>
				<attribute name="fused_names" version="0" value="/model/decoder/layers.0/self_attn/Constant_10" />
			</rt_info>
			<output>
				<port id="0" precision="I64" names="/model/decoder/layers.0/self_attn/Constant_10_output_0">
					<dim>1</dim>
				</port>
			</output>
		</layer>
		<layer id="104" name="/model/decoder/layers.0/self_attn/Constant_11" type="Const" version="opset1">
			<data element_type="i64" shape="1" offset="73648" size="8" />
			<rt_info>
				<attribute name="fused_names" version="0" value="/model/decoder/layers.0/self_attn/Constant_11" />
			</rt_info>
			<output>
				<port id="0" precision="I64" names="/model/decoder/layers.0/self_attn/Constant_11_output_0">
					<dim>1</dim>
				</port>
			</output>
		</layer>
		<layer id="105" name="/model/decoder/layers.0/self_attn/Concat_4" type="Concat" version="opset1">
			<data axis="0" />
			<rt_info>
				<attribute name="fused_names" version="0" value="/model/decoder/layers.0/self_attn/Concat_4, /model/decoder/layers.0/self_attn/Constant_10, /model/decoder/layers.0/self_attn/Constant_11" />
			</rt_info>
			<input>
				<port id="0" precision="I64">
					<dim>1</dim>
				</port>
				<port id="1" precision="I64">
					<dim>1</dim>
				</port>
				<port id="2" precision="I64">
					<dim>1</dim>
				</port>
				<port id="3" precision="I64">
					<dim>1</dim>
				</port>
			</input>
			<output>
				<port id="4" precision="I64" names="/model/decoder/layers.0/self_attn/Concat_4_output_0">
					<dim>4</dim>
				</port>
			</output>
		</layer>
		<layer id="106" name="/model/decoder/layers.0/self_attn/Reshape_2" type="Reshape" version="opset1">
			<data special_zero="true" />
			<rt_info>
				<attribute name="fused_names" version="0" value="/model/decoder/layers.0/self_attn/Reshape_2" />
			</rt_info>
			<input>
				<port id="0" precision="FP32">
					<dim>-1</dim>
					<dim>-1</dim>
					<dim>16</dim>
				</port>
				<port id="1" precision="I64">
					<dim>4</dim>
				</port>
			</input>
			<output>
				<port id="2" precision="FP32" names="/model/decoder/layers.0/self_attn/Reshape_2_output_0">
					<dim>-1</dim>
					<dim>-1</dim>
					<dim>4</dim>
					<dim>4</dim>
				</port>
			</output>
		</layer>
		<layer id="107" name="Constant_4484834" type="Const" version="opset1">
			<data element_type="i64" shape="4" offset="73656" size="32" />
			<rt_info>
				<attribute name="fused_names" version="0" value="Constant_4484834" />
			</rt_info>
			<output>
				<port id="0" precision="I64">
					<dim>4</dim>
				</port>
			</output>
		</layer>
		<layer id="108" name="/model/decoder/layers.0/self_attn/Transpose_2" type="Transpose" version="opset1">
			<rt_info>
				<attribute name="fused_names" version="0" value="/model/decoder/layers.0/self_attn/Transpose_2" />
			</rt_info>
			<input>
				<port id="0" precision="FP32">
					<dim>-1</dim>
					<dim>-1</dim>
					<dim>4</dim>
					<dim>4</dim>
				</port>
				<port id="1" precision="I64">
					<dim>4</dim>
				</port>
			</input>
			<output>
				<port id="2" precision="FP32" names="/model/decoder/layers.0/self_attn/Transpose_2_output_0">
					<dim>-1</dim>
					<dim>4</dim>
					<dim>-1</dim>
					<dim>4</dim>
				</port>
			</output>
		</layer>
		<layer id="109" name="/model/decoder/layers.0/self_attn/Constant_9" type="Const" version="opset1">
			<data element_type="i64" shape="" offset="73648" size="8" />
			<rt_info>
				<attribute name="fused_names" version="0" value="/model/decoder/layers.0/self_attn/Constant_9" />
			</rt_info>
			<output>
				<port id="0" precision="I64" names="/model/decoder/layers.0/self_attn/Constant_9_output_0" />
			</output>
		</layer>
		<layer id="110" name="/model/decoder/layers.0/self_attn/Mul_1" type="Multiply" version="opset1">
			<data auto_broadcast="numpy" />
			<rt_info>
				<attribute name="fused_names" version="0" value="/model/decoder/layers.0/self_attn/Constant_9, /model/decoder/layers.0/self_attn/Mul_1" />
			</rt_info>
			<input>
				<port id="0" precision="I64" />
				<port id="1" precision="I64" />
			</input>
			<output>
				<port id="2" precision="I64" names="/model/decoder/layers.0/self_attn/Mul_1_output_0" />
			</output>
		</layer>
		<layer id="111" name="Constant_4484836" type="Const" version="opset1">
			<data element_type="i64" shape="1" offset="66000" size="8" />
			<rt_info>
				<attribute name="fused_names" version="0" value="Constant_4484836" />
			</rt_info>
			<output>
				<port id="0" precision="I64">
					<dim>1</dim>
				</port>
			</output>
		</layer>
		<layer id="112" name="/model/decoder/layers.0/self_attn/Unsqueeze_4" type="Unsqueeze" version="opset1">
			<rt_info>
				<attribute name="fused_names" version="0" value="/model/decoder/layers.0/self_attn/Unsqueeze_4, Constant_4484836" />
			</rt_info>
			<input>
				<port id="0" precision="I64" />
				<port id="1" precision="I64">
					<dim>1</dim>
				</port>
			</input>
			<output>
				<port id="2" precision="I64" names="/model/decoder/layers.0/self_attn/Unsqueeze_4_output_0">
					<dim>1</dim>
				</port>
			</output>
		</layer>
		<layer id="113" name="/model/decoder/layers.0/self_attn/Constant_12" type="Const" version="opset1">
			<data element_type="i64" shape="1" offset="65984" size="8" />
			<rt_info>
				<attribute name="fused_names" version="0" value="/model/decoder/layers.0/self_attn/Constant_12" />
			</rt_info>
			<output>
				<port id="0" precision="I64" names="/model/decoder/layers.0/self_attn/Constant_12_output_0">
					<dim>1</dim>
				</port>
			</output>
		</layer>
		<layer id="114" name="/model/decoder/layers.0/self_attn/Constant_13" type="Const" version="opset1">
			<data element_type="i64" shape="1" offset="73648" size="8" />
			<rt_info>
				<attribute name="fused_names" version="0" value="/model/decoder/layers.0/self_attn/Constant_13" />
			</rt_info>
			<output>
				<port id="0" precision="I64" names="/model/decoder/layers.0/self_attn/Constant_13_output_0">
					<dim>1</dim>
				</port>
			</output>
		</layer>
		<layer id="115" name="/model/decoder/layers.0/self_attn/Concat_5" type="Concat" version="opset1">
			<data axis="0" />
			<rt_info>
				<attribute name="fused_names" version="0" value="/model/decoder/layers.0/self_attn/Concat_5, /model/decoder/layers.0/self_attn/Constant_12, /model/decoder/layers.0/self_attn/Constant_13" />
			</rt_info>
			<input>
				<port id="0" precision="I64">
					<dim>1</dim>
				</port>
				<port id="1" precision="I64">
					<dim>1</dim>
				</port>
				<port id="2" precision="I64">
					<dim>1</dim>
				</port>
			</input>
			<output>
				<port id="3" precision="I64" names="/model/decoder/layers.0/self_attn/Concat_5_output_0">
					<dim>3</dim>
				</port>
			</output>
		</layer>
		<layer id="116" name="/model/decoder/layers.0/self_attn/Reshape_3" type="Reshape" version="opset1">
			<data special_zero="true" />
			<rt_info>
				<attribute name="fused_names" version="0" value="/model/decoder/layers.0/self_attn/Reshape_3" />
			</rt_info>
			<input>
				<port id="0" precision="FP32">
					<dim>-1</dim>
					<dim>4</dim>
					<dim>-1</dim>
					<dim>4</dim>
				</port>
				<port id="1" precision="I64">
					<dim>3</dim>
				</port>
			</input>
			<output>
				<port id="2" precision="FP32" names="/model/decoder/layers.0/self_attn/Reshape_3_output_0">
					<dim>-1</dim>
					<dim>-1</dim>
					<dim>4</dim>
				</port>
			</output>
		</layer>
		<layer id="117" name="onnx::MatMul_597" type="Const" version="opset1">
			<data element_type="f32" shape="16, 16" offset="73688" size="1024" />
			<rt_info>
				<attribute name="fused_names" version="0" value="onnx::MatMul_597" />
			</rt_info>
			<output>
				<port id="0" precision="FP32" names="onnx::MatMul_597">
					<dim>16</dim>
					<dim>16</dim>
				</port>
			</output>
		</layer>
		<layer id="118" name="/model/decoder/layers.0/self_attn/k_proj/MatMul" type="MatMul" version="opset1">
			<data transpose_a="false" transpose_b="false" />
			<rt_info>
				<attribute name="fused_names" version="0" value="/model/decoder/layers.0/self_attn/k_proj/MatMul" />
			</rt_info>
			<input>
				<port id="0" precision="FP32">
					<dim>-1</dim>
					<dim>-1</dim>
					<dim>16</dim>
				</port>
				<port id="1" precision="FP32">
					<dim>16</dim>
					<dim>16</dim>
				</port>
			</input>
			<output>
				<port id="2" precision="FP32" names="/model/decoder/layers.0/self_attn/k_proj/MatMul_output_0">
					<dim>-1</dim>
					<dim>-1</dim>
					<dim>16</dim>
				</port>
			</output>
		</layer>
		<layer id="119" name="/model/decoder/layers.0/self_attn/k_proj/Add" type="Add" version="opset1">
			<data auto_broadcast="numpy" />
			<rt_info>
				<attribute name="fused_names" version="0" value="/model/decoder/layers.0/self_attn/k_proj/Add" />
			</rt_info>
			<input>
				<port id="0" precision="FP32">
					<dim>16</dim>
				</port>
				<port id="1" precision="FP32">
					<dim>-1</dim>
					<dim>-1</dim>
					<dim>16</dim>
				</port>
			</input>
			<output>
				<port id="2" precision="FP32" names="/model/decoder/layers.0/self_attn/k_proj/Add_output_0">
					<dim>-1</dim>
					<dim>-1</dim>
					<dim>16</dim>
				</port>
			</output>
		</layer>
		<layer id="120" name="Constant_4484780" type="Const" version="opset1">
			<data element_type="i64" shape="1" offset="66000" size="8" />
			<rt_info>
				<attribute name="fused_names" version="0" value="Constant_4484780" />
			</rt_info>
			<output>
				<port id="0" precision="I64">
					<dim>1</dim>
				</port>
			</output>
		</layer>
		<layer id="121" name="/model/decoder/layers.0/self_attn/Unsqueeze" type="Unsqueeze" version="opset1">
			<rt_info>
				<attribute name="fused_names" version="0" value="/model/decoder/layers.0/self_attn/Unsqueeze, Constant_4484780" />
			</rt_info>
			<input>
				<port id="0" precision="I64" />
				<port id="1" precision="I64">
					<dim>1</dim>
				</port>
			</input>
			<output>
				<port id="2" precision="I64" names="/model/decoder/layers.0/self_attn/Unsqueeze_output_0">
					<dim>1</dim>
				</port>
			</output>
		</layer>
		<layer id="122" name="/model/decoder/layers.0/self_attn/Constant_3" type="Const" version="opset1">
			<data element_type="i64" shape="1" offset="65984" size="8" />
			<rt_info>
				<attribute name="fused_names" version="0" value="/model/decoder/layers.0/self_attn/Constant_3" />
			</rt_info>
			<output>
				<port id="0" precision="I64" names="/model/decoder/layers.0/self_attn/Constant_3_output_0">
					<dim>1</dim>
				</port>
			</output>
		</layer>
		<layer id="123" name="/model/decoder/layers.0/self_attn/Constant_4" type="Const" version="opset1">
			<data element_type="i64" shape="1" offset="73648" size="8" />
			<rt_info>
				<attribute name="fused_names" version="0" value="/model/decoder/layers.0/self_attn/Constant_4" />
			</rt_info>
			<output>
				<port id="0" precision="I64" names="/model/decoder/layers.0/self_attn/Constant_4_output_0">
					<dim>1</dim>
				</port>
			</output>
		</layer>
		<layer id="124" name="/model/decoder/layers.0/self_attn/Constant_5" type="Const" version="opset1">
			<data element_type="i64" shape="1" offset="73648" size="8" />
			<rt_info>
				<attribute name="fused_names" version="0" value="/model/decoder/layers.0/self_attn/Constant_5" />
			</rt_info>
			<output>
				<port id="0" precision="I64" names="/model/decoder/layers.0/self_attn/Constant_5_output_0">
					<dim>1</dim>
				</port>
			</output>
		</layer>
		<layer id="125" name="/model/decoder/layers.0/self_attn/Concat" type="Concat" version="opset1">
			<data axis="0" />
			<rt_info>
				<attribute name="fused_names" version="0" value="/model/decoder/layers.0/self_attn/Concat, /model/decoder/layers.0/self_attn/Constant_3, /model/decoder/layers.0/self_attn/Constant_4, /model/decoder/layers.0/self_attn/Constant_5" />
			</rt_info>
			<input>
				<port id="0" precision="I64">
					<dim>1</dim>
				</port>
				<port id="1" precision="I64">
					<dim>1</dim>
				</port>
				<port id="2" precision="I64">
					<dim>1</dim>
				</port>
				<port id="3" precision="I64">
					<dim>1</dim>
				</port>
			</input>
			<output>
				<port id="4" precision="I64" names="/model/decoder/layers.0/self_attn/Concat_output_0">
					<dim>4</dim>
				</port>
			</output>
		</layer>
		<layer id="126" name="/model/decoder/layers.0/self_attn/Reshape" type="Reshape" version="opset1">
			<data special_zero="true" />
			<rt_info>
				<attribute name="fused_names" version="0" value="/model/decoder/layers.0/self_attn/Reshape" />
			</rt_info>
			<input>
				<port id="0" precision="FP32">
					<dim>-1</dim>
					<dim>-1</dim>
					<dim>16</dim>
				</port>
				<port id="1" precision="I64">
					<dim>4</dim>
				</port>
			</input>
			<output>
				<port id="2" precision="FP32" names="/model/decoder/layers.0/self_attn/Reshape_output_0">
					<dim>-1</dim>
					<dim>-1</dim>
					<dim>4</dim>
					<dim>4</dim>
				</port>
			</output>
		</layer>
		<layer id="127" name="Constant_4484799" type="Const" version="opset1">
			<data element_type="i64" shape="4" offset="73656" size="32" />
			<rt_info>
				<attribute name="fused_names" version="0" value="Constant_4484799" />
			</rt_info>
			<output>
				<port id="0" precision="I64">
					<dim>4</dim>
				</port>
			</output>
		</layer>
		<layer id="128" name="/model/decoder/layers.0/self_attn/Transpose" type="Transpose" version="opset1">
			<rt_info>
				<attribute name="fused_names" version="0" value="/model/decoder/layers.0/self_attn/Transpose" />
			</rt_info>
			<input>
				<port id="0" precision="FP32">
					<dim>-1</dim>
					<dim>-1</dim>
					<dim>4</dim>
					<dim>4</dim>
				</port>
				<port id="1" precision="I64">
					<dim>4</dim>
				</port>
			</input>
			<output>
				<port id="2" precision="FP32" names="/model/decoder/layers.0/self_attn/Transpose_output_0">
					<dim>-1</dim>
					<dim>4</dim>
					<dim>-1</dim>
					<dim>4</dim>
				</port>
			</output>
		</layer>
		<layer id="129" name="present.0.decoder.key" type="Concat" version="opset1">
			<data axis="2" />
			<rt_info>
				<attribute name="fused_names" version="0" value="present.0.decoder.key" />
			</rt_info>
			<input>
				<port id="0" precision="FP32">
					<dim>-1</dim>
					<dim>4</dim>
					<dim>-1</dim>
					<dim>4</dim>
				</port>
				<port id="1" precision="FP32">
					<dim>-1</dim>
					<dim>4</dim>
					<dim>-1</dim>
					<dim>4</dim>
				</port>
			</input>
			<output>
				<port id="2" precision="FP32" names="present.0.decoder.key">
					<dim>-1</dim>
					<dim>4</dim>
					<dim>-1</dim>
					<dim>4</dim>
				</port>
			</output>
		</layer>
		<layer id="130" name="Constant_4484841" type="Const" version="opset1">
			<data element_type="i64" shape="1" offset="66000" size="8" />
			<rt_info>
				<attribute name="fused_names" version="0" value="Constant_4484841" />
			</rt_info>
			<output>
				<port id="0" precision="I64">
					<dim>1</dim>
				</port>
			</output>
		</layer>
		<layer id="131" name="/model/decoder/layers.0/self_attn/Unsqueeze_5" type="Unsqueeze" version="opset1">
			<rt_info>
				<attribute name="fused_names" version="0" value="/model/decoder/layers.0/self_attn/Unsqueeze_5, Constant_4484841" />
			</rt_info>
			<input>
				<port id="0" precision="I64" />
				<port id="1" precision="I64">
					<dim>1</dim>
				</port>
			</input>
			<output>
				<port id="2" precision="I64" names="/model/decoder/layers.0/self_attn/Unsqueeze_5_output_0">
					<dim>1</dim>
				</port>
			</output>
		</layer>
		<layer id="132" name="/model/decoder/layers.0/self_attn/Constant_14" type="Const" version="opset1">
			<data element_type="i64" shape="1" offset="65984" size="8" />
			<rt_info>
				<attribute name="fused_names" version="0" value="/model/decoder/layers.0/self_attn/Constant_14" />
			</rt_info>
			<output>
				<port id="0" precision="I64" names="/model/decoder/layers.0/self_attn/Constant_14_output_0">
					<dim>1</dim>
				</port>
			</output>
		</layer>
		<layer id="133" name="/model/decoder/layers.0/self_attn/Constant_15" type="Const" version="opset1">
			<data element_type="i64" shape="1" offset="73648" size="8" />
			<rt_info>
				<attribute name="fused_names" version="0" value="/model/decoder/layers.0/self_attn/Constant_15" />
			</rt_info>
			<output>
				<port id="0" precision="I64" names="/model/decoder/layers.0/self_attn/Constant_15_output_0">
					<dim>1</dim>
				</port>
			</output>
		</layer>
		<layer id="134" name="/model/decoder/layers.0/self_attn/Concat_6" type="Concat" version="opset1">
			<data axis="0" />
			<rt_info>
				<attribute name="fused_names" version="0" value="/model/decoder/layers.0/self_attn/Concat_6, /model/decoder/layers.0/self_attn/Constant_14, /model/decoder/layers.0/self_attn/Constant_15" />
			</rt_info>
			<input>
				<port id="0" precision="I64">
					<dim>1</dim>
				</port>
				<port id="1" precision="I64">
					<dim>1</dim>
				</port>
				<port id="2" precision="I64">
					<dim>1</dim>
				</port>
			</input>
			<output>
				<port id="3" precision="I64" names="/model/decoder/layers.0/self_attn/Concat_6_output_0">
					<dim>3</dim>
				</port>
			</output>
		</layer>
		<layer id="135" name="/model/decoder/layers.0/self_attn/Reshape_4" type="Reshape" version="opset1">
			<data special_zero="true" />
			<rt_info>
				<attribute name="fused_names" version="0" value="/model/decoder/layers.0/self_attn/Reshape_4" />
			</rt_info>
			<input>
				<port id="0" precision="FP32">
					<dim>-1</dim>
					<dim>4</dim>
					<dim>-1</dim>
					<dim>4</dim>
				</port>
				<port id="1" precision="I64">
					<dim>3</dim>
				</port>
			</input>
			<output>
				<port id="2" precision="FP32" names="/model/decoder/layers.0/self_attn/Reshape_4_output_0">
					<dim>-1</dim>
					<dim>-1</dim>
					<dim>4</dim>
				</port>
			</output>
		</layer>
		<layer id="136" name="/model/decoder/layers.0/self_attn/MatMul" type="MatMul" version="opset1">
			<data transpose_a="false" transpose_b="true" />
			<rt_info>
				<attribute name="fused_names" version="0" value="/model/decoder/layers.0/self_attn/MatMul, /model/decoder/layers.0/self_attn/Transpose_3" />
			</rt_info>
			<input>
				<port id="0" precision="FP32">
					<dim>-1</dim>
					<dim>-1</dim>
					<dim>4</dim>
				</port>
				<port id="1" precision="FP32">
					<dim>-1</dim>
					<dim>-1</dim>
					<dim>4</dim>
				</port>
			</input>
			<output>
				<port id="2" precision="FP32" names="/model/decoder/layers.0/self_attn/MatMul_output_0">
					<dim>-1</dim>
					<dim>-1</dim>
					<dim>-1</dim>
				</port>
			</output>
		</layer>
		<layer id="137" name="/model/decoder/layers.0/self_attn/Softmax" type="SoftMax" version="opset8">
			<data axis="2" />
			<rt_info>
				<attribute name="fused_names" version="0" value="/model/decoder/layers.0/self_attn/Softmax" />
			</rt_info>
			<input>
				<port id="0" precision="FP32">
					<dim>-1</dim>
					<dim>-1</dim>
					<dim>-1</dim>
				</port>
			</input>
			<output>
				<port id="1" precision="FP32" names="/model/decoder/layers.0/self_attn/Softmax_output_0">
					<dim>-1</dim>
					<dim>-1</dim>
					<dim>-1</dim>
				</port>
			</output>
		</layer>
		<layer id="138" name="onnx::MatMul_604" type="Const" version="opset1">
			<data element_type="f32" shape="16, 16" offset="74712" size="1024" />
			<rt_info>
				<attribute name="fused_names" version="0" value="onnx::MatMul_604" />
			</rt_info>
			<output>
				<port id="0" precision="FP32" names="onnx::MatMul_604">
					<dim>16</dim>
					<dim>16</dim>
				</port>
			</output>
		</layer>
		<layer id="139" name="/model/decoder/layers.0/self_attn/v_proj/MatMul" type="MatMul" version="opset1">
			<data transpose_a="false" transpose_b="false" />
			<rt_info>
				<attribute name="fused_names" version="0" value="/model/decoder/layers.0/self_attn/v_proj/MatMul" />
			</rt_info>
			<input>
				<port id="0" precision="FP32">
					<dim>-1</dim>
					<dim>-1</dim>
					<dim>16</dim>
				</port>
				<port id="1" precision="FP32">
					<dim>16</dim>
					<dim>16</dim>
				</port>
			</input>
			<output>
				<port id="2" precision="FP32" names="/model/decoder/layers.0/self_attn/v_proj/MatMul_output_0">
					<dim>-1</dim>
					<dim>-1</dim>
					<dim>16</dim>
				</port>
			</output>
		</layer>
		<layer id="140" name="/model/decoder/layers.0/self_attn/v_proj/Add" type="Add" version="opset1">
			<data auto_broadcast="numpy" />
			<rt_info>
				<attribute name="fused_names" version="0" value="/model/decoder/layers.0/self_attn/v_proj/Add" />
			</rt_info>
			<input>
				<port id="0" precision="FP32">
					<dim>16</dim>
				</port>
				<port id="1" precision="FP32">
					<dim>-1</dim>
					<dim>-1</dim>
					<dim>16</dim>
				</port>
			</input>
			<output>
				<port id="2" precision="FP32" names="/model/decoder/layers.0/self_attn/v_proj/Add_output_0">
					<dim>-1</dim>
					<dim>-1</dim>
					<dim>16</dim>
				</port>
			</output>
		</layer>
		<layer id="141" name="Constant_4484786" type="Const" version="opset1">
			<data element_type="i64" shape="1" offset="66000" size="8" />
			<rt_info>
				<attribute name="fused_names" version="0" value="Constant_4484786" />
			</rt_info>
			<output>
				<port id="0" precision="I64">
					<dim>1</dim>
				</port>
			</output>
		</layer>
		<layer id="142" name="/model/decoder/layers.0/self_attn/Unsqueeze_1" type="Unsqueeze" version="opset1">
			<rt_info>
				<attribute name="fused_names" version="0" value="/model/decoder/layers.0/self_attn/Unsqueeze_1, Constant_4484786" />
			</rt_info>
			<input>
				<port id="0" precision="I64" />
				<port id="1" precision="I64">
					<dim>1</dim>
				</port>
			</input>
			<output>
				<port id="2" precision="I64" names="/model/decoder/layers.0/self_attn/Unsqueeze_1_output_0">
					<dim>1</dim>
				</port>
			</output>
		</layer>
		<layer id="143" name="/model/decoder/layers.0/self_attn/Constant_6" type="Const" version="opset1">
			<data element_type="i64" shape="1" offset="65984" size="8" />
			<rt_info>
				<attribute name="fused_names" version="0" value="/model/decoder/layers.0/self_attn/Constant_6" />
			</rt_info>
			<output>
				<port id="0" precision="I64" names="/model/decoder/layers.0/self_attn/Constant_6_output_0">
					<dim>1</dim>
				</port>
			</output>
		</layer>
		<layer id="144" name="/model/decoder/layers.0/self_attn/Constant_7" type="Const" version="opset1">
			<data element_type="i64" shape="1" offset="73648" size="8" />
			<rt_info>
				<attribute name="fused_names" version="0" value="/model/decoder/layers.0/self_attn/Constant_7" />
			</rt_info>
			<output>
				<port id="0" precision="I64" names="/model/decoder/layers.0/self_attn/Constant_7_output_0">
					<dim>1</dim>
				</port>
			</output>
		</layer>
		<layer id="145" name="/model/decoder/layers.0/self_attn/Constant_8" type="Const" version="opset1">
			<data element_type="i64" shape="1" offset="73648" size="8" />
			<rt_info>
				<attribute name="fused_names" version="0" value="/model/decoder/layers.0/self_attn/Constant_8" />
			</rt_info>
			<output>
				<port id="0" precision="I64" names="/model/decoder/layers.0/self_attn/Constant_8_output_0">
					<dim>1</dim>
				</port>
			</output>
		</layer>
		<layer id="146" name="/model/decoder/layers.0/self_attn/Concat_1" type="Concat" version="opset1">
			<data axis="0" />
			<rt_info>
				<attribute name="fused_names" version="0" value="/model/decoder/layers.0/self_attn/Concat_1, /model/decoder/layers.0/self_attn/Constant_6, /model/decoder/layers.0/self_attn/Constant_7, /model/decoder/layers.0/self_attn/Constant_8" />
			</rt_info>
			<input>
				<port id="0" precision="I64">
					<dim>1</dim>
				</port>
				<port id="1" precision="I64">
					<dim>1</dim>
				</port>
				<port id="2" precision="I64">
					<dim>1</dim>
				</port>
				<port id="3" precision="I64">
					<dim>1</dim>
				</port>
			</input>
			<output>
				<port id="4" precision="I64" names="/model/decoder/layers.0/self_attn/Concat_1_output_0">
					<dim>4</dim>
				</port>
			</output>
		</layer>
		<layer id="147" name="/model/decoder/layers.0/self_attn/Reshape_1" type="Reshape" version="opset1">
			<data special_zero="true" />
			<rt_info>
				<attribute name="fused_names" version="0" value="/model/decoder/layers.0/self_attn/Reshape_1" />
			</rt_info>
			<input>
				<port id="0" precision="FP32">
					<dim>-1</dim>
					<dim>-1</dim>
					<dim>16</dim>
				</port>
				<port id="1" precision="I64">
					<dim>4</dim>
				</port>
			</input>
			<output>
				<port id="2" precision="FP32" names="/model/decoder/layers.0/self_attn/Reshape_1_output_0">
					<dim>-1</dim>
					<dim>-1</dim>
					<dim>4</dim>
					<dim>4</dim>
				</port>
			</output>
		</layer>
		<layer id="148" name="Constant_4484810" type="Const" version="opset1">
			<data element_type="i64" shape="4" offset="73656" size="32" />
			<rt_info>
				<attribute name="fused_names" version="0" value="Constant_4484810" />
			</rt_info>
			<output>
				<port id="0" precision="I64">
					<dim>4</dim>
				</port>
			</output>
		</layer>
		<layer id="149" name="/model/decoder/layers.0/self_attn/Transpose_1" type="Transpose" version="opset1">
			<rt_info>
				<attribute name="fused_names" version="0" value="/model/decoder/layers.0/self_attn/Transpose_1" />
			</rt_info>
			<input>
				<port id="0" precision="FP32">
					<dim>-1</dim>
					<dim>-1</dim>
					<dim>4</dim>
					<dim>4</dim>
				</port>
				<port id="1" precision="I64">
					<dim>4</dim>
				</port>
			</input>
			<output>
				<port id="2" precision="FP32" names="/model/decoder/layers.0/self_attn/Transpose_1_output_0">
					<dim>-1</dim>
					<dim>4</dim>
					<dim>-1</dim>
					<dim>4</dim>
				</port>
			</output>
		</layer>
		<layer id="150" name="present.0.decoder.value" type="Concat" version="opset1">
			<data axis="2" />
			<rt_info>
				<attribute name="fused_names" version="0" value="present.0.decoder.value" />
			</rt_info>
			<input>
				<port id="0" precision="FP32">
					<dim>-1</dim>
					<dim>4</dim>
					<dim>-1</dim>
					<dim>4</dim>
				</port>
				<port id="1" precision="FP32">
					<dim>-1</dim>
					<dim>4</dim>
					<dim>-1</dim>
					<dim>4</dim>
				</port>
			</input>
			<output>
				<port id="2" precision="FP32" names="present.0.decoder.value">
					<dim>-1</dim>
					<dim>4</dim>
					<dim>-1</dim>
					<dim>4</dim>
				</port>
			</output>
		</layer>
		<layer id="151" name="Constant_4484846" type="Const" version="opset1">
			<data element_type="i64" shape="1" offset="66000" size="8" />
			<rt_info>
				<attribute name="fused_names" version="0" value="Constant_4484846" />
			</rt_info>
			<output>
				<port id="0" precision="I64">
					<dim>1</dim>
				</port>
			</output>
		</layer>
		<layer id="152" name="/model/decoder/layers.0/self_attn/Unsqueeze_6" type="Unsqueeze" version="opset1">
			<rt_info>
				<attribute name="fused_names" version="0" value="/model/decoder/layers.0/self_attn/Unsqueeze_6, Constant_4484846" />
			</rt_info>
			<input>
				<port id="0" precision="I64" />
				<port id="1" precision="I64">
					<dim>1</dim>
				</port>
			</input>
			<output>
				<port id="2" precision="I64" names="/model/decoder/layers.0/self_attn/Unsqueeze_6_output_0">
					<dim>1</dim>
				</port>
			</output>
		</layer>
		<layer id="153" name="/model/decoder/layers.0/self_attn/Constant_16" type="Const" version="opset1">
			<data element_type="i64" shape="1" offset="65984" size="8" />
			<rt_info>
				<attribute name="fused_names" version="0" value="/model/decoder/layers.0/self_attn/Constant_16" />
			</rt_info>
			<output>
				<port id="0" precision="I64" names="/model/decoder/layers.0/self_attn/Constant_16_output_0">
					<dim>1</dim>
				</port>
			</output>
		</layer>
		<layer id="154" name="/model/decoder/layers.0/self_attn/Constant_17" type="Const" version="opset1">
			<data element_type="i64" shape="1" offset="73648" size="8" />
			<rt_info>
				<attribute name="fused_names" version="0" value="/model/decoder/layers.0/self_attn/Constant_17" />
			</rt_info>
			<output>
				<port id="0" precision="I64" names="/model/decoder/layers.0/self_attn/Constant_17_output_0">
					<dim>1</dim>
				</port>
			</output>
		</layer>
		<layer id="155" name="/model/decoder/layers.0/self_attn/Concat_7" type="Concat" version="opset1">
			<data axis="0" />
			<rt_info>
				<attribute name="fused_names" version="0" value="/model/decoder/layers.0/self_attn/Concat_7, /model/decoder/layers.0/self_attn/Constant_16, /model/decoder/layers.0/self_attn/Constant_17" />
			</rt_info>
			<input>
				<port id="0" precision="I64">
					<dim>1</dim>
				</port>
				<port id="1" precision="I64">
					<dim>1</dim>
				</port>
				<port id="2" precision="I64">
					<dim>1</dim>
				</port>
			</input>
			<output>
				<port id="3" precision="I64" names="/model/decoder/layers.0/self_attn/Concat_7_output_0">
					<dim>3</dim>
				</port>
			</output>
		</layer>
		<layer id="156" name="/model/decoder/layers.0/self_attn/Reshape_5" type="Reshape" version="opset1">
			<data special_zero="true" />
			<rt_info>
				<attribute name="fused_names" version="0" value="/model/decoder/layers.0/self_attn/Reshape_5" />
			</rt_info>
			<input>
				<port id="0" precision="FP32">
					<dim>-1</dim>
					<dim>4</dim>
					<dim>-1</dim>
					<dim>4</dim>
				</port>
				<port id="1" precision="I64">
					<dim>3</dim>
				</port>
			</input>
			<output>
				<port id="2" precision="FP32" names="/model/decoder/layers.0/self_attn/Reshape_5_output_0">
					<dim>-1</dim>
					<dim>-1</dim>
					<dim>4</dim>
				</port>
			</output>
		</layer>
		<layer id="157" name="/model/decoder/layers.0/self_attn/MatMul_1" type="MatMul" version="opset1">
			<data transpose_a="false" transpose_b="false" />
			<rt_info>
				<attribute name="fused_names" version="0" value="/model/decoder/layers.0/self_attn/MatMul_1" />
			</rt_info>
			<input>
				<port id="0" precision="FP32">
					<dim>-1</dim>
					<dim>-1</dim>
					<dim>-1</dim>
				</port>
				<port id="1" precision="FP32">
					<dim>-1</dim>
					<dim>-1</dim>
					<dim>4</dim>
				</port>
			</input>
			<output>
				<port id="2" precision="FP32" names="/model/decoder/layers.0/self_attn/MatMul_1_output_0">
					<dim>-1</dim>
					<dim>-1</dim>
					<dim>4</dim>
				</port>
			</output>
		</layer>
		<layer id="158" name="Constant_4485045" type="Const" version="opset1">
			<data element_type="i64" shape="1" offset="66000" size="8" />
			<rt_info>
				<attribute name="fused_names" version="0" value="Constant_4485045" />
			</rt_info>
			<output>
				<port id="0" precision="I64">
					<dim>1</dim>
				</port>
			</output>
		</layer>
		<layer id="159" name="/model/decoder/layers.0/self_attn/Unsqueeze_7" type="Unsqueeze" version="opset1">
			<rt_info>
				<attribute name="fused_names" version="0" value="/model/decoder/layers.0/self_attn/Unsqueeze_7, Constant_4485045" />
			</rt_info>
			<input>
				<port id="0" precision="I64" />
				<port id="1" precision="I64">
					<dim>1</dim>
				</port>
			</input>
			<output>
				<port id="2" precision="I64" names="/model/decoder/layers.0/self_attn/Unsqueeze_7_output_0">
					<dim>1</dim>
				</port>
			</output>
		</layer>
		<layer id="160" name="/model/decoder/layers.0/self_attn/Constant_18" type="Const" version="opset1">
			<data element_type="i64" shape="1" offset="73648" size="8" />
			<rt_info>
				<attribute name="fused_names" version="0" value="/model/decoder/layers.0/self_attn/Constant_18" />
			</rt_info>
			<output>
				<port id="0" precision="I64" names="/model/decoder/layers.0/self_attn/Constant_18_output_0">
					<dim>1</dim>
				</port>
			</output>
		</layer>
		<layer id="161" name="Constant_4485048" type="Const" version="opset1">
			<data element_type="i64" shape="1" offset="66000" size="8" />
			<rt_info>
				<attribute name="fused_names" version="0" value="Constant_4485048" />
			</rt_info>
			<output>
				<port id="0" precision="I64">
					<dim>1</dim>
				</port>
			</output>
		</layer>
		<layer id="162" name="/model/decoder/layers.0/self_attn/Unsqueeze_8" type="Unsqueeze" version="opset1">
			<rt_info>
				<attribute name="fused_names" version="0" value="/model/decoder/layers.0/self_attn/Unsqueeze_8, Constant_4485048" />
			</rt_info>
			<input>
				<port id="0" precision="I64" />
				<port id="1" precision="I64">
					<dim>1</dim>
				</port>
			</input>
			<output>
				<port id="2" precision="I64" names="/model/decoder/layers.0/self_attn/Unsqueeze_8_output_0">
					<dim>1</dim>
				</port>
			</output>
		</layer>
		<layer id="163" name="/model/decoder/layers.0/self_attn/Constant_19" type="Const" version="opset1">
			<data element_type="i64" shape="1" offset="73648" size="8" />
			<rt_info>
				<attribute name="fused_names" version="0" value="/model/decoder/layers.0/self_attn/Constant_19" />
			</rt_info>
			<output>
				<port id="0" precision="I64" names="/model/decoder/layers.0/self_attn/Constant_19_output_0">
					<dim>1</dim>
				</port>
			</output>
		</layer>
		<layer id="164" name="/model/decoder/layers.0/self_attn/Concat_8" type="Concat" version="opset1">
			<data axis="0" />
			<rt_info>
				<attribute name="fused_names" version="0" value="/model/decoder/layers.0/self_attn/Concat_8, /model/decoder/layers.0/self_attn/Constant_18, /model/decoder/layers.0/self_attn/Constant_19" />
			</rt_info>
			<input>
				<port id="0" precision="I64">
					<dim>1</dim>
				</port>
				<port id="1" precision="I64">
					<dim>1</dim>
				</port>
				<port id="2" precision="I64">
					<dim>1</dim>
				</port>
				<port id="3" precision="I64">
					<dim>1</dim>
				</port>
			</input>
			<output>
				<port id="4" precision="I64" names="/model/decoder/layers.0/self_attn/Concat_8_output_0">
					<dim>4</dim>
				</port>
			</output>
		</layer>
		<layer id="165" name="/model/decoder/layers.0/self_attn/Reshape_6" type="Reshape" version="opset1">
			<data special_zero="true" />
			<rt_info>
				<attribute name="fused_names" version="0" value="/model/decoder/layers.0/self_attn/Reshape_6" />
			</rt_info>
			<input>
				<port id="0" precision="FP32">
					<dim>-1</dim>
					<dim>-1</dim>
					<dim>4</dim>
				</port>
				<port id="1" precision="I64">
					<dim>4</dim>
				</port>
			</input>
			<output>
				<port id="2" precision="FP32" names="/model/decoder/layers.0/self_attn/Reshape_6_output_0">
					<dim>-1</dim>
					<dim>4</dim>
					<dim>-1</dim>
					<dim>4</dim>
				</port>
			</output>
		</layer>
		<layer id="166" name="Constant_4485063" type="Const" version="opset1">
			<data element_type="i64" shape="4" offset="73656" size="32" />
			<rt_info>
				<attribute name="fused_names" version="0" value="Constant_4485063" />
			</rt_info>
			<output>
				<port id="0" precision="I64">
					<dim>4</dim>
				</port>
			</output>
		</layer>
		<layer id="167" name="/model/decoder/layers.0/self_attn/Transpose_4" type="Transpose" version="opset1">
			<rt_info>
				<attribute name="fused_names" version="0" value="/model/decoder/layers.0/self_attn/Transpose_4" />
			</rt_info>
			<input>
				<port id="0" precision="FP32">
					<dim>-1</dim>
					<dim>4</dim>
					<dim>-1</dim>
					<dim>4</dim>
				</port>
				<port id="1" precision="I64">
					<dim>4</dim>
				</port>
			</input>
			<output>
				<port id="2" precision="FP32" names="/model/decoder/layers.0/self_attn/Transpose_4_output_0">
					<dim>-1</dim>
					<dim>-1</dim>
					<dim>4</dim>
					<dim>4</dim>
				</port>
			</output>
		</layer>
		<layer id="168" name="Constant_4485065" type="Const" version="opset1">
			<data element_type="i64" shape="1" offset="66000" size="8" />
			<rt_info>
				<attribute name="fused_names" version="0" value="Constant_4485065" />
			</rt_info>
			<output>
				<port id="0" precision="I64">
					<dim>1</dim>
				</port>
			</output>
		</layer>
		<layer id="169" name="/model/decoder/layers.0/self_attn/Unsqueeze_9" type="Unsqueeze" version="opset1">
			<rt_info>
				<attribute name="fused_names" version="0" value="/model/decoder/layers.0/self_attn/Unsqueeze_9, Constant_4485065" />
			</rt_info>
			<input>
				<port id="0" precision="I64" />
				<port id="1" precision="I64">
					<dim>1</dim>
				</port>
			</input>
			<output>
				<port id="2" precision="I64" names="/model/decoder/layers.0/self_attn/Unsqueeze_9_output_0">
					<dim>1</dim>
				</port>
			</output>
		</layer>
		<layer id="170" name="Constant_4485067" type="Const" version="opset1">
			<data element_type="i64" shape="1" offset="66000" size="8" />
			<rt_info>
				<attribute name="fused_names" version="0" value="Constant_4485067" />
			</rt_info>
			<output>
				<port id="0" precision="I64">
					<dim>1</dim>
				</port>
			</output>
		</layer>
		<layer id="171" name="/model/decoder/layers.0/self_attn/Unsqueeze_10" type="Unsqueeze" version="opset1">
			<rt_info>
				<attribute name="fused_names" version="0" value="/model/decoder/layers.0/self_attn/Unsqueeze_10, Constant_4485067" />
			</rt_info>
			<input>
				<port id="0" precision="I64" />
				<port id="1" precision="I64">
					<dim>1</dim>
				</port>
			</input>
			<output>
				<port id="2" precision="I64" names="/model/decoder/layers.0/self_attn/Unsqueeze_10_output_0">
					<dim>1</dim>
				</port>
			</output>
		</layer>
		<layer id="172" name="/model/decoder/layers.0/self_attn/Constant_20" type="Const" version="opset1">
			<data element_type="i64" shape="1" offset="75736" size="8" />
			<rt_info>
				<attribute name="fused_names" version="0" value="/model/decoder/layers.0/self_attn/Constant_20" />
			</rt_info>
			<output>
				<port id="0" precision="I64" names="/model/decoder/layers.0/self_attn/Constant_20_output_0">
					<dim>1</dim>
				</port>
			</output>
		</layer>
		<layer id="173" name="/model/decoder/layers.0/self_attn/Concat_9" type="Concat" version="opset1">
			<data axis="0" />
			<rt_info>
				<attribute name="fused_names" version="0" value="/model/decoder/layers.0/self_attn/Concat_9, /model/decoder/layers.0/self_attn/Constant_20" />
			</rt_info>
			<input>
				<port id="0" precision="I64">
					<dim>1</dim>
				</port>
				<port id="1" precision="I64">
					<dim>1</dim>
				</port>
				<port id="2" precision="I64">
					<dim>1</dim>
				</port>
			</input>
			<output>
				<port id="3" precision="I64" names="/model/decoder/layers.0/self_attn/Concat_9_output_0">
					<dim>3</dim>
				</port>
			</output>
		</layer>
		<layer id="174" name="/model/decoder/layers.0/self_attn/Reshape_7" type="Reshape" version="opset1">
			<data special_zero="true" />
			<rt_info>
				<attribute name="fused_names" version="0" value="/model/decoder/layers.0/self_attn/Reshape_7" />
			</rt_info>
			<input>
				<port id="0" precision="FP32">
					<dim>-1</dim>
					<dim>-1</dim>
					<dim>4</dim>
					<dim>4</dim>
				</port>
				<port id="1" precision="I64">
					<dim>3</dim>
				</port>
			</input>
			<output>
				<port id="2" precision="FP32" names="/model/decoder/layers.0/self_attn/Reshape_7_output_0">
					<dim>-1</dim>
					<dim>-1</dim>
					<dim>16</dim>
				</port>
			</output>
		</layer>
		<layer id="175" name="onnx::MatMul_616" type="Const" version="opset1">
			<data element_type="f32" shape="16, 16" offset="75744" size="1024" />
			<rt_info>
				<attribute name="fused_names" version="0" value="onnx::MatMul_616" />
			</rt_info>
			<output>
				<port id="0" precision="FP32" names="onnx::MatMul_616">
					<dim>16</dim>
					<dim>16</dim>
				</port>
			</output>
		</layer>
		<layer id="176" name="/model/decoder/layers.0/self_attn/out_proj/MatMul" type="MatMul" version="opset1">
			<data transpose_a="false" transpose_b="false" />
			<rt_info>
				<attribute name="fused_names" version="0" value="/model/decoder/layers.0/self_attn/out_proj/MatMul" />
			</rt_info>
			<input>
				<port id="0" precision="FP32">
					<dim>-1</dim>
					<dim>-1</dim>
					<dim>16</dim>
				</port>
				<port id="1" precision="FP32">
					<dim>16</dim>
					<dim>16</dim>
				</port>
			</input>
			<output>
				<port id="2" precision="FP32" names="/model/decoder/layers.0/self_attn/out_proj/MatMul_output_0">
					<dim>-1</dim>
					<dim>-1</dim>
					<dim>16</dim>
				</port>
			</output>
		</layer>
		<layer id="177" name="/model/decoder/layers.0/self_attn/out_proj/Add" type="Add" version="opset1">
			<data auto_broadcast="numpy" />
			<rt_info>
				<attribute name="fused_names" version="0" value="/model/decoder/layers.0/self_attn/out_proj/Add" />
			</rt_info>
			<input>
				<port id="0" precision="FP32">
					<dim>16</dim>
				</port>
				<port id="1" precision="FP32">
					<dim>-1</dim>
					<dim>-1</dim>
					<dim>16</dim>
				</port>
			</input>
			<output>
				<port id="2" precision="FP32" names="/model/decoder/layers.0/self_attn/out_proj/Add_output_0">
					<dim>-1</dim>
					<dim>-1</dim>
					<dim>16</dim>
				</port>
			</output>
		</layer>
		<layer id="178" name="/model/decoder/layers.0/Add" type="Add" version="opset1">
			<data auto_broadcast="numpy" />
			<rt_info>
				<attribute name="fused_names" version="0" value="/model/decoder/layers.0/Add" />
			</rt_info>
			<input>
				<port id="0" precision="FP32">
					<dim>-1</dim>
					<dim>-1</dim>
					<dim>16</dim>
				</port>
				<port id="1" precision="FP32">
					<dim>-1</dim>
					<dim>-1</dim>
					<dim>16</dim>
				</port>
			</input>
			<output>
				<port id="2" precision="FP32" names="/model/decoder/layers.0/Add_output_0">
					<dim>-1</dim>
					<dim>-1</dim>
					<dim>16</dim>
				</port>
			</output>
		</layer>
		<layer id="179" name="Constant_4485085" type="Const" version="opset1">
			<data element_type="i64" shape="1" offset="65984" size="8" />
			<rt_info>
				<attribute name="fused_names" version="0" value="Constant_4485085" />
			</rt_info>
			<output>
				<port id="0" precision="I64">
					<dim>1</dim>
				</port>
			</output>
		</layer>
		<layer id="180" name="/model/decoder/layers.0/encoder_attn_layer_norm/ReduceMean" type="ReduceMean" version="opset1">
			<data keep_dims="true" />
			<rt_info>
				<attribute name="fused_names" version="0" value="/model/decoder/layers.0/encoder_attn_layer_norm/ReduceMean" />
			</rt_info>
			<input>
				<port id="0" precision="FP32">
					<dim>-1</dim>
					<dim>-1</dim>
					<dim>16</dim>
				</port>
				<port id="1" precision="I64">
					<dim>1</dim>
				</port>
			</input>
			<output>
				<port id="2" precision="FP32" names="/model/decoder/layers.0/encoder_attn_layer_norm/ReduceMean_output_0">
					<dim>-1</dim>
					<dim>-1</dim>
					<dim>1</dim>
				</port>
			</output>
		</layer>
		<layer id="181" name="/model/decoder/layers.0/encoder_attn_layer_norm/Sub" type="Subtract" version="opset1">
			<data auto_broadcast="numpy" />
			<rt_info>
				<attribute name="fused_names" version="0" value="/model/decoder/layers.0/encoder_attn_layer_norm/Sub" />
			</rt_info>
			<input>
				<port id="0" precision="FP32">
					<dim>-1</dim>
					<dim>-1</dim>
					<dim>16</dim>
				</port>
				<port id="1" precision="FP32">
					<dim>-1</dim>
					<dim>-1</dim>
					<dim>1</dim>
				</port>
			</input>
			<output>
				<port id="2" precision="FP32" names="/model/decoder/layers.0/encoder_attn_layer_norm/Sub_output_0">
					<dim>-1</dim>
					<dim>-1</dim>
					<dim>16</dim>
				</port>
			</output>
		</layer>
		<layer id="182" name="/model/decoder/layers.0/encoder_attn_layer_norm/Constant" type="Const" version="opset1">
			<data element_type="f32" shape="" offset="72548" size="4" />
			<rt_info>
				<attribute name="fused_names" version="0" value="/model/decoder/layers.0/encoder_attn_layer_norm/Constant" />
			</rt_info>
			<output>
				<port id="0" precision="FP32" names="/model/decoder/layers.0/encoder_attn_layer_norm/Constant_output_0" />
			</output>
		</layer>
		<layer id="183" name="/model/decoder/layers.0/encoder_attn_layer_norm/Pow" type="Power" version="opset1">
			<data auto_broadcast="numpy" />
			<rt_info>
				<attribute name="fused_names" version="0" value="/model/decoder/layers.0/encoder_attn_layer_norm/Pow" />
			</rt_info>
			<input>
				<port id="0" precision="FP32">
					<dim>-1</dim>
					<dim>-1</dim>
					<dim>16</dim>
				</port>
				<port id="1" precision="FP32" />
			</input>
			<output>
				<port id="2" precision="FP32" names="/model/decoder/layers.0/encoder_attn_layer_norm/Pow_output_0">
					<dim>-1</dim>
					<dim>-1</dim>
					<dim>16</dim>
				</port>
			</output>
		</layer>
		<layer id="184" name="Constant_4485090" type="Const" version="opset1">
			<data element_type="i64" shape="1" offset="65984" size="8" />
			<rt_info>
				<attribute name="fused_names" version="0" value="Constant_4485090" />
			</rt_info>
			<output>
				<port id="0" precision="I64">
					<dim>1</dim>
				</port>
			</output>
		</layer>
		<layer id="185" name="/model/decoder/layers.0/encoder_attn_layer_norm/ReduceMean_1" type="ReduceMean" version="opset1">
			<data keep_dims="true" />
			<rt_info>
				<attribute name="fused_names" version="0" value="/model/decoder/layers.0/encoder_attn_layer_norm/ReduceMean_1" />
			</rt_info>
			<input>
				<port id="0" precision="FP32">
					<dim>-1</dim>
					<dim>-1</dim>
					<dim>16</dim>
				</port>
				<port id="1" precision="I64">
					<dim>1</dim>
				</port>
			</input>
			<output>
				<port id="2" precision="FP32" names="/model/decoder/layers.0/encoder_attn_layer_norm/ReduceMean_1_output_0">
					<dim>-1</dim>
					<dim>-1</dim>
					<dim>1</dim>
				</port>
			</output>
		</layer>
		<layer id="186" name="/model/decoder/layers.0/encoder_attn_layer_norm/Constant_1" type="Const" version="opset1">
			<data element_type="f32" shape="" offset="72552" size="4" />
			<rt_info>
				<attribute name="fused_names" version="0" value="/model/decoder/layers.0/encoder_attn_layer_norm/Constant_1" />
			</rt_info>
			<output>
				<port id="0" precision="FP32" names="/model/decoder/layers.0/encoder_attn_layer_norm/Constant_1_output_0" />
			</output>
		</layer>
		<layer id="187" name="/model/decoder/layers.0/encoder_attn_layer_norm/Add" type="Add" version="opset1">
			<data auto_broadcast="numpy" />
			<rt_info>
				<attribute name="fused_names" version="0" value="/model/decoder/layers.0/encoder_attn_layer_norm/Add" />
			</rt_info>
			<input>
				<port id="0" precision="FP32">
					<dim>-1</dim>
					<dim>-1</dim>
					<dim>1</dim>
				</port>
				<port id="1" precision="FP32" />
			</input>
			<output>
				<port id="2" precision="FP32" names="/model/decoder/layers.0/encoder_attn_layer_norm/Add_output_0">
					<dim>-1</dim>
					<dim>-1</dim>
					<dim>1</dim>
				</port>
			</output>
		</layer>
		<layer id="188" name="/model/decoder/layers.0/encoder_attn_layer_norm/Sqrt" type="Sqrt" version="opset1">
			<rt_info>
				<attribute name="fused_names" version="0" value="/model/decoder/layers.0/encoder_attn_layer_norm/Sqrt" />
			</rt_info>
			<input>
				<port id="0" precision="FP32">
					<dim>-1</dim>
					<dim>-1</dim>
					<dim>1</dim>
				</port>
			</input>
			<output>
				<port id="1" precision="FP32" names="/model/decoder/layers.0/encoder_attn_layer_norm/Sqrt_output_0">
					<dim>-1</dim>
					<dim>-1</dim>
					<dim>1</dim>
				</port>
			</output>
		</layer>
		<layer id="189" name="/model/decoder/layers.0/encoder_attn_layer_norm/Div" type="Divide" version="opset1">
			<data auto_broadcast="numpy" m_pythondiv="true" />
			<rt_info>
				<attribute name="fused_names" version="0" value="/model/decoder/layers.0/encoder_attn_layer_norm/Div" />
			</rt_info>
			<input>
				<port id="0" precision="FP32">
					<dim>-1</dim>
					<dim>-1</dim>
					<dim>16</dim>
				</port>
				<port id="1" precision="FP32">
					<dim>-1</dim>
					<dim>-1</dim>
					<dim>1</dim>
				</port>
			</input>
			<output>
				<port id="2" precision="FP32" names="/model/decoder/layers.0/encoder_attn_layer_norm/Div_output_0">
					<dim>-1</dim>
					<dim>-1</dim>
					<dim>16</dim>
				</port>
			</output>
		</layer>
		<layer id="190" name="/model/decoder/layers.0/encoder_attn_layer_norm/Mul" type="Multiply" version="opset1">
			<data auto_broadcast="numpy" />
			<rt_info>
				<attribute name="fused_names" version="0" value="/model/decoder/layers.0/encoder_attn_layer_norm/Mul" />
			</rt_info>
			<input>
				<port id="0" precision="FP32">
					<dim>-1</dim>
					<dim>-1</dim>
					<dim>16</dim>
				</port>
				<port id="1" precision="FP32">
					<dim>16</dim>
				</port>
			</input>
			<output>
				<port id="2" precision="FP32" names="/model/decoder/layers.0/encoder_attn_layer_norm/Mul_output_0">
					<dim>-1</dim>
					<dim>-1</dim>
					<dim>16</dim>
				</port>
			</output>
		</layer>
		<layer id="191" name="/model/decoder/layers.0/encoder_attn_layer_norm/Add_1" type="Add" version="opset1">
			<data auto_broadcast="numpy" />
			<rt_info>
				<attribute name="fused_names" version="0" value="/model/decoder/layers.0/encoder_attn_layer_norm/Add_1" />
			</rt_info>
			<input>
				<port id="0" precision="FP32">
					<dim>-1</dim>
					<dim>-1</dim>
					<dim>16</dim>
				</port>
				<port id="1" precision="FP32">
					<dim>16</dim>
				</port>
			</input>
			<output>
				<port id="2" precision="FP32" names="/model/decoder/layers.0/encoder_attn_layer_norm/Add_1_output_0">
					<dim>-1</dim>
					<dim>-1</dim>
					<dim>16</dim>
				</port>
			</output>
		</layer>
		<layer id="192" name="onnx::MatMul_617" type="Const" version="opset1">
			<data element_type="f32" shape="16, 16" offset="76768" size="1024" />
			<rt_info>
				<attribute name="fused_names" version="0" value="onnx::MatMul_617" />
			</rt_info>
			<output>
				<port id="0" precision="FP32" names="onnx::MatMul_617">
					<dim>16</dim>
					<dim>16</dim>
				</port>
			</output>
		</layer>
		<layer id="193" name="/model/decoder/layers.0/encoder_attn/q_proj/MatMul" type="MatMul" version="opset1">
			<data transpose_a="false" transpose_b="false" />
			<rt_info>
				<attribute name="fused_names" version="0" value="/model/decoder/layers.0/encoder_attn/q_proj/MatMul" />
			</rt_info>
			<input>
				<port id="0" precision="FP32">
					<dim>-1</dim>
					<dim>-1</dim>
					<dim>16</dim>
				</port>
				<port id="1" precision="FP32">
					<dim>16</dim>
					<dim>16</dim>
				</port>
			</input>
			<output>
				<port id="2" precision="FP32" names="/model/decoder/layers.0/encoder_attn/q_proj/MatMul_output_0">
					<dim>-1</dim>
					<dim>-1</dim>
					<dim>16</dim>
				</port>
			</output>
		</layer>
		<layer id="194" name="/model/decoder/layers.0/encoder_attn/q_proj/Add" type="Add" version="opset1">
			<data auto_broadcast="numpy" />
			<rt_info>
				<attribute name="fused_names" version="0" value="/model/decoder/layers.0/encoder_attn/q_proj/Add" />
			</rt_info>
			<input>
				<port id="0" precision="FP32">
					<dim>16</dim>
				</port>
				<port id="1" precision="FP32">
					<dim>-1</dim>
					<dim>-1</dim>
					<dim>16</dim>
				</port>
			</input>
			<output>
				<port id="2" precision="FP32" names="/model/decoder/layers.0/encoder_attn/q_proj/Add_output_0">
					<dim>-1</dim>
					<dim>-1</dim>
					<dim>16</dim>
				</port>
			</output>
		</layer>
		<layer id="195" name="/model/decoder/layers.0/encoder_attn/Constant_2" type="Const" version="opset1">
			<data element_type="f32" shape="" offset="73644" size="4" />
			<rt_info>
				<attribute name="fused_names" version="0" value="/model/decoder/layers.0/encoder_attn/Constant_2" />
			</rt_info>
			<output>
				<port id="0" precision="FP32" names="/model/decoder/layers.0/encoder_attn/Constant_2_output_0" />
			</output>
		</layer>
		<layer id="196" name="/model/decoder/layers.0/encoder_attn/Mul" type="Multiply" version="opset1">
			<data auto_broadcast="numpy" />
			<rt_info>
				<attribute name="fused_names" version="0" value="/model/decoder/layers.0/encoder_attn/Mul" />
			</rt_info>
			<input>
				<port id="0" precision="FP32">
					<dim>-1</dim>
					<dim>-1</dim>
					<dim>16</dim>
				</port>
				<port id="1" precision="FP32" />
			</input>
			<output>
				<port id="2" precision="FP32" names="/model/decoder/layers.0/encoder_attn/Mul_output_0">
					<dim>-1</dim>
					<dim>-1</dim>
					<dim>16</dim>
				</port>
			</output>
		</layer>
		<layer id="197" name="/model/decoder/layers.0/encoder_attn/Shape" type="ShapeOf" version="opset3">
			<data output_type="i64" />
			<rt_info>
				<attribute name="fused_names" version="0" value="/model/decoder/layers.0/encoder_attn/Shape" />
			</rt_info>
			<input>
				<port id="0" precision="FP32">
					<dim>-1</dim>
					<dim>-1</dim>
					<dim>16</dim>
				</port>
			</input>
			<output>
				<port id="1" precision="I64" names="/model/decoder/layers.0/encoder_attn/Shape_output_0">
					<dim>3</dim>
				</port>
			</output>
		</layer>
		<layer id="198" name="/model/decoder/layers.0/encoder_attn/Constant" type="Const" version="opset1">
			<data element_type="i64" shape="" offset="66000" size="8" />
			<rt_info>
				<attribute name="fused_names" version="0" value="/model/decoder/layers.0/encoder_attn/Constant" />
			</rt_info>
			<output>
				<port id="0" precision="I64" names="/model/decoder/layers.0/encoder_attn/Constant_output_0" />
			</output>
		</layer>
		<layer id="199" name="Constant_4485100" type="Const" version="opset1">
			<data element_type="i64" shape="" offset="66000" size="8" />
			<rt_info>
				<attribute name="fused_names" version="0" value="Constant_4485100" />
			</rt_info>
			<output>
				<port id="0" precision="I64" />
			</output>
		</layer>
		<layer id="200" name="/model/decoder/layers.0/encoder_attn/Gather" type="Gather" version="opset8">
			<data batch_dims="0" />
			<rt_info>
				<attribute name="fused_names" version="0" value="/model/decoder/layers.0/encoder_attn/Constant, /model/decoder/layers.0/encoder_attn/Gather, Constant_4485100" />
			</rt_info>
			<input>
				<port id="0" precision="I64">
					<dim>3</dim>
				</port>
				<port id="1" precision="I64" />
				<port id="2" precision="I64" />
			</input>
			<output>
				<port id="3" precision="I64" names="/model/decoder/layers.0/encoder_attn/Gather_output_0" />
			</output>
		</layer>
		<layer id="201" name="Constant_4485112" type="Const" version="opset1">
			<data element_type="i64" shape="1" offset="66000" size="8" />
			<rt_info>
				<attribute name="fused_names" version="0" value="Constant_4485112" />
			</rt_info>
			<output>
				<port id="0" precision="I64">
					<dim>1</dim>
				</port>
			</output>
		</layer>
		<layer id="202" name="/model/decoder/layers.0/encoder_attn/Unsqueeze" type="Unsqueeze" version="opset1">
			<rt_info>
				<attribute name="fused_names" version="0" value="/model/decoder/layers.0/encoder_attn/Unsqueeze, Constant_4485112" />
			</rt_info>
			<input>
				<port id="0" precision="I64" />
				<port id="1" precision="I64">
					<dim>1</dim>
				</port>
			</input>
			<output>
				<port id="2" precision="I64" names="/model/decoder/layers.0/encoder_attn/Unsqueeze_output_0">
					<dim>1</dim>
				</port>
			</output>
		</layer>
		<layer id="203" name="/model/decoder/layers.0/encoder_attn/Shape_1" type="ShapeOf" version="opset3">
			<data output_type="i64" />
			<rt_info>
				<attribute name="fused_names" version="0" value="/model/decoder/layers.0/encoder_attn/Shape_1" />
			</rt_info>
			<input>
				<port id="0" precision="FP32">
					<dim>-1</dim>
					<dim>-1</dim>
					<dim>16</dim>
				</port>
			</input>
			<output>
				<port id="1" precision="I64" names="/model/decoder/layers.0/encoder_attn/Shape_1_output_0">
					<dim>3</dim>
				</port>
			</output>
		</layer>
		<layer id="204" name="/model/decoder/layers.0/encoder_attn/Constant_1" type="Const" version="opset1">
			<data element_type="i64" shape="" offset="65992" size="8" />
			<rt_info>
				<attribute name="fused_names" version="0" value="/model/decoder/layers.0/encoder_attn/Constant_1" />
			</rt_info>
			<output>
				<port id="0" precision="I64" names="/model/decoder/layers.0/encoder_attn/Constant_1_output_0" />
			</output>
		</layer>
		<layer id="205" name="Constant_4485104" type="Const" version="opset1">
			<data element_type="i64" shape="" offset="66000" size="8" />
			<rt_info>
				<attribute name="fused_names" version="0" value="Constant_4485104" />
			</rt_info>
			<output>
				<port id="0" precision="I64" />
			</output>
		</layer>
		<layer id="206" name="/model/decoder/layers.0/encoder_attn/Gather_1" type="Gather" version="opset8">
			<data batch_dims="0" />
			<rt_info>
				<attribute name="fused_names" version="0" value="/model/decoder/layers.0/encoder_attn/Constant_1, /model/decoder/layers.0/encoder_attn/Gather_1, Constant_4485104" />
			</rt_info>
			<input>
				<port id="0" precision="I64">
					<dim>3</dim>
				</port>
				<port id="1" precision="I64" />
				<port id="2" precision="I64" />
			</input>
			<output>
				<port id="3" precision="I64" names="/model/decoder/layers.0/encoder_attn/Gather_1_output_0" />
			</output>
		</layer>
		<layer id="207" name="Constant_4485114" type="Const" version="opset1">
			<data element_type="i64" shape="1" offset="66000" size="8" />
			<rt_info>
				<attribute name="fused_names" version="0" value="Constant_4485114" />
			</rt_info>
			<output>
				<port id="0" precision="I64">
					<dim>1</dim>
				</port>
			</output>
		</layer>
		<layer id="208" name="/model/decoder/layers.0/encoder_attn/Unsqueeze_1" type="Unsqueeze" version="opset1">
			<rt_info>
				<attribute name="fused_names" version="0" value="/model/decoder/layers.0/encoder_attn/Unsqueeze_1, Constant_4485114" />
			</rt_info>
			<input>
				<port id="0" precision="I64" />
				<port id="1" precision="I64">
					<dim>1</dim>
				</port>
			</input>
			<output>
				<port id="2" precision="I64" names="/model/decoder/layers.0/encoder_attn/Unsqueeze_1_output_0">
					<dim>1</dim>
				</port>
			</output>
		</layer>
		<layer id="209" name="/model/decoder/layers.0/encoder_attn/Constant_4" type="Const" version="opset1">
			<data element_type="i64" shape="1" offset="73648" size="8" />
			<rt_info>
				<attribute name="fused_names" version="0" value="/model/decoder/layers.0/encoder_attn/Constant_4" />
			</rt_info>
			<output>
				<port id="0" precision="I64" names="/model/decoder/layers.0/encoder_attn/Constant_4_output_0">
					<dim>1</dim>
				</port>
			</output>
		</layer>
		<layer id="210" name="/model/decoder/layers.0/encoder_attn/Constant_5" type="Const" version="opset1">
			<data element_type="i64" shape="1" offset="73648" size="8" />
			<rt_info>
				<attribute name="fused_names" version="0" value="/model/decoder/layers.0/encoder_attn/Constant_5" />
			</rt_info>
			<output>
				<port id="0" precision="I64" names="/model/decoder/layers.0/encoder_attn/Constant_5_output_0">
					<dim>1</dim>
				</port>
			</output>
		</layer>
		<layer id="211" name="/model/decoder/layers.0/encoder_attn/Concat" type="Concat" version="opset1">
			<data axis="0" />
			<rt_info>
				<attribute name="fused_names" version="0" value="/model/decoder/layers.0/encoder_attn/Concat, /model/decoder/layers.0/encoder_attn/Constant_4, /model/decoder/layers.0/encoder_attn/Constant_5" />
			</rt_info>
			<input>
				<port id="0" precision="I64">
					<dim>1</dim>
				</port>
				<port id="1" precision="I64">
					<dim>1</dim>
				</port>
				<port id="2" precision="I64">
					<dim>1</dim>
				</port>
				<port id="3" precision="I64">
					<dim>1</dim>
				</port>
			</input>
			<output>
				<port id="4" precision="I64" names="/model/decoder/layers.0/encoder_attn/Concat_output_0">
					<dim>4</dim>
				</port>
			</output>
		</layer>
		<layer id="212" name="/model/decoder/layers.0/encoder_attn/Reshape" type="Reshape" version="opset1">
			<data special_zero="true" />
			<rt_info>
				<attribute name="fused_names" version="0" value="/model/decoder/layers.0/encoder_attn/Reshape" />
			</rt_info>
			<input>
				<port id="0" precision="FP32">
					<dim>-1</dim>
					<dim>-1</dim>
					<dim>16</dim>
				</port>
				<port id="1" precision="I64">
					<dim>4</dim>
				</port>
			</input>
			<output>
				<port id="2" precision="FP32" names="/model/decoder/layers.0/encoder_attn/Reshape_output_0">
					<dim>-1</dim>
					<dim>-1</dim>
					<dim>4</dim>
					<dim>4</dim>
				</port>
			</output>
		</layer>
		<layer id="213" name="Constant_4485130" type="Const" version="opset1">
			<data element_type="i64" shape="4" offset="73656" size="32" />
			<rt_info>
				<attribute name="fused_names" version="0" value="Constant_4485130" />
			</rt_info>
			<output>
				<port id="0" precision="I64">
					<dim>4</dim>
				</port>
			</output>
		</layer>
		<layer id="214" name="/model/decoder/layers.0/encoder_attn/Transpose" type="Transpose" version="opset1">
			<rt_info>
				<attribute name="fused_names" version="0" value="/model/decoder/layers.0/encoder_attn/Transpose" />
			</rt_info>
			<input>
				<port id="0" precision="FP32">
					<dim>-1</dim>
					<dim>-1</dim>
					<dim>4</dim>
					<dim>4</dim>
				</port>
				<port id="1" precision="I64">
					<dim>4</dim>
				</port>
			</input>
			<output>
				<port id="2" precision="FP32" names="/model/decoder/layers.0/encoder_attn/Transpose_output_0">
					<dim>-1</dim>
					<dim>4</dim>
					<dim>-1</dim>
					<dim>4</dim>
				</port>
			</output>
		</layer>
		<layer id="215" name="/model/decoder/layers.0/encoder_attn/Constant_3" type="Const" version="opset1">
			<data element_type="i64" shape="" offset="73648" size="8" />
			<rt_info>
				<attribute name="fused_names" version="0" value="/model/decoder/layers.0/encoder_attn/Constant_3" />
			</rt_info>
			<output>
				<port id="0" precision="I64" names="/model/decoder/layers.0/encoder_attn/Constant_3_output_0" />
			</output>
		</layer>
		<layer id="216" name="/model/decoder/layers.0/encoder_attn/Mul_1" type="Multiply" version="opset1">
			<data auto_broadcast="numpy" />
			<rt_info>
				<attribute name="fused_names" version="0" value="/model/decoder/layers.0/encoder_attn/Constant_3, /model/decoder/layers.0/encoder_attn/Mul_1" />
			</rt_info>
			<input>
				<port id="0" precision="I64" />
				<port id="1" precision="I64" />
			</input>
			<output>
				<port id="2" precision="I64" names="/model/decoder/layers.0/encoder_attn/Mul_1_output_0" />
			</output>
		</layer>
		<layer id="217" name="Constant_4485132" type="Const" version="opset1">
			<data element_type="i64" shape="1" offset="66000" size="8" />
			<rt_info>
				<attribute name="fused_names" version="0" value="Constant_4485132" />
			</rt_info>
			<output>
				<port id="0" precision="I64">
					<dim>1</dim>
				</port>
			</output>
		</layer>
		<layer id="218" name="/model/decoder/layers.0/encoder_attn/Unsqueeze_2" type="Unsqueeze" version="opset1">
			<rt_info>
				<attribute name="fused_names" version="0" value="/model/decoder/layers.0/encoder_attn/Unsqueeze_2, Constant_4485132" />
			</rt_info>
			<input>
				<port id="0" precision="I64" />
				<port id="1" precision="I64">
					<dim>1</dim>
				</port>
			</input>
			<output>
				<port id="2" precision="I64" names="/model/decoder/layers.0/encoder_attn/Unsqueeze_2_output_0">
					<dim>1</dim>
				</port>
			</output>
		</layer>
		<layer id="219" name="/model/decoder/layers.0/encoder_attn/Constant_6" type="Const" version="opset1">
			<data element_type="i64" shape="1" offset="65984" size="8" />
			<rt_info>
				<attribute name="fused_names" version="0" value="/model/decoder/layers.0/encoder_attn/Constant_6" />
			</rt_info>
			<output>
				<port id="0" precision="I64" names="/model/decoder/layers.0/encoder_attn/Constant_6_output_0">
					<dim>1</dim>
				</port>
			</output>
		</layer>
		<layer id="220" name="/model/decoder/layers.0/encoder_attn/Constant_7" type="Const" version="opset1">
			<data element_type="i64" shape="1" offset="73648" size="8" />
			<rt_info>
				<attribute name="fused_names" version="0" value="/model/decoder/layers.0/encoder_attn/Constant_7" />
			</rt_info>
			<output>
				<port id="0" precision="I64" names="/model/decoder/layers.0/encoder_attn/Constant_7_output_0">
					<dim>1</dim>
				</port>
			</output>
		</layer>
		<layer id="221" name="/model/decoder/layers.0/encoder_attn/Concat_1" type="Concat" version="opset1">
			<data axis="0" />
			<rt_info>
				<attribute name="fused_names" version="0" value="/model/decoder/layers.0/encoder_attn/Concat_1, /model/decoder/layers.0/encoder_attn/Constant_6, /model/decoder/layers.0/encoder_attn/Constant_7" />
			</rt_info>
			<input>
				<port id="0" precision="I64">
					<dim>1</dim>
				</port>
				<port id="1" precision="I64">
					<dim>1</dim>
				</port>
				<port id="2" precision="I64">
					<dim>1</dim>
				</port>
			</input>
			<output>
				<port id="3" precision="I64" names="/model/decoder/layers.0/encoder_attn/Concat_1_output_0">
					<dim>3</dim>
				</port>
			</output>
		</layer>
		<layer id="222" name="/model/decoder/layers.0/encoder_attn/Reshape_1" type="Reshape" version="opset1">
			<data special_zero="true" />
			<rt_info>
				<attribute name="fused_names" version="0" value="/model/decoder/layers.0/encoder_attn/Reshape_1" />
			</rt_info>
			<input>
				<port id="0" precision="FP32">
					<dim>-1</dim>
					<dim>4</dim>
					<dim>-1</dim>
					<dim>4</dim>
				</port>
				<port id="1" precision="I64">
					<dim>3</dim>
				</port>
			</input>
			<output>
				<port id="2" precision="FP32" names="/model/decoder/layers.0/encoder_attn/Reshape_1_output_0">
					<dim>-1</dim>
					<dim>-1</dim>
					<dim>4</dim>
				</port>
			</output>
		</layer>
		<layer id="223" name="Constant_4485137" type="Const" version="opset1">
			<data element_type="i64" shape="1" offset="66000" size="8" />
			<rt_info>
				<attribute name="fused_names" version="0" value="Constant_4485137" />
			</rt_info>
			<output>
				<port id="0" precision="I64">
					<dim>1</dim>
				</port>
			</output>
		</layer>
		<layer id="224" name="/model/decoder/layers.0/encoder_attn/Unsqueeze_3" type="Unsqueeze" version="opset1">
			<rt_info>
				<attribute name="fused_names" version="0" value="/model/decoder/layers.0/encoder_attn/Unsqueeze_3, Constant_4485137" />
			</rt_info>
			<input>
				<port id="0" precision="I64" />
				<port id="1" precision="I64">
					<dim>1</dim>
				</port>
			</input>
			<output>
				<port id="2" precision="I64" names="/model/decoder/layers.0/encoder_attn/Unsqueeze_3_output_0">
					<dim>1</dim>
				</port>
			</output>
		</layer>
		<layer id="225" name="/model/decoder/layers.0/encoder_attn/Constant_8" type="Const" version="opset1">
			<data element_type="i64" shape="1" offset="65984" size="8" />
			<rt_info>
				<attribute name="fused_names" version="0" value="/model/decoder/layers.0/encoder_attn/Constant_8" />
			</rt_info>
			<output>
				<port id="0" precision="I64" names="/model/decoder/layers.0/encoder_attn/Constant_8_output_0">
					<dim>1</dim>
				</port>
			</output>
		</layer>
		<layer id="226" name="/model/decoder/layers.0/encoder_attn/Constant_9" type="Const" version="opset1">
			<data element_type="i64" shape="1" offset="73648" size="8" />
			<rt_info>
				<attribute name="fused_names" version="0" value="/model/decoder/layers.0/encoder_attn/Constant_9" />
			</rt_info>
			<output>
				<port id="0" precision="I64" names="/model/decoder/layers.0/encoder_attn/Constant_9_output_0">
					<dim>1</dim>
				</port>
			</output>
		</layer>
		<layer id="227" name="/model/decoder/layers.0/encoder_attn/Concat_2" type="Concat" version="opset1">
			<data axis="0" />
			<rt_info>
				<attribute name="fused_names" version="0" value="/model/decoder/layers.0/encoder_attn/Concat_2, /model/decoder/layers.0/encoder_attn/Constant_8, /model/decoder/layers.0/encoder_attn/Constant_9" />
			</rt_info>
			<input>
				<port id="0" precision="I64">
					<dim>1</dim>
				</port>
				<port id="1" precision="I64">
					<dim>1</dim>
				</port>
				<port id="2" precision="I64">
					<dim>1</dim>
				</port>
			</input>
			<output>
				<port id="3" precision="I64" names="/model/decoder/layers.0/encoder_attn/Concat_2_output_0">
					<dim>3</dim>
				</port>
			</output>
		</layer>
		<layer id="228" name="/model/decoder/layers.0/encoder_attn/Reshape_2" type="Reshape" version="opset1">
			<data special_zero="true" />
			<rt_info>
				<attribute name="fused_names" version="0" value="/model/decoder/layers.0/encoder_attn/Reshape_2" />
			</rt_info>
			<input>
				<port id="0" precision="FP32">
					<dim>-1</dim>
					<dim>4</dim>
					<dim>-1</dim>
					<dim>4</dim>
				</port>
				<port id="1" precision="I64">
					<dim>3</dim>
				</port>
			</input>
			<output>
				<port id="2" precision="FP32" names="/model/decoder/layers.0/encoder_attn/Reshape_2_output_0">
					<dim>-1</dim>
					<dim>-1</dim>
					<dim>4</dim>
				</port>
			</output>
		</layer>
		<layer id="229" name="/model/decoder/layers.0/encoder_attn/MatMul" type="MatMul" version="opset1">
			<data transpose_a="false" transpose_b="true" />
			<rt_info>
				<attribute name="fused_names" version="0" value="/model/decoder/layers.0/encoder_attn/MatMul, /model/decoder/layers.0/encoder_attn/Transpose_1" />
			</rt_info>
			<input>
				<port id="0" precision="FP32">
					<dim>-1</dim>
					<dim>-1</dim>
					<dim>4</dim>
				</port>
				<port id="1" precision="FP32">
					<dim>-1</dim>
					<dim>-1</dim>
					<dim>4</dim>
				</port>
			</input>
			<output>
				<port id="2" precision="FP32" names="/model/decoder/layers.0/encoder_attn/MatMul_output_0">
					<dim>-1</dim>
					<dim>-1</dim>
					<dim>-1</dim>
				</port>
			</output>
		</layer>
		<layer id="230" name="Constant_4485343" type="Const" version="opset1">
			<data element_type="i64" shape="1" offset="66000" size="8" />
			<rt_info>
				<attribute name="fused_names" version="0" value="Constant_4485343" />
			</rt_info>
			<output>
				<port id="0" precision="I64">
					<dim>1</dim>
				</port>
			</output>
		</layer>
		<layer id="231" name="/model/decoder/layers.0/encoder_attn/Unsqueeze_5" type="Unsqueeze" version="opset1">
			<rt_info>
				<attribute name="fused_names" version="0" value="/model/decoder/layers.0/encoder_attn/Unsqueeze_5, Constant_4485343" />
			</rt_info>
			<input>
				<port id="0" precision="I64" />
				<port id="1" precision="I64">
					<dim>1</dim>
				</port>
			</input>
			<output>
				<port id="2" precision="I64" names="/model/decoder/layers.0/encoder_attn/Unsqueeze_5_output_0">
					<dim>1</dim>
				</port>
			</output>
		</layer>
		<layer id="232" name="/model/decoder/layers.0/encoder_attn/Constant_13" type="Const" version="opset1">
			<data element_type="i64" shape="1" offset="73648" size="8" />
			<rt_info>
				<attribute name="fused_names" version="0" value="/model/decoder/layers.0/encoder_attn/Constant_13" />
			</rt_info>
			<output>
				<port id="0" precision="I64" names="/model/decoder/layers.0/encoder_attn/Constant_13_output_0">
					<dim>1</dim>
				</port>
			</output>
		</layer>
		<layer id="233" name="Constant_4485346" type="Const" version="opset1">
			<data element_type="i64" shape="1" offset="66000" size="8" />
			<rt_info>
				<attribute name="fused_names" version="0" value="Constant_4485346" />
			</rt_info>
			<output>
				<port id="0" precision="I64">
					<dim>1</dim>
				</port>
			</output>
		</layer>
		<layer id="234" name="/model/decoder/layers.0/encoder_attn/Unsqueeze_6" type="Unsqueeze" version="opset1">
			<rt_info>
				<attribute name="fused_names" version="0" value="/model/decoder/layers.0/encoder_attn/Unsqueeze_6, Constant_4485346" />
			</rt_info>
			<input>
				<port id="0" precision="I64" />
				<port id="1" precision="I64">
					<dim>1</dim>
				</port>
			</input>
			<output>
				<port id="2" precision="I64" names="/model/decoder/layers.0/encoder_attn/Unsqueeze_6_output_0">
					<dim>1</dim>
				</port>
			</output>
		</layer>
		<layer id="235" name="/model/decoder/layers.0/encoder_attn/Shape_2" type="ShapeOf" version="opset3">
			<data output_type="i64" />
			<rt_info>
				<attribute name="fused_names" version="0" value="/model/decoder/layers.0/encoder_attn/Shape_2" />
			</rt_info>
			<input>
				<port id="0" precision="FP32">
					<dim>-1</dim>
					<dim>-1</dim>
					<dim>4</dim>
				</port>
			</input>
			<output>
				<port id="1" precision="I64" names="/model/decoder/layers.0/encoder_attn/Shape_2_output_0">
					<dim>3</dim>
				</port>
			</output>
		</layer>
		<layer id="236" name="/model/decoder/layers.0/encoder_attn/Constant_12" type="Const" version="opset1">
			<data element_type="i64" shape="" offset="65992" size="8" />
			<rt_info>
				<attribute name="fused_names" version="0" value="/model/decoder/layers.0/encoder_attn/Constant_12" />
			</rt_info>
			<output>
				<port id="0" precision="I64" names="/model/decoder/layers.0/encoder_attn/Constant_12_output_0" />
			</output>
		</layer>
		<layer id="237" name="Constant_4485338" type="Const" version="opset1">
			<data element_type="i64" shape="" offset="66000" size="8" />
			<rt_info>
				<attribute name="fused_names" version="0" value="Constant_4485338" />
			</rt_info>
			<output>
				<port id="0" precision="I64" />
			</output>
		</layer>
		<layer id="238" name="/model/decoder/layers.0/encoder_attn/Gather_2" type="Gather" version="opset8">
			<data batch_dims="0" />
			<rt_info>
				<attribute name="fused_names" version="0" value="/model/decoder/layers.0/encoder_attn/Constant_12, /model/decoder/layers.0/encoder_attn/Gather_2, Constant_4485338" />
			</rt_info>
			<input>
				<port id="0" precision="I64">
					<dim>3</dim>
				</port>
				<port id="1" precision="I64" />
				<port id="2" precision="I64" />
			</input>
			<output>
				<port id="3" precision="I64" names="/model/decoder/layers.0/encoder_attn/Gather_2_output_0" />
			</output>
		</layer>
		<layer id="239" name="Constant_4485348" type="Const" version="opset1">
			<data element_type="i64" shape="1" offset="66000" size="8" />
			<rt_info>
				<attribute name="fused_names" version="0" value="Constant_4485348" />
			</rt_info>
			<output>
				<port id="0" precision="I64">
					<dim>1</dim>
				</port>
			</output>
		</layer>
		<layer id="240" name="/model/decoder/layers.0/encoder_attn/Unsqueeze_7" type="Unsqueeze" version="opset1">
			<rt_info>
				<attribute name="fused_names" version="0" value="/model/decoder/layers.0/encoder_attn/Unsqueeze_7, Constant_4485348" />
			</rt_info>
			<input>
				<port id="0" precision="I64" />
				<port id="1" precision="I64">
					<dim>1</dim>
				</port>
			</input>
			<output>
				<port id="2" precision="I64" names="/model/decoder/layers.0/encoder_attn/Unsqueeze_7_output_0">
					<dim>1</dim>
				</port>
			</output>
		</layer>
		<layer id="241" name="/model/decoder/layers.0/encoder_attn/Concat_4" type="Concat" version="opset1">
			<data axis="0" />
			<rt_info>
				<attribute name="fused_names" version="0" value="/model/decoder/layers.0/encoder_attn/Concat_4, /model/decoder/layers.0/encoder_attn/Constant_13" />
			</rt_info>
			<input>
				<port id="0" precision="I64">
					<dim>1</dim>
				</port>
				<port id="1" precision="I64">
					<dim>1</dim>
				</port>
				<port id="2" precision="I64">
					<dim>1</dim>
				</port>
				<port id="3" precision="I64">
					<dim>1</dim>
				</port>
			</input>
			<output>
				<port id="4" precision="I64" names="/model/decoder/layers.0/encoder_attn/Concat_4_output_0">
					<dim>4</dim>
				</port>
			</output>
		</layer>
		<layer id="242" name="/model/decoder/layers.0/encoder_attn/Reshape_4" type="Reshape" version="opset1">
			<data special_zero="true" />
			<rt_info>
				<attribute name="fused_names" version="0" value="/model/decoder/layers.0/encoder_attn/Reshape_4" />
			</rt_info>
			<input>
				<port id="0" precision="FP32">
					<dim>-1</dim>
					<dim>-1</dim>
					<dim>-1</dim>
				</port>
				<port id="1" precision="I64">
					<dim>4</dim>
				</port>
			</input>
			<output>
				<port id="2" precision="FP32" names="/model/decoder/layers.0/encoder_attn/Reshape_4_output_0">
					<dim>-1</dim>
					<dim>4</dim>
					<dim>-1</dim>
					<dim>-1</dim>
				</port>
			</output>
		</layer>
		<layer id="243" name="/model/decoder/Constant_9" type="Const" version="opset1">
			<data element_type="f32" shape="" offset="66008" size="4" />
			<rt_info>
				<attribute name="fused_names" version="0" value="/model/decoder/Constant_9" />
			</rt_info>
			<output>
				<port id="0" precision="FP32" names="/model/decoder/Constant_9_output_0" />
			</output>
		</layer>
		<layer id="244" name="Constant_4484496" type="Const" version="opset1">
			<data element_type="i64" shape="1" offset="65992" size="8" />
			<rt_info>
				<attribute name="fused_names" version="0" value="Constant_4484496" />
			</rt_info>
			<output>
				<port id="0" precision="I64">
					<dim>1</dim>
				</port>
			</output>
		</layer>
		<layer id="245" name="/model/decoder/Unsqueeze_1" type="Unsqueeze" version="opset1">
			<rt_info>
				<attribute name="fused_names" version="0" value="/model/decoder/Unsqueeze_1" />
			</rt_info>
			<input>
				<port id="0" precision="I64">
					<dim>-1</dim>
					<dim>-1</dim>
				</port>
				<port id="1" precision="I64">
					<dim>1</dim>
				</port>
			</input>
			<output>
				<port id="2" precision="I64" names="/model/decoder/Unsqueeze_1_output_0">
					<dim>-1</dim>
					<dim>1</dim>
					<dim>-1</dim>
				</port>
			</output>
		</layer>
		<layer id="246" name="Constant_4484498" type="Const" version="opset1">
			<data element_type="i64" shape="1" offset="72540" size="8" />
			<rt_info>
				<attribute name="fused_names" version="0" value="Constant_4484498" />
			</rt_info>
			<output>
				<port id="0" precision="I64">
					<dim>1</dim>
				</port>
			</output>
		</layer>
		<layer id="247" name="/model/decoder/Unsqueeze_2" type="Unsqueeze" version="opset1">
			<rt_info>
				<attribute name="fused_names" version="0" value="/model/decoder/Unsqueeze_2" />
			</rt_info>
			<input>
				<port id="0" precision="I64">
					<dim>-1</dim>
					<dim>1</dim>
					<dim>-1</dim>
				</port>
				<port id="1" precision="I64">
					<dim>1</dim>
				</port>
			</input>
			<output>
				<port id="2" precision="I64" names="/model/decoder/Unsqueeze_2_output_0">
					<dim>-1</dim>
					<dim>1</dim>
					<dim>1</dim>
					<dim>-1</dim>
				</port>
			</output>
		</layer>
		<layer id="248" name="/model/decoder/Shape_2" type="ShapeOf" version="opset3">
			<data output_type="i64" />
			<rt_info>
				<attribute name="fused_names" version="0" value="/model/decoder/Shape_2" />
			</rt_info>
			<input>
				<port id="0" precision="I64">
					<dim>-1</dim>
					<dim>-1</dim>
				</port>
			</input>
			<output>
				<port id="1" precision="I64" names="/model/decoder/Shape_2_output_0">
					<dim>2</dim>
				</port>
			</output>
		</layer>
		<layer id="249" name="/model/decoder/Constant_4" type="Const" version="opset1">
			<data element_type="i64" shape="" offset="66000" size="8" />
			<rt_info>
				<attribute name="fused_names" version="0" value="/model/decoder/Constant_4" />
			</rt_info>
			<output>
				<port id="0" precision="I64" names="/model/decoder/Constant_4_output_0" />
			</output>
		</layer>
		<layer id="250" name="Constant_4484490" type="Const" version="opset1">
			<data element_type="i64" shape="" offset="66000" size="8" />
			<rt_info>
				<attribute name="fused_names" version="0" value="Constant_4484490" />
			</rt_info>
			<output>
				<port id="0" precision="I64" />
			</output>
		</layer>
		<layer id="251" name="/model/decoder/Gather_2" type="Gather" version="opset8">
			<data batch_dims="0" />
			<rt_info>
				<attribute name="fused_names" version="0" value="/model/decoder/Constant_4, /model/decoder/Gather_2, Constant_4484490" />
			</rt_info>
			<input>
				<port id="0" precision="I64">
					<dim>2</dim>
				</port>
				<port id="1" precision="I64" />
				<port id="2" precision="I64" />
			</input>
			<output>
				<port id="3" precision="I64" names="/model/decoder/Gather_2_output_0" />
			</output>
		</layer>
		<layer id="252" name="Constant_4484500" type="Const" version="opset1">
			<data element_type="i64" shape="1" offset="66000" size="8" />
			<rt_info>
				<attribute name="fused_names" version="0" value="Constant_4484500" />
			</rt_info>
			<output>
				<port id="0" precision="I64">
					<dim>1</dim>
				</port>
			</output>
		</layer>
		<layer id="253" name="/model/decoder/Unsqueeze_3" type="Unsqueeze" version="opset1">
			<rt_info>
				<attribute name="fused_names" version="0" value="/model/decoder/Unsqueeze_3, Constant_4484500" />
			</rt_info>
			<input>
				<port id="0" precision="I64" />
				<port id="1" precision="I64">
					<dim>1</dim>
				</port>
			</input>
			<output>
				<port id="2" precision="I64" names="/model/decoder/Unsqueeze_3_output_0">
					<dim>1</dim>
				</port>
			</output>
		</layer>
		<layer id="254" name="/model/decoder/Constant_6" type="Const" version="opset1">
			<data element_type="i64" shape="1" offset="65992" size="8" />
			<rt_info>
				<attribute name="fused_names" version="0" value="/model/decoder/Constant_6" />
			</rt_info>
			<output>
				<port id="0" precision="I64" names="/model/decoder/Constant_6_output_0">
					<dim>1</dim>
				</port>
			</output>
		</layer>
		<layer id="255" name="Constant_4484503" type="Const" version="opset1">
			<data element_type="i64" shape="1" offset="66000" size="8" />
			<rt_info>
				<attribute name="fused_names" version="0" value="Constant_4484503" />
			</rt_info>
			<output>
				<port id="0" precision="I64">
					<dim>1</dim>
				</port>
			</output>
		</layer>
		<layer id="256" name="/model/decoder/Unsqueeze_4" type="Unsqueeze" version="opset1">
			<rt_info>
				<attribute name="fused_names" version="0" value="/model/decoder/Unsqueeze_4, Constant_4484503" />
			</rt_info>
			<input>
				<port id="0" precision="I64" />
				<port id="1" precision="I64">
					<dim>1</dim>
				</port>
			</input>
			<output>
				<port id="2" precision="I64" names="/model/decoder/Unsqueeze_4_output_0">
					<dim>1</dim>
				</port>
			</output>
		</layer>
		<layer id="257" name="/model/decoder/Shape_3" type="ShapeOf" version="opset3">
			<data output_type="i64" />
			<rt_info>
				<attribute name="fused_names" version="0" value="/model/decoder/Shape_3" />
			</rt_info>
			<input>
				<port id="0" precision="I64">
					<dim>-1</dim>
					<dim>-1</dim>
				</port>
			</input>
			<output>
				<port id="1" precision="I64" names="/model/decoder/Shape_3_output_0">
					<dim>2</dim>
				</port>
			</output>
		</layer>
		<layer id="258" name="/model/decoder/Constant_5" type="Const" version="opset1">
			<data element_type="i64" shape="" offset="65992" size="8" />
			<rt_info>
				<attribute name="fused_names" version="0" value="/model/decoder/Constant_5" />
			</rt_info>
			<output>
				<port id="0" precision="I64" names="/model/decoder/Constant_5_output_0" />
			</output>
		</layer>
		<layer id="259" name="Constant_4484494" type="Const" version="opset1">
			<data element_type="i64" shape="" offset="66000" size="8" />
			<rt_info>
				<attribute name="fused_names" version="0" value="Constant_4484494" />
			</rt_info>
			<output>
				<port id="0" precision="I64" />
			</output>
		</layer>
		<layer id="260" name="/model/decoder/Gather_3" type="Gather" version="opset8">
			<data batch_dims="0" />
			<rt_info>
				<attribute name="fused_names" version="0" value="/model/decoder/Constant_5, /model/decoder/Gather_3, Constant_4484494" />
			</rt_info>
			<input>
				<port id="0" precision="I64">
					<dim>2</dim>
				</port>
				<port id="1" precision="I64" />
				<port id="2" precision="I64" />
			</input>
			<output>
				<port id="3" precision="I64" names="/model/decoder/Gather_3_output_0" />
			</output>
		</layer>
		<layer id="261" name="Constant_4484505" type="Const" version="opset1">
			<data element_type="i64" shape="1" offset="66000" size="8" />
			<rt_info>
				<attribute name="fused_names" version="0" value="Constant_4484505" />
			</rt_info>
			<output>
				<port id="0" precision="I64">
					<dim>1</dim>
				</port>
			</output>
		</layer>
		<layer id="262" name="/model/decoder/Unsqueeze_5" type="Unsqueeze" version="opset1">
			<rt_info>
				<attribute name="fused_names" version="0" value="/model/decoder/Unsqueeze_5, Constant_4484505" />
			</rt_info>
			<input>
				<port id="0" precision="I64" />
				<port id="1" precision="I64">
					<dim>1</dim>
				</port>
			</input>
			<output>
				<port id="2" precision="I64" names="/model/decoder/Unsqueeze_5_output_0">
					<dim>1</dim>
				</port>
			</output>
		</layer>
		<layer id="263" name="/model/decoder/Concat_1" type="Concat" version="opset1">
			<data axis="0" />
			<rt_info>
				<attribute name="fused_names" version="0" value="/model/decoder/Concat_1, /model/decoder/Constant_6" />
			</rt_info>
			<input>
				<port id="0" precision="I64">
					<dim>1</dim>
				</port>
				<port id="1" precision="I64">
					<dim>1</dim>
				</port>
				<port id="2" precision="I64">
					<dim>1</dim>
				</port>
				<port id="3" precision="I64">
					<dim>1</dim>
				</port>
			</input>
			<output>
				<port id="4" precision="I64" names="/model/decoder/Concat_1_output_0">
					<dim>4</dim>
				</port>
			</output>
		</layer>
		<layer id="264" name="Constant_4498699" type="Const" version="opset1">
			<data element_type="i64" shape="1" offset="65984" size="8" />
			<rt_info>
				<attribute name="fused_names" version="0" value="/model/decoder/Reshape_1" />
			</rt_info>
			<output>
				<port id="0" precision="I64">
					<dim>1</dim>
				</port>
			</output>
		</layer>
		<layer id="265" name="/model/decoder/Reshape_1" type="Reshape" version="opset1">
			<data special_zero="true" />
			<rt_info>
				<attribute name="fused_names" version="0" value="/model/decoder/Reshape_1" />
			</rt_info>
			<input>
				<port id="0" precision="I64">
					<dim>4</dim>
				</port>
				<port id="1" precision="I64">
					<dim>1</dim>
				</port>
			</input>
			<output>
				<port id="2" precision="I64" names="/model/decoder/Reshape_1_output_0">
					<dim>4</dim>
				</port>
			</output>
		</layer>
		<layer id="266" name="Constant_4484514" type="Const" version="opset1">
			<data element_type="i64" shape="" offset="65992" size="8" />
			<rt_info>
				<attribute name="fused_names" version="0" value="Constant_4484514" />
			</rt_info>
			<output>
				<port id="0" precision="I64" />
			</output>
		</layer>
		<layer id="267" name="/model/decoder/Shape_4" type="ShapeOf" version="opset3">
			<data output_type="i64" />
			<rt_info>
				<attribute name="fused_names" version="0" value="/model/decoder/Shape_4" />
			</rt_info>
			<input>
				<port id="0" precision="I64">
					<dim>4</dim>
				</port>
			</input>
			<output>
				<port id="1" precision="I64" names="/model/decoder/Shape_4_output_0">
					<dim>1</dim>
				</port>
			</output>
		</layer>
		<layer id="268" name="/model/decoder/ConstantOfShape" type="Broadcast" version="opset3">
			<data mode="numpy" />
			<rt_info>
				<attribute name="fused_names" version="0" value="/model/decoder/ConstantOfShape, Constant_4484514" />
			</rt_info>
			<input>
				<port id="0" precision="I64" />
				<port id="1" precision="I64">
					<dim>1</dim>
				</port>
			</input>
			<output>
				<port id="2" precision="I64" names="/model/decoder/ConstantOfShape_output_0">
					<dim>4</dim>
				</port>
			</output>
		</layer>
		<layer id="269" name="/model/decoder/Constant_8" type="Const" version="opset1">
			<data element_type="i64" shape="" offset="65984" size="8" />
			<rt_info>
				<attribute name="fused_names" version="0" value="/model/decoder/Constant_8" />
			</rt_info>
			<output>
				<port id="0" precision="I64" names="/model/decoder/Constant_8_output_0" />
			</output>
		</layer>
		<layer id="270" name="/model/decoder/Mul_1" type="Multiply" version="opset1">
			<data auto_broadcast="numpy" />
			<rt_info>
				<attribute name="fused_names" version="0" value="/model/decoder/Constant_8, /model/decoder/Mul_1" />
			</rt_info>
			<input>
				<port id="0" precision="I64">
					<dim>4</dim>
				</port>
				<port id="1" precision="I64" />
			</input>
			<output>
				<port id="2" precision="I64" names="/model/decoder/Mul_1_output_0">
					<dim>4</dim>
				</port>
			</output>
		</layer>
		<layer id="271" name="/model/decoder/Equal" type="Equal" version="opset1">
			<data auto_broadcast="numpy" />
			<rt_info>
				<attribute name="fused_names" version="0" value="/model/decoder/Equal" />
			</rt_info>
			<input>
				<port id="0" precision="I64">
					<dim>4</dim>
				</port>
				<port id="1" precision="I64">
					<dim>4</dim>
				</port>
			</input>
			<output>
				<port id="2" precision="BOOL" names="/model/decoder/Equal_output_0">
					<dim>4</dim>
				</port>
			</output>
		</layer>
		<layer id="272" name="/model/decoder/Where" type="Select" version="opset1">
			<data auto_broadcast="numpy" />
			<rt_info>
				<attribute name="fused_names" version="0" value="/model/decoder/Where" />
			</rt_info>
			<input>
				<port id="0" precision="BOOL">
					<dim>4</dim>
				</port>
				<port id="1" precision="I64">
					<dim>4</dim>
				</port>
				<port id="2" precision="I64">
					<dim>4</dim>
				</port>
			</input>
			<output>
				<port id="3" precision="I64" names="/model/decoder/Where_output_0">
					<dim>4</dim>
				</port>
			</output>
		</layer>
		<layer id="273" name="/model/decoder/Expand" type="Broadcast" version="opset3">
			<data mode="bidirectional" />
			<rt_info>
				<attribute name="fused_names" version="0" value="/model/decoder/Expand" />
			</rt_info>
			<input>
				<port id="0" precision="I64">
					<dim>-1</dim>
					<dim>1</dim>
					<dim>1</dim>
					<dim>-1</dim>
				</port>
				<port id="1" precision="I64">
					<dim>4</dim>
				</port>
			</input>
			<output>
				<port id="2" precision="I64" names="/model/decoder/Expand_output_0">
					<dim>-1</dim>
					<dim>1</dim>
					<dim>-1</dim>
					<dim>-1</dim>
				</port>
			</output>
		</layer>
		<layer id="274" name="/model/decoder/Cast" type="Convert" version="opset1">
			<data destination_type="f32" />
			<rt_info>
				<attribute name="fused_names" version="0" value="/model/decoder/Cast" />
			</rt_info>
			<input>
				<port id="0" precision="I64">
					<dim>-1</dim>
					<dim>1</dim>
					<dim>-1</dim>
					<dim>-1</dim>
				</port>
			</input>
			<output>
				<port id="1" precision="FP32" names="/model/decoder/Cast_output_0">
					<dim>-1</dim>
					<dim>1</dim>
					<dim>-1</dim>
					<dim>-1</dim>
				</port>
			</output>
		</layer>
		<layer id="275" name="/model/decoder/Sub" type="Subtract" version="opset1">
			<data auto_broadcast="numpy" />
			<rt_info>
				<attribute name="fused_names" version="0" value="/model/decoder/Sub" />
			</rt_info>
			<input>
				<port id="0" precision="FP32" />
				<port id="1" precision="FP32">
					<dim>-1</dim>
					<dim>1</dim>
					<dim>-1</dim>
					<dim>-1</dim>
				</port>
			</input>
			<output>
				<port id="2" precision="FP32" names="/model/decoder/Sub_output_0">
					<dim>-1</dim>
					<dim>1</dim>
					<dim>-1</dim>
					<dim>-1</dim>
				</port>
			</output>
		</layer>
		<layer id="276" name="/model/decoder/Cast_1" type="Convert" version="opset1">
			<data destination_type="boolean" />
			<rt_info>
				<attribute name="fused_names" version="0" value="/model/decoder/Cast_1" />
			</rt_info>
			<input>
				<port id="0" precision="FP32">
					<dim>-1</dim>
					<dim>1</dim>
					<dim>-1</dim>
					<dim>-1</dim>
				</port>
			</input>
			<output>
				<port id="1" precision="BOOL" names="/model/decoder/Cast_1_output_0">
					<dim>-1</dim>
					<dim>1</dim>
					<dim>-1</dim>
					<dim>-1</dim>
				</port>
			</output>
		</layer>
		<layer id="277" name="/model/decoder/Cast_2" type="Convert" version="opset1">
			<data destination_type="boolean" />
			<rt_info>
				<attribute name="fused_names" version="0" value="/model/decoder/Cast_2" />
			</rt_info>
			<input>
				<port id="0" precision="BOOL">
					<dim>-1</dim>
					<dim>1</dim>
					<dim>-1</dim>
					<dim>-1</dim>
				</port>
			</input>
			<output>
				<port id="1" precision="BOOL" names="/model/decoder/Cast_2_output_0">
					<dim>-1</dim>
					<dim>1</dim>
					<dim>-1</dim>
					<dim>-1</dim>
				</port>
			</output>
		</layer>
		<layer id="278" name="/model/decoder/Constant_10" type="Const" version="opset1">
			<data element_type="f32" shape="" offset="77792" size="4" />
			<rt_info>
				<attribute name="fused_names" version="0" value="/model/decoder/Constant_10" />
			</rt_info>
			<output>
				<port id="0" precision="FP32" names="/model/decoder/Constant_10_output_0" />
			</output>
		</layer>
		<layer id="279" name="/model/decoder/Where_1" type="Select" version="opset1">
			<data auto_broadcast="numpy" />
			<rt_info>
				<attribute name="fused_names" version="0" value="/model/decoder/Where_1" />
			</rt_info>
			<input>
				<port id="0" precision="BOOL">
					<dim>-1</dim>
					<dim>1</dim>
					<dim>-1</dim>
					<dim>-1</dim>
				</port>
				<port id="1" precision="FP32" />
				<port id="2" precision="FP32">
					<dim>-1</dim>
					<dim>1</dim>
					<dim>-1</dim>
					<dim>-1</dim>
				</port>
			</input>
			<output>
				<port id="3" precision="FP32" names="/model/decoder/Where_1_output_0">
					<dim>-1</dim>
					<dim>1</dim>
					<dim>-1</dim>
					<dim>-1</dim>
				</port>
			</output>
		</layer>
		<layer id="280" name="/model/decoder/layers.0/encoder_attn/Add" type="Add" version="opset1">
			<data auto_broadcast="numpy" />
			<rt_info>
				<attribute name="fused_names" version="0" value="/model/decoder/layers.0/encoder_attn/Add" />
			</rt_info>
			<input>
				<port id="0" precision="FP32">
					<dim>-1</dim>
					<dim>4</dim>
					<dim>-1</dim>
					<dim>-1</dim>
				</port>
				<port id="1" precision="FP32">
					<dim>-1</dim>
					<dim>1</dim>
					<dim>-1</dim>
					<dim>-1</dim>
				</port>
			</input>
			<output>
				<port id="2" precision="FP32" names="/model/decoder/layers.0/encoder_attn/Add_output_0">
					<dim>-1</dim>
					<dim>4</dim>
					<dim>-1</dim>
					<dim>-1</dim>
				</port>
			</output>
		</layer>
		<layer id="281" name="Constant_4485367" type="Const" version="opset1">
			<data element_type="i64" shape="1" offset="66000" size="8" />
			<rt_info>
				<attribute name="fused_names" version="0" value="Constant_4485367" />
			</rt_info>
			<output>
				<port id="0" precision="I64">
					<dim>1</dim>
				</port>
			</output>
		</layer>
		<layer id="282" name="/model/decoder/layers.0/encoder_attn/Unsqueeze_8" type="Unsqueeze" version="opset1">
			<rt_info>
				<attribute name="fused_names" version="0" value="/model/decoder/layers.0/encoder_attn/Unsqueeze_8, Constant_4485367" />
			</rt_info>
			<input>
				<port id="0" precision="I64" />
				<port id="1" precision="I64">
					<dim>1</dim>
				</port>
			</input>
			<output>
				<port id="2" precision="I64" names="/model/decoder/layers.0/encoder_attn/Unsqueeze_8_output_0">
					<dim>1</dim>
				</port>
			</output>
		</layer>
		<layer id="283" name="Constant_4485369" type="Const" version="opset1">
			<data element_type="i64" shape="1" offset="66000" size="8" />
			<rt_info>
				<attribute name="fused_names" version="0" value="Constant_4485369" />
			</rt_info>
			<output>
				<port id="0" precision="I64">
					<dim>1</dim>
				</port>
			</output>
		</layer>
		<layer id="284" name="/model/decoder/layers.0/encoder_attn/Unsqueeze_9" type="Unsqueeze" version="opset1">
			<rt_info>
				<attribute name="fused_names" version="0" value="/model/decoder/layers.0/encoder_attn/Unsqueeze_9, Constant_4485369" />
			</rt_info>
			<input>
				<port id="0" precision="I64" />
				<port id="1" precision="I64">
					<dim>1</dim>
				</port>
			</input>
			<output>
				<port id="2" precision="I64" names="/model/decoder/layers.0/encoder_attn/Unsqueeze_9_output_0">
					<dim>1</dim>
				</port>
			</output>
		</layer>
		<layer id="285" name="Constant_4485371" type="Const" version="opset1">
			<data element_type="i64" shape="1" offset="66000" size="8" />
			<rt_info>
				<attribute name="fused_names" version="0" value="Constant_4485371" />
			</rt_info>
			<output>
				<port id="0" precision="I64">
					<dim>1</dim>
				</port>
			</output>
		</layer>
		<layer id="286" name="/model/decoder/layers.0/encoder_attn/Unsqueeze_10" type="Unsqueeze" version="opset1">
			<rt_info>
				<attribute name="fused_names" version="0" value="/model/decoder/layers.0/encoder_attn/Unsqueeze_10, Constant_4485371" />
			</rt_info>
			<input>
				<port id="0" precision="I64" />
				<port id="1" precision="I64">
					<dim>1</dim>
				</port>
			</input>
			<output>
				<port id="2" precision="I64" names="/model/decoder/layers.0/encoder_attn/Unsqueeze_10_output_0">
					<dim>1</dim>
				</port>
			</output>
		</layer>
		<layer id="287" name="/model/decoder/layers.0/encoder_attn/Concat_5" type="Concat" version="opset1">
			<data axis="0" />
			<rt_info>
				<attribute name="fused_names" version="0" value="/model/decoder/layers.0/encoder_attn/Concat_5" />
			</rt_info>
			<input>
				<port id="0" precision="I64">
					<dim>1</dim>
				</port>
				<port id="1" precision="I64">
					<dim>1</dim>
				</port>
				<port id="2" precision="I64">
					<dim>1</dim>
				</port>
			</input>
			<output>
				<port id="3" precision="I64" names="/model/decoder/layers.0/encoder_attn/Concat_5_output_0">
					<dim>3</dim>
				</port>
			</output>
		</layer>
		<layer id="288" name="/model/decoder/layers.0/encoder_attn/Reshape_5" type="Reshape" version="opset1">
			<data special_zero="true" />
			<rt_info>
				<attribute name="fused_names" version="0" value="/model/decoder/layers.0/encoder_attn/Reshape_5" />
			</rt_info>
			<input>
				<port id="0" precision="FP32">
					<dim>-1</dim>
					<dim>4</dim>
					<dim>-1</dim>
					<dim>-1</dim>
				</port>
				<port id="1" precision="I64">
					<dim>3</dim>
				</port>
			</input>
			<output>
				<port id="2" precision="FP32" names="/model/decoder/layers.0/encoder_attn/Reshape_5_output_0">
					<dim>-1</dim>
					<dim>-1</dim>
					<dim>-1</dim>
				</port>
			</output>
		</layer>
		<layer id="289" name="/model/decoder/layers.0/encoder_attn/Softmax" type="SoftMax" version="opset8">
			<data axis="2" />
			<rt_info>
				<attribute name="fused_names" version="0" value="/model/decoder/layers.0/encoder_attn/Softmax" />
			</rt_info>
			<input>
…
		<edge from-layer="0" from-port="0" to-layer="536" to-port="0" />
		<edge from-layer="1" from-port="0" to-layer="506" to-port="0" />
		<edge from-layer="2" from-port="0" to-layer="376" to-port="0" />
		<edge from-layer="3" from-port="0" to-layer="390" to-port="0" />
		<edge from-layer="4" from-port="0" to-layer="295" to-port="0" />
		<edge from-layer="5" from-port="0" to-layer="228" to-port="0" />
		<edge from-layer="6" from-port="0" to-layer="150" to-port="0" />
		<edge from-layer="7" from-port="0" to-layer="129" to-port="0" />
		<edge from-layer="7" from-port="0" to-layer="26" to-port="0" />
		<edge from-layer="8" from-port="0" to-layer="13" to-port="0" />
		<edge from-layer="8" from-port="0" to-layer="35" to-port="0" />
		<edge from-layer="8" from-port="0" to-layer="20" to-port="0" />
		<edge from-layer="9" from-port="0" to-layer="257" to-port="0" />
		<edge from-layer="9" from-port="0" to-layer="248" to-port="0" />
		<edge from-layer="9" from-port="0" to-layer="245" to-port="0" />
		<edge from-layer="10" from-port="0" to-layer="191" to-port="1" />
		<edge from-layer="10" from-port="0" to-layer="194" to-port="0" />
		<edge from-layer="10" from-port="0" to-layer="571" to-port="1" />
		<edge from-layer="10" from-port="0" to-layer="177" to-port="0" />
		<edge from-layer="10" from-port="0" to-layer="140" to-port="0" />
		<edge from-layer="10" from-port="0" to-layer="119" to-port="0" />
		<edge from-layer="10" from-port="0" to-layer="88" to-port="0" />
		<edge from-layer="10" from-port="0" to-layer="85" to-port="1" />
		<edge from-layer="10" from-port="0" to-layer="72" to-port="1" />
		<edge from-layer="10" from-port="0" to-layer="599" to-port="1" />
		<edge from-layer="10" from-port="0" to-layer="585" to-port="0" />
		<edge from-layer="10" from-port="0" to-layer="316" to-port="0" />
		<edge from-layer="10" from-port="0" to-layer="557" to-port="0" />
		<edge from-layer="10" from-port="0" to-layer="472" to-port="0" />
		<edge from-layer="10" from-port="0" to-layer="469" to-port="1" />
		<edge from-layer="10" from-port="0" to-layer="455" to-port="0" />
		<edge from-layer="10" from-port="0" to-layer="396" to-port="0" />
		<edge from-layer="10" from-port="0" to-layer="380" to-port="0" />
		<edge from-layer="10" from-port="0" to-layer="362" to-port="0" />
		<edge from-layer="10" from-port="0" to-layer="359" to-port="1" />
		<edge from-layer="10" from-port="0" to-layer="331" to-port="1" />
		<edge from-layer="10" from-port="0" to-layer="345" to-port="0" />
		<edge from-layer="11" from-port="0" to-layer="22" to-port="0" />
		<edge from-layer="12" from-port="0" to-layer="19" to-port="0" />
		<edge from-layer="13" from-port="1" to-layer="16" to-port="0" />
		<edge from-layer="14" from-port="0" to-layer="16" to-port="1" />
		<edge from-layer="15" from-port="0" to-layer="16" to-port="2" />
		<edge from-layer="16" from-port="3" to-layer="18" to-port="0" />
		<edge from-layer="16" from-port="3" to-layer="256" to-port="0" />
		<edge from-layer="16" from-port="3" to-layer="31" to-port="1" />
		<edge from-layer="17" from-port="0" to-layer="18" to-port="1" />
		<edge from-layer="18" from-port="2" to-layer="19" to-port="1" />
		<edge from-layer="19" from-port="2" to-layer="20" to-port="1" />
		<edge from-layer="20" from-port="2" to-layer="22" to-port="1" />
		<edge from-layer="21" from-port="0" to-layer="22" to-port="2" />
		<edge from-layer="22" from-port="3" to-layer="24" to-port="0" />
		<edge from-layer="23" from-port="0" to-layer="24" to-port="1" />
		<edge from-layer="24" from-port="2" to-layer="58" to-port="0" />
		<edge from-layer="25" from-port="0" to-layer="56" to-port="0" />
		<edge from-layer="26" from-port="1" to-layer="29" to-port="0" />
		<edge from-layer="27" from-port="0" to-layer="29" to-port="1" />
		<edge from-layer="28" from-port="0" to-layer="29" to-port="2" />
		<edge from-layer="29" from-port="3" to-layer="31" to-port="0" />
		<edge from-layer="29" from-port="3" to-layer="30" to-port="0" />
		<edge from-layer="30" from-port="1" to-layer="34" to-port="0" />
		<edge from-layer="31" from-port="2" to-layer="32" to-port="0" />
		<edge from-layer="32" from-port="1" to-layer="34" to-port="1" />
		<edge from-layer="33" from-port="0" to-layer="34" to-port="2" />
		<edge from-layer="34" from-port="3" to-layer="52" to-port="0" />
		<edge from-layer="35" from-port="1" to-layer="38" to-port="0" />
		<edge from-layer="36" from-port="0" to-layer="38" to-port="1" />
		<edge from-layer="37" from-port="0" to-layer="38" to-port="2" />
		<edge from-layer="38" from-port="3" to-layer="40" to-port="0" />
		<edge from-layer="39" from-port="0" to-layer="40" to-port="1" />
		<edge from-layer="40" from-port="2" to-layer="42" to-port="0" />
		<edge from-layer="41" from-port="0" to-layer="42" to-port="1" />
		<edge from-layer="42" from-port="2" to-layer="44" to-port="0" />
		<edge from-layer="43" from-port="0" to-layer="44" to-port="1" />
		<edge from-layer="44" from-port="2" to-layer="50" to-port="0" />
		<edge from-layer="44" from-port="2" to-layer="46" to-port="0" />
		<edge from-layer="44" from-port="2" to-layer="51" to-port="2" />
		<edge from-layer="45" from-port="0" to-layer="47" to-port="0" />
		<edge from-layer="46" from-port="1" to-layer="47" to-port="1" />
		<edge from-layer="47" from-port="2" to-layer="49" to-port="0" />
		<edge from-layer="47" from-port="2" to-layer="51" to-port="1" />
		<edge from-layer="48" from-port="0" to-layer="49" to-port="1" />
		<edge from-layer="49" from-port="2" to-layer="50" to-port="1" />
		<edge from-layer="50" from-port="2" to-layer="51" to-port="0" />
		<edge from-layer="51" from-port="3" to-layer="52" to-port="1" />
		<edge from-layer="52" from-port="2" to-layer="54" to-port="0" />
		<edge from-layer="53" from-port="0" to-layer="54" to-port="1" />
		<edge from-layer="54" from-port="2" to-layer="56" to-port="1" />
		<edge from-layer="55" from-port="0" to-layer="56" to-port="2" />
		<edge from-layer="56" from-port="3" to-layer="57" to-port="0" />
		<edge from-layer="57" from-port="1" to-layer="58" to-port="1" />
		<edge from-layer="58" from-port="2" to-layer="60" to-port="0" />
		<edge from-layer="58" from-port="2" to-layer="61" to-port="0" />
		<edge from-layer="59" from-port="0" to-layer="60" to-port="1" />
		<edge from-layer="60" from-port="2" to-layer="61" to-port="1" />
		<edge from-layer="61" from-port="2" to-layer="63" to-port="0" />
		<edge from-layer="61" from-port="2" to-layer="69" to-port="0" />
		<edge from-layer="62" from-port="0" to-layer="63" to-port="1" />
		<edge from-layer="63" from-port="2" to-layer="65" to-port="0" />
		<edge from-layer="64" from-port="0" to-layer="65" to-port="1" />
		<edge from-layer="65" from-port="2" to-layer="67" to-port="0" />
		<edge from-layer="66" from-port="0" to-layer="67" to-port="1" />
		<edge from-layer="67" from-port="2" to-layer="68" to-port="0" />
		<edge from-layer="68" from-port="1" to-layer="69" to-port="1" />
		<edge from-layer="69" from-port="2" to-layer="71" to-port="0" />
		<edge from-layer="70" from-port="0" to-layer="468" to-port="1" />
		<edge from-layer="70" from-port="0" to-layer="190" to-port="1" />
		<edge from-layer="70" from-port="0" to-layer="358" to-port="1" />
		<edge from-layer="70" from-port="0" to-layer="71" to-port="1" />
		<edge from-layer="70" from-port="0" to-layer="598" to-port="1" />
		<edge from-layer="70" from-port="0" to-layer="330" to-port="1" />
		<edge from-layer="70" from-port="0" to-layer="84" to-port="1" />
		<edge from-layer="70" from-port="0" to-layer="570" to-port="1" />
		<edge from-layer="71" from-port="2" to-layer="72" to-port="0" />
		<edge from-layer="72" from-port="2" to-layer="178" to-port="0" />
		<edge from-layer="72" from-port="2" to-layer="75" to-port="0" />
		<edge from-layer="72" from-port="2" to-layer="74" to-port="0" />
		<edge from-layer="73" from-port="0" to-layer="74" to-port="1" />
		<edge from-layer="74" from-port="2" to-layer="75" to-port="1" />
		<edge from-layer="75" from-port="2" to-layer="77" to-port="0" />
		<edge from-layer="75" from-port="2" to-layer="83" to-port="0" />
		<edge from-layer="76" from-port="0" to-layer="77" to-port="1" />
		<edge from-layer="77" from-port="2" to-layer="79" to-port="0" />
		<edge from-layer="78" from-port="0" to-layer="79" to-port="1" />
		<edge from-layer="79" from-port="2" to-layer="81" to-port="0" />
		<edge from-layer="80" from-port="0" to-layer="81" to-port="1" />
		<edge from-layer="81" from-port="2" to-layer="82" to-port="0" />
		<edge from-layer="82" from-port="1" to-layer="83" to-port="1" />
		<edge from-layer="83" from-port="2" to-layer="84" to-port="0" />
		<edge from-layer="84" from-port="2" to-layer="85" to-port="0" />
		<edge from-layer="85" from-port="2" to-layer="91" to-port="0" />
		<edge from-layer="85" from-port="2" to-layer="139" to-port="0" />
		<edge from-layer="85" from-port="2" to-layer="97" to-port="0" />
		<edge from-layer="85" from-port="2" to-layer="87" to-port="0" />
		<edge from-layer="85" from-port="2" to-layer="118" to-port="0" />
		<edge from-layer="86" from-port="0" to-layer="87" to-port="1" />
		<edge from-layer="87" from-port="2" to-layer="88" to-port="1" />
		<edge from-layer="88" from-port="2" to-layer="90" to-port="0" />
		<edge from-layer="89" from-port="0" to-layer="90" to-port="1" />
		<edge from-layer="90" from-port="2" to-layer="106" to-port="0" />
		<edge from-layer="91" from-port="1" to-layer="94" to-port="0" />
		<edge from-layer="92" from-port="0" to-layer="94" to-port="1" />
		<edge from-layer="93" from-port="0" to-layer="94" to-port="2" />
		<edge from-layer="94" from-port="3" to-layer="159" to-port="0" />
		<edge from-layer="94" from-port="3" to-layer="121" to-port="0" />
		<edge from-layer="94" from-port="3" to-layer="142" to-port="0" />
		<edge from-layer="94" from-port="3" to-layer="96" to-port="0" />
		<edge from-layer="94" from-port="3" to-layer="110" to-port="0" />
		<edge from-layer="94" from-port="3" to-layer="169" to-port="0" />
		<edge from-layer="95" from-port="0" to-layer="96" to-port="1" />
		<edge from-layer="96" from-port="2" to-layer="105" to-port="0" />
		<edge from-layer="97" from-port="1" to-layer="100" to-port="0" />
		<edge from-layer="98" from-port="0" to-layer="100" to-port="1" />
		<edge from-layer="99" from-port="0" to-layer="100" to-port="2" />
		<edge from-layer="100" from-port="3" to-layer="102" to-port="0" />
		<edge from-layer="100" from-port="3" to-layer="162" to-port="0" />
		<edge from-layer="100" from-port="3" to-layer="171" to-port="0" />
		<edge from-layer="101" from-port="0" to-layer="102" to-port="1" />
		<edge from-layer="102" from-port="2" to-layer="105" to-port="1" />
		<edge from-layer="103" from-port="0" to-layer="105" to-port="2" />
		<edge from-layer="104" from-port="0" to-layer="105" to-port="3" />
		<edge from-layer="105" from-port="4" to-layer="106" to-port="1" />
		<edge from-layer="106" from-port="2" to-layer="108" to-port="0" />
		<edge from-layer="107" from-port="0" to-layer="108" to-port="1" />
		<edge from-layer="108" from-port="2" to-layer="116" to-port="0" />
		<edge from-layer="109" from-port="0" to-layer="110" to-port="1" />
		<edge from-layer="110" from-port="2" to-layer="112" to-port="0" />
		<edge from-layer="110" from-port="2" to-layer="131" to-port="0" />
		<edge from-layer="110" from-port="2" to-layer="152" to-port="0" />
		<edge from-layer="111" from-port="0" to-layer="112" to-port="1" />
		<edge from-layer="112" from-port="2" to-layer="115" to-port="0" />
		<edge from-layer="113" from-port="0" to-layer="115" to-port="1" />
		<edge from-layer="114" from-port="0" to-layer="115" to-port="2" />
		<edge from-layer="115" from-port="3" to-layer="116" to-port="1" />
		<edge from-layer="116" from-port="2" to-layer="136" to-port="0" />
		<edge from-layer="117" from-port="0" to-layer="118" to-port="1" />
		<edge from-layer="118" from-port="2" to-layer="119" to-port="1" />
		<edge from-layer="119" from-port="2" to-layer="126" to-port="0" />
		<edge from-layer="120" from-port="0" to-layer="121" to-port="1" />
		<edge from-layer="121" from-port="2" to-layer="125" to-port="0" />
		<edge from-layer="122" from-port="0" to-layer="125" to-port="1" />
		<edge from-layer="123" from-port="0" to-layer="125" to-port="2" />
		<edge from-layer="124" from-port="0" to-layer="125" to-port="3" />
		<edge from-layer="125" from-port="4" to-layer="126" to-port="1" />
		<edge from-layer="126" from-port="2" to-layer="128" to-port="0" />
		<edge from-layer="127" from-port="0" to-layer="128" to-port="1" />
		<edge from-layer="128" from-port="2" to-layer="129" to-port="1" />
		<edge from-layer="129" from-port="2" to-layer="135" to-port="0" />
		<edge from-layer="129" from-port="2" to-layer="393" to-port="0" />
		<edge from-layer="130" from-port="0" to-layer="131" to-port="1" />
		<edge from-layer="131" from-port="2" to-layer="134" to-port="0" />
		<edge from-layer="132" from-port="0" to-layer="134" to-port="1" />
		<edge from-layer="133" from-port="0" to-layer="134" to-port="2" />
		<edge from-layer="134" from-port="3" to-layer="135" to-port="1" />
		<edge from-layer="135" from-port="2" to-layer="136" to-port="1" />
		<edge from-layer="136" from-port="2" to-layer="137" to-port="0" />
		<edge from-layer="137" from-port="1" to-layer="157" to-port="0" />
		<edge from-layer="138" from-port="0" to-layer="139" to-port="1" />
		<edge from-layer="139" from-port="2" to-layer="140" to-port="1" />
		<edge from-layer="140" from-port="2" to-layer="147" to-port="0" />
		<edge from-layer="141" from-port="0" to-layer="142" to-port="1" />
		<edge from-layer="142" from-port="2" to-layer="146" to-port="0" />
		<edge from-layer="143" from-port="0" to-layer="146" to-port="1" />
		<edge from-layer="144" from-port="0" to-layer="146" to-port="2" />
		<edge from-layer="145" from-port="0" to-layer="146" to-port="3" />
		<edge from-layer="146" from-port="4" to-layer="147" to-port="1" />
		<edge from-layer="147" from-port="2" to-layer="149" to-port="0" />
		<edge from-layer="148" from-port="0" to-layer="149" to-port="1" />
		<edge from-layer="149" from-port="2" to-layer="150" to-port="1" />
		<edge from-layer="150" from-port="2" to-layer="392" to-port="0" />
		<edge from-layer="150" from-port="2" to-layer="156" to-port="0" />
		<edge from-layer="151" from-port="0" to-layer="152" to-port="1" />
		<edge from-layer="152" from-port="2" to-layer="155" to-port="0" />
		<edge from-layer="153" from-port="0" to-layer="155" to-port="1" />
		<edge from-layer="154" from-port="0" to-layer="155" to-port="2" />
		<edge from-layer="155" from-port="3" to-layer="156" to-port="1" />
		<edge from-layer="156" from-port="2" to-layer="157" to-port="1" />
		<edge from-layer="157" from-port="2" to-layer="165" to-port="0" />
		<edge from-layer="158" from-port="0" to-layer="159" to-port="1" />
		<edge from-layer="159" from-port="2" to-layer="164" to-port="0" />
		<edge from-layer="160" from-port="0" to-layer="164" to-port="1" />
		<edge from-layer="161" from-port="0" to-layer="162" to-port="1" />
		<edge from-layer="162" from-port="2" to-layer="164" to-port="2" />
		<edge from-layer="163" from-port="0" to-layer="164" to-port="3" />
		<edge from-layer="164" from-port="4" to-layer="165" to-port="1" />
		<edge from-layer="165" from-port="2" to-layer="167" to-port="0" />
		<edge from-layer="166" from-port="0" to-layer="167" to-port="1" />
		<edge from-layer="167" from-port="2" to-layer="174" to-port="0" />
		<edge from-layer="168" from-port="0" to-layer="169" to-port="1" />
		<edge from-layer="169" from-port="2" to-layer="173" to-port="0" />
		<edge from-layer="170" from-port="0" to-layer="171" to-port="1" />
		<edge from-layer="171" from-port="2" to-layer="173" to-port="1" />
		<edge from-layer="172" from-port="0" to-layer="173" to-port="2" />
		<edge from-layer="173" from-port="3" to-layer="174" to-port="1" />
		<edge from-layer="174" from-port="2" to-layer="176" to-port="0" />
		<edge from-layer="175" from-port="0" to-layer="176" to-port="1" />
		<edge from-layer="176" from-port="2" to-layer="177" to-port="1" />
		<edge from-layer="177" from-port="2" to-layer="178" to-port="1" />
		<edge from-layer="178" from-port="2" to-layer="317" to-port="0" />
		<edge from-layer="178" from-port="2" to-layer="180" to-port="0" />
		<edge from-layer="178" from-port="2" to-layer="181" to-port="0" />
		<edge from-layer="179" from-port="0" to-layer="180" to-port="1" />
		<edge from-layer="180" from-port="2" to-layer="181" to-port="1" />
		<edge from-layer="181" from-port="2" to-layer="183" to-port="0" />
		<edge from-layer="181" from-port="2" to-layer="189" to-port="0" />
		<edge from-layer="182" from-port="0" to-layer="183" to-port="1" />
		<edge from-layer="183" from-port="2" to-layer="185" to-port="0" />
		<edge from-layer="184" from-port="0" to-layer="185" to-port="1" />
		<edge from-layer="185" from-port="2" to-layer="187" to-port="0" />
		<edge from-layer="186" from-port="0" to-layer="187" to-port="1" />
		<edge from-layer="187" from-port="2" to-layer="188" to-port="0" />
		<edge from-layer="188" from-port="1" to-layer="189" to-port="1" />
		<edge from-layer="189" from-port="2" to-layer="190" to-port="0" />
		<edge from-layer="190" from-port="2" to-layer="191" to-port="0" />
		<edge from-layer="191" from-port="2" to-layer="193" to-port="0" />
		<edge from-layer="191" from-port="2" to-layer="197" to-port="0" />
		<edge from-layer="191" from-port="2" to-layer="203" to-port="0" />
		<edge from-layer="192" from-port="0" to-layer="193" to-port="1" />
		<edge from-layer="193" from-port="2" to-layer="194" to-port="1" />
		<edge from-layer="194" from-port="2" to-layer="196" to-port="0" />
		<edge from-layer="195" from-port="0" to-layer="196" to-port="1" />
		<edge from-layer="196" from-port="2" to-layer="212" to-port="0" />
		<edge from-layer="197" from-port="1" to-layer="200" to-port="0" />
		<edge from-layer="198" from-port="0" to-layer="200" to-port="1" />
		<edge from-layer="199" from-port="0" to-layer="200" to-port="2" />
		<edge from-layer="200" from-port="3" to-layer="308" to-port="0" />
		<edge from-layer="200" from-port="3" to-layer="202" to-port="0" />
		<edge from-layer="200" from-port="3" to-layer="216" to-port="0" />
		<edge from-layer="200" from-port="3" to-layer="298" to-port="0" />
		<edge from-layer="200" from-port="3" to-layer="231" to-port="0" />
		<edge from-layer="201" from-port="0" to-layer="202" to-port="1" />
		<edge from-layer="202" from-port="2" to-layer="211" to-port="0" />
		<edge from-layer="203" from-port="1" to-layer="206" to-port="0" />
		<edge from-layer="204" from-port="0" to-layer="206" to-port="1" />
		<edge from-layer="205" from-port="0" to-layer="206" to-port="2" />
		<edge from-layer="206" from-port="3" to-layer="208" to-port="0" />
		<edge from-layer="206" from-port="3" to-layer="310" to-port="0" />
		<edge from-layer="206" from-port="3" to-layer="284" to-port="0" />
		<edge from-layer="206" from-port="3" to-layer="301" to-port="0" />
		<edge from-layer="206" from-port="3" to-layer="234" to-port="0" />
		<edge from-layer="207" from-port="0" to-layer="208" to-port="1" />
		<edge from-layer="208" from-port="2" to-layer="211" to-port="1" />
		<edge from-layer="209" from-port="0" to-layer="211" to-port="2" />
		<edge from-layer="210" from-port="0" to-layer="211" to-port="3" />
		<edge from-layer="211" from-port="4" to-layer="212" to-port="1" />
		<edge from-layer="212" from-port="2" to-layer="214" to-port="0" />
		<edge from-layer="213" from-port="0" to-layer="214" to-port="1" />
		<edge from-layer="214" from-port="2" to-layer="222" to-port="0" />
		<edge from-layer="215" from-port="0" to-layer="216" to-port="1" />
		<edge from-layer="216" from-port="2" to-layer="218" to-port="0" />
		<edge from-layer="216" from-port="2" to-layer="291" to-port="0" />
		<edge from-layer="216" from-port="2" to-layer="282" to-port="0" />
		<edge from-layer="216" from-port="2" to-layer="224" to-port="0" />
		<edge from-layer="217" from-port="0" to-layer="218" to-port="1" />
		<edge from-layer="218" from-port="2" to-layer="221" to-port="0" />
		<edge from-layer="219" from-port="0" to-layer="221" to-port="1" />
		<edge from-layer="220" from-port="0" to-layer="221" to-port="2" />
		<edge from-layer="221" from-port="3" to-layer="222" to-port="1" />
		<edge from-layer="222" from-port="2" to-layer="229" to-port="0" />
		<edge from-layer="223" from-port="0" to-layer="224" to-port="1" />
		<edge from-layer="224" from-port="2" to-layer="227" to-port="0" />
		<edge from-layer="225" from-port="0" to-layer="227" to-port="1" />
		<edge from-layer="226" from-port="0" to-layer="227" to-port="2" />
		<edge from-layer="227" from-port="3" to-layer="228" to-port="1" />
		<edge from-layer="228" from-port="2" to-layer="229" to-port="1" />
		<edge from-layer="228" from-port="2" to-layer="235" to-port="0" />
		<edge from-layer="229" from-port="2" to-layer="242" to-port="0" />
		<edge from-layer="230" from-port="0" to-layer="231" to-port="1" />
		<edge from-layer="231" from-port="2" to-layer="241" to-port="0" />
		<edge from-layer="232" from-port="0" to-layer="241" to-port="1" />
		<edge from-layer="233" from-port="0" to-layer="234" to-port="1" />
		<edge from-layer="234" from-port="2" to-layer="241" to-port="2" />
		<edge from-layer="235" from-port="1" to-layer="238" to-port="0" />
		<edge from-layer="236" from-port="0" to-layer="238" to-port="1" />
		<edge from-layer="237" from-port="0" to-layer="238" to-port="2" />
		<edge from-layer="238" from-port="3" to-layer="286" to-port="0" />
		<edge from-layer="238" from-port="3" to-layer="240" to-port="0" />
		<edge from-layer="239" from-port="0" to-layer="240" to-port="1" />
		<edge from-layer="240" from-port="2" to-layer="241" to-port="3" />
		<edge from-layer="241" from-port="4" to-layer="242" to-port="1" />
		<edge from-layer="242" from-port="2" to-layer="280" to-port="0" />
		<edge from-layer="243" from-port="0" to-layer="275" to-port="0" />
		<edge from-layer="244" from-port="0" to-layer="245" to-port="1" />
		<edge from-layer="245" from-port="2" to-layer="247" to-port="0" />
		<edge from-layer="246" from-port="0" to-layer="247" to-port="1" />
		<edge from-layer="247" from-port="2" to-layer="273" to-port="0" />
		<edge from-layer="248" from-port="1" to-layer="251" to-port="0" />
		<edge from-layer="249" from-port="0" to-layer="251" to-port="1" />
		<edge from-layer="250" from-port="0" to-layer="251" to-port="2" />
		<edge from-layer="251" from-port="3" to-layer="253" to-port="0" />
		<edge from-layer="252" from-port="0" to-layer="253" to-port="1" />
		<edge from-layer="253" from-port="2" to-layer="263" to-port="0" />
		<edge from-layer="254" from-port="0" to-layer="263" to-port="1" />
		<edge from-layer="255" from-port="0" to-layer="256" to-port="1" />
		<edge from-layer="256" from-port="2" to-layer="263" to-port="2" />
		<edge from-layer="257" from-port="1" to-layer="260" to-port="0" />
		<edge from-layer="258" from-port="0" to-layer="260" to-port="1" />
		<edge from-layer="259" from-port="0" to-layer="260" to-port="2" />
		<edge from-layer="260" from-port="3" to-layer="262" to-port="0" />
		<edge from-layer="261" from-port="0" to-layer="262" to-port="1" />
		<edge from-layer="262" from-port="2" to-layer="263" to-port="3" />
		<edge from-layer="263" from-port="4" to-layer="265" to-port="0" />
		<edge from-layer="264" from-port="0" to-layer="265" to-port="1" />
		<edge from-layer="265" from-port="2" to-layer="272" to-port="2" />
		<edge from-layer="265" from-port="2" to-layer="271" to-port="0" />
		<edge from-layer="265" from-port="2" to-layer="267" to-port="0" />
		<edge from-layer="266" from-port="0" to-layer="268" to-port="0" />
		<edge from-layer="267" from-port="1" to-layer="268" to-port="1" />
		<edge from-layer="268" from-port="2" to-layer="272" to-port="1" />
		<edge from-layer="268" from-port="2" to-layer="270" to-port="0" />
		<edge from-layer="269" from-port="0" to-layer="270" to-port="1" />
		<edge from-layer="270" from-port="2" to-layer="271" to-port="1" />
		<edge from-layer="271" from-port="2" to-layer="272" to-port="0" />
		<edge from-layer="272" from-port="3" to-layer="273" to-port="1" />
		<edge from-layer="273" from-port="2" to-layer="274" to-port="0" />
		<edge from-layer="274" from-port="1" to-layer="275" to-port="1" />
		<edge from-layer="275" from-port="2" to-layer="279" to-port="2" />
		<edge from-layer="275" from-port="2" to-layer="276" to-port="0" />
		<edge from-layer="276" from-port="1" to-layer="277" to-port="0" />
		<edge from-layer="277" from-port="1" to-layer="279" to-port="0" />
		<edge from-layer="278" from-port="0" to-layer="279" to-port="1" />
		<edge from-layer="279" from-port="3" to-layer="280" to-port="1" />
		<edge from-layer="279" from-port="3" to-layer="521" to-port="1" />
		<edge from-layer="280" from-port="2" to-layer="288" to-port="0" />
		<edge from-layer="281" from-port="0" to-layer="282" to-port="1" />
		<edge from-layer="282" from-port="2" to-layer="287" to-port="0" />
		<edge from-layer="283" from-port="0" to-layer="284" to-port="1" />
		<edge from-layer="284" from-port="2" to-layer="287" to-port="1" />
		<edge from-layer="285" from-port="0" to-layer="286" to-port="1" />
		<edge from-layer="286" from-port="2" to-layer="287" to-port="2" />
		<edge from-layer="287" from-port="3" to-layer="288" to-port="1" />
		<edge from-layer="288" from-port="2" to-layer="289" to-port="0" />
		<edge from-layer="289" from-port="1" to-layer="296" to-port="0" />
		<edge from-layer="290" from-port="0" to-layer="291" to-port="1" />
		<edge from-layer="291" from-port="2" to-layer="294" to-port="0" />
		<edge from-layer="292" from-port="0" to-layer="294" to-port="1" />
		<edge from-layer="293" from-port="0" to-layer="294" to-port="2" />
		<edge from-layer="294" from-port="3" to-layer="295" to-port="1" />
		<edge from-layer="295" from-port="2" to-layer="296" to-port="1" />
		<edge from-layer="296" from-port="2" to-layer="304" to-port="0" />
		<edge from-layer="297" from-port="0" to-layer="298" to-port="1" />
		<edge from-layer="298" from-port="2" to-layer="303" to-port="0" />
		<edge from-layer="299" from-port="0" to-layer="303" to-port="1" />
		<edge from-layer="300" from-port="0" to-layer="301" to-port="1" />
		<edge from-layer="301" from-port="2" to-layer="303" to-port="2" />
		<edge from-layer="302" from-port="0" to-layer="303" to-port="3" />
		<edge from-layer="303" from-port="4" to-layer="304" to-port="1" />
		<edge from-layer="304" from-port="2" to-layer="306" to-port="0" />
		<edge from-layer="305" from-port="0" to-layer="306" to-port="1" />
		<edge from-layer="306" from-port="2" to-layer="313" to-port="0" />
		<edge from-layer="307" from-port="0" to-layer="308" to-port="1" />
		<edge from-layer="308" from-port="2" to-layer="312" to-port="0" />
		<edge from-layer="309" from-port="0" to-layer="310" to-port="1" />
		<edge from-layer="310" from-port="2" to-layer="312" to-port="1" />
		<edge from-layer="311" from-port="0" to-layer="312" to-port="2" />
		<edge from-layer="312" from-port="3" to-layer="313" to-port="1" />
		<edge from-layer="313" from-port="2" to-layer="315" to-port="0" />
		<edge from-layer="314" from-port="0" to-layer="315" to-port="1" />
		<edge from-layer="315" from-port="2" to-layer="316" to-port="1" />
		<edge from-layer="316" from-port="2" to-layer="317" to-port="1" />
		<edge from-layer="317" from-port="2" to-layer="321" to-port="0" />
		<edge from-layer="317" from-port="2" to-layer="346" to-port="0" />
		<edge from-layer="317" from-port="2" to-layer="320" to-port="0" />
		<edge from-layer="318" from-port="0" to-layer="334" to-port="0" />
		<edge from-layer="318" from-port="0" to-layer="574" to-port="0" />
		<edge from-layer="319" from-port="0" to-layer="320" to-port="1" />
		<edge from-layer="320" from-port="2" to-layer="321" to-port="1" />
		<edge from-layer="321" from-port="2" to-layer="323" to-port="0" />
		<edge from-layer="321" from-port="2" to-layer="329" to-port="0" />
		<edge from-layer="322" from-port="0" to-layer="323" to-port="1" />
		<edge from-layer="323" from-port="2" to-layer="325" to-port="0" />
		<edge from-layer="324" from-port="0" to-layer="325" to-port="1" />
		<edge from-layer="325" from-port="2" to-layer="327" to-port="0" />
		<edge from-layer="326" from-port="0" to-layer="327" to-port="1" />
		<edge from-layer="327" from-port="2" to-layer="328" to-port="0" />
		<edge from-layer="328" from-port="1" to-layer="329" to-port="1" />
		<edge from-layer="329" from-port="2" to-layer="330" to-port="0" />
		<edge from-layer="330" from-port="2" to-layer="331" to-port="0" />
		<edge from-layer="331" from-port="2" to-layer="333" to-port="0" />
		<edge from-layer="332" from-port="0" to-layer="333" to-port="1" />
		<edge from-layer="333" from-port="2" to-layer="334" to-port="1" />
		<edge from-layer="334" from-port="2" to-layer="336" to-port="0" />
		<edge from-layer="334" from-port="2" to-layer="340" to-port="0" />
		<edge from-layer="335" from-port="0" to-layer="336" to-port="1" />
		<edge from-layer="336" from-port="2" to-layer="337" to-port="0" />
		<edge from-layer="337" from-port="1" to-layer="339" to-port="0" />
		<edge from-layer="338" from-port="0" to-layer="339" to-port="1" />
		<edge from-layer="339" from-port="2" to-layer="340" to-port="1" />
		<edge from-layer="340" from-port="2" to-layer="342" to-port="0" />
		<edge from-layer="341" from-port="0" to-layer="342" to-port="1" />
		<edge from-layer="342" from-port="2" to-layer="344" to-port="0" />
		<edge from-layer="343" from-port="0" to-layer="344" to-port="1" />
		<edge from-layer="344" from-port="2" to-layer="345" to-port="1" />
		<edge from-layer="345" from-port="2" to-layer="346" to-port="1" />
		<edge from-layer="346" from-port="2" to-layer="456" to-port="0" />
		<edge from-layer="346" from-port="2" to-layer="348" to-port="0" />
		<edge from-layer="346" from-port="2" to-layer="349" to-port="0" />
		<edge from-layer="347" from-port="0" to-layer="348" to-port="1" />
		<edge from-layer="348" from-port="2" to-layer="349" to-port="1" />
		<edge from-layer="349" from-port="2" to-layer="351" to-port="0" />
		<edge from-layer="349" from-port="2" to-layer="357" to-port="0" />
		<edge from-layer="350" from-port="0" to-layer="351" to-port="1" />
		<edge from-layer="351" from-port="2" to-layer="353" to-port="0" />
		<edge from-layer="352" from-port="0" to-layer="353" to-port="1" />
		<edge from-layer="353" from-port="2" to-layer="355" to-port="0" />
		<edge from-layer="354" from-port="0" to-layer="355" to-port="1" />
		<edge from-layer="355" from-port="2" to-layer="356" to-port="0" />
		<edge from-layer="356" from-port="1" to-layer="357" to-port="1" />
		<edge from-layer="357" from-port="2" to-layer="358" to-port="0" />
		<edge from-layer="358" from-port="2" to-layer="359" to-port="0" />
		<edge from-layer="359" from-port="2" to-layer="379" to-port="0" />
		<edge from-layer="359" from-port="2" to-layer="361" to-port="0" />
		<edge from-layer="359" from-port="2" to-layer="363" to-port="0" />
		<edge from-layer="359" from-port="2" to-layer="401" to-port="0" />
		<edge from-layer="359" from-port="2" to-layer="395" to-port="0" />
		<edge from-layer="360" from-port="0" to-layer="361" to-port="1" />
		<edge from-layer="361" from-port="2" to-layer="362" to-port="1" />
		<edge from-layer="362" from-port="2" to-layer="373" to-port="0" />
		<edge from-layer="363" from-port="1" to-layer="366" to-port="0" />
		<edge from-layer="364" from-port="0" to-layer="366" to-port="1" />
		<edge from-layer="365" from-port="0" to-layer="366" to-port="2" />
		<edge from-layer="366" from-port="3" to-layer="400" to-port="0" />
		<edge from-layer="366" from-port="3" to-layer="414" to-port="0" />
		<edge from-layer="366" from-port="3" to-layer="437" to-port="0" />
		<edge from-layer="366" from-port="3" to-layer="447" to-port="0" />
		<edge from-layer="366" from-port="3" to-layer="368" to-port="0" />
		<edge from-layer="366" from-port="3" to-layer="382" to-port="0" />
		<edge from-layer="367" from-port="0" to-layer="368" to-port="1" />
		<edge from-layer="368" from-port="2" to-layer="372" to-port="0" />
		<edge from-layer="369" from-port="0" to-layer="372" to-port="1" />
		<edge from-layer="370" from-port="0" to-layer="372" to-port="2" />
		<edge from-layer="371" from-port="0" to-layer="372" to-port="3" />
		<edge from-layer="372" from-port="4" to-layer="373" to-port="1" />
		<edge from-layer="373" from-port="2" to-layer="375" to-port="0" />
		<edge from-layer="374" from-port="0" to-layer="375" to-port="1" />
		<edge from-layer="375" from-port="2" to-layer="376" to-port="1" />
		<edge from-layer="376" from-port="2" to-layer="434" to-port="0" />
		<edge from-layer="376" from-port="2" to-layer="377" to-port="0" />
		<edge from-layer="378" from-port="0" to-layer="379" to-port="1" />
		<edge from-layer="379" from-port="2" to-layer="380" to-port="1" />
		<edge from-layer="380" from-port="2" to-layer="387" to-port="0" />
		<edge from-layer="381" from-port="0" to-layer="382" to-port="1" />
		<edge from-layer="382" from-port="2" to-layer="386" to-port="0" />
		<edge from-layer="383" from-port="0" to-layer="386" to-port="1" />
		<edge from-layer="384" from-port="0" to-layer="386" to-port="2" />
		<edge from-layer="385" from-port="0" to-layer="386" to-port="3" />
		<edge from-layer="386" from-port="4" to-layer="387" to-port="1" />
		<edge from-layer="387" from-port="2" to-layer="389" to-port="0" />
		<edge from-layer="388" from-port="0" to-layer="389" to-port="1" />
		<edge from-layer="389" from-port="2" to-layer="390" to-port="1" />
		<edge from-layer="390" from-port="2" to-layer="426" to-port="0" />
		<edge from-layer="390" from-port="2" to-layer="391" to-port="0" />
		<edge from-layer="394" from-port="0" to-layer="395" to-port="1" />
		<edge from-layer="395" from-port="2" to-layer="396" to-port="1" />
		<edge from-layer="396" from-port="2" to-layer="398" to-port="0" />
		<edge from-layer="397" from-port="0" to-layer="398" to-port="1" />
		<edge from-layer="398" from-port="2" to-layer="410" to-port="0" />
		<edge from-layer="399" from-port="0" to-layer="400" to-port="1" />
		<edge from-layer="400" from-port="2" to-layer="409" to-port="0" />
		<edge from-layer="401" from-port="1" to-layer="404" to-port="0" />
		<edge from-layer="402" from-port="0" to-layer="404" to-port="1" />
		<edge from-layer="403" from-port="0" to-layer="404" to-port="2" />
		<edge from-layer="404" from-port="3" to-layer="449" to-port="0" />
		<edge from-layer="404" from-port="3" to-layer="440" to-port="0" />
		<edge from-layer="404" from-port="3" to-layer="406" to-port="0" />
		<edge from-layer="405" from-port="0" to-layer="406" to-port="1" />
		<edge from-layer="406" from-port="2" to-layer="409" to-port="1" />
		<edge from-layer="407" from-port="0" to-layer="409" to-port="2" />
		<edge from-layer="408" from-port="0" to-layer="409" to-port="3" />
		<edge from-layer="409" from-port="4" to-layer="410" to-port="1" />
		<edge from-layer="410" from-port="2" to-layer="412" to-port="0" />
		<edge from-layer="411" from-port="0" to-layer="412" to-port="1" />
		<edge from-layer="412" from-port="2" to-layer="420" to-port="0" />
		<edge from-layer="413" from-port="0" to-layer="414" to-port="1" />
		<edge from-layer="414" from-port="2" to-layer="430" to-port="0" />
		<edge from-layer="414" from-port="2" to-layer="422" to-port="0" />
		<edge from-layer="414" from-port="2" to-layer="416" to-port="0" />
		<edge from-layer="415" from-port="0" to-layer="416" to-port="1" />
		<edge from-layer="416" from-port="2" to-layer="419" to-port="0" />
		<edge from-layer="417" from-port="0" to-layer="419" to-port="1" />
		<edge from-layer="418" from-port="0" to-layer="419" to-port="2" />
		<edge from-layer="419" from-port="3" to-layer="420" to-port="1" />
		<edge from-layer="420" from-port="2" to-layer="427" to-port="0" />
		<edge from-layer="421" from-port="0" to-layer="422" to-port="1" />
		<edge from-layer="422" from-port="2" to-layer="425" to-port="0" />
		<edge from-layer="423" from-port="0" to-layer="425" to-port="1" />
		<edge from-layer="424" from-port="0" to-layer="425" to-port="2" />
		<edge from-layer="425" from-port="3" to-layer="426" to-port="1" />
		<edge from-layer="426" from-port="2" to-layer="427" to-port="1" />
		<edge from-layer="427" from-port="2" to-layer="428" to-port="0" />
		<edge from-layer="428" from-port="1" to-layer="435" to-port="0" />
		<edge from-layer="429" from-port="0" to-layer="430" to-port="1" />
		<edge from-layer="430" from-port="2" to-layer="433" to-port="0" />
		<edge from-layer="431" from-port="0" to-layer="433" to-port="1" />
		<edge from-layer="432" from-port="0" to-layer="433" to-port="2" />
		<edge from-layer="433" from-port="3" to-layer="434" to-port="1" />
		<edge from-layer="434" from-port="2" to-layer="435" to-port="1" />
		<edge from-layer="435" from-port="2" to-layer="443" to-port="0" />
		<edge from-layer="436" from-port="0" to-layer="437" to-port="1" />
		<edge from-layer="437" from-port="2" to-layer="442" to-port="0" />
		<edge from-layer="438" from-port="0" to-layer="442" to-port="1" />
		<edge from-layer="439" from-port="0" to-layer="440" to-port="1" />
		<edge from-layer="440" from-port="2" to-layer="442" to-port="2" />
		<edge from-layer="441" from-port="0" to-layer="442" to-port="3" />
		<edge from-layer="442" from-port="4" to-layer="443" to-port="1" />
		<edge from-layer="443" from-port="2" to-layer="445" to-port="0" />
		<edge from-layer="444" from-port="0" to-layer="445" to-port="1" />
		<edge from-layer="445" from-port="2" to-layer="452" to-port="0" />
		<edge from-layer="446" from-port="0" to-layer="447" to-port="1" />
		<edge from-layer="447" from-port="2" to-layer="451" to-port="0" />
		<edge from-layer="448" from-port="0" to-layer="449" to-port="1" />
		<edge from-layer="449" from-port="2" to-layer="451" to-port="1" />
		<edge from-layer="450" from-port="0" to-layer="451" to-port="2" />
		<edge from-layer="451" from-port="3" to-layer="452" to-port="1" />
		<edge from-layer="452" from-port="2" to-layer="454" to-port="0" />
		<edge from-layer="453" from-port="0" to-layer="454" to-port="1" />
		<edge from-layer="454" from-port="2" to-layer="455" to-port="1" />
		<edge from-layer="455" from-port="2" to-layer="456" to-port="1" />
		<edge from-layer="456" from-port="2" to-layer="558" to-port="0" />
		<edge from-layer="456" from-port="2" to-layer="459" to-port="0" />
		<edge from-layer="456" from-port="2" to-layer="458" to-port="0" />
		<edge from-layer="457" from-port="0" to-layer="458" to-port="1" />
		<edge from-layer="458" from-port="2" to-layer="459" to-port="1" />
		<edge from-layer="459" from-port="2" to-layer="467" to-port="0" />
		<edge from-layer="459" from-port="2" to-layer="461" to-port="0" />
		<edge from-layer="460" from-port="0" to-layer="461" to-port="1" />
		<edge from-layer="461" from-port="2" to-layer="463" to-port="0" />
		<edge from-layer="462" from-port="0" to-layer="463" to-port="1" />
		<edge from-layer="463" from-port="2" to-layer="465" to-port="0" />
		<edge from-layer="464" from-port="0" to-layer="465" to-port="1" />
		<edge from-layer="465" from-port="2" to-layer="466" to-port="0" />
		<edge from-layer="466" from-port="1" to-layer="467" to-port="1" />
		<edge from-layer="467" from-port="2" to-layer="468" to-port="0" />
		<edge from-layer="468" from-port="2" to-layer="469" to-port="0" />
		<edge from-layer="469" from-port="2" to-layer="471" to-port="0" />
		<edge from-layer="469" from-port="2" to-layer="481" to-port="0" />
		<edge from-layer="469" from-port="2" to-layer="475" to-port="0" />
		<edge from-layer="470" from-port="0" to-layer="471" to-port="1" />
		<edge from-layer="471" from-port="2" to-layer="472" to-port="1" />
		<edge from-layer="472" from-port="2" to-layer="474" to-port="0" />
		<edge from-layer="473" from-port="0" to-layer="474" to-port="1" />
		<edge from-layer="474" from-port="2" to-layer="490" to-port="0" />
		<edge from-layer="475" from-port="1" to-layer="478" to-port="0" />
		<edge from-layer="476" from-port="0" to-layer="478" to-port="1" />
		<edge from-layer="477" from-port="0" to-layer="478" to-port="2" />
		<edge from-layer="478" from-port="3" to-layer="549" to-port="0" />
		<edge from-layer="478" from-port="3" to-layer="494" to-port="0" />
		<edge from-layer="478" from-port="3" to-layer="539" to-port="0" />
		<edge from-layer="478" from-port="3" to-layer="480" to-port="0" />
		<edge from-layer="478" from-port="3" to-layer="509" to-port="0" />
		<edge from-layer="479" from-port="0" to-layer="480" to-port="1" />
		<edge from-layer="480" from-port="2" to-layer="489" to-port="0" />
		<edge from-layer="481" from-port="1" to-layer="484" to-port="0" />
		<edge from-layer="482" from-port="0" to-layer="484" to-port="1" />
		<edge from-layer="483" from-port="0" to-layer="484" to-port="2" />
		<edge from-layer="484" from-port="3" to-layer="542" to-port="0" />
		<edge from-layer="484" from-port="3" to-layer="551" to-port="0" />
		<edge from-layer="484" from-port="3" to-layer="486" to-port="0" />
		<edge from-layer="484" from-port="3" to-layer="525" to-port="0" />
		<edge from-layer="484" from-port="3" to-layer="512" to-port="0" />
		<edge from-layer="485" from-port="0" to-layer="486" to-port="1" />
		<edge from-layer="486" from-port="2" to-layer="489" to-port="1" />
		<edge from-layer="487" from-port="0" to-layer="489" to-port="2" />
		<edge from-layer="488" from-port="0" to-layer="489" to-port="3" />
		<edge from-layer="489" from-port="4" to-layer="490" to-port="1" />
		<edge from-layer="490" from-port="2" to-layer="492" to-port="0" />
		<edge from-layer="491" from-port="0" to-layer="492" to-port="1" />
		<edge from-layer="492" from-port="2" to-layer="500" to-port="0" />
		<edge from-layer="493" from-port="0" to-layer="494" to-port="1" />
		<edge from-layer="494" from-port="2" to-layer="502" to-port="0" />
		<edge from-layer="494" from-port="2" to-layer="496" to-port="0" />
		<edge from-layer="494" from-port="2" to-layer="532" to-port="0" />
		<edge from-layer="494" from-port="2" to-layer="523" to-port="0" />
		<edge from-layer="495" from-port="0" to-layer="496" to-port="1" />
		<edge from-layer="496" from-port="2" to-layer="499" to-port="0" />
		<edge from-layer="497" from-port="0" to-layer="499" to-port="1" />
		<edge from-layer="498" from-port="0" to-layer="499" to-port="2" />
		<edge from-layer="499" from-port="3" to-layer="500" to-port="1" />
		<edge from-layer="500" from-port="2" to-layer="507" to-port="0" />
		<edge from-layer="501" from-port="0" to-layer="502" to-port="1" />
		<edge from-layer="502" from-port="2" to-layer="505" to-port="0" />
		<edge from-layer="503" from-port="0" to-layer="505" to-port="1" />
		<edge from-layer="504" from-port="0" to-layer="505" to-port="2" />
		<edge from-layer="505" from-port="3" to-layer="506" to-port="1" />
		<edge from-layer="506" from-port="2" to-layer="513" to-port="0" />
		<edge from-layer="506" from-port="2" to-layer="507" to-port="1" />
		<edge from-layer="507" from-port="2" to-layer="520" to-port="0" />
		<edge from-layer="508" from-port="0" to-layer="509" to-port="1" />
		<edge from-layer="509" from-port="2" to-layer="519" to-port="0" />
		<edge from-layer="510" from-port="0" to-layer="519" to-port="1" />
		<edge from-layer="511" from-port="0" to-layer="512" to-port="1" />
		<edge from-layer="512" from-port="2" to-layer="519" to-port="2" />
		<edge from-layer="513" from-port="1" to-layer="516" to-port="0" />
		<edge from-layer="514" from-port="0" to-layer="516" to-port="1" />
		<edge from-layer="515" from-port="0" to-layer="516" to-port="2" />
		<edge from-layer="516" from-port="3" to-layer="518" to-port="0" />
		<edge from-layer="516" from-port="3" to-layer="527" to-port="0" />
		<edge from-layer="517" from-port="0" to-layer="518" to-port="1" />
		<edge from-layer="518" from-port="2" to-layer="519" to-port="3" />
		<edge from-layer="519" from-port="4" to-layer="520" to-port="1" />
		<edge from-layer="520" from-port="2" to-layer="521" to-port="0" />
		<edge from-layer="521" from-port="2" to-layer="529" to-port="0" />
		<edge from-layer="522" from-port="0" to-layer="523" to-port="1" />
		<edge from-layer="523" from-port="2" to-layer="528" to-port="0" />
		<edge from-layer="524" from-port="0" to-layer="525" to-port="1" />
		<edge from-layer="525" from-port="2" to-layer="528" to-port="1" />
		<edge from-layer="526" from-port="0" to-layer="527" to-port="1" />
		<edge from-layer="527" from-port="2" to-layer="528" to-port="2" />
		<edge from-layer="528" from-port="3" to-layer="529" to-port="1" />
		<edge from-layer="529" from-port="2" to-layer="530" to-port="0" />
		<edge from-layer="530" from-port="1" to-layer="537" to-port="0" />
		<edge from-layer="531" from-port="0" to-layer="532" to-port="1" />
		<edge from-layer="532" from-port="2" to-layer="535" to-port="0" />
		<edge from-layer="533" from-port="0" to-layer="535" to-port="1" />
		<edge from-layer="534" from-port="0" to-layer="535" to-port="2" />
		<edge from-layer="535" from-port="3" to-layer="536" to-port="1" />
		<edge from-layer="536" from-port="2" to-layer="537" to-port="1" />
		<edge from-layer="537" from-port="2" to-layer="545" to-port="0" />
		<edge from-layer="538" from-port="0" to-layer="539" to-port="1" />
		<edge from-layer="539" from-port="2" to-layer="544" to-port="0" />
		<edge from-layer="540" from-port="0" to-layer="544" to-port="1" />
		<edge from-layer="541" from-port="0" to-layer="542" to-port="1" />
		<edge from-layer="542" from-port="2" to-layer="544" to-port="2" />
		<edge from-layer="543" from-port="0" to-layer="544" to-port="3" />
		<edge from-layer="544" from-port="4" to-layer="545" to-port="1" />
		<edge from-layer="545" from-port="2" to-layer="547" to-port="0" />
		<edge from-layer="546" from-port="0" to-layer="547" to-port="1" />
		<edge from-layer="547" from-port="2" to-layer="554" to-port="0" />
		<edge from-layer="548" from-port="0" to-layer="549" to-port="1" />
		<edge from-layer="549" from-port="2" to-layer="553" to-port="0" />
		<edge from-layer="550" from-port="0" to-layer="551" to-port="1" />
		<edge from-layer="551" from-port="2" to-layer="553" to-port="1" />
		<edge from-layer="552" from-port="0" to-layer="553" to-port="2" />
		<edge from-layer="553" from-port="3" to-layer="554" to-port="1" />
		<edge from-layer="554" from-port="2" to-layer="556" to-port="0" />
		<edge from-layer="555" from-port="0" to-layer="556" to-port="1" />
		<edge from-layer="556" from-port="2" to-layer="557" to-port="1" />
		<edge from-layer="557" from-port="2" to-layer="558" to-port="1" />
		<edge from-layer="558" from-port="2" to-layer="561" to-port="0" />
		<edge from-layer="558" from-port="2" to-layer="586" to-port="0" />
		<edge from-layer="558" from-port="2" to-layer="560" to-port="0" />
		<edge from-layer="559" from-port="0" to-layer="560" to-port="1" />
		<edge from-layer="560" from-port="2" to-layer="561" to-port="1" />
		<edge from-layer="561" from-port="2" to-layer="569" to-port="0" />
		<edge from-layer="561" from-port="2" to-layer="563" to-port="0" />
		<edge from-layer="562" from-port="0" to-layer="563" to-port="1" />
		<edge from-layer="563" from-port="2" to-layer="565" to-port="0" />
		<edge from-layer="564" from-port="0" to-layer="565" to-port="1" />
		<edge from-layer="565" from-port="2" to-layer="567" to-port="0" />
		<edge from-layer="566" from-port="0" to-layer="567" to-port="1" />
		<edge from-layer="567" from-port="2" to-layer="568" to-port="0" />
		<edge from-layer="568" from-port="1" to-layer="569" to-port="1" />
		<edge from-layer="569" from-port="2" to-layer="570" to-port="0" />
		<edge from-layer="570" from-port="2" to-layer="571" to-port="0" />
		<edge from-layer="571" from-port="2" to-layer="573" to-port="0" />
		<edge from-layer="572" from-port="0" to-layer="573" to-port="1" />
		<edge from-layer="573" from-port="2" to-layer="574" to-port="1" />
		<edge from-layer="574" from-port="2" to-layer="576" to-port="0" />
		<edge from-layer="574" from-port="2" to-layer="580" to-port="0" />
		<edge from-layer="575" from-port="0" to-layer="576" to-port="1" />
		<edge from-layer="576" from-port="2" to-layer="577" to-port="0" />
		<edge from-layer="577" from-port="1" to-layer="579" to-port="0" />
		<edge from-layer="578" from-port="0" to-layer="579" to-port="1" />
		<edge from-layer="579" from-port="2" to-layer="580" to-port="1" />
		<edge from-layer="580" from-port="2" to-layer="582" to-port="0" />
		<edge from-layer="581" from-port="0" to-layer="582" to-port="1" />
		<edge from-layer="582" from-port="2" to-layer="584" to-port="0" />
		<edge from-layer="583" from-port="0" to-layer="584" to-port="1" />
		<edge from-layer="584" from-port="2" to-layer="585" to-port="1" />
		<edge from-layer="585" from-port="2" to-layer="586" to-port="1" />
		<edge from-layer="586" from-port="2" to-layer="588" to-port="0" />
		<edge from-layer="586" from-port="2" to-layer="589" to-port="0" />
		<edge from-layer="587" from-port="0" to-layer="588" to-port="1" />
		<edge from-layer="588" from-port="2" to-layer="589" to-port="1" />
		<edge from-layer="589" from-port="2" to-layer="591" to-port="0" />
		<edge from-layer="589" from-port="2" to-layer="597" to-port="0" />
		<edge from-layer="590" from-port="0" to-layer="591" to-port="1" />
		<edge from-layer="591" from-port="2" to-layer="593" to-port="0" />
		<edge from-layer="592" from-port="0" to-layer="593" to-port="1" />
		<edge from-layer="593" from-port="2" to-layer="595" to-port="0" />
		<edge from-layer="594" from-port="0" to-layer="595" to-port="1" />
		<edge from-layer="595" from-port="2" to-layer="596" to-port="0" />
		<edge from-layer="596" from-port="1" to-layer="597" to-port="1" />
		<edge from-layer="597" from-port="2" to-layer="598" to-port="0" />
		<edge from-layer="598" from-port="2" to-layer="599" to-port="0" />
		<edge from-layer="599" from-port="2" to-layer="601" to-port="0" />
		<edge from-layer="600" from-port="0" to-layer="601" to-port="1" />
		<edge from-layer="601" from-port="2" to-layer="603" to-port="0" />
		<edge from-layer="602" from-port="0" to-layer="603" to-port="1" />
		<edge from-layer="603" from-port="2" to-layer="604" to-port="0" />
	</edges>
	<rt_info />
</net>
