<?xml version="1.0"?>
<net name="torch_jit" version="11">
	<layers>
		<layer id="1" name="input_ids" type="Parameter" version="opset1">
			<data shape="?,?" element_type="i64" />
			<rt_info>
				<attribute name="fused_names" version="0" value="input_ids" />
			</rt_info>
			<output>
				<port id="0" precision="I64" names="input_ids">
					<dim>-1</dim>
					<dim>-1</dim>
				</port>
			</output>
		</layer>
		<layer id="0" name="attention_mask" type="Parameter" version="opset1">
			<data shape="?,?" element_type="i64" />
			<rt_info>
				<attribute name="fused_names" version="0" value="attention_mask" />
			</rt_info>
			<output>
				<port id="0" precision="I64" names="attention_mask">
					<dim>-1</dim>
					<dim>-1</dim>
				</port>
			</output>
		</layer>
		<layer id="2" name="embed_tokens.weight" type="Const" version="opset1">
			<data element_type="f32" shape="1000, 16" offset="0" size="64000" />
			<rt_info>
				<attribute name="fused_names" version="0" value="embed_tokens.weight" />
			</rt_info>
			<output>
				<port id="0" precision="FP32" names="embed_tokens.weight">
					<dim>1000</dim>
					<dim>16</dim>
				</port>
			</output>
		</layer>
		<layer id="3" name="/Constant_1" type="Const" version="opset1">
			<data element_type="i64" shape="1" offset="64000" size="8" />
			<rt_info>
				<attribute name="fused_names" version="0" value="/Constant_1" />
			</rt_info>
			<output>
				<port id="0" precision="I64" names="/Constant_1_output_0">
					<dim>1</dim>
				</port>
			</output>
		</layer>
		<layer id="4" name="/Shape" type="ShapeOf" version="opset3">
			<data output_type="i64" />
			<rt_info>
				<attribute name="fused_names" version="0" value="/Shape" />
			</rt_info>
			<input>
				<port id="0" precision="I64">
					<dim>-1</dim>
					<dim>-1</dim>
				</port>
			</input>
			<output>
				<port id="1" precision="I64" names="/Shape_output_0">
					<dim>2</dim>
				</port>
			</output>
		</layer>
		<layer id="5" name="/Constant" type="Const" version="opset1">
			<data element_type="i64" shape="" offset="64008" size="8" />
			<rt_info>
				<attribute name="fused_names" version="0" value="/Constant" />
			</rt_info>
			<output>
				<port id="0" precision="I64" names="/Constant_output_0" />
			</output>
		</layer>
		<layer id="6" name="Constant_4728928" type="Const" version="opset1">
			<data element_type="i64" shape="" offset="64016" size="8" />
			<rt_info>
				<attribute name="fused_names" version="0" value="Constant_4728928" />
			</rt_info>
			<output>
				<port id="0" precision="I64" />
			</output>
		</layer>
		<layer id="7" name="/Gather" type="Gather" version="opset8">
			<data batch_dims="0" />
			<rt_info>
				<attribute name="fused_names" version="0" value="/Constant, /Gather, Constant_4728928" />
			</rt_info>
			<input>
				<port id="0" precision="I64">
					<dim>2</dim>
				</port>
				<port id="1" precision="I64" />
				<port id="2" precision="I64" />
			</input>
			<output>
				<port id="3" precision="I64" names="/Gather_output_0" />
			</output>
		</layer>
		<layer id="8" name="Constant_4728931" type="Const" version="opset1">
			<data element_type="i64" shape="1" offset="64016" size="8" />
			<rt_info>
				<attribute name="fused_names" version="0" value="Constant_4728931" />
			</rt_info>
			<output>
				<port id="0" precision="I64">
					<dim>1</dim>
				</port>
			</output>
		</layer>
		<layer id="9" name="/Unsqueeze" type="Unsqueeze" version="opset1">
			<rt_info>
				<attribute name="fused_names" version="0" value="/Unsqueeze, Constant_4728931" />
			</rt_info>
			<input>
				<port id="0" precision="I64" />
				<port id="1" precision="I64">
					<dim>1</dim>
				</port>
			</input>
			<output>
				<port id="2" precision="I64" names="/Unsqueeze_output_0">
					<dim>1</dim>
				</port>
			</output>
		</layer>
		<layer id="10" name="/Concat" type="Concat" version="opset1">
			<data axis="0" />
			<rt_info>
				<attribute name="fused_names" version="0" value="/Concat, /Constant_1" />
			</rt_info>
			<input>
				<port id="0" precision="I64">
					<dim>1</dim>
				</port>
				<port id="1" precision="I64">
					<dim>1</dim>
				</port>
			</input>
			<output>
				<port id="2" precision="I64" names="/Concat_output_0">
					<dim>2</dim>
				</port>
			</output>
		</layer>
		<layer id="11" name="/Reshape" type="Reshape" version="opset1">
			<data special_zero="true" />
			<rt_info>
				<attribute name="fused_names" version="0" value="/Reshape" />
			</rt_info>
			<input>
				<port id="0" precision="I64">
					<dim>-1</dim>
					<dim>-1</dim>
				</port>
				<port id="1" precision="I64">
					<dim>2</dim>
				</port>
			</input>
			<output>
				<port id="2" precision="I64" names="/Reshape_output_0">
					<dim>-1</dim>
					<dim>-1</dim>
				</port>
			</output>
		</layer>
		<layer id="12" name="Constant_4728941" type="Const" version="opset1">
			<data element_type="i64" shape="" offset="64016" size="8" />
			<rt_info>
				<attribute name="fused_names" version="0" value="Constant_4728941" />
			</rt_info>
			<output>
				<port id="0" precision="I64" />
			</output>
		</layer>
		<layer id="13" name="/embed_tokens/Gather" type="Gather" version="opset8">
			<data batch_dims="0" />
			<rt_info>
				<attribute name="fused_names" version="0" value="/embed_tokens/Gather" />
			</rt_info>
			<input>
				<port id="0" precision="FP32">
					<dim>1000</dim>
					<dim>16</dim>
				</port>
				<port id="1" precision="I64">
					<dim>-1</dim>
					<dim>-1</dim>
				</port>
				<port id="2" precision="I64" />
			</input>
			<output>
				<port id="3" precision="FP32" names="/embed_tokens/Gather_output_0">
					<dim>-1</dim>
					<dim>-1</dim>
					<dim>16</dim>
				</port>
			</output>
		</layer>
		<layer id="14" name="/Constant_2" type="Const" version="opset1">
			<data element_type="f32" shape="" offset="64024" size="4" />
			<rt_info>
				<attribute name="fused_names" version="0" value="/Constant_2" />
			</rt_info>
			<output>
				<port id="0" precision="FP32" names="/Constant_2_output_0" />
			</output>
		</layer>
		<layer id="15" name="/Mul" type="Multiply" version="opset1">
			<data auto_broadcast="numpy" />
			<rt_info>
				<attribute name="fused_names" version="0" value="/Mul" />
			</rt_info>
			<input>
				<port id="0" precision="FP32">
					<dim>-1</dim>
					<dim>-1</dim>
					<dim>16</dim>
				</port>
				<port id="1" precision="FP32" />
			</input>
			<output>
				<port id="2" precision="FP32" names="/Mul_output_0">
					<dim>-1</dim>
					<dim>-1</dim>
					<dim>16</dim>
				</port>
			</output>
		</layer>
		<layer id="16" name="embed_positions.weight" type="Const" version="opset1">
			<data element_type="f32" shape="102, 16" offset="64028" size="6528" />
			<rt_info>
				<attribute name="fused_names" version="0" value="embed_positions.weight" />
			</rt_info>
			<output>
				<port id="0" precision="FP32" names="embed_positions.weight">
					<dim>102</dim>
					<dim>16</dim>
				</port>
			</output>
		</layer>
		<layer id="17" name="/embed_positions/Constant_1" type="Const" version="opset1">
			<data element_type="i64" shape="" offset="64016" size="8" />
			<rt_info>
				<attribute name="fused_names" version="0" value="/embed_positions/Constant_1" />
			</rt_info>
			<output>
				<port id="0" precision="I64" names="/embed_positions/Constant_1_output_0" />
			</output>
		</layer>
		<layer id="18" name="/embed_positions/Cast" type="Convert" version="opset1">
			<data destination_type="i64" />
			<rt_info>
				<attribute name="fused_names" version="0" value="/embed_positions/Cast" />
			</rt_info>
			<input>
				<port id="0" precision="I64" />
			</input>
			<output>
				<port id="1" precision="I64" names="/embed_positions/Cast_output_0" />
			</output>
		</layer>
		<layer id="19" name="/embed_positions/Constant_2" type="Const" version="opset1">
			<data element_type="i64" shape="" offset="64008" size="8" />
			<rt_info>
				<attribute name="fused_names" version="0" value="/embed_positions/Constant_2" />
			</rt_info>
			<output>
				<port id="0" precision="I64" names="/embed_positions/Constant_2_output_0" />
			</output>
		</layer>
		<layer id="20" name="/embed_positions/Range" type="Range" version="opset4">
			<data output_type="i64" />
			<rt_info>
				<attribute name="fused_names" version="0" value="/embed_positions/Range" />
			</rt_info>
			<input>
				<port id="0" precision="I64" />
				<port id="1" precision="I64" />
				<port id="2" precision="I64" />
			</input>
			<output>
				<port id="3" precision="I64" names="/embed_positions/Range_output_0">
					<dim>-1</dim>
				</port>
			</output>
		</layer>
		<layer id="21" name="/embed_positions/Shape" type="ShapeOf" version="opset3">
			<data output_type="i64" />
			<rt_info>
				<attribute name="fused_names" version="0" value="/embed_positions/Shape" />
			</rt_info>
			<input>
				<port id="0" precision="I64">
					<dim>-1</dim>
					<dim>-1</dim>
				</port>
			</input>
			<output>
				<port id="1" precision="I64" names="/embed_positions/Shape_output_0">
					<dim>2</dim>
				</port>
			</output>
		</layer>
		<layer id="22" name="/embed_positions/Constant" type="Const" version="opset1">
			<data element_type="i64" shape="" offset="64016" size="8" />
			<rt_info>
				<attribute name="fused_names" version="0" value="/embed_positions/Constant" />
			</rt_info>
			<output>
				<port id="0" precision="I64" names="/embed_positions/Constant_output_0" />
			</output>
		</layer>
		<layer id="23" name="Constant_4728947" type="Const" version="opset1">
			<data element_type="i64" shape="" offset="64016" size="8" />
			<rt_info>
				<attribute name="fused_names" version="0" value="Constant_4728947" />
			</rt_info>
			<output>
				<port id="0" precision="I64" />
			</output>
		</layer>
		<layer id="24" name="/embed_positions/Gather" type="Gather" version="opset8">
			<data batch_dims="0" />
			<rt_info>
				<attribute name="fused_names" version="0" value="/embed_positions/Constant, /embed_positions/Gather, Constant_4728947" />
			</rt_info>
			<input>
				<port id="0" precision="I64">
					<dim>2</dim>
				</port>
				<port id="1" precision="I64" />
				<port id="2" precision="I64" />
			</input>
			<output>
				<port id="3" precision="I64" names="/embed_positions/Gather_output_0" />
			</output>
		</layer>
		<layer id="25" name="Constant_4728965" type="Const" version="opset1">
			<data element_type="i64" shape="1" offset="64016" size="8" />
			<rt_info>
				<attribute name="fused_names" version="0" value="Constant_4728965" />
			</rt_info>
			<output>
				<port id="0" precision="I64">
					<dim>1</dim>
				</port>
			</output>
		</layer>
		<layer id="26" name="/embed_positions/Unsqueeze" type="Unsqueeze" version="opset1">
			<rt_info>
				<attribute name="fused_names" version="0" value="/embed_positions/Unsqueeze, Constant_4728965" />
			</rt_info>
			<input>
				<port id="0" precision="I64" />
				<port id="1" precision="I64">
					<dim>1</dim>
				</port>
			</input>
			<output>
				<port id="2" precision="I64" names="/embed_positions/Unsqueeze_output_0">
					<dim>1</dim>
				</port>
			</output>
		</layer>
		<layer id="27" name="/embed_positions/Constant_3" type="Const" version="opset1">
			<data element_type="i64" shape="1" offset="64000" size="8" />
			<rt_info>
				<attribute name="fused_names" version="0" value="/embed_positions/Constant_3" />
			</rt_info>
			<output>
				<port id="0" precision="I64" names="/embed_positions/Constant_3_output_0">
					<dim>1</dim>
				</port>
			</output>
		</layer>
		<layer id="28" name="/embed_positions/Concat" type="Concat" version="opset1">
			<data axis="0" />
			<rt_info>
				<attribute name="fused_names" version="0" value="/embed_positions/Concat, /embed_positions/Constant_3" />
			</rt_info>
			<input>
				<port id="0" precision="I64">
					<dim>1</dim>
				</port>
				<port id="1" precision="I64">
					<dim>1</dim>
				</port>
			</input>
			<output>
				<port id="2" precision="I64" names="/embed_positions/Concat_output_0">
					<dim>2</dim>
				</port>
			</output>
		</layer>
		<layer id="29" name="Constant_4734888" type="Const" version="opset1">
			<data element_type="i64" shape="1" offset="64000" size="8" />
			<rt_info>
				<attribute name="fused_names" version="0" value="/embed_positions/Reshape" />
			</rt_info>
			<output>
				<port id="0" precision="I64">
					<dim>1</dim>
				</port>
			</output>
		</layer>
		<layer id="30" name="/embed_positions/Reshape" type="Reshape" version="opset1">
			<data special_zero="true" />
			<rt_info>
				<attribute name="fused_names" version="0" value="/embed_positions/Reshape" />
			</rt_info>
			<input>
				<port id="0" precision="I64">
					<dim>2</dim>
				</port>
				<port id="1" precision="I64">
					<dim>1</dim>
				</port>
			</input>
			<output>
				<port id="2" precision="I64" names="/embed_positions/Reshape_output_0">
					<dim>2</dim>
				</port>
			</output>
		</layer>
		<layer id="31" name="Constant_4728975" type="Const" version="opset1">
			<data element_type="i64" shape="" offset="64008" size="8" />
			<rt_info>
				<attribute name="fused_names" version="0" value="Constant_4728975" />
			</rt_info>
			<output>
				<port id="0" precision="I64" />
			</output>
		</layer>
		<layer id="32" name="/embed_positions/Shape_1" type="ShapeOf" version="opset3">
			<data output_type="i64" />
			<rt_info>
				<attribute name="fused_names" version="0" value="/embed_positions/Shape_1" />
			</rt_info>
			<input>
				<port id="0" precision="I64">
					<dim>2</dim>
				</port>
			</input>
			<output>
				<port id="1" precision="I64" names="/embed_positions/Shape_1_output_0">
					<dim>1</dim>
				</port>
			</output>
		</layer>
		<layer id="33" name="/embed_positions/ConstantOfShape" type="Broadcast" version="opset3">
			<data mode="numpy" />
			<rt_info>
				<attribute name="fused_names" version="0" value="/embed_positions/ConstantOfShape, Constant_4728975" />
			</rt_info>
			<input>
				<port id="0" precision="I64" />
				<port id="1" precision="I64">
					<dim>1</dim>
				</port>
			</input>
			<output>
				<port id="2" precision="I64" names="/embed_positions/ConstantOfShape_output_0">
					<dim>2</dim>
				</port>
			</output>
		</layer>
		<layer id="34" name="/embed_positions/Constant_5" type="Const" version="opset1">
			<data element_type="i64" shape="" offset="64000" size="8" />
			<rt_info>
				<attribute name="fused_names" version="0" value="/embed_positions/Constant_5" />
			</rt_info>
			<output>
				<port id="0" precision="I64" names="/embed_positions/Constant_5_output_0" />
			</output>
		</layer>
		<layer id="35" name="/embed_positions/Mul" type="Multiply" version="opset1">
			<data auto_broadcast="numpy" />
			<rt_info>
				<attribute name="fused_names" version="0" value="/embed_positions/Constant_5, /embed_positions/Mul" />
			</rt_info>
			<input>
				<port id="0" precision="I64">
					<dim>2</dim>
				</port>
				<port id="1" precision="I64" />
			</input>
			<output>
				<port id="2" precision="I64" names="/embed_positions/Mul_output_0">
					<dim>2</dim>
				</port>
			</output>
		</layer>
		<layer id="36" name="/embed_positions/Equal" type="Equal" version="opset1">
			<data auto_broadcast="numpy" />
			<rt_info>
				<attribute name="fused_names" version="0" value="/embed_positions/Equal" />
			</rt_info>
			<input>
				<port id="0" precision="I64">
					<dim>2</dim>
				</port>
				<port id="1" precision="I64">
					<dim>2</dim>
				</port>
			</input>
			<output>
				<port id="2" precision="BOOL" names="/embed_positions/Equal_output_0">
					<dim>2</dim>
				</port>
			</output>
		</layer>
		<layer id="37" name="/embed_positions/Where" type="Select" version="opset1">
			<data auto_broadcast="numpy" />
			<rt_info>
				<attribute name="fused_names" version="0" value="/embed_positions/Where" />
			</rt_info>
			<input>
				<port id="0" precision="BOOL">
					<dim>2</dim>
				</port>
				<port id="1" precision="I64">
					<dim>2</dim>
				</port>
				<port id="2" precision="I64">
					<dim>2</dim>
				</port>
			</input>
			<output>
				<port id="3" precision="I64" names="/embed_positions/Where_output_0">
					<dim>2</dim>
				</port>
			</output>
		</layer>
		<layer id="38" name="/embed_positions/Expand" type="Broadcast" version="opset3">
			<data mode="bidirectional" />
			<rt_info>
				<attribute name="fused_names" version="0" value="/embed_positions/Expand" />
			</rt_info>
			<input>
				<port id="0" precision="I64">
					<dim>-1</dim>
				</port>
				<port id="1" precision="I64">
					<dim>2</dim>
				</port>
			</input>
			<output>
				<port id="2" precision="I64" names="/embed_positions/Expand_output_0">
					<dim>-1</dim>
					<dim>-1</dim>
				</port>
			</output>
		</layer>
		<layer id="39" name="/embed_positions/Constant_6" type="Const" version="opset1">
			<data element_type="i64" shape="" offset="70556" size="8" />
			<rt_info>
				<attribute name="fused_names" version="0" value="/embed_positions/Constant_6" />
			</rt_info>
			<output>
				<port id="0" precision="I64" names="/embed_positions/Constant_6_output_0" />
			</output>
		</layer>
		<layer id="40" name="/embed_positions/Add" type="Add" version="opset1">
			<data auto_broadcast="numpy" />
			<rt_info>
				<attribute name="fused_names" version="0" value="/embed_positions/Add" />
			</rt_info>
			<input>
				<port id="0" precision="I64">
					<dim>-1</dim>
					<dim>-1</dim>
				</port>
				<port id="1" precision="I64" />
			</input>
			<output>
				<port id="2" precision="I64" names="/embed_positions/Add_output_0">
					<dim>-1</dim>
					<dim>-1</dim>
				</port>
			</output>
		</layer>
		<layer id="41" name="Constant_4729028" type="Const" version="opset1">
			<data element_type="i64" shape="" offset="64016" size="8" />
			<rt_info>
				<attribute name="fused_names" version="0" value="Constant_4729028" />
			</rt_info>
			<output>
				<port id="0" precision="I64" />
			</output>
		</layer>
		<layer id="42" name="/embed_positions/Gather_1" type="Gather" version="opset8">
			<data batch_dims="0" />
			<rt_info>
				<attribute name="fused_names" version="0" value="/embed_positions/Gather_1" />
			</rt_info>
			<input>
				<port id="0" precision="FP32">
					<dim>102</dim>
					<dim>16</dim>
				</port>
				<port id="1" precision="I64">
					<dim>-1</dim>
					<dim>-1</dim>
				</port>
				<port id="2" precision="I64" />
			</input>
			<output>
				<port id="3" precision="FP32" names="/embed_positions/Gather_1_output_0">
					<dim>-1</dim>
					<dim>-1</dim>
					<dim>16</dim>
				</port>
			</output>
		</layer>
		<layer id="43" name="/Cast" type="Convert" version="opset1">
			<data destination_type="f32" />
			<rt_info>
				<attribute name="fused_names" version="0" value="/Cast" />
			</rt_info>
			<input>
				<port id="0" precision="FP32">
					<dim>-1</dim>
					<dim>-1</dim>
					<dim>16</dim>
				</port>
			</input>
			<output>
				<port id="1" precision="FP32" names="/Cast_output_0">
					<dim>-1</dim>
					<dim>-1</dim>
					<dim>16</dim>
				</port>
			</output>
		</layer>
		<layer id="44" name="/Add" type="Add" version="opset1">
			<data auto_broadcast="numpy" />
			<rt_info>
				<attribute name="fused_names" version="0" value="/Add" />
			</rt_info>
			<input>
				<port id="0" precision="FP32">
					<dim>-1</dim>
					<dim>-1</dim>
					<dim>16</dim>
				</port>
				<port id="1" precision="FP32">
					<dim>-1</dim>
					<dim>-1</dim>
					<dim>16</dim>
				</port>
			</input>
			<output>
				<port id="2" precision="FP32" names="/Add_output_0">
					<dim>-1</dim>
					<dim>-1</dim>
					<dim>16</dim>
				</port>
			</output>
		</layer>
		<layer id="45" name="Constant_4729032" type="Const" version="opset1">
			<data element_type="i64" shape="1" offset="64000" size="8" />
			<rt_info>
				<attribute name="fused_names" version="0" value="Constant_4729032" />
			</rt_info>
			<output>
				<port id="0" precision="I64">
					<dim>1</dim>
				</port>
			</output>
		</layer>
		<layer id="46" name="/layernorm_embedding/ReduceMean" type="ReduceMean" version="opset1">
			<data keep_dims="true" />
			<rt_info>
				<attribute name="fused_names" version="0" value="/layernorm_embedding/ReduceMean" />
			</rt_info>
			<input>
				<port id="0" precision="FP32">
					<dim>-1</dim>
					<dim>-1</dim>
					<dim>16</dim>
				</port>
				<port id="1" precision="I64">
					<dim>1</dim>
				</port>
			</input>
			<output>
				<port id="2" precision="FP32" names="/layernorm_embedding/ReduceMean_output_0">
					<dim>-1</dim>
					<dim>-1</dim>
					<dim>1</dim>
				</port>
			</output>
		</layer>
		<layer id="47" name="/layernorm_embedding/Sub" type="Subtract" version="opset1">
			<data auto_broadcast="numpy" />
			<rt_info>
				<attribute name="fused_names" version="0" value="/layernorm_embedding/Sub" />
			</rt_info>
			<input>
				<port id="0" precision="FP32">
					<dim>-1</dim>
					<dim>-1</dim>
					<dim>16</dim>
				</port>
				<port id="1" precision="FP32">
					<dim>-1</dim>
					<dim>-1</dim>
					<dim>1</dim>
				</port>
			</input>
			<output>
				<port id="2" precision="FP32" names="/layernorm_embedding/Sub_output_0">
					<dim>-1</dim>
					<dim>-1</dim>
					<dim>16</dim>
				</port>
			</output>
		</layer>
		<layer id="48" name="/layernorm_embedding/Constant" type="Const" version="opset1">
			<data element_type="f32" shape="" offset="70564" size="4" />
			<rt_info>
				<attribute name="fused_names" version="0" value="/layernorm_embedding/Constant" />
			</rt_info>
			<output>
				<port id="0" precision="FP32" names="/layernorm_embedding/Constant_output_0" />
			</output>
		</layer>
		<layer id="49" name="/layernorm_embedding/Pow" type="Power" version="opset1">
			<data auto_broadcast="numpy" />
			<rt_info>
				<attribute name="fused_names" version="0" value="/layernorm_embedding/Pow" />
			</rt_info>
			<input>
				<port id="0" precision="FP32">
					<dim>-1</dim>
					<dim>-1</dim>
					<dim>16</dim>
				</port>
				<port id="1" precision="FP32" />
			</input>
			<output>
				<port id="2" precision="FP32" names="/layernorm_embedding/Pow_output_0">
					<dim>-1</dim>
					<dim>-1</dim>
					<dim>16</dim>
				</port>
			</output>
		</layer>
		<layer id="50" name="Constant_4729037" type="Const" version="opset1">
			<data element_type="i64" shape="1" offset="64000" size="8" />
			<rt_info>
				<attribute name="fused_names" version="0" value="Constant_4729037" />
			</rt_info>
			<output>
				<port id="0" precision="I64">
					<dim>1</dim>
				</port>
			</output>
		</layer>
		<layer id="51" name="/layernorm_embedding/ReduceMean_1" type="ReduceMean" version="opset1">
			<data keep_dims="true" />
			<rt_info>
				<attribute name="fused_names" version="0" value="/layernorm_embedding/ReduceMean_1" />
			</rt_info>
			<input>
				<port id="0" precision="FP32">
					<dim>-1</dim>
					<dim>-1</dim>
					<dim>16</dim>
				</port>
				<port id="1" precision="I64">
					<dim>1</dim>
				</port>
			</input>
			<output>
				<port id="2" precision="FP32" names="/layernorm_embedding/ReduceMean_1_output_0">
					<dim>-1</dim>
					<dim>-1</dim>
					<dim>1</dim>
				</port>
			</output>
		</layer>
		<layer id="52" name="/layernorm_embedding/Constant_1" type="Const" version="opset1">
			<data element_type="f32" shape="" offset="70568" size="4" />
			<rt_info>
				<attribute name="fused_names" version="0" value="/layernorm_embedding/Constant_1" />
			</rt_info>
			<output>
				<port id="0" precision="FP32" names="/layernorm_embedding/Constant_1_output_0" />
			</output>
		</layer>
		<layer id="53" name="/layernorm_embedding/Add" type="Add" version="opset1">
			<data auto_broadcast="numpy" />
			<rt_info>
				<attribute name="fused_names" version="0" value="/layernorm_embedding/Add" />
			</rt_info>
			<input>
				<port id="0" precision="FP32">
					<dim>-1</dim>
					<dim>-1</dim>
					<dim>1</dim>
				</port>
				<port id="1" precision="FP32" />
			</input>
			<output>
				<port id="2" precision="FP32" names="/layernorm_embedding/Add_output_0">
					<dim>-1</dim>
					<dim>-1</dim>
					<dim>1</dim>
				</port>
			</output>
		</layer>
		<layer id="54" name="/layernorm_embedding/Sqrt" type="Sqrt" version="opset1">
			<rt_info>
				<attribute name="fused_names" version="0" value="/layernorm_embedding/Sqrt" />
			</rt_info>
			<input>
				<port id="0" precision="FP32">
					<dim>-1</dim>
					<dim>-1</dim>
					<dim>1</dim>
				</port>
			</input>
			<output>
				<port id="1" precision="FP32" names="/layernorm_embedding/Sqrt_output_0">
					<dim>-1</dim>
					<dim>-1</dim>
					<dim>1</dim>
				</port>
			</output>
		</layer>
		<layer id="55" name="/layernorm_embedding/Div" type="Divide" version="opset1">
			<data auto_broadcast="numpy" m_pythondiv="true" />
			<rt_info>
				<attribute name="fused_names" version="0" value="/layernorm_embedding/Div" />
			</rt_info>
			<input>
				<port id="0" precision="FP32">
					<dim>-1</dim>
					<dim>-1</dim>
					<dim>16</dim>
				</port>
				<port id="1" precision="FP32">
					<dim>-1</dim>
					<dim>-1</dim>
					<dim>1</dim>
				</port>
			</input>
			<output>
				<port id="2" precision="FP32" names="/layernorm_embedding/Div_output_0">
					<dim>-1</dim>
					<dim>-1</dim>
					<dim>16</dim>
				</port>
			</output>
		</layer>
		<layer id="56" name="layers.0.final_layer_norm.weight" type="Const" version="opset1">
			<data element_type="f32" shape="16" offset="70572" size="64" />
			<rt_info>
				<attribute name="fused_names" version="0" value="layers.0.final_layer_norm.weight" />
			</rt_info>
			<output>
				<port id="0" precision="FP32" names="layernorm_embedding.weight,layers.0.final_layer_norm.weight,layers.0.self_attn_layer_norm.weight,layers.1.final_layer_norm.weight,layers.1.self_attn_layer_norm.weight">
					<dim>16</dim>
				</port>
			</output>
		</layer>
		<layer id="57" name="/layernorm_embedding/Mul" type="Multiply" version="opset1">
			<data auto_broadcast="numpy" />
			<rt_info>
				<attribute name="fused_names" version="0" value="/layernorm_embedding/Mul" />
			</rt_info>
			<input>
				<port id="0" precision="FP32">
					<dim>-1</dim>
					<dim>-1</dim>
					<dim>16</dim>
				</port>
				<port id="1" precision="FP32">
					<dim>16</dim>
				</port>
			</input>
			<output>
				<port id="2" precision="FP32" names="/layernorm_embedding/Mul_output_0">
					<dim>-1</dim>
					<dim>-1</dim>
					<dim>16</dim>
				</port>
			</output>
		</layer>
		<layer id="58" name="layers.0.self_attn.v_proj.bias" type="Const" version="opset1">
			<data element_type="f32" shape="16" offset="70636" size="64" />
			<rt_info>
				<attribute name="fused_names" version="0" value="layers.0.self_attn.v_proj.bias" />
			</rt_info>
			<output>
				<port id="0" precision="FP32" names="layernorm_embedding.bias,layers.0.fc2.bias,layers.0.final_layer_norm.bias,layers.0.self_attn.k_proj.bias,layers.0.self_attn.out_proj.bias,layers.0.self_attn.q_proj.bias,layers.0.self_attn.v_proj.bias,layers.0.self_attn_layer_norm.bias,layers.1.fc2.bias,layers.1.final_layer_norm.bias,layers.1.self_attn.k_proj.bias,layers.1.self_attn.out_proj.bias,layers.1.self_attn.q_proj.bias,layers.1.self_attn.v_proj.bias,layers.1.self_attn_layer_norm.bias">
					<dim>16</dim>
				</port>
			</output>
		</layer>
		<layer id="59" name="/layernorm_embedding/Add_1" type="Add" version="opset1">
			<data auto_broadcast="numpy" />
			<rt_info>
				<attribute name="fused_names" version="0" value="/layernorm_embedding/Add_1" />
			</rt_info>
			<input>
				<port id="0" precision="FP32">
					<dim>-1</dim>
					<dim>-1</dim>
					<dim>16</dim>
				</port>
				<port id="1" precision="FP32">
					<dim>16</dim>
				</port>
			</input>
			<output>
				<port id="2" precision="FP32" names="/layernorm_embedding/Add_1_output_0">
					<dim>-1</dim>
					<dim>-1</dim>
					<dim>16</dim>
				</port>
			</output>
		</layer>
		<layer id="60" name="onnx::MatMul_375" type="Const" version="opset1">
			<data element_type="f32" shape="16, 16" offset="70700" size="1024" />
			<rt_info>
				<attribute name="fused_names" version="0" value="onnx::MatMul_375" />
			</rt_info>
			<output>
				<port id="0" precision="FP32" names="onnx::MatMul_375">
					<dim>16</dim>
					<dim>16</dim>
				</port>
			</output>
		</layer>
		<layer id="61" name="/layers.0/self_attn/q_proj/MatMul" type="MatMul" version="opset1">
			<data transpose_a="false" transpose_b="false" />
			<rt_info>
				<attribute name="fused_names" version="0" value="/layers.0/self_attn/q_proj/MatMul" />
			</rt_info>
			<input>
				<port id="0" precision="FP32">
					<dim>-1</dim>
					<dim>-1</dim>
					<dim>16</dim>
				</port>
				<port id="1" precision="FP32">
					<dim>16</dim>
					<dim>16</dim>
				</port>
			</input>
			<output>
				<port id="2" precision="FP32" names="/layers.0/self_attn/q_proj/MatMul_output_0">
					<dim>-1</dim>
					<dim>-1</dim>
					<dim>16</dim>
				</port>
			</output>
		</layer>
		<layer id="62" name="/layers.0/self_attn/q_proj/Add" type="Add" version="opset1">
			<data auto_broadcast="numpy" />
			<rt_info>
				<attribute name="fused_names" version="0" value="/layers.0/self_attn/q_proj/Add" />
			</rt_info>
			<input>
				<port id="0" precision="FP32">
					<dim>16</dim>
				</port>
				<port id="1" precision="FP32">
					<dim>-1</dim>
					<dim>-1</dim>
					<dim>16</dim>
				</port>
			</input>
			<output>
				<port id="2" precision="FP32" names="/layers.0/self_attn/q_proj/Add_output_0">
					<dim>-1</dim>
					<dim>-1</dim>
					<dim>16</dim>
				</port>
			</output>
		</layer>
		<layer id="63" name="/layers.0/self_attn/Constant_2" type="Const" version="opset1">
			<data element_type="f32" shape="" offset="71724" size="4" />
			<rt_info>
				<attribute name="fused_names" version="0" value="/layers.0/self_attn/Constant_2" />
			</rt_info>
			<output>
				<port id="0" precision="FP32" names="/layers.0/self_attn/Constant_2_output_0" />
			</output>
		</layer>
		<layer id="64" name="/layers.0/self_attn/Mul" type="Multiply" version="opset1">
			<data auto_broadcast="numpy" />
			<rt_info>
				<attribute name="fused_names" version="0" value="/layers.0/self_attn/Mul" />
			</rt_info>
			<input>
				<port id="0" precision="FP32">
					<dim>-1</dim>
					<dim>-1</dim>
					<dim>16</dim>
				</port>
				<port id="1" precision="FP32" />
			</input>
			<output>
				<port id="2" precision="FP32" names="/layers.0/self_attn/Mul_output_0">
					<dim>-1</dim>
					<dim>-1</dim>
					<dim>16</dim>
				</port>
			</output>
		</layer>
		<layer id="65" name="/layers.0/self_attn/Shape" type="ShapeOf" version="opset3">
			<data output_type="i64" />
			<rt_info>
				<attribute name="fused_names" version="0" value="/layers.0/self_attn/Shape" />
			</rt_info>
			<input>
				<port id="0" precision="FP32">
					<dim>-1</dim>
					<dim>-1</dim>
					<dim>16</dim>
				</port>
			</input>
			<output>
				<port id="1" precision="I64" names="/layers.0/self_attn/Shape_output_0">
					<dim>3</dim>
				</port>
			</output>
		</layer>
		<layer id="66" name="/layers.0/self_attn/Constant" type="Const" version="opset1">
			<data element_type="i64" shape="" offset="64016" size="8" />
			<rt_info>
				<attribute name="fused_names" version="0" value="/layers.0/self_attn/Constant" />
			</rt_info>
			<output>
				<port id="0" precision="I64" names="/layers.0/self_attn/Constant_output_0" />
			</output>
		</layer>
		<layer id="67" name="Constant_4729135" type="Const" version="opset1">
			<data element_type="i64" shape="" offset="64016" size="8" />
			<rt_info>
				<attribute name="fused_names" version="0" value="Constant_4729135" />
			</rt_info>
			<output>
				<port id="0" precision="I64" />
			</output>
		</layer>
		<layer id="68" name="/layers.0/self_attn/Gather" type="Gather" version="opset8">
			<data batch_dims="0" />
			<rt_info>
				<attribute name="fused_names" version="0" value="/layers.0/self_attn/Constant, /layers.0/self_attn/Gather, Constant_4729135" />
			</rt_info>
			<input>
				<port id="0" precision="I64">
					<dim>3</dim>
				</port>
				<port id="1" precision="I64" />
				<port id="2" precision="I64" />
			</input>
			<output>
				<port id="3" precision="I64" names="/layers.0/self_attn/Gather_output_0" />
			</output>
		</layer>
		<layer id="69" name="Constant_4729181" type="Const" version="opset1">
			<data element_type="i64" shape="1" offset="64016" size="8" />
			<rt_info>
				<attribute name="fused_names" version="0" value="Constant_4729181" />
			</rt_info>
			<output>
				<port id="0" precision="I64">
					<dim>1</dim>
				</port>
			</output>
		</layer>
		<layer id="70" name="/layers.0/self_attn/Unsqueeze_2" type="Unsqueeze" version="opset1">
			<rt_info>
				<attribute name="fused_names" version="0" value="/layers.0/self_attn/Unsqueeze_2, Constant_4729181" />
			</rt_info>
			<input>
				<port id="0" precision="I64" />
				<port id="1" precision="I64">
					<dim>1</dim>
				</port>
			</input>
			<output>
				<port id="2" precision="I64" names="/layers.0/self_attn/Unsqueeze_2_output_0">
					<dim>1</dim>
				</port>
			</output>
		</layer>
		<layer id="71" name="/layers.0/self_attn/Shape_1" type="ShapeOf" version="opset3">
			<data output_type="i64" />
			<rt_info>
				<attribute name="fused_names" version="0" value="/layers.0/self_attn/Shape_1" />
			</rt_info>
			<input>
				<port id="0" precision="FP32">
					<dim>-1</dim>
					<dim>-1</dim>
					<dim>16</dim>
				</port>
			</input>
			<output>
				<port id="1" precision="I64" names="/layers.0/self_attn/Shape_1_output_0">
					<dim>3</dim>
				</port>
			</output>
		</layer>
		<layer id="72" name="/layers.0/self_attn/Constant_1" type="Const" version="opset1">
			<data element_type="i64" shape="" offset="64008" size="8" />
			<rt_info>
				<attribute name="fused_names" version="0" value="/layers.0/self_attn/Constant_1" />
			</rt_info>
			<output>
				<port id="0" precision="I64" names="/layers.0/self_attn/Constant_1_output_0" />
			</output>
		</layer>
		<layer id="73" name="Constant_4729139" type="Const" version="opset1">
			<data element_type="i64" shape="" offset="64016" size="8" />
			<rt_info>
				<attribute name="fused_names" version="0" value="Constant_4729139" />
			</rt_info>
			<output>
				<port id="0" precision="I64" />
			</output>
		</layer>
		<layer id="74" name="/layers.0/self_attn/Gather_1" type="Gather" version="opset8">
			<data batch_dims="0" />
			<rt_info>
				<attribute name="fused_names" version="0" value="/layers.0/self_attn/Constant_1, /layers.0/self_attn/Gather_1, Constant_4729139" />
			</rt_info>
			<input>
				<port id="0" precision="I64">
					<dim>3</dim>
				</port>
				<port id="1" precision="I64" />
				<port id="2" precision="I64" />
			</input>
			<output>
				<port id="3" precision="I64" names="/layers.0/self_attn/Gather_1_output_0" />
			</output>
		</layer>
		<layer id="75" name="Constant_4729183" type="Const" version="opset1">
			<data element_type="i64" shape="1" offset="64016" size="8" />
			<rt_info>
				<attribute name="fused_names" version="0" value="Constant_4729183" />
			</rt_info>
			<output>
				<port id="0" precision="I64">
					<dim>1</dim>
				</port>
			</output>
		</layer>
		<layer id="76" name="/layers.0/self_attn/Unsqueeze_3" type="Unsqueeze" version="opset1">
			<rt_info>
				<attribute name="fused_names" version="0" value="/layers.0/self_attn/Unsqueeze_3, Constant_4729183" />
			</rt_info>
			<input>
				<port id="0" precision="I64" />
				<port id="1" precision="I64">
					<dim>1</dim>
				</port>
			</input>
			<output>
				<port id="2" precision="I64" names="/layers.0/self_attn/Unsqueeze_3_output_0">
					<dim>1</dim>
				</port>
			</output>
		</layer>
		<layer id="77" name="/layers.0/self_attn/Constant_10" type="Const" version="opset1">
			<data element_type="i64" shape="1" offset="71728" size="8" />
			<rt_info>
				<attribute name="fused_names" version="0" value="/layers.0/self_attn/Constant_10" />
			</rt_info>
			<output>
				<port id="0" precision="I64" names="/layers.0/self_attn/Constant_10_output_0">
					<dim>1</dim>
				</port>
			</output>
		</layer>
		<layer id="78" name="/layers.0/self_attn/Constant_11" type="Const" version="opset1">
			<data element_type="i64" shape="1" offset="71728" size="8" />
			<rt_info>
				<attribute name="fused_names" version="0" value="/layers.0/self_attn/Constant_11" />
			</rt_info>
			<output>
				<port id="0" precision="I64" names="/layers.0/self_attn/Constant_11_output_0">
					<dim>1</dim>
				</port>
			</output>
		</layer>
		<layer id="79" name="/layers.0/self_attn/Concat_2" type="Concat" version="opset1">
			<data axis="0" />
			<rt_info>
				<attribute name="fused_names" version="0" value="/layers.0/self_attn/Concat_2, /layers.0/self_attn/Constant_10, /layers.0/self_attn/Constant_11" />
			</rt_info>
			<input>
				<port id="0" precision="I64">
					<dim>1</dim>
				</port>
				<port id="1" precision="I64">
					<dim>1</dim>
				</port>
				<port id="2" precision="I64">
					<dim>1</dim>
				</port>
				<port id="3" precision="I64">
					<dim>1</dim>
				</port>
			</input>
			<output>
				<port id="4" precision="I64" names="/layers.0/self_attn/Concat_2_output_0">
					<dim>4</dim>
				</port>
			</output>
		</layer>
		<layer id="80" name="/layers.0/self_attn/Reshape_2" type="Reshape" version="opset1">
			<data special_zero="true" />
			<rt_info>
				<attribute name="fused_names" version="0" value="/layers.0/self_attn/Reshape_2" />
			</rt_info>
			<input>
				<port id="0" precision="FP32">
					<dim>-1</dim>
					<dim>-1</dim>
					<dim>16</dim>
				</port>
				<port id="1" precision="I64">
					<dim>4</dim>
				</port>
			</input>
			<output>
				<port id="2" precision="FP32" names="/layers.0/self_attn/Reshape_2_output_0">
					<dim>-1</dim>
					<dim>-1</dim>
					<dim>4</dim>
					<dim>4</dim>
				</port>
			</output>
		</layer>
		<layer id="81" name="Constant_4729199" type="Const" version="opset1">
			<data element_type="i64" shape="4" offset="71736" size="32" />
			<rt_info>
				<attribute name="fused_names" version="0" value="Constant_4729199" />
			</rt_info>
			<output>
				<port id="0" precision="I64">
					<dim>4</dim>
				</port>
			</output>
		</layer>
		<layer id="82" name="/layers.0/self_attn/Transpose_2" type="Transpose" version="opset1">
			<rt_info>
				<attribute name="fused_names" version="0" value="/layers.0/self_attn/Transpose_2" />
			</rt_info>
			<input>
				<port id="0" precision="FP32">
					<dim>-1</dim>
					<dim>-1</dim>
					<dim>4</dim>
					<dim>4</dim>
				</port>
				<port id="1" precision="I64">
					<dim>4</dim>
				</port>
			</input>
			<output>
				<port id="2" precision="FP32" names="/layers.0/self_attn/Transpose_2_output_0">
					<dim>-1</dim>
					<dim>4</dim>
					<dim>-1</dim>
					<dim>4</dim>
				</port>
			</output>
		</layer>
		<layer id="83" name="/layers.0/self_attn/Constant_9" type="Const" version="opset1">
			<data element_type="i64" shape="" offset="71728" size="8" />
			<rt_info>
				<attribute name="fused_names" version="0" value="/layers.0/self_attn/Constant_9" />
			</rt_info>
			<output>
				<port id="0" precision="I64" names="/layers.0/self_attn/Constant_9_output_0" />
			</output>
		</layer>
		<layer id="84" name="/layers.0/self_attn/Mul_1" type="Multiply" version="opset1">
			<data auto_broadcast="numpy" />
			<rt_info>
				<attribute name="fused_names" version="0" value="/layers.0/self_attn/Constant_9, /layers.0/self_attn/Mul_1" />
			</rt_info>
			<input>
				<port id="0" precision="I64" />
				<port id="1" precision="I64" />
			</input>
			<output>
				<port id="2" precision="I64" names="/layers.0/self_attn/Mul_1_output_0" />
			</output>
		</layer>
		<layer id="85" name="Constant_4729201" type="Const" version="opset1">
			<data element_type="i64" shape="1" offset="64016" size="8" />
			<rt_info>
				<attribute name="fused_names" version="0" value="Constant_4729201" />
			</rt_info>
			<output>
				<port id="0" precision="I64">
					<dim>1</dim>
				</port>
			</output>
		</layer>
		<layer id="86" name="/layers.0/self_attn/Unsqueeze_4" type="Unsqueeze" version="opset1">
			<rt_info>
				<attribute name="fused_names" version="0" value="/layers.0/self_attn/Unsqueeze_4, Constant_4729201" />
			</rt_info>
			<input>
				<port id="0" precision="I64" />
				<port id="1" precision="I64">
					<dim>1</dim>
				</port>
			</input>
			<output>
				<port id="2" precision="I64" names="/layers.0/self_attn/Unsqueeze_4_output_0">
					<dim>1</dim>
				</port>
			</output>
		</layer>
		<layer id="87" name="/layers.0/self_attn/Constant_12" type="Const" version="opset1">
			<data element_type="i64" shape="1" offset="64000" size="8" />
			<rt_info>
				<attribute name="fused_names" version="0" value="/layers.0/self_attn/Constant_12" />
			</rt_info>
			<output>
				<port id="0" precision="I64" names="/layers.0/self_attn/Constant_12_output_0">
					<dim>1</dim>
				</port>
			</output>
		</layer>
		<layer id="88" name="/layers.0/self_attn/Constant_13" type="Const" version="opset1">
			<data element_type="i64" shape="1" offset="71728" size="8" />
			<rt_info>
				<attribute name="fused_names" version="0" value="/layers.0/self_attn/Constant_13" />
			</rt_info>
			<output>
				<port id="0" precision="I64" names="/layers.0/self_attn/Constant_13_output_0">
					<dim>1</dim>
				</port>
			</output>
		</layer>
		<layer id="89" name="/layers.0/self_attn/Concat_3" type="Concat" version="opset1">
			<data axis="0" />
			<rt_info>
				<attribute name="fused_names" version="0" value="/layers.0/self_attn/Concat_3, /layers.0/self_attn/Constant_12, /layers.0/self_attn/Constant_13" />
			</rt_info>
			<input>
				<port id="0" precision="I64">
					<dim>1</dim>
				</port>
				<port id="1" precision="I64">
					<dim>1</dim>
				</port>
				<port id="2" precision="I64">
					<dim>1</dim>
				</port>
			</input>
			<output>
				<port id="3" precision="I64" names="/layers.0/self_attn/Concat_3_output_0">
					<dim>3</dim>
				</port>
			</output>
		</layer>
		<layer id="90" name="/layers.0/self_attn/Reshape_3" type="Reshape" version="opset1">
			<data special_zero="true" />
			<rt_info>
				<attribute name="fused_names" version="0" value="/layers.0/self_attn/Reshape_3" />
			</rt_info>
			<input>
				<port id="0" precision="FP32">
					<dim>-1</dim>
					<dim>4</dim>
					<dim>-1</dim>
					<dim>4</dim>
				</port>
				<port id="1" precision="I64">
					<dim>3</dim>
				</port>
			</input>
			<output>
				<port id="2" precision="FP32" names="/layers.0/self_attn/Reshape_3_output_0">
					<dim>-1</dim>
					<dim>-1</dim>
					<dim>4</dim>
				</port>
			</output>
		</layer>
		<layer id="91" name="onnx::MatMul_376" type="Const" version="opset1">
			<data element_type="f32" shape="16, 16" offset="71768" size="1024" />
			<rt_info>
				<attribute name="fused_names" version="0" value="onnx::MatMul_376" />
			</rt_info>
			<output>
				<port id="0" precision="FP32" names="onnx::MatMul_376">
					<dim>16</dim>
					<dim>16</dim>
				</port>
			</output>
		</layer>
		<layer id="92" name="/layers.0/self_attn/k_proj/MatMul" type="MatMul" version="opset1">
			<data transpose_a="false" transpose_b="false" />
			<rt_info>
				<attribute name="fused_names" version="0" value="/layers.0/self_attn/k_proj/MatMul" />
			</rt_info>
			<input>
				<port id="0" precision="FP32">
					<dim>-1</dim>
					<dim>-1</dim>
					<dim>16</dim>
				</port>
				<port id="1" precision="FP32">
					<dim>16</dim>
					<dim>16</dim>
				</port>
			</input>
			<output>
				<port id="2" precision="FP32" names="/layers.0/self_attn/k_proj/MatMul_output_0">
					<dim>-1</dim>
					<dim>-1</dim>
					<dim>16</dim>
				</port>
			</output>
		</layer>
		<layer id="93" name="/layers.0/self_attn/k_proj/Add" type="Add" version="opset1">
			<data auto_broadcast="numpy" />
			<rt_info>
				<attribute name="fused_names" version="0" value="/layers.0/self_attn/k_proj/Add" />
			</rt_info>
			<input>
				<port id="0" precision="FP32">
					<dim>16</dim>
				</port>
				<port id="1" precision="FP32">
					<dim>-1</dim>
					<dim>-1</dim>
					<dim>16</dim>
				</port>
			</input>
			<output>
				<port id="2" precision="FP32" names="/layers.0/self_attn/k_proj/Add_output_0">
					<dim>-1</dim>
					<dim>-1</dim>
					<dim>16</dim>
				</port>
			</output>
		</layer>
		<layer id="94" name="Constant_4729147" type="Const" version="opset1">
			<data element_type="i64" shape="1" offset="64016" size="8" />
			<rt_info>
				<attribute name="fused_names" version="0" value="Constant_4729147" />
			</rt_info>
			<output>
				<port id="0" precision="I64">
					<dim>1</dim>
				</port>
			</output>
		</layer>
		<layer id="95" name="/layers.0/self_attn/Unsqueeze" type="Unsqueeze" version="opset1">
			<rt_info>
				<attribute name="fused_names" version="0" value="/layers.0/self_attn/Unsqueeze, Constant_4729147" />
			</rt_info>
			<input>
				<port id="0" precision="I64" />
				<port id="1" precision="I64">
					<dim>1</dim>
				</port>
			</input>
			<output>
				<port id="2" precision="I64" names="/layers.0/self_attn/Unsqueeze_output_0">
					<dim>1</dim>
				</port>
			</output>
		</layer>
		<layer id="96" name="/layers.0/self_attn/Constant_3" type="Const" version="opset1">
			<data element_type="i64" shape="1" offset="64000" size="8" />
			<rt_info>
				<attribute name="fused_names" version="0" value="/layers.0/self_attn/Constant_3" />
			</rt_info>
			<output>
				<port id="0" precision="I64" names="/layers.0/self_attn/Constant_3_output_0">
					<dim>1</dim>
				</port>
			</output>
		</layer>
		<layer id="97" name="/layers.0/self_attn/Constant_4" type="Const" version="opset1">
			<data element_type="i64" shape="1" offset="71728" size="8" />
			<rt_info>
				<attribute name="fused_names" version="0" value="/layers.0/self_attn/Constant_4" />
			</rt_info>
			<output>
				<port id="0" precision="I64" names="/layers.0/self_attn/Constant_4_output_0">
					<dim>1</dim>
				</port>
			</output>
		</layer>
		<layer id="98" name="/layers.0/self_attn/Constant_5" type="Const" version="opset1">
			<data element_type="i64" shape="1" offset="71728" size="8" />
			<rt_info>
				<attribute name="fused_names" version="0" value="/layers.0/self_attn/Constant_5" />
			</rt_info>
			<output>
				<port id="0" precision="I64" names="/layers.0/self_attn/Constant_5_output_0">
					<dim>1</dim>
				</port>
			</output>
		</layer>
		<layer id="99" name="/layers.0/self_attn/Concat" type="Concat" version="opset1">
			<data axis="0" />
			<rt_info>
				<attribute name="fused_names" version="0" value="/layers.0/self_attn/Concat, /layers.0/self_attn/Constant_3, /layers.0/self_attn/Constant_4, /layers.0/self_attn/Constant_5" />
			</rt_info>
			<input>
				<port id="0" precision="I64">
					<dim>1</dim>
				</port>
				<port id="1" precision="I64">
					<dim>1</dim>
				</port>
				<port id="2" precision="I64">
					<dim>1</dim>
				</port>
				<port id="3" precision="I64">
					<dim>1</dim>
				</port>
			</input>
			<output>
				<port id="4" precision="I64" names="/layers.0/self_attn/Concat_output_0">
					<dim>4</dim>
				</port>
			</output>
		</layer>
		<layer id="100" name="/layers.0/self_attn/Reshape" type="Reshape" version="opset1">
			<data special_zero="true" />
			<rt_info>
				<attribute name="fused_names" version="0" value="/layers.0/self_attn/Reshape" />
			</rt_info>
			<input>
				<port id="0" precision="FP32">
					<dim>-1</dim>
					<dim>-1</dim>
					<dim>16</dim>
				</port>
				<port id="1" precision="I64">
					<dim>4</dim>
				</port>
			</input>
			<output>
				<port id="2" precision="FP32" names="/layers.0/self_attn/Reshape_output_0">
					<dim>-1</dim>
					<dim>-1</dim>
					<dim>4</dim>
					<dim>4</dim>
				</port>
			</output>
		</layer>
		<layer id="101" name="Constant_4729166" type="Const" version="opset1">
			<data element_type="i64" shape="4" offset="71736" size="32" />
			<rt_info>
				<attribute name="fused_names" version="0" value="Constant_4729166" />
			</rt_info>
			<output>
				<port id="0" precision="I64">
					<dim>4</dim>
				</port>
			</output>
		</layer>
		<layer id="102" name="/layers.0/self_attn/Transpose" type="Transpose" version="opset1">
			<rt_info>
				<attribute name="fused_names" version="0" value="/layers.0/self_attn/Transpose" />
			</rt_info>
			<input>
				<port id="0" precision="FP32">
					<dim>-1</dim>
					<dim>-1</dim>
					<dim>4</dim>
					<dim>4</dim>
				</port>
				<port id="1" precision="I64">
					<dim>4</dim>
				</port>
			</input>
			<output>
				<port id="2" precision="FP32" names="/layers.0/self_attn/Transpose_output_0">
					<dim>-1</dim>
					<dim>4</dim>
					<dim>-1</dim>
					<dim>4</dim>
				</port>
			</output>
		</layer>
		<layer id="103" name="Constant_4729206" type="Const" version="opset1">
			<data element_type="i64" shape="1" offset="64016" size="8" />
			<rt_info>
				<attribute name="fused_names" version="0" value="Constant_4729206" />
			</rt_info>
			<output>
				<port id="0" precision="I64">
					<dim>1</dim>
				</port>
			</output>
		</layer>
		<layer id="104" name="/layers.0/self_attn/Unsqueeze_5" type="Unsqueeze" version="opset1">
			<rt_info>
				<attribute name="fused_names" version="0" value="/layers.0/self_attn/Unsqueeze_5, Constant_4729206" />
			</rt_info>
			<input>
				<port id="0" precision="I64" />
				<port id="1" precision="I64">
					<dim>1</dim>
				</port>
			</input>
			<output>
				<port id="2" precision="I64" names="/layers.0/self_attn/Unsqueeze_5_output_0">
					<dim>1</dim>
				</port>
			</output>
		</layer>
		<layer id="105" name="/layers.0/self_attn/Constant_14" type="Const" version="opset1">
			<data element_type="i64" shape="1" offset="64000" size="8" />
			<rt_info>
				<attribute name="fused_names" version="0" value="/layers.0/self_attn/Constant_14" />
			</rt_info>
			<output>
				<port id="0" precision="I64" names="/layers.0/self_attn/Constant_14_output_0">
					<dim>1</dim>
				</port>
			</output>
		</layer>
		<layer id="106" name="/layers.0/self_attn/Constant_15" type="Const" version="opset1">
			<data element_type="i64" shape="1" offset="71728" size="8" />
			<rt_info>
				<attribute name="fused_names" version="0" value="/layers.0/self_attn/Constant_15" />
			</rt_info>
			<output>
				<port id="0" precision="I64" names="/layers.0/self_attn/Constant_15_output_0">
					<dim>1</dim>
				</port>
			</output>
		</layer>
		<layer id="107" name="/layers.0/self_attn/Concat_4" type="Concat" version="opset1">
			<data axis="0" />
			<rt_info>
				<attribute name="fused_names" version="0" value="/layers.0/self_attn/Concat_4, /layers.0/self_attn/Constant_14, /layers.0/self_attn/Constant_15" />
			</rt_info>
			<input>
				<port id="0" precision="I64">
					<dim>1</dim>
				</port>
				<port id="1" precision="I64">
					<dim>1</dim>
				</port>
				<port id="2" precision="I64">
					<dim>1</dim>
				</port>
			</input>
			<output>
				<port id="3" precision="I64" names="/layers.0/self_attn/Concat_4_output_0">
					<dim>3</dim>
				</port>
			</output>
		</layer>
		<layer id="108" name="/layers.0/self_attn/Reshape_4" type="Reshape" version="opset1">
			<data special_zero="true" />
			<rt_info>
				<attribute name="fused_names" version="0" value="/layers.0/self_attn/Reshape_4" />
			</rt_info>
			<input>
				<port id="0" precision="FP32">
					<dim>-1</dim>
					<dim>4</dim>
					<dim>-1</dim>
					<dim>4</dim>
				</port>
				<port id="1" precision="I64">
					<dim>3</dim>
				</port>
			</input>
			<output>
				<port id="2" precision="FP32" names="/layers.0/self_attn/Reshape_4_output_0">
					<dim>-1</dim>
					<dim>-1</dim>
					<dim>4</dim>
				</port>
			</output>
		</layer>
		<layer id="109" name="/layers.0/self_attn/MatMul" type="MatMul" version="opset1">
			<data transpose_a="false" transpose_b="true" />
			<rt_info>
				<attribute name="fused_names" version="0" value="/layers.0/self_attn/MatMul, /layers.0/self_attn/Transpose_3" />
			</rt_info>
			<input>
				<port id="0" precision="FP32">
					<dim>-1</dim>
					<dim>-1</dim>
					<dim>4</dim>
				</port>
				<port id="1" precision="FP32">
					<dim>-1</dim>
					<dim>-1</dim>
					<dim>4</dim>
				</port>
			</input>
			<output>
				<port id="2" precision="FP32" names="/layers.0/self_attn/MatMul_output_0">
					<dim>-1</dim>
					<dim>-1</dim>
					<dim>-1</dim>
				</port>
			</output>
		</layer>
		<layer id="110" name="Constant_4729412" type="Const" version="opset1">
			<data element_type="i64" shape="1" offset="64016" size="8" />
			<rt_info>
				<attribute name="fused_names" version="0" value="Constant_4729412" />
			</rt_info>
			<output>
				<port id="0" precision="I64">
					<dim>1</dim>
				</port>
			</output>
		</layer>
		<layer id="111" name="/layers.0/self_attn/Unsqueeze_7" type="Unsqueeze" version="opset1">
			<rt_info>
				<attribute name="fused_names" version="0" value="/layers.0/self_attn/Unsqueeze_7, Constant_4729412" />
			</rt_info>
			<input>
				<port id="0" precision="I64" />
				<port id="1" precision="I64">
					<dim>1</dim>
				</port>
			</input>
			<output>
				<port id="2" precision="I64" names="/layers.0/self_attn/Unsqueeze_7_output_0">
					<dim>1</dim>
				</port>
			</output>
		</layer>
		<layer id="112" name="/layers.0/self_attn/Constant_19" type="Const" version="opset1">
			<data element_type="i64" shape="1" offset="71728" size="8" />
			<rt_info>
				<attribute name="fused_names" version="0" value="/layers.0/self_attn/Constant_19" />
			</rt_info>
			<output>
				<port id="0" precision="I64" names="/layers.0/self_attn/Constant_19_output_0">
					<dim>1</dim>
				</port>
			</output>
		</layer>
		<layer id="113" name="Constant_4729415" type="Const" version="opset1">
			<data element_type="i64" shape="1" offset="64016" size="8" />
			<rt_info>
				<attribute name="fused_names" version="0" value="Constant_4729415" />
			</rt_info>
			<output>
				<port id="0" precision="I64">
					<dim>1</dim>
				</port>
			</output>
		</layer>
		<layer id="114" name="/layers.0/self_attn/Unsqueeze_8" type="Unsqueeze" version="opset1">
			<rt_info>
				<attribute name="fused_names" version="0" value="/layers.0/self_attn/Unsqueeze_8, Constant_4729415" />
			</rt_info>
			<input>
				<port id="0" precision="I64" />
				<port id="1" precision="I64">
					<dim>1</dim>
				</port>
			</input>
			<output>
				<port id="2" precision="I64" names="/layers.0/self_attn/Unsqueeze_8_output_0">
					<dim>1</dim>
				</port>
			</output>
		</layer>
		<layer id="115" name="/layers.0/self_attn/Shape_2" type="ShapeOf" version="opset3">
			<data output_type="i64" />
			<rt_info>
				<attribute name="fused_names" version="0" value="/layers.0/self_attn/Shape_2" />
			</rt_info>
			<input>
				<port id="0" precision="FP32">
					<dim>-1</dim>
					<dim>-1</dim>
					<dim>4</dim>
				</port>
			</input>
			<output>
				<port id="1" precision="I64" names="/layers.0/self_attn/Shape_2_output_0">
					<dim>3</dim>
				</port>
			</output>
		</layer>
		<layer id="116" name="/layers.0/self_attn/Constant_18" type="Const" version="opset1">
			<data element_type="i64" shape="" offset="64008" size="8" />
			<rt_info>
				<attribute name="fused_names" version="0" value="/layers.0/self_attn/Constant_18" />
			</rt_info>
			<output>
				<port id="0" precision="I64" names="/layers.0/self_attn/Constant_18_output_0" />
			</output>
		</layer>
		<layer id="117" name="Constant_4729407" type="Const" version="opset1">
			<data element_type="i64" shape="" offset="64016" size="8" />
			<rt_info>
				<attribute name="fused_names" version="0" value="Constant_4729407" />
			</rt_info>
			<output>
				<port id="0" precision="I64" />
			</output>
		</layer>
		<layer id="118" name="/layers.0/self_attn/Gather_2" type="Gather" version="opset8">
			<data batch_dims="0" />
			<rt_info>
				<attribute name="fused_names" version="0" value="/layers.0/self_attn/Constant_18, /layers.0/self_attn/Gather_2, Constant_4729407" />
			</rt_info>
			<input>
				<port id="0" precision="I64">
					<dim>3</dim>
				</port>
				<port id="1" precision="I64" />
				<port id="2" precision="I64" />
			</input>
			<output>
				<port id="3" precision="I64" names="/layers.0/self_attn/Gather_2_output_0" />
			</output>
		</layer>
		<layer id="119" name="Constant_4729417" type="Const" version="opset1">
			<data element_type="i64" shape="1" offset="64016" size="8" />
			<rt_info>
				<attribute name="fused_names" version="0" value="Constant_4729417" />
			</rt_info>
			<output>
				<port id="0" precision="I64">
					<dim>1</dim>
				</port>
			</output>
		</layer>
		<layer id="120" name="/layers.0/self_attn/Unsqueeze_9" type="Unsqueeze" version="opset1">
			<rt_info>
				<attribute name="fused_names" version="0" value="/layers.0/self_attn/Unsqueeze_9, Constant_4729417" />
			</rt_info>
			<input>
				<port id="0" precision="I64" />
				<port id="1" precision="I64">
					<dim>1</dim>
				</port>
			</input>
			<output>
				<port id="2" precision="I64" names="/layers.0/self_attn/Unsqueeze_9_output_0">
					<dim>1</dim>
				</port>
			</output>
		</layer>
		<layer id="121" name="/layers.0/self_attn/Concat_6" type="Concat" version="opset1">
			<data axis="0" />
			<rt_info>
				<attribute name="fused_names" version="0" value="/layers.0/self_attn/Concat_6, /layers.0/self_attn/Constant_19" />
			</rt_info>
			<input>
				<port id="0" precision="I64">
					<dim>1</dim>
				</port>
				<port id="1" precision="I64">
					<dim>1</dim>
				</port>
				<port id="2" precision="I64">
					<dim>1</dim>
				</port>
				<port id="3" precision="I64">
					<dim>1</dim>
				</port>
			</input>
			<output>
				<port id="4" precision="I64" names="/layers.0/self_attn/Concat_6_output_0">
					<dim>4</dim>
				</port>
			</output>
		</layer>
		<layer id="122" name="/layers.0/self_attn/Reshape_6" type="Reshape" version="opset1">
			<data special_zero="true" />
			<rt_info>
				<attribute name="fused_names" version="0" value="/layers.0/self_attn/Reshape_6" />
			</rt_info>
			<input>
				<port id="0" precision="FP32">
					<dim>-1</dim>
					<dim>-1</dim>
					<dim>-1</dim>
				</port>
				<port id="1" precision="I64">
					<dim>4</dim>
				</port>
			</input>
			<output>
				<port id="2" precision="FP32" names="/layers.0/self_attn/Reshape_6_output_0">
					<dim>-1</dim>
					<dim>4</dim>
					<dim>-1</dim>
					<dim>-1</dim>
				</port>
			</output>
		</layer>
		<layer id="123" name="/Constant_8" type="Const" version="opset1">
			<data element_type="f32" shape="" offset="64024" size="4" />
			<rt_info>
				<attribute name="fused_names" version="0" value="/Constant_8" />
			</rt_info>
			<output>
				<port id="0" precision="FP32" names="/Constant_8_output_0" />
			</output>
		</layer>
		<layer id="124" name="Constant_4729053" type="Const" version="opset1">
			<data element_type="i64" shape="1" offset="64008" size="8" />
			<rt_info>
				<attribute name="fused_names" version="0" value="Constant_4729053" />
			</rt_info>
			<output>
				<port id="0" precision="I64">
					<dim>1</dim>
				</port>
			</output>
		</layer>
		<layer id="125" name="/Unsqueeze_1" type="Unsqueeze" version="opset1">
			<rt_info>
				<attribute name="fused_names" version="0" value="/Unsqueeze_1" />
			</rt_info>
			<input>
				<port id="0" precision="I64">
					<dim>-1</dim>
					<dim>-1</dim>
				</port>
				<port id="1" precision="I64">
					<dim>1</dim>
				</port>
			</input>
			<output>
				<port id="2" precision="I64" names="/Unsqueeze_1_output_0">
					<dim>-1</dim>
					<dim>1</dim>
					<dim>-1</dim>
				</port>
			</output>
		</layer>
		<layer id="126" name="Constant_4729055" type="Const" version="opset1">
			<data element_type="i64" shape="1" offset="70556" size="8" />
			<rt_info>
				<attribute name="fused_names" version="0" value="Constant_4729055" />
			</rt_info>
			<output>
				<port id="0" precision="I64">
					<dim>1</dim>
				</port>
			</output>
		</layer>
		<layer id="127" name="/Unsqueeze_2" type="Unsqueeze" version="opset1">
			<rt_info>
				<attribute name="fused_names" version="0" value="/Unsqueeze_2" />
			</rt_info>
			<input>
				<port id="0" precision="I64">
					<dim>-1</dim>
					<dim>1</dim>
					<dim>-1</dim>
				</port>
				<port id="1" precision="I64">
					<dim>1</dim>
				</port>
			</input>
			<output>
				<port id="2" precision="I64" names="/Unsqueeze_2_output_0">
					<dim>-1</dim>
					<dim>1</dim>
					<dim>1</dim>
					<dim>-1</dim>
				</port>
			</output>
		</layer>
		<layer id="128" name="/Shape_1" type="ShapeOf" version="opset3">
			<data output_type="i64" />
			<rt_info>
				<attribute name="fused_names" version="0" value="/Shape_1" />
			</rt_info>
			<input>
				<port id="0" precision="I64">
					<dim>-1</dim>
					<dim>-1</dim>
				</port>
			</input>
			<output>
				<port id="1" precision="I64" names="/Shape_1_output_0">
					<dim>2</dim>
				</port>
			</output>
		</layer>
		<layer id="129" name="/Constant_3" type="Const" version="opset1">
			<data element_type="i64" shape="" offset="64016" size="8" />
			<rt_info>
				<attribute name="fused_names" version="0" value="/Constant_3" />
			</rt_info>
			<output>
				<port id="0" precision="I64" names="/Constant_3_output_0" />
			</output>
		</layer>
		<layer id="130" name="Constant_4729047" type="Const" version="opset1">
			<data element_type="i64" shape="" offset="64016" size="8" />
			<rt_info>
				<attribute name="fused_names" version="0" value="Constant_4729047" />
			</rt_info>
			<output>
				<port id="0" precision="I64" />
			</output>
		</layer>
		<layer id="131" name="/Gather_1" type="Gather" version="opset8">
			<data batch_dims="0" />
			<rt_info>
				<attribute name="fused_names" version="0" value="/Constant_3, /Gather_1, Constant_4729047" />
			</rt_info>
			<input>
				<port id="0" precision="I64">
					<dim>2</dim>
				</port>
				<port id="1" precision="I64" />
				<port id="2" precision="I64" />
			</input>
			<output>
				<port id="3" precision="I64" names="/Gather_1_output_0" />
			</output>
		</layer>
		<layer id="132" name="Constant_4729057" type="Const" version="opset1">
			<data element_type="i64" shape="1" offset="64016" size="8" />
			<rt_info>
				<attribute name="fused_names" version="0" value="Constant_4729057" />
			</rt_info>
			<output>
				<port id="0" precision="I64">
					<dim>1</dim>
				</port>
			</output>
		</layer>
		<layer id="133" name="/Unsqueeze_3" type="Unsqueeze" version="opset1">
			<rt_info>
				<attribute name="fused_names" version="0" value="/Unsqueeze_3, Constant_4729057" />
			</rt_info>
			<input>
				<port id="0" precision="I64" />
				<port id="1" precision="I64">
					<dim>1</dim>
				</port>
			</input>
			<output>
				<port id="2" precision="I64" names="/Unsqueeze_3_output_0">
					<dim>1</dim>
				</port>
			</output>
		</layer>
		<layer id="134" name="/Constant_5" type="Const" version="opset1">
			<data element_type="i64" shape="1" offset="64008" size="8" />
			<rt_info>
				<attribute name="fused_names" version="0" value="/Constant_5" />
			</rt_info>
			<output>
				<port id="0" precision="I64" names="/Constant_5_output_0">
					<dim>1</dim>
				</port>
			</output>
		</layer>
		<layer id="135" name="/Shape_2" type="ShapeOf" version="opset3">
			<data output_type="i64" />
			<rt_info>
				<attribute name="fused_names" version="0" value="/Shape_2" />
			</rt_info>
			<input>
				<port id="0" precision="I64">
					<dim>-1</dim>
					<dim>-1</dim>
				</port>
			</input>
			<output>
				<port id="1" precision="I64" names="/Shape_2_output_0">
					<dim>2</dim>
				</port>
			</output>
		</layer>
		<layer id="136" name="/Constant_4" type="Const" version="opset1">
			<data element_type="i64" shape="" offset="64008" size="8" />
			<rt_info>
				<attribute name="fused_names" version="0" value="/Constant_4" />
			</rt_info>
			<output>
				<port id="0" precision="I64" names="/Constant_4_output_0" />
			</output>
		</layer>
		<layer id="137" name="Constant_4729051" type="Const" version="opset1">
			<data element_type="i64" shape="" offset="64016" size="8" />
			<rt_info>
				<attribute name="fused_names" version="0" value="Constant_4729051" />
			</rt_info>
			<output>
				<port id="0" precision="I64" />
			</output>
		</layer>
		<layer id="138" name="/Gather_2" type="Gather" version="opset8">
			<data batch_dims="0" />
			<rt_info>
				<attribute name="fused_names" version="0" value="/Constant_4, /Gather_2, Constant_4729051" />
			</rt_info>
			<input>
				<port id="0" precision="I64">
					<dim>2</dim>
				</port>
				<port id="1" precision="I64" />
				<port id="2" precision="I64" />
			</input>
			<output>
				<port id="3" precision="I64" names="/Gather_2_output_0" />
			</output>
		</layer>
		<layer id="139" name="Constant_4729060" type="Const" version="opset1">
			<data element_type="i64" shape="1" offset="64016" size="8" />
			<rt_info>
				<attribute name="fused_names" version="0" value="Constant_4729060" />
			</rt_info>
			<output>
				<port id="0" precision="I64">
					<dim>1</dim>
				</port>
			</output>
		</layer>
		<layer id="140" name="/Unsqueeze_4" type="Unsqueeze" version="opset1">
			<rt_info>
				<attribute name="fused_names" version="0" value="/Unsqueeze_4, Constant_4729060" />
			</rt_info>
			<input>
				<port id="0" precision="I64" />
				<port id="1" precision="I64">
					<dim>1</dim>
				</port>
			</input>
			<output>
				<port id="2" precision="I64" names="/Unsqueeze_4_output_0">
					<dim>1</dim>
				</port>
			</output>
		</layer>
		<layer id="141" name="Constant_4729062" type="Const" version="opset1">
			<data element_type="i64" shape="1" offset="64016" size="8" />
			<rt_info>
				<attribute name="fused_names" version="0" value="Constant_4729062" />
			</rt_info>
			<output>
				<port id="0" precision="I64">
					<dim>1</dim>
				</port>
			</output>
		</layer>
		<layer id="142" name="/Unsqueeze_5" type="Unsqueeze" version="opset1">
			<rt_info>
				<attribute name="fused_names" version="0" value="/Unsqueeze_5, Constant_4729062" />
			</rt_info>
			<input>
				<port id="0" precision="I64" />
				<port id="1" precision="I64">
					<dim>1</dim>
				</port>
			</input>
			<output>
				<port id="2" precision="I64" names="/Unsqueeze_5_output_0">
					<dim>1</dim>
				</port>
			</output>
		</layer>
		<layer id="143" name="/Concat_1" type="Concat" version="opset1">
			<data axis="0" />
			<rt_info>
				<attribute name="fused_names" version="0" value="/Concat_1, /Constant_5" />
			</rt_info>
			<input>
				<port id="0" precision="I64">
					<dim>1</dim>
				</port>
				<port id="1" precision="I64">
					<dim>1</dim>
				</port>
				<port id="2" precision="I64">
					<dim>1</dim>
				</port>
				<port id="3" precision="I64">
					<dim>1</dim>
				</port>
			</input>
			<output>
				<port id="4" precision="I64" names="/Concat_1_output_0">
					<dim>4</dim>
				</port>
			</output>
		</layer>
		<layer id="144" name="Constant_4734889" type="Const" version="opset1">
			<data element_type="i64" shape="1" offset="64000" size="8" />
			<rt_info>
				<attribute name="fused_names" version="0" value="/Reshape_1" />
			</rt_info>
			<output>
				<port id="0" precision="I64">
					<dim>1</dim>
				</port>
			</output>
		</layer>
		<layer id="145" name="/Reshape_1" type="Reshape" version="opset1">
			<data special_zero="true" />
			<rt_info>
				<attribute name="fused_names" version="0" value="/Reshape_1" />
			</rt_info>
			<input>
				<port id="0" precision="I64">
					<dim>4</dim>
				</port>
				<port id="1" precision="I64">
					<dim>1</dim>
				</port>
			</input>
			<output>
				<port id="2" precision="I64" names="/Reshape_1_output_0">
					<dim>4</dim>
				</port>
			</output>
		</layer>
		<layer id="146" name="Constant_4729071" type="Const" version="opset1">
			<data element_type="i64" shape="" offset="64008" size="8" />
			<rt_info>
				<attribute name="fused_names" version="0" value="Constant_4729071" />
			</rt_info>
			<output>
				<port id="0" precision="I64" />
			</output>
		</layer>
		<layer id="147" name="/Shape_3" type="ShapeOf" version="opset3">
			<data output_type="i64" />
			<rt_info>
				<attribute name="fused_names" version="0" value="/Shape_3" />
			</rt_info>
			<input>
				<port id="0" precision="I64">
					<dim>4</dim>
				</port>
			</input>
			<output>
				<port id="1" precision="I64" names="/Shape_3_output_0">
					<dim>1</dim>
				</port>
			</output>
		</layer>
		<layer id="148" name="/ConstantOfShape" type="Broadcast" version="opset3">
			<data mode="numpy" />
			<rt_info>
				<attribute name="fused_names" version="0" value="/ConstantOfShape, Constant_4729071" />
			</rt_info>
			<input>
				<port id="0" precision="I64" />
				<port id="1" precision="I64">
					<dim>1</dim>
				</port>
			</input>
			<output>
				<port id="2" precision="I64" names="/ConstantOfShape_output_0">
					<dim>4</dim>
				</port>
			</output>
		</layer>
		<layer id="149" name="/Constant_7" type="Const" version="opset1">
			<data element_type="i64" shape="" offset="64000" size="8" />
			<rt_info>
				<attribute name="fused_names" version="0" value="/Constant_7" />
			</rt_info>
			<output>
				<port id="0" precision="I64" names="/Constant_7_output_0" />
			</output>
		</layer>
		<layer id="150" name="/Mul_1" type="Multiply" version="opset1">
			<data auto_broadcast="numpy" />
			<rt_info>
				<attribute name="fused_names" version="0" value="/Constant_7, /Mul_1" />
			</rt_info>
			<input>
				<port id="0" precision="I64">
					<dim>4</dim>
				</port>
				<port id="1" precision="I64" />
			</input>
			<output>
				<port id="2" precision="I64" names="/Mul_1_output_0">
					<dim>4</dim>
				</port>
			</output>
		</layer>
		<layer id="151" name="/Equal" type="Equal" version="opset1">
			<data auto_broadcast="numpy" />
			<rt_info>
				<attribute name="fused_names" version="0" value="/Equal" />
			</rt_info>
			<input>
				<port id="0" precision="I64">
					<dim>4</dim>
				</port>
				<port id="1" precision="I64">
					<dim>4</dim>
				</port>
			</input>
			<output>
				<port id="2" precision="BOOL" names="/Equal_output_0">
					<dim>4</dim>
				</port>
			</output>
		</layer>
		<layer id="152" name="/Where" type="Select" version="opset1">
			<data auto_broadcast="numpy" />
			<rt_info>
				<attribute name="fused_names" version="0" value="/Where" />
			</rt_info>
			<input>
				<port id="0" precision="BOOL">
					<dim>4</dim>
				</port>
				<port id="1" precision="I64">
					<dim>4</dim>
				</port>
				<port id="2" precision="I64">
					<dim>4</dim>
				</port>
			</input>
			<output>
				<port id="3" precision="I64" names="/Where_output_0">
					<dim>4</dim>
				</port>
			</output>
		</layer>
		<layer id="153" name="/Expand" type="Broadcast" version="opset3">
			<data mode="bidirectional" />
			<rt_info>
				<attribute name="fused_names" version="0" value="/Expand" />
			</rt_info>
			<input>
				<port id="0" precision="I64">
					<dim>-1</dim>
					<dim>1</dim>
					<dim>1</dim>
					<dim>-1</dim>
				</port>
				<port id="1" precision="I64">
					<dim>4</dim>
				</port>
			</input>
			<output>
				<port id="2" precision="I64" names="/Expand_output_0">
					<dim>-1</dim>
					<dim>1</dim>
					<dim>-1</dim>
					<dim>-1</dim>
				</port>
			</output>
		</layer>
		<layer id="154" name="/Cast_1" type="Convert" version="opset1">
			<data destination_type="f32" />
			<rt_info>
				<attribute name="fused_names" version="0" value="/Cast_1" />
			</rt_info>
			<input>
				<port id="0" precision="I64">
					<dim>-1</dim>
					<dim>1</dim>
					<dim>-1</dim>
					<dim>-1</dim>
				</port>
			</input>
			<output>
				<port id="1" precision="FP32" names="/Cast_1_output_0">
					<dim>-1</dim>
					<dim>1</dim>
					<dim>-1</dim>
					<dim>-1</dim>
				</port>
			</output>
		</layer>
		<layer id="155" name="/Sub" type="Subtract" version="opset1">
			<data auto_broadcast="numpy" />
			<rt_info>
				<attribute name="fused_names" version="0" value="/Sub" />
			</rt_info>
			<input>
				<port id="0" precision="FP32" />
				<port id="1" precision="FP32">
					<dim>-1</dim>
					<dim>1</dim>
					<dim>-1</dim>
					<dim>-1</dim>
				</port>
			</input>
			<output>
				<port id="2" precision="FP32" names="/Sub_output_0">
					<dim>-1</dim>
					<dim>1</dim>
					<dim>-1</dim>
					<dim>-1</dim>
				</port>
			</output>
		</layer>
		<layer id="156" name="/Cast_2" type="Convert" version="opset1">
			<data destination_type="boolean" />
			<rt_info>
				<attribute name="fused_names" version="0" value="/Cast_2" />
			</rt_info>
			<input>
				<port id="0" precision="FP32">
					<dim>-1</dim>
					<dim>1</dim>
					<dim>-1</dim>
					<dim>-1</dim>
				</port>
			</input>
			<output>
				<port id="1" precision="BOOL" names="/Cast_2_output_0">
					<dim>-1</dim>
					<dim>1</dim>
					<dim>-1</dim>
					<dim>-1</dim>
				</port>
			</output>
		</layer>
		<layer id="157" name="/Cast_3" type="Convert" version="opset1">
			<data destination_type="boolean" />
			<rt_info>
				<attribute name="fused_names" version="0" value="/Cast_3" />
			</rt_info>
			<input>
				<port id="0" precision="BOOL">
					<dim>-1</dim>
					<dim>1</dim>
					<dim>-1</dim>
					<dim>-1</dim>
				</port>
			</input>
			<output>
				<port id="1" precision="BOOL" names="/Cast_3_output_0">
					<dim>-1</dim>
					<dim>1</dim>
					<dim>-1</dim>
					<dim>-1</dim>
				</port>
			</output>
		</layer>
		<layer id="158" name="/Constant_9" type="Const" version="opset1">
			<data element_type="f32" shape="" offset="72792" size="4" />
			<rt_info>
				<attribute name="fused_names" version="0" value="/Constant_9" />
			</rt_info>
			<output>
				<port id="0" precision="FP32" names="/Constant_9_output_0" />
			</output>
		</layer>
		<layer id="159" name="/Where_1" type="Select" version="opset1">
			<data auto_broadcast="numpy" />
			<rt_info>
				<attribute name="fused_names" version="0" value="/Where_1" />
			</rt_info>
			<input>
				<port id="0" precision="BOOL">
					<dim>-1</dim>
					<dim>1</dim>
					<dim>-1</dim>
					<dim>-1</dim>
				</port>
				<port id="1" precision="FP32" />
				<port id="2" precision="FP32">
					<dim>-1</dim>
					<dim>1</dim>
					<dim>-1</dim>
					<dim>-1</dim>
				</port>
			</input>
			<output>
				<port id="3" precision="FP32" names="/Where_1_output_0">
					<dim>-1</dim>
					<dim>1</dim>
					<dim>-1</dim>
					<dim>-1</dim>
				</port>
			</output>
		</layer>
		<layer id="160" name="/layers.0/self_attn/Add" type="Add" version="opset1">
			<data auto_broadcast="numpy" />
			<rt_info>
				<attribute name="fused_names" version="0" value="/layers.0/self_attn/Add" />
			</rt_info>
			<input>
				<port id="0" precision="FP32">
					<dim>-1</dim>
					<dim>4</dim>
					<dim>-1</dim>
					<dim>-1</dim>
				</port>
				<port id="1" precision="FP32">
					<dim>-1</dim>
					<dim>1</dim>
					<dim>-1</dim>
					<dim>-1</dim>
				</port>
			</input>
			<output>
				<port id="2" precision="FP32" names="/layers.0/self_attn/Add_output_0">
					<dim>-1</dim>
					<dim>4</dim>
					<dim>-1</dim>
					<dim>-1</dim>
				</port>
			</output>
		</layer>
		<layer id="161" name="Constant_4729436" type="Const" version="opset1">
			<data element_type="i64" shape="1" offset="64016" size="8" />
			<rt_info>
				<attribute name="fused_names" version="0" value="Constant_4729436" />
			</rt_info>
			<output>
				<port id="0" precision="I64">
					<dim>1</dim>
				</port>
			</output>
		</layer>
		<layer id="162" name="/layers.0/self_attn/Unsqueeze_10" type="Unsqueeze" version="opset1">
			<rt_info>
				<attribute name="fused_names" version="0" value="/layers.0/self_attn/Unsqueeze_10, Constant_4729436" />
			</rt_info>
			<input>
				<port id="0" precision="I64" />
				<port id="1" precision="I64">
					<dim>1</dim>
				</port>
			</input>
			<output>
				<port id="2" precision="I64" names="/layers.0/self_attn/Unsqueeze_10_output_0">
					<dim>1</dim>
				</port>
			</output>
		</layer>
		<layer id="163" name="Constant_4729438" type="Const" version="opset1">
			<data element_type="i64" shape="1" offset="64016" size="8" />
			<rt_info>
				<attribute name="fused_names" version="0" value="Constant_4729438" />
			</rt_info>
			<output>
				<port id="0" precision="I64">
					<dim>1</dim>
				</port>
			</output>
		</layer>
		<layer id="164" name="/layers.0/self_attn/Unsqueeze_11" type="Unsqueeze" version="opset1">
			<rt_info>
				<attribute name="fused_names" version="0" value="/layers.0/self_attn/Unsqueeze_11, Constant_4729438" />
			</rt_info>
			<input>
				<port id="0" precision="I64" />
				<port id="1" precision="I64">
					<dim>1</dim>
				</port>
			</input>
			<output>
				<port id="2" precision="I64" names="/layers.0/self_attn/Unsqueeze_11_output_0">
					<dim>1</dim>
				</port>
			</output>
		</layer>
		<layer id="165" name="Constant_4729440" type="Const" version="opset1">
			<data element_type="i64" shape="1" offset="64016" size="8" />
			<rt_info>
				<attribute name="fused_names" version="0" value="Constant_4729440" />
			</rt_info>
			<output>
				<port id="0" precision="I64">
					<dim>1</dim>
				</port>
			</output>
		</layer>
		<layer id="166" name="/layers.0/self_attn/Unsqueeze_12" type="Unsqueeze" version="opset1">
			<rt_info>
				<attribute name="fused_names" version="0" value="/layers.0/self_attn/Unsqueeze_12, Constant_4729440" />
			</rt_info>
			<input>
				<port id="0" precision="I64" />
				<port id="1" precision="I64">
					<dim>1</dim>
				</port>
			</input>
			<output>
				<port id="2" precision="I64" names="/layers.0/self_attn/Unsqueeze_12_output_0">
					<dim>1</dim>
				</port>
			</output>
		</layer>
		<layer id="167" name="/layers.0/self_attn/Concat_7" type="Concat" version="opset1">
			<data axis="0" />
			<rt_info>
				<attribute name="fused_names" version="0" value="/layers.0/self_attn/Concat_7" />
			</rt_info>
			<input>
				<port id="0" precision="I64">
					<dim>1</dim>
				</port>
				<port id="1" precision="I64">
					<dim>1</dim>
				</port>
				<port id="2" precision="I64">
					<dim>1</dim>
				</port>
			</input>
			<output>
				<port id="3" precision="I64" names="/layers.0/self_attn/Concat_7_output_0">
					<dim>3</dim>
				</port>
			</output>
		</layer>
		<layer id="168" name="/layers.0/self_attn/Reshape_7" type="Reshape" version="opset1">
			<data special_zero="true" />
			<rt_info>
				<attribute name="fused_names" version="0" value="/layers.0/self_attn/Reshape_7" />
			</rt_info>
			<input>
				<port id="0" precision="FP32">
					<dim>-1</dim>
					<dim>4</dim>
					<dim>-1</dim>
					<dim>-1</dim>
				</port>
				<port id="1" precision="I64">
					<dim>3</dim>
				</port>
			</input>
			<output>
				<port id="2" precision="FP32" names="/layers.0/self_attn/Reshape_7_output_0">
					<dim>-1</dim>
					<dim>-1</dim>
					<dim>-1</dim>
				</port>
			</output>
		</layer>
		<layer id="169" name="/layers.0/self_attn/Softmax" type="SoftMax" version="opset8">
			<data axis="2" />
			<rt_info>
				<attribute name="fused_names" version="0" value="/layers.0/self_attn/Softmax" />
			</rt_info>
			<input>
				<port id="0" precision="FP32">
					<dim>-1</dim>
					<dim>-1</dim>
					<dim>-1</dim>
				</port>
			</input>
			<output>
				<port id="1" precision="FP32" names="/layers.0/self_attn/Softmax_output_0">
					<dim>-1</dim>
					<dim>-1</dim>
					<dim>-1</dim>
				</port>
			</output>
		</layer>
		<layer id="170" name="onnx::MatMul_383" type="Const" version="opset1">
			<data element_type="f32" shape="16, 16" offset="72796" size="1024" />
			<rt_info>
				<attribute name="fused_names" version="0" value="onnx::MatMul_383" />
			</rt_info>
			<output>
				<port id="0" precision="FP32" names="onnx::MatMul_383">
					<dim>16</dim>
					<dim>16</dim>
				</port>
			</output>
		</layer>
		<layer id="171" name="/layers.0/self_attn/v_proj/MatMul" type="MatMul" version="opset1">
			<data transpose_a="false" transpose_b="false" />
			<rt_info>
				<attribute name="fused_names" version="0" value="/layers.0/self_attn/v_proj/MatMul" />
			</rt_info>
			<input>
				<port id="0" precision="FP32">
					<dim>-1</dim>
					<dim>-1</dim>
					<dim>16</dim>
				</port>
				<port id="1" precision="FP32">
					<dim>16</dim>
					<dim>16</dim>
				</port>
			</input>
			<output>
				<port id="2" precision="FP32" names="/layers.0/self_attn/v_proj/MatMul_output_0">
					<dim>-1</dim>
					<dim>-1</dim>
					<dim>16</dim>
				</port>
			</output>
		</layer>
		<layer id="172" name="/layers.0/self_attn/v_proj/Add" type="Add" version="opset1">
			<data auto_broadcast="numpy" />
			<rt_info>
				<attribute name="fused_names" version="0" value="/layers.0/self_attn/v_proj/Add" />
			</rt_info>
			<input>
				<port id="0" precision="FP32">
					<dim>16</dim>
				</port>
				<port id="1" precision="FP32">
					<dim>-1</dim>
					<dim>-1</dim>
					<dim>16</dim>
				</port>
			</input>
			<output>
				<port id="2" precision="FP32" names="/layers.0/self_attn/v_proj/Add_output_0">
					<dim>-1</dim>
					<dim>-1</dim>
					<dim>16</dim>
				</port>
			</output>
		</layer>
		<layer id="173" name="Constant_4729153" type="Const" version="opset1">
			<data element_type="i64" shape="1" offset="64016" size="8" />
			<rt_info>
				<attribute name="fused_names" version="0" value="Constant_4729153" />
			</rt_info>
			<output>
				<port id="0" precision="I64">
					<dim>1</dim>
				</port>
			</output>
		</layer>
		<layer id="174" name="/layers.0/self_attn/Unsqueeze_1" type="Unsqueeze" version="opset1">
			<rt_info>
				<attribute name="fused_names" version="0" value="/layers.0/self_attn/Unsqueeze_1, Constant_4729153" />
			</rt_info>
			<input>
				<port id="0" precision="I64" />
				<port id="1" precision="I64">
					<dim>1</dim>
				</port>
			</input>
			<output>
				<port id="2" precision="I64" names="/layers.0/self_attn/Unsqueeze_1_output_0">
					<dim>1</dim>
				</port>
			</output>
		</layer>
		<layer id="175" name="/layers.0/self_attn/Constant_6" type="Const" version="opset1">
			<data element_type="i64" shape="1" offset="64000" size="8" />
			<rt_info>
				<attribute name="fused_names" version="0" value="/layers.0/self_attn/Constant_6" />
			</rt_info>
			<output>
				<port id="0" precision="I64" names="/layers.0/self_attn/Constant_6_output_0">
					<dim>1</dim>
				</port>
			</output>
		</layer>
		<layer id="176" name="/layers.0/self_attn/Constant_7" type="Const" version="opset1">
			<data element_type="i64" shape="1" offset="71728" size="8" />
			<rt_info>
				<attribute name="fused_names" version="0" value="/layers.0/self_attn/Constant_7" />
			</rt_info>
			<output>
				<port id="0" precision="I64" names="/layers.0/self_attn/Constant_7_output_0">
					<dim>1</dim>
				</port>
			</output>
		</layer>
		<layer id="177" name="/layers.0/self_attn/Constant_8" type="Const" version="opset1">
			<data element_type="i64" shape="1" offset="71728" size="8" />
			<rt_info>
				<attribute name="fused_names" version="0" value="/layers.0/self_attn/Constant_8" />
			</rt_info>
			<output>
				<port id="0" precision="I64" names="/layers.0/self_attn/Constant_8_output_0">
					<dim>1</dim>
				</port>
			</output>
		</layer>
		<layer id="178" name="/layers.0/self_attn/Concat_1" type="Concat" version="opset1">
			<data axis="0" />
			<rt_info>
				<attribute name="fused_names" version="0" value="/layers.0/self_attn/Concat_1, /layers.0/self_attn/Constant_6, /layers.0/self_attn/Constant_7, /layers.0/self_attn/Constant_8" />
			</rt_info>
			<input>
				<port id="0" precision="I64">
					<dim>1</dim>
				</port>
				<port id="1" precision="I64">
					<dim>1</dim>
				</port>
				<port id="2" precision="I64">
					<dim>1</dim>
				</port>
				<port id="3" precision="I64">
					<dim>1</dim>
				</port>
			</input>
			<output>
				<port id="4" precision="I64" names="/layers.0/self_attn/Concat_1_output_0">
					<dim>4</dim>
				</port>
			</output>
		</layer>
		<layer id="179" name="/layers.0/self_attn/Reshape_1" type="Reshape" version="opset1">
			<data special_zero="true" />
			<rt_info>
				<attribute name="fused_names" version="0" value="/layers.0/self_attn/Reshape_1" />
			</rt_info>
			<input>
				<port id="0" precision="FP32">
					<dim>-1</dim>
					<dim>-1</dim>
					<dim>16</dim>
				</port>
				<port id="1" precision="I64">
					<dim>4</dim>
				</port>
			</input>
			<output>
				<port id="2" precision="FP32" names="/layers.0/self_attn/Reshape_1_output_0">
					<dim>-1</dim>
					<dim>-1</dim>
					<dim>4</dim>
					<dim>4</dim>
				</port>
			</output>
		</layer>
		<layer id="180" name="Constant_4729177" type="Const" version="opset1">
			<data element_type="i64" shape="4" offset="71736" size="32" />
			<rt_info>
				<attribute name="fused_names" version="0" value="Constant_4729177" />
			</rt_info>
			<output>
				<port id="0" precision="I64">
					<dim>4</dim>
				</port>
			</output>
		</layer>
		<layer id="181" name="/layers.0/self_attn/Transpose_1" type="Transpose" version="opset1">
			<rt_info>
				<attribute name="fused_names" version="0" value="/layers.0/self_attn/Transpose_1" />
			</rt_info>
			<input>
				<port id="0" precision="FP32">
					<dim>-1</dim>
					<dim>-1</dim>
					<dim>4</dim>
					<dim>4</dim>
				</port>
				<port id="1" precision="I64">
					<dim>4</dim>
				</port>
			</input>
			<output>
				<port id="2" precision="FP32" names="/layers.0/self_attn/Transpose_1_output_0">
					<dim>-1</dim>
					<dim>4</dim>
					<dim>-1</dim>
					<dim>4</dim>
				</port>
			</output>
		</layer>
		<layer id="182" name="Constant_4729211" type="Const" version="opset1">
			<data element_type="i64" shape="1" offset="64016" size="8" />
			<rt_info>
				<attribute name="fused_names" version="0" value="Constant_4729211" />
			</rt_info>
			<output>
				<port id="0" precision="I64">
					<dim>1</dim>
				</port>
			</output>
		</layer>
		<layer id="183" name="/layers.0/self_attn/Unsqueeze_6" type="Unsqueeze" version="opset1">
			<rt_info>
				<attribute name="fused_names" version="0" value="/layers.0/self_attn/Unsqueeze_6, Constant_4729211" />
			</rt_info>
			<input>
				<port id="0" precision="I64" />
				<port id="1" precision="I64">
					<dim>1</dim>
				</port>
			</input>
			<output>
				<port id="2" precision="I64" names="/layers.0/self_attn/Unsqueeze_6_output_0">
					<dim>1</dim>
				</port>
			</output>
		</layer>
		<layer id="184" name="/layers.0/self_attn/Constant_16" type="Const" version="opset1">
			<data element_type="i64" shape="1" offset="64000" size="8" />
			<rt_info>
				<attribute name="fused_names" version="0" value="/layers.0/self_attn/Constant_16" />
			</rt_info>
			<output>
				<port id="0" precision="I64" names="/layers.0/self_attn/Constant_16_output_0">
					<dim>1</dim>
				</port>
			</output>
		</layer>
		<layer id="185" name="/layers.0/self_attn/Constant_17" type="Const" version="opset1">
			<data element_type="i64" shape="1" offset="71728" size="8" />
			<rt_info>
				<attribute name="fused_names" version="0" value="/layers.0/self_attn/Constant_17" />
			</rt_info>
			<output>
				<port id="0" precision="I64" names="/layers.0/self_attn/Constant_17_output_0">
					<dim>1</dim>
				</port>
			</output>
		</layer>
		<layer id="186" name="/layers.0/self_attn/Concat_5" type="Concat" version="opset1">
			<data axis="0" />
			<rt_info>
				<attribute name="fused_names" version="0" value="/layers.0/self_attn/Concat_5, /layers.0/self_attn/Constant_16, /layers.0/self_attn/Constant_17" />
			</rt_info>
			<input>
				<port id="0" precision="I64">
					<dim>1</dim>
				</port>
				<port id="1" precision="I64">
					<dim>1</dim>
				</port>
				<port id="2" precision="I64">
					<dim>1</dim>
				</port>
			</input>
			<output>
				<port id="3" precision="I64" names="/layers.0/self_attn/Concat_5_output_0">
					<dim>3</dim>
				</port>
			</output>
		</layer>
		<layer id="187" name="/layers.0/self_attn/Reshape_5" type="Reshape" version="opset1">
			<data special_zero="true" />
			<rt_info>
				<attribute name="fused_names" version="0" value="/layers.0/self_attn/Reshape_5" />
			</rt_info>
			<input>
				<port id="0" precision="FP32">
					<dim>-1</dim>
					<dim>4</dim>
					<dim>-1</dim>
					<dim>4</dim>
				</port>
				<port id="1" precision="I64">
					<dim>3</dim>
				</port>
			</input>
			<output>
				<port id="2" precision="FP32" names="/layers.0/self_attn/Reshape_5_output_0">
					<dim>-1</dim>
					<dim>-1</dim>
					<dim>4</dim>
				</port>
			</output>
		</layer>
		<layer id="188" name="/layers.0/self_attn/MatMul_1" type="MatMul" version="opset1">
			<data transpose_a="false" transpose_b="false" />
			<rt_info>
				<attribute name="fused_names" version="0" value="/layers.0/self_attn/MatMul_1" />
			</rt_info>
			<input>
				<port id="0" precision="FP32">
					<dim>-1</dim>
					<dim>-1</dim>
					<dim>-1</dim>
				</port>
				<port id="1" precision="FP32">
					<dim>-1</dim>
					<dim>-1</dim>
					<dim>4</dim>
				</port>
			</input>
			<output>
				<port id="2" precision="FP32" names="/layers.0/self_attn/MatMul_1_output_0">
					<dim>-1</dim>
					<dim>-1</dim>
					<dim>4</dim>
				</port>
			</output>
		</layer>
		<layer id="189" name="Constant_4729516" type="Const" version="opset1">
			<data element_type="i64" shape="1" offset="64016" size="8" />
			<rt_info>
				<attribute name="fused_names" version="0" value="Constant_4729516" />
			</rt_info>
			<output>
				<port id="0" precision="I64">
					<dim>1</dim>
				</port>
			</output>
		</layer>
		<layer id="190" name="/layers.0/self_attn/Unsqueeze_13" type="Unsqueeze" version="opset1">
			<rt_info>
				<attribute name="fused_names" version="0" value="/layers.0/self_attn/Unsqueeze_13, Constant_4729516" />
			</rt_info>
			<input>
				<port id="0" precision="I64" />
				<port id="1" precision="I64">
					<dim>1</dim>
				</port>
			</input>
			<output>
				<port id="2" precision="I64" names="/layers.0/self_attn/Unsqueeze_13_output_0">
					<dim>1</dim>
				</port>
			</output>
		</layer>
		<layer id="191" name="/layers.0/self_attn/Constant_20" type="Const" version="opset1">
			<data element_type="i64" shape="1" offset="71728" size="8" />
			<rt_info>
				<attribute name="fused_names" version="0" value="/layers.0/self_attn/Constant_20" />
			</rt_info>
			<output>
				<port id="0" precision="I64" names="/layers.0/self_attn/Constant_20_output_0">
					<dim>1</dim>
				</port>
			</output>
		</layer>
		<layer id="192" name="Constant_4729519" type="Const" version="opset1">
			<data element_type="i64" shape="1" offset="64016" size="8" />
			<rt_info>
				<attribute name="fused_names" version="0" value="Constant_4729519" />
			</rt_info>
			<output>
				<port id="0" precision="I64">
					<dim>1</dim>
				</port>
			</output>
		</layer>
		<layer id="193" name="/layers.0/self_attn/Unsqueeze_14" type="Unsqueeze" version="opset1">
			<rt_info>
				<attribute name="fused_names" version="0" value="/layers.0/self_attn/Unsqueeze_14, Constant_4729519" />
			</rt_info>
			<input>
				<port id="0" precision="I64" />
				<port id="1" precision="I64">
					<dim>1</dim>
				</port>
			</input>
			<output>
				<port id="2" precision="I64" names="/layers.0/self_attn/Unsqueeze_14_output_0">
					<dim>1</dim>
				</port>
			</output>
		</layer>
		<layer id="194" name="/layers.0/self_attn/Constant_21" type="Const" version="opset1">
			<data element_type="i64" shape="1" offset="71728" size="8" />
			<rt_info>
				<attribute name="fused_names" version="0" value="/layers.0/self_attn/Constant_21" />
			</rt_info>
			<output>
				<port id="0" precision="I64" names="/layers.0/self_attn/Constant_21_output_0">
					<dim>1</dim>
				</port>
			</output>
		</layer>
		<layer id="195" name="/layers.0/self_attn/Concat_8" type="Concat" version="opset1">
			<data axis="0" />
			<rt_info>
				<attribute name="fused_names" version="0" value="/layers.0/self_attn/Concat_8, /layers.0/self_attn/Constant_20, /layers.0/self_attn/Constant_21" />
			</rt_info>
			<input>
				<port id="0" precision="I64">
					<dim>1</dim>
				</port>
				<port id="1" precision="I64">
					<dim>1</dim>
				</port>
				<port id="2" precision="I64">
					<dim>1</dim>
				</port>
				<port id="3" precision="I64">
					<dim>1</dim>
				</port>
			</input>
			<output>
				<port id="4" precision="I64" names="/layers.0/self_attn/Concat_8_output_0">
					<dim>4</dim>
				</port>
			</output>
		</layer>
		<layer id="196" name="/layers.0/self_attn/Reshape_8" type="Reshape" version="opset1">
			<data special_zero="true" />
			<rt_info>
				<attribute name="fused_names" version="0" value="/layers.0/self_attn/Reshape_8" />
			</rt_info>
			<input>
				<port id="0" precision="FP32">
					<dim>-1</dim>
					<dim>-1</dim>
					<dim>4</dim>
				</port>
				<port id="1" precision="I64">
					<dim>4</dim>
				</port>
			</input>
			<output>
				<port id="2" precision="FP32" names="/layers.0/self_attn/Reshape_8_output_0">
					<dim>-1</dim>
					<dim>4</dim>
					<dim>-1</dim>
					<dim>4</dim>
				</port>
			</output>
		</layer>
		<layer id="197" name="Constant_4729534" type="Const" version="opset1">
			<data element_type="i64" shape="4" offset="71736" size="32" />
			<rt_info>
				<attribute name="fused_names" version="0" value="Constant_4729534" />
			</rt_info>
			<output>
				<port id="0" precision="I64">
					<dim>4</dim>
				</port>
			</output>
		</layer>
		<layer id="198" name="/layers.0/self_attn/Transpose_4" type="Transpose" version="opset1">
			<rt_info>
				<attribute name="fused_names" version="0" value="/layers.0/self_attn/Transpose_4" />
			</rt_info>
			<input>
				<port id="0" precision="FP32">
					<dim>-1</dim>
					<dim>4</dim>
					<dim>-1</dim>
					<dim>4</dim>
				</port>
				<port id="1" precision="I64">
					<dim>4</dim>
				</port>
			</input>
			<output>
				<port id="2" precision="FP32" names="/layers.0/self_attn/Transpose_4_output_0">
					<dim>-1</dim>
					<dim>-1</dim>
					<dim>4</dim>
					<dim>4</dim>
				</port>
			</output>
		</layer>
		<layer id="199" name="Constant_4729536" type="Const" version="opset1">
			<data element_type="i64" shape="1" offset="64016" size="8" />
			<rt_info>
				<attribute name="fused_names" version="0" value="Constant_4729536" />
			</rt_info>
			<output>
				<port id="0" precision="I64">
					<dim>1</dim>
				</port>
			</output>
		</layer>
		<layer id="200" name="/layers.0/self_attn/Unsqueeze_15" type="Unsqueeze" version="opset1">
			<rt_info>
				<attribute name="fused_names" version="0" value="/layers.0/self_attn/Unsqueeze_15, Constant_4729536" />
			</rt_info>
			<input>
				<port id="0" precision="I64" />
				<port id="1" precision="I64">
					<dim>1</dim>
				</port>
			</input>
			<output>
				<port id="2" precision="I64" names="/layers.0/self_attn/Unsqueeze_15_output_0">
					<dim>1</dim>
				</port>
			</output>
		</layer>
		<layer id="201" name="Constant_4729538" type="Const" version="opset1">
			<data element_type="i64" shape="1" offset="64016" size="8" />
			<rt_info>
				<attribute name="fused_names" version="0" value="Constant_4729538" />
			</rt_info>
			<output>
				<port id="0" precision="I64">
					<dim>1</dim>
				</port>
			</output>
		</layer>
		<layer id="202" name="/layers.0/self_attn/Unsqueeze_16" type="Unsqueeze" version="opset1">
			<rt_info>
				<attribute name="fused_names" version="0" value="/layers.0/self_attn/Unsqueeze_16, Constant_4729538" />
			</rt_info>
			<input>
				<port id="0" precision="I64" />
				<port id="1" precision="I64">
					<dim>1</dim>
				</port>
			</input>
			<output>
				<port id="2" precision="I64" names="/layers.0/self_attn/Unsqueeze_16_output_0">
					<dim>1</dim>
				</port>
			</output>
		</layer>
		<layer id="203" name="/layers.0/self_attn/Constant_22" type="Const" version="opset1">
			<data element_type="i64" shape="1" offset="73820" size="8" />
			<rt_info>
				<attribute name="fused_names" version="0" value="/layers.0/self_attn/Constant_22" />
			</rt_info>
			<output>
				<port id="0" precision="I64" names="/layers.0/self_attn/Constant_22_output_0">
					<dim>1</dim>
				</port>
			</output>
		</layer>
		<layer id="204" name="/layers.0/self_attn/Concat_9" type="Concat" version="opset1">
			<data axis="0" />
			<rt_info>
				<attribute name="fused_names" version="0" value="/layers.0/self_attn/Concat_9, /layers.0/self_attn/Constant_22" />
			</rt_info>
			<input>
				<port id="0" precision="I64">
					<dim>1</dim>
				</port>
				<port id="1" precision="I64">
					<dim>1</dim>
				</port>
				<port id="2" precision="I64">
					<dim>1</dim>
				</port>
			</input>
			<output>
				<port id="3" precision="I64" names="/layers.0/self_attn/Concat_9_output_0">
					<dim>3</dim>
				</port>
			</output>
		</layer>
		<layer id="205" name="/layers.0/self_attn/Reshape_9" type="Reshape" version="opset1">
			<data special_zero="true" />
			<rt_info>
				<attribute name="fused_names" version="0" value="/layers.0/self_attn/Reshape_9" />
			</rt_info>
			<input>
				<port id="0" precision="FP32">
					<dim>-1</dim>
					<dim>-1</dim>
					<dim>4</dim>
					<dim>4</dim>
				</port>
				<port id="1" precision="I64">
					<dim>3</dim>
				</port>
			</input>
			<output>
				<port id="2" precision="FP32" names="/layers.0/self_attn/Reshape_9_output_0">
					<dim>-1</dim>
					<dim>-1</dim>
					<dim>16</dim>
				</port>
			</output>
		</layer>
		<layer id="206" name="onnx::MatMul_396" type="Const" version="opset1">
			<data element_type="f32" shape="16, 16" offset="73828" size="1024" />
			<rt_info>
				<attribute name="fused_names" version="0" value="onnx::MatMul_396" />
			</rt_info>
			<output>
				<port id="0" precision="FP32" names="onnx::MatMul_396">
					<dim>16</dim>
					<dim>16</dim>
				</port>
			</output>
		</layer>
		<layer id="207" name="/layers.0/self_attn/out_proj/MatMul" type="MatMul" version="opset1">
			<data transpose_a="false" transpose_b="false" />
			<rt_info>
				<attribute name="fused_names" version="0" value="/layers.0/self_attn/out_proj/MatMul" />
			</rt_info>
			<input>
				<port id="0" precision="FP32">
					<dim>-1</dim>
					<dim>-1</dim>
					<dim>16</dim>
				</port>
				<port id="1" precision="FP32">
					<dim>16</dim>
					<dim>16</dim>
				</port>
			</input>
			<output>
				<port id="2" precision="FP32" names="/layers.0/self_attn/out_proj/MatMul_output_0">
					<dim>-1</dim>
					<dim>-1</dim>
					<dim>16</dim>
				</port>
			</output>
		</layer>
		<layer id="208" name="/layers.0/self_attn/out_proj/Add" type="Add" version="opset1">
			<data auto_broadcast="numpy" />
			<rt_info>
				<attribute name="fused_names" version="0" value="/layers.0/self_attn/out_proj/Add" />
			</rt_info>
			<input>
				<port id="0" precision="FP32">
					<dim>16</dim>
				</port>
				<port id="1" precision="FP32">
					<dim>-1</dim>
					<dim>-1</dim>
					<dim>16</dim>
				</port>
			</input>
			<output>
				<port id="2" precision="FP32" names="/layers.0/self_attn/out_proj/Add_output_0">
					<dim>-1</dim>
					<dim>-1</dim>
					<dim>16</dim>
				</port>
			</output>
		</layer>
		<layer id="209" name="/layers.0/Add" type="Add" version="opset1">
			<data auto_broadcast="numpy" />
			<rt_info>
				<attribute name="fused_names" version="0" value="/layers.0/Add" />
			</rt_info>
			<input>
				<port id="0" precision="FP32">
					<dim>-1</dim>
					<dim>-1</dim>
					<dim>16</dim>
				</port>
				<port id="1" precision="FP32">
					<dim>-1</dim>
					<dim>-1</dim>
					<dim>16</dim>
				</port>
			</input>
			<output>
				<port id="2" precision="FP32" names="/layers.0/Add_output_0">
					<dim>-1</dim>
					<dim>-1</dim>
					<dim>16</dim>
				</port>
			</output>
		</layer>
		<layer id="210" name="Constant_4729556" type="Const" version="opset1">
			<data element_type="i64" shape="1" offset="64000" size="8" />
			<rt_info>
				<attribute name="fused_names" version="0" value="Constant_4729556" />
			</rt_info>
			<output>
				<port id="0" precision="I64">
					<dim>1</dim>
				</port>
			</output>
		</layer>
		<layer id="211" name="/layers.0/self_attn_layer_norm/ReduceMean" type="ReduceMean" version="opset1">
			<data keep_dims="true" />
			<rt_info>
				<attribute name="fused_names" version="0" value="/layers.0/self_attn_layer_norm/ReduceMean" />
			</rt_info>
			<input>
				<port id="0" precision="FP32">
					<dim>-1</dim>
					<dim>-1</dim>
					<dim>16</dim>
				</port>
				<port id="1" precision="I64">
					<dim>1</dim>
				</port>
			</input>
			<output>
				<port id="2" precision="FP32" names="/layers.0/self_attn_layer_norm/ReduceMean_output_0">
					<dim>-1</dim>
					<dim>-1</dim>
					<dim>1</dim>
				</port>
			</output>
		</layer>
		<layer id="212" name="/layers.0/self_attn_layer_norm/Sub" type="Subtract" version="opset1">
			<data auto_broadcast="numpy" />
			<rt_info>
				<attribute name="fused_names" version="0" value="/layers.0/self_attn_layer_norm/Sub" />
			</rt_info>
			<input>
				<port id="0" precision="FP32">
					<dim>-1</dim>
					<dim>-1</dim>
					<dim>16</dim>
				</port>
				<port id="1" precision="FP32">
					<dim>-1</dim>
					<dim>-1</dim>
					<dim>1</dim>
				</port>
			</input>
			<output>
				<port id="2" precision="FP32" names="/layers.0/self_attn_layer_norm/Sub_output_0">
					<dim>-1</dim>
					<dim>-1</dim>
					<dim>16</dim>
				</port>
			</output>
		</layer>
		<layer id="213" name="/layers.0/self_attn_layer_norm/Constant" type="Const" version="opset1">
			<data element_type="f32" shape="" offset="70564" size="4" />
			<rt_info>
				<attribute name="fused_names" version="0" value="/layers.0/self_attn_layer_norm/Constant" />
			</rt_info>
			<output>
				<port id="0" precision="FP32" names="/layers.0/self_attn_layer_norm/Constant_output_0" />
			</output>
		</layer>
		<layer id="214" name="/layers.0/self_attn_layer_norm/Pow" type="Power" version="opset1">
			<data auto_broadcast="numpy" />
			<rt_info>
				<attribute name="fused_names" version="0" value="/layers.0/self_attn_layer_norm/Pow" />
			</rt_info>
			<input>
				<port id="0" precision="FP32">
					<dim>-1</dim>
					<dim>-1</dim>
					<dim>16</dim>
				</port>
				<port id="1" precision="FP32" />
			</input>
			<output>
				<port id="2" precision="FP32" names="/layers.0/self_attn_layer_norm/Pow_output_0">
					<dim>-1</dim>
					<dim>-1</dim>
					<dim>16</dim>
				</port>
			</output>
		</layer>
		<layer id="215" name="Constant_4729561" type="Const" version="opset1">
			<data element_type="i64" shape="1" offset="64000" size="8" />
			<rt_info>
				<attribute name="fused_names" version="0" value="Constant_4729561" />
			</rt_info>
			<output>
				<port id="0" precision="I64">
					<dim>1</dim>
				</port>
			</output>
		</layer>
		<layer id="216" name="/layers.0/self_attn_layer_norm/ReduceMean_1" type="ReduceMean" version="opset1">
			<data keep_dims="true" />
			<rt_info>
				<attribute name="fused_names" version="0" value="/layers.0/self_attn_layer_norm/ReduceMean_1" />
			</rt_info>
			<input>
				<port id="0" precision="FP32">
					<dim>-1</dim>
					<dim>-1</dim>
					<dim>16</dim>
				</port>
				<port id="1" precision="I64">
					<dim>1</dim>
				</port>
			</input>
			<output>
				<port id="2" precision="FP32" names="/layers.0/self_attn_layer_norm/ReduceMean_1_output_0">
					<dim>-1</dim>
					<dim>-1</dim>
					<dim>1</dim>
				</port>
			</output>
		</layer>
		<layer id="217" name="/layers.0/self_attn_layer_norm/Constant_1" type="Const" version="opset1">
			<data element_type="f32" shape="" offset="70568" size="4" />
			<rt_info>
				<attribute name="fused_names" version="0" value="/layers.0/self_attn_layer_norm/Constant_1" />
			</rt_info>
			<output>
				<port id="0" precision="FP32" names="/layers.0/self_attn_layer_norm/Constant_1_output_0" />
			</output>
		</layer>
		<layer id="218" name="/layers.0/self_attn_layer_norm/Add" type="Add" version="opset1">
			<data auto_broadcast="numpy" />
			<rt_info>
				<attribute name="fused_names" version="0" value="/layers.0/self_attn_layer_norm/Add" />
			</rt_info>
			<input>
				<port id="0" precision="FP32">
					<dim>-1</dim>
					<dim>-1</dim>
					<dim>1</dim>
				</port>
				<port id="1" precision="FP32" />
			</input>
			<output>
				<port id="2" precision="FP32" names="/layers.0/self_attn_layer_norm/Add_output_0">
					<dim>-1</dim>
					<dim>-1</dim>
					<dim>1</dim>
				</port>
			</output>
		</layer>
		<layer id="219" name="/layers.0/self_attn_layer_norm/Sqrt" type="Sqrt" version="opset1">
			<rt_info>
				<attribute name="fused_names" version="0" value="/layers.0/self_attn_layer_norm/Sqrt" />
			</rt_info>
			<input>
				<port id="0" precision="FP32">
					<dim>-1</dim>
					<dim>-1</dim>
					<dim>1</dim>
				</port>
			</input>
			<output>
				<port id="1" precision="FP32" names="/layers.0/self_attn_layer_norm/Sqrt_output_0">
					<dim>-1</dim>
					<dim>-1</dim>
					<dim>1</dim>
				</port>
			</output>
		</layer>
		<layer id="220" name="/layers.0/self_attn_layer_norm/Div" type="Divide" version="opset1">
			<data auto_broadcast="numpy" m_pythondiv="true" />
			<rt_info>
				<attribute name="fused_names" version="0" value="/layers.0/self_attn_layer_norm/Div" />
			</rt_info>
			<input>
				<port id="0" precision="FP32">
					<dim>-1</dim>
					<dim>-1</dim>
					<dim>16</dim>
				</port>
				<port id="1" precision="FP32">
					<dim>-1</dim>
					<dim>-1</dim>
					<dim>1</dim>
				</port>
			</input>
			<output>
				<port id="2" precision="FP32" names="/layers.0/self_attn_layer_norm/Div_output_0">
					<dim>-1</dim>
					<dim>-1</dim>
					<dim>16</dim>
				</port>
			</output>
		</layer>
		<layer id="221" name="/layers.0/self_attn_layer_norm/Mul" type="Multiply" version="opset1">
			<data auto_broadcast="numpy" />
			<rt_info>
				<attribute name="fused_names" version="0" value="/layers.0/self_attn_layer_norm/Mul" />
			</rt_info>
			<input>
				<port id="0" precision="FP32">
					<dim>-1</dim>
					<dim>-1</dim>
					<dim>16</dim>
				</port>
				<port id="1" precision="FP32">
					<dim>16</dim>
				</port>
			</input>
			<output>
				<port id="2" precision="FP32" names="/layers.0/self_attn_layer_norm/Mul_output_0">
					<dim>-1</dim>
					<dim>-1</dim>
					<dim>16</dim>
				</port>
			</output>
		</layer>
		<layer id="222" name="/layers.0/self_attn_layer_norm/Add_1" type="Add" version="opset1">
			<data auto_broadcast="numpy" />
			<rt_info>
				<attribute name="fused_names" version="0" value="/layers.0/self_attn_layer_norm/Add_1" />
			</rt_info>
			<input>
				<port id="0" precision="FP32">
					<dim>-1</dim>
					<dim>-1</dim>
					<dim>16</dim>
				</port>
				<port id="1" precision="FP32">
					<dim>16</dim>
				</port>
			</input>
			<output>
				<port id="2" precision="FP32" names="/layers.0/self_attn_layer_norm/Add_1_output_0">
					<dim>-1</dim>
					<dim>-1</dim>
					<dim>16</dim>
				</port>
			</output>
		</layer>
		<layer id="223" name="layers.1.fc1.bias" type="Const" version="opset1">
			<data element_type="f32" shape="4" offset="74852" size="16" />
			<rt_info>
				<attribute name="fused_names" version="0" value="layers.1.fc1.bias" />
			</rt_info>
			<output>
				<port id="0" precision="FP32" names="layers.0.fc1.bias,layers.1.fc1.bias">
					<dim>4</dim>
				</port>
			</output>
		</layer>
		<layer id="224" name="onnx::MatMul_397" type="Const" version="opset1">
			<data element_type="f32" shape="16, 4" offset="74868" size="256" />
			<rt_info>
				<attribute name="fused_names" version="0" value="onnx::MatMul_397" />
			</rt_info>
			<output>
				<port id="0" precision="FP32" names="onnx::MatMul_397">
					<dim>16</dim>
					<dim>4</dim>
				</port>
			</output>
		</layer>
		<layer id="225" name="/layers.0/fc1/MatMul" type="MatMul" version="opset1">
			<data transpose_a="false" transpose_b="false" />
			<rt_info>
				<attribute name="fused_names" version="0" value="/layers.0/fc1/MatMul" />
			</rt_info>
			<input>
				<port id="0" precision="FP32">
					<dim>-1</dim>
					<dim>-1</dim>
					<dim>16</dim>
				</port>
				<port id="1" precision="FP32">
					<dim>16</dim>
					<dim>4</dim>
				</port>
			</input>
			<output>
				<port id="2" precision="FP32" names="/layers.0/fc1/MatMul_output_0">
					<dim>-1</dim>
					<dim>-1</dim>
					<dim>4</dim>
				</port>
			</output>
		</layer>
		<layer id="226" name="/layers.0/fc1/Add" type="Add" version="opset1">
			<data auto_broadcast="numpy" />
			<rt_info>
				<attribute name="fused_names" version="0" value="/layers.0/fc1/Add" />
			</rt_info>
			<input>
				<port id="0" precision="FP32">
					<dim>4</dim>
				</port>
				<port id="1" precision="FP32">
					<dim>-1</dim>
					<dim>-1</dim>
					<dim>4</dim>
				</port>
			</input>
			<output>
				<port id="2" precision="FP32" names="/layers.0/fc1/Add_output_0">
					<dim>-1</dim>
					<dim>-1</dim>
					<dim>4</dim>
				</port>
			</output>
		</layer>
		<layer id="227" name="/layers.0/activation_fn/Constant" type="Const" version="opset1">
			<data element_type="f32" shape="" offset="75124" size="4" />
			<rt_info>
				<attribute name="fused_names" version="0" value="/layers.0/activation_fn/Constant" />
			</rt_info>
			<output>
				<port id="0" precision="FP32" names="/layers.0/activation_fn/Constant_output_0" />
			</output>
		</layer>
		<layer id="228" name="/layers.0/activation_fn/Div" type="Divide" version="opset1">
			<data auto_broadcast="numpy" m_pythondiv="true" />
			<rt_info>
				<attribute name="fused_names" version="0" value="/layers.0/activation_fn/Div" />
			</rt_info>
			<input>
				<port id="0" precision="FP32">
					<dim>-1</dim>
					<dim>-1</dim>
					<dim>4</dim>
				</port>
				<port id="1" precision="FP32" />
			</input>
			<output>
				<port id="2" precision="FP32" names="/layers.0/activation_fn/Div_output_0">
					<dim>-1</dim>
					<dim>-1</dim>
					<dim>4</dim>
				</port>
			</output>
		</layer>
		<layer id="229" name="/layers.0/activation_fn/Erf" type="Erf" version="opset1">
			<rt_info>
				<attribute name="fused_names" version="0" value="/layers.0/activation_fn/Erf" />
			</rt_info>
			<input>
				<port id="0" precision="FP32">
					<dim>-1</dim>
					<dim>-1</dim>
					<dim>4</dim>
				</port>
			</input>
			<output>
				<port id="1" precision="FP32" names="/layers.0/activation_fn/Erf_output_0">
					<dim>-1</dim>
					<dim>-1</dim>
					<dim>4</dim>
				</port>
			</output>
		</layer>
		<layer id="230" name="/layers.0/activation_fn/Constant_1" type="Const" version="opset1">
			<data element_type="f32" shape="" offset="64024" size="4" />
			<rt_info>
				<attribute name="fused_names" version="0" value="/layers.0/activation_fn/Constant_1" />
			</rt_info>
			<output>
				<port id="0" precision="FP32" names="/layers.0/activation_fn/Constant_1_output_0" />
			</output>
		</layer>
		<layer id="231" name="/layers.0/activation_fn/Add" type="Add" version="opset1">
			<data auto_broadcast="numpy" />
			<rt_info>
				<attribute name="fused_names" version="0" value="/layers.0/activation_fn/Add" />
			</rt_info>
			<input>
				<port id="0" precision="FP32">
					<dim>-1</dim>
					<dim>-1</dim>
					<dim>4</dim>
				</port>
				<port id="1" precision="FP32" />
			</input>
			<output>
				<port id="2" precision="FP32" names="/layers.0/activation_fn/Add_output_0">
					<dim>-1</dim>
					<dim>-1</dim>
					<dim>4</dim>
				</port>
			</output>
		</layer>
		<layer id="232" name="/layers.0/activation_fn/Mul" type="Multiply" version="opset1">
			<data auto_broadcast="numpy" />
			<rt_info>
				<attribute name="fused_names" version="0" value="/layers.0/activation_fn/Mul" />
			</rt_info>
			<input>
				<port id="0" precision="FP32">
					<dim>-1</dim>
					<dim>-1</dim>
					<dim>4</dim>
				</port>
				<port id="1" precision="FP32">
					<dim>-1</dim>
					<dim>-1</dim>
					<dim>4</dim>
				</port>
			</input>
			<output>
				<port id="2" precision="FP32" names="/layers.0/activation_fn/Mul_output_0">
					<dim>-1</dim>
					<dim>-1</dim>
					<dim>4</dim>
				</port>
			</output>
		</layer>
		<layer id="233" name="/layers.0/activation_fn/Constant_2" type="Const" version="opset1">
			<data element_type="f32" shape="" offset="71724" size="4" />
			<rt_info>
				<attribute name="fused_names" version="0" value="/layers.0/activation_fn/Constant_2" />
			</rt_info>
			<output>
				<port id="0" precision="FP32" names="/layers.0/activation_fn/Constant_2_output_0" />
			</output>
		</layer>
		<layer id="234" name="/layers.0/activation_fn/Mul_1" type="Multiply" version="opset1">
			<data auto_broadcast="numpy" />
			<rt_info>
				<attribute name="fused_names" version="0" value="/layers.0/activation_fn/Mul_1" />
			</rt_info>
			<input>
				<port id="0" precision="FP32">
					<dim>-1</dim>
					<dim>-1</dim>
					<dim>4</dim>
				</port>
				<port id="1" precision="FP32" />
			</input>
			<output>
				<port id="2" precision="FP32" names="/layers.0/activation_fn/Mul_1_output_0">
					<dim>-1</dim>
					<dim>-1</dim>
					<dim>4</dim>
				</port>
			</output>
		</layer>
		<layer id="235" name="onnx::MatMul_398" type="Const" version="opset1">
			<data element_type="f32" shape="4, 16" offset="75128" size="256" />
			<rt_info>
				<attribute name="fused_names" version="0" value="onnx::MatMul_398" />
			</rt_info>
			<output>
				<port id="0" precision="FP32" names="onnx::MatMul_398">
					<dim>4</dim>
					<dim>16</dim>
				</port>
			</output>
		</layer>
		<layer id="236" name="/layers.0/fc2/MatMul" type="MatMul" version="opset1">
			<data transpose_a="false" transpose_b="false" />
			<rt_info>
				<attribute name="fused_names" version="0" value="/layers.0/fc2/MatMul" />
			</rt_info>
			<input>
				<port id="0" precision="FP32">
					<dim>-1</dim>
					<dim>-1</dim>
					<dim>4</dim>
				</port>
				<port id="1" precision="FP32">
					<dim>4</dim>
					<dim>16</dim>
				</port>
			</input>
			<output>
				<port id="2" precision="FP32" names="/layers.0/fc2/MatMul_output_0">
					<dim>-1</dim>
					<dim>-1</dim>
					<dim>16</dim>
				</port>
			</output>
		</layer>
		<layer id="237" name="/layers.0/fc2/Add" type="Add" version="opset1">
			<data auto_broadcast="numpy" />
			<rt_info>
				<attribute name="fused_names" version="0" value="/layers.0/fc2/Add" />
			</rt_info>
			<input>
				<port id="0" precision="FP32">
					<dim>16</dim>
				</port>
				<port id="1" precision="FP32">
					<dim>-1</dim>
					<dim>-1</dim>
					<dim>16</dim>
				</port>
			</input>
			<output>
				<port id="2" precision="FP32" names="/layers.0/fc2/Add_output_0">
					<dim>-1</dim>
					<dim>-1</dim>
					<dim>16</dim>
				</port>
			</output>
		</layer>
		<layer id="238" name="/layers.0/Add_1" type="Add" version="opset1">
			<data auto_broadcast="numpy" />
			<rt_info>
				<attribute name="fused_names" version="0" value="/layers.0/Add_1" />
			</rt_info>
			<input>
				<port id="0" precision="FP32">
					<dim>-1</dim>
					<dim>-1</dim>
					<dim>16</dim>
				</port>
				<port id="1" precision="FP32">
					<dim>-1</dim>
					<dim>-1</dim>
					<dim>16</dim>
				</port>
			</input>
			<output>
				<port id="2" precision="FP32" names="/layers.0/Add_1_output_0">
					<dim>-1</dim>
					<dim>-1</dim>
					<dim>16</dim>
				</port>
			</output>
		</layer>
		<layer id="239" name="Constant_4729582" type="Const" version="opset1">
			<data element_type="i64" shape="1" offset="64000" size="8" />
			<rt_info>
				<attribute name="fused_names" version="0" value="Constant_4729582" />
			</rt_info>
			<output>
				<port id="0" precision="I64">
					<dim>1</dim>
				</port>
			</output>
		</layer>
		<layer id="240" name="/layers.0/final_layer_norm/ReduceMean" type="ReduceMean" version="opset1">
			<data keep_dims="true" />
			<rt_info>
				<attribute name="fused_names" version="0" value="/layers.0/final_layer_norm/ReduceMean" />
			</rt_info>
			<input>
				<port id="0" precision="FP32">
					<dim>-1</dim>
					<dim>-1</dim>
					<dim>16</dim>
				</port>
				<port id="1" precision="I64">
					<dim>1</dim>
				</port>
			</input>
			<output>
				<port id="2" precision="FP32" names="/layers.0/final_layer_norm/ReduceMean_output_0">
					<dim>-1</dim>
					<dim>-1</dim>
					<dim>1</dim>
				</port>
			</output>
		</layer>
		<layer id="241" name="/layers.0/final_layer_norm/Sub" type="Subtract" version="opset1">
			<data auto_broadcast="numpy" />
			<rt_info>
				<attribute name="fused_names" version="0" value="/layers.0/final_layer_norm/Sub" />
			</rt_info>
			<input>
				<port id="0" precision="FP32">
					<dim>-1</dim>
					<dim>-1</dim>
					<dim>16</dim>
				</port>
				<port id="1" precision="FP32">
					<dim>-1</dim>
					<dim>-1</dim>
					<dim>1</dim>
				</port>
			</input>
			<output>
				<port id="2" precision="FP32" names="/layers.0/final_layer_norm/Sub_output_0">
					<dim>-1</dim>
					<dim>-1</dim>
					<dim>16</dim>
				</port>
			</output>
		</layer>
		<layer id="242" name="/layers.0/final_layer_norm/Constant" type="Const" version="opset1">
			<data element_type="f32" shape="" offset="70564" size="4" />
			<rt_info>
				<attribute name="fused_names" version="0" value="/layers.0/final_layer_norm/Constant" />
			</rt_info>
			<output>
				<port id="0" precision="FP32" names="/layers.0/final_layer_norm/Constant_output_0" />
			</output>
		</layer>
		<layer id="243" name="/layers.0/final_layer_norm/Pow" type="Power" version="opset1">
			<data auto_broadcast="numpy" />
			<rt_info>
				<attribute name="fused_names" version="0" value="/layers.0/final_layer_norm/Pow" />
			</rt_info>
			<input>
				<port id="0" precision="FP32">
					<dim>-1</dim>
					<dim>-1</dim>
					<dim>16</dim>
				</port>
				<port id="1" precision="FP32" />
			</input>
			<output>
				<port id="2" precision="FP32" names="/layers.0/final_layer_norm/Pow_output_0">
					<dim>-1</dim>
					<dim>-1</dim>
					<dim>16</dim>
				</port>
			</output>
		</layer>
		<layer id="244" name="Constant_4729587" type="Const" version="opset1">
			<data element_type="i64" shape="1" offset="64000" size="8" />
			<rt_info>
				<attribute name="fused_names" version="0" value="Constant_4729587" />
			</rt_info>
			<output>
				<port id="0" precision="I64">
					<dim>1</dim>
				</port>
			</output>
		</layer>
		<layer id="245" name="/layers.0/final_layer_norm/ReduceMean_1" type="ReduceMean" version="opset1">
			<data keep_dims="true" />
			<rt_info>
				<attribute name="fused_names" version="0" value="/layers.0/final_layer_norm/ReduceMean_1" />
			</rt_info>
			<input>
				<port id="0" precision="FP32">
					<dim>-1</dim>
					<dim>-1</dim>
					<dim>16</dim>
				</port>
				<port id="1" precision="I64">
					<dim>1</dim>
				</port>
			</input>
			<output>
				<port id="2" precision="FP32" names="/layers.0/final_layer_norm/ReduceMean_1_output_0">
					<dim>-1</dim>
					<dim>-1</dim>
					<dim>1</dim>
				</port>
			</output>
		</layer>
		<layer id="246" name="/layers.0/final_layer_norm/Constant_1" type="Const" version="opset1">
			<data element_type="f32" shape="" offset="70568" size="4" />
			<rt_info>
				<attribute name="fused_names" version="0" value="/layers.0/final_layer_norm/Constant_1" />
			</rt_info>
			<output>
				<port id="0" precision="FP32" names="/layers.0/final_layer_norm/Constant_1_output_0" />
			</output>
		</layer>
		<layer id="247" name="/layers.0/final_layer_norm/Add" type="Add" version="opset1">
			<data auto_broadcast="numpy" />
			<rt_info>
				<attribute name="fused_names" version="0" value="/layers.0/final_layer_norm/Add" />
			</rt_info>
			<input>
				<port id="0" precision="FP32">
					<dim>-1</dim>
					<dim>-1</dim>
					<dim>1</dim>
				</port>
				<port id="1" precision="FP32" />
			</input>
			<output>
				<port id="2" precision="FP32" names="/layers.0/final_layer_norm/Add_output_0">
					<dim>-1</dim>
					<dim>-1</dim>
					<dim>1</dim>
				</port>
			</output>
		</layer>
		<layer id="248" name="/layers.0/final_layer_norm/Sqrt" type="Sqrt" version="opset1">
			<rt_info>
				<attribute name="fused_names" version="0" value="/layers.0/final_layer_norm/Sqrt" />
			</rt_info>
			<input>
				<port id="0" precision="FP32">
					<dim>-1</dim>
					<dim>-1</dim>
					<dim>1</dim>
				</port>
			</input>
			<output>
				<port id="1" precision="FP32" names="/layers.0/final_layer_norm/Sqrt_output_0">
					<dim>-1</dim>
					<dim>-1</dim>
					<dim>1</dim>
				</port>
			</output>
		</layer>
		<layer id="249" name="/layers.0/final_layer_norm/Div" type="Divide" version="opset1">
			<data auto_broadcast="numpy" m_pythondiv="true" />
			<rt_info>
				<attribute name="fused_names" version="0" value="/layers.0/final_layer_norm/Div" />
			</rt_info>
			<input>
				<port id="0" precision="FP32">
					<dim>-1</dim>
					<dim>-1</dim>
					<dim>16</dim>
				</port>
				<port id="1" precision="FP32">
					<dim>-1</dim>
					<dim>-1</dim>
					<dim>1</dim>
				</port>
			</input>
			<output>
				<port id="2" precision="FP32" names="/layers.0/final_layer_norm/Div_output_0">
					<dim>-1</dim>
					<dim>-1</dim>
					<dim>16</dim>
				</port>
			</output>
		</layer>
		<layer id="250" name="/layers.0/final_layer_norm/Mul" type="Multiply" version="opset1">
			<data auto_broadcast="numpy" />
			<rt_info>
				<attribute name="fused_names" version="0" value="/layers.0/final_layer_norm/Mul" />
			</rt_info>
			<input>
				<port id="0" precision="FP32">
					<dim>-1</dim>
					<dim>-1</dim>
					<dim>16</dim>
				</port>
				<port id="1" precision="FP32">
					<dim>16</dim>
				</port>
			</input>
			<output>
				<port id="2" precision="FP32" names="/layers.0/final_layer_norm/Mul_output_0">
					<dim>-1</dim>
					<dim>-1</dim>
					<dim>16</dim>
				</port>
			</output>
		</layer>
		<layer id="251" name="/layers.0/final_layer_norm/Add_1" type="Add" version="opset1">
			<data auto_broadcast="numpy" />
			<rt_info>
				<attribute name="fused_names" version="0" value="/layers.0/final_layer_norm/Add_1" />
			</rt_info>
			<input>
				<port id="0" precision="FP32">
					<dim>-1</dim>
					<dim>-1</dim>
					<dim>16</dim>
				</port>
				<port id="1" precision="FP32">
					<dim>16</dim>
				</port>
			</input>
			<output>
				<port id="2" precision="FP32" names="/layers.0/final_layer_norm/Add_1_output_0">
					<dim>-1</dim>
					<dim>-1</dim>
					<dim>16</dim>
				</port>
			</output>
		</layer>
		<layer id="252" name="onnx::MatMul_399" type="Const" version="opset1">
			<data element_type="f32" shape="16, 16" offset="75384" size="1024" />
			<rt_info>
				<attribute name="fused_names" version="0" value="onnx::MatMul_399" />
			</rt_info>
			<output>
				<port id="0" precision="FP32" names="onnx::MatMul_399">
					<dim>16</dim>
					<dim>16</dim>
				</port>
			</output>
		</layer>
		<layer id="253" name="/layers.1/self_attn/q_proj/MatMul" type="MatMul" version="opset1">
			<data transpose_a="false" transpose_b="false" />
			<rt_info>
				<attribute name="fused_names" version="0" value="/layers.1/self_attn/q_proj/MatMul" />
			</rt_info>
			<input>
				<port id="0" precision="FP32">
					<dim>-1</dim>
					<dim>-1</dim>
					<dim>16</dim>
				</port>
				<port id="1" precision="FP32">
					<dim>16</dim>
					<dim>16</dim>
				</port>
			</input>
			<output>
				<port id="2" precision="FP32" names="/layers.1/self_attn/q_proj/MatMul_output_0">
					<dim>-1</dim>
					<dim>-1</dim>
					<dim>16</dim>
				</port>
			</output>
		</layer>
		<layer id="254" name="/layers.1/self_attn/q_proj/Add" type="Add" version="opset1">
			<data auto_broadcast="numpy" />
			<rt_info>
				<attribute name="fused_names" version="0" value="/layers.1/self_attn/q_proj/Add" />
			</rt_info>
			<input>
				<port id="0" precision="FP32">
					<dim>16</dim>
				</port>
				<port id="1" precision="FP32">
					<dim>-1</dim>
					<dim>-1</dim>
					<dim>16</dim>
				</port>
			</input>
			<output>
				<port id="2" precision="FP32" names="/layers.1/self_attn/q_proj/Add_output_0">
					<dim>-1</dim>
					<dim>-1</dim>
					<dim>16</dim>
				</port>
			</output>
		</layer>
		<layer id="255" name="/layers.1/self_attn/Constant_2" type="Const" version="opset1">
			<data element_type="f32" shape="" offset="71724" size="4" />
			<rt_info>
				<attribute name="fused_names" version="0" value="/layers.1/self_attn/Constant_2" />
			</rt_info>
			<output>
				<port id="0" precision="FP32" names="/layers.1/self_attn/Constant_2_output_0" />
			</output>
		</layer>
		<layer id="256" name="/layers.1/self_attn/Mul" type="Multiply" version="opset1">
			<data auto_broadcast="numpy" />
			<rt_info>
				<attribute name="fused_names" version="0" value="/layers.1/self_attn/Mul" />
			</rt_info>
			<input>
				<port id="0" precision="FP32">
					<dim>-1</dim>
					<dim>-1</dim>
					<dim>16</dim>
				</port>
				<port id="1" precision="FP32" />
			</input>
			<output>
				<port id="2" precision="FP32" names="/layers.1/self_attn/Mul_output_0">
					<dim>-1</dim>
					<dim>-1</dim>
					<dim>16</dim>
				</port>
			</output>
		</layer>
		<layer id="257" name="/layers.1/self_attn/Shape" type="ShapeOf" version="opset3">
			<data output_type="i64" />
			<rt_info>
				<attribute name="fused_names" version="0" value="/layers.1/self_attn/Shape" />
			</rt_info>
			<input>
				<port id="0" precision="FP32">
					<dim>-1</dim>
					<dim>-1</dim>
					<dim>16</dim>
				</port>
			</input>
			<output>
				<port id="1" precision="I64" names="/layers.1/self_attn/Shape_output_0">
					<dim>3</dim>
				</port>
			</output>
		</layer>
		<layer id="258" name="/layers.1/self_attn/Constant" type="Const" version="opset1">
			<data element_type="i64" shape="" offset="64016" size="8" />
			<rt_info>
				<attribute name="fused_names" version="0" value="/layers.1/self_attn/Constant" />
			</rt_info>
			<output>
				<port id="0" precision="I64" names="/layers.1/self_attn/Constant_output_0" />
			</output>
		</layer>
		<layer id="259" name="Constant_4729597" type="Const" version="opset1">
			<data element_type="i64" shape="" offset="64016" size="8" />
			<rt_info>
				<attribute name="fused_names" version="0" value="Constant_4729597" />
			</rt_info>
			<output>
				<port id="0" precision="I64" />
			</output>
		</layer>
		<layer id="260" name="/layers.1/self_attn/Gather" type="Gather" version="opset8">
			<data batch_dims="0" />
			<rt_info>
				<attribute name="fused_names" version="0" value="/layers.1/self_attn/Constant, /layers.1/self_attn/Gather, Constant_4729597" />
			</rt_info>
			<input>
				<port id="0" precision="I64">
					<dim>3</dim>
				</port>
				<port id="1" precision="I64" />
				<port id="2" precision="I64" />
			</input>
			<output>
				<port id="3" precision="I64" names="/layers.1/self_attn/Gather_output_0" />
			</output>
		</layer>
		<layer id="261" name="Constant_4729643" type="Const" version="opset1">
			<data element_type="i64" shape="1" offset="64016" size="8" />
			<rt_info>
				<attribute name="fused_names" version="0" value="Constant_4729643" />
			</rt_info>
			<output>
				<port id="0" precision="I64">
					<dim>1</dim>
				</port>
			</output>
		</layer>
		<layer id="262" name="/layers.1/self_attn/Unsqueeze_2" type="Unsqueeze" version="opset1">
			<rt_info>
				<attribute name="fused_names" version="0" value="/layers.1/self_attn/Unsqueeze_2, Constant_4729643" />
			</rt_info>
			<input>
				<port id="0" precision="I64" />
				<port id="1" precision="I64">
					<dim>1</dim>
				</port>
			</input>
			<output>
				<port id="2" precision="I64" names="/layers.1/self_attn/Unsqueeze_2_output_0">
					<dim>1</dim>
				</port>
			</output>
		</layer>
		<layer id="263" name="/layers.1/self_attn/Shape_1" type="ShapeOf" version="opset3">
			<data output_type="i64" />
			<rt_info>
				<attribute name="fused_names" version="0" value="/layers.1/self_attn/Shape_1" />
			</rt_info>
			<input>
				<port id="0" precision="FP32">
					<dim>-1</dim>
					<dim>-1</dim>
					<dim>16</dim>
				</port>
			</input>
			<output>
				<port id="1" precision="I64" names="/layers.1/self_attn/Shape_1_output_0">
					<dim>3</dim>
				</port>
			</output>
		</layer>
		<layer id="264" name="/layers.1/self_attn/Constant_1" type="Const" version="opset1">
			<data element_type="i64" shape="" offset="64008" size="8" />
			<rt_info>
				<attribute name="fused_names" version="0" value="/layers.1/self_attn/Constant_1" />
			</rt_info>
			<output>
				<port id="0" precision="I64" names="/layers.1/self_attn/Constant_1_output_0" />
			</output>
		</layer>
		<layer id="265" name="Constant_4729601" type="Const" version="opset1">
			<data element_type="i64" shape="" offset="64016" size="8" />
			<rt_info>
				<attribute name="fused_names" version="0" value="Constant_4729601" />
			</rt_info>
			<output>
				<port id="0" precision="I64" />
			</output>
		</layer>
		<layer id="266" name="/layers.1/self_attn/Gather_1" type="Gather" version="opset8">
			<data batch_dims="0" />
			<rt_info>
				<attribute name="fused_names" version="0" value="/layers.1/self_attn/Constant_1, /layers.1/self_attn/Gather_1, Constant_4729601" />
			</rt_info>
			<input>
				<port id="0" precision="I64">
					<dim>3</dim>
				</port>
				<port id="1" precision="I64" />
				<port id="2" precision="I64" />
			</input>
			<output>
				<port id="3" precision="I64" names="/layers.1/self_attn/Gather_1_output_0" />
			</output>
		</layer>
		<layer id="267" name="Constant_4729645" type="Const" version="opset1">
			<data element_type="i64" shape="1" offset="64016" size="8" />
			<rt_info>
				<attribute name="fused_names" version="0" value="Constant_4729645" />
			</rt_info>
			<output>
				<port id="0" precision="I64">
					<dim>1</dim>
				</port>
			</output>
		</layer>
		<layer id="268" name="/layers.1/self_attn/Unsqueeze_3" type="Unsqueeze" version="opset1">
			<rt_info>
				<attribute name="fused_names" version="0" value="/layers.1/self_attn/Unsqueeze_3, Constant_4729645" />
			</rt_info>
			<input>
				<port id="0" precision="I64" />
				<port id="1" precision="I64">
					<dim>1</dim>
				</port>
			</input>
			<output>
				<port id="2" precision="I64" names="/layers.1/self_attn/Unsqueeze_3_output_0">
					<dim>1</dim>
				</port>
			</output>
		</layer>
		<layer id="269" name="/layers.1/self_attn/Constant_10" type="Const" version="opset1">
			<data element_type="i64" shape="1" offset="71728" size="8" />
			<rt_info>
				<attribute name="fused_names" version="0" value="/layers.1/self_attn/Constant_10" />
			</rt_info>
			<output>
				<port id="0" precision="I64" names="/layers.1/self_attn/Constant_10_output_0">
					<dim>1</dim>
				</port>
			</output>
		</layer>
		<layer id="270" name="/layers.1/self_attn/Constant_11" type="Const" version="opset1">
			<data element_type="i64" shape="1" offset="71728" size="8" />
			<rt_info>
				<attribute name="fused_names" version="0" value="/layers.1/self_attn/Constant_11" />
			</rt_info>
			<output>
				<port id="0" precision="I64" names="/layers.1/self_attn/Constant_11_output_0">
					<dim>1</dim>
				</port>
			</output>
		</layer>
		<layer id="271" name="/layers.1/self_attn/Concat_2" type="Concat" version="opset1">
			<data axis="0" />
			<rt_info>
				<attribute name="fused_names" version="0" value="/layers.1/self_attn/Concat_2, /layers.1/self_attn/Constant_10, /layers.1/self_attn/Constant_11" />
			</rt_info>
			<input>
				<port id="0" precision="I64">
					<dim>1</dim>
				</port>
				<port id="1" precision="I64">
					<dim>1</dim>
				</port>
				<port id="2" precision="I64">
					<dim>1</dim>
				</port>
				<port id="3" precision="I64">
					<dim>1</dim>
				</port>
			</input>
			<output>
				<port id="4" precision="I64" names="/layers.1/self_attn/Concat_2_output_0">
					<dim>4</dim>
				</port>
			</output>
		</layer>
		<layer id="272" name="/layers.1/self_attn/Reshape_2" type="Reshape" version="opset1">
			<data special_zero="true" />
			<rt_info>
				<attribute name="fused_names" version="0" value="/layers.1/self_attn/Reshape_2" />
			</rt_info>
			<input>
				<port id="0" precision="FP32">
					<dim>-1</dim>
					<dim>-1</dim>
					<dim>16</dim>
				</port>
				<port id="1" precision="I64">
					<dim>4</dim>
				</port>
			</input>
			<output>
				<port id="2" precision="FP32" names="/layers.1/self_attn/Reshape_2_output_0">
					<dim>-1</dim>
					<dim>-1</dim>
					<dim>4</dim>
					<dim>4</dim>
				</port>
			</output>
		</layer>
		<layer id="273" name="Constant_4729661" type="Const" version="opset1">
			<data element_type="i64" shape="4" offset="71736" size="32" />
			<rt_info>
				<attribute name="fused_names" version="0" value="Constant_4729661" />
			</rt_info>
			<output>
				<port id="0" precision="I64">
					<dim>4</dim>
				</port>
			</output>
		</layer>
		<layer id="274" name="/layers.1/self_attn/Transpose_2" type="Transpose" version="opset1">
			<rt_info>
				<attribute name="fused_names" version="0" value="/layers.1/self_attn/Transpose_2" />
			</rt_info>
			<input>
				<port id="0" precision="FP32">
					<dim>-1</dim>
					<dim>-1</dim>
					<dim>4</dim>
					<dim>4</dim>
				</port>
				<port id="1" precision="I64">
					<dim>4</dim>
				</port>
			</input>
			<output>
				<port id="2" precision="FP32" names="/layers.1/self_attn/Transpose_2_output_0">
					<dim>-1</dim>
					<dim>4</dim>
					<dim>-1</dim>
					<dim>4</dim>
				</port>
			</output>
		</layer>
		<layer id="275" name="/layers.1/self_attn/Constant_9" type="Const" version="opset1">
			<data element_type="i64" shape="" offset="71728" size="8" />
			<rt_info>
				<attribute name="fused_names" version="0" value="/layers.1/self_attn/Constant_9" />
			</rt_info>
			<output>
				<port id="0" precision="I64" names="/layers.1/self_attn/Constant_9_output_0" />
			</output>
		</layer>
		<layer id="276" name="/layers.1/self_attn/Mul_1" type="Multiply" version="opset1">
			<data auto_broadcast="numpy" />
			<rt_info>
				<attribute name="fused_names" version="0" value="/layers.1/self_attn/Constant_9, /layers.1/self_attn/Mul_1" />
			</rt_info>
			<input>
				<port id="0" precision="I64" />
				<port id="1" precision="I64" />
			</input>
			<output>
				<port id="2" precision="I64" names="/layers.1/self_attn/Mul_1_output_0" />
			</output>
		</layer>
		<layer id="277" name="Constant_4729663" type="Const" version="opset1">
			<data element_type="i64" shape="1" offset="64016" size="8" />
			<rt_info>
				<attribute name="fused_names" version="0" value="Constant_4729663" />
			</rt_info>
			<output>
				<port id="0" precision="I64">
					<dim>1</dim>
				</port>
			</output>
		</layer>
		<layer id="278" name="/layers.1/self_attn/Unsqueeze_4" type="Unsqueeze" version="opset1">
			<rt_info>
				<attribute name="fused_names" version="0" value="/layers.1/self_attn/Unsqueeze_4, Constant_4729663" />
			</rt_info>
			<input>
				<port id="0" precision="I64" />
				<port id="1" precision="I64">
					<dim>1</dim>
				</port>
			</input>
			<output>
				<port id="2" precision="I64" names="/layers.1/self_attn/Unsqueeze_4_output_0">
					<dim>1</dim>
				</port>
			</output>
		</layer>
		<layer id="279" name="/layers.1/self_attn/Constant_12" type="Const" version="opset1">
			<data element_type="i64" shape="1" offset="64000" size="8" />
			<rt_info>
				<attribute name="fused_names" version="0" value="/layers.1/self_attn/Constant_12" />
			</rt_info>
			<output>
				<port id="0" precision="I64" names="/layers.1/self_attn/Constant_12_output_0">
					<dim>1</dim>
				</port>
			</output>
		</layer>
		<layer id="280" name="/layers.1/self_attn/Constant_13" type="Const" version="opset1">
			<data element_type="i64" shape="1" offset="71728" size="8" />
			<rt_info>
				<attribute name="fused_names" version="0" value="/layers.1/self_attn/Constant_13" />
			</rt_info>
			<output>
				<port id="0" precision="I64" names="/layers.1/self_attn/Constant_13_output_0">
					<dim>1</dim>
				</port>
			</output>
		</layer>
		<layer id="281" name="/layers.1/self_attn/Concat_3" type="Concat" version="opset1">
			<data axis="0" />
			<rt_info>
				<attribute name="fused_names" version="0" value="/layers.1/self_attn/Concat_3, /layers.1/self_attn/Constant_12, /layers.1/self_attn/Constant_13" />
			</rt_info>
			<input>
				<port id="0" precision="I64">
					<dim>1</dim>
				</port>
				<port id="1" precision="I64">
					<dim>1</dim>
				</port>
				<port id="2" precision="I64">
					<dim>1</dim>
				</port>
			</input>
			<output>
				<port id="3" precision="I64" names="/layers.1/self_attn/Concat_3_output_0">
					<dim>3</dim>
				</port>
			</output>
		</layer>
		<layer id="282" name="/layers.1/self_attn/Reshape_3" type="Reshape" version="opset1">
			<data special_zero="true" />
			<rt_info>
				<attribute name="fused_names" version="0" value="/layers.1/self_attn/Reshape_3" />
			</rt_info>
			<input>
				<port id="0" precision="FP32">
					<dim>-1</dim>
					<dim>4</dim>
					<dim>-1</dim>
					<dim>4</dim>
				</port>
				<port id="1" precision="I64">
					<dim>3</dim>
				</port>
			</input>
			<output>
				<port id="2" precision="FP32" names="/layers.1/self_attn/Reshape_3_output_0">
					<dim>-1</dim>
					<dim>-1</dim>
					<dim>4</dim>
				</port>
			</output>
		</layer>
		<layer id="283" name="onnx::MatMul_400" type="Const" version="opset1">
			<data element_type="f32" shape="16, 16" offset="76408" size="1024" />
			<rt_info>
				<attribute name="fused_names" version="0" value="onnx::MatMul_400" />
			</rt_info>
			<output>
				<port id="0" precision="FP32" names="onnx::MatMul_400">
					<dim>16</dim>
					<dim>16</dim>
				</port>
			</output>
		</layer>
		<layer id="284" name="/layers.1/self_attn/k_proj/MatMul" type="MatMul" version="opset1">
			<data transpose_a="false" transpose_b="false" />
			<rt_info>
				<attribute name="fused_names" version="0" value="/layers.1/self_attn/k_proj/MatMul" />
			</rt_info>
			<input>
				<port id="0" precision="FP32">
					<dim>-1</dim>
					<dim>-1</dim>
					<dim>16</dim>
				</port>
				<port id="1" precision="FP32">
					<dim>16</dim>
					<dim>16</dim>
				</port>
			</input>
			<output>
				<port id="2" precision="FP32" names="/layers.1/self_attn/k_proj/MatMul_output_0">
					<dim>-1</dim>
					<dim>-1</dim>
					<dim>16</dim>
				</port>
			</output>
		</layer>
		<layer id="285" name="/layers.1/self_attn/k_proj/Add" type="Add" version="opset1">
			<data auto_broadcast="numpy" />
			<rt_info>
				<attribute name="fused_names" version="0" value="/layers.1/self_attn/k_proj/Add" />
			</rt_info>
			<input>
				<port id="0" precision="FP32">
					<dim>16</dim>
				</port>
				<port id="1" precision="FP32">
					<dim>-1</dim>
					<dim>-1</dim>
					<dim>16</dim>
				</port>
			</input>
			<output>
				<port id="2" precision="FP32" names="/layers.1/self_attn/k_proj/Add_output_0">
					<dim>-1</dim>
					<dim>-1</dim>
					<dim>16</dim>
				</port>
			</output>
		</layer>
		<layer id="286" name="Constant_4729609" type="Const" version="opset1">
			<data element_type="i64" shape="1" offset="64016" size="8" />
			<rt_info>
				<attribute name="fused_names" version="0" value="Constant_4729609" />
			</rt_info>
			<output>
				<port id="0" precision="I64">
					<dim>1</dim>
				</port>
			</output>
		</layer>
		<layer id="287" name="/layers.1/self_attn/Unsqueeze" type="Unsqueeze" version="opset1">
			<rt_info>
				<attribute name="fused_names" version="0" value="/layers.1/self_attn/Unsqueeze, Constant_4729609" />
			</rt_info>
			<input>
				<port id="0" precision="I64" />
				<port id="1" precision="I64">
					<dim>1</dim>
				</port>
			</input>
			<output>
				<port id="2" precision="I64" names="/layers.1/self_attn/Unsqueeze_output_0">
					<dim>1</dim>
				</port>
			</output>
		</layer>
		<layer id="288" name="/layers.1/self_attn/Constant_3" type="Const" version="opset1">
			<data element_type="i64" shape="1" offset="64000" size="8" />
			<rt_info>
				<attribute name="fused_names" version="0" value="/layers.1/self_attn/Constant_3" />
			</rt_info>
			<output>
				<port id="0" precision="I64" names="/layers.1/self_attn/Constant_3_output_0">
					<dim>1</dim>
				</port>
			</output>
		</layer>
		<layer id="289" name="/layers.1/self_attn/Constant_4" type="Const" version="opset1">
			<data element_type="i64" shape="1" offset="71728" size="8" />
			<rt_info>
				<attribute name="fused_names" version="0" value="/layers.1/self_attn/Constant_4" />
			</rt_info>
			<output>
				<port id="0" precision="I64" names="/layers.1/self_attn/Constant_4_output_0">
					<dim>1</dim>
				</port>
			</output>
		</layer>
		<layer id="290" name="/layers.1/self_attn/Constant_5" type="Const" version="opset1">
			<data element_type="i64" shape="1" offset="71728" size="8" />
			<rt_info>
				<attribute name="fused_names" version="0" value="/layers.1/self_attn/Constant_5" />
			</rt_info>
			<output>
				<port id="0" precision="I64" names="/layers.1/self_attn/Constant_5_output_0">
					<dim>1</dim>
				</port>
			</output>
		</layer>
		<layer id="291" name="/layers.1/self_attn/Concat" type="Concat" version="opset1">
			<data axis="0" />
			<rt_info>
				<attribute name="fused_names" version="0" value="/layers.1/self_attn/Concat, /layers.1/self_attn/Constant_3, /layers.1/self_attn/Constant_4, /layers.1/self_attn/Constant_5" />
			</rt_info>
			<input>
				<port id="0" precision="I64">
					<dim>1</dim>
				</port>
				<port id="1" precision="I64">
					<dim>1</dim>
				</port>
				<port id="2" precision="I64">
					<dim>1</dim>
				</port>
				<port id="3" precision="I64">
					<dim>1</dim>
				</port>
			</input>
			<output>
				<port id="4" precision="I64" names="/layers.1/self_attn/Concat_output_0">
					<dim>4</dim>
				</port>
			</output>
		</layer>
		<layer id="292" name="/layers.1/self_attn/Reshape" type="Reshape" version="opset1">
			<data special_zero="true" />
			<rt_info>
				<attribute name="fused_names" version="0" value="/layers.1/self_attn/Reshape" />
			</rt_info>
			<input>
				<port id="0" precision="FP32">
					<dim>-1</dim>
					<dim>-1</dim>
					<dim>16</dim>
				</port>
				<port id="1" precision="I64">
					<dim>4</dim>
				</port>
			</input>
			<output>
				<port id="2" precision="FP32" names="/layers.1/self_attn/Reshape_output_0">
					<dim>-1</dim>
					<dim>-1</dim>
					<dim>4</dim>
					<dim>4</dim>
				</port>
			</output>
		</layer>
		<layer id="293" name="Constant_4729628" type="Const" version="opset1">
			<data element_type="i64" shape="4" offset="71736" size="32" />
			<rt_info>
				<attribute name="fused_names" version="0" value="Constant_4729628" />
			</rt_info>
			<output>
				<port id="0" precision="I64">
					<dim>4</dim>
				</port>
			</output>
		</layer>
		<layer id="294" name="/layers.1/self_attn/Transpose" type="Transpose" version="opset1">
			<rt_info>
				<attribute name="fused_names" version="0" value="/layers.1/self_attn/Transpose" />
			</rt_info>
			<input>
				<port id="0" precision="FP32">
					<dim>-1</dim>
					<dim>-1</dim>
					<dim>4</dim>
					<dim>4</dim>
				</port>
				<port id="1" precision="I64">
					<dim>4</dim>
				</port>
			</input>
			<output>
				<port id="2" precision="FP32" names="/layers.1/self_attn/Transpose_output_0">
					<dim>-1</dim>
					<dim>4</dim>
					<dim>-1</dim>
					<dim>4</dim>
				</port>
			</output>
		</layer>
		<layer id="295" name="Constant_4729668" type="Const" version="opset1">
			<data element_type="i64" shape="1" offset="64016" size="8" />
			<rt_info>
				<attribute name="fused_names" version="0" value="Constant_4729668" />
			</rt_info>
			<output>
				<port id="0" precision="I64">
					<dim>1</dim>
				</port>
			</output>
		</layer>
		<layer id="296" name="/layers.1/self_attn/Unsqueeze_5" type="Unsqueeze" version="opset1">
			<rt_info>
				<attribute name="fused_names" version="0" value="/layers.1/self_attn/Unsqueeze_5, Constant_4729668" />
			</rt_info>
			<input>
				<port id="0" precision="I64" />
				<port id="1" precision="I64">
					<dim>1</dim>
				</port>
			</input>
			<output>
				<port id="2" precision="I64" names="/layers.1/self_attn/Unsqueeze_5_output_0">
					<dim>1</dim>
				</port>
			</output>
		</layer>
		<layer id="297" name="/layers.1/self_attn/Constant_14" type="Const" version="opset1">
			<data element_type="i64" shape="1" offset="64000" size="8" />
			<rt_info>
				<attribute name="fused_names" version="0" value="/layers.1/self_attn/Constant_14" />
			</rt_info>
			<output>
				<port id="0" precision="I64" names="/layers.1/self_attn/Constant_14_output_0">
					<dim>1</dim>
				</port>
			</output>
		</layer>
		<layer id="298" name="/layers.1/self_attn/Constant_15" type="Const" version="opset1">
			<data element_type="i64" shape="1" offset="71728" size="8" />
			<rt_info>
				<attribute name="fused_names" version="0" value="/layers.1/self_attn/Constant_15" />
			</rt_info>
			<output>
				<port id="0" precision="I64" names="/layers.1/self_attn/Constant_15_output_0">
					<dim>1</dim>
				</port>
			</output>
		</layer>
		<layer id="299" name="/layers.1/self_attn/Concat_4" type="Concat" version="opset1">
			<data axis="0" />
			<rt_info>
				<attribute name="fused_names" version="0" value="/layers.1/self_attn/Concat_4, /layers.1/self_attn/Constant_14, /layers.1/self_attn/Constant_15" />
			</rt_info>
			<input>
				<port id="0" precision="I64">
					<dim>1</dim>
				</port>
				<port id="1" precision="I64">
					<dim>1</dim>
				</port>
				<port id="2" precision="I64">
					<dim>1</dim>
				</port>
			</input>
			<output>
				<port id="3" precision="I64" names="/layers.1/self_attn/Concat_4_output_0">
					<dim>3</dim>
				</port>
			</output>
		</layer>
		<layer id="300" name="/layers.1/self_attn/Reshape_4" type="Reshape" version="opset1">
			<data special_zero="true" />
			<rt_info>
				<attribute name="fused_names" version="0" value="/layers.1/self_attn/Reshape_4" />
			</rt_info>
			<input>
				<port id="0" precision="FP32">
					<dim>-1</dim>
					<dim>4</dim>
					<dim>-1</dim>
					<dim>4</dim>
				</port>
				<port id="1" precision="I64">
					<dim>3</dim>
				</port>
			</input>
			<output>
				<port id="2" precision="FP32" names="/layers.1/self_attn/Reshape_4_output_0">
					<dim>-1</dim>
					<dim>-1</dim>
					<dim>4</dim>
				</port>
			</output>
		</layer>
		<layer id="301" name="/layers.1/self_attn/MatMul" type="MatMul" version="opset1">
			<data transpose_a="false" transpose_b="true" />
			<rt_info>
				<attribute name="fused_names" version="0" value="/layers.1/self_attn/MatMul, /layers.1/self_attn/Transpose_3" />
			</rt_info>
			<input>
				<port id="0" precision="FP32">
					<dim>-1</dim>
					<dim>-1</dim>
					<dim>4</dim>
				</port>
				<port id="1" precision="FP32">
					<dim>-1</dim>
					<dim>-1</dim>
					<dim>4</dim>
				</port>
			</input>
			<output>
				<port id="2" precision="FP32" names="/layers.1/self_attn/MatMul_output_0">
					<dim>-1</dim>
					<dim>-1</dim>
					<dim>-1</dim>
				</port>
			</output>
		</layer>
		<layer id="302" name="Constant_4729874" type="Const" version="opset1">
			<data element_type="i64" shape="1" offset="64016" size="8" />
			<rt_info>
				<attribute name="fused_names" version="0" value="Constant_4729874" />
			</rt_info>
			<output>
				<port id="0" precision="I64">
					<dim>1</dim>
				</port>
			</output>
		</layer>
		<layer id="303" name="/layers.1/self_attn/Unsqueeze_7" type="Unsqueeze" version="opset1">
			<rt_info>
				<attribute name="fused_names" version="0" value="/layers.1/self_attn/Unsqueeze_7, Constant_4729874" />
			</rt_info>
			<input>
				<port id="0" precision="I64" />
				<port id="1" precision="I64">
					<dim>1</dim>
				</port>
			</input>
			<output>
				<port id="2" precision="I64" names="/layers.1/self_attn/Unsqueeze_7_output_0">
					<dim>1</dim>
				</port>
			</output>
		</layer>
		<layer id="304" name="/layers.1/self_attn/Constant_19" type="Const" version="opset1">
			<data element_type="i64" shape="1" offset="71728" size="8" />
			<rt_info>
				<attribute name="fused_names" version="0" value="/layers.1/self_attn/Constant_19" />
			</rt_info>
			<output>
				<port id="0" precision="I64" names="/layers.1/self_attn/Constant_19_output_0">
					<dim>1</dim>
				</port>
			</output>
		</layer>
		<layer id="305" name="Constant_4729877" type="Const" version="opset1">
			<data element_type="i64" shape="1" offset="64016" size="8" />
			<rt_info>
				<attribute name="fused_names" version="0" value="Constant_4729877" />
			</rt_info>
			<output>
				<port id="0" precision="I64">
					<dim>1</dim>
				</port>
			</output>
		</layer>
		<layer id="306" name="/layers.1/self_attn/Unsqueeze_8" type="Unsqueeze" version="opset1">
			<rt_info>
				<attribute name="fused_names" version="0" value="/layers.1/self_attn/Unsqueeze_8, Constant_4729877" />
			</rt_info>
			<input>
				<port id="0" precision="I64" />
				<port id="1" precision="I64">
					<dim>1</dim>
				</port>
			</input>
			<output>
				<port id="2" precision="I64" names="/layers.1/self_attn/Unsqueeze_8_output_0">
					<dim>1</dim>
				</port>
			</output>
		</layer>
		<layer id="307" name="/layers.1/self_attn/Shape_2" type="ShapeOf" version="opset3">
			<data output_type="i64" />
			<rt_info>
				<attribute name="fused_names" version="0" value="/layers.1/self_attn/Shape_2" />
			</rt_info>
			<input>
				<port id="0" precision="FP32">
					<dim>-1</dim>
					<dim>-1</dim>
					<dim>4</dim>
				</port>
			</input>
			<output>
				<port id="1" precision="I64" names="/layers.1/self_attn/Shape_2_output_0">
					<dim>3</dim>
				</port>
			</output>
		</layer>
		<layer id="308" name="/layers.1/self_attn/Constant_18" type="Const" version="opset1">
			<data element_type="i64" shape="" offset="64008" size="8" />
			<rt_info>
				<attribute name="fused_names" version="0" value="/layers.1/self_attn/Constant_18" />
			</rt_info>
			<output>
				<port id="0" precision="I64" names="/layers.1/self_attn/Constant_18_output_0" />
			</output>
		</layer>
		<layer id="309" name="Constant_4729869" type="Const" version="opset1">
			<data element_type="i64" shape="" offset="64016" size="8" />
			<rt_info>
				<attribute name="fused_names" version="0" value="Constant_4729869" />
			</rt_info>
			<output>
				<port id="0" precision="I64" />
			</output>
		</layer>
		<layer id="310" name="/layers.1/self_attn/Gather_2" type="Gather" version="opset8">
			<data batch_dims="0" />
			<rt_info>
				<attribute name="fused_names" version="0" value="/layers.1/self_attn/Constant_18, /layers.1/self_attn/Gather_2, Constant_4729869" />
			</rt_info>
			<input>
				<port id="0" precision="I64">
					<dim>3</dim>
				</port>
				<port id="1" precision="I64" />
				<port id="2" precision="I64" />
			</input>
			<output>
				<port id="3" precision="I64" names="/layers.1/self_attn/Gather_2_output_0" />
			</output>
		</layer>
		<layer id="311" name="Constant_4729879" type="Const" version="opset1">
…
				<port id="0" precision="FP32">
					<dim>-1</dim>
					<dim>-1</dim>
					<dim>16</dim>
				</port>
				<port id="1" precision="FP32">
					<dim>16</dim>
				</port>
			</input>
			<output>
				<port id="2" precision="FP32" names="/layers.1/self_attn_layer_norm/Mul_output_0">
					<dim>-1</dim>
					<dim>-1</dim>
					<dim>16</dim>
				</port>
			</output>
		</layer>
		<layer id="377" name="/layers.1/self_attn_layer_norm/Add_1" type="Add" version="opset1">
			<data auto_broadcast="numpy" />
			<rt_info>
				<attribute name="fused_names" version="0" value="/layers.1/self_attn_layer_norm/Add_1" />
			</rt_info>
			<input>
				<port id="0" precision="FP32">
					<dim>-1</dim>
					<dim>-1</dim>
					<dim>16</dim>
				</port>
				<port id="1" precision="FP32">
					<dim>16</dim>
				</port>
			</input>
			<output>
				<port id="2" precision="FP32" names="/layers.1/self_attn_layer_norm/Add_1_output_0">
					<dim>-1</dim>
					<dim>-1</dim>
					<dim>16</dim>
				</port>
			</output>
		</layer>
		<layer id="378" name="onnx::MatMul_421" type="Const" version="opset1">
			<data element_type="f32" shape="16, 4" offset="79480" size="256" />
			<rt_info>
				<attribute name="fused_names" version="0" value="onnx::MatMul_421" />
			</rt_info>
			<output>
				<port id="0" precision="FP32" names="onnx::MatMul_421">
					<dim>16</dim>
					<dim>4</dim>
				</port>
			</output>
		</layer>
		<layer id="379" name="/layers.1/fc1/MatMul" type="MatMul" version="opset1">
			<data transpose_a="false" transpose_b="false" />
			<rt_info>
				<attribute name="fused_names" version="0" value="/layers.1/fc1/MatMul" />
			</rt_info>
			<input>
				<port id="0" precision="FP32">
					<dim>-1</dim>
					<dim>-1</dim>
					<dim>16</dim>
				</port>
				<port id="1" precision="FP32">
					<dim>16</dim>
					<dim>4</dim>
				</port>
			</input>
			<output>
				<port id="2" precision="FP32" names="/layers.1/fc1/MatMul_output_0">
					<dim>-1</dim>
					<dim>-1</dim>
					<dim>4</dim>
				</port>
			</output>
		</layer>
		<layer id="380" name="/layers.1/fc1/Add" type="Add" version="opset1">
			<data auto_broadcast="numpy" />
			<rt_info>
				<attribute name="fused_names" version="0" value="/layers.1/fc1/Add" />
			</rt_info>
			<input>
				<port id="0" precision="FP32">
					<dim>4</dim>
				</port>
				<port id="1" precision="FP32">
					<dim>-1</dim>
					<dim>-1</dim>
					<dim>4</dim>
				</port>
			</input>
			<output>
				<port id="2" precision="FP32" names="/layers.1/fc1/Add_output_0">
					<dim>-1</dim>
					<dim>-1</dim>
					<dim>4</dim>
				</port>
			</output>
		</layer>
		<layer id="381" name="/layers.1/activation_fn/Constant" type="Const" version="opset1">
			<data element_type="f32" shape="" offset="75124" size="4" />
			<rt_info>
				<attribute name="fused_names" version="0" value="/layers.1/activation_fn/Constant" />
			</rt_info>
			<output>
				<port id="0" precision="FP32" names="/layers.1/activation_fn/Constant_output_0" />
			</output>
		</layer>
		<layer id="382" name="/layers.1/activation_fn/Div" type="Divide" version="opset1">
			<data auto_broadcast="numpy" m_pythondiv="true" />
			<rt_info>
				<attribute name="fused_names" version="0" value="/layers.1/activation_fn/Div" />
			</rt_info>
			<input>
				<port id="0" precision="FP32">
					<dim>-1</dim>
					<dim>-1</dim>
					<dim>4</dim>
				</port>
				<port id="1" precision="FP32" />
			</input>
			<output>
				<port id="2" precision="FP32" names="/layers.1/activation_fn/Div_output_0">
					<dim>-1</dim>
					<dim>-1</dim>
					<dim>4</dim>
				</port>
			</output>
		</layer>
		<layer id="383" name="/layers.1/activation_fn/Erf" type="Erf" version="opset1">
			<rt_info>
				<attribute name="fused_names" version="0" value="/layers.1/activation_fn/Erf" />
			</rt_info>
			<input>
				<port id="0" precision="FP32">
					<dim>-1</dim>
					<dim>-1</dim>
					<dim>4</dim>
				</port>
			</input>
			<output>
				<port id="1" precision="FP32" names="/layers.1/activation_fn/Erf_output_0">
					<dim>-1</dim>
					<dim>-1</dim>
					<dim>4</dim>
				</port>
			</output>
		</layer>
		<layer id="384" name="/layers.1/activation_fn/Constant_1" type="Const" version="opset1">
			<data element_type="f32" shape="" offset="64024" size="4" />
			<rt_info>
				<attribute name="fused_names" version="0" value="/layers.1/activation_fn/Constant_1" />
			</rt_info>
			<output>
				<port id="0" precision="FP32" names="/layers.1/activation_fn/Constant_1_output_0" />
			</output>
		</layer>
		<layer id="385" name="/layers.1/activation_fn/Add" type="Add" version="opset1">
			<data auto_broadcast="numpy" />
			<rt_info>
				<attribute name="fused_names" version="0" value="/layers.1/activation_fn/Add" />
			</rt_info>
			<input>
				<port id="0" precision="FP32">
					<dim>-1</dim>
					<dim>-1</dim>
					<dim>4</dim>
				</port>
				<port id="1" precision="FP32" />
			</input>
			<output>
				<port id="2" precision="FP32" names="/layers.1/activation_fn/Add_output_0">
					<dim>-1</dim>
					<dim>-1</dim>
					<dim>4</dim>
				</port>
			</output>
		</layer>
		<layer id="386" name="/layers.1/activation_fn/Mul" type="Multiply" version="opset1">
			<data auto_broadcast="numpy" />
			<rt_info>
				<attribute name="fused_names" version="0" value="/layers.1/activation_fn/Mul" />
			</rt_info>
			<input>
				<port id="0" precision="FP32">
					<dim>-1</dim>
					<dim>-1</dim>
					<dim>4</dim>
				</port>
				<port id="1" precision="FP32">
					<dim>-1</dim>
					<dim>-1</dim>
					<dim>4</dim>
				</port>
			</input>
			<output>
				<port id="2" precision="FP32" names="/layers.1/activation_fn/Mul_output_0">
					<dim>-1</dim>
					<dim>-1</dim>
					<dim>4</dim>
				</port>
			</output>
		</layer>
		<layer id="387" name="/layers.1/activation_fn/Constant_2" type="Const" version="opset1">
			<data element_type="f32" shape="" offset="71724" size="4" />
			<rt_info>
				<attribute name="fused_names" version="0" value="/layers.1/activation_fn/Constant_2" />
			</rt_info>
			<output>
				<port id="0" precision="FP32" names="/layers.1/activation_fn/Constant_2_output_0" />
			</output>
		</layer>
		<layer id="388" name="/layers.1/activation_fn/Mul_1" type="Multiply" version="opset1">
			<data auto_broadcast="numpy" />
			<rt_info>
				<attribute name="fused_names" version="0" value="/layers.1/activation_fn/Mul_1" />
			</rt_info>
			<input>
				<port id="0" precision="FP32">
					<dim>-1</dim>
					<dim>-1</dim>
					<dim>4</dim>
				</port>
				<port id="1" precision="FP32" />
			</input>
			<output>
				<port id="2" precision="FP32" names="/layers.1/activation_fn/Mul_1_output_0">
					<dim>-1</dim>
					<dim>-1</dim>
					<dim>4</dim>
				</port>
			</output>
		</layer>
		<layer id="389" name="onnx::MatMul_422" type="Const" version="opset1">
			<data element_type="f32" shape="4, 16" offset="79736" size="256" />
			<rt_info>
				<attribute name="fused_names" version="0" value="onnx::MatMul_422" />
			</rt_info>
			<output>
				<port id="0" precision="FP32" names="onnx::MatMul_422">
					<dim>4</dim>
					<dim>16</dim>
				</port>
			</output>
		</layer>
		<layer id="390" name="/layers.1/fc2/MatMul" type="MatMul" version="opset1">
			<data transpose_a="false" transpose_b="false" />
			<rt_info>
				<attribute name="fused_names" version="0" value="/layers.1/fc2/MatMul" />
			</rt_info>
			<input>
				<port id="0" precision="FP32">
					<dim>-1</dim>
					<dim>-1</dim>
					<dim>4</dim>
				</port>
				<port id="1" precision="FP32">
					<dim>4</dim>
					<dim>16</dim>
				</port>
			</input>
			<output>
				<port id="2" precision="FP32" names="/layers.1/fc2/MatMul_output_0">
					<dim>-1</dim>
					<dim>-1</dim>
					<dim>16</dim>
				</port>
			</output>
		</layer>
		<layer id="391" name="/layers.1/fc2/Add" type="Add" version="opset1">
			<data auto_broadcast="numpy" />
			<rt_info>
				<attribute name="fused_names" version="0" value="/layers.1/fc2/Add" />
			</rt_info>
			<input>
				<port id="0" precision="FP32">
					<dim>16</dim>
				</port>
				<port id="1" precision="FP32">
					<dim>-1</dim>
					<dim>-1</dim>
					<dim>16</dim>
				</port>
			</input>
			<output>
				<port id="2" precision="FP32" names="/layers.1/fc2/Add_output_0">
					<dim>-1</dim>
					<dim>-1</dim>
					<dim>16</dim>
				</port>
			</output>
		</layer>
		<layer id="392" name="/layers.1/Add_1" type="Add" version="opset1">
			<data auto_broadcast="numpy" />
			<rt_info>
				<attribute name="fused_names" version="0" value="/layers.1/Add_1" />
			</rt_info>
			<input>
				<port id="0" precision="FP32">
					<dim>-1</dim>
					<dim>-1</dim>
					<dim>16</dim>
				</port>
				<port id="1" precision="FP32">
					<dim>-1</dim>
					<dim>-1</dim>
					<dim>16</dim>
				</port>
			</input>
			<output>
				<port id="2" precision="FP32" names="/layers.1/Add_1_output_0">
					<dim>-1</dim>
					<dim>-1</dim>
					<dim>16</dim>
				</port>
			</output>
		</layer>
		<layer id="393" name="Constant_4730044" type="Const" version="opset1">
			<data element_type="i64" shape="1" offset="64000" size="8" />
			<rt_info>
				<attribute name="fused_names" version="0" value="Constant_4730044" />
			</rt_info>
			<output>
				<port id="0" precision="I64">
					<dim>1</dim>
				</port>
			</output>
		</layer>
		<layer id="394" name="/layers.1/final_layer_norm/ReduceMean" type="ReduceMean" version="opset1">
			<data keep_dims="true" />
			<rt_info>
				<attribute name="fused_names" version="0" value="/layers.1/final_layer_norm/ReduceMean" />
			</rt_info>
			<input>
				<port id="0" precision="FP32">
					<dim>-1</dim>
					<dim>-1</dim>
					<dim>16</dim>
				</port>
				<port id="1" precision="I64">
					<dim>1</dim>
				</port>
			</input>
			<output>
				<port id="2" precision="FP32" names="/layers.1/final_layer_norm/ReduceMean_output_0">
					<dim>-1</dim>
					<dim>-1</dim>
					<dim>1</dim>
				</port>
			</output>
		</layer>
		<layer id="395" name="/layers.1/final_layer_norm/Sub" type="Subtract" version="opset1">
			<data auto_broadcast="numpy" />
			<rt_info>
				<attribute name="fused_names" version="0" value="/layers.1/final_layer_norm/Sub" />
			</rt_info>
			<input>
				<port id="0" precision="FP32">
					<dim>-1</dim>
					<dim>-1</dim>
					<dim>16</dim>
				</port>
				<port id="1" precision="FP32">
					<dim>-1</dim>
					<dim>-1</dim>
					<dim>1</dim>
				</port>
			</input>
			<output>
				<port id="2" precision="FP32" names="/layers.1/final_layer_norm/Sub_output_0">
					<dim>-1</dim>
					<dim>-1</dim>
					<dim>16</dim>
				</port>
			</output>
		</layer>
		<layer id="396" name="/layers.1/final_layer_norm/Constant" type="Const" version="opset1">
			<data element_type="f32" shape="" offset="70564" size="4" />
			<rt_info>
				<attribute name="fused_names" version="0" value="/layers.1/final_layer_norm/Constant" />
			</rt_info>
			<output>
				<port id="0" precision="FP32" names="/layers.1/final_layer_norm/Constant_output_0" />
			</output>
		</layer>
		<layer id="397" name="/layers.1/final_layer_norm/Pow" type="Power" version="opset1">
			<data auto_broadcast="numpy" />
			<rt_info>
				<attribute name="fused_names" version="0" value="/layers.1/final_layer_norm/Pow" />
			</rt_info>
			<input>
				<port id="0" precision="FP32">
					<dim>-1</dim>
					<dim>-1</dim>
					<dim>16</dim>
				</port>
				<port id="1" precision="FP32" />
			</input>
			<output>
				<port id="2" precision="FP32" names="/layers.1/final_layer_norm/Pow_output_0">
					<dim>-1</dim>
					<dim>-1</dim>
					<dim>16</dim>
				</port>
			</output>
		</layer>
		<layer id="398" name="Constant_4730049" type="Const" version="opset1">
			<data element_type="i64" shape="1" offset="64000" size="8" />
			<rt_info>
				<attribute name="fused_names" version="0" value="Constant_4730049" />
			</rt_info>
			<output>
				<port id="0" precision="I64">
					<dim>1</dim>
				</port>
			</output>
		</layer>
		<layer id="399" name="/layers.1/final_layer_norm/ReduceMean_1" type="ReduceMean" version="opset1">
			<data keep_dims="true" />
			<rt_info>
				<attribute name="fused_names" version="0" value="/layers.1/final_layer_norm/ReduceMean_1" />
			</rt_info>
			<input>
				<port id="0" precision="FP32">
					<dim>-1</dim>
					<dim>-1</dim>
					<dim>16</dim>
				</port>
				<port id="1" precision="I64">
					<dim>1</dim>
				</port>
			</input>
			<output>
				<port id="2" precision="FP32" names="/layers.1/final_layer_norm/ReduceMean_1_output_0">
					<dim>-1</dim>
					<dim>-1</dim>
					<dim>1</dim>
				</port>
			</output>
		</layer>
		<layer id="400" name="/layers.1/final_layer_norm/Constant_1" type="Const" version="opset1">
			<data element_type="f32" shape="" offset="70568" size="4" />
			<rt_info>
				<attribute name="fused_names" version="0" value="/layers.1/final_layer_norm/Constant_1" />
			</rt_info>
			<output>
				<port id="0" precision="FP32" names="/layers.1/final_layer_norm/Constant_1_output_0" />
			</output>
		</layer>
		<layer id="401" name="/layers.1/final_layer_norm/Add" type="Add" version="opset1">
			<data auto_broadcast="numpy" />
			<rt_info>
				<attribute name="fused_names" version="0" value="/layers.1/final_layer_norm/Add" />
			</rt_info>
			<input>
				<port id="0" precision="FP32">
					<dim>-1</dim>
					<dim>-1</dim>
					<dim>1</dim>
				</port>
				<port id="1" precision="FP32" />
			</input>
			<output>
				<port id="2" precision="FP32" names="/layers.1/final_layer_norm/Add_output_0">
					<dim>-1</dim>
					<dim>-1</dim>
					<dim>1</dim>
				</port>
			</output>
		</layer>
		<layer id="402" name="/layers.1/final_layer_norm/Sqrt" type="Sqrt" version="opset1">
			<rt_info>
				<attribute name="fused_names" version="0" value="/layers.1/final_layer_norm/Sqrt" />
			</rt_info>
			<input>
				<port id="0" precision="FP32">
					<dim>-1</dim>
					<dim>-1</dim>
					<dim>1</dim>
				</port>
			</input>
			<output>
				<port id="1" precision="FP32" names="/layers.1/final_layer_norm/Sqrt_output_0">
					<dim>-1</dim>
					<dim>-1</dim>
					<dim>1</dim>
				</port>
			</output>
		</layer>
		<layer id="403" name="/layers.1/final_layer_norm/Div" type="Divide" version="opset1">
			<data auto_broadcast="numpy" m_pythondiv="true" />
			<rt_info>
				<attribute name="fused_names" version="0" value="/layers.1/final_layer_norm/Div" />
			</rt_info>
			<input>
				<port id="0" precision="FP32">
					<dim>-1</dim>
					<dim>-1</dim>
					<dim>16</dim>
				</port>
				<port id="1" precision="FP32">
					<dim>-1</dim>
					<dim>-1</dim>
					<dim>1</dim>
				</port>
			</input>
			<output>
				<port id="2" precision="FP32" names="/layers.1/final_layer_norm/Div_output_0">
					<dim>-1</dim>
					<dim>-1</dim>
					<dim>16</dim>
				</port>
			</output>
		</layer>
		<layer id="404" name="/layers.1/final_layer_norm/Mul" type="Multiply" version="opset1">
			<data auto_broadcast="numpy" />
			<rt_info>
				<attribute name="fused_names" version="0" value="/layers.1/final_layer_norm/Mul" />
			</rt_info>
			<input>
				<port id="0" precision="FP32">
					<dim>-1</dim>
					<dim>-1</dim>
					<dim>16</dim>
				</port>
				<port id="1" precision="FP32">
					<dim>16</dim>
				</port>
			</input>
			<output>
				<port id="2" precision="FP32" names="/layers.1/final_layer_norm/Mul_output_0">
					<dim>-1</dim>
					<dim>-1</dim>
					<dim>16</dim>
				</port>
			</output>
		</layer>
		<layer id="405" name="last_hidden_state" type="Add" version="opset1">
			<data auto_broadcast="numpy" />
			<rt_info>
				<attribute name="fused_names" version="0" value="last_hidden_state" />
			</rt_info>
			<input>
				<port id="0" precision="FP32">
					<dim>-1</dim>
					<dim>-1</dim>
					<dim>16</dim>
				</port>
				<port id="1" precision="FP32">
					<dim>16</dim>
				</port>
			</input>
			<output>
				<port id="2" precision="FP32" names="last_hidden_state">
					<dim>-1</dim>
					<dim>-1</dim>
					<dim>16</dim>
				</port>
			</output>
		</layer>
		<layer id="406" name="last_hidden_state/sink_port_0" type="Result" version="opset1">
			<rt_info>
				<attribute name="fused_names" version="0" value="last_hidden_state/sink_port_0" />
			</rt_info>
			<input>
				<port id="0" precision="FP32">
					<dim>-1</dim>
					<dim>-1</dim>
					<dim>16</dim>
				</port>
			</input>
		</layer>
	</layers>
	<edges>
		<edge from-layer="0" from-port="0" to-layer="135" to-port="0" />
		<edge from-layer="0" from-port="0" to-layer="128" to-port="0" />
		<edge from-layer="0" from-port="0" to-layer="125" to-port="0" />
		<edge from-layer="1" from-port="0" to-layer="4" to-port="0" />
		<edge from-layer="1" from-port="0" to-layer="21" to-port="0" />
		<edge from-layer="1" from-port="0" to-layer="11" to-port="0" />
		<edge from-layer="2" from-port="0" to-layer="13" to-port="0" />
		<edge from-layer="3" from-port="0" to-layer="10" to-port="0" />
		<edge from-layer="4" from-port="1" to-layer="7" to-port="0" />
		<edge from-layer="5" from-port="0" to-layer="7" to-port="1" />
		<edge from-layer="6" from-port="0" to-layer="7" to-port="2" />
		<edge from-layer="7" from-port="3" to-layer="9" to-port="0" />
		<edge from-layer="7" from-port="3" to-layer="18" to-port="0" />
		<edge from-layer="8" from-port="0" to-layer="9" to-port="1" />
		<edge from-layer="9" from-port="2" to-layer="10" to-port="1" />
		<edge from-layer="10" from-port="2" to-layer="11" to-port="1" />
		<edge from-layer="11" from-port="2" to-layer="13" to-port="1" />
		<edge from-layer="12" from-port="0" to-layer="13" to-port="2" />
		<edge from-layer="13" from-port="3" to-layer="15" to-port="0" />
		<edge from-layer="14" from-port="0" to-layer="15" to-port="1" />
		<edge from-layer="15" from-port="2" to-layer="44" to-port="0" />
		<edge from-layer="16" from-port="0" to-layer="42" to-port="0" />
		<edge from-layer="17" from-port="0" to-layer="20" to-port="0" />
		<edge from-layer="18" from-port="1" to-layer="20" to-port="1" />
		<edge from-layer="19" from-port="0" to-layer="20" to-port="2" />
		<edge from-layer="20" from-port="3" to-layer="38" to-port="0" />
		<edge from-layer="21" from-port="1" to-layer="24" to-port="0" />
		<edge from-layer="22" from-port="0" to-layer="24" to-port="1" />
		<edge from-layer="23" from-port="0" to-layer="24" to-port="2" />
		<edge from-layer="24" from-port="3" to-layer="26" to-port="0" />
		<edge from-layer="25" from-port="0" to-layer="26" to-port="1" />
		<edge from-layer="26" from-port="2" to-layer="28" to-port="0" />
		<edge from-layer="27" from-port="0" to-layer="28" to-port="1" />
		<edge from-layer="28" from-port="2" to-layer="30" to-port="0" />
		<edge from-layer="29" from-port="0" to-layer="30" to-port="1" />
		<edge from-layer="30" from-port="2" to-layer="32" to-port="0" />
		<edge from-layer="30" from-port="2" to-layer="37" to-port="2" />
		<edge from-layer="30" from-port="2" to-layer="36" to-port="0" />
		<edge from-layer="31" from-port="0" to-layer="33" to-port="0" />
		<edge from-layer="32" from-port="1" to-layer="33" to-port="1" />
		<edge from-layer="33" from-port="2" to-layer="37" to-port="1" />
		<edge from-layer="33" from-port="2" to-layer="35" to-port="0" />
		<edge from-layer="34" from-port="0" to-layer="35" to-port="1" />
		<edge from-layer="35" from-port="2" to-layer="36" to-port="1" />
		<edge from-layer="36" from-port="2" to-layer="37" to-port="0" />
		<edge from-layer="37" from-port="3" to-layer="38" to-port="1" />
		<edge from-layer="38" from-port="2" to-layer="40" to-port="0" />
		<edge from-layer="39" from-port="0" to-layer="40" to-port="1" />
		<edge from-layer="40" from-port="2" to-layer="42" to-port="1" />
		<edge from-layer="41" from-port="0" to-layer="42" to-port="2" />
		<edge from-layer="42" from-port="3" to-layer="43" to-port="0" />
		<edge from-layer="43" from-port="1" to-layer="44" to-port="1" />
		<edge from-layer="44" from-port="2" to-layer="47" to-port="0" />
		<edge from-layer="44" from-port="2" to-layer="46" to-port="0" />
		<edge from-layer="45" from-port="0" to-layer="46" to-port="1" />
		<edge from-layer="46" from-port="2" to-layer="47" to-port="1" />
		<edge from-layer="47" from-port="2" to-layer="55" to-port="0" />
		<edge from-layer="47" from-port="2" to-layer="49" to-port="0" />
		<edge from-layer="48" from-port="0" to-layer="49" to-port="1" />
		<edge from-layer="49" from-port="2" to-layer="51" to-port="0" />
		<edge from-layer="50" from-port="0" to-layer="51" to-port="1" />
		<edge from-layer="51" from-port="2" to-layer="53" to-port="0" />
		<edge from-layer="52" from-port="0" to-layer="53" to-port="1" />
		<edge from-layer="53" from-port="2" to-layer="54" to-port="0" />
		<edge from-layer="54" from-port="1" to-layer="55" to-port="1" />
		<edge from-layer="55" from-port="2" to-layer="57" to-port="0" />
		<edge from-layer="56" from-port="0" to-layer="221" to-port="1" />
		<edge from-layer="56" from-port="0" to-layer="376" to-port="1" />
		<edge from-layer="56" from-port="0" to-layer="250" to-port="1" />
		<edge from-layer="56" from-port="0" to-layer="404" to-port="1" />
		<edge from-layer="56" from-port="0" to-layer="57" to-port="1" />
		<edge from-layer="57" from-port="2" to-layer="59" to-port="0" />
		<edge from-layer="58" from-port="0" to-layer="172" to-port="0" />
		<edge from-layer="58" from-port="0" to-layer="93" to-port="0" />
		<edge from-layer="58" from-port="0" to-layer="208" to-port="0" />
		<edge from-layer="58" from-port="0" to-layer="222" to-port="1" />
		<edge from-layer="58" from-port="0" to-layer="237" to-port="0" />
		<edge from-layer="58" from-port="0" to-layer="377" to-port="1" />
		<edge from-layer="58" from-port="0" to-layer="251" to-port="1" />
		<edge from-layer="58" from-port="0" to-layer="254" to-port="0" />
		<edge from-layer="58" from-port="0" to-layer="285" to-port="0" />
		<edge from-layer="58" from-port="0" to-layer="327" to-port="0" />
		<edge from-layer="58" from-port="0" to-layer="363" to-port="0" />
		<edge from-layer="58" from-port="0" to-layer="391" to-port="0" />
		<edge from-layer="58" from-port="0" to-layer="62" to-port="0" />
		<edge from-layer="58" from-port="0" to-layer="405" to-port="1" />
		<edge from-layer="58" from-port="0" to-layer="59" to-port="1" />
		<edge from-layer="59" from-port="2" to-layer="171" to-port="0" />
		<edge from-layer="59" from-port="2" to-layer="209" to-port="0" />
		<edge from-layer="59" from-port="2" to-layer="92" to-port="0" />
		<edge from-layer="59" from-port="2" to-layer="71" to-port="0" />
		<edge from-layer="59" from-port="2" to-layer="61" to-port="0" />
		<edge from-layer="59" from-port="2" to-layer="65" to-port="0" />
		<edge from-layer="60" from-port="0" to-layer="61" to-port="1" />
		<edge from-layer="61" from-port="2" to-layer="62" to-port="1" />
		<edge from-layer="62" from-port="2" to-layer="64" to-port="0" />
		<edge from-layer="63" from-port="0" to-layer="64" to-port="1" />
		<edge from-layer="64" from-port="2" to-layer="80" to-port="0" />
		<edge from-layer="65" from-port="1" to-layer="68" to-port="0" />
		<edge from-layer="66" from-port="0" to-layer="68" to-port="1" />
		<edge from-layer="67" from-port="0" to-layer="68" to-port="2" />
		<edge from-layer="68" from-port="3" to-layer="70" to-port="0" />
		<edge from-layer="68" from-port="3" to-layer="84" to-port="0" />
		<edge from-layer="68" from-port="3" to-layer="95" to-port="0" />
		<edge from-layer="68" from-port="3" to-layer="200" to-port="0" />
		<edge from-layer="68" from-port="3" to-layer="190" to-port="0" />
		<edge from-layer="68" from-port="3" to-layer="174" to-port="0" />
		<edge from-layer="68" from-port="3" to-layer="111" to-port="0" />
		<edge from-layer="69" from-port="0" to-layer="70" to-port="1" />
		<edge from-layer="70" from-port="2" to-layer="79" to-port="0" />
		<edge from-layer="71" from-port="1" to-layer="74" to-port="0" />
		<edge from-layer="72" from-port="0" to-layer="74" to-port="1" />
		<edge from-layer="73" from-port="0" to-layer="74" to-port="2" />
		<edge from-layer="74" from-port="3" to-layer="164" to-port="0" />
		<edge from-layer="74" from-port="3" to-layer="193" to-port="0" />
		<edge from-layer="74" from-port="3" to-layer="202" to-port="0" />
		<edge from-layer="74" from-port="3" to-layer="76" to-port="0" />
		<edge from-layer="74" from-port="3" to-layer="114" to-port="0" />
		<edge from-layer="75" from-port="0" to-layer="76" to-port="1" />
		<edge from-layer="76" from-port="2" to-layer="79" to-port="1" />
		<edge from-layer="77" from-port="0" to-layer="79" to-port="2" />
		<edge from-layer="78" from-port="0" to-layer="79" to-port="3" />
		<edge from-layer="79" from-port="4" to-layer="80" to-port="1" />
		<edge from-layer="80" from-port="2" to-layer="82" to-port="0" />
		<edge from-layer="81" from-port="0" to-layer="82" to-port="1" />
		<edge from-layer="82" from-port="2" to-layer="90" to-port="0" />
		<edge from-layer="83" from-port="0" to-layer="84" to-port="1" />
		<edge from-layer="84" from-port="2" to-layer="183" to-port="0" />
		<edge from-layer="84" from-port="2" to-layer="104" to-port="0" />
		<edge from-layer="84" from-port="2" to-layer="162" to-port="0" />
		<edge from-layer="84" from-port="2" to-layer="86" to-port="0" />
		<edge from-layer="85" from-port="0" to-layer="86" to-port="1" />
		<edge from-layer="86" from-port="2" to-layer="89" to-port="0" />
		<edge from-layer="87" from-port="0" to-layer="89" to-port="1" />
		<edge from-layer="88" from-port="0" to-layer="89" to-port="2" />
		<edge from-layer="89" from-port="3" to-layer="90" to-port="1" />
		<edge from-layer="90" from-port="2" to-layer="109" to-port="0" />
		<edge from-layer="91" from-port="0" to-layer="92" to-port="1" />
		<edge from-layer="92" from-port="2" to-layer="93" to-port="1" />
		<edge from-layer="93" from-port="2" to-layer="100" to-port="0" />
		<edge from-layer="94" from-port="0" to-layer="95" to-port="1" />
		<edge from-layer="95" from-port="2" to-layer="99" to-port="0" />
		<edge from-layer="96" from-port="0" to-layer="99" to-port="1" />
		<edge from-layer="97" from-port="0" to-layer="99" to-port="2" />
		<edge from-layer="98" from-port="0" to-layer="99" to-port="3" />
		<edge from-layer="99" from-port="4" to-layer="100" to-port="1" />
		<edge from-layer="100" from-port="2" to-layer="102" to-port="0" />
		<edge from-layer="101" from-port="0" to-layer="102" to-port="1" />
		<edge from-layer="102" from-port="2" to-layer="108" to-port="0" />
		<edge from-layer="103" from-port="0" to-layer="104" to-port="1" />
		<edge from-layer="104" from-port="2" to-layer="107" to-port="0" />
		<edge from-layer="105" from-port="0" to-layer="107" to-port="1" />
		<edge from-layer="106" from-port="0" to-layer="107" to-port="2" />
		<edge from-layer="107" from-port="3" to-layer="108" to-port="1" />
		<edge from-layer="108" from-port="2" to-layer="115" to-port="0" />
		<edge from-layer="108" from-port="2" to-layer="109" to-port="1" />
		<edge from-layer="109" from-port="2" to-layer="122" to-port="0" />
		<edge from-layer="110" from-port="0" to-layer="111" to-port="1" />
		<edge from-layer="111" from-port="2" to-layer="121" to-port="0" />
		<edge from-layer="112" from-port="0" to-layer="121" to-port="1" />
		<edge from-layer="113" from-port="0" to-layer="114" to-port="1" />
		<edge from-layer="114" from-port="2" to-layer="121" to-port="2" />
		<edge from-layer="115" from-port="1" to-layer="118" to-port="0" />
		<edge from-layer="116" from-port="0" to-layer="118" to-port="1" />
		<edge from-layer="117" from-port="0" to-layer="118" to-port="2" />
		<edge from-layer="118" from-port="3" to-layer="120" to-port="0" />
		<edge from-layer="118" from-port="3" to-layer="166" to-port="0" />
		<edge from-layer="119" from-port="0" to-layer="120" to-port="1" />
		<edge from-layer="120" from-port="2" to-layer="121" to-port="3" />
		<edge from-layer="121" from-port="4" to-layer="122" to-port="1" />
		<edge from-layer="122" from-port="2" to-layer="160" to-port="0" />
		<edge from-layer="123" from-port="0" to-layer="155" to-port="0" />
		<edge from-layer="124" from-port="0" to-layer="125" to-port="1" />
		<edge from-layer="125" from-port="2" to-layer="127" to-port="0" />
		<edge from-layer="126" from-port="0" to-layer="127" to-port="1" />
		<edge from-layer="127" from-port="2" to-layer="153" to-port="0" />
		<edge from-layer="128" from-port="1" to-layer="131" to-port="0" />
		<edge from-layer="129" from-port="0" to-layer="131" to-port="1" />
		<edge from-layer="130" from-port="0" to-layer="131" to-port="2" />
		<edge from-layer="131" from-port="3" to-layer="133" to-port="0" />
		<edge from-layer="132" from-port="0" to-layer="133" to-port="1" />
		<edge from-layer="133" from-port="2" to-layer="143" to-port="0" />
		<edge from-layer="134" from-port="0" to-layer="143" to-port="1" />
		<edge from-layer="135" from-port="1" to-layer="138" to-port="0" />
		<edge from-layer="136" from-port="0" to-layer="138" to-port="1" />
		<edge from-layer="137" from-port="0" to-layer="138" to-port="2" />
		<edge from-layer="138" from-port="3" to-layer="140" to-port="0" />
		<edge from-layer="138" from-port="3" to-layer="142" to-port="0" />
		<edge from-layer="139" from-port="0" to-layer="140" to-port="1" />
		<edge from-layer="140" from-port="2" to-layer="143" to-port="2" />
		<edge from-layer="141" from-port="0" to-layer="142" to-port="1" />
		<edge from-layer="142" from-port="2" to-layer="143" to-port="3" />
		<edge from-layer="143" from-port="4" to-layer="145" to-port="0" />
		<edge from-layer="144" from-port="0" to-layer="145" to-port="1" />
		<edge from-layer="145" from-port="2" to-layer="147" to-port="0" />
		<edge from-layer="145" from-port="2" to-layer="152" to-port="2" />
		<edge from-layer="145" from-port="2" to-layer="151" to-port="0" />
		<edge from-layer="146" from-port="0" to-layer="148" to-port="0" />
		<edge from-layer="147" from-port="1" to-layer="148" to-port="1" />
		<edge from-layer="148" from-port="2" to-layer="152" to-port="1" />
		<edge from-layer="148" from-port="2" to-layer="150" to-port="0" />
		<edge from-layer="149" from-port="0" to-layer="150" to-port="1" />
		<edge from-layer="150" from-port="2" to-layer="151" to-port="1" />
		<edge from-layer="151" from-port="2" to-layer="152" to-port="0" />
		<edge from-layer="152" from-port="3" to-layer="153" to-port="1" />
		<edge from-layer="153" from-port="2" to-layer="154" to-port="0" />
		<edge from-layer="154" from-port="1" to-layer="155" to-port="1" />
		<edge from-layer="155" from-port="2" to-layer="159" to-port="2" />
		<edge from-layer="155" from-port="2" to-layer="156" to-port="0" />
		<edge from-layer="156" from-port="1" to-layer="157" to-port="0" />
		<edge from-layer="157" from-port="1" to-layer="159" to-port="0" />
		<edge from-layer="158" from-port="0" to-layer="159" to-port="1" />
		<edge from-layer="159" from-port="3" to-layer="160" to-port="1" />
		<edge from-layer="159" from-port="3" to-layer="315" to-port="1" />
		<edge from-layer="160" from-port="2" to-layer="168" to-port="0" />
		<edge from-layer="161" from-port="0" to-layer="162" to-port="1" />
		<edge from-layer="162" from-port="2" to-layer="167" to-port="0" />
		<edge from-layer="163" from-port="0" to-layer="164" to-port="1" />
		<edge from-layer="164" from-port="2" to-layer="167" to-port="1" />
		<edge from-layer="165" from-port="0" to-layer="166" to-port="1" />
		<edge from-layer="166" from-port="2" to-layer="167" to-port="2" />
		<edge from-layer="167" from-port="3" to-layer="168" to-port="1" />
		<edge from-layer="168" from-port="2" to-layer="169" to-port="0" />
		<edge from-layer="169" from-port="1" to-layer="188" to-port="0" />
		<edge from-layer="170" from-port="0" to-layer="171" to-port="1" />
		<edge from-layer="171" from-port="2" to-layer="172" to-port="1" />
		<edge from-layer="172" from-port="2" to-layer="179" to-port="0" />
		<edge from-layer="173" from-port="0" to-layer="174" to-port="1" />
		<edge from-layer="174" from-port="2" to-layer="178" to-port="0" />
		<edge from-layer="175" from-port="0" to-layer="178" to-port="1" />
		<edge from-layer="176" from-port="0" to-layer="178" to-port="2" />
		<edge from-layer="177" from-port="0" to-layer="178" to-port="3" />
		<edge from-layer="178" from-port="4" to-layer="179" to-port="1" />
		<edge from-layer="179" from-port="2" to-layer="181" to-port="0" />
		<edge from-layer="180" from-port="0" to-layer="181" to-port="1" />
		<edge from-layer="181" from-port="2" to-layer="187" to-port="0" />
		<edge from-layer="182" from-port="0" to-layer="183" to-port="1" />
		<edge from-layer="183" from-port="2" to-layer="186" to-port="0" />
		<edge from-layer="184" from-port="0" to-layer="186" to-port="1" />
		<edge from-layer="185" from-port="0" to-layer="186" to-port="2" />
		<edge from-layer="186" from-port="3" to-layer="187" to-port="1" />
		<edge from-layer="187" from-port="2" to-layer="188" to-port="1" />
		<edge from-layer="188" from-port="2" to-layer="196" to-port="0" />
		<edge from-layer="189" from-port="0" to-layer="190" to-port="1" />
		<edge from-layer="190" from-port="2" to-layer="195" to-port="0" />
		<edge from-layer="191" from-port="0" to-layer="195" to-port="1" />
		<edge from-layer="192" from-port="0" to-layer="193" to-port="1" />
		<edge from-layer="193" from-port="2" to-layer="195" to-port="2" />
		<edge from-layer="194" from-port="0" to-layer="195" to-port="3" />
		<edge from-layer="195" from-port="4" to-layer="196" to-port="1" />
		<edge from-layer="196" from-port="2" to-layer="198" to-port="0" />
		<edge from-layer="197" from-port="0" to-layer="198" to-port="1" />
		<edge from-layer="198" from-port="2" to-layer="205" to-port="0" />
		<edge from-layer="199" from-port="0" to-layer="200" to-port="1" />
		<edge from-layer="200" from-port="2" to-layer="204" to-port="0" />
		<edge from-layer="201" from-port="0" to-layer="202" to-port="1" />
		<edge from-layer="202" from-port="2" to-layer="204" to-port="1" />
		<edge from-layer="203" from-port="0" to-layer="204" to-port="2" />
		<edge from-layer="204" from-port="3" to-layer="205" to-port="1" />
		<edge from-layer="205" from-port="2" to-layer="207" to-port="0" />
		<edge from-layer="206" from-port="0" to-layer="207" to-port="1" />
		<edge from-layer="207" from-port="2" to-layer="208" to-port="1" />
		<edge from-layer="208" from-port="2" to-layer="209" to-port="1" />
		<edge from-layer="209" from-port="2" to-layer="212" to-port="0" />
		<edge from-layer="209" from-port="2" to-layer="211" to-port="0" />
		<edge from-layer="210" from-port="0" to-layer="211" to-port="1" />
		<edge from-layer="211" from-port="2" to-layer="212" to-port="1" />
		<edge from-layer="212" from-port="2" to-layer="214" to-port="0" />
		<edge from-layer="212" from-port="2" to-layer="220" to-port="0" />
		<edge from-layer="213" from-port="0" to-layer="214" to-port="1" />
		<edge from-layer="214" from-port="2" to-layer="216" to-port="0" />
		<edge from-layer="215" from-port="0" to-layer="216" to-port="1" />
		<edge from-layer="216" from-port="2" to-layer="218" to-port="0" />
		<edge from-layer="217" from-port="0" to-layer="218" to-port="1" />
		<edge from-layer="218" from-port="2" to-layer="219" to-port="0" />
		<edge from-layer="219" from-port="1" to-layer="220" to-port="1" />
		<edge from-layer="220" from-port="2" to-layer="221" to-port="0" />
		<edge from-layer="221" from-port="2" to-layer="222" to-port="0" />
		<edge from-layer="222" from-port="2" to-layer="225" to-port="0" />
		<edge from-layer="222" from-port="2" to-layer="238" to-port="0" />
		<edge from-layer="223" from-port="0" to-layer="226" to-port="0" />
		<edge from-layer="223" from-port="0" to-layer="380" to-port="0" />
		<edge from-layer="224" from-port="0" to-layer="225" to-port="1" />
		<edge from-layer="225" from-port="2" to-layer="226" to-port="1" />
		<edge from-layer="226" from-port="2" to-layer="228" to-port="0" />
		<edge from-layer="226" from-port="2" to-layer="232" to-port="0" />
		<edge from-layer="227" from-port="0" to-layer="228" to-port="1" />
		<edge from-layer="228" from-port="2" to-layer="229" to-port="0" />
		<edge from-layer="229" from-port="1" to-layer="231" to-port="0" />
		<edge from-layer="230" from-port="0" to-layer="231" to-port="1" />
		<edge from-layer="231" from-port="2" to-layer="232" to-port="1" />
		<edge from-layer="232" from-port="2" to-layer="234" to-port="0" />
		<edge from-layer="233" from-port="0" to-layer="234" to-port="1" />
		<edge from-layer="234" from-port="2" to-layer="236" to-port="0" />
		<edge from-layer="235" from-port="0" to-layer="236" to-port="1" />
		<edge from-layer="236" from-port="2" to-layer="237" to-port="1" />
		<edge from-layer="237" from-port="2" to-layer="238" to-port="1" />
		<edge from-layer="238" from-port="2" to-layer="241" to-port="0" />
		<edge from-layer="238" from-port="2" to-layer="240" to-port="0" />
		<edge from-layer="239" from-port="0" to-layer="240" to-port="1" />
		<edge from-layer="240" from-port="2" to-layer="241" to-port="1" />
		<edge from-layer="241" from-port="2" to-layer="249" to-port="0" />
		<edge from-layer="241" from-port="2" to-layer="243" to-port="0" />
		<edge from-layer="242" from-port="0" to-layer="243" to-port="1" />
		<edge from-layer="243" from-port="2" to-layer="245" to-port="0" />
		<edge from-layer="244" from-port="0" to-layer="245" to-port="1" />
		<edge from-layer="245" from-port="2" to-layer="247" to-port="0" />
		<edge from-layer="246" from-port="0" to-layer="247" to-port="1" />
		<edge from-layer="247" from-port="2" to-layer="248" to-port="0" />
		<edge from-layer="248" from-port="1" to-layer="249" to-port="1" />
		<edge from-layer="249" from-port="2" to-layer="250" to-port="0" />
		<edge from-layer="250" from-port="2" to-layer="251" to-port="0" />
		<edge from-layer="251" from-port="2" to-layer="257" to-port="0" />
		<edge from-layer="251" from-port="2" to-layer="326" to-port="0" />
		<edge from-layer="251" from-port="2" to-layer="284" to-port="0" />
		<edge from-layer="251" from-port="2" to-layer="253" to-port="0" />
		<edge from-layer="251" from-port="2" to-layer="364" to-port="0" />
		<edge from-layer="251" from-port="2" to-layer="263" to-port="0" />
		<edge from-layer="252" from-port="0" to-layer="253" to-port="1" />
		<edge from-layer="253" from-port="2" to-layer="254" to-port="1" />
		<edge from-layer="254" from-port="2" to-layer="256" to-port="0" />
		<edge from-layer="255" from-port="0" to-layer="256" to-port="1" />
		<edge from-layer="256" from-port="2" to-layer="272" to-port="0" />
		<edge from-layer="257" from-port="1" to-layer="260" to-port="0" />
		<edge from-layer="258" from-port="0" to-layer="260" to-port="1" />
		<edge from-layer="259" from-port="0" to-layer="260" to-port="2" />
		<edge from-layer="260" from-port="3" to-layer="329" to-port="0" />
		<edge from-layer="260" from-port="3" to-layer="287" to-port="0" />
		<edge from-layer="260" from-port="3" to-layer="355" to-port="0" />
		<edge from-layer="260" from-port="3" to-layer="345" to-port="0" />
		<edge from-layer="260" from-port="3" to-layer="262" to-port="0" />
		<edge from-layer="260" from-port="3" to-layer="303" to-port="0" />
		<edge from-layer="260" from-port="3" to-layer="276" to-port="0" />
		<edge from-layer="261" from-port="0" to-layer="262" to-port="1" />
		<edge from-layer="262" from-port="2" to-layer="271" to-port="0" />
		<edge from-layer="263" from-port="1" to-layer="266" to-port="0" />
		<edge from-layer="264" from-port="0" to-layer="266" to-port="1" />
		<edge from-layer="265" from-port="0" to-layer="266" to-port="2" />
		<edge from-layer="266" from-port="3" to-layer="357" to-port="0" />
		<edge from-layer="266" from-port="3" to-layer="319" to-port="0" />
		<edge from-layer="266" from-port="3" to-layer="306" to-port="0" />
		<edge from-layer="266" from-port="3" to-layer="348" to-port="0" />
		<edge from-layer="266" from-port="3" to-layer="268" to-port="0" />
		<edge from-layer="267" from-port="0" to-layer="268" to-port="1" />
		<edge from-layer="268" from-port="2" to-layer="271" to-port="1" />
		<edge from-layer="269" from-port="0" to-layer="271" to-port="2" />
		<edge from-layer="270" from-port="0" to-layer="271" to-port="3" />
		<edge from-layer="271" from-port="4" to-layer="272" to-port="1" />
		<edge from-layer="272" from-port="2" to-layer="274" to-port="0" />
		<edge from-layer="273" from-port="0" to-layer="274" to-port="1" />
		<edge from-layer="274" from-port="2" to-layer="282" to-port="0" />
		<edge from-layer="275" from-port="0" to-layer="276" to-port="1" />
		<edge from-layer="276" from-port="2" to-layer="296" to-port="0" />
		<edge from-layer="276" from-port="2" to-layer="278" to-port="0" />
		<edge from-layer="276" from-port="2" to-layer="317" to-port="0" />
		<edge from-layer="276" from-port="2" to-layer="338" to-port="0" />
		<edge from-layer="277" from-port="0" to-layer="278" to-port="1" />
		<edge from-layer="278" from-port="2" to-layer="281" to-port="0" />
		<edge from-layer="279" from-port="0" to-layer="281" to-port="1" />
		<edge from-layer="280" from-port="0" to-layer="281" to-port="2" />
		<edge from-layer="281" from-port="3" to-layer="282" to-port="1" />
		<edge from-layer="282" from-port="2" to-layer="301" to-port="0" />
		<edge from-layer="283" from-port="0" to-layer="284" to-port="1" />
		<edge from-layer="284" from-port="2" to-layer="285" to-port="1" />
		<edge from-layer="285" from-port="2" to-layer="292" to-port="0" />
		<edge from-layer="286" from-port="0" to-layer="287" to-port="1" />
		<edge from-layer="287" from-port="2" to-layer="291" to-port="0" />
		<edge from-layer="288" from-port="0" to-layer="291" to-port="1" />
		<edge from-layer="289" from-port="0" to-layer="291" to-port="2" />
		<edge from-layer="290" from-port="0" to-layer="291" to-port="3" />
		<edge from-layer="291" from-port="4" to-layer="292" to-port="1" />
		<edge from-layer="292" from-port="2" to-layer="294" to-port="0" />
		<edge from-layer="293" from-port="0" to-layer="294" to-port="1" />
		<edge from-layer="294" from-port="2" to-layer="300" to-port="0" />
		<edge from-layer="295" from-port="0" to-layer="296" to-port="1" />
		<edge from-layer="296" from-port="2" to-layer="299" to-port="0" />
		<edge from-layer="297" from-port="0" to-layer="299" to-port="1" />
		<edge from-layer="298" from-port="0" to-layer="299" to-port="2" />
		<edge from-layer="299" from-port="3" to-layer="300" to-port="1" />
		<edge from-layer="300" from-port="2" to-layer="307" to-port="0" />
		<edge from-layer="300" from-port="2" to-layer="301" to-port="1" />
		<edge from-layer="301" from-port="2" to-layer="314" to-port="0" />
		<edge from-layer="302" from-port="0" to-layer="303" to-port="1" />
		<edge from-layer="303" from-port="2" to-layer="313" to-port="0" />
		<edge from-layer="304" from-port="0" to-layer="313" to-port="1" />
		<edge from-layer="305" from-port="0" to-layer="306" to-port="1" />
		<edge from-layer="306" from-port="2" to-layer="313" to-port="2" />
		<edge from-layer="307" from-port="1" to-layer="310" to-port="0" />
		<edge from-layer="308" from-port="0" to-layer="310" to-port="1" />
		<edge from-layer="309" from-port="0" to-layer="310" to-port="2" />
		<edge from-layer="310" from-port="3" to-layer="321" to-port="0" />
		<edge from-layer="310" from-port="3" to-layer="312" to-port="0" />
		<edge from-layer="311" from-port="0" to-layer="312" to-port="1" />
		<edge from-layer="312" from-port="2" to-layer="313" to-port="3" />
		<edge from-layer="313" from-port="4" to-layer="314" to-port="1" />
		<edge from-layer="314" from-port="2" to-layer="315" to-port="0" />
		<edge from-layer="315" from-port="2" to-layer="323" to-port="0" />
		<edge from-layer="316" from-port="0" to-layer="317" to-port="1" />
		<edge from-layer="317" from-port="2" to-layer="322" to-port="0" />
		<edge from-layer="318" from-port="0" to-layer="319" to-port="1" />
		<edge from-layer="319" from-port="2" to-layer="322" to-port="1" />
		<edge from-layer="320" from-port="0" to-layer="321" to-port="1" />
		<edge from-layer="321" from-port="2" to-layer="322" to-port="2" />
		<edge from-layer="322" from-port="3" to-layer="323" to-port="1" />
		<edge from-layer="323" from-port="2" to-layer="324" to-port="0" />
		<edge from-layer="324" from-port="1" to-layer="343" to-port="0" />
		<edge from-layer="325" from-port="0" to-layer="326" to-port="1" />
		<edge from-layer="326" from-port="2" to-layer="327" to-port="1" />
		<edge from-layer="327" from-port="2" to-layer="334" to-port="0" />
		<edge from-layer="328" from-port="0" to-layer="329" to-port="1" />
		<edge from-layer="329" from-port="2" to-layer="333" to-port="0" />
		<edge from-layer="330" from-port="0" to-layer="333" to-port="1" />
		<edge from-layer="331" from-port="0" to-layer="333" to-port="2" />
		<edge from-layer="332" from-port="0" to-layer="333" to-port="3" />
		<edge from-layer="333" from-port="4" to-layer="334" to-port="1" />
		<edge from-layer="334" from-port="2" to-layer="336" to-port="0" />
		<edge from-layer="335" from-port="0" to-layer="336" to-port="1" />
		<edge from-layer="336" from-port="2" to-layer="342" to-port="0" />
		<edge from-layer="337" from-port="0" to-layer="338" to-port="1" />
		<edge from-layer="338" from-port="2" to-layer="341" to-port="0" />
		<edge from-layer="339" from-port="0" to-layer="341" to-port="1" />
		<edge from-layer="340" from-port="0" to-layer="341" to-port="2" />
		<edge from-layer="341" from-port="3" to-layer="342" to-port="1" />
		<edge from-layer="342" from-port="2" to-layer="343" to-port="1" />
		<edge from-layer="343" from-port="2" to-layer="351" to-port="0" />
		<edge from-layer="344" from-port="0" to-layer="345" to-port="1" />
		<edge from-layer="345" from-port="2" to-layer="350" to-port="0" />
		<edge from-layer="346" from-port="0" to-layer="350" to-port="1" />
		<edge from-layer="347" from-port="0" to-layer="348" to-port="1" />
		<edge from-layer="348" from-port="2" to-layer="350" to-port="2" />
		<edge from-layer="349" from-port="0" to-layer="350" to-port="3" />
		<edge from-layer="350" from-port="4" to-layer="351" to-port="1" />
		<edge from-layer="351" from-port="2" to-layer="353" to-port="0" />
		<edge from-layer="352" from-port="0" to-layer="353" to-port="1" />
		<edge from-layer="353" from-port="2" to-layer="360" to-port="0" />
		<edge from-layer="354" from-port="0" to-layer="355" to-port="1" />
		<edge from-layer="355" from-port="2" to-layer="359" to-port="0" />
		<edge from-layer="356" from-port="0" to-layer="357" to-port="1" />
		<edge from-layer="357" from-port="2" to-layer="359" to-port="1" />
		<edge from-layer="358" from-port="0" to-layer="359" to-port="2" />
		<edge from-layer="359" from-port="3" to-layer="360" to-port="1" />
		<edge from-layer="360" from-port="2" to-layer="362" to-port="0" />
		<edge from-layer="361" from-port="0" to-layer="362" to-port="1" />
		<edge from-layer="362" from-port="2" to-layer="363" to-port="1" />
		<edge from-layer="363" from-port="2" to-layer="364" to-port="1" />
		<edge from-layer="364" from-port="2" to-layer="367" to-port="0" />
		<edge from-layer="364" from-port="2" to-layer="366" to-port="0" />
		<edge from-layer="365" from-port="0" to-layer="366" to-port="1" />
		<edge from-layer="366" from-port="2" to-layer="367" to-port="1" />
		<edge from-layer="367" from-port="2" to-layer="375" to-port="0" />
		<edge from-layer="367" from-port="2" to-layer="369" to-port="0" />
		<edge from-layer="368" from-port="0" to-layer="369" to-port="1" />
		<edge from-layer="369" from-port="2" to-layer="371" to-port="0" />
		<edge from-layer="370" from-port="0" to-layer="371" to-port="1" />
		<edge from-layer="371" from-port="2" to-layer="373" to-port="0" />
		<edge from-layer="372" from-port="0" to-layer="373" to-port="1" />
		<edge from-layer="373" from-port="2" to-layer="374" to-port="0" />
		<edge from-layer="374" from-port="1" to-layer="375" to-port="1" />
		<edge from-layer="375" from-port="2" to-layer="376" to-port="0" />
		<edge from-layer="376" from-port="2" to-layer="377" to-port="0" />
		<edge from-layer="377" from-port="2" to-layer="392" to-port="0" />
		<edge from-layer="377" from-port="2" to-layer="379" to-port="0" />
		<edge from-layer="378" from-port="0" to-layer="379" to-port="1" />
		<edge from-layer="379" from-port="2" to-layer="380" to-port="1" />
		<edge from-layer="380" from-port="2" to-layer="386" to-port="0" />
		<edge from-layer="380" from-port="2" to-layer="382" to-port="0" />
		<edge from-layer="381" from-port="0" to-layer="382" to-port="1" />
		<edge from-layer="382" from-port="2" to-layer="383" to-port="0" />
		<edge from-layer="383" from-port="1" to-layer="385" to-port="0" />
		<edge from-layer="384" from-port="0" to-layer="385" to-port="1" />
		<edge from-layer="385" from-port="2" to-layer="386" to-port="1" />
		<edge from-layer="386" from-port="2" to-layer="388" to-port="0" />
		<edge from-layer="387" from-port="0" to-layer="388" to-port="1" />
		<edge from-layer="388" from-port="2" to-layer="390" to-port="0" />
		<edge from-layer="389" from-port="0" to-layer="390" to-port="1" />
		<edge from-layer="390" from-port="2" to-layer="391" to-port="1" />
		<edge from-layer="391" from-port="2" to-layer="392" to-port="1" />
		<edge from-layer="392" from-port="2" to-layer="394" to-port="0" />
		<edge from-layer="392" from-port="2" to-layer="395" to-port="0" />
		<edge from-layer="393" from-port="0" to-layer="394" to-port="1" />
		<edge from-layer="394" from-port="2" to-layer="395" to-port="1" />
		<edge from-layer="395" from-port="2" to-layer="397" to-port="0" />
		<edge from-layer="395" from-port="2" to-layer="403" to-port="0" />
		<edge from-layer="396" from-port="0" to-layer="397" to-port="1" />
		<edge from-layer="397" from-port="2" to-layer="399" to-port="0" />
		<edge from-layer="398" from-port="0" to-layer="399" to-port="1" />
		<edge from-layer="399" from-port="2" to-layer="401" to-port="0" />
		<edge from-layer="400" from-port="0" to-layer="401" to-port="1" />
		<edge from-layer="401" from-port="2" to-layer="402" to-port="0" />
		<edge from-layer="402" from-port="1" to-layer="403" to-port="1" />
		<edge from-layer="403" from-port="2" to-layer="404" to-port="0" />
		<edge from-layer="404" from-port="2" to-layer="405" to-port="0" />
		<edge from-layer="405" from-port="2" to-layer="406" to-port="0" />
	</edges>
	<rt_info />
</net>
