<?xml version="1.0"?>
<net name="torch_jit" version="11">
	<layers>
		<layer id="2" name="encoder_attention_mask" type="Parameter" version="opset1">
			<data shape="?,?" element_type="i64" />
			<rt_info>
				<attribute name="fused_names" version="0" value="encoder_attention_mask" />
			</rt_info>
			<output>
				<port id="0" precision="I64" names="encoder_attention_mask">
					<dim>-1</dim>
					<dim>-1</dim>
				</port>
			</output>
		</layer>
		<layer id="1" name="input_ids" type="Parameter" version="opset1">
			<data shape="?,?" element_type="i64" />
			<rt_info>
				<attribute name="fused_names" version="0" value="input_ids" />
			</rt_info>
			<output>
				<port id="0" precision="I64" names="input_ids">
					<dim>-1</dim>
					<dim>-1</dim>
				</port>
			</output>
		</layer>
		<layer id="0" name="encoder_hidden_states" type="Parameter" version="opset1">
			<data shape="?,?,16" element_type="f32" />
			<rt_info>
				<attribute name="fused_names" version="0" value="encoder_hidden_states" />
			</rt_info>
			<output>
				<port id="0" precision="FP32" names="encoder_hidden_states">
					<dim>-1</dim>
					<dim>-1</dim>
					<dim>16</dim>
				</port>
			</output>
		</layer>
		<layer id="3" name="model.decoder.layers.0.self_attn.v_proj.bias" type="Const" version="opset1">
			<data element_type="f32" shape="16" offset="0" size="64" />
			<rt_info>
				<attribute name="fused_names" version="0" value="model.decoder.layers.0.self_attn.v_proj.bias" />
			</rt_info>
			<output>
				<port id="0" precision="FP32" names="model.decoder.layernorm_embedding.bias,model.decoder.layers.0.encoder_attn.k_proj.bias,model.decoder.layers.0.encoder_attn.out_proj.bias,model.decoder.layers.0.encoder_attn.q_proj.bias,model.decoder.layers.0.encoder_attn.v_proj.bias,model.decoder.layers.0.encoder_attn_layer_norm.bias,model.decoder.layers.0.fc2.bias,model.decoder.layers.0.final_layer_norm.bias,model.decoder.layers.0.self_attn.k_proj.bias,model.decoder.layers.0.self_attn.out_proj.bias,model.decoder.layers.0.self_attn.q_proj.bias,model.decoder.layers.0.self_attn.v_proj.bias,model.decoder.layers.0.self_attn_layer_norm.bias,model.decoder.layers.1.encoder_attn.k_proj.bias,model.decoder.layers.1.encoder_attn.out_proj.bias,model.decoder.layers.1.encoder_attn.q_proj.bias,model.decoder.layers.1.encoder_attn.v_proj.bias,model.decoder.layers.1.encoder_attn_layer_norm.bias,model.decoder.layers.1.fc2.bias,model.decoder.layers.1.final_layer_norm.bias,model.decoder.layers.1.self_attn.k_proj.bias,model.decoder.layers.1.self_attn.out_proj.bias,model.decoder.layers.1.self_attn.q_proj.bias,model.decoder.layers.1.self_attn.v_proj.bias,model.decoder.layers.1.self_attn_layer_norm.bias">
					<dim>16</dim>
				</port>
			</output>
		</layer>
		<layer id="4" name="onnx::MatMul_758" type="Const" version="opset1">
			<data element_type="f32" shape="16, 16" offset="64" size="1024" />
			<rt_info>
				<attribute name="fused_names" version="0" value="onnx::MatMul_758" />
			</rt_info>
			<output>
				<port id="0" precision="FP32" names="onnx::MatMul_758">
					<dim>16</dim>
					<dim>16</dim>
				</port>
			</output>
		</layer>
		<layer id="5" name="/model/decoder/layers.1/encoder_attn/v_proj/MatMul" type="MatMul" version="opset1">
			<data transpose_a="false" transpose_b="false" />
			<rt_info>
				<attribute name="fused_names" version="0" value="/model/decoder/layers.1/encoder_attn/v_proj/MatMul" />
			</rt_info>
			<input>
				<port id="0" precision="FP32">
					<dim>-1</dim>
					<dim>-1</dim>
					<dim>16</dim>
				</port>
				<port id="1" precision="FP32">
					<dim>16</dim>
					<dim>16</dim>
				</port>
			</input>
			<output>
				<port id="2" precision="FP32" names="/model/decoder/layers.1/encoder_attn/v_proj/MatMul_output_0">
					<dim>-1</dim>
					<dim>-1</dim>
					<dim>16</dim>
				</port>
			</output>
		</layer>
		<layer id="6" name="/model/decoder/layers.1/encoder_attn/v_proj/Add" type="Add" version="opset1">
			<data auto_broadcast="numpy" />
			<rt_info>
				<attribute name="fused_names" version="0" value="/model/decoder/layers.1/encoder_attn/v_proj/Add" />
			</rt_info>
			<input>
				<port id="0" precision="FP32">
					<dim>16</dim>
				</port>
				<port id="1" precision="FP32">
					<dim>-1</dim>
					<dim>-1</dim>
					<dim>16</dim>
				</port>
			</input>
			<output>
				<port id="2" precision="FP32" names="/model/decoder/layers.1/encoder_attn/v_proj/Add_output_0">
					<dim>-1</dim>
					<dim>-1</dim>
					<dim>16</dim>
				</port>
			</output>
		</layer>
		<layer id="7" name="model.shared.weight" type="Const" version="opset1">
			<data element_type="f32" shape="1000, 16" offset="1088" size="64000" />
			<rt_info>
				<attribute name="fused_names" version="0" value="model.shared.weight" />
			</rt_info>
			<output>
				<port id="0" precision="FP32" names="model.shared.weight">
					<dim>1000</dim>
					<dim>16</dim>
				</port>
			</output>
		</layer>
		<layer id="8" name="Constant_4730099" type="Const" version="opset1">
			<data element_type="i64" shape="" offset="65088" size="8" />
			<rt_info>
				<attribute name="fused_names" version="0" value="Constant_4730099" />
			</rt_info>
			<output>
				<port id="0" precision="I64" />
			</output>
		</layer>
		<layer id="9" name="/model/decoder/embed_tokens/Gather" type="Gather" version="opset8">
			<data batch_dims="0" />
			<rt_info>
				<attribute name="fused_names" version="0" value="/model/decoder/embed_tokens/Gather" />
			</rt_info>
			<input>
				<port id="0" precision="FP32">
					<dim>1000</dim>
					<dim>16</dim>
				</port>
				<port id="1" precision="I64">
					<dim>-1</dim>
					<dim>-1</dim>
				</port>
				<port id="2" precision="I64" />
			</input>
			<output>
				<port id="3" precision="FP32" names="/model/decoder/embed_tokens/Gather_output_0">
					<dim>-1</dim>
					<dim>-1</dim>
					<dim>16</dim>
				</port>
			</output>
		</layer>
		<layer id="10" name="/model/decoder/Constant_2" type="Const" version="opset1">
			<data element_type="f32" shape="" offset="65096" size="4" />
			<rt_info>
				<attribute name="fused_names" version="0" value="/model/decoder/Constant_2" />
			</rt_info>
			<output>
				<port id="0" precision="FP32" names="/model/decoder/Constant_2_output_0" />
			</output>
		</layer>
		<layer id="11" name="/model/decoder/Mul" type="Multiply" version="opset1">
			<data auto_broadcast="numpy" />
			<rt_info>
				<attribute name="fused_names" version="0" value="/model/decoder/Mul" />
			</rt_info>
			<input>
				<port id="0" precision="FP32">
					<dim>-1</dim>
					<dim>-1</dim>
					<dim>16</dim>
				</port>
				<port id="1" precision="FP32" />
			</input>
			<output>
				<port id="2" precision="FP32" names="/model/decoder/Mul_output_0">
					<dim>-1</dim>
					<dim>-1</dim>
					<dim>16</dim>
				</port>
			</output>
		</layer>
		<layer id="12" name="model.decoder.embed_positions.weight" type="Const" version="opset1">
			<data element_type="f32" shape="102, 16" offset="65100" size="6528" />
			<rt_info>
				<attribute name="fused_names" version="0" value="model.decoder.embed_positions.weight" />
			</rt_info>
			<output>
				<port id="0" precision="FP32" names="model.decoder.embed_positions.weight">
					<dim>102</dim>
					<dim>16</dim>
				</port>
			</output>
		</layer>
		<layer id="13" name="/model/decoder/embed_positions/Constant" type="Const" version="opset1">
			<data element_type="i64" shape="" offset="65088" size="8" />
			<rt_info>
				<attribute name="fused_names" version="0" value="/model/decoder/embed_positions/Constant" />
			</rt_info>
			<output>
				<port id="0" precision="I64" names="/model/decoder/embed_positions/Constant_output_0" />
			</output>
		</layer>
		<layer id="14" name="/model/decoder/Shape_1" type="ShapeOf" version="opset3">
			<data output_type="i64" />
			<rt_info>
				<attribute name="fused_names" version="0" value="/model/decoder/Shape_1" />
			</rt_info>
			<input>
				<port id="0" precision="I64">
					<dim>-1</dim>
					<dim>-1</dim>
				</port>
			</input>
			<output>
				<port id="1" precision="I64" names="/model/decoder/Shape_1_output_0">
					<dim>2</dim>
				</port>
			</output>
		</layer>
		<layer id="15" name="/model/decoder/Constant_1" type="Const" version="opset1">
			<data element_type="i64" shape="" offset="71628" size="8" />
			<rt_info>
				<attribute name="fused_names" version="0" value="/model/decoder/Constant_1" />
			</rt_info>
			<output>
				<port id="0" precision="I64" names="/model/decoder/Constant_1_output_0" />
			</output>
		</layer>
		<layer id="16" name="Constant_4730097" type="Const" version="opset1">
			<data element_type="i64" shape="" offset="65088" size="8" />
			<rt_info>
				<attribute name="fused_names" version="0" value="Constant_4730097" />
			</rt_info>
			<output>
				<port id="0" precision="I64" />
			</output>
		</layer>
		<layer id="17" name="/model/decoder/Gather_1" type="Gather" version="opset8">
			<data batch_dims="0" />
			<rt_info>
				<attribute name="fused_names" version="0" value="/model/decoder/Constant_1, /model/decoder/Gather_1, Constant_4730097" />
			</rt_info>
			<input>
				<port id="0" precision="I64">
					<dim>2</dim>
				</port>
				<port id="1" precision="I64" />
				<port id="2" precision="I64" />
			</input>
			<output>
				<port id="3" precision="I64" names="/model/decoder/Gather_1_output_0" />
			</output>
		</layer>
		<layer id="18" name="/model/decoder/embed_positions/Cast" type="Convert" version="opset1">
			<data destination_type="i64" />
			<rt_info>
				<attribute name="fused_names" version="0" value="/model/decoder/embed_positions/Cast" />
			</rt_info>
			<input>
				<port id="0" precision="I64" />
			</input>
			<output>
				<port id="1" precision="I64" names="/model/decoder/embed_positions/Cast_output_0" />
			</output>
		</layer>
		<layer id="19" name="/model/decoder/embed_positions/Constant_1" type="Const" version="opset1">
			<data element_type="i64" shape="" offset="71628" size="8" />
			<rt_info>
				<attribute name="fused_names" version="0" value="/model/decoder/embed_positions/Constant_1" />
			</rt_info>
			<output>
				<port id="0" precision="I64" names="/model/decoder/embed_positions/Constant_1_output_0" />
			</output>
		</layer>
		<layer id="20" name="/model/decoder/embed_positions/Range" type="Range" version="opset4">
			<data output_type="i64" />
			<rt_info>
				<attribute name="fused_names" version="0" value="/model/decoder/embed_positions/Range" />
			</rt_info>
			<input>
				<port id="0" precision="I64" />
				<port id="1" precision="I64" />
				<port id="2" precision="I64" />
			</input>
			<output>
				<port id="3" precision="I64" names="/model/decoder/embed_positions/Range_output_0">
					<dim>-1</dim>
				</port>
			</output>
		</layer>
		<layer id="21" name="/model/decoder/Shape" type="ShapeOf" version="opset3">
			<data output_type="i64" />
			<rt_info>
				<attribute name="fused_names" version="0" value="/model/decoder/Shape" />
			</rt_info>
			<input>
				<port id="0" precision="I64">
					<dim>-1</dim>
					<dim>-1</dim>
				</port>
			</input>
			<output>
				<port id="1" precision="I64" names="/model/decoder/Shape_output_0">
					<dim>2</dim>
				</port>
			</output>
		</layer>
		<layer id="22" name="/model/decoder/Constant" type="Const" version="opset1">
			<data element_type="i64" shape="" offset="65088" size="8" />
			<rt_info>
				<attribute name="fused_names" version="0" value="/model/decoder/Constant" />
			</rt_info>
			<output>
				<port id="0" precision="I64" names="/model/decoder/Constant_output_0" />
			</output>
		</layer>
		<layer id="23" name="Constant_4730093" type="Const" version="opset1">
			<data element_type="i64" shape="" offset="65088" size="8" />
			<rt_info>
				<attribute name="fused_names" version="0" value="Constant_4730093" />
			</rt_info>
			<output>
				<port id="0" precision="I64" />
			</output>
		</layer>
		<layer id="24" name="/model/decoder/Gather" type="Gather" version="opset8">
			<data batch_dims="0" />
			<rt_info>
				<attribute name="fused_names" version="0" value="/model/decoder/Constant, /model/decoder/Gather, Constant_4730093" />
			</rt_info>
			<input>
				<port id="0" precision="I64">
					<dim>2</dim>
				</port>
				<port id="1" precision="I64" />
				<port id="2" precision="I64" />
			</input>
			<output>
				<port id="3" precision="I64" names="/model/decoder/Gather_output_0" />
			</output>
		</layer>
		<layer id="25" name="Constant_4730358" type="Const" version="opset1">
			<data element_type="i64" shape="1" offset="65088" size="8" />
			<rt_info>
				<attribute name="fused_names" version="0" value="Constant_4730358" />
			</rt_info>
			<output>
				<port id="0" precision="I64">
					<dim>1</dim>
				</port>
			</output>
		</layer>
		<layer id="26" name="/model/decoder/embed_positions/Unsqueeze" type="Unsqueeze" version="opset1">
			<rt_info>
				<attribute name="fused_names" version="0" value="/model/decoder/embed_positions/Unsqueeze, Constant_4730358" />
			</rt_info>
			<input>
				<port id="0" precision="I64" />
				<port id="1" precision="I64">
					<dim>1</dim>
				</port>
			</input>
			<output>
				<port id="2" precision="I64" names="/model/decoder/embed_positions/Unsqueeze_output_0">
					<dim>1</dim>
				</port>
			</output>
		</layer>
		<layer id="27" name="/model/decoder/embed_positions/Constant_2" type="Const" version="opset1">
			<data element_type="i64" shape="1" offset="71636" size="8" />
			<rt_info>
				<attribute name="fused_names" version="0" value="/model/decoder/embed_positions/Constant_2" />
			</rt_info>
			<output>
				<port id="0" precision="I64" names="/model/decoder/embed_positions/Constant_2_output_0">
					<dim>1</dim>
				</port>
			</output>
		</layer>
		<layer id="28" name="/model/decoder/embed_positions/Concat" type="Concat" version="opset1">
			<data axis="0" />
			<rt_info>
				<attribute name="fused_names" version="0" value="/model/decoder/embed_positions/Concat, /model/decoder/embed_positions/Constant_2" />
			</rt_info>
			<input>
				<port id="0" precision="I64">
					<dim>1</dim>
				</port>
				<port id="1" precision="I64">
					<dim>1</dim>
				</port>
			</input>
			<output>
				<port id="2" precision="I64" names="/model/decoder/embed_positions/Concat_output_0">
					<dim>2</dim>
				</port>
			</output>
		</layer>
		<layer id="29" name="Constant_4739365" type="Const" version="opset1">
			<data element_type="i64" shape="1" offset="71636" size="8" />
			<rt_info>
				<attribute name="fused_names" version="0" value="/model/decoder/embed_positions/Reshape" />
			</rt_info>
			<output>
				<port id="0" precision="I64">
					<dim>1</dim>
				</port>
			</output>
		</layer>
		<layer id="30" name="/model/decoder/embed_positions/Reshape" type="Reshape" version="opset1">
			<data special_zero="true" />
			<rt_info>
				<attribute name="fused_names" version="0" value="/model/decoder/embed_positions/Reshape" />
			</rt_info>
			<input>
				<port id="0" precision="I64">
					<dim>2</dim>
				</port>
				<port id="1" precision="I64">
					<dim>1</dim>
				</port>
			</input>
			<output>
				<port id="2" precision="I64" names="/model/decoder/embed_positions/Reshape_output_0">
					<dim>2</dim>
				</port>
			</output>
		</layer>
		<layer id="31" name="Constant_4730368" type="Const" version="opset1">
			<data element_type="i64" shape="" offset="71628" size="8" />
			<rt_info>
				<attribute name="fused_names" version="0" value="Constant_4730368" />
			</rt_info>
			<output>
				<port id="0" precision="I64" />
			</output>
		</layer>
		<layer id="32" name="/model/decoder/embed_positions/Shape" type="ShapeOf" version="opset3">
			<data output_type="i64" />
			<rt_info>
				<attribute name="fused_names" version="0" value="/model/decoder/embed_positions/Shape" />
			</rt_info>
			<input>
				<port id="0" precision="I64">
					<dim>2</dim>
				</port>
			</input>
			<output>
				<port id="1" precision="I64" names="/model/decoder/embed_positions/Shape_output_0">
					<dim>1</dim>
				</port>
			</output>
		</layer>
		<layer id="33" name="/model/decoder/embed_positions/ConstantOfShape" type="Broadcast" version="opset3">
			<data mode="numpy" />
			<rt_info>
				<attribute name="fused_names" version="0" value="/model/decoder/embed_positions/ConstantOfShape, Constant_4730368" />
			</rt_info>
			<input>
				<port id="0" precision="I64" />
				<port id="1" precision="I64">
					<dim>1</dim>
				</port>
			</input>
			<output>
				<port id="2" precision="I64" names="/model/decoder/embed_positions/ConstantOfShape_output_0">
					<dim>2</dim>
				</port>
			</output>
		</layer>
		<layer id="34" name="/model/decoder/embed_positions/Constant_4" type="Const" version="opset1">
			<data element_type="i64" shape="" offset="71636" size="8" />
			<rt_info>
				<attribute name="fused_names" version="0" value="/model/decoder/embed_positions/Constant_4" />
			</rt_info>
			<output>
				<port id="0" precision="I64" names="/model/decoder/embed_positions/Constant_4_output_0" />
			</output>
		</layer>
		<layer id="35" name="/model/decoder/embed_positions/Mul" type="Multiply" version="opset1">
			<data auto_broadcast="numpy" />
			<rt_info>
				<attribute name="fused_names" version="0" value="/model/decoder/embed_positions/Constant_4, /model/decoder/embed_positions/Mul" />
			</rt_info>
			<input>
				<port id="0" precision="I64">
					<dim>2</dim>
				</port>
				<port id="1" precision="I64" />
			</input>
			<output>
				<port id="2" precision="I64" names="/model/decoder/embed_positions/Mul_output_0">
					<dim>2</dim>
				</port>
			</output>
		</layer>
		<layer id="36" name="/model/decoder/embed_positions/Equal" type="Equal" version="opset1">
			<data auto_broadcast="numpy" />
			<rt_info>
				<attribute name="fused_names" version="0" value="/model/decoder/embed_positions/Equal" />
			</rt_info>
			<input>
				<port id="0" precision="I64">
					<dim>2</dim>
				</port>
				<port id="1" precision="I64">
					<dim>2</dim>
				</port>
			</input>
			<output>
				<port id="2" precision="BOOL" names="/model/decoder/embed_positions/Equal_output_0">
					<dim>2</dim>
				</port>
			</output>
		</layer>
		<layer id="37" name="/model/decoder/embed_positions/Where" type="Select" version="opset1">
			<data auto_broadcast="numpy" />
			<rt_info>
				<attribute name="fused_names" version="0" value="/model/decoder/embed_positions/Where" />
			</rt_info>
			<input>
				<port id="0" precision="BOOL">
					<dim>2</dim>
				</port>
				<port id="1" precision="I64">
					<dim>2</dim>
				</port>
				<port id="2" precision="I64">
					<dim>2</dim>
				</port>
			</input>
			<output>
				<port id="3" precision="I64" names="/model/decoder/embed_positions/Where_output_0">
					<dim>2</dim>
				</port>
			</output>
		</layer>
		<layer id="38" name="/model/decoder/embed_positions/Expand" type="Broadcast" version="opset3">
			<data mode="bidirectional" />
			<rt_info>
				<attribute name="fused_names" version="0" value="/model/decoder/embed_positions/Expand" />
			</rt_info>
			<input>
				<port id="0" precision="I64">
					<dim>-1</dim>
				</port>
				<port id="1" precision="I64">
					<dim>2</dim>
				</port>
			</input>
			<output>
				<port id="2" precision="I64" names="/model/decoder/embed_positions/Expand_output_0">
					<dim>-1</dim>
					<dim>-1</dim>
				</port>
			</output>
		</layer>
		<layer id="39" name="/model/decoder/embed_positions/Constant_5" type="Const" version="opset1">
			<data element_type="i64" shape="" offset="71644" size="8" />
			<rt_info>
				<attribute name="fused_names" version="0" value="/model/decoder/embed_positions/Constant_5" />
			</rt_info>
			<output>
				<port id="0" precision="I64" names="/model/decoder/embed_positions/Constant_5_output_0" />
			</output>
		</layer>
		<layer id="40" name="/model/decoder/embed_positions/Add" type="Add" version="opset1">
			<data auto_broadcast="numpy" />
			<rt_info>
				<attribute name="fused_names" version="0" value="/model/decoder/embed_positions/Add" />
			</rt_info>
			<input>
				<port id="0" precision="I64">
					<dim>-1</dim>
					<dim>-1</dim>
				</port>
				<port id="1" precision="I64" />
			</input>
			<output>
				<port id="2" precision="I64" names="/model/decoder/embed_positions/Add_output_0">
					<dim>-1</dim>
					<dim>-1</dim>
				</port>
			</output>
		</layer>
		<layer id="41" name="Constant_4730421" type="Const" version="opset1">
			<data element_type="i64" shape="" offset="65088" size="8" />
			<rt_info>
				<attribute name="fused_names" version="0" value="Constant_4730421" />
			</rt_info>
			<output>
				<port id="0" precision="I64" />
			</output>
		</layer>
		<layer id="42" name="/model/decoder/embed_positions/Gather" type="Gather" version="opset8">
			<data batch_dims="0" />
			<rt_info>
				<attribute name="fused_names" version="0" value="/model/decoder/embed_positions/Gather" />
			</rt_info>
			<input>
				<port id="0" precision="FP32">
					<dim>102</dim>
					<dim>16</dim>
				</port>
				<port id="1" precision="I64">
					<dim>-1</dim>
					<dim>-1</dim>
				</port>
				<port id="2" precision="I64" />
			</input>
			<output>
				<port id="3" precision="FP32" names="/model/decoder/embed_positions/Gather_output_0">
					<dim>-1</dim>
					<dim>-1</dim>
					<dim>16</dim>
				</port>
			</output>
		</layer>
		<layer id="43" name="/model/decoder/Cast_6" type="Convert" version="opset1">
			<data destination_type="f32" />
			<rt_info>
				<attribute name="fused_names" version="0" value="/model/decoder/Cast_6" />
			</rt_info>
			<input>
				<port id="0" precision="FP32">
					<dim>-1</dim>
					<dim>-1</dim>
					<dim>16</dim>
				</port>
			</input>
			<output>
				<port id="1" precision="FP32" names="/model/decoder/Cast_6_output_0">
					<dim>-1</dim>
					<dim>-1</dim>
					<dim>16</dim>
				</port>
			</output>
		</layer>
		<layer id="44" name="/model/decoder/Add_1" type="Add" version="opset1">
			<data auto_broadcast="numpy" />
			<rt_info>
				<attribute name="fused_names" version="0" value="/model/decoder/Add_1" />
			</rt_info>
			<input>
				<port id="0" precision="FP32">
					<dim>-1</dim>
					<dim>-1</dim>
					<dim>16</dim>
				</port>
				<port id="1" precision="FP32">
					<dim>-1</dim>
					<dim>-1</dim>
					<dim>16</dim>
				</port>
			</input>
			<output>
				<port id="2" precision="FP32" names="/model/decoder/Add_1_output_0">
					<dim>-1</dim>
					<dim>-1</dim>
					<dim>16</dim>
				</port>
			</output>
		</layer>
		<layer id="45" name="Constant_4730425" type="Const" version="opset1">
			<data element_type="i64" shape="1" offset="71636" size="8" />
			<rt_info>
				<attribute name="fused_names" version="0" value="Constant_4730425" />
			</rt_info>
			<output>
				<port id="0" precision="I64">
					<dim>1</dim>
				</port>
			</output>
		</layer>
		<layer id="46" name="/model/decoder/layernorm_embedding/ReduceMean" type="ReduceMean" version="opset1">
			<data keep_dims="true" />
			<rt_info>
				<attribute name="fused_names" version="0" value="/model/decoder/layernorm_embedding/ReduceMean" />
			</rt_info>
			<input>
				<port id="0" precision="FP32">
					<dim>-1</dim>
					<dim>-1</dim>
					<dim>16</dim>
				</port>
				<port id="1" precision="I64">
					<dim>1</dim>
				</port>
			</input>
			<output>
				<port id="2" precision="FP32" names="/model/decoder/layernorm_embedding/ReduceMean_output_0">
					<dim>-1</dim>
					<dim>-1</dim>
					<dim>1</dim>
				</port>
			</output>
		</layer>
		<layer id="47" name="/model/decoder/layernorm_embedding/Sub" type="Subtract" version="opset1">
			<data auto_broadcast="numpy" />
			<rt_info>
				<attribute name="fused_names" version="0" value="/model/decoder/layernorm_embedding/Sub" />
			</rt_info>
			<input>
				<port id="0" precision="FP32">
					<dim>-1</dim>
					<dim>-1</dim>
					<dim>16</dim>
				</port>
				<port id="1" precision="FP32">
					<dim>-1</dim>
					<dim>-1</dim>
					<dim>1</dim>
				</port>
			</input>
			<output>
				<port id="2" precision="FP32" names="/model/decoder/layernorm_embedding/Sub_output_0">
					<dim>-1</dim>
					<dim>-1</dim>
					<dim>16</dim>
				</port>
			</output>
		</layer>
		<layer id="48" name="/model/decoder/layernorm_embedding/Constant" type="Const" version="opset1">
			<data element_type="f32" shape="" offset="71652" size="4" />
			<rt_info>
				<attribute name="fused_names" version="0" value="/model/decoder/layernorm_embedding/Constant" />
			</rt_info>
			<output>
				<port id="0" precision="FP32" names="/model/decoder/layernorm_embedding/Constant_output_0" />
			</output>
		</layer>
		<layer id="49" name="/model/decoder/layernorm_embedding/Pow" type="Power" version="opset1">
			<data auto_broadcast="numpy" />
			<rt_info>
				<attribute name="fused_names" version="0" value="/model/decoder/layernorm_embedding/Pow" />
			</rt_info>
			<input>
				<port id="0" precision="FP32">
					<dim>-1</dim>
					<dim>-1</dim>
					<dim>16</dim>
				</port>
				<port id="1" precision="FP32" />
			</input>
			<output>
				<port id="2" precision="FP32" names="/model/decoder/layernorm_embedding/Pow_output_0">
					<dim>-1</dim>
					<dim>-1</dim>
					<dim>16</dim>
				</port>
			</output>
		</layer>
		<layer id="50" name="Constant_4730430" type="Const" version="opset1">
			<data element_type="i64" shape="1" offset="71636" size="8" />
			<rt_info>
				<attribute name="fused_names" version="0" value="Constant_4730430" />
			</rt_info>
			<output>
				<port id="0" precision="I64">
					<dim>1</dim>
				</port>
			</output>
		</layer>
		<layer id="51" name="/model/decoder/layernorm_embedding/ReduceMean_1" type="ReduceMean" version="opset1">
			<data keep_dims="true" />
			<rt_info>
				<attribute name="fused_names" version="0" value="/model/decoder/layernorm_embedding/ReduceMean_1" />
			</rt_info>
			<input>
				<port id="0" precision="FP32">
					<dim>-1</dim>
					<dim>-1</dim>
					<dim>16</dim>
				</port>
				<port id="1" precision="I64">
					<dim>1</dim>
				</port>
			</input>
			<output>
				<port id="2" precision="FP32" names="/model/decoder/layernorm_embedding/ReduceMean_1_output_0">
					<dim>-1</dim>
					<dim>-1</dim>
					<dim>1</dim>
				</port>
			</output>
		</layer>
		<layer id="52" name="/model/decoder/layernorm_embedding/Constant_1" type="Const" version="opset1">
			<data element_type="f32" shape="" offset="71656" size="4" />
			<rt_info>
				<attribute name="fused_names" version="0" value="/model/decoder/layernorm_embedding/Constant_1" />
			</rt_info>
			<output>
				<port id="0" precision="FP32" names="/model/decoder/layernorm_embedding/Constant_1_output_0" />
			</output>
		</layer>
		<layer id="53" name="/model/decoder/layernorm_embedding/Add" type="Add" version="opset1">
			<data auto_broadcast="numpy" />
			<rt_info>
				<attribute name="fused_names" version="0" value="/model/decoder/layernorm_embedding/Add" />
			</rt_info>
			<input>
				<port id="0" precision="FP32">
					<dim>-1</dim>
					<dim>-1</dim>
					<dim>1</dim>
				</port>
				<port id="1" precision="FP32" />
			</input>
			<output>
				<port id="2" precision="FP32" names="/model/decoder/layernorm_embedding/Add_output_0">
					<dim>-1</dim>
					<dim>-1</dim>
					<dim>1</dim>
				</port>
			</output>
		</layer>
		<layer id="54" name="/model/decoder/layernorm_embedding/Sqrt" type="Sqrt" version="opset1">
			<rt_info>
				<attribute name="fused_names" version="0" value="/model/decoder/layernorm_embedding/Sqrt" />
			</rt_info>
			<input>
				<port id="0" precision="FP32">
					<dim>-1</dim>
					<dim>-1</dim>
					<dim>1</dim>
				</port>
			</input>
			<output>
				<port id="1" precision="FP32" names="/model/decoder/layernorm_embedding/Sqrt_output_0">
					<dim>-1</dim>
					<dim>-1</dim>
					<dim>1</dim>
				</port>
			</output>
		</layer>
		<layer id="55" name="/model/decoder/layernorm_embedding/Div" type="Divide" version="opset1">
			<data auto_broadcast="numpy" m_pythondiv="true" />
			<rt_info>
				<attribute name="fused_names" version="0" value="/model/decoder/layernorm_embedding/Div" />
			</rt_info>
			<input>
				<port id="0" precision="FP32">
					<dim>-1</dim>
					<dim>-1</dim>
					<dim>16</dim>
				</port>
				<port id="1" precision="FP32">
					<dim>-1</dim>
					<dim>-1</dim>
					<dim>1</dim>
				</port>
			</input>
			<output>
				<port id="2" precision="FP32" names="/model/decoder/layernorm_embedding/Div_output_0">
					<dim>-1</dim>
					<dim>-1</dim>
					<dim>16</dim>
				</port>
			</output>
		</layer>
		<layer id="56" name="model.decoder.layers.0.encoder_attn_layer_norm.weight" type="Const" version="opset1">
			<data element_type="f32" shape="16" offset="71660" size="64" />
			<rt_info>
				<attribute name="fused_names" version="0" value="model.decoder.layers.0.encoder_attn_layer_norm.weight" />
			</rt_info>
			<output>
				<port id="0" precision="FP32" names="model.decoder.layernorm_embedding.weight,model.decoder.layers.0.encoder_attn_layer_norm.weight,model.decoder.layers.0.final_layer_norm.weight,model.decoder.layers.0.self_attn_layer_norm.weight,model.decoder.layers.1.encoder_attn_layer_norm.weight,model.decoder.layers.1.final_layer_norm.weight,model.decoder.layers.1.self_attn_layer_norm.weight">
					<dim>16</dim>
				</port>
			</output>
		</layer>
		<layer id="57" name="/model/decoder/layernorm_embedding/Mul" type="Multiply" version="opset1">
			<data auto_broadcast="numpy" />
			<rt_info>
				<attribute name="fused_names" version="0" value="/model/decoder/layernorm_embedding/Mul" />
			</rt_info>
			<input>
				<port id="0" precision="FP32">
					<dim>-1</dim>
					<dim>-1</dim>
					<dim>16</dim>
				</port>
				<port id="1" precision="FP32">
					<dim>16</dim>
				</port>
			</input>
			<output>
				<port id="2" precision="FP32" names="/model/decoder/layernorm_embedding/Mul_output_0">
					<dim>-1</dim>
					<dim>-1</dim>
					<dim>16</dim>
				</port>
			</output>
		</layer>
		<layer id="58" name="/model/decoder/layernorm_embedding/Add_1" type="Add" version="opset1">
			<data auto_broadcast="numpy" />
			<rt_info>
				<attribute name="fused_names" version="0" value="/model/decoder/layernorm_embedding/Add_1" />
			</rt_info>
			<input>
				<port id="0" precision="FP32">
					<dim>-1</dim>
					<dim>-1</dim>
					<dim>16</dim>
				</port>
				<port id="1" precision="FP32">
					<dim>16</dim>
				</port>
			</input>
			<output>
				<port id="2" precision="FP32" names="/model/decoder/layernorm_embedding/Add_1_output_0">
					<dim>-1</dim>
					<dim>-1</dim>
					<dim>16</dim>
				</port>
			</output>
		</layer>
		<layer id="59" name="onnx::MatMul_682" type="Const" version="opset1">
			<data element_type="f32" shape="16, 16" offset="71724" size="1024" />
			<rt_info>
				<attribute name="fused_names" version="0" value="onnx::MatMul_682" />
			</rt_info>
			<output>
				<port id="0" precision="FP32" names="onnx::MatMul_682">
					<dim>16</dim>
					<dim>16</dim>
				</port>
			</output>
		</layer>
		<layer id="60" name="/model/decoder/layers.0/self_attn/q_proj/MatMul" type="MatMul" version="opset1">
			<data transpose_a="false" transpose_b="false" />
			<rt_info>
				<attribute name="fused_names" version="0" value="/model/decoder/layers.0/self_attn/q_proj/MatMul" />
			</rt_info>
			<input>
				<port id="0" precision="FP32">
					<dim>-1</dim>
					<dim>-1</dim>
					<dim>16</dim>
				</port>
				<port id="1" precision="FP32">
					<dim>16</dim>
					<dim>16</dim>
				</port>
			</input>
			<output>
				<port id="2" precision="FP32" names="/model/decoder/layers.0/self_attn/q_proj/MatMul_output_0">
					<dim>-1</dim>
					<dim>-1</dim>
					<dim>16</dim>
				</port>
			</output>
		</layer>
		<layer id="61" name="/model/decoder/layers.0/self_attn/q_proj/Add" type="Add" version="opset1">
			<data auto_broadcast="numpy" />
			<rt_info>
				<attribute name="fused_names" version="0" value="/model/decoder/layers.0/self_attn/q_proj/Add" />
			</rt_info>
			<input>
				<port id="0" precision="FP32">
					<dim>16</dim>
				</port>
				<port id="1" precision="FP32">
					<dim>-1</dim>
					<dim>-1</dim>
					<dim>16</dim>
				</port>
			</input>
			<output>
				<port id="2" precision="FP32" names="/model/decoder/layers.0/self_attn/q_proj/Add_output_0">
					<dim>-1</dim>
					<dim>-1</dim>
					<dim>16</dim>
				</port>
			</output>
		</layer>
		<layer id="62" name="/model/decoder/layers.0/self_attn/Constant_2" type="Const" version="opset1">
			<data element_type="f32" shape="" offset="72748" size="4" />
			<rt_info>
				<attribute name="fused_names" version="0" value="/model/decoder/layers.0/self_attn/Constant_2" />
			</rt_info>
			<output>
				<port id="0" precision="FP32" names="/model/decoder/layers.0/self_attn/Constant_2_output_0" />
			</output>
		</layer>
		<layer id="63" name="/model/decoder/layers.0/self_attn/Mul" type="Multiply" version="opset1">
			<data auto_broadcast="numpy" />
			<rt_info>
				<attribute name="fused_names" version="0" value="/model/decoder/layers.0/self_attn/Mul" />
			</rt_info>
			<input>
				<port id="0" precision="FP32">
					<dim>-1</dim>
					<dim>-1</dim>
					<dim>16</dim>
				</port>
				<port id="1" precision="FP32" />
			</input>
			<output>
				<port id="2" precision="FP32" names="/model/decoder/layers.0/self_attn/Mul_output_0">
					<dim>-1</dim>
					<dim>-1</dim>
					<dim>16</dim>
				</port>
			</output>
		</layer>
		<layer id="64" name="/model/decoder/layers.0/self_attn/Shape" type="ShapeOf" version="opset3">
			<data output_type="i64" />
			<rt_info>
				<attribute name="fused_names" version="0" value="/model/decoder/layers.0/self_attn/Shape" />
			</rt_info>
			<input>
				<port id="0" precision="FP32">
					<dim>-1</dim>
					<dim>-1</dim>
					<dim>16</dim>
				</port>
			</input>
			<output>
				<port id="1" precision="I64" names="/model/decoder/layers.0/self_attn/Shape_output_0">
					<dim>3</dim>
				</port>
			</output>
		</layer>
		<layer id="65" name="/model/decoder/layers.0/self_attn/Constant" type="Const" version="opset1">
			<data element_type="i64" shape="" offset="65088" size="8" />
			<rt_info>
				<attribute name="fused_names" version="0" value="/model/decoder/layers.0/self_attn/Constant" />
			</rt_info>
			<output>
				<port id="0" precision="I64" names="/model/decoder/layers.0/self_attn/Constant_output_0" />
			</output>
		</layer>
		<layer id="66" name="Constant_4730440" type="Const" version="opset1">
			<data element_type="i64" shape="" offset="65088" size="8" />
			<rt_info>
				<attribute name="fused_names" version="0" value="Constant_4730440" />
			</rt_info>
			<output>
				<port id="0" precision="I64" />
			</output>
		</layer>
		<layer id="67" name="/model/decoder/layers.0/self_attn/Gather" type="Gather" version="opset8">
			<data batch_dims="0" />
			<rt_info>
				<attribute name="fused_names" version="0" value="/model/decoder/layers.0/self_attn/Constant, /model/decoder/layers.0/self_attn/Gather, Constant_4730440" />
			</rt_info>
			<input>
				<port id="0" precision="I64">
					<dim>3</dim>
				</port>
				<port id="1" precision="I64" />
				<port id="2" precision="I64" />
			</input>
			<output>
				<port id="3" precision="I64" names="/model/decoder/layers.0/self_attn/Gather_output_0" />
			</output>
		</layer>
		<layer id="68" name="Constant_4730486" type="Const" version="opset1">
			<data element_type="i64" shape="1" offset="65088" size="8" />
			<rt_info>
				<attribute name="fused_names" version="0" value="Constant_4730486" />
			</rt_info>
			<output>
				<port id="0" precision="I64">
					<dim>1</dim>
				</port>
			</output>
		</layer>
		<layer id="69" name="/model/decoder/layers.0/self_attn/Unsqueeze_2" type="Unsqueeze" version="opset1">
			<rt_info>
				<attribute name="fused_names" version="0" value="/model/decoder/layers.0/self_attn/Unsqueeze_2, Constant_4730486" />
			</rt_info>
			<input>
				<port id="0" precision="I64" />
				<port id="1" precision="I64">
					<dim>1</dim>
				</port>
			</input>
			<output>
				<port id="2" precision="I64" names="/model/decoder/layers.0/self_attn/Unsqueeze_2_output_0">
					<dim>1</dim>
				</port>
			</output>
		</layer>
		<layer id="70" name="/model/decoder/layers.0/self_attn/Shape_1" type="ShapeOf" version="opset3">
			<data output_type="i64" />
			<rt_info>
				<attribute name="fused_names" version="0" value="/model/decoder/layers.0/self_attn/Shape_1" />
			</rt_info>
			<input>
				<port id="0" precision="FP32">
					<dim>-1</dim>
					<dim>-1</dim>
					<dim>16</dim>
				</port>
			</input>
			<output>
				<port id="1" precision="I64" names="/model/decoder/layers.0/self_attn/Shape_1_output_0">
					<dim>3</dim>
				</port>
			</output>
		</layer>
		<layer id="71" name="/model/decoder/layers.0/self_attn/Constant_1" type="Const" version="opset1">
			<data element_type="i64" shape="" offset="71628" size="8" />
			<rt_info>
				<attribute name="fused_names" version="0" value="/model/decoder/layers.0/self_attn/Constant_1" />
			</rt_info>
			<output>
				<port id="0" precision="I64" names="/model/decoder/layers.0/self_attn/Constant_1_output_0" />
			</output>
		</layer>
		<layer id="72" name="Constant_4730444" type="Const" version="opset1">
			<data element_type="i64" shape="" offset="65088" size="8" />
			<rt_info>
				<attribute name="fused_names" version="0" value="Constant_4730444" />
			</rt_info>
			<output>
				<port id="0" precision="I64" />
			</output>
		</layer>
		<layer id="73" name="/model/decoder/layers.0/self_attn/Gather_1" type="Gather" version="opset8">
			<data batch_dims="0" />
			<rt_info>
				<attribute name="fused_names" version="0" value="/model/decoder/layers.0/self_attn/Constant_1, /model/decoder/layers.0/self_attn/Gather_1, Constant_4730444" />
			</rt_info>
			<input>
				<port id="0" precision="I64">
					<dim>3</dim>
				</port>
				<port id="1" precision="I64" />
				<port id="2" precision="I64" />
			</input>
			<output>
				<port id="3" precision="I64" names="/model/decoder/layers.0/self_attn/Gather_1_output_0" />
			</output>
		</layer>
		<layer id="74" name="Constant_4730488" type="Const" version="opset1">
			<data element_type="i64" shape="1" offset="65088" size="8" />
			<rt_info>
				<attribute name="fused_names" version="0" value="Constant_4730488" />
			</rt_info>
			<output>
				<port id="0" precision="I64">
					<dim>1</dim>
				</port>
			</output>
		</layer>
		<layer id="75" name="/model/decoder/layers.0/self_attn/Unsqueeze_3" type="Unsqueeze" version="opset1">
			<rt_info>
				<attribute name="fused_names" version="0" value="/model/decoder/layers.0/self_attn/Unsqueeze_3, Constant_4730488" />
			</rt_info>
			<input>
				<port id="0" precision="I64" />
				<port id="1" precision="I64">
					<dim>1</dim>
				</port>
			</input>
			<output>
				<port id="2" precision="I64" names="/model/decoder/layers.0/self_attn/Unsqueeze_3_output_0">
					<dim>1</dim>
				</port>
			</output>
		</layer>
		<layer id="76" name="/model/decoder/layers.0/self_attn/Constant_10" type="Const" version="opset1">
			<data element_type="i64" shape="1" offset="72752" size="8" />
			<rt_info>
				<attribute name="fused_names" version="0" value="/model/decoder/layers.0/self_attn/Constant_10" />
			</rt_info>
			<output>
				<port id="0" precision="I64" names="/model/decoder/layers.0/self_attn/Constant_10_output_0">
					<dim>1</dim>
				</port>
			</output>
		</layer>
		<layer id="77" name="/model/decoder/layers.0/self_attn/Constant_11" type="Const" version="opset1">
			<data element_type="i64" shape="1" offset="72752" size="8" />
			<rt_info>
				<attribute name="fused_names" version="0" value="/model/decoder/layers.0/self_attn/Constant_11" />
			</rt_info>
			<output>
				<port id="0" precision="I64" names="/model/decoder/layers.0/self_attn/Constant_11_output_0">
					<dim>1</dim>
				</port>
			</output>
		</layer>
		<layer id="78" name="/model/decoder/layers.0/self_attn/Concat_2" type="Concat" version="opset1">
			<data axis="0" />
			<rt_info>
				<attribute name="fused_names" version="0" value="/model/decoder/layers.0/self_attn/Concat_2, /model/decoder/layers.0/self_attn/Constant_10, /model/decoder/layers.0/self_attn/Constant_11" />
			</rt_info>
			<input>
				<port id="0" precision="I64">
					<dim>1</dim>
				</port>
				<port id="1" precision="I64">
					<dim>1</dim>
				</port>
				<port id="2" precision="I64">
					<dim>1</dim>
				</port>
				<port id="3" precision="I64">
					<dim>1</dim>
				</port>
			</input>
			<output>
				<port id="4" precision="I64" names="/model/decoder/layers.0/self_attn/Concat_2_output_0">
					<dim>4</dim>
				</port>
			</output>
		</layer>
		<layer id="79" name="/model/decoder/layers.0/self_attn/Reshape_2" type="Reshape" version="opset1">
			<data special_zero="true" />
			<rt_info>
				<attribute name="fused_names" version="0" value="/model/decoder/layers.0/self_attn/Reshape_2" />
			</rt_info>
			<input>
				<port id="0" precision="FP32">
					<dim>-1</dim>
					<dim>-1</dim>
					<dim>16</dim>
				</port>
				<port id="1" precision="I64">
					<dim>4</dim>
				</port>
			</input>
			<output>
				<port id="2" precision="FP32" names="/model/decoder/layers.0/self_attn/Reshape_2_output_0">
					<dim>-1</dim>
					<dim>-1</dim>
					<dim>4</dim>
					<dim>4</dim>
				</port>
			</output>
		</layer>
		<layer id="80" name="Constant_4730504" type="Const" version="opset1">
			<data element_type="i64" shape="4" offset="72760" size="32" />
			<rt_info>
				<attribute name="fused_names" version="0" value="Constant_4730504" />
			</rt_info>
			<output>
				<port id="0" precision="I64">
					<dim>4</dim>
				</port>
			</output>
		</layer>
		<layer id="81" name="/model/decoder/layers.0/self_attn/Transpose_2" type="Transpose" version="opset1">
			<rt_info>
				<attribute name="fused_names" version="0" value="/model/decoder/layers.0/self_attn/Transpose_2" />
			</rt_info>
			<input>
				<port id="0" precision="FP32">
					<dim>-1</dim>
					<dim>-1</dim>
					<dim>4</dim>
					<dim>4</dim>
				</port>
				<port id="1" precision="I64">
					<dim>4</dim>
				</port>
			</input>
			<output>
				<port id="2" precision="FP32" names="/model/decoder/layers.0/self_attn/Transpose_2_output_0">
					<dim>-1</dim>
					<dim>4</dim>
					<dim>-1</dim>
					<dim>4</dim>
				</port>
			</output>
		</layer>
		<layer id="82" name="/model/decoder/layers.0/self_attn/Constant_9" type="Const" version="opset1">
			<data element_type="i64" shape="" offset="72752" size="8" />
			<rt_info>
				<attribute name="fused_names" version="0" value="/model/decoder/layers.0/self_attn/Constant_9" />
			</rt_info>
			<output>
				<port id="0" precision="I64" names="/model/decoder/layers.0/self_attn/Constant_9_output_0" />
			</output>
		</layer>
		<layer id="83" name="/model/decoder/layers.0/self_attn/Mul_1" type="Multiply" version="opset1">
			<data auto_broadcast="numpy" />
			<rt_info>
				<attribute name="fused_names" version="0" value="/model/decoder/layers.0/self_attn/Constant_9, /model/decoder/layers.0/self_attn/Mul_1" />
			</rt_info>
			<input>
				<port id="0" precision="I64" />
				<port id="1" precision="I64" />
			</input>
			<output>
				<port id="2" precision="I64" names="/model/decoder/layers.0/self_attn/Mul_1_output_0" />
			</output>
		</layer>
		<layer id="84" name="Constant_4730506" type="Const" version="opset1">
			<data element_type="i64" shape="1" offset="65088" size="8" />
			<rt_info>
				<attribute name="fused_names" version="0" value="Constant_4730506" />
			</rt_info>
			<output>
				<port id="0" precision="I64">
					<dim>1</dim>
				</port>
			</output>
		</layer>
		<layer id="85" name="/model/decoder/layers.0/self_attn/Unsqueeze_4" type="Unsqueeze" version="opset1">
			<rt_info>
				<attribute name="fused_names" version="0" value="/model/decoder/layers.0/self_attn/Unsqueeze_4, Constant_4730506" />
			</rt_info>
			<input>
				<port id="0" precision="I64" />
				<port id="1" precision="I64">
					<dim>1</dim>
				</port>
			</input>
			<output>
				<port id="2" precision="I64" names="/model/decoder/layers.0/self_attn/Unsqueeze_4_output_0">
					<dim>1</dim>
				</port>
			</output>
		</layer>
		<layer id="86" name="/model/decoder/layers.0/self_attn/Constant_12" type="Const" version="opset1">
			<data element_type="i64" shape="1" offset="71636" size="8" />
			<rt_info>
				<attribute name="fused_names" version="0" value="/model/decoder/layers.0/self_attn/Constant_12" />
			</rt_info>
			<output>
				<port id="0" precision="I64" names="/model/decoder/layers.0/self_attn/Constant_12_output_0">
					<dim>1</dim>
				</port>
			</output>
		</layer>
		<layer id="87" name="/model/decoder/layers.0/self_attn/Constant_13" type="Const" version="opset1">
			<data element_type="i64" shape="1" offset="72752" size="8" />
			<rt_info>
				<attribute name="fused_names" version="0" value="/model/decoder/layers.0/self_attn/Constant_13" />
			</rt_info>
			<output>
				<port id="0" precision="I64" names="/model/decoder/layers.0/self_attn/Constant_13_output_0">
					<dim>1</dim>
				</port>
			</output>
		</layer>
		<layer id="88" name="/model/decoder/layers.0/self_attn/Concat_3" type="Concat" version="opset1">
			<data axis="0" />
			<rt_info>
				<attribute name="fused_names" version="0" value="/model/decoder/layers.0/self_attn/Concat_3, /model/decoder/layers.0/self_attn/Constant_12, /model/decoder/layers.0/self_attn/Constant_13" />
			</rt_info>
			<input>
				<port id="0" precision="I64">
					<dim>1</dim>
				</port>
				<port id="1" precision="I64">
					<dim>1</dim>
				</port>
				<port id="2" precision="I64">
					<dim>1</dim>
				</port>
			</input>
			<output>
				<port id="3" precision="I64" names="/model/decoder/layers.0/self_attn/Concat_3_output_0">
					<dim>3</dim>
				</port>
			</output>
		</layer>
		<layer id="89" name="/model/decoder/layers.0/self_attn/Reshape_3" type="Reshape" version="opset1">
			<data special_zero="true" />
			<rt_info>
				<attribute name="fused_names" version="0" value="/model/decoder/layers.0/self_attn/Reshape_3" />
			</rt_info>
			<input>
				<port id="0" precision="FP32">
					<dim>-1</dim>
					<dim>4</dim>
					<dim>-1</dim>
					<dim>4</dim>
				</port>
				<port id="1" precision="I64">
					<dim>3</dim>
				</port>
			</input>
			<output>
				<port id="2" precision="FP32" names="/model/decoder/layers.0/self_attn/Reshape_3_output_0">
					<dim>-1</dim>
					<dim>-1</dim>
					<dim>4</dim>
				</port>
			</output>
		</layer>
		<layer id="90" name="onnx::MatMul_683" type="Const" version="opset1">
			<data element_type="f32" shape="16, 16" offset="72792" size="1024" />
			<rt_info>
				<attribute name="fused_names" version="0" value="onnx::MatMul_683" />
			</rt_info>
			<output>
				<port id="0" precision="FP32" names="onnx::MatMul_683">
					<dim>16</dim>
					<dim>16</dim>
				</port>
			</output>
		</layer>
		<layer id="91" name="/model/decoder/layers.0/self_attn/k_proj/MatMul" type="MatMul" version="opset1">
			<data transpose_a="false" transpose_b="false" />
			<rt_info>
				<attribute name="fused_names" version="0" value="/model/decoder/layers.0/self_attn/k_proj/MatMul" />
			</rt_info>
			<input>
				<port id="0" precision="FP32">
					<dim>-1</dim>
					<dim>-1</dim>
					<dim>16</dim>
				</port>
				<port id="1" precision="FP32">
					<dim>16</dim>
					<dim>16</dim>
				</port>
			</input>
			<output>
				<port id="2" precision="FP32" names="/model/decoder/layers.0/self_attn/k_proj/MatMul_output_0">
					<dim>-1</dim>
					<dim>-1</dim>
					<dim>16</dim>
				</port>
			</output>
		</layer>
		<layer id="92" name="/model/decoder/layers.0/self_attn/k_proj/Add" type="Add" version="opset1">
			<data auto_broadcast="numpy" />
			<rt_info>
				<attribute name="fused_names" version="0" value="/model/decoder/layers.0/self_attn/k_proj/Add" />
			</rt_info>
			<input>
				<port id="0" precision="FP32">
					<dim>16</dim>
				</port>
				<port id="1" precision="FP32">
					<dim>-1</dim>
					<dim>-1</dim>
					<dim>16</dim>
				</port>
			</input>
			<output>
				<port id="2" precision="FP32" names="/model/decoder/layers.0/self_attn/k_proj/Add_output_0">
					<dim>-1</dim>
					<dim>-1</dim>
					<dim>16</dim>
				</port>
			</output>
		</layer>
		<layer id="93" name="Constant_4730452" type="Const" version="opset1">
			<data element_type="i64" shape="1" offset="65088" size="8" />
			<rt_info>
				<attribute name="fused_names" version="0" value="Constant_4730452" />
			</rt_info>
			<output>
				<port id="0" precision="I64">
					<dim>1</dim>
				</port>
			</output>
		</layer>
		<layer id="94" name="/model/decoder/layers.0/self_attn/Unsqueeze" type="Unsqueeze" version="opset1">
			<rt_info>
				<attribute name="fused_names" version="0" value="/model/decoder/layers.0/self_attn/Unsqueeze, Constant_4730452" />
			</rt_info>
			<input>
				<port id="0" precision="I64" />
				<port id="1" precision="I64">
					<dim>1</dim>
				</port>
			</input>
			<output>
				<port id="2" precision="I64" names="/model/decoder/layers.0/self_attn/Unsqueeze_output_0">
					<dim>1</dim>
				</port>
			</output>
		</layer>
		<layer id="95" name="/model/decoder/layers.0/self_attn/Constant_3" type="Const" version="opset1">
			<data element_type="i64" shape="1" offset="71636" size="8" />
			<rt_info>
				<attribute name="fused_names" version="0" value="/model/decoder/layers.0/self_attn/Constant_3" />
			</rt_info>
			<output>
				<port id="0" precision="I64" names="/model/decoder/layers.0/self_attn/Constant_3_output_0">
					<dim>1</dim>
				</port>
			</output>
		</layer>
		<layer id="96" name="/model/decoder/layers.0/self_attn/Constant_4" type="Const" version="opset1">
			<data element_type="i64" shape="1" offset="72752" size="8" />
			<rt_info>
				<attribute name="fused_names" version="0" value="/model/decoder/layers.0/self_attn/Constant_4" />
			</rt_info>
			<output>
				<port id="0" precision="I64" names="/model/decoder/layers.0/self_attn/Constant_4_output_0">
					<dim>1</dim>
				</port>
			</output>
		</layer>
		<layer id="97" name="/model/decoder/layers.0/self_attn/Constant_5" type="Const" version="opset1">
			<data element_type="i64" shape="1" offset="72752" size="8" />
			<rt_info>
				<attribute name="fused_names" version="0" value="/model/decoder/layers.0/self_attn/Constant_5" />
			</rt_info>
			<output>
				<port id="0" precision="I64" names="/model/decoder/layers.0/self_attn/Constant_5_output_0">
					<dim>1</dim>
				</port>
			</output>
		</layer>
		<layer id="98" name="/model/decoder/layers.0/self_attn/Concat" type="Concat" version="opset1">
			<data axis="0" />
			<rt_info>
				<attribute name="fused_names" version="0" value="/model/decoder/layers.0/self_attn/Concat, /model/decoder/layers.0/self_attn/Constant_3, /model/decoder/layers.0/self_attn/Constant_4, /model/decoder/layers.0/self_attn/Constant_5" />
			</rt_info>
			<input>
				<port id="0" precision="I64">
					<dim>1</dim>
				</port>
				<port id="1" precision="I64">
					<dim>1</dim>
				</port>
				<port id="2" precision="I64">
					<dim>1</dim>
				</port>
				<port id="3" precision="I64">
					<dim>1</dim>
				</port>
			</input>
			<output>
				<port id="4" precision="I64" names="/model/decoder/layers.0/self_attn/Concat_output_0">
					<dim>4</dim>
				</port>
			</output>
		</layer>
		<layer id="99" name="/model/decoder/layers.0/self_attn/Reshape" type="Reshape" version="opset1">
			<data special_zero="true" />
			<rt_info>
				<attribute name="fused_names" version="0" value="/model/decoder/layers.0/self_attn/Reshape" />
			</rt_info>
			<input>
				<port id="0" precision="FP32">
					<dim>-1</dim>
					<dim>-1</dim>
					<dim>16</dim>
				</port>
				<port id="1" precision="I64">
					<dim>4</dim>
				</port>
			</input>
			<output>
				<port id="2" precision="FP32" names="/model/decoder/layers.0/self_attn/Reshape_output_0">
					<dim>-1</dim>
					<dim>-1</dim>
					<dim>4</dim>
					<dim>4</dim>
				</port>
			</output>
		</layer>
		<layer id="100" name="Constant_4730471" type="Const" version="opset1">
			<data element_type="i64" shape="4" offset="72760" size="32" />
			<rt_info>
				<attribute name="fused_names" version="0" value="Constant_4730471" />
			</rt_info>
			<output>
				<port id="0" precision="I64">
					<dim>4</dim>
				</port>
			</output>
		</layer>
		<layer id="101" name="present.0.decoder.key" type="Transpose" version="opset1">
			<rt_info>
				<attribute name="fused_names" version="0" value="present.0.decoder.key" />
			</rt_info>
			<input>
				<port id="0" precision="FP32">
					<dim>-1</dim>
					<dim>-1</dim>
					<dim>4</dim>
					<dim>4</dim>
				</port>
				<port id="1" precision="I64">
					<dim>4</dim>
				</port>
			</input>
			<output>
				<port id="2" precision="FP32" names="present.0.decoder.key">
					<dim>-1</dim>
					<dim>4</dim>
					<dim>-1</dim>
					<dim>4</dim>
				</port>
			</output>
		</layer>
		<layer id="102" name="Constant_4730511" type="Const" version="opset1">
			<data element_type="i64" shape="1" offset="65088" size="8" />
			<rt_info>
				<attribute name="fused_names" version="0" value="Constant_4730511" />
			</rt_info>
			<output>
				<port id="0" precision="I64">
					<dim>1</dim>
				</port>
			</output>
		</layer>
		<layer id="103" name="/model/decoder/layers.0/self_attn/Unsqueeze_5" type="Unsqueeze" version="opset1">
			<rt_info>
				<attribute name="fused_names" version="0" value="/model/decoder/layers.0/self_attn/Unsqueeze_5, Constant_4730511" />
			</rt_info>
			<input>
				<port id="0" precision="I64" />
				<port id="1" precision="I64">
					<dim>1</dim>
				</port>
			</input>
			<output>
				<port id="2" precision="I64" names="/model/decoder/layers.0/self_attn/Unsqueeze_5_output_0">
					<dim>1</dim>
				</port>
			</output>
		</layer>
		<layer id="104" name="/model/decoder/layers.0/self_attn/Constant_14" type="Const" version="opset1">
			<data element_type="i64" shape="1" offset="71636" size="8" />
			<rt_info>
				<attribute name="fused_names" version="0" value="/model/decoder/layers.0/self_attn/Constant_14" />
			</rt_info>
			<output>
				<port id="0" precision="I64" names="/model/decoder/layers.0/self_attn/Constant_14_output_0">
					<dim>1</dim>
				</port>
			</output>
		</layer>
		<layer id="105" name="/model/decoder/layers.0/self_attn/Constant_15" type="Const" version="opset1">
			<data element_type="i64" shape="1" offset="72752" size="8" />
			<rt_info>
				<attribute name="fused_names" version="0" value="/model/decoder/layers.0/self_attn/Constant_15" />
			</rt_info>
			<output>
				<port id="0" precision="I64" names="/model/decoder/layers.0/self_attn/Constant_15_output_0">
					<dim>1</dim>
				</port>
			</output>
		</layer>
		<layer id="106" name="/model/decoder/layers.0/self_attn/Concat_4" type="Concat" version="opset1">
			<data axis="0" />
			<rt_info>
				<attribute name="fused_names" version="0" value="/model/decoder/layers.0/self_attn/Concat_4, /model/decoder/layers.0/self_attn/Constant_14, /model/decoder/layers.0/self_attn/Constant_15" />
			</rt_info>
			<input>
				<port id="0" precision="I64">
					<dim>1</dim>
				</port>
				<port id="1" precision="I64">
					<dim>1</dim>
				</port>
				<port id="2" precision="I64">
					<dim>1</dim>
				</port>
			</input>
			<output>
				<port id="3" precision="I64" names="/model/decoder/layers.0/self_attn/Concat_4_output_0">
					<dim>3</dim>
				</port>
			</output>
		</layer>
		<layer id="107" name="/model/decoder/layers.0/self_attn/Reshape_4" type="Reshape" version="opset1">
			<data special_zero="true" />
			<rt_info>
				<attribute name="fused_names" version="0" value="/model/decoder/layers.0/self_attn/Reshape_4" />
			</rt_info>
			<input>
				<port id="0" precision="FP32">
					<dim>-1</dim>
					<dim>4</dim>
					<dim>-1</dim>
					<dim>4</dim>
				</port>
				<port id="1" precision="I64">
					<dim>3</dim>
				</port>
			</input>
			<output>
				<port id="2" precision="FP32" names="/model/decoder/layers.0/self_attn/Reshape_4_output_0">
					<dim>-1</dim>
					<dim>-1</dim>
					<dim>4</dim>
				</port>
			</output>
		</layer>
		<layer id="108" name="/model/decoder/layers.0/self_attn/MatMul" type="MatMul" version="opset1">
			<data transpose_a="false" transpose_b="true" />
			<rt_info>
				<attribute name="fused_names" version="0" value="/model/decoder/layers.0/self_attn/MatMul, /model/decoder/layers.0/self_attn/Transpose_3" />
			</rt_info>
			<input>
				<port id="0" precision="FP32">
					<dim>-1</dim>
					<dim>-1</dim>
					<dim>4</dim>
				</port>
				<port id="1" precision="FP32">
					<dim>-1</dim>
					<dim>-1</dim>
					<dim>4</dim>
				</port>
			</input>
			<output>
				<port id="2" precision="FP32" names="/model/decoder/layers.0/self_attn/MatMul_output_0">
					<dim>-1</dim>
					<dim>-1</dim>
					<dim>-1</dim>
				</port>
			</output>
		</layer>
		<layer id="109" name="Constant_4730717" type="Const" version="opset1">
			<data element_type="i64" shape="1" offset="65088" size="8" />
			<rt_info>
				<attribute name="fused_names" version="0" value="Constant_4730717" />
			</rt_info>
			<output>
				<port id="0" precision="I64">
					<dim>1</dim>
				</port>
			</output>
		</layer>
		<layer id="110" name="/model/decoder/layers.0/self_attn/Unsqueeze_7" type="Unsqueeze" version="opset1">
			<rt_info>
				<attribute name="fused_names" version="0" value="/model/decoder/layers.0/self_attn/Unsqueeze_7, Constant_4730717" />
			</rt_info>
			<input>
				<port id="0" precision="I64" />
				<port id="1" precision="I64">
					<dim>1</dim>
				</port>
			</input>
			<output>
				<port id="2" precision="I64" names="/model/decoder/layers.0/self_attn/Unsqueeze_7_output_0">
					<dim>1</dim>
				</port>
			</output>
		</layer>
		<layer id="111" name="/model/decoder/layers.0/self_attn/Constant_19" type="Const" version="opset1">
			<data element_type="i64" shape="1" offset="72752" size="8" />
			<rt_info>
				<attribute name="fused_names" version="0" value="/model/decoder/layers.0/self_attn/Constant_19" />
			</rt_info>
			<output>
				<port id="0" precision="I64" names="/model/decoder/layers.0/self_attn/Constant_19_output_0">
					<dim>1</dim>
				</port>
			</output>
		</layer>
		<layer id="112" name="Constant_4730720" type="Const" version="opset1">
			<data element_type="i64" shape="1" offset="65088" size="8" />
			<rt_info>
				<attribute name="fused_names" version="0" value="Constant_4730720" />
			</rt_info>
			<output>
				<port id="0" precision="I64">
					<dim>1</dim>
				</port>
			</output>
		</layer>
		<layer id="113" name="/model/decoder/layers.0/self_attn/Unsqueeze_8" type="Unsqueeze" version="opset1">
			<rt_info>
				<attribute name="fused_names" version="0" value="/model/decoder/layers.0/self_attn/Unsqueeze_8, Constant_4730720" />
			</rt_info>
			<input>
				<port id="0" precision="I64" />
				<port id="1" precision="I64">
					<dim>1</dim>
				</port>
			</input>
			<output>
				<port id="2" precision="I64" names="/model/decoder/layers.0/self_attn/Unsqueeze_8_output_0">
					<dim>1</dim>
				</port>
			</output>
		</layer>
		<layer id="114" name="/model/decoder/layers.0/self_attn/Shape_2" type="ShapeOf" version="opset3">
			<data output_type="i64" />
			<rt_info>
				<attribute name="fused_names" version="0" value="/model/decoder/layers.0/self_attn/Shape_2" />
			</rt_info>
			<input>
				<port id="0" precision="FP32">
					<dim>-1</dim>
					<dim>-1</dim>
					<dim>4</dim>
				</port>
			</input>
			<output>
				<port id="1" precision="I64" names="/model/decoder/layers.0/self_attn/Shape_2_output_0">
					<dim>3</dim>
				</port>
			</output>
		</layer>
		<layer id="115" name="/model/decoder/layers.0/self_attn/Constant_18" type="Const" version="opset1">
			<data element_type="i64" shape="" offset="71628" size="8" />
			<rt_info>
				<attribute name="fused_names" version="0" value="/model/decoder/layers.0/self_attn/Constant_18" />
			</rt_info>
			<output>
				<port id="0" precision="I64" names="/model/decoder/layers.0/self_attn/Constant_18_output_0" />
			</output>
		</layer>
		<layer id="116" name="Constant_4730712" type="Const" version="opset1">
			<data element_type="i64" shape="" offset="65088" size="8" />
			<rt_info>
				<attribute name="fused_names" version="0" value="Constant_4730712" />
			</rt_info>
			<output>
				<port id="0" precision="I64" />
			</output>
		</layer>
		<layer id="117" name="/model/decoder/layers.0/self_attn/Gather_2" type="Gather" version="opset8">
			<data batch_dims="0" />
			<rt_info>
				<attribute name="fused_names" version="0" value="/model/decoder/layers.0/self_attn/Constant_18, /model/decoder/layers.0/self_attn/Gather_2, Constant_4730712" />
			</rt_info>
			<input>
				<port id="0" precision="I64">
					<dim>3</dim>
				</port>
				<port id="1" precision="I64" />
				<port id="2" precision="I64" />
			</input>
			<output>
				<port id="3" precision="I64" names="/model/decoder/layers.0/self_attn/Gather_2_output_0" />
			</output>
		</layer>
		<layer id="118" name="Constant_4730722" type="Const" version="opset1">
			<data element_type="i64" shape="1" offset="65088" size="8" />
			<rt_info>
				<attribute name="fused_names" version="0" value="Constant_4730722" />
			</rt_info>
			<output>
				<port id="0" precision="I64">
					<dim>1</dim>
				</port>
			</output>
		</layer>
		<layer id="119" name="/model/decoder/layers.0/self_attn/Unsqueeze_9" type="Unsqueeze" version="opset1">
			<rt_info>
				<attribute name="fused_names" version="0" value="/model/decoder/layers.0/self_attn/Unsqueeze_9, Constant_4730722" />
			</rt_info>
			<input>
				<port id="0" precision="I64" />
				<port id="1" precision="I64">
					<dim>1</dim>
				</port>
			</input>
			<output>
				<port id="2" precision="I64" names="/model/decoder/layers.0/self_attn/Unsqueeze_9_output_0">
					<dim>1</dim>
				</port>
			</output>
		</layer>
		<layer id="120" name="/model/decoder/layers.0/self_attn/Concat_6" type="Concat" version="opset1">
			<data axis="0" />
			<rt_info>
				<attribute name="fused_names" version="0" value="/model/decoder/layers.0/self_attn/Concat_6, /model/decoder/layers.0/self_attn/Constant_19" />
			</rt_info>
			<input>
				<port id="0" precision="I64">
					<dim>1</dim>
				</port>
				<port id="1" precision="I64">
					<dim>1</dim>
				</port>
				<port id="2" precision="I64">
					<dim>1</dim>
				</port>
				<port id="3" precision="I64">
					<dim>1</dim>
				</port>
			</input>
			<output>
				<port id="4" precision="I64" names="/model/decoder/layers.0/self_attn/Concat_6_output_0">
					<dim>4</dim>
				</port>
			</output>
		</layer>
		<layer id="121" name="/model/decoder/layers.0/self_attn/Reshape_6" type="Reshape" version="opset1">
			<data special_zero="true" />
			<rt_info>
				<attribute name="fused_names" version="0" value="/model/decoder/layers.0/self_attn/Reshape_6" />
			</rt_info>
			<input>
				<port id="0" precision="FP32">
					<dim>-1</dim>
					<dim>-1</dim>
					<dim>-1</dim>
				</port>
				<port id="1" precision="I64">
					<dim>4</dim>
				</port>
			</input>
			<output>
				<port id="2" precision="FP32" names="/model/decoder/layers.0/self_attn/Reshape_6_output_0">
					<dim>-1</dim>
					<dim>4</dim>
					<dim>-1</dim>
					<dim>-1</dim>
				</port>
			</output>
		</layer>
		<layer id="122" name="/model/decoder/Constant_6" type="Const" version="opset1">
			<data element_type="i64" shape="" offset="65088" size="8" />
			<rt_info>
				<attribute name="fused_names" version="0" value="/model/decoder/Constant_6" />
			</rt_info>
			<output>
				<port id="0" precision="I64" names="/model/decoder/Constant_6_output_0" />
			</output>
		</layer>
		<layer id="123" name="Constant_4730109" type="Const" version="opset1">
			<data element_type="f32" shape="" offset="73816" size="4" />
			<rt_info>
				<attribute name="fused_names" version="0" value="Constant_4730109" />
			</rt_info>
			<output>
				<port id="0" precision="FP32" />
			</output>
		</layer>
		<layer id="124" name="Constant_4730103" type="Const" version="opset1">
			<data element_type="i64" shape="1" offset="65088" size="8" />
			<rt_info>
				<attribute name="fused_names" version="0" value="Constant_4730103" />
			</rt_info>
			<output>
				<port id="0" precision="I64">
					<dim>1</dim>
				</port>
			</output>
		</layer>
		<layer id="125" name="/model/decoder/Unsqueeze" type="Unsqueeze" version="opset1">
			<rt_info>
				<attribute name="fused_names" version="0" value="/model/decoder/Unsqueeze, Constant_4730103" />
			</rt_info>
			<input>
				<port id="0" precision="I64" />
				<port id="1" precision="I64">
					<dim>1</dim>
				</port>
			</input>
			<output>
				<port id="2" precision="I64" names="/model/decoder/Unsqueeze_output_0">
					<dim>1</dim>
				</port>
			</output>
		</layer>
		<layer id="126" name="Constant_4730105" type="Const" version="opset1">
			<data element_type="i64" shape="1" offset="65088" size="8" />
			<rt_info>
				<attribute name="fused_names" version="0" value="Constant_4730105" />
			</rt_info>
			<output>
				<port id="0" precision="I64">
					<dim>1</dim>
				</port>
			</output>
		</layer>
		<layer id="127" name="/model/decoder/Unsqueeze_1" type="Unsqueeze" version="opset1">
			<rt_info>
				<attribute name="fused_names" version="0" value="/model/decoder/Unsqueeze_1, Constant_4730105" />
			</rt_info>
			<input>
				<port id="0" precision="I64" />
				<port id="1" precision="I64">
					<dim>1</dim>
				</port>
			</input>
			<output>
				<port id="2" precision="I64" names="/model/decoder/Unsqueeze_1_output_0">
					<dim>1</dim>
				</port>
			</output>
		</layer>
		<layer id="128" name="/model/decoder/Concat" type="Concat" version="opset1">
			<data axis="0" />
			<rt_info>
				<attribute name="fused_names" version="0" value="/model/decoder/Concat" />
			</rt_info>
			<input>
				<port id="0" precision="I64">
					<dim>1</dim>
				</port>
				<port id="1" precision="I64">
					<dim>1</dim>
				</port>
			</input>
			<output>
				<port id="2" precision="I64" names="/model/decoder/Concat_output_0">
					<dim>2</dim>
				</port>
			</output>
		</layer>
		<layer id="129" name="/model/decoder/ConstantOfShape" type="Broadcast" version="opset3">
			<data mode="numpy" />
			<rt_info>
				<attribute name="fused_names" version="0" value="/model/decoder/ConstantOfShape" />
			</rt_info>
			<input>
				<port id="0" precision="FP32" />
				<port id="1" precision="I64">
					<dim>2</dim>
				</port>
			</input>
			<output>
				<port id="2" precision="FP32" names="/model/decoder/ConstantOfShape_output_0">
					<dim>-1</dim>
					<dim>-1</dim>
				</port>
			</output>
		</layer>
		<layer id="130" name="/model/decoder/Shape_2" type="ShapeOf" version="opset3">
			<data output_type="i64" />
			<rt_info>
				<attribute name="fused_names" version="0" value="/model/decoder/Shape_2" />
			</rt_info>
			<input>
				<port id="0" precision="FP32">
					<dim>-1</dim>
					<dim>-1</dim>
				</port>
			</input>
			<output>
				<port id="1" precision="I64" names="/model/decoder/Shape_2_output_0">
					<dim>2</dim>
				</port>
			</output>
		</layer>
		<layer id="131" name="/model/decoder/Constant_4" type="Const" version="opset1">
			<data element_type="i64" shape="1" offset="71636" size="8" />
			<rt_info>
				<attribute name="fused_names" version="0" value="/model/decoder/Constant_4" />
			</rt_info>
			<output>
				<port id="0" precision="I64" names="/model/decoder/Constant_4_output_0">
					<dim>1</dim>
				</port>
			</output>
		</layer>
		<layer id="132" name="/model/decoder/Constant_5" type="Const" version="opset1">
			<data element_type="i64" shape="1" offset="73820" size="8" />
			<rt_info>
				<attribute name="fused_names" version="0" value="/model/decoder/Constant_5" />
			</rt_info>
			<output>
				<port id="0" precision="I64" names="/model/decoder/Constant_5_output_0">
					<dim>1</dim>
				</port>
			</output>
		</layer>
		<layer id="133" name="Constant_4730121" type="Const" version="opset1">
			<data element_type="i64" shape="1" offset="71628" size="8" />
			<rt_info>
				<attribute name="fused_names" version="0" value="Constant_4730121" />
			</rt_info>
			<output>
				<port id="0" precision="I64">
					<dim>1</dim>
				</port>
			</output>
		</layer>
		<layer id="134" name="ShapeOf_4730122" type="Const" version="opset1">
			<data element_type="i64" shape="1" offset="71628" size="8" />
			<rt_info>
				<attribute name="fused_names" version="0" value="/model/decoder/Constant_4, ShapeOf_4730122" />
			</rt_info>
			<output>
				<port id="0" precision="I64">
					<dim>1</dim>
				</port>
			</output>
		</layer>
		<layer id="135" name="Broadcast_4730123" type="Broadcast" version="opset3">
			<data mode="numpy" />
			<rt_info>
				<attribute name="fused_names" version="0" value="/model/decoder/Constant_4, Broadcast_4730123, Constant_4730121, ShapeOf_4730122" />
			</rt_info>
			<input>
				<port id="0" precision="I64">
					<dim>1</dim>
				</port>
				<port id="1" precision="I64">
					<dim>1</dim>
				</port>
			</input>
			<output>
				<port id="2" precision="I64">
					<dim>1</dim>
				</port>
			</output>
		</layer>
		<layer id="136" name="/model/decoder/Constant_3" type="Const" version="opset1">
			<data element_type="i64" shape="1" offset="65088" size="8" />
			<rt_info>
				<attribute name="fused_names" version="0" value="/model/decoder/Constant_3" />
			</rt_info>
			<output>
				<port id="0" precision="I64" names="/model/decoder/Constant_3_output_0">
					<dim>1</dim>
				</port>
			</output>
		</layer>
		<layer id="137" name="/model/decoder/Slice" type="Slice" version="opset8">
			<rt_info>
				<attribute name="fused_names" version="0" value="/model/decoder/Constant_3, /model/decoder/Constant_4, /model/decoder/Constant_5, /model/decoder/Slice" />
			</rt_info>
			<input>
				<port id="0" precision="I64">
					<dim>2</dim>
				</port>
				<port id="1" precision="I64">
					<dim>1</dim>
				</port>
				<port id="2" precision="I64">
					<dim>1</dim>
				</port>
				<port id="3" precision="I64">
					<dim>1</dim>
				</port>
				<port id="4" precision="I64">
					<dim>1</dim>
				</port>
			</input>
			<output>
				<port id="5" precision="I64" names="/model/decoder/Slice_output_0">
					<dim>1</dim>
				</port>
			</output>
		</layer>
		<layer id="138" name="Constant_4730128" type="Const" version="opset1">
			<data element_type="i64" shape="1" offset="65088" size="8" />
			<rt_info>
				<attribute name="fused_names" version="0" value="Constant_4730128" />
			</rt_info>
			<output>
				<port id="0" precision="I64">
					<dim>1</dim>
				</port>
			</output>
		</layer>
		<layer id="139" name="/model/decoder/Squeeze" type="Squeeze" version="opset1">
			<rt_info>
				<attribute name="fused_names" version="0" value="/model/decoder/Squeeze, Constant_4730128" />
			</rt_info>
			<input>
				<port id="0" precision="I64">
					<dim>1</dim>
				</port>
				<port id="1" precision="I64">
					<dim>1</dim>
				</port>
			</input>
			<output>
				<port id="2" precision="I64" names="/model/decoder/Squeeze_output_0" />
			</output>
		</layer>
		<layer id="140" name="/model/decoder/Cast" type="Convert" version="opset1">
			<data destination_type="i64" />
			<rt_info>
				<attribute name="fused_names" version="0" value="/model/decoder/Cast" />
			</rt_info>
			<input>
				<port id="0" precision="I64" />
			</input>
			<output>
				<port id="1" precision="I64" names="/model/decoder/Cast_output_0" />
			</output>
		</layer>
		<layer id="141" name="/model/decoder/Constant_7" type="Const" version="opset1">
			<data element_type="i64" shape="" offset="71628" size="8" />
			<rt_info>
				<attribute name="fused_names" version="0" value="/model/decoder/Constant_7" />
			</rt_info>
			<output>
				<port id="0" precision="I64" names="/model/decoder/Constant_7_output_0" />
			</output>
		</layer>
		<layer id="142" name="/model/decoder/Range" type="Range" version="opset4">
			<data output_type="i64" />
			<rt_info>
				<attribute name="fused_names" version="0" value="/model/decoder/Range" />
			</rt_info>
			<input>
				<port id="0" precision="I64" />
				<port id="1" precision="I64" />
				<port id="2" precision="I64" />
			</input>
			<output>
				<port id="3" precision="I64" names="/model/decoder/Range_output_0">
					<dim>-1</dim>
				</port>
			</output>
		</layer>
		<layer id="143" name="/model/decoder/Constant_8" type="Const" version="opset1">
			<data element_type="i64" shape="" offset="71628" size="8" />
			<rt_info>
				<attribute name="fused_names" version="0" value="/model/decoder/Constant_8" />
			</rt_info>
			<output>
				<port id="0" precision="I64" names="/model/decoder/Constant_8_output_0" />
			</output>
		</layer>
		<layer id="144" name="/model/decoder/Add" type="Add" version="opset1">
			<data auto_broadcast="numpy" />
			<rt_info>
				<attribute name="fused_names" version="0" value="/model/decoder/Add" />
			</rt_info>
			<input>
				<port id="0" precision="I64">
					<dim>-1</dim>
				</port>
				<port id="1" precision="I64" />
			</input>
			<output>
				<port id="2" precision="I64" names="/model/decoder/Add_output_0">
					<dim>-1</dim>
				</port>
			</output>
		</layer>
		<layer id="145" name="/model/decoder/Shape_3" type="ShapeOf" version="opset3">
			<data output_type="i64" />
			<rt_info>
				<attribute name="fused_names" version="0" value="/model/decoder/Shape_3" />
			</rt_info>
			<input>
				<port id="0" precision="FP32">
					<dim>-1</dim>
					<dim>-1</dim>
				</port>
			</input>
			<output>
				<port id="1" precision="I64" names="/model/decoder/Shape_3_output_0">
					<dim>2</dim>
				</port>
			</output>
		</layer>
		<layer id="146" name="/model/decoder/Constant_10" type="Const" version="opset1">
			<data element_type="i64" shape="1" offset="71636" size="8" />
			<rt_info>
				<attribute name="fused_names" version="0" value="/model/decoder/Constant_10" />
			</rt_info>
			<output>
				<port id="0" precision="I64" names="/model/decoder/Constant_10_output_0">
					<dim>1</dim>
				</port>
			</output>
		</layer>
		<layer id="147" name="/model/decoder/Constant_11" type="Const" version="opset1">
			<data element_type="i64" shape="1" offset="73820" size="8" />
			<rt_info>
				<attribute name="fused_names" version="0" value="/model/decoder/Constant_11" />
			</rt_info>
			<output>
				<port id="0" precision="I64" names="/model/decoder/Constant_11_output_0">
					<dim>1</dim>
				</port>
			</output>
		</layer>
		<layer id="148" name="Constant_4730152" type="Const" version="opset1">
			<data element_type="i64" shape="1" offset="71628" size="8" />
			<rt_info>
				<attribute name="fused_names" version="0" value="Constant_4730152" />
			</rt_info>
			<output>
				<port id="0" precision="I64">
					<dim>1</dim>
				</port>
			</output>
		</layer>
		<layer id="149" name="ShapeOf_4730153" type="Const" version="opset1">
			<data element_type="i64" shape="1" offset="71628" size="8" />
			<rt_info>
				<attribute name="fused_names" version="0" value="/model/decoder/Constant_10, ShapeOf_4730153" />
			</rt_info>
			<output>
				<port id="0" precision="I64">
					<dim>1</dim>
				</port>
			</output>
		</layer>
		<layer id="150" name="Broadcast_4730154" type="Broadcast" version="opset3">
			<data mode="numpy" />
			<rt_info>
				<attribute name="fused_names" version="0" value="/model/decoder/Constant_10, Broadcast_4730154, Constant_4730152, ShapeOf_4730153" />
			</rt_info>
			<input>
				<port id="0" precision="I64">
					<dim>1</dim>
				</port>
				<port id="1" precision="I64">
					<dim>1</dim>
				</port>
			</input>
			<output>
				<port id="2" precision="I64">
					<dim>1</dim>
				</port>
			</output>
		</layer>
		<layer id="151" name="/model/decoder/Constant_9" type="Const" version="opset1">
			<data element_type="i64" shape="1" offset="65088" size="8" />
			<rt_info>
				<attribute name="fused_names" version="0" value="/model/decoder/Constant_9" />
			</rt_info>
			<output>
				<port id="0" precision="I64" names="/model/decoder/Constant_9_output_0">
					<dim>1</dim>
				</port>
			</output>
		</layer>
		<layer id="152" name="/model/decoder/Slice_1" type="Slice" version="opset8">
			<rt_info>
				<attribute name="fused_names" version="0" value="/model/decoder/Constant_10, /model/decoder/Constant_11, /model/decoder/Constant_9, /model/decoder/Slice_1" />
			</rt_info>
			<input>
				<port id="0" precision="I64">
					<dim>2</dim>
				</port>
				<port id="1" precision="I64">
					<dim>1</dim>
				</port>
				<port id="2" precision="I64">
					<dim>1</dim>
				</port>
				<port id="3" precision="I64">
					<dim>1</dim>
				</port>
				<port id="4" precision="I64">
					<dim>1</dim>
				</port>
			</input>
			<output>
				<port id="5" precision="I64" names="/model/decoder/Slice_1_output_0">
					<dim>1</dim>
				</port>
			</output>
		</layer>
		<layer id="153" name="Constant_4730159" type="Const" version="opset1">
			<data element_type="i64" shape="1" offset="65088" size="8" />
			<rt_info>
				<attribute name="fused_names" version="0" value="Constant_4730159" />
			</rt_info>
			<output>
				<port id="0" precision="I64">
					<dim>1</dim>
				</port>
			</output>
		</layer>
		<layer id="154" name="/model/decoder/Squeeze_1" type="Squeeze" version="opset1">
			<rt_info>
				<attribute name="fused_names" version="0" value="/model/decoder/Squeeze_1, Constant_4730159" />
			</rt_info>
			<input>
				<port id="0" precision="I64">
					<dim>1</dim>
				</port>
				<port id="1" precision="I64">
					<dim>1</dim>
				</port>
			</input>
			<output>
				<port id="2" precision="I64" names="/model/decoder/Squeeze_1_output_0" />
			</output>
		</layer>
		<layer id="155" name="Constant_4730161" type="Const" version="opset1">
			<data element_type="i64" shape="1" offset="65088" size="8" />
			<rt_info>
				<attribute name="fused_names" version="0" value="Constant_4730161" />
			</rt_info>
			<output>
				<port id="0" precision="I64">
					<dim>1</dim>
				</port>
			</output>
		</layer>
		<layer id="156" name="/model/decoder/Unsqueeze_2" type="Unsqueeze" version="opset1">
			<rt_info>
				<attribute name="fused_names" version="0" value="/model/decoder/Unsqueeze_2, Constant_4730161" />
			</rt_info>
			<input>
				<port id="0" precision="I64" />
				<port id="1" precision="I64">
					<dim>1</dim>
				</port>
			</input>
			<output>
				<port id="2" precision="I64" names="/model/decoder/Unsqueeze_2_output_0">
					<dim>1</dim>
				</port>
			</output>
		</layer>
		<layer id="157" name="/model/decoder/Constant_12" type="Const" version="opset1">
			<data element_type="i64" shape="1" offset="71628" size="8" />
			<rt_info>
				<attribute name="fused_names" version="0" value="/model/decoder/Constant_12" />
			</rt_info>
			<output>
				<port id="0" precision="I64" names="/model/decoder/Constant_12_output_0">
					<dim>1</dim>
				</port>
			</output>
		</layer>
		<layer id="158" name="/model/decoder/Concat_1" type="Concat" version="opset1">
			<data axis="0" />
			<rt_info>
				<attribute name="fused_names" version="0" value="/model/decoder/Concat_1, /model/decoder/Constant_12" />
			</rt_info>
			<input>
				<port id="0" precision="I64">
					<dim>1</dim>
				</port>
				<port id="1" precision="I64">
					<dim>1</dim>
				</port>
			</input>
			<output>
				<port id="2" precision="I64" names="/model/decoder/Concat_1_output_0">
					<dim>2</dim>
				</port>
			</output>
		</layer>
		<layer id="159" name="/model/decoder/Reshape" type="Reshape" version="opset1">
			<data special_zero="true" />
			<rt_info>
				<attribute name="fused_names" version="0" value="/model/decoder/Reshape" />
			</rt_info>
			<input>
				<port id="0" precision="I64">
					<dim>-1</dim>
				</port>
				<port id="1" precision="I64">
					<dim>2</dim>
				</port>
			</input>
			<output>
				<port id="2" precision="I64" names="/model/decoder/Reshape_output_0">
					<dim>-1</dim>
					<dim>1</dim>
				</port>
			</output>
		</layer>
		<layer id="160" name="/model/decoder/Less" type="Less" version="opset1">
			<data auto_broadcast="numpy" />
			<rt_info>
				<attribute name="fused_names" version="0" value="/model/decoder/Less" />
			</rt_info>
			<input>
				<port id="0" precision="I64">
					<dim>-1</dim>
				</port>
				<port id="1" precision="I64">
					<dim>-1</dim>
					<dim>1</dim>
				</port>
			</input>
			<output>
				<port id="2" precision="BOOL" names="/model/decoder/Less_output_0">
					<dim>-1</dim>
					<dim>-1</dim>
				</port>
			</output>
		</layer>
		<layer id="161" name="/model/decoder/Cast_1" type="Convert" version="opset1">
			<data destination_type="boolean" />
			<rt_info>
				<attribute name="fused_names" version="0" value="/model/decoder/Cast_1" />
			</rt_info>
			<input>
				<port id="0" precision="BOOL">
					<dim>-1</dim>
					<dim>-1</dim>
				</port>
			</input>
			<output>
				<port id="1" precision="BOOL" names="/model/decoder/Cast_1_output_0">
					<dim>-1</dim>
					<dim>-1</dim>
				</port>
			</output>
		</layer>
		<layer id="162" name="/model/decoder/Constant_13" type="Const" version="opset1">
			<data element_type="f32" shape="" offset="73828" size="4" />
			<rt_info>
				<attribute name="fused_names" version="0" value="/model/decoder/Constant_13" />
			</rt_info>
			<output>
				<port id="0" precision="FP32" names="/model/decoder/Constant_13_output_0" />
			</output>
		</layer>
		<layer id="163" name="/model/decoder/Where" type="Select" version="opset1">
			<data auto_broadcast="numpy" />
			<rt_info>
				<attribute name="fused_names" version="0" value="/model/decoder/Where" />
			</rt_info>
			<input>
				<port id="0" precision="BOOL">
					<dim>-1</dim>
					<dim>-1</dim>
				</port>
				<port id="1" precision="FP32" />
				<port id="2" precision="FP32">
					<dim>-1</dim>
					<dim>-1</dim>
				</port>
			</input>
			<output>
				<port id="3" precision="FP32" names="/model/decoder/Where_output_0">
					<dim>-1</dim>
					<dim>-1</dim>
				</port>
			</output>
		</layer>
		<layer id="164" name="/model/decoder/Cast_2" type="Convert" version="opset1">
			<data destination_type="f32" />
			<rt_info>
				<attribute name="fused_names" version="0" value="/model/decoder/Cast_2" />
			</rt_info>
			<input>
				<port id="0" precision="FP32">
					<dim>-1</dim>
					<dim>-1</dim>
				</port>
			</input>
			<output>
				<port id="1" precision="FP32" names="/model/decoder/Cast_2_output_0">
					<dim>-1</dim>
					<dim>-1</dim>
				</port>
			</output>
		</layer>
		<layer id="165" name="Constant_4730177" type="Const" version="opset1">
			<data element_type="i64" shape="1" offset="65088" size="8" />
			<rt_info>
				<attribute name="fused_names" version="0" value="Constant_4730177" />
			</rt_info>
			<output>
				<port id="0" precision="I64">
					<dim>1</dim>
				</port>
			</output>
		</layer>
		<layer id="166" name="/model/decoder/Unsqueeze_3" type="Unsqueeze" version="opset1">
			<rt_info>
				<attribute name="fused_names" version="0" value="/model/decoder/Unsqueeze_3" />
			</rt_info>
			<input>
				<port id="0" precision="FP32">
					<dim>-1</dim>
					<dim>-1</dim>
				</port>
				<port id="1" precision="I64">
					<dim>1</dim>
				</port>
			</input>
			<output>
				<port id="2" precision="FP32" names="/model/decoder/Unsqueeze_3_output_0">
					<dim>1</dim>
					<dim>-1</dim>
					<dim>-1</dim>
				</port>
			</output>
		</layer>
		<layer id="167" name="Constant_4730179" type="Const" version="opset1">
			<data element_type="i64" shape="1" offset="71628" size="8" />
			<rt_info>
				<attribute name="fused_names" version="0" value="Constant_4730179" />
			</rt_info>
			<output>
				<port id="0" precision="I64">
					<dim>1</dim>
				</port>
			</output>
		</layer>
		<layer id="168" name="/model/decoder/Unsqueeze_4" type="Unsqueeze" version="opset1">
			<rt_info>
				<attribute name="fused_names" version="0" value="/model/decoder/Unsqueeze_4" />
			</rt_info>
			<input>
				<port id="0" precision="FP32">
					<dim>1</dim>
					<dim>-1</dim>
					<dim>-1</dim>
				</port>
				<port id="1" precision="I64">
					<dim>1</dim>
				</port>
			</input>
			<output>
				<port id="2" precision="FP32" names="/model/decoder/Unsqueeze_4_output_0">
					<dim>1</dim>
					<dim>1</dim>
					<dim>-1</dim>
					<dim>-1</dim>
				</port>
			</output>
		</layer>
		<layer id="169" name="Constant_4730181" type="Const" version="opset1">
			<data element_type="i64" shape="1" offset="65088" size="8" />
			<rt_info>
				<attribute name="fused_names" version="0" value="Constant_4730181" />
			</rt_info>
			<output>
				<port id="0" precision="I64">
					<dim>1</dim>
				</port>
			</output>
		</layer>
		<layer id="170" name="/model/decoder/Unsqueeze_5" type="Unsqueeze" version="opset1">
			<rt_info>
				<attribute name="fused_names" version="0" value="/model/decoder/Unsqueeze_5, Constant_4730181" />
			</rt_info>
			<input>
				<port id="0" precision="I64" />
				<port id="1" precision="I64">
					<dim>1</dim>
				</port>
			</input>
			<output>
				<port id="2" precision="I64" names="/model/decoder/Unsqueeze_5_output_0">
					<dim>1</dim>
				</port>
			</output>
		</layer>
		<layer id="171" name="/model/decoder/Constant_14" type="Const" version="opset1">
			<data element_type="i64" shape="1" offset="71628" size="8" />
			<rt_info>
				<attribute name="fused_names" version="0" value="/model/decoder/Constant_14" />
			</rt_info>
			<output>
				<port id="0" precision="I64" names="/model/decoder/Constant_14_output_0">
					<dim>1</dim>
				</port>
			</output>
		</layer>
		<layer id="172" name="Constant_4730184" type="Const" version="opset1">
			<data element_type="i64" shape="1" offset="65088" size="8" />
			<rt_info>
				<attribute name="fused_names" version="0" value="Constant_4730184" />
			</rt_info>
			<output>
				<port id="0" precision="I64">
					<dim>1</dim>
				</port>
			</output>
		</layer>
		<layer id="173" name="/model/decoder/Unsqueeze_6" type="Unsqueeze" version="opset1">
			<rt_info>
				<attribute name="fused_names" version="0" value="/model/decoder/Unsqueeze_6, Constant_4730184" />
			</rt_info>
			<input>
				<port id="0" precision="I64" />
				<port id="1" precision="I64">
					<dim>1</dim>
				</port>
			</input>
			<output>
				<port id="2" precision="I64" names="/model/decoder/Unsqueeze_6_output_0">
					<dim>1</dim>
				</port>
			</output>
		</layer>
		<layer id="174" name="Constant_4730186" type="Const" version="opset1">
			<data element_type="i64" shape="1" offset="65088" size="8" />
			<rt_info>
				<attribute name="fused_names" version="0" value="Constant_4730186" />
			</rt_info>
			<output>
				<port id="0" precision="I64">
					<dim>1</dim>
				</port>
			</output>
		</layer>
		<layer id="175" name="/model/decoder/Unsqueeze_7" type="Unsqueeze" version="opset1">
			<rt_info>
				<attribute name="fused_names" version="0" value="/model/decoder/Unsqueeze_7, Constant_4730186" />
			</rt_info>
			<input>
				<port id="0" precision="I64" />
				<port id="1" precision="I64">
					<dim>1</dim>
				</port>
			</input>
			<output>
				<port id="2" precision="I64" names="/model/decoder/Unsqueeze_7_output_0">
					<dim>1</dim>
				</port>
			</output>
		</layer>
		<layer id="176" name="/model/decoder/Concat_2" type="Concat" version="opset1">
			<data axis="0" />
			<rt_info>
				<attribute name="fused_names" version="0" value="/model/decoder/Concat_2, /model/decoder/Constant_14" />
			</rt_info>
			<input>
				<port id="0" precision="I64">
					<dim>1</dim>
				</port>
				<port id="1" precision="I64">
					<dim>1</dim>
				</port>
				<port id="2" precision="I64">
					<dim>1</dim>
				</port>
				<port id="3" precision="I64">
					<dim>1</dim>
				</port>
			</input>
			<output>
				<port id="4" precision="I64" names="/model/decoder/Concat_2_output_0">
					<dim>4</dim>
				</port>
			</output>
		</layer>
		<layer id="177" name="Constant_4739366" type="Const" version="opset1">
			<data element_type="i64" shape="1" offset="71636" size="8" />
			<rt_info>
				<attribute name="fused_names" version="0" value="/model/decoder/Reshape_1" />
			</rt_info>
			<output>
				<port id="0" precision="I64">
					<dim>1</dim>
				</port>
			</output>
		</layer>
		<layer id="178" name="/model/decoder/Reshape_1" type="Reshape" version="opset1">
			<data special_zero="true" />
			<rt_info>
				<attribute name="fused_names" version="0" value="/model/decoder/Reshape_1" />
			</rt_info>
			<input>
				<port id="0" precision="I64">
					<dim>4</dim>
				</port>
				<port id="1" precision="I64">
					<dim>1</dim>
				</port>
			</input>
			<output>
				<port id="2" precision="I64" names="/model/decoder/Reshape_1_output_0">
					<dim>4</dim>
				</port>
			</output>
		</layer>
		<layer id="179" name="Constant_4730195" type="Const" version="opset1">
			<data element_type="i64" shape="" offset="71628" size="8" />
			<rt_info>
				<attribute name="fused_names" version="0" value="Constant_4730195" />
			</rt_info>
			<output>
				<port id="0" precision="I64" />
			</output>
		</layer>
		<layer id="180" name="/model/decoder/Shape_4" type="ShapeOf" version="opset3">
			<data output_type="i64" />
			<rt_info>
				<attribute name="fused_names" version="0" value="/model/decoder/Shape_4" />
			</rt_info>
			<input>
				<port id="0" precision="I64">
					<dim>4</dim>
				</port>
			</input>
			<output>
				<port id="1" precision="I64" names="/model/decoder/Shape_4_output_0">
					<dim>1</dim>
				</port>
			</output>
		</layer>
		<layer id="181" name="/model/decoder/ConstantOfShape_1" type="Broadcast" version="opset3">
			<data mode="numpy" />
			<rt_info>
				<attribute name="fused_names" version="0" value="/model/decoder/ConstantOfShape_1, Constant_4730195" />
			</rt_info>
			<input>
				<port id="0" precision="I64" />
				<port id="1" precision="I64">
					<dim>1</dim>
				</port>
			</input>
			<output>
				<port id="2" precision="I64" names="/model/decoder/ConstantOfShape_1_output_0">
					<dim>4</dim>
				</port>
			</output>
		</layer>
		<layer id="182" name="/model/decoder/Constant_16" type="Const" version="opset1">
			<data element_type="i64" shape="" offset="71636" size="8" />
			<rt_info>
				<attribute name="fused_names" version="0" value="/model/decoder/Constant_16" />
			</rt_info>
			<output>
				<port id="0" precision="I64" names="/model/decoder/Constant_16_output_0" />
			</output>
		</layer>
		<layer id="183" name="/model/decoder/Mul_1" type="Multiply" version="opset1">
			<data auto_broadcast="numpy" />
			<rt_info>
				<attribute name="fused_names" version="0" value="/model/decoder/Constant_16, /model/decoder/Mul_1" />
			</rt_info>
			<input>
				<port id="0" precision="I64">
					<dim>4</dim>
				</port>
				<port id="1" precision="I64" />
			</input>
			<output>
				<port id="2" precision="I64" names="/model/decoder/Mul_1_output_0">
					<dim>4</dim>
				</port>
			</output>
		</layer>
		<layer id="184" name="/model/decoder/Equal" type="Equal" version="opset1">
			<data auto_broadcast="numpy" />
			<rt_info>
				<attribute name="fused_names" version="0" value="/model/decoder/Equal" />
			</rt_info>
			<input>
				<port id="0" precision="I64">
					<dim>4</dim>
				</port>
				<port id="1" precision="I64">
					<dim>4</dim>
				</port>
			</input>
			<output>
				<port id="2" precision="BOOL" names="/model/decoder/Equal_output_0">
					<dim>4</dim>
				</port>
			</output>
		</layer>
		<layer id="185" name="/model/decoder/Where_1" type="Select" version="opset1">
			<data auto_broadcast="numpy" />
			<rt_info>
				<attribute name="fused_names" version="0" value="/model/decoder/Where_1" />
			</rt_info>
			<input>
				<port id="0" precision="BOOL">
					<dim>4</dim>
				</port>
				<port id="1" precision="I64">
					<dim>4</dim>
				</port>
				<port id="2" precision="I64">
					<dim>4</dim>
				</port>
			</input>
			<output>
				<port id="3" precision="I64" names="/model/decoder/Where_1_output_0">
					<dim>4</dim>
				</port>
			</output>
		</layer>
		<layer id="186" name="/model/decoder/Expand" type="Broadcast" version="opset3">
			<data mode="bidirectional" />
			<rt_info>
				<attribute name="fused_names" version="0" value="/model/decoder/Expand" />
			</rt_info>
			<input>
				<port id="0" precision="FP32">
					<dim>1</dim>
					<dim>1</dim>
					<dim>-1</dim>
					<dim>-1</dim>
				</port>
				<port id="1" precision="I64">
					<dim>4</dim>
				</port>
			</input>
			<output>
				<port id="2" precision="FP32" names="/model/decoder/Expand_output_0">
					<dim>-1</dim>
					<dim>1</dim>
					<dim>-1</dim>
					<dim>-1</dim>
				</port>
			</output>
		</layer>
		<layer id="187" name="/model/decoder/layers.0/self_attn/Add" type="Add" version="opset1">
			<data auto_broadcast="numpy" />
			<rt_info>
				<attribute name="fused_names" version="0" value="/model/decoder/layers.0/self_attn/Add" />
			</rt_info>
			<input>
				<port id="0" precision="FP32">
					<dim>-1</dim>
					<dim>4</dim>
					<dim>-1</dim>
					<dim>-1</dim>
				</port>
				<port id="1" precision="FP32">
					<dim>-1</dim>
					<dim>1</dim>
					<dim>-1</dim>
					<dim>-1</dim>
				</port>
			</input>
			<output>
				<port id="2" precision="FP32" names="/model/decoder/layers.0/self_attn/Add_output_0">
					<dim>-1</dim>
					<dim>4</dim>
					<dim>-1</dim>
					<dim>-1</dim>
				</port>
			</output>
		</layer>
		<layer id="188" name="Constant_4730741" type="Const" version="opset1">
			<data element_type="i64" shape="1" offset="65088" size="8" />
			<rt_info>
				<attribute name="fused_names" version="0" value="Constant_4730741" />
			</rt_info>
			<output>
				<port id="0" precision="I64">
					<dim>1</dim>
				</port>
			</output>
		</layer>
		<layer id="189" name="/model/decoder/layers.0/self_attn/Unsqueeze_10" type="Unsqueeze" version="opset1">
			<rt_info>
				<attribute name="fused_names" version="0" value="/model/decoder/layers.0/self_attn/Unsqueeze_10, Constant_4730741" />
			</rt_info>
			<input>
				<port id="0" precision="I64" />
				<port id="1" precision="I64">
					<dim>1</dim>
				</port>
			</input>
			<output>
				<port id="2" precision="I64" names="/model/decoder/layers.0/self_attn/Unsqueeze_10_output_0">
					<dim>1</dim>
				</port>
			</output>
		</layer>
		<layer id="190" name="Constant_4730743" type="Const" version="opset1">
			<data element_type="i64" shape="1" offset="65088" size="8" />
			<rt_info>
				<attribute name="fused_names" version="0" value="Constant_4730743" />
			</rt_info>
			<output>
				<port id="0" precision="I64">
					<dim>1</dim>
				</port>
			</output>
		</layer>
		<layer id="191" name="/model/decoder/layers.0/self_attn/Unsqueeze_11" type="Unsqueeze" version="opset1">
			<rt_info>
				<attribute name="fused_names" version="0" value="/model/decoder/layers.0/self_attn/Unsqueeze_11, Constant_4730743" />
			</rt_info>
			<input>
				<port id="0" precision="I64" />
				<port id="1" precision="I64">
					<dim>1</dim>
				</port>
			</input>
			<output>
				<port id="2" precision="I64" names="/model/decoder/layers.0/self_attn/Unsqueeze_11_output_0">
					<dim>1</dim>
				</port>
			</output>
		</layer>
		<layer id="192" name="Constant_4730745" type="Const" version="opset1">
			<data element_type="i64" shape="1" offset="65088" size="8" />
			<rt_info>
				<attribute name="fused_names" version="0" value="Constant_4730745" />
			</rt_info>
			<output>
				<port id="0" precision="I64">
					<dim>1</dim>
				</port>
			</output>
		</layer>
		<layer id="193" name="/model/decoder/layers.0/self_attn/Unsqueeze_12" type="Unsqueeze" version="opset1">
			<rt_info>
				<attribute name="fused_names" version="0" value="/model/decoder/layers.0/self_attn/Unsqueeze_12, Constant_4730745" />
			</rt_info>
			<input>
				<port id="0" precision="I64" />
				<port id="1" precision="I64">
					<dim>1</dim>
				</port>
			</input>
			<output>
				<port id="2" precision="I64" names="/model/decoder/layers.0/self_attn/Unsqueeze_12_output_0">
					<dim>1</dim>
				</port>
			</output>
		</layer>
		<layer id="194" name="/model/decoder/layers.0/self_attn/Concat_7" type="Concat" version="opset1">
			<data axis="0" />
			<rt_info>
				<attribute name="fused_names" version="0" value="/model/decoder/layers.0/self_attn/Concat_7" />
			</rt_info>
			<input>
				<port id="0" precision="I64">
					<dim>1</dim>
				</port>
				<port id="1" precision="I64">
					<dim>1</dim>
				</port>
				<port id="2" precision="I64">
					<dim>1</dim>
				</port>
			</input>
			<output>
				<port id="3" precision="I64" names="/model/decoder/layers.0/self_attn/Concat_7_output_0">
					<dim>3</dim>
				</port>
			</output>
		</layer>
		<layer id="195" name="/model/decoder/layers.0/self_attn/Reshape_7" type="Reshape" version="opset1">
			<data special_zero="true" />
			<rt_info>
				<attribute name="fused_names" version="0" value="/model/decoder/layers.0/self_attn/Reshape_7" />
			</rt_info>
			<input>
				<port id="0" precision="FP32">
					<dim>-1</dim>
					<dim>4</dim>
					<dim>-1</dim>
					<dim>-1</dim>
				</port>
				<port id="1" precision="I64">
					<dim>3</dim>
				</port>
			</input>
			<output>
				<port id="2" precision="FP32" names="/model/decoder/layers.0/self_attn/Reshape_7_output_0">
					<dim>-1</dim>
					<dim>-1</dim>
					<dim>-1</dim>
				</port>
			</output>
		</layer>
		<layer id="196" name="/model/decoder/layers.0/self_attn/Softmax" type="SoftMax" version="opset8">
			<data axis="2" />
			<rt_info>
				<attribute name="fused_names" version="0" value="/model/decoder/layers.0/self_attn/Softmax" />
			</rt_info>
			<input>
				<port id="0" precision="FP32">
					<dim>-1</dim>
					<dim>-1</dim>
					<dim>-1</dim>
				</port>
			</input>
			<output>
				<port id="1" precision="FP32" names="/model/decoder/layers.0/self_attn/Softmax_output_0">
					<dim>-1</dim>
					<dim>-1</dim>
					<dim>-1</dim>
				</port>
			</output>
		</layer>
		<layer id="197" name="onnx::MatMul_690" type="Const" version="opset1">
			<data element_type="f32" shape="16, 16" offset="73832" size="1024" />
			<rt_info>
				<attribute name="fused_names" version="0" value="onnx::MatMul_690" />
			</rt_info>
			<output>
				<port id="0" precision="FP32" names="onnx::MatMul_690">
					<dim>16</dim>
					<dim>16</dim>
				</port>
			</output>
		</layer>
		<layer id="198" name="/model/decoder/layers.0/self_attn/v_proj/MatMul" type="MatMul" version="opset1">
			<data transpose_a="false" transpose_b="false" />
			<rt_info>
				<attribute name="fused_names" version="0" value="/model/decoder/layers.0/self_attn/v_proj/MatMul" />
			</rt_info>
			<input>
				<port id="0" precision="FP32">
					<dim>-1</dim>
					<dim>-1</dim>
					<dim>16</dim>
				</port>
				<port id="1" precision="FP32">
					<dim>16</dim>
					<dim>16</dim>
				</port>
			</input>
			<output>
				<port id="2" precision="FP32" names="/model/decoder/layers.0/self_attn/v_proj/MatMul_output_0">
					<dim>-1</dim>
					<dim>-1</dim>
					<dim>16</dim>
				</port>
			</output>
		</layer>
		<layer id="199" name="/model/decoder/layers.0/self_attn/v_proj/Add" type="Add" version="opset1">
			<data auto_broadcast="numpy" />
			<rt_info>
				<attribute name="fused_names" version="0" value="/model/decoder/layers.0/self_attn/v_proj/Add" />
			</rt_info>
			<input>
				<port id="0" precision="FP32">
					<dim>16</dim>
				</port>
				<port id="1" precision="FP32">
					<dim>-1</dim>
					<dim>-1</dim>
					<dim>16</dim>
				</port>
			</input>
			<output>
				<port id="2" precision="FP32" names="/model/decoder/layers.0/self_attn/v_proj/Add_output_0">
					<dim>-1</dim>
					<dim>-1</dim>
					<dim>16</dim>
				</port>
			</output>
		</layer>
		<layer id="200" name="Constant_4730458" type="Const" version="opset1">
			<data element_type="i64" shape="1" offset="65088" size="8" />
			<rt_info>
				<attribute name="fused_names" version="0" value="Constant_4730458" />
			</rt_info>
			<output>
				<port id="0" precision="I64">
					<dim>1</dim>
				</port>
			</output>
		</layer>
		<layer id="201" name="/model/decoder/layers.0/self_attn/Unsqueeze_1" type="Unsqueeze" version="opset1">
			<rt_info>
				<attribute name="fused_names" version="0" value="/model/decoder/layers.0/self_attn/Unsqueeze_1, Constant_4730458" />
			</rt_info>
			<input>
				<port id="0" precision="I64" />
				<port id="1" precision="I64">
					<dim>1</dim>
				</port>
			</input>
			<output>
				<port id="2" precision="I64" names="/model/decoder/layers.0/self_attn/Unsqueeze_1_output_0">
					<dim>1</dim>
				</port>
			</output>
		</layer>
		<layer id="202" name="/model/decoder/layers.0/self_attn/Constant_6" type="Const" version="opset1">
			<data element_type="i64" shape="1" offset="71636" size="8" />
			<rt_info>
				<attribute name="fused_names" version="0" value="/model/decoder/layers.0/self_attn/Constant_6" />
			</rt_info>
			<output>
				<port id="0" precision="I64" names="/model/decoder/layers.0/self_attn/Constant_6_output_0">
					<dim>1</dim>
				</port>
			</output>
		</layer>
		<layer id="203" name="/model/decoder/layers.0/self_attn/Constant_7" type="Const" version="opset1">
			<data element_type="i64" shape="1" offset="72752" size="8" />
			<rt_info>
				<attribute name="fused_names" version="0" value="/model/decoder/layers.0/self_attn/Constant_7" />
			</rt_info>
			<output>
				<port id="0" precision="I64" names="/model/decoder/layers.0/self_attn/Constant_7_output_0">
					<dim>1</dim>
				</port>
			</output>
		</layer>
		<layer id="204" name="/model/decoder/layers.0/self_attn/Constant_8" type="Const" version="opset1">
			<data element_type="i64" shape="1" offset="72752" size="8" />
			<rt_info>
				<attribute name="fused_names" version="0" value="/model/decoder/layers.0/self_attn/Constant_8" />
			</rt_info>
			<output>
				<port id="0" precision="I64" names="/model/decoder/layers.0/self_attn/Constant_8_output_0">
					<dim>1</dim>
				</port>
			</output>
		</layer>
		<layer id="205" name="/model/decoder/layers.0/self_attn/Concat_1" type="Concat" version="opset1">
			<data axis="0" />
			<rt_info>
				<attribute name="fused_names" version="0" value="/model/decoder/layers.0/self_attn/Concat_1, /model/decoder/layers.0/self_attn/Constant_6, /model/decoder/layers.0/self_attn/Constant_7, /model/decoder/layers.0/self_attn/Constant_8" />
			</rt_info>
			<input>
				<port id="0" precision="I64">
					<dim>1</dim>
				</port>
				<port id="1" precision="I64">
					<dim>1</dim>
				</port>
				<port id="2" precision="I64">
					<dim>1</dim>
				</port>
				<port id="3" precision="I64">
					<dim>1</dim>
				</port>
			</input>
			<output>
				<port id="4" precision="I64" names="/model/decoder/layers.0/self_attn/Concat_1_output_0">
					<dim>4</dim>
				</port>
			</output>
		</layer>
		<layer id="206" name="/model/decoder/layers.0/self_attn/Reshape_1" type="Reshape" version="opset1">
			<data special_zero="true" />
			<rt_info>
				<attribute name="fused_names" version="0" value="/model/decoder/layers.0/self_attn/Reshape_1" />
			</rt_info>
			<input>
				<port id="0" precision="FP32">
					<dim>-1</dim>
					<dim>-1</dim>
					<dim>16</dim>
				</port>
				<port id="1" precision="I64">
					<dim>4</dim>
				</port>
			</input>
			<output>
				<port id="2" precision="FP32" names="/model/decoder/layers.0/self_attn/Reshape_1_output_0">
					<dim>-1</dim>
					<dim>-1</dim>
					<dim>4</dim>
					<dim>4</dim>
				</port>
			</output>
		</layer>
		<layer id="207" name="Constant_4730482" type="Const" version="opset1">
			<data element_type="i64" shape="4" offset="72760" size="32" />
			<rt_info>
				<attribute name="fused_names" version="0" value="Constant_4730482" />
			</rt_info>
			<output>
				<port id="0" precision="I64">
					<dim>4</dim>
				</port>
			</output>
		</layer>
		<layer id="208" name="present.0.decoder.value" type="Transpose" version="opset1">
			<rt_info>
				<attribute name="fused_names" version="0" value="present.0.decoder.value" />
			</rt_info>
			<input>
				<port id="0" precision="FP32">
					<dim>-1</dim>
					<dim>-1</dim>
					<dim>4</dim>
					<dim>4</dim>
				</port>
				<port id="1" precision="I64">
					<dim>4</dim>
				</port>
			</input>
			<output>
				<port id="2" precision="FP32" names="present.0.decoder.value">
					<dim>-1</dim>
					<dim>4</dim>
					<dim>-1</dim>
					<dim>4</dim>
				</port>
			</output>
		</layer>
		<layer id="209" name="Constant_4730516" type="Const" version="opset1">
			<data element_type="i64" shape="1" offset="65088" size="8" />
			<rt_info>
				<attribute name="fused_names" version="0" value="Constant_4730516" />
			</rt_info>
			<output>
				<port id="0" precision="I64">
					<dim>1</dim>
				</port>
			</output>
		</layer>
		<layer id="210" name="/model/decoder/layers.0/self_attn/Unsqueeze_6" type="Unsqueeze" version="opset1">
			<rt_info>
				<attribute name="fused_names" version="0" value="/model/decoder/layers.0/self_attn/Unsqueeze_6, Constant_4730516" />
			</rt_info>
			<input>
				<port id="0" precision="I64" />
				<port id="1" precision="I64">
					<dim>1</dim>
				</port>
			</input>
			<output>
				<port id="2" precision="I64" names="/model/decoder/layers.0/self_attn/Unsqueeze_6_output_0">
					<dim>1</dim>
				</port>
			</output>
		</layer>
		<layer id="211" name="/model/decoder/layers.0/self_attn/Constant_16" type="Const" version="opset1">
			<data element_type="i64" shape="1" offset="71636" size="8" />
			<rt_info>
				<attribute name="fused_names" version="0" value="/model/decoder/layers.0/self_attn/Constant_16" />
			</rt_info>
			<output>
				<port id="0" precision="I64" names="/model/decoder/layers.0/self_attn/Constant_16_output_0">
					<dim>1</dim>
				</port>
			</output>
		</layer>
		<layer id="212" name="/model/decoder/layers.0/self_attn/Constant_17" type="Const" version="opset1">
			<data element_type="i64" shape="1" offset="72752" size="8" />
			<rt_info>
				<attribute name="fused_names" version="0" value="/model/decoder/layers.0/self_attn/Constant_17" />
			</rt_info>
			<output>
				<port id="0" precision="I64" names="/model/decoder/layers.0/self_attn/Constant_17_output_0">
					<dim>1</dim>
				</port>
			</output>
		</layer>
		<layer id="213" name="/model/decoder/layers.0/self_attn/Concat_5" type="Concat" version="opset1">
			<data axis="0" />
			<rt_info>
				<attribute name="fused_names" version="0" value="/model/decoder/layers.0/self_attn/Concat_5, /model/decoder/layers.0/self_attn/Constant_16, /model/decoder/layers.0/self_attn/Constant_17" />
			</rt_info>
			<input>
				<port id="0" precision="I64">
					<dim>1</dim>
				</port>
				<port id="1" precision="I64">
					<dim>1</dim>
				</port>
				<port id="2" precision="I64">
					<dim>1</dim>
				</port>
			</input>
			<output>
				<port id="3" precision="I64" names="/model/decoder/layers.0/self_attn/Concat_5_output_0">
					<dim>3</dim>
				</port>
			</output>
		</layer>
		<layer id="214" name="/model/decoder/layers.0/self_attn/Reshape_5" type="Reshape" version="opset1">
			<data special_zero="true" />
			<rt_info>
				<attribute name="fused_names" version="0" value="/model/decoder/layers.0/self_attn/Reshape_5" />
			</rt_info>
			<input>
				<port id="0" precision="FP32">
					<dim>-1</dim>
					<dim>4</dim>
					<dim>-1</dim>
					<dim>4</dim>
				</port>
				<port id="1" precision="I64">
					<dim>3</dim>
				</port>
			</input>
			<output>
				<port id="2" precision="FP32" names="/model/decoder/layers.0/self_attn/Reshape_5_output_0">
					<dim>-1</dim>
					<dim>-1</dim>
					<dim>4</dim>
				</port>
			</output>
		</layer>
		<layer id="215" name="/model/decoder/layers.0/self_attn/MatMul_1" type="MatMul" version="opset1">
			<data transpose_a="false" transpose_b="false" />
			<rt_info>
				<attribute name="fused_names" version="0" value="/model/decoder/layers.0/self_attn/MatMul_1" />
			</rt_info>
			<input>
				<port id="0" precision="FP32">
					<dim>-1</dim>
					<dim>-1</dim>
					<dim>-1</dim>
				</port>
				<port id="1" precision="FP32">
					<dim>-1</dim>
					<dim>-1</dim>
					<dim>4</dim>
				</port>
			</input>
			<output>
				<port id="2" precision="FP32" names="/model/decoder/layers.0/self_attn/MatMul_1_output_0">
					<dim>-1</dim>
					<dim>-1</dim>
					<dim>4</dim>
				</port>
			</output>
		</layer>
		<layer id="216" name="Constant_4730821" type="Const" version="opset1">
			<data element_type="i64" shape="1" offset="65088" size="8" />
			<rt_info>
				<attribute name="fused_names" version="0" value="Constant_4730821" />
			</rt_info>
			<output>
				<port id="0" precision="I64">
					<dim>1</dim>
				</port>
			</output>
		</layer>
		<layer id="217" name="/model/decoder/layers.0/self_attn/Unsqueeze_13" type="Unsqueeze" version="opset1">
			<rt_info>
				<attribute name="fused_names" version="0" value="/model/decoder/layers.0/self_attn/Unsqueeze_13, Constant_4730821" />
			</rt_info>
			<input>
				<port id="0" precision="I64" />
				<port id="1" precision="I64">
					<dim>1</dim>
				</port>
			</input>
			<output>
				<port id="2" precision="I64" names="/model/decoder/layers.0/self_attn/Unsqueeze_13_output_0">
					<dim>1</dim>
				</port>
			</output>
		</layer>
		<layer id="218" name="/model/decoder/layers.0/self_attn/Constant_20" type="Const" version="opset1">
			<data element_type="i64" shape="1" offset="72752" size="8" />
			<rt_info>
				<attribute name="fused_names" version="0" value="/model/decoder/layers.0/self_attn/Constant_20" />
			</rt_info>
			<output>
				<port id="0" precision="I64" names="/model/decoder/layers.0/self_attn/Constant_20_output_0">
					<dim>1</dim>
				</port>
			</output>
		</layer>
		<layer id="219" name="Constant_4730824" type="Const" version="opset1">
			<data element_type="i64" shape="1" offset="65088" size="8" />
			<rt_info>
				<attribute name="fused_names" version="0" value="Constant_4730824" />
			</rt_info>
			<output>
				<port id="0" precision="I64">
					<dim>1</dim>
				</port>
			</output>
		</layer>
		<layer id="220" name="/model/decoder/layers.0/self_attn/Unsqueeze_14" type="Unsqueeze" version="opset1">
			<rt_info>
				<attribute name="fused_names" version="0" value="/model/decoder/layers.0/self_attn/Unsqueeze_14, Constant_4730824" />
			</rt_info>
			<input>
				<port id="0" precision="I64" />
				<port id="1" precision="I64">
					<dim>1</dim>
				</port>
			</input>
			<output>
				<port id="2" precision="I64" names="/model/decoder/layers.0/self_attn/Unsqueeze_14_output_0">
					<dim>1</dim>
				</port>
			</output>
		</layer>
		<layer id="221" name="/model/decoder/layers.0/self_attn/Constant_21" type="Const" version="opset1">
			<data element_type="i64" shape="1" offset="72752" size="8" />
			<rt_info>
				<attribute name="fused_names" version="0" value="/model/decoder/layers.0/self_attn/Constant_21" />
			</rt_info>
			<output>
				<port id="0" precision="I64" names="/model/decoder/layers.0/self_attn/Constant_21_output_0">
					<dim>1</dim>
				</port>
			</output>
		</layer>
		<layer id="222" name="/model/decoder/layers.0/self_attn/Concat_8" type="Concat" version="opset1">
			<data axis="0" />
			<rt_info>
				<attribute name="fused_names" version="0" value="/model/decoder/layers.0/self_attn/Concat_8, /model/decoder/layers.0/self_attn/Constant_20, /model/decoder/layers.0/self_attn/Constant_21" />
			</rt_info>
			<input>
				<port id="0" precision="I64">
					<dim>1</dim>
				</port>
				<port id="1" precision="I64">
					<dim>1</dim>
				</port>
				<port id="2" precision="I64">
					<dim>1</dim>
				</port>
				<port id="3" precision="I64">
					<dim>1</dim>
				</port>
			</input>
			<output>
				<port id="4" precision="I64" names="/model/decoder/layers.0/self_attn/Concat_8_output_0">
					<dim>4</dim>
				</port>
			</output>
		</layer>
		<layer id="223" name="/model/decoder/layers.0/self_attn/Reshape_8" type="Reshape" version="opset1">
			<data special_zero="true" />
			<rt_info>
				<attribute name="fused_names" version="0" value="/model/decoder/layers.0/self_attn/Reshape_8" />
			</rt_info>
			<input>
				<port id="0" precision="FP32">
					<dim>-1</dim>
					<dim>-1</dim>
					<dim>4</dim>
				</port>
				<port id="1" precision="I64">
					<dim>4</dim>
				</port>
			</input>
			<output>
				<port id="2" precision="FP32" names="/model/decoder/layers.0/self_attn/Reshape_8_output_0">
					<dim>-1</dim>
					<dim>4</dim>
					<dim>-1</dim>
					<dim>4</dim>
				</port>
			</output>
		</layer>
		<layer id="224" name="Constant_4730839" type="Const" version="opset1">
			<data element_type="i64" shape="4" offset="72760" size="32" />
			<rt_info>
				<attribute name="fused_names" version="0" value="Constant_4730839" />
			</rt_info>
			<output>
				<port id="0" precision="I64">
					<dim>4</dim>
				</port>
			</output>
		</layer>
		<layer id="225" name="/model/decoder/layers.0/self_attn/Transpose_4" type="Transpose" version="opset1">
			<rt_info>
				<attribute name="fused_names" version="0" value="/model/decoder/layers.0/self_attn/Transpose_4" />
			</rt_info>
			<input>
				<port id="0" precision="FP32">
					<dim>-1</dim>
					<dim>4</dim>
					<dim>-1</dim>
					<dim>4</dim>
				</port>
				<port id="1" precision="I64">
					<dim>4</dim>
				</port>
			</input>
			<output>
				<port id="2" precision="FP32" names="/model/decoder/layers.0/self_attn/Transpose_4_output_0">
					<dim>-1</dim>
					<dim>-1</dim>
					<dim>4</dim>
					<dim>4</dim>
				</port>
			</output>
		</layer>
		<layer id="226" name="Constant_4730841" type="Const" version="opset1">
			<data element_type="i64" shape="1" offset="65088" size="8" />
			<rt_info>
				<attribute name="fused_names" version="0" value="Constant_4730841" />
			</rt_info>
			<output>
				<port id="0" precision="I64">
					<dim>1</dim>
				</port>
			</output>
		</layer>
		<layer id="227" name="/model/decoder/layers.0/self_attn/Unsqueeze_15" type="Unsqueeze" version="opset1">
			<rt_info>
				<attribute name="fused_names" version="0" value="/model/decoder/layers.0/self_attn/Unsqueeze_15, Constant_4730841" />
			</rt_info>
			<input>
				<port id="0" precision="I64" />
				<port id="1" precision="I64">
					<dim>1</dim>
				</port>
			</input>
			<output>
				<port id="2" precision="I64" names="/model/decoder/layers.0/self_attn/Unsqueeze_15_output_0">
					<dim>1</dim>
				</port>
			</output>
		</layer>
		<layer id="228" name="Constant_4730843" type="Const" version="opset1">
			<data element_type="i64" shape="1" offset="65088" size="8" />
			<rt_info>
				<attribute name="fused_names" version="0" value="Constant_4730843" />
			</rt_info>
			<output>
				<port id="0" precision="I64">
					<dim>1</dim>
				</port>
			</output>
		</layer>
		<layer id="229" name="/model/decoder/layers.0/self_attn/Unsqueeze_16" type="Unsqueeze" version="opset1">
			<rt_info>
				<attribute name="fused_names" version="0" value="/model/decoder/layers.0/self_attn/Unsqueeze_16, Constant_4730843" />
			</rt_info>
			<input>
				<port id="0" precision="I64" />
				<port id="1" precision="I64">
					<dim>1</dim>
				</port>
			</input>
			<output>
				<port id="2" precision="I64" names="/model/decoder/layers.0/self_attn/Unsqueeze_16_output_0">
					<dim>1</dim>
				</port>
			</output>
		</layer>
		<layer id="230" name="/model/decoder/layers.0/self_attn/Constant_22" type="Const" version="opset1">
			<data element_type="i64" shape="1" offset="74856" size="8" />
			<rt_info>
				<attribute name="fused_names" version="0" value="/model/decoder/layers.0/self_attn/Constant_22" />
			</rt_info>
			<output>
				<port id="0" precision="I64" names="/model/decoder/layers.0/self_attn/Constant_22_output_0">
					<dim>1</dim>
				</port>
			</output>
		</layer>
		<layer id="231" name="/model/decoder/layers.0/self_attn/Concat_9" type="Concat" version="opset1">
			<data axis="0" />
			<rt_info>
				<attribute name="fused_names" version="0" value="/model/decoder/layers.0/self_attn/Concat_9, /model/decoder/layers.0/self_attn/Constant_22" />
			</rt_info>
			<input>
				<port id="0" precision="I64">
					<dim>1</dim>
				</port>
				<port id="1" precision="I64">
					<dim>1</dim>
				</port>
				<port id="2" precision="I64">
					<dim>1</dim>
				</port>
			</input>
			<output>
				<port id="3" precision="I64" names="/model/decoder/layers.0/self_attn/Concat_9_output_0">
					<dim>3</dim>
				</port>
			</output>
		</layer>
		<layer id="232" name="/model/decoder/layers.0/self_attn/Reshape_9" type="Reshape" version="opset1">
			<data special_zero="true" />
			<rt_info>
				<attribute name="fused_names" version="0" value="/model/decoder/layers.0/self_attn/Reshape_9" />
			</rt_info>
			<input>
				<port id="0" precision="FP32">
					<dim>-1</dim>
					<dim>-1</dim>
					<dim>4</dim>
					<dim>4</dim>
				</port>
				<port id="1" precision="I64">
					<dim>3</dim>
				</port>
			</input>
			<output>
				<port id="2" precision="FP32" names="/model/decoder/layers.0/self_attn/Reshape_9_output_0">
					<dim>-1</dim>
					<dim>-1</dim>
					<dim>16</dim>
				</port>
			</output>
		</layer>
		<layer id="233" name="onnx::MatMul_703" type="Const" version="opset1">
			<data element_type="f32" shape="16, 16" offset="74864" size="1024" />
			<rt_info>
				<attribute name="fused_names" version="0" value="onnx::MatMul_703" />
			</rt_info>
			<output>
				<port id="0" precision="FP32" names="onnx::MatMul_703">
					<dim>16</dim>
					<dim>16</dim>
				</port>
			</output>
		</layer>
		<layer id="234" name="/model/decoder/layers.0/self_attn/out_proj/MatMul" type="MatMul" version="opset1">
			<data transpose_a="false" transpose_b="false" />
			<rt_info>
				<attribute name="fused_names" version="0" value="/model/decoder/layers.0/self_attn/out_proj/MatMul" />
			</rt_info>
			<input>
				<port id="0" precision="FP32">
					<dim>-1</dim>
					<dim>-1</dim>
					<dim>16</dim>
				</port>
				<port id="1" precision="FP32">
					<dim>16</dim>
					<dim>16</dim>
				</port>
			</input>
			<output>
				<port id="2" precision="FP32" names="/model/decoder/layers.0/self_attn/out_proj/MatMul_output_0">
					<dim>-1</dim>
					<dim>-1</dim>
					<dim>16</dim>
				</port>
			</output>
		</layer>
		<layer id="235" name="/model/decoder/layers.0/self_attn/out_proj/Add" type="Add" version="opset1">
			<data auto_broadcast="numpy" />
			<rt_info>
				<attribute name="fused_names" version="0" value="/model/decoder/layers.0/self_attn/out_proj/Add" />
			</rt_info>
			<input>
				<port id="0" precision="FP32">
					<dim>16</dim>
				</port>
				<port id="1" precision="FP32">
					<dim>-1</dim>
					<dim>-1</dim>
					<dim>16</dim>
				</port>
			</input>
			<output>
				<port id="2" precision="FP32" names="/model/decoder/layers.0/self_attn/out_proj/Add_output_0">
					<dim>-1</dim>
					<dim>-1</dim>
					<dim>16</dim>
				</port>
			</output>
		</layer>
		<layer id="236" name="/model/decoder/layers.0/Add" type="Add" version="opset1">
			<data auto_broadcast="numpy" />
			<rt_info>
				<attribute name="fused_names" version="0" value="/model/decoder/layers.0/Add" />
			</rt_info>
			<input>
				<port id="0" precision="FP32">
					<dim>-1</dim>
					<dim>-1</dim>
					<dim>16</dim>
				</port>
				<port id="1" precision="FP32">
					<dim>-1</dim>
					<dim>-1</dim>
					<dim>16</dim>
				</port>
			</input>
			<output>
				<port id="2" precision="FP32" names="/model/decoder/layers.0/Add_output_0">
					<dim>-1</dim>
					<dim>-1</dim>
					<dim>16</dim>
				</port>
			</output>
		</layer>
		<layer id="237" name="Constant_4730861" type="Const" version="opset1">
			<data element_type="i64" shape="1" offset="71636" size="8" />
			<rt_info>
				<attribute name="fused_names" version="0" value="Constant_4730861" />
			</rt_info>
			<output>
				<port id="0" precision="I64">
					<dim>1</dim>
				</port>
			</output>
		</layer>
		<layer id="238" name="/model/decoder/layers.0/self_attn_layer_norm/ReduceMean" type="ReduceMean" version="opset1">
			<data keep_dims="true" />
			<rt_info>
				<attribute name="fused_names" version="0" value="/model/decoder/layers.0/self_attn_layer_norm/ReduceMean" />
			</rt_info>
			<input>
				<port id="0" precision="FP32">
					<dim>-1</dim>
					<dim>-1</dim>
					<dim>16</dim>
				</port>
				<port id="1" precision="I64">
					<dim>1</dim>
				</port>
			</input>
			<output>
				<port id="2" precision="FP32" names="/model/decoder/layers.0/self_attn_layer_norm/ReduceMean_output_0">
					<dim>-1</dim>
					<dim>-1</dim>
					<dim>1</dim>
				</port>
			</output>
		</layer>
		<layer id="239" name="/model/decoder/layers.0/self_attn_layer_norm/Sub" type="Subtract" version="opset1">
			<data auto_broadcast="numpy" />
			<rt_info>
				<attribute name="fused_names" version="0" value="/model/decoder/layers.0/self_attn_layer_norm/Sub" />
			</rt_info>
			<input>
				<port id="0" precision="FP32">
					<dim>-1</dim>
					<dim>-1</dim>
					<dim>16</dim>
				</port>
				<port id="1" precision="FP32">
					<dim>-1</dim>
					<dim>-1</dim>
					<dim>1</dim>
				</port>
			</input>
			<output>
				<port id="2" precision="FP32" names="/model/decoder/layers.0/self_attn_layer_norm/Sub_output_0">
					<dim>-1</dim>
					<dim>-1</dim>
					<dim>16</dim>
				</port>
			</output>
		</layer>
		<layer id="240" name="/model/decoder/layers.0/self_attn_layer_norm/Constant" type="Const" version="opset1">
			<data element_type="f32" shape="" offset="71652" size="4" />
			<rt_info>
				<attribute name="fused_names" version="0" value="/model/decoder/layers.0/self_attn_layer_norm/Constant" />
			</rt_info>
			<output>
				<port id="0" precision="FP32" names="/model/decoder/layers.0/self_attn_layer_norm/Constant_output_0" />
			</output>
		</layer>
		<layer id="241" name="/model/decoder/layers.0/self_attn_layer_norm/Pow" type="Power" version="opset1">
			<data auto_broadcast="numpy" />
			<rt_info>
				<attribute name="fused_names" version="0" value="/model/decoder/layers.0/self_attn_layer_norm/Pow" />
			</rt_info>
			<input>
				<port id="0" precision="FP32">
					<dim>-1</dim>
					<dim>-1</dim>
					<dim>16</dim>
				</port>
				<port id="1" precision="FP32" />
			</input>
			<output>
				<port id="2" precision="FP32" names="/model/decoder/layers.0/self_attn_layer_norm/Pow_output_0">
					<dim>-1</dim>
					<dim>-1</dim>
					<dim>16</dim>
				</port>
			</output>
		</layer>
		<layer id="242" name="Constant_4730866" type="Const" version="opset1">
			<data element_type="i64" shape="1" offset="71636" size="8" />
			<rt_info>
				<attribute name="fused_names" version="0" value="Constant_4730866" />
			</rt_info>
			<output>
				<port id="0" precision="I64">
					<dim>1</dim>
				</port>
			</output>
		</layer>
		<layer id="243" name="/model/decoder/layers.0/self_attn_layer_norm/ReduceMean_1" type="ReduceMean" version="opset1">
			<data keep_dims="true" />
			<rt_info>
				<attribute name="fused_names" version="0" value="/model/decoder/layers.0/self_attn_layer_norm/ReduceMean_1" />
			</rt_info>
			<input>
				<port id="0" precision="FP32">
					<dim>-1</dim>
					<dim>-1</dim>
					<dim>16</dim>
				</port>
				<port id="1" precision="I64">
					<dim>1</dim>
				</port>
			</input>
			<output>
				<port id="2" precision="FP32" names="/model/decoder/layers.0/self_attn_layer_norm/ReduceMean_1_output_0">
					<dim>-1</dim>
					<dim>-1</dim>
					<dim>1</dim>
				</port>
			</output>
		</layer>
		<layer id="244" name="/model/decoder/layers.0/self_attn_layer_norm/Constant_1" type="Const" version="opset1">
			<data element_type="f32" shape="" offset="71656" size="4" />
			<rt_info>
				<attribute name="fused_names" version="0" value="/model/decoder/layers.0/self_attn_layer_norm/Constant_1" />
			</rt_info>
			<output>
				<port id="0" precision="FP32" names="/model/decoder/layers.0/self_attn_layer_norm/Constant_1_output_0" />
			</output>
		</layer>
		<layer id="245" name="/model/decoder/layers.0/self_attn_layer_norm/Add" type="Add" version="opset1">
			<data auto_broadcast="numpy" />
			<rt_info>
				<attribute name="fused_names" version="0" value="/model/decoder/layers.0/self_attn_layer_norm/Add" />
			</rt_info>
			<input>
				<port id="0" precision="FP32">
					<dim>-1</dim>
					<dim>-1</dim>
					<dim>1</dim>
				</port>
				<port id="1" precision="FP32" />
			</input>
			<output>
				<port id="2" precision="FP32" names="/model/decoder/layers.0/self_attn_layer_norm/Add_output_0">
					<dim>-1</dim>
					<dim>-1</dim>
					<dim>1</dim>
				</port>
			</output>
		</layer>
		<layer id="246" name="/model/decoder/layers.0/self_attn_layer_norm/Sqrt" type="Sqrt" version="opset1">
			<rt_info>
				<attribute name="fused_names" version="0" value="/model/decoder/layers.0/self_attn_layer_norm/Sqrt" />
			</rt_info>
			<input>
				<port id="0" precision="FP32">
					<dim>-1</dim>
					<dim>-1</dim>
					<dim>1</dim>
				</port>
			</input>
			<output>
				<port id="1" precision="FP32" names="/model/decoder/layers.0/self_attn_layer_norm/Sqrt_output_0">
					<dim>-1</dim>
					<dim>-1</dim>
					<dim>1</dim>
				</port>
			</output>
		</layer>
		<layer id="247" name="/model/decoder/layers.0/self_attn_layer_norm/Div" type="Divide" version="opset1">
			<data auto_broadcast="numpy" m_pythondiv="true" />
			<rt_info>
				<attribute name="fused_names" version="0" value="/model/decoder/layers.0/self_attn_layer_norm/Div" />
			</rt_info>
			<input>
				<port id="0" precision="FP32">
					<dim>-1</dim>
					<dim>-1</dim>
					<dim>16</dim>
				</port>
				<port id="1" precision="FP32">
					<dim>-1</dim>
					<dim>-1</dim>
					<dim>1</dim>
				</port>
			</input>
			<output>
				<port id="2" precision="FP32" names="/model/decoder/layers.0/self_attn_layer_norm/Div_output_0">
					<dim>-1</dim>
					<dim>-1</dim>
					<dim>16</dim>
				</port>
			</output>
		</layer>
		<layer id="248" name="/model/decoder/layers.0/self_attn_layer_norm/Mul" type="Multiply" version="opset1">
			<data auto_broadcast="numpy" />
			<rt_info>
				<attribute name="fused_names" version="0" value="/model/decoder/layers.0/self_attn_layer_norm/Mul" />
			</rt_info>
			<input>
				<port id="0" precision="FP32">
					<dim>-1</dim>
					<dim>-1</dim>
					<dim>16</dim>
				</port>
				<port id="1" precision="FP32">
					<dim>16</dim>
				</port>
			</input>
			<output>
				<port id="2" precision="FP32" names="/model/decoder/layers.0/self_attn_layer_norm/Mul_output_0">
					<dim>-1</dim>
					<dim>-1</dim>
					<dim>16</dim>
				</port>
			</output>
		</layer>
		<layer id="249" name="/model/decoder/layers.0/self_attn_layer_norm/Add_1" type="Add" version="opset1">
			<data auto_broadcast="numpy" />
			<rt_info>
				<attribute name="fused_names" version="0" value="/model/decoder/layers.0/self_attn_layer_norm/Add_1" />
			</rt_info>
			<input>
				<port id="0" precision="FP32">
					<dim>-1</dim>
					<dim>-1</dim>
					<dim>16</dim>
				</port>
				<port id="1" precision="FP32">
					<dim>16</dim>
				</port>
			</input>
			<output>
				<port id="2" precision="FP32" names="/model/decoder/layers.0/self_attn_layer_norm/Add_1_output_0">
					<dim>-1</dim>
					<dim>-1</dim>
					<dim>16</dim>
				</port>
			</output>
		</layer>
		<layer id="250" name="onnx::MatMul_704" type="Const" version="opset1">
			<data element_type="f32" shape="16, 16" offset="75888" size="1024" />
			<rt_info>
				<attribute name="fused_names" version="0" value="onnx::MatMul_704" />
			</rt_info>
			<output>
				<port id="0" precision="FP32" names="onnx::MatMul_704">
					<dim>16</dim>
					<dim>16</dim>
				</port>
			</output>
		</layer>
		<layer id="251" name="/model/decoder/layers.0/encoder_attn/q_proj/MatMul" type="MatMul" version="opset1">
			<data transpose_a="false" transpose_b="false" />
			<rt_info>
				<attribute name="fused_names" version="0" value="/model/decoder/layers.0/encoder_attn/q_proj/MatMul" />
			</rt_info>
			<input>
				<port id="0" precision="FP32">
					<dim>-1</dim>
					<dim>-1</dim>
					<dim>16</dim>
				</port>
				<port id="1" precision="FP32">
					<dim>16</dim>
					<dim>16</dim>
				</port>
			</input>
			<output>
				<port id="2" precision="FP32" names="/model/decoder/layers.0/encoder_attn/q_proj/MatMul_output_0">
					<dim>-1</dim>
					<dim>-1</dim>
					<dim>16</dim>
				</port>
			</output>
		</layer>
		<layer id="252" name="/model/decoder/layers.0/encoder_attn/q_proj/Add" type="Add" version="opset1">
			<data auto_broadcast="numpy" />
			<rt_info>
				<attribute name="fused_names" version="0" value="/model/decoder/layers.0/encoder_attn/q_proj/Add" />
			</rt_info>
			<input>
				<port id="0" precision="FP32">
					<dim>16</dim>
				</port>
				<port id="1" precision="FP32">
					<dim>-1</dim>
					<dim>-1</dim>
					<dim>16</dim>
				</port>
			</input>
			<output>
				<port id="2" precision="FP32" names="/model/decoder/layers.0/encoder_attn/q_proj/Add_output_0">
					<dim>-1</dim>
					<dim>-1</dim>
					<dim>16</dim>
				</port>
			</output>
		</layer>
		<layer id="253" name="/model/decoder/layers.0/encoder_attn/Constant_2" type="Const" version="opset1">
			<data element_type="f32" shape="" offset="72748" size="4" />
			<rt_info>
				<attribute name="fused_names" version="0" value="/model/decoder/layers.0/encoder_attn/Constant_2" />
			</rt_info>
			<output>
				<port id="0" precision="FP32" names="/model/decoder/layers.0/encoder_attn/Constant_2_output_0" />
			</output>
		</layer>
		<layer id="254" name="/model/decoder/layers.0/encoder_attn/Mul" type="Multiply" version="opset1">
			<data auto_broadcast="numpy" />
			<rt_info>
				<attribute name="fused_names" version="0" value="/model/decoder/layers.0/encoder_attn/Mul" />
			</rt_info>
			<input>
				<port id="0" precision="FP32">
					<dim>-1</dim>
					<dim>-1</dim>
					<dim>16</dim>
				</port>
				<port id="1" precision="FP32" />
			</input>
			<output>
				<port id="2" precision="FP32" names="/model/decoder/layers.0/encoder_attn/Mul_output_0">
					<dim>-1</dim>
					<dim>-1</dim>
					<dim>16</dim>
				</port>
			</output>
		</layer>
		<layer id="255" name="/model/decoder/layers.0/encoder_attn/Shape" type="ShapeOf" version="opset3">
			<data output_type="i64" />
			<rt_info>
				<attribute name="fused_names" version="0" value="/model/decoder/layers.0/encoder_attn/Shape" />
			</rt_info>
			<input>
				<port id="0" precision="FP32">
					<dim>-1</dim>
					<dim>-1</dim>
					<dim>16</dim>
				</port>
			</input>
			<output>
				<port id="1" precision="I64" names="/model/decoder/layers.0/encoder_attn/Shape_output_0">
					<dim>3</dim>
				</port>
			</output>
		</layer>
		<layer id="256" name="/model/decoder/layers.0/encoder_attn/Constant" type="Const" version="opset1">
			<data element_type="i64" shape="" offset="65088" size="8" />
			<rt_info>
				<attribute name="fused_names" version="0" value="/model/decoder/layers.0/encoder_attn/Constant" />
			</rt_info>
			<output>
				<port id="0" precision="I64" names="/model/decoder/layers.0/encoder_attn/Constant_output_0" />
			</output>
		</layer>
		<layer id="257" name="Constant_4730876" type="Const" version="opset1">
			<data element_type="i64" shape="" offset="65088" size="8" />
			<rt_info>
				<attribute name="fused_names" version="0" value="Constant_4730876" />
			</rt_info>
			<output>
				<port id="0" precision="I64" />
			</output>
		</layer>
		<layer id="258" name="/model/decoder/layers.0/encoder_attn/Gather" type="Gather" version="opset8">
			<data batch_dims="0" />
			<rt_info>
				<attribute name="fused_names" version="0" value="/model/decoder/layers.0/encoder_attn/Constant, /model/decoder/layers.0/encoder_attn/Gather, Constant_4730876" />
			</rt_info>
			<input>
				<port id="0" precision="I64">
					<dim>3</dim>
				</port>
				<port id="1" precision="I64" />
				<port id="2" precision="I64" />
			</input>
			<output>
				<port id="3" precision="I64" names="/model/decoder/layers.0/encoder_attn/Gather_output_0" />
			</output>
		</layer>
		<layer id="259" name="Constant_4730922" type="Const" version="opset1">
			<data element_type="i64" shape="1" offset="65088" size="8" />
			<rt_info>
				<attribute name="fused_names" version="0" value="Constant_4730922" />
			</rt_info>
			<output>
				<port id="0" precision="I64">
					<dim>1</dim>
				</port>
			</output>
		</layer>
		<layer id="260" name="/model/decoder/layers.0/encoder_attn/Unsqueeze_2" type="Unsqueeze" version="opset1">
			<rt_info>
				<attribute name="fused_names" version="0" value="/model/decoder/layers.0/encoder_attn/Unsqueeze_2, Constant_4730922" />
			</rt_info>
			<input>
				<port id="0" precision="I64" />
				<port id="1" precision="I64">
					<dim>1</dim>
				</port>
			</input>
			<output>
				<port id="2" precision="I64" names="/model/decoder/layers.0/encoder_attn/Unsqueeze_2_output_0">
					<dim>1</dim>
				</port>
			</output>
		</layer>
		<layer id="261" name="/model/decoder/layers.0/encoder_attn/Shape_1" type="ShapeOf" version="opset3">
			<data output_type="i64" />
			<rt_info>
				<attribute name="fused_names" version="0" value="/model/decoder/layers.0/encoder_attn/Shape_1" />
			</rt_info>
			<input>
				<port id="0" precision="FP32">
					<dim>-1</dim>
					<dim>-1</dim>
					<dim>16</dim>
				</port>
			</input>
			<output>
				<port id="1" precision="I64" names="/model/decoder/layers.0/encoder_attn/Shape_1_output_0">
					<dim>3</dim>
				</port>
			</output>
		</layer>
		<layer id="262" name="/model/decoder/layers.0/encoder_attn/Constant_1" type="Const" version="opset1">
			<data element_type="i64" shape="" offset="71628" size="8" />
			<rt_info>
				<attribute name="fused_names" version="0" value="/model/decoder/layers.0/encoder_attn/Constant_1" />
			</rt_info>
			<output>
				<port id="0" precision="I64" names="/model/decoder/layers.0/encoder_attn/Constant_1_output_0" />
			</output>
		</layer>
		<layer id="263" name="Constant_4730880" type="Const" version="opset1">
			<data element_type="i64" shape="" offset="65088" size="8" />
			<rt_info>
				<attribute name="fused_names" version="0" value="Constant_4730880" />
			</rt_info>
			<output>
				<port id="0" precision="I64" />
			</output>
		</layer>
		<layer id="264" name="/model/decoder/layers.0/encoder_attn/Gather_1" type="Gather" version="opset8">
			<data batch_dims="0" />
			<rt_info>
				<attribute name="fused_names" version="0" value="/model/decoder/layers.0/encoder_attn/Constant_1, /model/decoder/layers.0/encoder_attn/Gather_1, Constant_4730880" />
			</rt_info>
			<input>
				<port id="0" precision="I64">
					<dim>3</dim>
				</port>
				<port id="1" precision="I64" />
				<port id="2" precision="I64" />
			</input>
			<output>
				<port id="3" precision="I64" names="/model/decoder/layers.0/encoder_attn/Gather_1_output_0" />
			</output>
		</layer>
		<layer id="265" name="Constant_4730924" type="Const" version="opset1">
			<data element_type="i64" shape="1" offset="65088" size="8" />
			<rt_info>
				<attribute name="fused_names" version="0" value="Constant_4730924" />
			</rt_info>
			<output>
				<port id="0" precision="I64">
					<dim>1</dim>
				</port>
			</output>
		</layer>
		<layer id="266" name="/model/decoder/layers.0/encoder_attn/Unsqueeze_3" type="Unsqueeze" version="opset1">
			<rt_info>
				<attribute name="fused_names" version="0" value="/model/decoder/layers.0/encoder_attn/Unsqueeze_3, Constant_4730924" />
			</rt_info>
			<input>
				<port id="0" precision="I64" />
				<port id="1" precision="I64">
					<dim>1</dim>
				</port>
			</input>
			<output>
				<port id="2" precision="I64" names="/model/decoder/layers.0/encoder_attn/Unsqueeze_3_output_0">
					<dim>1</dim>
				</port>
			</output>
		</layer>
		<layer id="267" name="/model/decoder/layers.0/encoder_attn/Constant_10" type="Const" version="opset1">
			<data element_type="i64" shape="1" offset="72752" size="8" />
			<rt_info>
				<attribute name="fused_names" version="0" value="/model/decoder/layers.0/encoder_attn/Constant_10" />
			</rt_info>
			<output>
				<port id="0" precision="I64" names="/model/decoder/layers.0/encoder_attn/Constant_10_output_0">
					<dim>1</dim>
				</port>
			</output>
		</layer>
		<layer id="268" name="/model/decoder/layers.0/encoder_attn/Constant_11" type="Const" version="opset1">
			<data element_type="i64" shape="1" offset="72752" size="8" />
			<rt_info>
				<attribute name="fused_names" version="0" value="/model/decoder/layers.0/encoder_attn/Constant_11" />
			</rt_info>
			<output>
				<port id="0" precision="I64" names="/model/decoder/layers.0/encoder_attn/Constant_11_output_0">
					<dim>1</dim>
				</port>
			</output>
		</layer>
		<layer id="269" name="/model/decoder/layers.0/encoder_attn/Concat_2" type="Concat" version="opset1">
			<data axis="0" />
			<rt_info>
				<attribute name="fused_names" version="0" value="/model/decoder/layers.0/encoder_attn/Concat_2, /model/decoder/layers.0/encoder_attn/Constant_10, /model/decoder/layers.0/encoder_attn/Constant_11" />
			</rt_info>
			<input>
				<port id="0" precision="I64">
					<dim>1</dim>
				</port>
				<port id="1" precision="I64">
					<dim>1</dim>
				</port>
				<port id="2" precision="I64">
					<dim>1</dim>
				</port>
				<port id="3" precision="I64">
					<dim>1</dim>
				</port>
			</input>
			<output>
				<port id="4" precision="I64" names="/model/decoder/layers.0/encoder_attn/Concat_2_output_0">
					<dim>4</dim>
				</port>
			</output>
		</layer>
		<layer id="270" name="/model/decoder/layers.0/encoder_attn/Reshape_2" type="Reshape" version="opset1">
			<data special_zero="true" />
			<rt_info>
				<attribute name="fused_names" version="0" value="/model/decoder/layers.0/encoder_attn/Reshape_2" />
			</rt_info>
			<input>
				<port id="0" precision="FP32">
					<dim>-1</dim>
					<dim>-1</dim>
					<dim>16</dim>
				</port>
				<port id="1" precision="I64">
					<dim>4</dim>
				</port>
			</input>
			<output>
				<port id="2" precision="FP32" names="/model/decoder/layers.0/encoder_attn/Reshape_2_output_0">
					<dim>-1</dim>
					<dim>-1</dim>
					<dim>4</dim>
					<dim>4</dim>
				</port>
			</output>
		</layer>
		<layer id="271" name="Constant_4730940" type="Const" version="opset1">
			<data element_type="i64" shape="4" offset="72760" size="32" />
			<rt_info>
				<attribute name="fused_names" version="0" value="Constant_4730940" />
			</rt_info>
			<output>
				<port id="0" precision="I64">
					<dim>4</dim>
				</port>
			</output>
		</layer>
		<layer id="272" name="/model/decoder/layers.0/encoder_attn/Transpose_2" type="Transpose" version="opset1">
			<rt_info>
				<attribute name="fused_names" version="0" value="/model/decoder/layers.0/encoder_attn/Transpose_2" />
			</rt_info>
			<input>
				<port id="0" precision="FP32">
					<dim>-1</dim>
					<dim>-1</dim>
					<dim>4</dim>
					<dim>4</dim>
				</port>
				<port id="1" precision="I64">
					<dim>4</dim>
				</port>
			</input>
			<output>
				<port id="2" precision="FP32" names="/model/decoder/layers.0/encoder_attn/Transpose_2_output_0">
					<dim>-1</dim>
					<dim>4</dim>
					<dim>-1</dim>
					<dim>4</dim>
				</port>
			</output>
		</layer>
		<layer id="273" name="/model/decoder/layers.0/encoder_attn/Constant_9" type="Const" version="opset1">
			<data element_type="i64" shape="" offset="72752" size="8" />
			<rt_info>
				<attribute name="fused_names" version="0" value="/model/decoder/layers.0/encoder_attn/Constant_9" />
			</rt_info>
			<output>
				<port id="0" precision="I64" names="/model/decoder/layers.0/encoder_attn/Constant_9_output_0" />
			</output>
		</layer>
		<layer id="274" name="/model/decoder/layers.0/encoder_attn/Mul_1" type="Multiply" version="opset1">
			<data auto_broadcast="numpy" />
			<rt_info>
				<attribute name="fused_names" version="0" value="/model/decoder/layers.0/encoder_attn/Constant_9, /model/decoder/layers.0/encoder_attn/Mul_1" />
			</rt_info>
			<input>
				<port id="0" precision="I64" />
				<port id="1" precision="I64" />
			</input>
			<output>
				<port id="2" precision="I64" names="/model/decoder/layers.0/encoder_attn/Mul_1_output_0" />
			</output>
		</layer>
		<layer id="275" name="Constant_4730942" type="Const" version="opset1">
			<data element_type="i64" shape="1" offset="65088" size="8" />
			<rt_info>
				<attribute name="fused_names" version="0" value="Constant_4730942" />
			</rt_info>
			<output>
				<port id="0" precision="I64">
					<dim>1</dim>
				</port>
			</output>
		</layer>
		<layer id="276" name="/model/decoder/layers.0/encoder_attn/Unsqueeze_4" type="Unsqueeze" version="opset1">
			<rt_info>
				<attribute name="fused_names" version="0" value="/model/decoder/layers.0/encoder_attn/Unsqueeze_4, Constant_4730942" />
			</rt_info>
			<input>
				<port id="0" precision="I64" />
				<port id="1" precision="I64">
					<dim>1</dim>
				</port>
			</input>
			<output>
				<port id="2" precision="I64" names="/model/decoder/layers.0/encoder_attn/Unsqueeze_4_output_0">
					<dim>1</dim>
				</port>
			</output>
		</layer>
		<layer id="277" name="/model/decoder/layers.0/encoder_attn/Constant_12" type="Const" version="opset1">
			<data element_type="i64" shape="1" offset="71636" size="8" />
			<rt_info>
				<attribute name="fused_names" version="0" value="/model/decoder/layers.0/encoder_attn/Constant_12" />
			</rt_info>
			<output>
				<port id="0" precision="I64" names="/model/decoder/layers.0/encoder_attn/Constant_12_output_0">
					<dim>1</dim>
				</port>
			</output>
		</layer>
		<layer id="278" name="/model/decoder/layers.0/encoder_attn/Constant_13" type="Const" version="opset1">
			<data element_type="i64" shape="1" offset="72752" size="8" />
			<rt_info>
				<attribute name="fused_names" version="0" value="/model/decoder/layers.0/encoder_attn/Constant_13" />
			</rt_info>
			<output>
				<port id="0" precision="I64" names="/model/decoder/layers.0/encoder_attn/Constant_13_output_0">
					<dim>1</dim>
				</port>
			</output>
		</layer>
		<layer id="279" name="/model/decoder/layers.0/encoder_attn/Concat_3" type="Concat" version="opset1">
			<data axis="0" />
			<rt_info>
				<attribute name="fused_names" version="0" value="/model/decoder/layers.0/encoder_attn/Concat_3, /model/decoder/layers.0/encoder_attn/Constant_12, /model/decoder/layers.0/encoder_attn/Constant_13" />
			</rt_info>
			<input>
				<port id="0" precision="I64">
					<dim>1</dim>
				</port>
				<port id="1" precision="I64">
					<dim>1</dim>
				</port>
				<port id="2" precision="I64">
					<dim>1</dim>
				</port>
			</input>
			<output>
				<port id="3" precision="I64" names="/model/decoder/layers.0/encoder_attn/Concat_3_output_0">
					<dim>3</dim>
				</port>
			</output>
		</layer>
		<layer id="280" name="/model/decoder/layers.0/encoder_attn/Reshape_3" type="Reshape" version="opset1">
			<data special_zero="true" />
			<rt_info>
				<attribute name="fused_names" version="0" value="/model/decoder/layers.0/encoder_attn/Reshape_3" />
			</rt_info>
			<input>
				<port id="0" precision="FP32">
					<dim>-1</dim>
					<dim>4</dim>
					<dim>-1</dim>
					<dim>4</dim>
				</port>
				<port id="1" precision="I64">
					<dim>3</dim>
				</port>
			</input>
			<output>
				<port id="2" precision="FP32" names="/model/decoder/layers.0/encoder_attn/Reshape_3_output_0">
					<dim>-1</dim>
					<dim>-1</dim>
					<dim>4</dim>
				</port>
			</output>
		</layer>
		<layer id="281" name="onnx::MatMul_705" type="Const" version="opset1">
			<data element_type="f32" shape="16, 16" offset="76912" size="1024" />
			<rt_info>
				<attribute name="fused_names" version="0" value="onnx::MatMul_705" />
			</rt_info>
			<output>
				<port id="0" precision="FP32" names="onnx::MatMul_705">
					<dim>16</dim>
					<dim>16</dim>
				</port>
			</output>
		</layer>
		<layer id="282" name="/model/decoder/layers.0/encoder_attn/k_proj/MatMul" type="MatMul" version="opset1">
			<data transpose_a="false" transpose_b="false" />
			<rt_info>
				<attribute name="fused_names" version="0" value="/model/decoder/layers.0/encoder_attn/k_proj/MatMul" />
			</rt_info>
			<input>
				<port id="0" precision="FP32">
					<dim>-1</dim>
					<dim>-1</dim>
					<dim>16</dim>
				</port>
				<port id="1" precision="FP32">
					<dim>16</dim>
					<dim>16</dim>
				</port>
			</input>
			<output>
				<port id="2" precision="FP32" names="/model/decoder/layers.0/encoder_attn/k_proj/MatMul_output_0">
					<dim>-1</dim>
					<dim>-1</dim>
					<dim>16</dim>
				</port>
			</output>
		</layer>
		<layer id="283" name="/model/decoder/layers.0/encoder_attn/k_proj/Add" type="Add" version="opset1">
			<data auto_broadcast="numpy" />
			<rt_info>
				<attribute name="fused_names" version="0" value="/model/decoder/layers.0/encoder_attn/k_proj/Add" />
			</rt_info>
			<input>
				<port id="0" precision="FP32">
					<dim>16</dim>
				</port>
				<port id="1" precision="FP32">
					<dim>-1</dim>
					<dim>-1</dim>
					<dim>16</dim>
				</port>
			</input>
			<output>
				<port id="2" precision="FP32" names="/model/decoder/layers.0/encoder_attn/k_proj/Add_output_0">
					<dim>-1</dim>
					<dim>-1</dim>
					<dim>16</dim>
				</port>
			</output>
		</layer>
		<layer id="284" name="Constant_4730888" type="Const" version="opset1">
			<data element_type="i64" shape="1" offset="65088" size="8" />
			<rt_info>
				<attribute name="fused_names" version="0" value="Constant_4730888" />
			</rt_info>
			<output>
				<port id="0" precision="I64">
					<dim>1</dim>
				</port>
			</output>
		</layer>
		<layer id="285" name="/model/decoder/layers.0/encoder_attn/Unsqueeze" type="Unsqueeze" version="opset1">
			<rt_info>
				<attribute name="fused_names" version="0" value="/model/decoder/layers.0/encoder_attn/Unsqueeze, Constant_4730888" />
			</rt_info>
			<input>
				<port id="0" precision="I64" />
				<port id="1" precision="I64">
					<dim>1</dim>
				</port>
			</input>
			<output>
				<port id="2" precision="I64" names="/model/decoder/layers.0/encoder_attn/Unsqueeze_output_0">
					<dim>1</dim>
				</port>
			</output>
		</layer>
		<layer id="286" name="/model/decoder/layers.0/encoder_attn/Constant_3" type="Const" version="opset1">
			<data element_type="i64" shape="1" offset="71636" size="8" />
			<rt_info>
				<attribute name="fused_names" version="0" value="/model/decoder/layers.0/encoder_attn/Constant_3" />
			</rt_info>
			<output>
				<port id="0" precision="I64" names="/model/decoder/layers.0/encoder_attn/Constant_3_output_0">
					<dim>1</dim>
				</port>
			</output>
		</layer>
		<layer id="287" name="/model/decoder/layers.0/encoder_attn/Constant_4" type="Const" version="opset1">
			<data element_type="i64" shape="1" offset="72752" size="8" />
			<rt_info>
				<attribute name="fused_names" version="0" value="/model/decoder/layers.0/encoder_attn/Constant_4" />
			</rt_info>
			<output>
				<port id="0" precision="I64" names="/model/decoder/layers.0/encoder_attn/Constant_4_output_0">
					<dim>1</dim>
				</port>
			</output>
		</layer>
		<layer id="288" name="/model/decoder/layers.0/encoder_attn/Constant_5" type="Const" version="opset1">
			<data element_type="i64" shape="1" offset="72752" size="8" />
			<rt_info>
				<attribute name="fused_names" version="0" value="/model/decoder/layers.0/encoder_attn/Constant_5" />
			</rt_info>
			<output>
				<port id="0" precision="I64" names="/model/decoder/layers.0/encoder_attn/Constant_5_output_0">
					<dim>1</dim>
				</port>
			</output>
		</layer>
		<layer id="289" name="/model/decoder/layers.0/encoder_attn/Concat" type="Concat" version="opset1">
			<data axis="0" />
			<rt_info>
				<attribute name="fused_names" version="0" value="/model/decoder/layers.0/encoder_attn/Concat, /model/decoder/layers.0/encoder_attn/Constant_3, /model/decoder/layers.0/encoder_attn/Constant_4, /model/decoder/layers.0/encoder_attn/Constant_5" />
			</rt_info>
			<input>
				<port id="0" precision="I64">
					<dim>1</dim>
				</port>
				<port id="1" precision="I64">
					<dim>1</dim>
				</port>
				<port id="2" precision="I64">
					<dim>1</dim>
				</port>
				<port id="3" precision="I64">
					<dim>1</dim>
				</port>
			</input>
			<output>
				<port id="4" precision="I64" names="/model/decoder/layers.0/encoder_attn/Concat_output_0">
					<dim>4</dim>
				</port>
			</output>
		</layer>
		<layer id="290" name="/model/decoder/layers.0/encoder_attn/Reshape" type="Reshape" version="opset1">
			<data special_zero="true" />
			<rt_info>
				<attribute name="fused_names" version="0" value="/model/decoder/layers.0/encoder_attn/Reshape" />
			</rt_info>
			<input>
				<port id="0" precision="FP32">
					<dim>-1</dim>
					<dim>-1</dim>
					<dim>16</dim>
				</port>
				<port id="1" precision="I64">
					<dim>4</dim>
				</port>
			</input>
			<output>
				<port id="2" precision="FP32" names="/model/decoder/layers.0/encoder_attn/Reshape_output_0">
					<dim>-1</dim>
					<dim>-1</dim>
					<dim>4</dim>
					<dim>4</dim>
				</port>
			</output>
		</layer>
		<layer id="291" name="Constant_4730907" type="Const" version="opset1">
			<data element_type="i64" shape="4" offset="72760" size="32" />
			<rt_info>
				<attribute name="fused_names" version="0" value="Constant_4730907" />
			</rt_info>
			<output>
				<port id="0" precision="I64">
					<dim>4</dim>
				</port>
			</output>
		</layer>
		<layer id="292" name="present.0.encoder.key" type="Transpose" version="opset1">
			<rt_info>
				<attribute name="fused_names" version="0" value="present.0.encoder.key" />
			</rt_info>
			<input>
				<port id="0" precision="FP32">
					<dim>-1</dim>
					<dim>-1</dim>
					<dim>4</dim>
					<dim>4</dim>
				</port>
				<port id="1" precision="I64">
					<dim>4</dim>
				</port>
			</input>
			<output>
				<port id="2" precision="FP32" names="present.0.encoder.key">
					<dim>-1</dim>
					<dim>4</dim>
					<dim>-1</dim>
					<dim>4</dim>
				</port>
			</output>
		</layer>
		<layer id="293" name="Constant_4730947" type="Const" version="opset1">
			<data element_type="i64" shape="1" offset="65088" size="8" />
			<rt_info>
				<attribute name="fused_names" version="0" value="Constant_4730947" />
			</rt_info>
			<output>
				<port id="0" precision="I64">
					<dim>1</dim>
				</port>
			</output>
		</layer>
		<layer id="294" name="/model/decoder/layers.0/encoder_attn/Unsqueeze_5" type="Unsqueeze" version="opset1">
			<rt_info>
				<attribute name="fused_names" version="0" value="/model/decoder/layers.0/encoder_attn/Unsqueeze_5, Constant_4730947" />
			</rt_info>
			<input>
				<port id="0" precision="I64" />
				<port id="1" precision="I64">
					<dim>1</dim>
				</port>
			</input>
			<output>
				<port id="2" precision="I64" names="/model/decoder/layers.0/encoder_attn/Unsqueeze_5_output_0">
					<dim>1</dim>
				</port>
			</output>
		</layer>
…
		<edge from-layer="93" from-port="0" to-layer="94" to-port="1" />
		<edge from-layer="94" from-port="2" to-layer="98" to-port="0" />
		<edge from-layer="95" from-port="0" to-layer="98" to-port="1" />
		<edge from-layer="96" from-port="0" to-layer="98" to-port="2" />
		<edge from-layer="97" from-port="0" to-layer="98" to-port="3" />
		<edge from-layer="98" from-port="4" to-layer="99" to-port="1" />
		<edge from-layer="99" from-port="2" to-layer="101" to-port="0" />
		<edge from-layer="100" from-port="0" to-layer="101" to-port="1" />
		<edge from-layer="101" from-port="2" to-layer="600" to-port="0" />
		<edge from-layer="101" from-port="2" to-layer="107" to-port="0" />
		<edge from-layer="102" from-port="0" to-layer="103" to-port="1" />
		<edge from-layer="103" from-port="2" to-layer="106" to-port="0" />
		<edge from-layer="104" from-port="0" to-layer="106" to-port="1" />
		<edge from-layer="105" from-port="0" to-layer="106" to-port="2" />
		<edge from-layer="106" from-port="3" to-layer="107" to-port="1" />
		<edge from-layer="107" from-port="2" to-layer="114" to-port="0" />
		<edge from-layer="107" from-port="2" to-layer="108" to-port="1" />
		<edge from-layer="108" from-port="2" to-layer="121" to-port="0" />
		<edge from-layer="109" from-port="0" to-layer="110" to-port="1" />
		<edge from-layer="110" from-port="2" to-layer="120" to-port="0" />
		<edge from-layer="111" from-port="0" to-layer="120" to-port="1" />
		<edge from-layer="112" from-port="0" to-layer="113" to-port="1" />
		<edge from-layer="113" from-port="2" to-layer="120" to-port="2" />
		<edge from-layer="114" from-port="1" to-layer="117" to-port="0" />
		<edge from-layer="115" from-port="0" to-layer="117" to-port="1" />
		<edge from-layer="116" from-port="0" to-layer="117" to-port="2" />
		<edge from-layer="117" from-port="3" to-layer="193" to-port="0" />
		<edge from-layer="117" from-port="3" to-layer="119" to-port="0" />
		<edge from-layer="118" from-port="0" to-layer="119" to-port="1" />
		<edge from-layer="119" from-port="2" to-layer="120" to-port="3" />
		<edge from-layer="120" from-port="4" to-layer="121" to-port="1" />
		<edge from-layer="121" from-port="2" to-layer="187" to-port="0" />
		<edge from-layer="122" from-port="0" to-layer="142" to-port="0" />
		<edge from-layer="123" from-port="0" to-layer="129" to-port="0" />
		<edge from-layer="124" from-port="0" to-layer="125" to-port="1" />
		<edge from-layer="125" from-port="2" to-layer="128" to-port="0" />
		<edge from-layer="126" from-port="0" to-layer="127" to-port="1" />
		<edge from-layer="127" from-port="2" to-layer="128" to-port="1" />
		<edge from-layer="128" from-port="2" to-layer="129" to-port="1" />
		<edge from-layer="129" from-port="2" to-layer="130" to-port="0" />
		<edge from-layer="129" from-port="2" to-layer="145" to-port="0" />
		<edge from-layer="129" from-port="2" to-layer="163" to-port="2" />
		<edge from-layer="130" from-port="1" to-layer="137" to-port="0" />
		<edge from-layer="131" from-port="0" to-layer="137" to-port="1" />
		<edge from-layer="132" from-port="0" to-layer="137" to-port="2" />
		<edge from-layer="133" from-port="0" to-layer="135" to-port="0" />
		<edge from-layer="134" from-port="0" to-layer="135" to-port="1" />
		<edge from-layer="135" from-port="2" to-layer="137" to-port="3" />
		<edge from-layer="136" from-port="0" to-layer="137" to-port="4" />
		<edge from-layer="137" from-port="5" to-layer="139" to-port="0" />
		<edge from-layer="138" from-port="0" to-layer="139" to-port="1" />
		<edge from-layer="139" from-port="2" to-layer="140" to-port="0" />
		<edge from-layer="140" from-port="1" to-layer="142" to-port="1" />
		<edge from-layer="141" from-port="0" to-layer="142" to-port="2" />
		<edge from-layer="142" from-port="3" to-layer="144" to-port="0" />
		<edge from-layer="142" from-port="3" to-layer="160" to-port="0" />
		<edge from-layer="143" from-port="0" to-layer="144" to-port="1" />
		<edge from-layer="144" from-port="2" to-layer="159" to-port="0" />
		<edge from-layer="145" from-port="1" to-layer="152" to-port="0" />
		<edge from-layer="146" from-port="0" to-layer="152" to-port="1" />
		<edge from-layer="147" from-port="0" to-layer="152" to-port="2" />
		<edge from-layer="148" from-port="0" to-layer="150" to-port="0" />
		<edge from-layer="149" from-port="0" to-layer="150" to-port="1" />
		<edge from-layer="150" from-port="2" to-layer="152" to-port="3" />
		<edge from-layer="151" from-port="0" to-layer="152" to-port="4" />
		<edge from-layer="152" from-port="5" to-layer="154" to-port="0" />
		<edge from-layer="153" from-port="0" to-layer="154" to-port="1" />
		<edge from-layer="154" from-port="2" to-layer="156" to-port="0" />
		<edge from-layer="155" from-port="0" to-layer="156" to-port="1" />
		<edge from-layer="156" from-port="2" to-layer="158" to-port="0" />
		<edge from-layer="157" from-port="0" to-layer="158" to-port="1" />
		<edge from-layer="158" from-port="2" to-layer="159" to-port="1" />
		<edge from-layer="159" from-port="2" to-layer="160" to-port="1" />
		<edge from-layer="160" from-port="2" to-layer="161" to-port="0" />
		<edge from-layer="161" from-port="1" to-layer="163" to-port="0" />
		<edge from-layer="162" from-port="0" to-layer="163" to-port="1" />
		<edge from-layer="163" from-port="3" to-layer="164" to-port="0" />
		<edge from-layer="164" from-port="1" to-layer="166" to-port="0" />
		<edge from-layer="165" from-port="0" to-layer="166" to-port="1" />
		<edge from-layer="166" from-port="2" to-layer="168" to-port="0" />
		<edge from-layer="167" from-port="0" to-layer="168" to-port="1" />
		<edge from-layer="168" from-port="2" to-layer="186" to-port="0" />
		<edge from-layer="169" from-port="0" to-layer="170" to-port="1" />
		<edge from-layer="170" from-port="2" to-layer="176" to-port="0" />
		<edge from-layer="171" from-port="0" to-layer="176" to-port="1" />
		<edge from-layer="172" from-port="0" to-layer="173" to-port="1" />
		<edge from-layer="173" from-port="2" to-layer="176" to-port="2" />
		<edge from-layer="174" from-port="0" to-layer="175" to-port="1" />
		<edge from-layer="175" from-port="2" to-layer="176" to-port="3" />
		<edge from-layer="176" from-port="4" to-layer="178" to-port="0" />
		<edge from-layer="177" from-port="0" to-layer="178" to-port="1" />
		<edge from-layer="178" from-port="2" to-layer="180" to-port="0" />
		<edge from-layer="178" from-port="2" to-layer="184" to-port="0" />
		<edge from-layer="178" from-port="2" to-layer="185" to-port="2" />
		<edge from-layer="179" from-port="0" to-layer="181" to-port="0" />
		<edge from-layer="180" from-port="1" to-layer="181" to-port="1" />
		<edge from-layer="181" from-port="2" to-layer="183" to-port="0" />
		<edge from-layer="181" from-port="2" to-layer="185" to-port="1" />
		<edge from-layer="182" from-port="0" to-layer="183" to-port="1" />
		<edge from-layer="183" from-port="2" to-layer="184" to-port="1" />
		<edge from-layer="184" from-port="2" to-layer="185" to-port="0" />
		<edge from-layer="185" from-port="3" to-layer="186" to-port="1" />
		<edge from-layer="186" from-port="2" to-layer="187" to-port="1" />
		<edge from-layer="186" from-port="2" to-layer="505" to-port="1" />
		<edge from-layer="187" from-port="2" to-layer="195" to-port="0" />
		<edge from-layer="188" from-port="0" to-layer="189" to-port="1" />
		<edge from-layer="189" from-port="2" to-layer="194" to-port="0" />
		<edge from-layer="190" from-port="0" to-layer="191" to-port="1" />
		<edge from-layer="191" from-port="2" to-layer="194" to-port="1" />
		<edge from-layer="192" from-port="0" to-layer="193" to-port="1" />
		<edge from-layer="193" from-port="2" to-layer="194" to-port="2" />
		<edge from-layer="194" from-port="3" to-layer="195" to-port="1" />
		<edge from-layer="195" from-port="2" to-layer="196" to-port="0" />
		<edge from-layer="196" from-port="1" to-layer="215" to-port="0" />
		<edge from-layer="197" from-port="0" to-layer="198" to-port="1" />
		<edge from-layer="198" from-port="2" to-layer="199" to-port="1" />
		<edge from-layer="199" from-port="2" to-layer="206" to-port="0" />
		<edge from-layer="200" from-port="0" to-layer="201" to-port="1" />
		<edge from-layer="201" from-port="2" to-layer="205" to-port="0" />
		<edge from-layer="202" from-port="0" to-layer="205" to-port="1" />
		<edge from-layer="203" from-port="0" to-layer="205" to-port="2" />
		<edge from-layer="204" from-port="0" to-layer="205" to-port="3" />
		<edge from-layer="205" from-port="4" to-layer="206" to-port="1" />
		<edge from-layer="206" from-port="2" to-layer="208" to-port="0" />
		<edge from-layer="207" from-port="0" to-layer="208" to-port="1" />
		<edge from-layer="208" from-port="2" to-layer="214" to-port="0" />
		<edge from-layer="208" from-port="2" to-layer="599" to-port="0" />
		<edge from-layer="209" from-port="0" to-layer="210" to-port="1" />
		<edge from-layer="210" from-port="2" to-layer="213" to-port="0" />
		<edge from-layer="211" from-port="0" to-layer="213" to-port="1" />
		<edge from-layer="212" from-port="0" to-layer="213" to-port="2" />
		<edge from-layer="213" from-port="3" to-layer="214" to-port="1" />
		<edge from-layer="214" from-port="2" to-layer="215" to-port="1" />
		<edge from-layer="215" from-port="2" to-layer="223" to-port="0" />
		<edge from-layer="216" from-port="0" to-layer="217" to-port="1" />
		<edge from-layer="217" from-port="2" to-layer="222" to-port="0" />
		<edge from-layer="218" from-port="0" to-layer="222" to-port="1" />
		<edge from-layer="219" from-port="0" to-layer="220" to-port="1" />
		<edge from-layer="220" from-port="2" to-layer="222" to-port="2" />
		<edge from-layer="221" from-port="0" to-layer="222" to-port="3" />
		<edge from-layer="222" from-port="4" to-layer="223" to-port="1" />
		<edge from-layer="223" from-port="2" to-layer="225" to-port="0" />
		<edge from-layer="224" from-port="0" to-layer="225" to-port="1" />
		<edge from-layer="225" from-port="2" to-layer="232" to-port="0" />
		<edge from-layer="226" from-port="0" to-layer="227" to-port="1" />
		<edge from-layer="227" from-port="2" to-layer="231" to-port="0" />
		<edge from-layer="228" from-port="0" to-layer="229" to-port="1" />
		<edge from-layer="229" from-port="2" to-layer="231" to-port="1" />
		<edge from-layer="230" from-port="0" to-layer="231" to-port="2" />
		<edge from-layer="231" from-port="3" to-layer="232" to-port="1" />
		<edge from-layer="232" from-port="2" to-layer="234" to-port="0" />
		<edge from-layer="233" from-port="0" to-layer="234" to-port="1" />
		<edge from-layer="234" from-port="2" to-layer="235" to-port="1" />
		<edge from-layer="235" from-port="2" to-layer="236" to-port="1" />
		<edge from-layer="236" from-port="2" to-layer="238" to-port="0" />
		<edge from-layer="236" from-port="2" to-layer="239" to-port="0" />
		<edge from-layer="237" from-port="0" to-layer="238" to-port="1" />
		<edge from-layer="238" from-port="2" to-layer="239" to-port="1" />
		<edge from-layer="239" from-port="2" to-layer="241" to-port="0" />
		<edge from-layer="239" from-port="2" to-layer="247" to-port="0" />
		<edge from-layer="240" from-port="0" to-layer="241" to-port="1" />
		<edge from-layer="241" from-port="2" to-layer="243" to-port="0" />
		<edge from-layer="242" from-port="0" to-layer="243" to-port="1" />
		<edge from-layer="243" from-port="2" to-layer="245" to-port="0" />
		<edge from-layer="244" from-port="0" to-layer="245" to-port="1" />
		<edge from-layer="245" from-port="2" to-layer="246" to-port="0" />
		<edge from-layer="246" from-port="1" to-layer="247" to-port="1" />
		<edge from-layer="247" from-port="2" to-layer="248" to-port="0" />
		<edge from-layer="248" from-port="2" to-layer="249" to-port="0" />
		<edge from-layer="249" from-port="2" to-layer="399" to-port="0" />
		<edge from-layer="249" from-port="2" to-layer="251" to-port="0" />
		<edge from-layer="249" from-port="2" to-layer="261" to-port="0" />
		<edge from-layer="249" from-port="2" to-layer="255" to-port="0" />
		<edge from-layer="250" from-port="0" to-layer="251" to-port="1" />
		<edge from-layer="251" from-port="2" to-layer="252" to-port="1" />
		<edge from-layer="252" from-port="2" to-layer="254" to-port="0" />
		<edge from-layer="253" from-port="0" to-layer="254" to-port="1" />
		<edge from-layer="254" from-port="2" to-layer="270" to-port="0" />
		<edge from-layer="255" from-port="1" to-layer="258" to-port="0" />
		<edge from-layer="256" from-port="0" to-layer="258" to-port="1" />
		<edge from-layer="257" from-port="0" to-layer="258" to-port="2" />
		<edge from-layer="258" from-port="3" to-layer="274" to-port="0" />
		<edge from-layer="258" from-port="3" to-layer="390" to-port="0" />
		<edge from-layer="258" from-port="3" to-layer="364" to-port="0" />
		<edge from-layer="258" from-port="3" to-layer="301" to-port="0" />
		<edge from-layer="258" from-port="3" to-layer="380" to-port="0" />
		<edge from-layer="258" from-port="3" to-layer="285" to-port="0" />
		<edge from-layer="258" from-port="3" to-layer="260" to-port="0" />
		<edge from-layer="259" from-port="0" to-layer="260" to-port="1" />
		<edge from-layer="260" from-port="2" to-layer="269" to-port="0" />
		<edge from-layer="261" from-port="1" to-layer="264" to-port="0" />
		<edge from-layer="262" from-port="0" to-layer="264" to-port="1" />
		<edge from-layer="263" from-port="0" to-layer="264" to-port="2" />
		<edge from-layer="264" from-port="3" to-layer="304" to-port="0" />
		<edge from-layer="264" from-port="3" to-layer="354" to-port="0" />
		<edge from-layer="264" from-port="3" to-layer="383" to-port="0" />
		<edge from-layer="264" from-port="3" to-layer="392" to-port="0" />
		<edge from-layer="264" from-port="3" to-layer="266" to-port="0" />
		<edge from-layer="265" from-port="0" to-layer="266" to-port="1" />
		<edge from-layer="266" from-port="2" to-layer="269" to-port="1" />
		<edge from-layer="267" from-port="0" to-layer="269" to-port="2" />
		<edge from-layer="268" from-port="0" to-layer="269" to-port="3" />
		<edge from-layer="269" from-port="4" to-layer="270" to-port="1" />
		<edge from-layer="270" from-port="2" to-layer="272" to-port="0" />
		<edge from-layer="271" from-port="0" to-layer="272" to-port="1" />
		<edge from-layer="272" from-port="2" to-layer="280" to-port="0" />
		<edge from-layer="273" from-port="0" to-layer="274" to-port="1" />
		<edge from-layer="274" from-port="2" to-layer="373" to-port="0" />
		<edge from-layer="274" from-port="2" to-layer="352" to-port="0" />
		<edge from-layer="274" from-port="2" to-layer="276" to-port="0" />
		<edge from-layer="274" from-port="2" to-layer="294" to-port="0" />
		<edge from-layer="275" from-port="0" to-layer="276" to-port="1" />
		<edge from-layer="276" from-port="2" to-layer="279" to-port="0" />
		<edge from-layer="277" from-port="0" to-layer="279" to-port="1" />
		<edge from-layer="278" from-port="0" to-layer="279" to-port="2" />
		<edge from-layer="279" from-port="3" to-layer="280" to-port="1" />
		<edge from-layer="280" from-port="2" to-layer="299" to-port="0" />
		<edge from-layer="281" from-port="0" to-layer="282" to-port="1" />
		<edge from-layer="282" from-port="2" to-layer="283" to-port="1" />
		<edge from-layer="283" from-port="2" to-layer="290" to-port="0" />
		<edge from-layer="284" from-port="0" to-layer="285" to-port="1" />
		<edge from-layer="285" from-port="2" to-layer="289" to-port="0" />
		<edge from-layer="286" from-port="0" to-layer="289" to-port="1" />
		<edge from-layer="287" from-port="0" to-layer="289" to-port="2" />
		<edge from-layer="288" from-port="0" to-layer="289" to-port="3" />
		<edge from-layer="289" from-port="4" to-layer="290" to-port="1" />
		<edge from-layer="290" from-port="2" to-layer="292" to-port="0" />
		<edge from-layer="291" from-port="0" to-layer="292" to-port="1" />
		<edge from-layer="292" from-port="2" to-layer="598" to-port="0" />
		<edge from-layer="292" from-port="2" to-layer="298" to-port="0" />
		<edge from-layer="293" from-port="0" to-layer="294" to-port="1" />
		<edge from-layer="294" from-port="2" to-layer="297" to-port="0" />
		<edge from-layer="295" from-port="0" to-layer="297" to-port="1" />
		<edge from-layer="296" from-port="0" to-layer="297" to-port="2" />
		<edge from-layer="297" from-port="3" to-layer="298" to-port="1" />
		<edge from-layer="298" from-port="2" to-layer="299" to-port="1" />
		<edge from-layer="298" from-port="2" to-layer="305" to-port="0" />
		<edge from-layer="299" from-port="2" to-layer="312" to-port="0" />
		<edge from-layer="300" from-port="0" to-layer="301" to-port="1" />
		<edge from-layer="301" from-port="2" to-layer="311" to-port="0" />
		<edge from-layer="302" from-port="0" to-layer="311" to-port="1" />
		<edge from-layer="303" from-port="0" to-layer="304" to-port="1" />
		<edge from-layer="304" from-port="2" to-layer="311" to-port="2" />
		<edge from-layer="305" from-port="1" to-layer="308" to-port="0" />
		<edge from-layer="306" from-port="0" to-layer="308" to-port="1" />
		<edge from-layer="307" from-port="0" to-layer="308" to-port="2" />
		<edge from-layer="308" from-port="3" to-layer="310" to-port="0" />
		<edge from-layer="308" from-port="3" to-layer="356" to-port="0" />
		<edge from-layer="309" from-port="0" to-layer="310" to-port="1" />
		<edge from-layer="310" from-port="2" to-layer="311" to-port="3" />
		<edge from-layer="311" from-port="4" to-layer="312" to-port="1" />
		<edge from-layer="312" from-port="2" to-layer="350" to-port="0" />
		<edge from-layer="313" from-port="0" to-layer="345" to-port="0" />
		<edge from-layer="314" from-port="0" to-layer="315" to-port="1" />
		<edge from-layer="315" from-port="2" to-layer="317" to-port="0" />
		<edge from-layer="316" from-port="0" to-layer="317" to-port="1" />
		<edge from-layer="317" from-port="2" to-layer="343" to-port="0" />
		<edge from-layer="318" from-port="1" to-layer="321" to-port="0" />
		<edge from-layer="319" from-port="0" to-layer="321" to-port="1" />
		<edge from-layer="320" from-port="0" to-layer="321" to-port="2" />
		<edge from-layer="321" from-port="3" to-layer="323" to-port="0" />
		<edge from-layer="322" from-port="0" to-layer="323" to-port="1" />
		<edge from-layer="323" from-port="2" to-layer="333" to-port="0" />
		<edge from-layer="324" from-port="0" to-layer="333" to-port="1" />
		<edge from-layer="325" from-port="0" to-layer="326" to-port="1" />
		<edge from-layer="326" from-port="2" to-layer="333" to-port="2" />
		<edge from-layer="327" from-port="1" to-layer="330" to-port="0" />
		<edge from-layer="328" from-port="0" to-layer="330" to-port="1" />
		<edge from-layer="329" from-port="0" to-layer="330" to-port="2" />
		<edge from-layer="330" from-port="3" to-layer="332" to-port="0" />
		<edge from-layer="331" from-port="0" to-layer="332" to-port="1" />
		<edge from-layer="332" from-port="2" to-layer="333" to-port="3" />
		<edge from-layer="333" from-port="4" to-layer="335" to-port="0" />
		<edge from-layer="334" from-port="0" to-layer="335" to-port="1" />
		<edge from-layer="335" from-port="2" to-layer="342" to-port="2" />
		<edge from-layer="335" from-port="2" to-layer="341" to-port="0" />
		<edge from-layer="335" from-port="2" to-layer="337" to-port="0" />
		<edge from-layer="336" from-port="0" to-layer="338" to-port="0" />
		<edge from-layer="337" from-port="1" to-layer="338" to-port="1" />
		<edge from-layer="338" from-port="2" to-layer="340" to-port="0" />
		<edge from-layer="338" from-port="2" to-layer="342" to-port="1" />
		<edge from-layer="339" from-port="0" to-layer="340" to-port="1" />
		<edge from-layer="340" from-port="2" to-layer="341" to-port="1" />
		<edge from-layer="341" from-port="2" to-layer="342" to-port="0" />
		<edge from-layer="342" from-port="3" to-layer="343" to-port="1" />
		<edge from-layer="343" from-port="2" to-layer="344" to-port="0" />
		<edge from-layer="344" from-port="1" to-layer="345" to-port="1" />
		<edge from-layer="345" from-port="2" to-layer="346" to-port="0" />
		<edge from-layer="345" from-port="2" to-layer="349" to-port="2" />
		<edge from-layer="346" from-port="1" to-layer="347" to-port="0" />
		<edge from-layer="347" from-port="1" to-layer="349" to-port="0" />
		<edge from-layer="348" from-port="0" to-layer="349" to-port="1" />
		<edge from-layer="349" from-port="3" to-layer="648" to-port="1" />
		<edge from-layer="349" from-port="3" to-layer="350" to-port="1" />
		<edge from-layer="350" from-port="2" to-layer="358" to-port="0" />
		<edge from-layer="351" from-port="0" to-layer="352" to-port="1" />
		<edge from-layer="352" from-port="2" to-layer="357" to-port="0" />
		<edge from-layer="353" from-port="0" to-layer="354" to-port="1" />
		<edge from-layer="354" from-port="2" to-layer="357" to-port="1" />
		<edge from-layer="355" from-port="0" to-layer="356" to-port="1" />
		<edge from-layer="356" from-port="2" to-layer="357" to-port="2" />
		<edge from-layer="357" from-port="3" to-layer="358" to-port="1" />
		<edge from-layer="358" from-port="2" to-layer="359" to-port="0" />
		<edge from-layer="359" from-port="1" to-layer="378" to-port="0" />
		<edge from-layer="360" from-port="0" to-layer="361" to-port="1" />
		<edge from-layer="361" from-port="2" to-layer="362" to-port="1" />
		<edge from-layer="362" from-port="2" to-layer="369" to-port="0" />
		<edge from-layer="363" from-port="0" to-layer="364" to-port="1" />
		<edge from-layer="364" from-port="2" to-layer="368" to-port="0" />
		<edge from-layer="365" from-port="0" to-layer="368" to-port="1" />
		<edge from-layer="366" from-port="0" to-layer="368" to-port="2" />
		<edge from-layer="367" from-port="0" to-layer="368" to-port="3" />
		<edge from-layer="368" from-port="4" to-layer="369" to-port="1" />
		<edge from-layer="369" from-port="2" to-layer="371" to-port="0" />
		<edge from-layer="370" from-port="0" to-layer="371" to-port="1" />
		<edge from-layer="371" from-port="2" to-layer="597" to-port="0" />
		<edge from-layer="371" from-port="2" to-layer="377" to-port="0" />
		<edge from-layer="372" from-port="0" to-layer="373" to-port="1" />
		<edge from-layer="373" from-port="2" to-layer="376" to-port="0" />
		<edge from-layer="374" from-port="0" to-layer="376" to-port="1" />
		<edge from-layer="375" from-port="0" to-layer="376" to-port="2" />
		<edge from-layer="376" from-port="3" to-layer="377" to-port="1" />
		<edge from-layer="377" from-port="2" to-layer="378" to-port="1" />
		<edge from-layer="378" from-port="2" to-layer="386" to-port="0" />
		<edge from-layer="379" from-port="0" to-layer="380" to-port="1" />
		<edge from-layer="380" from-port="2" to-layer="385" to-port="0" />
		<edge from-layer="381" from-port="0" to-layer="385" to-port="1" />
		<edge from-layer="382" from-port="0" to-layer="383" to-port="1" />
		<edge from-layer="383" from-port="2" to-layer="385" to-port="2" />
		<edge from-layer="384" from-port="0" to-layer="385" to-port="3" />
		<edge from-layer="385" from-port="4" to-layer="386" to-port="1" />
		<edge from-layer="386" from-port="2" to-layer="388" to-port="0" />
		<edge from-layer="387" from-port="0" to-layer="388" to-port="1" />
		<edge from-layer="388" from-port="2" to-layer="395" to-port="0" />
		<edge from-layer="389" from-port="0" to-layer="390" to-port="1" />
		<edge from-layer="390" from-port="2" to-layer="394" to-port="0" />
		<edge from-layer="391" from-port="0" to-layer="392" to-port="1" />
		<edge from-layer="392" from-port="2" to-layer="394" to-port="1" />
		<edge from-layer="393" from-port="0" to-layer="394" to-port="2" />
		<edge from-layer="394" from-port="3" to-layer="395" to-port="1" />
		<edge from-layer="395" from-port="2" to-layer="397" to-port="0" />
		<edge from-layer="396" from-port="0" to-layer="397" to-port="1" />
		<edge from-layer="397" from-port="2" to-layer="398" to-port="1" />
		<edge from-layer="398" from-port="2" to-layer="399" to-port="1" />
		<edge from-layer="399" from-port="2" to-layer="401" to-port="0" />
		<edge from-layer="399" from-port="2" to-layer="402" to-port="0" />
		<edge from-layer="400" from-port="0" to-layer="401" to-port="1" />
		<edge from-layer="401" from-port="2" to-layer="402" to-port="1" />
		<edge from-layer="402" from-port="2" to-layer="410" to-port="0" />
		<edge from-layer="402" from-port="2" to-layer="404" to-port="0" />
		<edge from-layer="403" from-port="0" to-layer="404" to-port="1" />
		<edge from-layer="404" from-port="2" to-layer="406" to-port="0" />
		<edge from-layer="405" from-port="0" to-layer="406" to-port="1" />
		<edge from-layer="406" from-port="2" to-layer="408" to-port="0" />
		<edge from-layer="407" from-port="0" to-layer="408" to-port="1" />
		<edge from-layer="408" from-port="2" to-layer="409" to-port="0" />
		<edge from-layer="409" from-port="1" to-layer="410" to-port="1" />
		<edge from-layer="410" from-port="2" to-layer="411" to-port="0" />
		<edge from-layer="411" from-port="2" to-layer="412" to-port="0" />
		<edge from-layer="412" from-port="2" to-layer="428" to-port="0" />
		<edge from-layer="412" from-port="2" to-layer="415" to-port="0" />
		<edge from-layer="413" from-port="0" to-layer="416" to-port="0" />
		<edge from-layer="413" from-port="0" to-layer="701" to-port="0" />
		<edge from-layer="414" from-port="0" to-layer="415" to-port="1" />
		<edge from-layer="415" from-port="2" to-layer="416" to-port="1" />
		<edge from-layer="416" from-port="2" to-layer="418" to-port="0" />
		<edge from-layer="416" from-port="2" to-layer="422" to-port="0" />
		<edge from-layer="417" from-port="0" to-layer="418" to-port="1" />
		<edge from-layer="418" from-port="2" to-layer="419" to-port="0" />
		<edge from-layer="419" from-port="1" to-layer="421" to-port="0" />
		<edge from-layer="420" from-port="0" to-layer="421" to-port="1" />
		<edge from-layer="421" from-port="2" to-layer="422" to-port="1" />
		<edge from-layer="422" from-port="2" to-layer="424" to-port="0" />
		<edge from-layer="423" from-port="0" to-layer="424" to-port="1" />
		<edge from-layer="424" from-port="2" to-layer="426" to-port="0" />
		<edge from-layer="425" from-port="0" to-layer="426" to-port="1" />
		<edge from-layer="426" from-port="2" to-layer="427" to-port="1" />
		<edge from-layer="427" from-port="2" to-layer="428" to-port="1" />
		<edge from-layer="428" from-port="2" to-layer="430" to-port="0" />
		<edge from-layer="428" from-port="2" to-layer="431" to-port="0" />
		<edge from-layer="429" from-port="0" to-layer="430" to-port="1" />
		<edge from-layer="430" from-port="2" to-layer="431" to-port="1" />
		<edge from-layer="431" from-port="2" to-layer="439" to-port="0" />
		<edge from-layer="431" from-port="2" to-layer="433" to-port="0" />
		<edge from-layer="432" from-port="0" to-layer="433" to-port="1" />
		<edge from-layer="433" from-port="2" to-layer="435" to-port="0" />
		<edge from-layer="434" from-port="0" to-layer="435" to-port="1" />
		<edge from-layer="435" from-port="2" to-layer="437" to-port="0" />
		<edge from-layer="436" from-port="0" to-layer="437" to-port="1" />
		<edge from-layer="437" from-port="2" to-layer="438" to-port="0" />
		<edge from-layer="438" from-port="1" to-layer="439" to-port="1" />
		<edge from-layer="439" from-port="2" to-layer="440" to-port="0" />
		<edge from-layer="440" from-port="2" to-layer="441" to-port="0" />
		<edge from-layer="441" from-port="2" to-layer="474" to-port="0" />
		<edge from-layer="441" from-port="2" to-layer="516" to-port="0" />
		<edge from-layer="441" from-port="2" to-layer="447" to-port="0" />
		<edge from-layer="441" from-port="2" to-layer="554" to-port="0" />
		<edge from-layer="441" from-port="2" to-layer="443" to-port="0" />
		<edge from-layer="441" from-port="2" to-layer="453" to-port="0" />
		<edge from-layer="442" from-port="0" to-layer="443" to-port="1" />
		<edge from-layer="443" from-port="2" to-layer="444" to-port="1" />
		<edge from-layer="444" from-port="2" to-layer="446" to-port="0" />
		<edge from-layer="445" from-port="0" to-layer="446" to-port="1" />
		<edge from-layer="446" from-port="2" to-layer="462" to-port="0" />
		<edge from-layer="447" from-port="1" to-layer="450" to-port="0" />
		<edge from-layer="448" from-port="0" to-layer="450" to-port="1" />
		<edge from-layer="449" from-port="0" to-layer="450" to-port="2" />
		<edge from-layer="450" from-port="3" to-layer="493" to-port="0" />
		<edge from-layer="450" from-port="3" to-layer="452" to-port="0" />
		<edge from-layer="450" from-port="3" to-layer="477" to-port="0" />
		<edge from-layer="450" from-port="3" to-layer="466" to-port="0" />
		<edge from-layer="450" from-port="3" to-layer="545" to-port="0" />
		<edge from-layer="450" from-port="3" to-layer="535" to-port="0" />
		<edge from-layer="450" from-port="3" to-layer="519" to-port="0" />
		<edge from-layer="451" from-port="0" to-layer="452" to-port="1" />
		<edge from-layer="452" from-port="2" to-layer="461" to-port="0" />
		<edge from-layer="453" from-port="1" to-layer="456" to-port="0" />
		<edge from-layer="454" from-port="0" to-layer="456" to-port="1" />
		<edge from-layer="455" from-port="0" to-layer="456" to-port="2" />
		<edge from-layer="456" from-port="3" to-layer="509" to-port="0" />
		<edge from-layer="456" from-port="3" to-layer="538" to-port="0" />
		<edge from-layer="456" from-port="3" to-layer="496" to-port="0" />
		<edge from-layer="456" from-port="3" to-layer="458" to-port="0" />
		<edge from-layer="456" from-port="3" to-layer="547" to-port="0" />
		<edge from-layer="457" from-port="0" to-layer="458" to-port="1" />
		<edge from-layer="458" from-port="2" to-layer="461" to-port="1" />
		<edge from-layer="459" from-port="0" to-layer="461" to-port="2" />
		<edge from-layer="460" from-port="0" to-layer="461" to-port="3" />
		<edge from-layer="461" from-port="4" to-layer="462" to-port="1" />
		<edge from-layer="462" from-port="2" to-layer="464" to-port="0" />
		<edge from-layer="463" from-port="0" to-layer="464" to-port="1" />
		<edge from-layer="464" from-port="2" to-layer="472" to-port="0" />
		<edge from-layer="465" from-port="0" to-layer="466" to-port="1" />
		<edge from-layer="466" from-port="2" to-layer="528" to-port="0" />
		<edge from-layer="466" from-port="2" to-layer="486" to-port="0" />
		<edge from-layer="466" from-port="2" to-layer="468" to-port="0" />
		<edge from-layer="466" from-port="2" to-layer="507" to-port="0" />
		<edge from-layer="467" from-port="0" to-layer="468" to-port="1" />
		<edge from-layer="468" from-port="2" to-layer="471" to-port="0" />
		<edge from-layer="469" from-port="0" to-layer="471" to-port="1" />
		<edge from-layer="470" from-port="0" to-layer="471" to-port="2" />
		<edge from-layer="471" from-port="3" to-layer="472" to-port="1" />
		<edge from-layer="472" from-port="2" to-layer="491" to-port="0" />
		<edge from-layer="473" from-port="0" to-layer="474" to-port="1" />
		<edge from-layer="474" from-port="2" to-layer="475" to-port="1" />
		<edge from-layer="475" from-port="2" to-layer="482" to-port="0" />
		<edge from-layer="476" from-port="0" to-layer="477" to-port="1" />
		<edge from-layer="477" from-port="2" to-layer="481" to-port="0" />
		<edge from-layer="478" from-port="0" to-layer="481" to-port="1" />
		<edge from-layer="479" from-port="0" to-layer="481" to-port="2" />
		<edge from-layer="480" from-port="0" to-layer="481" to-port="3" />
		<edge from-layer="481" from-port="4" to-layer="482" to-port="1" />
		<edge from-layer="482" from-port="2" to-layer="484" to-port="0" />
		<edge from-layer="483" from-port="0" to-layer="484" to-port="1" />
		<edge from-layer="484" from-port="2" to-layer="596" to-port="0" />
		<edge from-layer="484" from-port="2" to-layer="490" to-port="0" />
		<edge from-layer="485" from-port="0" to-layer="486" to-port="1" />
		<edge from-layer="486" from-port="2" to-layer="489" to-port="0" />
		<edge from-layer="487" from-port="0" to-layer="489" to-port="1" />
		<edge from-layer="488" from-port="0" to-layer="489" to-port="2" />
		<edge from-layer="489" from-port="3" to-layer="490" to-port="1" />
		<edge from-layer="490" from-port="2" to-layer="497" to-port="0" />
		<edge from-layer="490" from-port="2" to-layer="491" to-port="1" />
		<edge from-layer="491" from-port="2" to-layer="504" to-port="0" />
		<edge from-layer="492" from-port="0" to-layer="493" to-port="1" />
		<edge from-layer="493" from-port="2" to-layer="503" to-port="0" />
		<edge from-layer="494" from-port="0" to-layer="503" to-port="1" />
		<edge from-layer="495" from-port="0" to-layer="496" to-port="1" />
		<edge from-layer="496" from-port="2" to-layer="503" to-port="2" />
		<edge from-layer="497" from-port="1" to-layer="500" to-port="0" />
		<edge from-layer="498" from-port="0" to-layer="500" to-port="1" />
		<edge from-layer="499" from-port="0" to-layer="500" to-port="2" />
		<edge from-layer="500" from-port="3" to-layer="511" to-port="0" />
		<edge from-layer="500" from-port="3" to-layer="502" to-port="0" />
		<edge from-layer="501" from-port="0" to-layer="502" to-port="1" />
		<edge from-layer="502" from-port="2" to-layer="503" to-port="3" />
		<edge from-layer="503" from-port="4" to-layer="504" to-port="1" />
		<edge from-layer="504" from-port="2" to-layer="505" to-port="0" />
		<edge from-layer="505" from-port="2" to-layer="513" to-port="0" />
		<edge from-layer="506" from-port="0" to-layer="507" to-port="1" />
		<edge from-layer="507" from-port="2" to-layer="512" to-port="0" />
		<edge from-layer="508" from-port="0" to-layer="509" to-port="1" />
		<edge from-layer="509" from-port="2" to-layer="512" to-port="1" />
		<edge from-layer="510" from-port="0" to-layer="511" to-port="1" />
		<edge from-layer="511" from-port="2" to-layer="512" to-port="2" />
		<edge from-layer="512" from-port="3" to-layer="513" to-port="1" />
		<edge from-layer="513" from-port="2" to-layer="514" to-port="0" />
		<edge from-layer="514" from-port="1" to-layer="533" to-port="0" />
		<edge from-layer="515" from-port="0" to-layer="516" to-port="1" />
		<edge from-layer="516" from-port="2" to-layer="517" to-port="1" />
		<edge from-layer="517" from-port="2" to-layer="524" to-port="0" />
		<edge from-layer="518" from-port="0" to-layer="519" to-port="1" />
		<edge from-layer="519" from-port="2" to-layer="523" to-port="0" />
		<edge from-layer="520" from-port="0" to-layer="523" to-port="1" />
		<edge from-layer="521" from-port="0" to-layer="523" to-port="2" />
		<edge from-layer="522" from-port="0" to-layer="523" to-port="3" />
		<edge from-layer="523" from-port="4" to-layer="524" to-port="1" />
		<edge from-layer="524" from-port="2" to-layer="526" to-port="0" />
		<edge from-layer="525" from-port="0" to-layer="526" to-port="1" />
		<edge from-layer="526" from-port="2" to-layer="595" to-port="0" />
		<edge from-layer="526" from-port="2" to-layer="532" to-port="0" />
		<edge from-layer="527" from-port="0" to-layer="528" to-port="1" />
		<edge from-layer="528" from-port="2" to-layer="531" to-port="0" />
		<edge from-layer="529" from-port="0" to-layer="531" to-port="1" />
		<edge from-layer="530" from-port="0" to-layer="531" to-port="2" />
		<edge from-layer="531" from-port="3" to-layer="532" to-port="1" />
		<edge from-layer="532" from-port="2" to-layer="533" to-port="1" />
		<edge from-layer="533" from-port="2" to-layer="541" to-port="0" />
		<edge from-layer="534" from-port="0" to-layer="535" to-port="1" />
		<edge from-layer="535" from-port="2" to-layer="540" to-port="0" />
		<edge from-layer="536" from-port="0" to-layer="540" to-port="1" />
		<edge from-layer="537" from-port="0" to-layer="538" to-port="1" />
		<edge from-layer="538" from-port="2" to-layer="540" to-port="2" />
		<edge from-layer="539" from-port="0" to-layer="540" to-port="3" />
		<edge from-layer="540" from-port="4" to-layer="541" to-port="1" />
		<edge from-layer="541" from-port="2" to-layer="543" to-port="0" />
		<edge from-layer="542" from-port="0" to-layer="543" to-port="1" />
		<edge from-layer="543" from-port="2" to-layer="550" to-port="0" />
		<edge from-layer="544" from-port="0" to-layer="545" to-port="1" />
		<edge from-layer="545" from-port="2" to-layer="549" to-port="0" />
		<edge from-layer="546" from-port="0" to-layer="547" to-port="1" />
		<edge from-layer="547" from-port="2" to-layer="549" to-port="1" />
		<edge from-layer="548" from-port="0" to-layer="549" to-port="2" />
		<edge from-layer="549" from-port="3" to-layer="550" to-port="1" />
		<edge from-layer="550" from-port="2" to-layer="552" to-port="0" />
		<edge from-layer="551" from-port="0" to-layer="552" to-port="1" />
		<edge from-layer="552" from-port="2" to-layer="553" to-port="1" />
		<edge from-layer="553" from-port="2" to-layer="554" to-port="1" />
		<edge from-layer="554" from-port="2" to-layer="556" to-port="0" />
		<edge from-layer="554" from-port="2" to-layer="557" to-port="0" />
		<edge from-layer="555" from-port="0" to-layer="556" to-port="1" />
		<edge from-layer="556" from-port="2" to-layer="557" to-port="1" />
		<edge from-layer="557" from-port="2" to-layer="565" to-port="0" />
		<edge from-layer="557" from-port="2" to-layer="559" to-port="0" />
		<edge from-layer="558" from-port="0" to-layer="559" to-port="1" />
		<edge from-layer="559" from-port="2" to-layer="561" to-port="0" />
		<edge from-layer="560" from-port="0" to-layer="561" to-port="1" />
		<edge from-layer="561" from-port="2" to-layer="563" to-port="0" />
		<edge from-layer="562" from-port="0" to-layer="563" to-port="1" />
		<edge from-layer="563" from-port="2" to-layer="564" to-port="0" />
		<edge from-layer="564" from-port="1" to-layer="565" to-port="1" />
		<edge from-layer="565" from-port="2" to-layer="566" to-port="0" />
		<edge from-layer="566" from-port="2" to-layer="567" to-port="0" />
		<edge from-layer="567" from-port="2" to-layer="602" to-port="0" />
		<edge from-layer="567" from-port="2" to-layer="685" to-port="0" />
		<edge from-layer="567" from-port="2" to-layer="608" to-port="0" />
		<edge from-layer="567" from-port="2" to-layer="568" to-port="0" />
		<edge from-layer="568" from-port="1" to-layer="571" to-port="0" />
		<edge from-layer="569" from-port="0" to-layer="571" to-port="1" />
		<edge from-layer="570" from-port="0" to-layer="571" to-port="2" />
		<edge from-layer="571" from-port="3" to-layer="586" to-port="0" />
		<edge from-layer="571" from-port="3" to-layer="573" to-port="0" />
		<edge from-layer="571" from-port="3" to-layer="676" to-port="0" />
		<edge from-layer="571" from-port="3" to-layer="666" to-port="0" />
		<edge from-layer="571" from-port="3" to-layer="636" to-port="0" />
		<edge from-layer="571" from-port="3" to-layer="621" to-port="0" />
		<edge from-layer="571" from-port="3" to-layer="607" to-port="0" />
		<edge from-layer="572" from-port="0" to-layer="573" to-port="1" />
		<edge from-layer="573" from-port="2" to-layer="577" to-port="0" />
		<edge from-layer="574" from-port="0" to-layer="577" to-port="1" />
		<edge from-layer="575" from-port="0" to-layer="577" to-port="2" />
		<edge from-layer="576" from-port="0" to-layer="577" to-port="3" />
		<edge from-layer="577" from-port="4" to-layer="578" to-port="1" />
		<edge from-layer="578" from-port="2" to-layer="580" to-port="0" />
		<edge from-layer="579" from-port="0" to-layer="580" to-port="1" />
		<edge from-layer="580" from-port="2" to-layer="663" to-port="0" />
		<edge from-layer="580" from-port="2" to-layer="581" to-port="0" />
		<edge from-layer="582" from-port="0" to-layer="583" to-port="1" />
		<edge from-layer="583" from-port="2" to-layer="584" to-port="1" />
		<edge from-layer="584" from-port="2" to-layer="591" to-port="0" />
		<edge from-layer="585" from-port="0" to-layer="586" to-port="1" />
		<edge from-layer="586" from-port="2" to-layer="590" to-port="0" />
		<edge from-layer="587" from-port="0" to-layer="590" to-port="1" />
		<edge from-layer="588" from-port="0" to-layer="590" to-port="2" />
		<edge from-layer="589" from-port="0" to-layer="590" to-port="3" />
		<edge from-layer="590" from-port="4" to-layer="591" to-port="1" />
		<edge from-layer="591" from-port="2" to-layer="593" to-port="0" />
		<edge from-layer="592" from-port="0" to-layer="593" to-port="1" />
		<edge from-layer="593" from-port="2" to-layer="633" to-port="0" />
		<edge from-layer="593" from-port="2" to-layer="594" to-port="0" />
		<edge from-layer="601" from-port="0" to-layer="602" to-port="1" />
		<edge from-layer="602" from-port="2" to-layer="603" to-port="1" />
		<edge from-layer="603" from-port="2" to-layer="605" to-port="0" />
		<edge from-layer="604" from-port="0" to-layer="605" to-port="1" />
		<edge from-layer="605" from-port="2" to-layer="617" to-port="0" />
		<edge from-layer="606" from-port="0" to-layer="607" to-port="1" />
		<edge from-layer="607" from-port="2" to-layer="616" to-port="0" />
		<edge from-layer="608" from-port="1" to-layer="611" to-port="0" />
		<edge from-layer="609" from-port="0" to-layer="611" to-port="1" />
		<edge from-layer="610" from-port="0" to-layer="611" to-port="2" />
		<edge from-layer="611" from-port="3" to-layer="669" to-port="0" />
		<edge from-layer="611" from-port="3" to-layer="652" to-port="0" />
		<edge from-layer="611" from-port="3" to-layer="639" to-port="0" />
		<edge from-layer="611" from-port="3" to-layer="678" to-port="0" />
		<edge from-layer="611" from-port="3" to-layer="613" to-port="0" />
		<edge from-layer="612" from-port="0" to-layer="613" to-port="1" />
		<edge from-layer="613" from-port="2" to-layer="616" to-port="1" />
		<edge from-layer="614" from-port="0" to-layer="616" to-port="2" />
		<edge from-layer="615" from-port="0" to-layer="616" to-port="3" />
		<edge from-layer="616" from-port="4" to-layer="617" to-port="1" />
		<edge from-layer="617" from-port="2" to-layer="619" to-port="0" />
		<edge from-layer="618" from-port="0" to-layer="619" to-port="1" />
		<edge from-layer="619" from-port="2" to-layer="627" to-port="0" />
		<edge from-layer="620" from-port="0" to-layer="621" to-port="1" />
		<edge from-layer="621" from-port="2" to-layer="623" to-port="0" />
		<edge from-layer="621" from-port="2" to-layer="629" to-port="0" />
		<edge from-layer="621" from-port="2" to-layer="659" to-port="0" />
		<edge from-layer="621" from-port="2" to-layer="650" to-port="0" />
		<edge from-layer="622" from-port="0" to-layer="623" to-port="1" />
		<edge from-layer="623" from-port="2" to-layer="626" to-port="0" />
		<edge from-layer="624" from-port="0" to-layer="626" to-port="1" />
		<edge from-layer="625" from-port="0" to-layer="626" to-port="2" />
		<edge from-layer="626" from-port="3" to-layer="627" to-port="1" />
		<edge from-layer="627" from-port="2" to-layer="634" to-port="0" />
		<edge from-layer="628" from-port="0" to-layer="629" to-port="1" />
		<edge from-layer="629" from-port="2" to-layer="632" to-port="0" />
		<edge from-layer="630" from-port="0" to-layer="632" to-port="1" />
		<edge from-layer="631" from-port="0" to-layer="632" to-port="2" />
		<edge from-layer="632" from-port="3" to-layer="633" to-port="1" />
		<edge from-layer="633" from-port="2" to-layer="634" to-port="1" />
		<edge from-layer="633" from-port="2" to-layer="640" to-port="0" />
		<edge from-layer="634" from-port="2" to-layer="647" to-port="0" />
		<edge from-layer="635" from-port="0" to-layer="636" to-port="1" />
		<edge from-layer="636" from-port="2" to-layer="646" to-port="0" />
		<edge from-layer="637" from-port="0" to-layer="646" to-port="1" />
		<edge from-layer="638" from-port="0" to-layer="639" to-port="1" />
		<edge from-layer="639" from-port="2" to-layer="646" to-port="2" />
		<edge from-layer="640" from-port="1" to-layer="643" to-port="0" />
		<edge from-layer="641" from-port="0" to-layer="643" to-port="1" />
		<edge from-layer="642" from-port="0" to-layer="643" to-port="2" />
		<edge from-layer="643" from-port="3" to-layer="645" to-port="0" />
		<edge from-layer="643" from-port="3" to-layer="654" to-port="0" />
		<edge from-layer="644" from-port="0" to-layer="645" to-port="1" />
		<edge from-layer="645" from-port="2" to-layer="646" to-port="3" />
		<edge from-layer="646" from-port="4" to-layer="647" to-port="1" />
		<edge from-layer="647" from-port="2" to-layer="648" to-port="0" />
		<edge from-layer="648" from-port="2" to-layer="656" to-port="0" />
		<edge from-layer="649" from-port="0" to-layer="650" to-port="1" />
		<edge from-layer="650" from-port="2" to-layer="655" to-port="0" />
		<edge from-layer="651" from-port="0" to-layer="652" to-port="1" />
		<edge from-layer="652" from-port="2" to-layer="655" to-port="1" />
		<edge from-layer="653" from-port="0" to-layer="654" to-port="1" />
		<edge from-layer="654" from-port="2" to-layer="655" to-port="2" />
		<edge from-layer="655" from-port="3" to-layer="656" to-port="1" />
		<edge from-layer="656" from-port="2" to-layer="657" to-port="0" />
		<edge from-layer="657" from-port="1" to-layer="664" to-port="0" />
		<edge from-layer="658" from-port="0" to-layer="659" to-port="1" />
		<edge from-layer="659" from-port="2" to-layer="662" to-port="0" />
		<edge from-layer="660" from-port="0" to-layer="662" to-port="1" />
		<edge from-layer="661" from-port="0" to-layer="662" to-port="2" />
		<edge from-layer="662" from-port="3" to-layer="663" to-port="1" />
		<edge from-layer="663" from-port="2" to-layer="664" to-port="1" />
		<edge from-layer="664" from-port="2" to-layer="672" to-port="0" />
		<edge from-layer="665" from-port="0" to-layer="666" to-port="1" />
		<edge from-layer="666" from-port="2" to-layer="671" to-port="0" />
		<edge from-layer="667" from-port="0" to-layer="671" to-port="1" />
		<edge from-layer="668" from-port="0" to-layer="669" to-port="1" />
		<edge from-layer="669" from-port="2" to-layer="671" to-port="2" />
		<edge from-layer="670" from-port="0" to-layer="671" to-port="3" />
		<edge from-layer="671" from-port="4" to-layer="672" to-port="1" />
		<edge from-layer="672" from-port="2" to-layer="674" to-port="0" />
		<edge from-layer="673" from-port="0" to-layer="674" to-port="1" />
		<edge from-layer="674" from-port="2" to-layer="681" to-port="0" />
		<edge from-layer="675" from-port="0" to-layer="676" to-port="1" />
		<edge from-layer="676" from-port="2" to-layer="680" to-port="0" />
		<edge from-layer="677" from-port="0" to-layer="678" to-port="1" />
		<edge from-layer="678" from-port="2" to-layer="680" to-port="1" />
		<edge from-layer="679" from-port="0" to-layer="680" to-port="2" />
		<edge from-layer="680" from-port="3" to-layer="681" to-port="1" />
		<edge from-layer="681" from-port="2" to-layer="683" to-port="0" />
		<edge from-layer="682" from-port="0" to-layer="683" to-port="1" />
		<edge from-layer="683" from-port="2" to-layer="684" to-port="1" />
		<edge from-layer="684" from-port="2" to-layer="685" to-port="1" />
		<edge from-layer="685" from-port="2" to-layer="688" to-port="0" />
		<edge from-layer="685" from-port="2" to-layer="687" to-port="0" />
		<edge from-layer="686" from-port="0" to-layer="687" to-port="1" />
		<edge from-layer="687" from-port="2" to-layer="688" to-port="1" />
		<edge from-layer="688" from-port="2" to-layer="696" to-port="0" />
		<edge from-layer="688" from-port="2" to-layer="690" to-port="0" />
		<edge from-layer="689" from-port="0" to-layer="690" to-port="1" />
		<edge from-layer="690" from-port="2" to-layer="692" to-port="0" />
		<edge from-layer="691" from-port="0" to-layer="692" to-port="1" />
		<edge from-layer="692" from-port="2" to-layer="694" to-port="0" />
		<edge from-layer="693" from-port="0" to-layer="694" to-port="1" />
		<edge from-layer="694" from-port="2" to-layer="695" to-port="0" />
		<edge from-layer="695" from-port="1" to-layer="696" to-port="1" />
		<edge from-layer="696" from-port="2" to-layer="697" to-port="0" />
		<edge from-layer="697" from-port="2" to-layer="698" to-port="0" />
		<edge from-layer="698" from-port="2" to-layer="700" to-port="0" />
		<edge from-layer="698" from-port="2" to-layer="713" to-port="0" />
		<edge from-layer="699" from-port="0" to-layer="700" to-port="1" />
		<edge from-layer="700" from-port="2" to-layer="701" to-port="1" />
		<edge from-layer="701" from-port="2" to-layer="703" to-port="0" />
		<edge from-layer="701" from-port="2" to-layer="707" to-port="0" />
		<edge from-layer="702" from-port="0" to-layer="703" to-port="1" />
		<edge from-layer="703" from-port="2" to-layer="704" to-port="0" />
		<edge from-layer="704" from-port="1" to-layer="706" to-port="0" />
		<edge from-layer="705" from-port="0" to-layer="706" to-port="1" />
		<edge from-layer="706" from-port="2" to-layer="707" to-port="1" />
		<edge from-layer="707" from-port="2" to-layer="709" to-port="0" />
		<edge from-layer="708" from-port="0" to-layer="709" to-port="1" />
		<edge from-layer="709" from-port="2" to-layer="711" to-port="0" />
		<edge from-layer="710" from-port="0" to-layer="711" to-port="1" />
		<edge from-layer="711" from-port="2" to-layer="712" to-port="1" />
		<edge from-layer="712" from-port="2" to-layer="713" to-port="1" />
		<edge from-layer="713" from-port="2" to-layer="716" to-port="0" />
		<edge from-layer="713" from-port="2" to-layer="715" to-port="0" />
		<edge from-layer="714" from-port="0" to-layer="715" to-port="1" />
		<edge from-layer="715" from-port="2" to-layer="716" to-port="1" />
		<edge from-layer="716" from-port="2" to-layer="718" to-port="0" />
		<edge from-layer="716" from-port="2" to-layer="724" to-port="0" />
		<edge from-layer="717" from-port="0" to-layer="718" to-port="1" />
		<edge from-layer="718" from-port="2" to-layer="720" to-port="0" />
		<edge from-layer="719" from-port="0" to-layer="720" to-port="1" />
		<edge from-layer="720" from-port="2" to-layer="722" to-port="0" />
		<edge from-layer="721" from-port="0" to-layer="722" to-port="1" />
		<edge from-layer="722" from-port="2" to-layer="723" to-port="0" />
		<edge from-layer="723" from-port="1" to-layer="724" to-port="1" />
		<edge from-layer="724" from-port="2" to-layer="725" to-port="0" />
		<edge from-layer="725" from-port="2" to-layer="726" to-port="0" />
		<edge from-layer="726" from-port="2" to-layer="728" to-port="0" />
		<edge from-layer="727" from-port="0" to-layer="728" to-port="1" />
		<edge from-layer="728" from-port="2" to-layer="730" to-port="0" />
		<edge from-layer="729" from-port="0" to-layer="730" to-port="1" />
		<edge from-layer="730" from-port="2" to-layer="731" to-port="0" />
	</edges>
	<rt_info />
</net>
