<?xml version="1.0"?>
<net name="torch_jit" version="11">
	<layers>
		<layer id="22" name="encoder_attention_mask" type="Parameter" version="opset1">
			<data shape="?,?" element_type="i64" />
			<rt_info>
				<attribute name="fused_names" version="0" value="encoder_attention_mask" />
			</rt_info>
			<output>
				<port id="0" precision="I64" names="encoder_attention_mask">
					<dim>-1</dim>
					<dim>-1</dim>
				</port>
			</output>
		</layer>
		<layer id="21" name="input_ids" type="Parameter" version="opset1">
			<data shape="?,?" element_type="i64" />
			<rt_info>
				<attribute name="fused_names" version="0" value="input_ids" />
			</rt_info>
			<output>
				<port id="0" precision="I64" names="input_ids">
					<dim>-1</dim>
					<dim>-1</dim>
				</port>
			</output>
		</layer>
		<layer id="20" name="encoder_hidden_states" type="Parameter" version="opset1">
			<data shape="?,?,32" element_type="f32" />
			<rt_info>
				<attribute name="fused_names" version="0" value="encoder_hidden_states" />
			</rt_info>
			<output>
				<port id="0" precision="FP32" names="encoder_hidden_states">
					<dim>-1</dim>
					<dim>-1</dim>
					<dim>32</dim>
				</port>
			</output>
		</layer>
		<layer id="19" name="past_key_values.0.decoder.key" type="Parameter" version="opset1">
			<data shape="?,4,?,8" element_type="f32" />
			<rt_info>
				<attribute name="fused_names" version="0" value="past_key_values.0.decoder.key" />
			</rt_info>
			<output>
				<port id="0" precision="FP32" names="past_key_values.0.decoder.key">
					<dim>-1</dim>
					<dim>4</dim>
					<dim>-1</dim>
					<dim>8</dim>
				</port>
			</output>
		</layer>
		<layer id="18" name="past_key_values.0.decoder.value" type="Parameter" version="opset1">
			<data shape="?,4,?,8" element_type="f32" />
			<rt_info>
				<attribute name="fused_names" version="0" value="past_key_values.0.decoder.value" />
			</rt_info>
			<output>
				<port id="0" precision="FP32" names="past_key_values.0.decoder.value">
					<dim>-1</dim>
					<dim>4</dim>
					<dim>-1</dim>
					<dim>8</dim>
				</port>
			</output>
		</layer>
		<layer id="17" name="past_key_values.0.encoder.key" type="Parameter" version="opset1">
			<data shape="?,4,?,8" element_type="f32" />
			<rt_info>
				<attribute name="fused_names" version="0" value="past_key_values.0.encoder.key" />
			</rt_info>
			<output>
				<port id="0" precision="FP32" names="past_key_values.0.encoder.key">
					<dim>-1</dim>
					<dim>4</dim>
					<dim>-1</dim>
					<dim>8</dim>
				</port>
			</output>
		</layer>
		<layer id="16" name="past_key_values.0.encoder.value" type="Parameter" version="opset1">
			<data shape="?,4,?,8" element_type="f32" />
			<rt_info>
				<attribute name="fused_names" version="0" value="past_key_values.0.encoder.value" />
			</rt_info>
			<output>
				<port id="0" precision="FP32" names="past_key_values.0.encoder.value">
					<dim>-1</dim>
					<dim>4</dim>
					<dim>-1</dim>
					<dim>8</dim>
				</port>
			</output>
		</layer>
		<layer id="15" name="past_key_values.1.decoder.key" type="Parameter" version="opset1">
			<data shape="?,4,?,8" element_type="f32" />
			<rt_info>
				<attribute name="fused_names" version="0" value="past_key_values.1.decoder.key" />
			</rt_info>
			<output>
				<port id="0" precision="FP32" names="past_key_values.1.decoder.key">
					<dim>-1</dim>
					<dim>4</dim>
					<dim>-1</dim>
					<dim>8</dim>
				</port>
			</output>
		</layer>
		<layer id="14" name="past_key_values.1.decoder.value" type="Parameter" version="opset1">
			<data shape="?,4,?,8" element_type="f32" />
			<rt_info>
				<attribute name="fused_names" version="0" value="past_key_values.1.decoder.value" />
			</rt_info>
			<output>
				<port id="0" precision="FP32" names="past_key_values.1.decoder.value">
					<dim>-1</dim>
					<dim>4</dim>
					<dim>-1</dim>
					<dim>8</dim>
				</port>
			</output>
		</layer>
		<layer id="13" name="past_key_values.1.encoder.key" type="Parameter" version="opset1">
			<data shape="?,4,?,8" element_type="f32" />
			<rt_info>
				<attribute name="fused_names" version="0" value="past_key_values.1.encoder.key" />
			</rt_info>
			<output>
				<port id="0" precision="FP32" names="past_key_values.1.encoder.key">
					<dim>-1</dim>
					<dim>4</dim>
					<dim>-1</dim>
					<dim>8</dim>
				</port>
			</output>
		</layer>
		<layer id="12" name="past_key_values.1.encoder.value" type="Parameter" version="opset1">
			<data shape="?,4,?,8" element_type="f32" />
			<rt_info>
				<attribute name="fused_names" version="0" value="past_key_values.1.encoder.value" />
			</rt_info>
			<output>
				<port id="0" precision="FP32" names="past_key_values.1.encoder.value">
					<dim>-1</dim>
					<dim>4</dim>
					<dim>-1</dim>
					<dim>8</dim>
				</port>
			</output>
		</layer>
		<layer id="11" name="past_key_values.2.decoder.key" type="Parameter" version="opset1">
			<data shape="?,4,?,8" element_type="f32" />
			<rt_info>
				<attribute name="fused_names" version="0" value="past_key_values.2.decoder.key" />
			</rt_info>
			<output>
				<port id="0" precision="FP32" names="past_key_values.2.decoder.key">
					<dim>-1</dim>
					<dim>4</dim>
					<dim>-1</dim>
					<dim>8</dim>
				</port>
			</output>
		</layer>
		<layer id="10" name="past_key_values.2.decoder.value" type="Parameter" version="opset1">
			<data shape="?,4,?,8" element_type="f32" />
			<rt_info>
				<attribute name="fused_names" version="0" value="past_key_values.2.decoder.value" />
			</rt_info>
			<output>
				<port id="0" precision="FP32" names="past_key_values.2.decoder.value">
					<dim>-1</dim>
					<dim>4</dim>
					<dim>-1</dim>
					<dim>8</dim>
				</port>
			</output>
		</layer>
		<layer id="9" name="past_key_values.2.encoder.key" type="Parameter" version="opset1">
			<data shape="?,4,?,8" element_type="f32" />
			<rt_info>
				<attribute name="fused_names" version="0" value="past_key_values.2.encoder.key" />
			</rt_info>
			<output>
				<port id="0" precision="FP32" names="past_key_values.2.encoder.key">
					<dim>-1</dim>
					<dim>4</dim>
					<dim>-1</dim>
					<dim>8</dim>
				</port>
			</output>
		</layer>
		<layer id="8" name="past_key_values.2.encoder.value" type="Parameter" version="opset1">
			<data shape="?,4,?,8" element_type="f32" />
			<rt_info>
				<attribute name="fused_names" version="0" value="past_key_values.2.encoder.value" />
			</rt_info>
			<output>
				<port id="0" precision="FP32" names="past_key_values.2.encoder.value">
					<dim>-1</dim>
					<dim>4</dim>
					<dim>-1</dim>
					<dim>8</dim>
				</port>
			</output>
		</layer>
		<layer id="7" name="past_key_values.3.decoder.key" type="Parameter" version="opset1">
			<data shape="?,4,?,8" element_type="f32" />
			<rt_info>
				<attribute name="fused_names" version="0" value="past_key_values.3.decoder.key" />
			</rt_info>
			<output>
				<port id="0" precision="FP32" names="past_key_values.3.decoder.key">
					<dim>-1</dim>
					<dim>4</dim>
					<dim>-1</dim>
					<dim>8</dim>
				</port>
			</output>
		</layer>
		<layer id="6" name="past_key_values.3.decoder.value" type="Parameter" version="opset1">
			<data shape="?,4,?,8" element_type="f32" />
			<rt_info>
				<attribute name="fused_names" version="0" value="past_key_values.3.decoder.value" />
			</rt_info>
			<output>
				<port id="0" precision="FP32" names="past_key_values.3.decoder.value">
					<dim>-1</dim>
					<dim>4</dim>
					<dim>-1</dim>
					<dim>8</dim>
				</port>
			</output>
		</layer>
		<layer id="5" name="past_key_values.3.encoder.key" type="Parameter" version="opset1">
			<data shape="?,4,?,8" element_type="f32" />
			<rt_info>
				<attribute name="fused_names" version="0" value="past_key_values.3.encoder.key" />
			</rt_info>
			<output>
				<port id="0" precision="FP32" names="past_key_values.3.encoder.key">
					<dim>-1</dim>
					<dim>4</dim>
					<dim>-1</dim>
					<dim>8</dim>
				</port>
			</output>
		</layer>
		<layer id="4" name="past_key_values.3.encoder.value" type="Parameter" version="opset1">
			<data shape="?,4,?,8" element_type="f32" />
			<rt_info>
				<attribute name="fused_names" version="0" value="past_key_values.3.encoder.value" />
			</rt_info>
			<output>
				<port id="0" precision="FP32" names="past_key_values.3.encoder.value">
					<dim>-1</dim>
					<dim>4</dim>
					<dim>-1</dim>
					<dim>8</dim>
				</port>
			</output>
		</layer>
		<layer id="3" name="past_key_values.4.decoder.key" type="Parameter" version="opset1">
			<data shape="?,4,?,8" element_type="f32" />
			<rt_info>
				<attribute name="fused_names" version="0" value="past_key_values.4.decoder.key" />
			</rt_info>
			<output>
				<port id="0" precision="FP32" names="past_key_values.4.decoder.key">
					<dim>-1</dim>
					<dim>4</dim>
					<dim>-1</dim>
					<dim>8</dim>
				</port>
			</output>
		</layer>
		<layer id="2" name="past_key_values.4.decoder.value" type="Parameter" version="opset1">
			<data shape="?,4,?,8" element_type="f32" />
			<rt_info>
				<attribute name="fused_names" version="0" value="past_key_values.4.decoder.value" />
			</rt_info>
			<output>
				<port id="0" precision="FP32" names="past_key_values.4.decoder.value">
					<dim>-1</dim>
					<dim>4</dim>
					<dim>-1</dim>
					<dim>8</dim>
				</port>
			</output>
		</layer>
		<layer id="1" name="past_key_values.4.encoder.key" type="Parameter" version="opset1">
			<data shape="?,4,?,8" element_type="f32" />
			<rt_info>
				<attribute name="fused_names" version="0" value="past_key_values.4.encoder.key" />
			</rt_info>
			<output>
				<port id="0" precision="FP32" names="past_key_values.4.encoder.key">
					<dim>-1</dim>
					<dim>4</dim>
					<dim>-1</dim>
					<dim>8</dim>
				</port>
			</output>
		</layer>
		<layer id="0" name="past_key_values.4.encoder.value" type="Parameter" version="opset1">
			<data shape="?,4,?,8" element_type="f32" />
			<rt_info>
				<attribute name="fused_names" version="0" value="past_key_values.4.encoder.value" />
			</rt_info>
			<output>
				<port id="0" precision="FP32" names="past_key_values.4.encoder.value">
					<dim>-1</dim>
					<dim>4</dim>
					<dim>-1</dim>
					<dim>8</dim>
				</port>
			</output>
		</layer>
		<layer id="23" name="decoder.block.0.layer.1.layer_norm.weight" type="Const" version="opset1">
			<data element_type="f32" shape="32" offset="0" size="128" />
			<rt_info>
				<attribute name="fused_names" version="0" value="decoder.block.0.layer.1.layer_norm.weight" />
			</rt_info>
			<output>
				<port id="0" precision="FP32" names="decoder.block.0.layer.0.layer_norm.weight,decoder.block.0.layer.1.layer_norm.weight,decoder.block.0.layer.2.layer_norm.weight,decoder.block.1.layer.0.layer_norm.weight,decoder.block.1.layer.1.layer_norm.weight,decoder.block.1.layer.2.layer_norm.weight,decoder.block.2.layer.0.layer_norm.weight,decoder.block.2.layer.1.layer_norm.weight,decoder.block.2.layer.2.layer_norm.weight,decoder.block.3.layer.0.layer_norm.weight,decoder.block.3.layer.1.layer_norm.weight,decoder.block.3.layer.2.layer_norm.weight,decoder.block.4.layer.0.layer_norm.weight,decoder.block.4.layer.1.layer_norm.weight,decoder.block.4.layer.2.layer_norm.weight,decoder.final_layer_norm.weight">
					<dim>32</dim>
				</port>
			</output>
		</layer>
		<layer id="24" name="shared.weight" type="Const" version="opset1">
			<data element_type="f32" shape="1103, 32" offset="128" size="141184" />
			<rt_info>
				<attribute name="fused_names" version="0" value="shared.weight" />
			</rt_info>
			<output>
				<port id="0" precision="FP32" names="shared.weight">
					<dim>1103</dim>
					<dim>32</dim>
				</port>
			</output>
		</layer>
		<layer id="25" name="/decoder/Constant_2" type="Const" version="opset1">
			<data element_type="i64" shape="1" offset="141312" size="8" />
			<rt_info>
				<attribute name="fused_names" version="0" value="/decoder/Constant_2" />
			</rt_info>
			<output>
				<port id="0" precision="I64" names="/decoder/Constant_2_output_0">
					<dim>1</dim>
				</port>
			</output>
		</layer>
		<layer id="26" name="/decoder/Shape_1" type="ShapeOf" version="opset3">
			<data output_type="i64" />
			<rt_info>
				<attribute name="fused_names" version="0" value="/decoder/Shape_1" />
			</rt_info>
			<input>
				<port id="0" precision="I64">
					<dim>-1</dim>
					<dim>-1</dim>
				</port>
			</input>
			<output>
				<port id="1" precision="I64" names="/decoder/Shape_1_output_0">
					<dim>2</dim>
				</port>
			</output>
		</layer>
		<layer id="27" name="/decoder/Constant_1" type="Const" version="opset1">
			<data element_type="i64" shape="" offset="141320" size="8" />
			<rt_info>
				<attribute name="fused_names" version="0" value="/decoder/Constant_1" />
			</rt_info>
			<output>
				<port id="0" precision="I64" names="/decoder/Constant_1_output_0" />
			</output>
		</layer>
		<layer id="28" name="Constant_4659794" type="Const" version="opset1">
			<data element_type="i64" shape="" offset="141328" size="8" />
			<rt_info>
				<attribute name="fused_names" version="0" value="Constant_4659794" />
			</rt_info>
			<output>
				<port id="0" precision="I64" />
			</output>
		</layer>
		<layer id="29" name="/decoder/Gather_1" type="Gather" version="opset8">
			<data batch_dims="0" />
			<rt_info>
				<attribute name="fused_names" version="0" value="/decoder/Constant_1, /decoder/Gather_1, Constant_4659794" />
			</rt_info>
			<input>
				<port id="0" precision="I64">
					<dim>2</dim>
				</port>
				<port id="1" precision="I64" />
				<port id="2" precision="I64" />
			</input>
			<output>
				<port id="3" precision="I64" names="/decoder/Gather_1_output_0" />
			</output>
		</layer>
		<layer id="30" name="Constant_22" type="Const" version="opset1">
			<data element_type="i64" shape="1" offset="141328" size="8" />
			<rt_info>
				<attribute name="fused_names" version="0" value="Constant_22" />
			</rt_info>
			<output>
				<port id="0" precision="I64" names="onnx::Unsqueeze_143">
					<dim>1</dim>
				</port>
			</output>
		</layer>
		<layer id="31" name="/decoder/Unsqueeze" type="Unsqueeze" version="opset1">
			<rt_info>
				<attribute name="fused_names" version="0" value="/decoder/Unsqueeze, Constant_22" />
			</rt_info>
			<input>
				<port id="0" precision="I64" />
				<port id="1" precision="I64">
					<dim>1</dim>
				</port>
			</input>
			<output>
				<port id="2" precision="I64" names="/decoder/Unsqueeze_output_0">
					<dim>1</dim>
				</port>
			</output>
		</layer>
		<layer id="32" name="/decoder/Concat" type="Concat" version="opset1">
			<data axis="0" />
			<rt_info>
				<attribute name="fused_names" version="0" value="/decoder/Concat, /decoder/Constant_2" />
			</rt_info>
			<input>
				<port id="0" precision="I64">
					<dim>1</dim>
				</port>
				<port id="1" precision="I64">
					<dim>1</dim>
				</port>
			</input>
			<output>
				<port id="2" precision="I64" names="/decoder/Concat_output_0">
					<dim>2</dim>
				</port>
			</output>
		</layer>
		<layer id="33" name="/decoder/Reshape" type="Reshape" version="opset1">
			<data special_zero="true" />
			<rt_info>
				<attribute name="fused_names" version="0" value="/decoder/Reshape" />
			</rt_info>
			<input>
				<port id="0" precision="I64">
					<dim>-1</dim>
					<dim>-1</dim>
				</port>
				<port id="1" precision="I64">
					<dim>2</dim>
				</port>
			</input>
			<output>
				<port id="2" precision="I64" names="/decoder/Reshape_output_0">
					<dim>-1</dim>
					<dim>-1</dim>
				</port>
			</output>
		</layer>
		<layer id="34" name="Constant_4659807" type="Const" version="opset1">
			<data element_type="i64" shape="" offset="141328" size="8" />
			<rt_info>
				<attribute name="fused_names" version="0" value="Constant_4659807" />
			</rt_info>
			<output>
				<port id="0" precision="I64" />
			</output>
		</layer>
		<layer id="35" name="/decoder/shared/Gather" type="Gather" version="opset8">
			<data batch_dims="0" />
			<rt_info>
				<attribute name="fused_names" version="0" value="/decoder/shared/Gather" />
			</rt_info>
			<input>
				<port id="0" precision="FP32">
					<dim>1103</dim>
					<dim>32</dim>
				</port>
				<port id="1" precision="I64">
					<dim>-1</dim>
					<dim>-1</dim>
				</port>
				<port id="2" precision="I64" />
			</input>
			<output>
				<port id="3" precision="FP32" names="/decoder/shared/Gather_output_0">
					<dim>-1</dim>
					<dim>-1</dim>
					<dim>32</dim>
				</port>
			</output>
		</layer>
		<layer id="36" name="/decoder/block.0/layer.0/layer_norm/Cast" type="Convert" version="opset1">
			<data destination_type="f32" />
			<rt_info>
				<attribute name="fused_names" version="0" value="/decoder/block.0/layer.0/layer_norm/Cast" />
			</rt_info>
			<input>
				<port id="0" precision="FP32">
					<dim>-1</dim>
					<dim>-1</dim>
					<dim>32</dim>
				</port>
			</input>
			<output>
				<port id="1" precision="FP32" names="/decoder/block.0/layer.0/layer_norm/Cast_output_0">
					<dim>-1</dim>
					<dim>-1</dim>
					<dim>32</dim>
				</port>
			</output>
		</layer>
		<layer id="37" name="/decoder/block.0/layer.0/layer_norm/Constant_2" type="Const" version="opset1">
			<data element_type="f32" shape="" offset="141336" size="4" />
			<rt_info>
				<attribute name="fused_names" version="0" value="/decoder/block.0/layer.0/layer_norm/Constant_2" />
			</rt_info>
			<output>
				<port id="0" precision="FP32" names="/decoder/block.0/layer.0/layer_norm/Constant_2_output_0" />
			</output>
		</layer>
		<layer id="38" name="/decoder/block.0/layer.0/layer_norm/Constant" type="Const" version="opset1">
			<data element_type="f32" shape="" offset="141340" size="4" />
			<rt_info>
				<attribute name="fused_names" version="0" value="/decoder/block.0/layer.0/layer_norm/Constant" />
			</rt_info>
			<output>
				<port id="0" precision="FP32" names="/decoder/block.0/layer.0/layer_norm/Constant_output_0" />
			</output>
		</layer>
		<layer id="39" name="/decoder/block.0/layer.0/layer_norm/Pow" type="Power" version="opset1">
			<data auto_broadcast="numpy" />
			<rt_info>
				<attribute name="fused_names" version="0" value="/decoder/block.0/layer.0/layer_norm/Pow" />
			</rt_info>
			<input>
				<port id="0" precision="FP32">
					<dim>-1</dim>
					<dim>-1</dim>
					<dim>32</dim>
				</port>
				<port id="1" precision="FP32" />
			</input>
			<output>
				<port id="2" precision="FP32" names="/decoder/block.0/layer.0/layer_norm/Pow_output_0">
					<dim>-1</dim>
					<dim>-1</dim>
					<dim>32</dim>
				</port>
			</output>
		</layer>
		<layer id="40" name="Constant_4660078" type="Const" version="opset1">
			<data element_type="i64" shape="1" offset="141312" size="8" />
			<rt_info>
				<attribute name="fused_names" version="0" value="Constant_4660078" />
			</rt_info>
			<output>
				<port id="0" precision="I64">
					<dim>1</dim>
				</port>
			</output>
		</layer>
		<layer id="41" name="/decoder/block.0/layer.0/layer_norm/ReduceMean" type="ReduceMean" version="opset1">
			<data keep_dims="true" />
			<rt_info>
				<attribute name="fused_names" version="0" value="/decoder/block.0/layer.0/layer_norm/ReduceMean" />
			</rt_info>
			<input>
				<port id="0" precision="FP32">
					<dim>-1</dim>
					<dim>-1</dim>
					<dim>32</dim>
				</port>
				<port id="1" precision="I64">
					<dim>1</dim>
				</port>
			</input>
			<output>
				<port id="2" precision="FP32" names="/decoder/block.0/layer.0/layer_norm/ReduceMean_output_0">
					<dim>-1</dim>
					<dim>-1</dim>
					<dim>1</dim>
				</port>
			</output>
		</layer>
		<layer id="42" name="/decoder/block.0/layer.0/layer_norm/Constant_1" type="Const" version="opset1">
			<data element_type="f32" shape="" offset="141344" size="4" />
			<rt_info>
				<attribute name="fused_names" version="0" value="/decoder/block.0/layer.0/layer_norm/Constant_1" />
			</rt_info>
			<output>
				<port id="0" precision="FP32" names="/decoder/block.0/layer.0/layer_norm/Constant_1_output_0" />
			</output>
		</layer>
		<layer id="43" name="/decoder/block.0/layer.0/layer_norm/Add" type="Add" version="opset1">
			<data auto_broadcast="numpy" />
			<rt_info>
				<attribute name="fused_names" version="0" value="/decoder/block.0/layer.0/layer_norm/Add" />
			</rt_info>
			<input>
				<port id="0" precision="FP32">
					<dim>-1</dim>
					<dim>-1</dim>
					<dim>1</dim>
				</port>
				<port id="1" precision="FP32" />
			</input>
			<output>
				<port id="2" precision="FP32" names="/decoder/block.0/layer.0/layer_norm/Add_output_0">
					<dim>-1</dim>
					<dim>-1</dim>
					<dim>1</dim>
				</port>
			</output>
		</layer>
		<layer id="44" name="/decoder/block.0/layer.0/layer_norm/Sqrt" type="Sqrt" version="opset1">
			<rt_info>
				<attribute name="fused_names" version="0" value="/decoder/block.0/layer.0/layer_norm/Sqrt" />
			</rt_info>
			<input>
				<port id="0" precision="FP32">
					<dim>-1</dim>
					<dim>-1</dim>
					<dim>1</dim>
				</port>
			</input>
			<output>
				<port id="1" precision="FP32" names="/decoder/block.0/layer.0/layer_norm/Sqrt_output_0">
					<dim>-1</dim>
					<dim>-1</dim>
					<dim>1</dim>
				</port>
			</output>
		</layer>
		<layer id="45" name="/decoder/block.0/layer.0/layer_norm/Div" type="Divide" version="opset1">
			<data auto_broadcast="numpy" m_pythondiv="true" />
			<rt_info>
				<attribute name="fused_names" version="0" value="/decoder/block.0/layer.0/layer_norm/Div" />
			</rt_info>
			<input>
				<port id="0" precision="FP32" />
				<port id="1" precision="FP32">
					<dim>-1</dim>
					<dim>-1</dim>
					<dim>1</dim>
				</port>
			</input>
			<output>
				<port id="2" precision="FP32" names="/decoder/block.0/layer.0/layer_norm/Div_output_0">
					<dim>-1</dim>
					<dim>-1</dim>
					<dim>1</dim>
				</port>
			</output>
		</layer>
		<layer id="46" name="/decoder/block.0/layer.0/layer_norm/Mul" type="Multiply" version="opset1">
			<data auto_broadcast="numpy" />
			<rt_info>
				<attribute name="fused_names" version="0" value="/decoder/block.0/layer.0/layer_norm/Mul" />
			</rt_info>
			<input>
				<port id="0" precision="FP32">
					<dim>-1</dim>
					<dim>-1</dim>
					<dim>32</dim>
				</port>
				<port id="1" precision="FP32">
					<dim>-1</dim>
					<dim>-1</dim>
					<dim>1</dim>
				</port>
			</input>
			<output>
				<port id="2" precision="FP32" names="/decoder/block.0/layer.0/layer_norm/Mul_output_0">
					<dim>-1</dim>
					<dim>-1</dim>
					<dim>32</dim>
				</port>
			</output>
		</layer>
		<layer id="47" name="/decoder/block.0/layer.0/layer_norm/Mul_1" type="Multiply" version="opset1">
			<data auto_broadcast="numpy" />
			<rt_info>
				<attribute name="fused_names" version="0" value="/decoder/block.0/layer.0/layer_norm/Mul_1" />
			</rt_info>
			<input>
				<port id="0" precision="FP32">
					<dim>32</dim>
				</port>
				<port id="1" precision="FP32">
					<dim>-1</dim>
					<dim>-1</dim>
					<dim>32</dim>
				</port>
			</input>
			<output>
				<port id="2" precision="FP32" names="/decoder/block.0/layer.0/layer_norm/Mul_1_output_0">
					<dim>-1</dim>
					<dim>-1</dim>
					<dim>32</dim>
				</port>
			</output>
		</layer>
		<layer id="48" name="onnx::MatMul_1005" type="Const" version="opset1">
			<data element_type="f32" shape="32, 32" offset="141348" size="4096" />
			<rt_info>
				<attribute name="fused_names" version="0" value="onnx::MatMul_1005" />
			</rt_info>
			<output>
				<port id="0" precision="FP32" names="onnx::MatMul_1005">
					<dim>32</dim>
					<dim>32</dim>
				</port>
			</output>
		</layer>
		<layer id="49" name="/decoder/block.0/layer.0/SelfAttention/q/MatMul" type="MatMul" version="opset1">
			<data transpose_a="false" transpose_b="false" />
			<rt_info>
				<attribute name="fused_names" version="0" value="/decoder/block.0/layer.0/SelfAttention/q/MatMul" />
			</rt_info>
			<input>
				<port id="0" precision="FP32">
					<dim>-1</dim>
					<dim>-1</dim>
					<dim>32</dim>
				</port>
				<port id="1" precision="FP32">
					<dim>32</dim>
					<dim>32</dim>
				</port>
			</input>
			<output>
				<port id="2" precision="FP32" names="/decoder/block.0/layer.0/SelfAttention/q/MatMul_output_0">
					<dim>-1</dim>
					<dim>-1</dim>
					<dim>32</dim>
				</port>
			</output>
		</layer>
		<layer id="50" name="/decoder/block.0/layer.0/SelfAttention/Shape" type="ShapeOf" version="opset3">
			<data output_type="i64" />
			<rt_info>
				<attribute name="fused_names" version="0" value="/decoder/block.0/layer.0/SelfAttention/Shape" />
			</rt_info>
			<input>
				<port id="0" precision="FP32">
					<dim>-1</dim>
					<dim>-1</dim>
					<dim>32</dim>
				</port>
			</input>
			<output>
				<port id="1" precision="I64" names="/decoder/block.0/layer.0/SelfAttention/Shape_output_0">
					<dim>3</dim>
				</port>
			</output>
		</layer>
		<layer id="51" name="/decoder/block.0/layer.0/SelfAttention/Constant" type="Const" version="opset1">
			<data element_type="i64" shape="" offset="141328" size="8" />
			<rt_info>
				<attribute name="fused_names" version="0" value="/decoder/block.0/layer.0/SelfAttention/Constant" />
			</rt_info>
			<output>
				<port id="0" precision="I64" names="/decoder/block.0/layer.0/SelfAttention/Constant_output_0" />
			</output>
		</layer>
		<layer id="52" name="Constant_4660089" type="Const" version="opset1">
			<data element_type="i64" shape="" offset="141328" size="8" />
			<rt_info>
				<attribute name="fused_names" version="0" value="Constant_4660089" />
			</rt_info>
			<output>
				<port id="0" precision="I64" />
			</output>
		</layer>
		<layer id="53" name="/decoder/block.0/layer.0/SelfAttention/Gather" type="Gather" version="opset8">
			<data batch_dims="0" />
			<rt_info>
				<attribute name="fused_names" version="0" value="/decoder/block.0/layer.0/SelfAttention/Constant, /decoder/block.0/layer.0/SelfAttention/Gather, Constant_4660089" />
			</rt_info>
			<input>
				<port id="0" precision="I64">
					<dim>3</dim>
				</port>
				<port id="1" precision="I64" />
				<port id="2" precision="I64" />
			</input>
			<output>
				<port id="3" precision="I64" names="/decoder/block.0/layer.0/SelfAttention/Gather_output_0" />
			</output>
		</layer>
		<layer id="54" name="Constant_121" type="Const" version="opset1">
			<data element_type="i64" shape="1" offset="141328" size="8" />
			<rt_info>
				<attribute name="fused_names" version="0" value="Constant_121" />
			</rt_info>
			<output>
				<port id="0" precision="I64" names="onnx::Unsqueeze_249">
					<dim>1</dim>
				</port>
			</output>
		</layer>
		<layer id="55" name="/decoder/block.0/layer.0/SelfAttention/Unsqueeze" type="Unsqueeze" version="opset1">
			<rt_info>
				<attribute name="fused_names" version="0" value="/decoder/block.0/layer.0/SelfAttention/Unsqueeze, Constant_121" />
			</rt_info>
			<input>
				<port id="0" precision="I64" />
				<port id="1" precision="I64">
					<dim>1</dim>
				</port>
			</input>
			<output>
				<port id="2" precision="I64" names="/decoder/block.0/layer.0/SelfAttention/Unsqueeze_output_0">
					<dim>1</dim>
				</port>
			</output>
		</layer>
		<layer id="56" name="/decoder/block.0/layer.0/SelfAttention/Constant_2" type="Const" version="opset1">
			<data element_type="i64" shape="1" offset="141312" size="8" />
			<rt_info>
				<attribute name="fused_names" version="0" value="/decoder/block.0/layer.0/SelfAttention/Constant_2" />
			</rt_info>
			<output>
				<port id="0" precision="I64" names="/decoder/block.0/layer.0/SelfAttention/Constant_2_output_0">
					<dim>1</dim>
				</port>
			</output>
		</layer>
		<layer id="57" name="/decoder/block.0/layer.0/SelfAttention/Constant_3" type="Const" version="opset1">
			<data element_type="i64" shape="1" offset="145444" size="8" />
			<rt_info>
				<attribute name="fused_names" version="0" value="/decoder/block.0/layer.0/SelfAttention/Constant_3" />
			</rt_info>
			<output>
				<port id="0" precision="I64" names="/decoder/block.0/layer.0/SelfAttention/Constant_3_output_0">
					<dim>1</dim>
				</port>
			</output>
		</layer>
		<layer id="58" name="/decoder/block.0/layer.0/SelfAttention/Constant_4" type="Const" version="opset1">
			<data element_type="i64" shape="1" offset="145452" size="8" />
			<rt_info>
				<attribute name="fused_names" version="0" value="/decoder/block.0/layer.0/SelfAttention/Constant_4" />
			</rt_info>
			<output>
				<port id="0" precision="I64" names="/decoder/block.0/layer.0/SelfAttention/Constant_4_output_0">
					<dim>1</dim>
				</port>
			</output>
		</layer>
		<layer id="59" name="/decoder/block.0/layer.0/SelfAttention/Concat" type="Concat" version="opset1">
			<data axis="0" />
			<rt_info>
				<attribute name="fused_names" version="0" value="/decoder/block.0/layer.0/SelfAttention/Concat, /decoder/block.0/layer.0/SelfAttention/Constant_2, /decoder/block.0/layer.0/SelfAttention/Constant_3, /decoder/block.0/layer.0/SelfAttention/Constant_4" />
			</rt_info>
			<input>
				<port id="0" precision="I64">
					<dim>1</dim>
				</port>
				<port id="1" precision="I64">
					<dim>1</dim>
				</port>
				<port id="2" precision="I64">
					<dim>1</dim>
				</port>
				<port id="3" precision="I64">
					<dim>1</dim>
				</port>
			</input>
			<output>
				<port id="4" precision="I64" names="/decoder/block.0/layer.0/SelfAttention/Concat_output_0">
					<dim>4</dim>
				</port>
			</output>
		</layer>
		<layer id="60" name="/decoder/block.0/layer.0/SelfAttention/Reshape" type="Reshape" version="opset1">
			<data special_zero="true" />
			<rt_info>
				<attribute name="fused_names" version="0" value="/decoder/block.0/layer.0/SelfAttention/Reshape" />
			</rt_info>
			<input>
				<port id="0" precision="FP32">
					<dim>-1</dim>
					<dim>-1</dim>
					<dim>32</dim>
				</port>
				<port id="1" precision="I64">
					<dim>4</dim>
				</port>
			</input>
			<output>
				<port id="2" precision="FP32" names="/decoder/block.0/layer.0/SelfAttention/Reshape_output_0">
					<dim>-1</dim>
					<dim>-1</dim>
					<dim>4</dim>
					<dim>8</dim>
				</port>
			</output>
		</layer>
		<layer id="61" name="Constant_4660122" type="Const" version="opset1">
			<data element_type="i64" shape="4" offset="145460" size="32" />
			<rt_info>
				<attribute name="fused_names" version="0" value="Constant_4660122" />
			</rt_info>
			<output>
				<port id="0" precision="I64">
					<dim>4</dim>
				</port>
			</output>
		</layer>
		<layer id="62" name="/decoder/block.0/layer.0/SelfAttention/Transpose" type="Transpose" version="opset1">
			<rt_info>
				<attribute name="fused_names" version="0" value="/decoder/block.0/layer.0/SelfAttention/Transpose" />
			</rt_info>
			<input>
				<port id="0" precision="FP32">
					<dim>-1</dim>
					<dim>-1</dim>
					<dim>4</dim>
					<dim>8</dim>
				</port>
				<port id="1" precision="I64">
					<dim>4</dim>
				</port>
			</input>
			<output>
				<port id="2" precision="FP32" names="/decoder/block.0/layer.0/SelfAttention/Transpose_output_0">
					<dim>-1</dim>
					<dim>4</dim>
					<dim>-1</dim>
					<dim>8</dim>
				</port>
			</output>
		</layer>
		<layer id="63" name="onnx::MatMul_1015" type="Const" version="opset1">
			<data element_type="f32" shape="32, 32" offset="145492" size="4096" />
			<rt_info>
				<attribute name="fused_names" version="0" value="onnx::MatMul_1015" />
			</rt_info>
			<output>
				<port id="0" precision="FP32" names="onnx::MatMul_1015">
					<dim>32</dim>
					<dim>32</dim>
				</port>
			</output>
		</layer>
		<layer id="64" name="/decoder/block.0/layer.0/SelfAttention/k/MatMul" type="MatMul" version="opset1">
			<data transpose_a="false" transpose_b="false" />
			<rt_info>
				<attribute name="fused_names" version="0" value="/decoder/block.0/layer.0/SelfAttention/k/MatMul" />
			</rt_info>
			<input>
				<port id="0" precision="FP32">
					<dim>-1</dim>
					<dim>-1</dim>
					<dim>32</dim>
				</port>
				<port id="1" precision="FP32">
					<dim>32</dim>
					<dim>32</dim>
				</port>
			</input>
			<output>
				<port id="2" precision="FP32" names="/decoder/block.0/layer.0/SelfAttention/k/MatMul_output_0">
					<dim>-1</dim>
					<dim>-1</dim>
					<dim>32</dim>
				</port>
			</output>
		</layer>
		<layer id="65" name="Constant_127" type="Const" version="opset1">
			<data element_type="i64" shape="1" offset="141328" size="8" />
			<rt_info>
				<attribute name="fused_names" version="0" value="Constant_127" />
			</rt_info>
			<output>
				<port id="0" precision="I64" names="onnx::Unsqueeze_258">
					<dim>1</dim>
				</port>
			</output>
		</layer>
		<layer id="66" name="/decoder/block.0/layer.0/SelfAttention/Unsqueeze_1" type="Unsqueeze" version="opset1">
			<rt_info>
				<attribute name="fused_names" version="0" value="/decoder/block.0/layer.0/SelfAttention/Unsqueeze_1, Constant_127" />
			</rt_info>
			<input>
				<port id="0" precision="I64" />
				<port id="1" precision="I64">
					<dim>1</dim>
				</port>
			</input>
			<output>
				<port id="2" precision="I64" names="/decoder/block.0/layer.0/SelfAttention/Unsqueeze_1_output_0">
					<dim>1</dim>
				</port>
			</output>
		</layer>
		<layer id="67" name="/decoder/block.0/layer.0/SelfAttention/Constant_5" type="Const" version="opset1">
			<data element_type="i64" shape="1" offset="141312" size="8" />
			<rt_info>
				<attribute name="fused_names" version="0" value="/decoder/block.0/layer.0/SelfAttention/Constant_5" />
			</rt_info>
			<output>
				<port id="0" precision="I64" names="/decoder/block.0/layer.0/SelfAttention/Constant_5_output_0">
					<dim>1</dim>
				</port>
			</output>
		</layer>
		<layer id="68" name="/decoder/block.0/layer.0/SelfAttention/Constant_6" type="Const" version="opset1">
			<data element_type="i64" shape="1" offset="145444" size="8" />
			<rt_info>
				<attribute name="fused_names" version="0" value="/decoder/block.0/layer.0/SelfAttention/Constant_6" />
			</rt_info>
			<output>
				<port id="0" precision="I64" names="/decoder/block.0/layer.0/SelfAttention/Constant_6_output_0">
					<dim>1</dim>
				</port>
			</output>
		</layer>
		<layer id="69" name="/decoder/block.0/layer.0/SelfAttention/Constant_7" type="Const" version="opset1">
			<data element_type="i64" shape="1" offset="145452" size="8" />
			<rt_info>
				<attribute name="fused_names" version="0" value="/decoder/block.0/layer.0/SelfAttention/Constant_7" />
			</rt_info>
			<output>
				<port id="0" precision="I64" names="/decoder/block.0/layer.0/SelfAttention/Constant_7_output_0">
					<dim>1</dim>
				</port>
			</output>
		</layer>
		<layer id="70" name="/decoder/block.0/layer.0/SelfAttention/Concat_1" type="Concat" version="opset1">
			<data axis="0" />
			<rt_info>
				<attribute name="fused_names" version="0" value="/decoder/block.0/layer.0/SelfAttention/Concat_1, /decoder/block.0/layer.0/SelfAttention/Constant_5, /decoder/block.0/layer.0/SelfAttention/Constant_6, /decoder/block.0/layer.0/SelfAttention/Constant_7" />
			</rt_info>
			<input>
				<port id="0" precision="I64">
					<dim>1</dim>
				</port>
				<port id="1" precision="I64">
					<dim>1</dim>
				</port>
				<port id="2" precision="I64">
					<dim>1</dim>
				</port>
				<port id="3" precision="I64">
					<dim>1</dim>
				</port>
			</input>
			<output>
				<port id="4" precision="I64" names="/decoder/block.0/layer.0/SelfAttention/Concat_1_output_0">
					<dim>4</dim>
				</port>
			</output>
		</layer>
		<layer id="71" name="/decoder/block.0/layer.0/SelfAttention/Reshape_1" type="Reshape" version="opset1">
			<data special_zero="true" />
			<rt_info>
				<attribute name="fused_names" version="0" value="/decoder/block.0/layer.0/SelfAttention/Reshape_1" />
			</rt_info>
			<input>
				<port id="0" precision="FP32">
					<dim>-1</dim>
					<dim>-1</dim>
					<dim>32</dim>
				</port>
				<port id="1" precision="I64">
					<dim>4</dim>
				</port>
			</input>
			<output>
				<port id="2" precision="FP32" names="/decoder/block.0/layer.0/SelfAttention/Reshape_1_output_0">
					<dim>-1</dim>
					<dim>-1</dim>
					<dim>4</dim>
					<dim>8</dim>
				</port>
			</output>
		</layer>
		<layer id="72" name="Constant_4660132" type="Const" version="opset1">
			<data element_type="i64" shape="4" offset="145460" size="32" />
			<rt_info>
				<attribute name="fused_names" version="0" value="Constant_4660132" />
			</rt_info>
			<output>
				<port id="0" precision="I64">
					<dim>4</dim>
				</port>
			</output>
		</layer>
		<layer id="73" name="/decoder/block.0/layer.0/SelfAttention/Transpose_1" type="Transpose" version="opset1">
			<rt_info>
				<attribute name="fused_names" version="0" value="/decoder/block.0/layer.0/SelfAttention/Transpose_1" />
			</rt_info>
			<input>
				<port id="0" precision="FP32">
					<dim>-1</dim>
					<dim>-1</dim>
					<dim>4</dim>
					<dim>8</dim>
				</port>
				<port id="1" precision="I64">
					<dim>4</dim>
				</port>
			</input>
			<output>
				<port id="2" precision="FP32" names="/decoder/block.0/layer.0/SelfAttention/Transpose_1_output_0">
					<dim>-1</dim>
					<dim>4</dim>
					<dim>-1</dim>
					<dim>8</dim>
				</port>
			</output>
		</layer>
		<layer id="74" name="present.0.decoder.key" type="Concat" version="opset1">
			<data axis="2" />
			<rt_info>
				<attribute name="fused_names" version="0" value="present.0.decoder.key" />
			</rt_info>
			<input>
				<port id="0" precision="FP32">
					<dim>-1</dim>
					<dim>4</dim>
					<dim>-1</dim>
					<dim>8</dim>
				</port>
				<port id="1" precision="FP32">
					<dim>-1</dim>
					<dim>4</dim>
					<dim>-1</dim>
					<dim>8</dim>
				</port>
			</input>
			<output>
				<port id="2" precision="FP32" names="present.0.decoder.key">
					<dim>-1</dim>
					<dim>4</dim>
					<dim>-1</dim>
					<dim>8</dim>
				</port>
			</output>
		</layer>
		<layer id="75" name="/decoder/block.0/layer.0/SelfAttention/MatMul" type="MatMul" version="opset1">
			<data transpose_a="false" transpose_b="true" />
			<rt_info>
				<attribute name="fused_names" version="0" value="/decoder/block.0/layer.0/SelfAttention/MatMul, /decoder/block.0/layer.0/SelfAttention/Transpose_3" />
			</rt_info>
			<input>
				<port id="0" precision="FP32">
					<dim>-1</dim>
					<dim>4</dim>
					<dim>-1</dim>
					<dim>8</dim>
				</port>
				<port id="1" precision="FP32">
					<dim>-1</dim>
					<dim>4</dim>
					<dim>-1</dim>
					<dim>8</dim>
				</port>
			</input>
			<output>
				<port id="2" precision="FP32" names="/decoder/block.0/layer.0/SelfAttention/MatMul_output_0">
					<dim>-1</dim>
					<dim>4</dim>
					<dim>-1</dim>
					<dim>-1</dim>
				</port>
			</output>
		</layer>
		<layer id="76" name="decoder.block.0.layer.0.SelfAttention.relative_attention_bias.weight" type="Const" version="opset1">
			<data element_type="f32" shape="8, 4" offset="149588" size="128" />
			<rt_info>
				<attribute name="fused_names" version="0" value="decoder.block.0.layer.0.SelfAttention.relative_attention_bias.weight" />
			</rt_info>
			<output>
				<port id="0" precision="FP32" names="decoder.block.0.layer.0.SelfAttention.relative_attention_bias.weight">
					<dim>8</dim>
					<dim>4</dim>
				</port>
			</output>
		</layer>
		<layer id="77" name="/decoder/block.0/layer.0/SelfAttention/Constant_14" type="Const" version="opset1">
			<data element_type="i64" shape="" offset="141328" size="8" />
			<rt_info>
				<attribute name="fused_names" version="0" value="/decoder/block.0/layer.0/SelfAttention/Constant_14" />
			</rt_info>
			<output>
				<port id="0" precision="I64" names="/decoder/block.0/layer.0/SelfAttention/Constant_14_output_0" />
			</output>
		</layer>
		<layer id="78" name="/decoder/block.0/layer.0/SelfAttention/Shape_1" type="ShapeOf" version="opset3">
			<data output_type="i64" />
			<rt_info>
				<attribute name="fused_names" version="0" value="/decoder/block.0/layer.0/SelfAttention/Shape_1" />
			</rt_info>
			<input>
				<port id="0" precision="FP32">
					<dim>-1</dim>
					<dim>-1</dim>
					<dim>32</dim>
				</port>
			</input>
			<output>
				<port id="1" precision="I64" names="/decoder/block.0/layer.0/SelfAttention/Shape_1_output_0">
					<dim>3</dim>
				</port>
			</output>
		</layer>
		<layer id="79" name="/decoder/block.0/layer.0/SelfAttention/Constant_1" type="Const" version="opset1">
			<data element_type="i64" shape="" offset="141320" size="8" />
			<rt_info>
				<attribute name="fused_names" version="0" value="/decoder/block.0/layer.0/SelfAttention/Constant_1" />
			</rt_info>
			<output>
				<port id="0" precision="I64" names="/decoder/block.0/layer.0/SelfAttention/Constant_1_output_0" />
			</output>
		</layer>
		<layer id="80" name="Constant_4660093" type="Const" version="opset1">
			<data element_type="i64" shape="" offset="141328" size="8" />
			<rt_info>
				<attribute name="fused_names" version="0" value="Constant_4660093" />
			</rt_info>
			<output>
				<port id="0" precision="I64" />
			</output>
		</layer>
		<layer id="81" name="/decoder/block.0/layer.0/SelfAttention/Gather_1" type="Gather" version="opset8">
			<data batch_dims="0" />
			<rt_info>
				<attribute name="fused_names" version="0" value="/decoder/block.0/layer.0/SelfAttention/Constant_1, /decoder/block.0/layer.0/SelfAttention/Gather_1, Constant_4660093" />
			</rt_info>
			<input>
				<port id="0" precision="I64">
					<dim>3</dim>
				</port>
				<port id="1" precision="I64" />
				<port id="2" precision="I64" />
			</input>
			<output>
				<port id="3" precision="I64" names="/decoder/block.0/layer.0/SelfAttention/Gather_1_output_0" />
			</output>
		</layer>
		<layer id="82" name="/decoder/Shape_2" type="ShapeOf" version="opset3">
			<data output_type="i64" />
			<rt_info>
				<attribute name="fused_names" version="0" value="/decoder/Shape_2" />
			</rt_info>
			<input>
				<port id="0" precision="FP32">
					<dim>-1</dim>
					<dim>4</dim>
					<dim>-1</dim>
					<dim>8</dim>
				</port>
			</input>
			<output>
				<port id="1" precision="I64" names="/decoder/Shape_2_output_0">
					<dim>4</dim>
				</port>
			</output>
		</layer>
		<layer id="83" name="/decoder/Constant_3" type="Const" version="opset1">
			<data element_type="i64" shape="" offset="149716" size="8" />
			<rt_info>
				<attribute name="fused_names" version="0" value="/decoder/Constant_3" />
			</rt_info>
			<output>
				<port id="0" precision="I64" names="/decoder/Constant_3_output_0" />
			</output>
		</layer>
		<layer id="84" name="Constant_4659811" type="Const" version="opset1">
			<data element_type="i64" shape="" offset="141328" size="8" />
			<rt_info>
				<attribute name="fused_names" version="0" value="Constant_4659811" />
			</rt_info>
			<output>
				<port id="0" precision="I64" />
			</output>
		</layer>
		<layer id="85" name="/decoder/Gather_2" type="Gather" version="opset8">
			<data batch_dims="0" />
			<rt_info>
				<attribute name="fused_names" version="0" value="/decoder/Constant_3, /decoder/Gather_2, Constant_4659811" />
			</rt_info>
			<input>
				<port id="0" precision="I64">
					<dim>4</dim>
				</port>
				<port id="1" precision="I64" />
				<port id="2" precision="I64" />
			</input>
			<output>
				<port id="3" precision="I64" names="/decoder/Gather_2_output_0" />
			</output>
		</layer>
		<layer id="86" name="/decoder/block.0/layer.0/SelfAttention/Add" type="Add" version="opset1">
			<data auto_broadcast="numpy" />
			<rt_info>
				<attribute name="fused_names" version="0" value="/decoder/block.0/layer.0/SelfAttention/Add" />
			</rt_info>
			<input>
				<port id="0" precision="I64" />
				<port id="1" precision="I64" />
			</input>
			<output>
				<port id="2" precision="I64" names="/decoder/block.0/layer.0/SelfAttention/Add_output_0" />
			</output>
		</layer>
		<layer id="87" name="/decoder/block.0/layer.0/SelfAttention/Cast_1" type="Convert" version="opset1">
			<data destination_type="i64" />
			<rt_info>
				<attribute name="fused_names" version="0" value="/decoder/block.0/layer.0/SelfAttention/Cast_1" />
			</rt_info>
			<input>
				<port id="0" precision="I64" />
			</input>
			<output>
				<port id="1" precision="I64" names="/decoder/block.0/layer.0/SelfAttention/Cast_1_output_0" />
			</output>
		</layer>
		<layer id="88" name="/decoder/block.0/layer.0/SelfAttention/Constant_15" type="Const" version="opset1">
			<data element_type="i64" shape="" offset="141320" size="8" />
			<rt_info>
				<attribute name="fused_names" version="0" value="/decoder/block.0/layer.0/SelfAttention/Constant_15" />
			</rt_info>
			<output>
				<port id="0" precision="I64" names="/decoder/block.0/layer.0/SelfAttention/Constant_15_output_0" />
			</output>
		</layer>
		<layer id="89" name="/decoder/block.0/layer.0/SelfAttention/Range_1" type="Range" version="opset4">
			<data output_type="i64" />
			<rt_info>
				<attribute name="fused_names" version="0" value="/decoder/block.0/layer.0/SelfAttention/Range_1" />
			</rt_info>
			<input>
				<port id="0" precision="I64" />
				<port id="1" precision="I64" />
				<port id="2" precision="I64" />
			</input>
			<output>
				<port id="3" precision="I64" names="/decoder/block.0/layer.0/SelfAttention/Range_1_output_0">
					<dim>-1</dim>
				</port>
			</output>
		</layer>
		<layer id="90" name="/decoder/block.0/layer.0/SelfAttention/Constant_16" type="Const" version="opset1">
			<data element_type="i64" shape="1" offset="141328" size="8" />
			<rt_info>
				<attribute name="fused_names" version="0" value="/decoder/block.0/layer.0/SelfAttention/Constant_16" />
			</rt_info>
			<output>
				<port id="0" precision="I64" names="/decoder/block.0/layer.0/SelfAttention/Constant_16_output_0">
					<dim>1</dim>
				</port>
			</output>
		</layer>
		<layer id="91" name="/decoder/block.0/layer.0/SelfAttention/Unsqueeze_4" type="Unsqueeze" version="opset1">
			<rt_info>
				<attribute name="fused_names" version="0" value="/decoder/block.0/layer.0/SelfAttention/Unsqueeze_4" />
			</rt_info>
			<input>
				<port id="0" precision="I64">
					<dim>-1</dim>
				</port>
				<port id="1" precision="I64">
					<dim>1</dim>
				</port>
			</input>
			<output>
				<port id="2" precision="I64" names="/decoder/block.0/layer.0/SelfAttention/Unsqueeze_4_output_0">
					<dim>1</dim>
					<dim>-1</dim>
				</port>
			</output>
		</layer>
		<layer id="92" name="/decoder/block.0/layer.0/SelfAttention/Constant_11" type="Const" version="opset1">
			<data element_type="i64" shape="" offset="141328" size="8" />
			<rt_info>
				<attribute name="fused_names" version="0" value="/decoder/block.0/layer.0/SelfAttention/Constant_11" />
			</rt_info>
			<output>
				<port id="0" precision="I64" names="/decoder/block.0/layer.0/SelfAttention/Constant_11_output_0" />
			</output>
		</layer>
		<layer id="93" name="/decoder/block.0/layer.0/SelfAttention/Cast" type="Convert" version="opset1">
			<data destination_type="i64" />
			<rt_info>
				<attribute name="fused_names" version="0" value="/decoder/block.0/layer.0/SelfAttention/Cast" />
			</rt_info>
			<input>
				<port id="0" precision="I64" />
			</input>
			<output>
				<port id="1" precision="I64" names="/decoder/block.0/layer.0/SelfAttention/Cast_output_0" />
			</output>
		</layer>
		<layer id="94" name="/decoder/block.0/layer.0/SelfAttention/Constant_12" type="Const" version="opset1">
			<data element_type="i64" shape="" offset="141320" size="8" />
			<rt_info>
				<attribute name="fused_names" version="0" value="/decoder/block.0/layer.0/SelfAttention/Constant_12" />
			</rt_info>
			<output>
				<port id="0" precision="I64" names="/decoder/block.0/layer.0/SelfAttention/Constant_12_output_0" />
			</output>
		</layer>
		<layer id="95" name="/decoder/block.0/layer.0/SelfAttention/Range" type="Range" version="opset4">
			<data output_type="i64" />
			<rt_info>
				<attribute name="fused_names" version="0" value="/decoder/block.0/layer.0/SelfAttention/Range" />
			</rt_info>
			<input>
				<port id="0" precision="I64" />
				<port id="1" precision="I64" />
				<port id="2" precision="I64" />
			</input>
			<output>
				<port id="3" precision="I64" names="/decoder/block.0/layer.0/SelfAttention/Range_output_0">
					<dim>-1</dim>
				</port>
			</output>
		</layer>
		<layer id="96" name="/decoder/block.0/layer.0/SelfAttention/Constant_13" type="Const" version="opset1">
			<data element_type="i64" shape="1" offset="141320" size="8" />
			<rt_info>
				<attribute name="fused_names" version="0" value="/decoder/block.0/layer.0/SelfAttention/Constant_13" />
			</rt_info>
			<output>
				<port id="0" precision="I64" names="/decoder/block.0/layer.0/SelfAttention/Constant_13_output_0">
					<dim>1</dim>
				</port>
			</output>
		</layer>
		<layer id="97" name="/decoder/block.0/layer.0/SelfAttention/Unsqueeze_3" type="Unsqueeze" version="opset1">
			<rt_info>
				<attribute name="fused_names" version="0" value="/decoder/block.0/layer.0/SelfAttention/Unsqueeze_3" />
			</rt_info>
			<input>
				<port id="0" precision="I64">
					<dim>-1</dim>
				</port>
				<port id="1" precision="I64">
					<dim>1</dim>
				</port>
			</input>
			<output>
				<port id="2" precision="I64" names="/decoder/block.0/layer.0/SelfAttention/Unsqueeze_3_output_0">
					<dim>-1</dim>
					<dim>1</dim>
				</port>
			</output>
		</layer>
		<layer id="98" name="/decoder/block.0/layer.0/SelfAttention/Sub" type="Subtract" version="opset1">
			<data auto_broadcast="numpy" />
			<rt_info>
				<attribute name="fused_names" version="0" value="/decoder/block.0/layer.0/SelfAttention/Sub" />
			</rt_info>
			<input>
				<port id="0" precision="I64">
					<dim>1</dim>
					<dim>-1</dim>
				</port>
				<port id="1" precision="I64">
					<dim>-1</dim>
					<dim>1</dim>
				</port>
			</input>
			<output>
				<port id="2" precision="I64" names="/decoder/block.0/layer.0/SelfAttention/Sub_output_0">
					<dim>-1</dim>
					<dim>-1</dim>
				</port>
			</output>
		</layer>
		<layer id="99" name="Constant_4660308" type="Const" version="opset1">
			<data element_type="i64" shape="" offset="141328" size="8" />
			<rt_info>
				<attribute name="fused_names" version="0" value="Constant_4660308" />
			</rt_info>
			<output>
				<port id="0" precision="I64" />
			</output>
		</layer>
		<layer id="100" name="/decoder/block.0/layer.0/SelfAttention/Shape_2" type="ShapeOf" version="opset3">
			<data output_type="i64" />
			<rt_info>
				<attribute name="fused_names" version="0" value="/decoder/block.0/layer.0/SelfAttention/Shape_2" />
			</rt_info>
			<input>
				<port id="0" precision="I64">
					<dim>-1</dim>
					<dim>-1</dim>
				</port>
			</input>
			<output>
				<port id="1" precision="I64" names="/decoder/block.0/layer.0/SelfAttention/Shape_2_output_0">
					<dim>2</dim>
				</port>
			</output>
		</layer>
		<layer id="101" name="/decoder/block.0/layer.0/SelfAttention/ConstantOfShape" type="Broadcast" version="opset3">
			<data mode="numpy" />
			<rt_info>
				<attribute name="fused_names" version="0" value="/decoder/block.0/layer.0/SelfAttention/ConstantOfShape" />
			</rt_info>
			<input>
				<port id="0" precision="I64" />
				<port id="1" precision="I64">
					<dim>2</dim>
				</port>
			</input>
			<output>
				<port id="2" precision="I64" names="/decoder/block.0/layer.0/SelfAttention/ConstantOfShape_output_0">
					<dim>-1</dim>
					<dim>-1</dim>
				</port>
			</output>
		</layer>
		<layer id="102" name="/decoder/block.0/layer.0/SelfAttention/Min" type="Minimum" version="opset1">
			<data auto_broadcast="numpy" />
			<rt_info>
				<attribute name="fused_names" version="0" value="/decoder/block.0/layer.0/SelfAttention/Min" />
			</rt_info>
			<input>
				<port id="0" precision="I64">
					<dim>-1</dim>
					<dim>-1</dim>
				</port>
				<port id="1" precision="I64">
					<dim>-1</dim>
					<dim>-1</dim>
				</port>
			</input>
			<output>
				<port id="2" precision="I64" names="/decoder/block.0/layer.0/SelfAttention/Min_output_0">
					<dim>-1</dim>
					<dim>-1</dim>
				</port>
			</output>
		</layer>
		<layer id="103" name="/decoder/block.0/layer.0/SelfAttention/Neg" type="Negative" version="opset1">
			<rt_info>
				<attribute name="fused_names" version="0" value="/decoder/block.0/layer.0/SelfAttention/Neg" />
			</rt_info>
			<input>
				<port id="0" precision="I64">
					<dim>-1</dim>
					<dim>-1</dim>
				</port>
			</input>
			<output>
				<port id="1" precision="I64" names="/decoder/block.0/layer.0/SelfAttention/Neg_output_0">
					<dim>-1</dim>
					<dim>-1</dim>
				</port>
			</output>
		</layer>
		<layer id="104" name="/decoder/block.0/layer.0/SelfAttention/Constant_17" type="Const" version="opset1">
			<data element_type="i64" shape="" offset="145444" size="8" />
			<rt_info>
				<attribute name="fused_names" version="0" value="/decoder/block.0/layer.0/SelfAttention/Constant_17" />
			</rt_info>
			<output>
				<port id="0" precision="I64" names="/decoder/block.0/layer.0/SelfAttention/Constant_17_output_0" />
			</output>
		</layer>
		<layer id="105" name="/decoder/block.0/layer.0/SelfAttention/Less" type="Less" version="opset1">
			<data auto_broadcast="numpy" />
			<rt_info>
				<attribute name="fused_names" version="0" value="/decoder/block.0/layer.0/SelfAttention/Less" />
			</rt_info>
			<input>
				<port id="0" precision="I64">
					<dim>-1</dim>
					<dim>-1</dim>
				</port>
				<port id="1" precision="I64" />
			</input>
			<output>
				<port id="2" precision="BOOL" names="/decoder/block.0/layer.0/SelfAttention/Less_output_0">
					<dim>-1</dim>
					<dim>-1</dim>
				</port>
			</output>
		</layer>
		<layer id="106" name="/decoder/block.0/layer.0/SelfAttention/Cast_2" type="Convert" version="opset1">
			<data destination_type="f32" />
			<rt_info>
				<attribute name="fused_names" version="0" value="/decoder/block.0/layer.0/SelfAttention/Cast_2" />
			</rt_info>
			<input>
				<port id="0" precision="I64">
					<dim>-1</dim>
					<dim>-1</dim>
				</port>
			</input>
			<output>
				<port id="1" precision="FP32" names="/decoder/block.0/layer.0/SelfAttention/Cast_2_output_0">
					<dim>-1</dim>
					<dim>-1</dim>
				</port>
			</output>
		</layer>
		<layer id="107" name="/decoder/block.0/layer.0/SelfAttention/Constant_18" type="Const" version="opset1">
			<data element_type="f32" shape="" offset="149724" size="4" />
			<rt_info>
				<attribute name="fused_names" version="0" value="/decoder/block.0/layer.0/SelfAttention/Constant_18" />
			</rt_info>
			<output>
				<port id="0" precision="FP32" names="/decoder/block.0/layer.0/SelfAttention/Constant_18_output_0" />
			</output>
		</layer>
		<layer id="108" name="/decoder/block.0/layer.0/SelfAttention/Div" type="Divide" version="opset1">
			<data auto_broadcast="numpy" m_pythondiv="true" />
			<rt_info>
				<attribute name="fused_names" version="0" value="/decoder/block.0/layer.0/SelfAttention/Div" />
			</rt_info>
			<input>
				<port id="0" precision="FP32">
					<dim>-1</dim>
					<dim>-1</dim>
				</port>
				<port id="1" precision="FP32" />
			</input>
			<output>
				<port id="2" precision="FP32" names="/decoder/block.0/layer.0/SelfAttention/Div_output_0">
					<dim>-1</dim>
					<dim>-1</dim>
				</port>
			</output>
		</layer>
		<layer id="109" name="/decoder/block.0/layer.0/SelfAttention/Log" type="Log" version="opset1">
			<rt_info>
				<attribute name="fused_names" version="0" value="/decoder/block.0/layer.0/SelfAttention/Log" />
			</rt_info>
			<input>
				<port id="0" precision="FP32">
					<dim>-1</dim>
					<dim>-1</dim>
				</port>
			</input>
			<output>
				<port id="1" precision="FP32" names="/decoder/block.0/layer.0/SelfAttention/Log_output_0">
					<dim>-1</dim>
					<dim>-1</dim>
				</port>
			</output>
		</layer>
		<layer id="110" name="/decoder/block.0/layer.0/SelfAttention/Constant_19" type="Const" version="opset1">
			<data element_type="f32" shape="" offset="149728" size="4" />
			<rt_info>
				<attribute name="fused_names" version="0" value="/decoder/block.0/layer.0/SelfAttention/Constant_19" />
			</rt_info>
			<output>
				<port id="0" precision="FP32" names="/decoder/block.0/layer.0/SelfAttention/Constant_19_output_0" />
			</output>
		</layer>
		<layer id="111" name="/decoder/block.0/layer.0/SelfAttention/Div_1" type="Divide" version="opset1">
			<data auto_broadcast="numpy" m_pythondiv="true" />
			<rt_info>
				<attribute name="fused_names" version="0" value="/decoder/block.0/layer.0/SelfAttention/Div_1" />
			</rt_info>
			<input>
				<port id="0" precision="FP32">
					<dim>-1</dim>
					<dim>-1</dim>
				</port>
				<port id="1" precision="FP32" />
			</input>
			<output>
				<port id="2" precision="FP32" names="/decoder/block.0/layer.0/SelfAttention/Div_1_output_0">
					<dim>-1</dim>
					<dim>-1</dim>
				</port>
			</output>
		</layer>
		<layer id="112" name="/decoder/block.0/layer.0/SelfAttention/Constant_20" type="Const" version="opset1">
			<data element_type="f32" shape="" offset="149724" size="4" />
			<rt_info>
				<attribute name="fused_names" version="0" value="/decoder/block.0/layer.0/SelfAttention/Constant_20" />
			</rt_info>
			<output>
				<port id="0" precision="FP32" names="/decoder/block.0/layer.0/SelfAttention/Constant_20_output_0" />
			</output>
		</layer>
		<layer id="113" name="/decoder/block.0/layer.0/SelfAttention/Mul" type="Multiply" version="opset1">
			<data auto_broadcast="numpy" />
			<rt_info>
				<attribute name="fused_names" version="0" value="/decoder/block.0/layer.0/SelfAttention/Mul" />
			</rt_info>
			<input>
				<port id="0" precision="FP32">
					<dim>-1</dim>
					<dim>-1</dim>
				</port>
				<port id="1" precision="FP32" />
			</input>
			<output>
				<port id="2" precision="FP32" names="/decoder/block.0/layer.0/SelfAttention/Mul_output_0">
					<dim>-1</dim>
					<dim>-1</dim>
				</port>
			</output>
		</layer>
		<layer id="114" name="/decoder/block.0/layer.0/SelfAttention/Cast_3" type="Convert" version="opset1">
			<data destination_type="i64" />
			<rt_info>
				<attribute name="fused_names" version="0" value="/decoder/block.0/layer.0/SelfAttention/Cast_3" />
			</rt_info>
			<input>
				<port id="0" precision="FP32">
					<dim>-1</dim>
					<dim>-1</dim>
				</port>
			</input>
			<output>
				<port id="1" precision="I64" names="/decoder/block.0/layer.0/SelfAttention/Cast_3_output_0">
					<dim>-1</dim>
					<dim>-1</dim>
				</port>
			</output>
		</layer>
		<layer id="115" name="/decoder/block.0/layer.0/SelfAttention/Constant_21" type="Const" version="opset1">
			<data element_type="i64" shape="" offset="145444" size="8" />
			<rt_info>
				<attribute name="fused_names" version="0" value="/decoder/block.0/layer.0/SelfAttention/Constant_21" />
			</rt_info>
			<output>
				<port id="0" precision="I64" names="/decoder/block.0/layer.0/SelfAttention/Constant_21_output_0" />
			</output>
		</layer>
		<layer id="116" name="/decoder/block.0/layer.0/SelfAttention/Add_1" type="Add" version="opset1">
			<data auto_broadcast="numpy" />
			<rt_info>
				<attribute name="fused_names" version="0" value="/decoder/block.0/layer.0/SelfAttention/Add_1" />
			</rt_info>
			<input>
				<port id="0" precision="I64">
					<dim>-1</dim>
					<dim>-1</dim>
				</port>
				<port id="1" precision="I64" />
			</input>
			<output>
				<port id="2" precision="I64" names="/decoder/block.0/layer.0/SelfAttention/Add_1_output_0">
					<dim>-1</dim>
					<dim>-1</dim>
				</port>
			</output>
		</layer>
		<layer id="117" name="Constant_4660333" type="Const" version="opset1">
			<data element_type="i64" shape="" offset="149732" size="8" />
			<rt_info>
				<attribute name="fused_names" version="0" value="Constant_4660333" />
			</rt_info>
			<output>
				<port id="0" precision="I64" />
			</output>
		</layer>
		<layer id="118" name="/decoder/block.0/layer.0/SelfAttention/Shape_3" type="ShapeOf" version="opset3">
			<data output_type="i64" />
			<rt_info>
				<attribute name="fused_names" version="0" value="/decoder/block.0/layer.0/SelfAttention/Shape_3" />
			</rt_info>
			<input>
				<port id="0" precision="I64">
					<dim>-1</dim>
					<dim>-1</dim>
				</port>
			</input>
			<output>
				<port id="1" precision="I64" names="/decoder/block.0/layer.0/SelfAttention/Shape_3_output_0">
					<dim>2</dim>
				</port>
			</output>
		</layer>
		<layer id="119" name="/decoder/block.0/layer.0/SelfAttention/ConstantOfShape_1" type="Broadcast" version="opset3">
			<data mode="numpy" />
			<rt_info>
				<attribute name="fused_names" version="0" value="/decoder/block.0/layer.0/SelfAttention/ConstantOfShape_1" />
			</rt_info>
			<input>
				<port id="0" precision="I64" />
				<port id="1" precision="I64">
					<dim>2</dim>
				</port>
			</input>
			<output>
				<port id="2" precision="I64" names="/decoder/block.0/layer.0/SelfAttention/ConstantOfShape_1_output_0">
					<dim>-1</dim>
					<dim>-1</dim>
				</port>
			</output>
		</layer>
		<layer id="120" name="/decoder/block.0/layer.0/SelfAttention/Min_1" type="Minimum" version="opset1">
			<data auto_broadcast="numpy" />
			<rt_info>
				<attribute name="fused_names" version="0" value="/decoder/block.0/layer.0/SelfAttention/Min_1" />
			</rt_info>
			<input>
				<port id="0" precision="I64">
					<dim>-1</dim>
					<dim>-1</dim>
				</port>
				<port id="1" precision="I64">
					<dim>-1</dim>
					<dim>-1</dim>
				</port>
			</input>
			<output>
				<port id="2" precision="I64" names="/decoder/block.0/layer.0/SelfAttention/Min_1_output_0">
					<dim>-1</dim>
					<dim>-1</dim>
				</port>
			</output>
		</layer>
		<layer id="121" name="/decoder/block.0/layer.0/SelfAttention/Where" type="Select" version="opset1">
			<data auto_broadcast="numpy" />
			<rt_info>
				<attribute name="fused_names" version="0" value="/decoder/block.0/layer.0/SelfAttention/Where" />
			</rt_info>
			<input>
				<port id="0" precision="BOOL">
					<dim>-1</dim>
					<dim>-1</dim>
				</port>
				<port id="1" precision="I64">
					<dim>-1</dim>
					<dim>-1</dim>
				</port>
				<port id="2" precision="I64">
					<dim>-1</dim>
					<dim>-1</dim>
				</port>
			</input>
			<output>
				<port id="3" precision="I64" names="/decoder/block.0/layer.0/SelfAttention/Where_output_0">
					<dim>-1</dim>
					<dim>-1</dim>
				</port>
			</output>
		</layer>
		<layer id="122" name="Constant_4660343" type="Const" version="opset1">
			<data element_type="i64" shape="" offset="141328" size="8" />
			<rt_info>
				<attribute name="fused_names" version="0" value="Constant_4660343" />
			</rt_info>
			<output>
				<port id="0" precision="I64" />
			</output>
		</layer>
		<layer id="123" name="/decoder/block.0/layer.0/SelfAttention/relative_attention_bias/Gather" type="Gather" version="opset8">
			<data batch_dims="0" />
			<rt_info>
				<attribute name="fused_names" version="0" value="/decoder/block.0/layer.0/SelfAttention/relative_attention_bias/Gather" />
			</rt_info>
			<input>
				<port id="0" precision="FP32">
					<dim>8</dim>
					<dim>4</dim>
				</port>
				<port id="1" precision="I64">
					<dim>-1</dim>
					<dim>-1</dim>
				</port>
				<port id="2" precision="I64" />
			</input>
			<output>
				<port id="3" precision="FP32" names="/decoder/block.0/layer.0/SelfAttention/relative_attention_bias/Gather_output_0">
					<dim>-1</dim>
					<dim>-1</dim>
					<dim>4</dim>
				</port>
			</output>
		</layer>
		<layer id="124" name="Constant_4660345" type="Const" version="opset1">
			<data element_type="i64" shape="3" offset="149740" size="24" />
			<rt_info>
				<attribute name="fused_names" version="0" value="Constant_4660345" />
			</rt_info>
			<output>
				<port id="0" precision="I64">
					<dim>3</dim>
				</port>
			</output>
		</layer>
		<layer id="125" name="/decoder/block.0/layer.0/SelfAttention/Transpose_4" type="Transpose" version="opset1">
			<rt_info>
				<attribute name="fused_names" version="0" value="/decoder/block.0/layer.0/SelfAttention/Transpose_4" />
			</rt_info>
			<input>
				<port id="0" precision="FP32">
					<dim>-1</dim>
					<dim>-1</dim>
					<dim>4</dim>
				</port>
				<port id="1" precision="I64">
					<dim>3</dim>
				</port>
			</input>
			<output>
				<port id="2" precision="FP32" names="/decoder/block.0/layer.0/SelfAttention/Transpose_4_output_0">
					<dim>4</dim>
					<dim>-1</dim>
					<dim>-1</dim>
				</port>
			</output>
		</layer>
		<layer id="126" name="/decoder/block.0/layer.0/SelfAttention/Constant_22" type="Const" version="opset1">
			<data element_type="i64" shape="1" offset="141328" size="8" />
			<rt_info>
				<attribute name="fused_names" version="0" value="/decoder/block.0/layer.0/SelfAttention/Constant_22" />
			</rt_info>
			<output>
				<port id="0" precision="I64" names="/decoder/block.0/layer.0/SelfAttention/Constant_22_output_0">
					<dim>1</dim>
				</port>
			</output>
		</layer>
		<layer id="127" name="/decoder/block.0/layer.0/SelfAttention/Unsqueeze_5" type="Unsqueeze" version="opset1">
			<rt_info>
				<attribute name="fused_names" version="0" value="/decoder/block.0/layer.0/SelfAttention/Unsqueeze_5" />
			</rt_info>
			<input>
				<port id="0" precision="FP32">
					<dim>4</dim>
					<dim>-1</dim>
					<dim>-1</dim>
				</port>
				<port id="1" precision="I64">
					<dim>1</dim>
				</port>
			</input>
			<output>
				<port id="2" precision="FP32" names="/decoder/block.0/layer.0/SelfAttention/Unsqueeze_5_output_0">
					<dim>1</dim>
					<dim>4</dim>
					<dim>-1</dim>
					<dim>-1</dim>
				</port>
			</output>
		</layer>
		<layer id="128" name="/decoder/block.0/layer.0/SelfAttention/Neg_1" type="Negative" version="opset1">
			<rt_info>
				<attribute name="fused_names" version="0" value="/decoder/block.0/layer.0/SelfAttention/Neg_1" />
			</rt_info>
			<input>
				<port id="0" precision="I64" />
			</input>
			<output>
				<port id="1" precision="I64" names="/decoder/block.0/layer.0/SelfAttention/Neg_1_output_0" />
			</output>
		</layer>
		<layer id="129" name="/decoder/block.0/layer.0/SelfAttention/Constant_23" type="Const" version="opset1">
			<data element_type="i64" shape="1" offset="141328" size="8" />
			<rt_info>
				<attribute name="fused_names" version="0" value="/decoder/block.0/layer.0/SelfAttention/Constant_23" />
			</rt_info>
			<output>
				<port id="0" precision="I64" names="/decoder/block.0/layer.0/SelfAttention/Constant_23_output_0">
					<dim>1</dim>
				</port>
			</output>
		</layer>
		<layer id="130" name="/decoder/block.0/layer.0/SelfAttention/Unsqueeze_6" type="Unsqueeze" version="opset1">
			<rt_info>
				<attribute name="fused_names" version="0" value="/decoder/block.0/layer.0/SelfAttention/Constant_23, /decoder/block.0/layer.0/SelfAttention/Unsqueeze_6" />
			</rt_info>
			<input>
				<port id="0" precision="I64" />
				<port id="1" precision="I64">
					<dim>1</dim>
				</port>
			</input>
			<output>
				<port id="2" precision="I64" names="/decoder/block.0/layer.0/SelfAttention/Unsqueeze_6_output_0">
					<dim>1</dim>
				</port>
			</output>
		</layer>
		<layer id="131" name="/decoder/block.0/layer.0/SelfAttention/Constant_24" type="Const" version="opset1">
			<data element_type="i64" shape="1" offset="149764" size="8" />
			<rt_info>
				<attribute name="fused_names" version="0" value="/decoder/block.0/layer.0/SelfAttention/Constant_24" />
			</rt_info>
			<output>
				<port id="0" precision="I64" names="/decoder/block.0/layer.0/SelfAttention/Constant_24_output_0">
					<dim>1</dim>
				</port>
			</output>
		</layer>
		<layer id="132" name="/decoder/block.0/layer.0/SelfAttention/Constant_26" type="Const" version="opset1">
			<data element_type="i64" shape="1" offset="141320" size="8" />
			<rt_info>
				<attribute name="fused_names" version="0" value="/decoder/block.0/layer.0/SelfAttention/Constant_26" />
			</rt_info>
			<output>
				<port id="0" precision="I64" names="/decoder/block.0/layer.0/SelfAttention/Constant_26_output_0">
					<dim>1</dim>
				</port>
			</output>
		</layer>
		<layer id="133" name="/decoder/block.0/layer.0/SelfAttention/Constant_25" type="Const" version="opset1">
			<data element_type="i64" shape="1" offset="149716" size="8" />
			<rt_info>
				<attribute name="fused_names" version="0" value="/decoder/block.0/layer.0/SelfAttention/Constant_25" />
			</rt_info>
			<output>
				<port id="0" precision="I64" names="/decoder/block.0/layer.0/SelfAttention/Constant_25_output_0">
					<dim>1</dim>
				</port>
			</output>
		</layer>
		<layer id="134" name="/decoder/block.0/layer.0/SelfAttention/Slice" type="Slice" version="opset8">
			<rt_info>
				<attribute name="fused_names" version="0" value="/decoder/block.0/layer.0/SelfAttention/Slice" />
			</rt_info>
			<input>
				<port id="0" precision="FP32">
					<dim>1</dim>
					<dim>4</dim>
					<dim>-1</dim>
					<dim>-1</dim>
				</port>
				<port id="1" precision="I64">
					<dim>1</dim>
				</port>
				<port id="2" precision="I64">
					<dim>1</dim>
				</port>
				<port id="3" precision="I64">
					<dim>1</dim>
				</port>
				<port id="4" precision="I64">
					<dim>1</dim>
				</port>
			</input>
			<output>
				<port id="5" precision="FP32" names="/decoder/block.0/layer.0/SelfAttention/Slice_output_0">
					<dim>1</dim>
					<dim>4</dim>
					<dim>-1</dim>
					<dim>-1</dim>
				</port>
			</output>
		</layer>
		<layer id="135" name="/decoder/Constant_16" type="Const" version="opset1">
			<data element_type="f32" shape="" offset="141336" size="4" />
			<rt_info>
				<attribute name="fused_names" version="0" value="/decoder/Constant_16" />
			</rt_info>
			<output>
				<port id="0" precision="FP32" names="/decoder/Constant_16_output_0" />
			</output>
		</layer>
		<layer id="136" name="Constant_4659977" type="Const" version="opset1">
			<data element_type="f32" shape="" offset="141336" size="4" />
			<rt_info>
				<attribute name="fused_names" version="0" value="Constant_4659977" />
			</rt_info>
			<output>
				<port id="0" precision="FP32" />
			</output>
		</layer>
		<layer id="137" name="/decoder/Shape" type="ShapeOf" version="opset3">
			<data output_type="i64" />
			<rt_info>
				<attribute name="fused_names" version="0" value="/decoder/Shape" />
			</rt_info>
			<input>
				<port id="0" precision="I64">
					<dim>-1</dim>
					<dim>-1</dim>
				</port>
			</input>
			<output>
				<port id="1" precision="I64" names="/decoder/Shape_output_0">
					<dim>2</dim>
				</port>
			</output>
		</layer>
		<layer id="138" name="/decoder/Constant" type="Const" version="opset1">
			<data element_type="i64" shape="" offset="141328" size="8" />
			<rt_info>
				<attribute name="fused_names" version="0" value="/decoder/Constant" />
			</rt_info>
			<output>
				<port id="0" precision="I64" names="/decoder/Constant_output_0" />
			</output>
		</layer>
		<layer id="139" name="Constant_4659790" type="Const" version="opset1">
			<data element_type="i64" shape="" offset="141328" size="8" />
			<rt_info>
				<attribute name="fused_names" version="0" value="Constant_4659790" />
			</rt_info>
			<output>
				<port id="0" precision="I64" />
			</output>
		</layer>
		<layer id="140" name="/decoder/Gather" type="Gather" version="opset8">
			<data batch_dims="0" />
			<rt_info>
				<attribute name="fused_names" version="0" value="/decoder/Constant, /decoder/Gather, Constant_4659790" />
			</rt_info>
			<input>
				<port id="0" precision="I64">
					<dim>2</dim>
				</port>
				<port id="1" precision="I64" />
				<port id="2" precision="I64" />
			</input>
			<output>
				<port id="3" precision="I64" names="/decoder/Gather_output_0" />
			</output>
		</layer>
		<layer id="141" name="Constant_72" type="Const" version="opset1">
			<data element_type="i64" shape="1" offset="141328" size="8" />
			<rt_info>
				<attribute name="fused_names" version="0" value="Constant_72" />
			</rt_info>
			<output>
				<port id="0" precision="I64" names="onnx::Unsqueeze_197">
					<dim>1</dim>
				</port>
			</output>
		</layer>
		<layer id="142" name="/decoder/Unsqueeze_10" type="Unsqueeze" version="opset1">
			<rt_info>
				<attribute name="fused_names" version="0" value="/decoder/Unsqueeze_10, Constant_72" />
			</rt_info>
			<input>
				<port id="0" precision="I64" />
				<port id="1" precision="I64">
					<dim>1</dim>
				</port>
			</input>
			<output>
				<port id="2" precision="I64" names="/decoder/Unsqueeze_10_output_0">
					<dim>1</dim>
				</port>
			</output>
		</layer>
		<layer id="143" name="Constant_74" type="Const" version="opset1">
			<data element_type="i64" shape="1" offset="141328" size="8" />
			<rt_info>
				<attribute name="fused_names" version="0" value="Constant_74" />
			</rt_info>
			<output>
				<port id="0" precision="I64" names="onnx::Unsqueeze_199">
					<dim>1</dim>
				</port>
			</output>
		</layer>
		<layer id="144" name="/decoder/Unsqueeze_11" type="Unsqueeze" version="opset1">
			<rt_info>
				<attribute name="fused_names" version="0" value="/decoder/Unsqueeze_11, Constant_74" />
			</rt_info>
			<input>
				<port id="0" precision="I64" />
				<port id="1" precision="I64">
					<dim>1</dim>
				</port>
			</input>
			<output>
				<port id="2" precision="I64" names="/decoder/Unsqueeze_11_output_0">
					<dim>1</dim>
				</port>
			</output>
		</layer>
		<layer id="145" name="Constant_4659820" type="Const" version="opset1">
			<data element_type="f32" shape="" offset="141336" size="4" />
			<rt_info>
				<attribute name="fused_names" version="0" value="Constant_4659820" />
			</rt_info>
			<output>
				<port id="0" precision="FP32" />
			</output>
		</layer>
		<layer id="146" name="Constant_31" type="Const" version="opset1">
			<data element_type="i64" shape="1" offset="141328" size="8" />
			<rt_info>
				<attribute name="fused_names" version="0" value="Constant_31" />
			</rt_info>
			<output>
				<port id="0" precision="I64" names="onnx::Unsqueeze_153">
					<dim>1</dim>
				</port>
			</output>
		</layer>
		<layer id="147" name="/decoder/Unsqueeze_1" type="Unsqueeze" version="opset1">
			<rt_info>
				<attribute name="fused_names" version="0" value="/decoder/Unsqueeze_1, Constant_31" />
			</rt_info>
			<input>
				<port id="0" precision="I64" />
				<port id="1" precision="I64">
					<dim>1</dim>
				</port>
			</input>
			<output>
				<port id="2" precision="I64" names="/decoder/Unsqueeze_1_output_0">
					<dim>1</dim>
				</port>
			</output>
		</layer>
		<layer id="148" name="/decoder/Add" type="Add" version="opset1">
			<data auto_broadcast="numpy" />
			<rt_info>
				<attribute name="fused_names" version="0" value="/decoder/Add" />
			</rt_info>
			<input>
				<port id="0" precision="I64" />
				<port id="1" precision="I64" />
			</input>
			<output>
				<port id="2" precision="I64" names="/decoder/Add_output_0" />
			</output>
		</layer>
		<layer id="149" name="Constant_33" type="Const" version="opset1">
			<data element_type="i64" shape="1" offset="141328" size="8" />
			<rt_info>
				<attribute name="fused_names" version="0" value="Constant_33" />
			</rt_info>
			<output>
				<port id="0" precision="I64" names="onnx::Unsqueeze_155">
					<dim>1</dim>
				</port>
			</output>
		</layer>
		<layer id="150" name="/decoder/Unsqueeze_2" type="Unsqueeze" version="opset1">
			<rt_info>
				<attribute name="fused_names" version="0" value="/decoder/Unsqueeze_2, Constant_33" />
			</rt_info>
			<input>
				<port id="0" precision="I64" />
				<port id="1" precision="I64">
					<dim>1</dim>
				</port>
			</input>
			<output>
				<port id="2" precision="I64" names="/decoder/Unsqueeze_2_output_0">
					<dim>1</dim>
				</port>
			</output>
		</layer>
		<layer id="151" name="/decoder/Concat_1" type="Concat" version="opset1">
			<data axis="0" />
			<rt_info>
				<attribute name="fused_names" version="0" value="/decoder/Concat_1" />
			</rt_info>
			<input>
				<port id="0" precision="I64">
					<dim>1</dim>
				</port>
				<port id="1" precision="I64">
					<dim>1</dim>
				</port>
			</input>
			<output>
				<port id="2" precision="I64" names="/decoder/Concat_1_output_0">
					<dim>2</dim>
				</port>
			</output>
		</layer>
		<layer id="152" name="/decoder/ConstantOfShape" type="Broadcast" version="opset3">
			<data mode="numpy" />
			<rt_info>
				<attribute name="fused_names" version="0" value="/decoder/ConstantOfShape" />
			</rt_info>
			<input>
				<port id="0" precision="FP32" />
				<port id="1" precision="I64">
					<dim>2</dim>
				</port>
			</input>
			<output>
				<port id="2" precision="FP32" names="/decoder/ConstantOfShape_output_0">
					<dim>-1</dim>
					<dim>-1</dim>
				</port>
			</output>
		</layer>
		<layer id="153" name="/decoder/Shape_4" type="ShapeOf" version="opset3">
			<data output_type="i64" />
			<rt_info>
				<attribute name="fused_names" version="0" value="/decoder/Shape_4" />
			</rt_info>
			<input>
				<port id="0" precision="FP32">
					<dim>-1</dim>
					<dim>-1</dim>
				</port>
			</input>
			<output>
				<port id="1" precision="I64" names="/decoder/Shape_4_output_0">
					<dim>2</dim>
				</port>
			</output>
		</layer>
		<layer id="154" name="/decoder/Constant_11" type="Const" version="opset1">
			<data element_type="i64" shape="" offset="141320" size="8" />
			<rt_info>
				<attribute name="fused_names" version="0" value="/decoder/Constant_11" />
			</rt_info>
			<output>
				<port id="0" precision="I64" names="/decoder/Constant_11_output_0" />
			</output>
		</layer>
		<layer id="155" name="Constant_4659962" type="Const" version="opset1">
			<data element_type="i64" shape="" offset="141328" size="8" />
			<rt_info>
				<attribute name="fused_names" version="0" value="Constant_4659962" />
			</rt_info>
			<output>
				<port id="0" precision="I64" />
			</output>
		</layer>
		<layer id="156" name="/decoder/Gather_3" type="Gather" version="opset8">
			<data batch_dims="0" />
			<rt_info>
				<attribute name="fused_names" version="0" value="/decoder/Constant_11, /decoder/Gather_3, Constant_4659962" />
			</rt_info>
			<input>
				<port id="0" precision="I64">
					<dim>2</dim>
				</port>
				<port id="1" precision="I64" />
				<port id="2" precision="I64" />
			</input>
			<output>
				<port id="3" precision="I64" names="/decoder/Gather_3_output_0" />
			</output>
		</layer>
		<layer id="157" name="/decoder/Constant_4" type="Const" version="opset1">
			<data element_type="i64" shape="" offset="141328" size="8" />
			<rt_info>
				<attribute name="fused_names" version="0" value="/decoder/Constant_4" />
			</rt_info>
			<output>
				<port id="0" precision="I64" names="/decoder/Constant_4_output_0" />
			</output>
		</layer>
		<layer id="158" name="/decoder/Cast" type="Convert" version="opset1">
			<data destination_type="i64" />
			<rt_info>
				<attribute name="fused_names" version="0" value="/decoder/Cast" />
			</rt_info>
			<input>
				<port id="0" precision="I64" />
			</input>
			<output>
				<port id="1" precision="I64" names="/decoder/Cast_output_0" />
			</output>
		</layer>
		<layer id="159" name="/decoder/Constant_5" type="Const" version="opset1">
			<data element_type="i64" shape="" offset="141320" size="8" />
			<rt_info>
				<attribute name="fused_names" version="0" value="/decoder/Constant_5" />
			</rt_info>
			<output>
				<port id="0" precision="I64" names="/decoder/Constant_5_output_0" />
			</output>
		</layer>
		<layer id="160" name="/decoder/Range" type="Range" version="opset4">
			<data output_type="i64" />
			<rt_info>
				<attribute name="fused_names" version="0" value="/decoder/Range" />
			</rt_info>
			<input>
				<port id="0" precision="I64" />
				<port id="1" precision="I64" />
				<port id="2" precision="I64" />
			</input>
			<output>
				<port id="3" precision="I64" names="/decoder/Range_output_0">
					<dim>-1</dim>
				</port>
			</output>
		</layer>
		<layer id="161" name="/decoder/Constant_6" type="Const" version="opset1">
			<data element_type="i64" shape="1" offset="141328" size="8" />
			<rt_info>
				<attribute name="fused_names" version="0" value="/decoder/Constant_6" />
			</rt_info>
			<output>
				<port id="0" precision="I64" names="/decoder/Constant_6_output_0">
					<dim>1</dim>
				</port>
			</output>
		</layer>
		<layer id="162" name="/decoder/Unsqueeze_3" type="Unsqueeze" version="opset1">
			<rt_info>
				<attribute name="fused_names" version="0" value="/decoder/Unsqueeze_3" />
			</rt_info>
			<input>
				<port id="0" precision="I64">
					<dim>-1</dim>
				</port>
				<port id="1" precision="I64">
					<dim>1</dim>
				</port>
			</input>
			<output>
				<port id="2" precision="I64" names="/decoder/Unsqueeze_3_output_0">
					<dim>1</dim>
					<dim>-1</dim>
				</port>
			</output>
		</layer>
		<layer id="163" name="/decoder/Constant_7" type="Const" version="opset1">
			<data element_type="i64" shape="1" offset="141320" size="8" />
			<rt_info>
				<attribute name="fused_names" version="0" value="/decoder/Constant_7" />
			</rt_info>
			<output>
				<port id="0" precision="I64" names="/decoder/Constant_7_output_0">
					<dim>1</dim>
				</port>
			</output>
		</layer>
		<layer id="164" name="/decoder/Unsqueeze_4" type="Unsqueeze" version="opset1">
			<rt_info>
				<attribute name="fused_names" version="0" value="/decoder/Unsqueeze_4" />
			</rt_info>
			<input>
				<port id="0" precision="I64">
					<dim>1</dim>
					<dim>-1</dim>
				</port>
				<port id="1" precision="I64">
					<dim>1</dim>
				</port>
			</input>
			<output>
				<port id="2" precision="I64" names="/decoder/Unsqueeze_4_output_0">
					<dim>1</dim>
					<dim>1</dim>
					<dim>-1</dim>
				</port>
			</output>
		</layer>
		<layer id="165" name="Constant_4659927" type="Const" version="opset1">
			<data element_type="i64" shape="" offset="141320" size="8" />
			<rt_info>
				<attribute name="fused_names" version="0" value="Constant_4659927" />
			</rt_info>
			<output>
				<port id="0" precision="I64" />
			</output>
		</layer>
		<layer id="166" name="Constant_45" type="Const" version="opset1">
			<data element_type="i64" shape="1" offset="141328" size="8" />
			<rt_info>
				<attribute name="fused_names" version="0" value="Constant_45" />
			</rt_info>
			<output>
				<port id="0" precision="I64" names="onnx::Unsqueeze_168">
					<dim>1</dim>
				</port>
			</output>
		</layer>
		<layer id="167" name="/decoder/Unsqueeze_5" type="Unsqueeze" version="opset1">
			<rt_info>
				<attribute name="fused_names" version="0" value="/decoder/Unsqueeze_5" />
			</rt_info>
			<input>
				<port id="0" precision="I64" />
				<port id="1" precision="I64">
					<dim>1</dim>
				</port>
			</input>
			<output>
				<port id="2" precision="I64" names="/decoder/Unsqueeze_5_output_0">
					<dim>1</dim>
				</port>
			</output>
		</layer>
		<layer id="168" name="Constant_47" type="Const" version="opset1">
			<data element_type="i64" shape="1" offset="141328" size="8" />
			<rt_info>
				<attribute name="fused_names" version="0" value="Constant_47" />
			</rt_info>
			<output>
				<port id="0" precision="I64" names="onnx::Unsqueeze_170">
					<dim>1</dim>
				</port>
			</output>
		</layer>
		<layer id="169" name="/decoder/Unsqueeze_6" type="Unsqueeze" version="opset1">
			<rt_info>
				<attribute name="fused_names" version="0" value="/decoder/Unsqueeze_6" />
			</rt_info>
			<input>
				<port id="0" precision="I64" />
				<port id="1" precision="I64">
					<dim>1</dim>
				</port>
			</input>
			<output>
				<port id="2" precision="I64" names="/decoder/Unsqueeze_6_output_0">
					<dim>1</dim>
				</port>
			</output>
		</layer>
		<layer id="170" name="/decoder/Constant_8" type="Const" version="opset1">
			<data element_type="i64" shape="1" offset="141320" size="8" />
			<rt_info>
				<attribute name="fused_names" version="0" value="/decoder/Constant_8" />
			</rt_info>
			<output>
				<port id="0" precision="I64" names="/decoder/Constant_8_output_0">
					<dim>1</dim>
				</port>
			</output>
		</layer>
		<layer id="171" name="/decoder/Concat_2" type="Concat" version="opset1">
			<data axis="0" />
			<rt_info>
				<attribute name="fused_names" version="0" value="/decoder/Concat_2" />
			</rt_info>
			<input>
				<port id="0" precision="I64">
					<dim>1</dim>
				</port>
				<port id="1" precision="I64">
					<dim>1</dim>
				</port>
				<port id="2" precision="I64">
					<dim>1</dim>
				</port>
			</input>
			<output>
				<port id="3" precision="I64" names="/decoder/Concat_2_output_0">
					<dim>3</dim>
				</port>
			</output>
		</layer>
		<layer id="172" name="/decoder/Shape_3" type="ShapeOf" version="opset3">
			<data output_type="i64" />
			<rt_info>
				<attribute name="fused_names" version="0" value="/decoder/Shape_3" />
			</rt_info>
			<input>
				<port id="0" precision="I64">
					<dim>3</dim>
				</port>
			</input>
			<output>
				<port id="1" precision="I64" names="/decoder/Shape_3_output_0">
					<dim>1</dim>
				</port>
			</output>
		</layer>
		<layer id="173" name="/decoder/ConstantOfShape_1" type="Broadcast" version="opset3">
			<data mode="numpy" />
			<rt_info>
				<attribute name="fused_names" version="0" value="/decoder/ConstantOfShape_1, Constant_4659927" />
			</rt_info>
			<input>
				<port id="0" precision="I64" />
				<port id="1" precision="I64">
					<dim>1</dim>
				</port>
			</input>
			<output>
				<port id="2" precision="I64" names="/decoder/ConstantOfShape_1_output_0">
					<dim>3</dim>
				</port>
			</output>
		</layer>
		<layer id="174" name="/decoder/Expand" type="Broadcast" version="opset3">
			<data mode="bidirectional" />
			<rt_info>
				<attribute name="fused_names" version="0" value="/decoder/Expand" />
			</rt_info>
			<input>
				<port id="0" precision="I64">
					<dim>1</dim>
					<dim>1</dim>
					<dim>-1</dim>
				</port>
				<port id="1" precision="I64">
					<dim>3</dim>
				</port>
			</input>
			<output>
				<port id="2" precision="I64" names="/decoder/Expand_output_0">
					<dim>1</dim>
					<dim>1</dim>
					<dim>-1</dim>
				</port>
			</output>
		</layer>
		<layer id="175" name="Constant_51" type="Const" version="opset1">
			<data element_type="i64" shape="1" offset="141328" size="8" />
			<rt_info>
				<attribute name="fused_names" version="0" value="Constant_51" />
			</rt_info>
			<output>
				<port id="0" precision="I64" names="onnx::Unsqueeze_175">
					<dim>1</dim>
				</port>
			</output>
		</layer>
		<layer id="176" name="/decoder/Unsqueeze_7" type="Unsqueeze" version="opset1">
			<rt_info>
				<attribute name="fused_names" version="0" value="/decoder/Unsqueeze_7, Constant_51" />
			</rt_info>
			<input>
				<port id="0" precision="I64" />
				<port id="1" precision="I64">
					<dim>1</dim>
				</port>
			</input>
			<output>
				<port id="2" precision="I64" names="/decoder/Unsqueeze_7_output_0">
					<dim>1</dim>
				</port>
			</output>
		</layer>
		<layer id="177" name="Constant_53" type="Const" version="opset1">
			<data element_type="i64" shape="1" offset="141328" size="8" />
			<rt_info>
				<attribute name="fused_names" version="0" value="Constant_53" />
			</rt_info>
			<output>
				<port id="0" precision="I64" names="onnx::Unsqueeze_177">
					<dim>1</dim>
				</port>
			</output>
		</layer>
		<layer id="178" name="/decoder/Unsqueeze_8" type="Unsqueeze" version="opset1">
			<rt_info>
				<attribute name="fused_names" version="0" value="/decoder/Unsqueeze_8, Constant_53" />
			</rt_info>
			<input>
				<port id="0" precision="I64" />
				<port id="1" precision="I64">
					<dim>1</dim>
				</port>
			</input>
			<output>
				<port id="2" precision="I64" names="/decoder/Unsqueeze_8_output_0">
					<dim>1</dim>
				</port>
			</output>
		</layer>
		<layer id="179" name="/decoder/Constant_9" type="Const" version="opset1">
			<data element_type="i64" shape="1" offset="141320" size="8" />
			<rt_info>
				<attribute name="fused_names" version="0" value="/decoder/Constant_9" />
			</rt_info>
			<output>
				<port id="0" precision="I64" names="/decoder/Constant_9_output_0">
					<dim>1</dim>
				</port>
			</output>
		</layer>
		<layer id="180" name="/decoder/Concat_3" type="Concat" version="opset1">
			<data axis="0" />
			<rt_info>
				<attribute name="fused_names" version="0" value="/decoder/Concat_3, /decoder/Constant_9" />
			</rt_info>
			<input>
				<port id="0" precision="I64">
					<dim>1</dim>
				</port>
				<port id="1" precision="I64">
					<dim>1</dim>
				</port>
				<port id="2" precision="I64">
					<dim>1</dim>
				</port>
			</input>
			<output>
				<port id="3" precision="I64" names="/decoder/Concat_3_output_0">
					<dim>3</dim>
				</port>
			</output>
		</layer>
		<layer id="181" name="Convert_4659934" type="Convert" version="opset1">
			<data destination_type="i64" />
			<rt_info>
				<attribute name="fused_names" version="0" value="Convert_4659934" />
			</rt_info>
			<input>
				<port id="0" precision="I64">
					<dim>3</dim>
				</port>
			</input>
			<output>
				<port id="1" precision="I64">
					<dim>3</dim>
				</port>
			</output>
		</layer>
		<layer id="182" name="/decoder/Tile" type="Tile" version="opset1">
			<rt_info>
				<attribute name="fused_names" version="0" value="/decoder/Tile" />
			</rt_info>
			<input>
				<port id="0" precision="I64">
					<dim>1</dim>
					<dim>1</dim>
					<dim>-1</dim>
				</port>
				<port id="1" precision="I64">
					<dim>3</dim>
				</port>
			</input>
			<output>
				<port id="2" precision="I64" names="/decoder/Tile_output_0">
					<dim>-1</dim>
					<dim>-1</dim>
					<dim>-1</dim>
				</port>
			</output>
		</layer>
		<layer id="183" name="/decoder/Constant_10" type="Const" version="opset1">
			<data element_type="i64" shape="1" offset="149716" size="8" />
			<rt_info>
				<attribute name="fused_names" version="0" value="/decoder/Constant_10" />
			</rt_info>
			<output>
				<port id="0" precision="I64" names="/decoder/Constant_10_output_0">
					<dim>1</dim>
				</port>
			</output>
		</layer>
		<layer id="184" name="/decoder/Unsqueeze_9" type="Unsqueeze" version="opset1">
			<rt_info>
				<attribute name="fused_names" version="0" value="/decoder/Unsqueeze_9" />
			</rt_info>
			<input>
				<port id="0" precision="I64">
					<dim>1</dim>
					<dim>-1</dim>
				</port>
				<port id="1" precision="I64">
					<dim>1</dim>
				</port>
			</input>
			<output>
				<port id="2" precision="I64" names="/decoder/Unsqueeze_9_output_0">
					<dim>1</dim>
					<dim>-1</dim>
					<dim>1</dim>
				</port>
			</output>
		</layer>
		<layer id="185" name="Func_/decoder/LessOrEqualO1" type="Less" version="opset1">
			<data auto_broadcast="numpy" />
			<rt_info>
				<attribute name="fused_names" version="0" value="Func_/decoder/LessOrEqualO1" />
			</rt_info>
			<input>
				<port id="0" precision="I64">
					<dim>-1</dim>
					<dim>-1</dim>
					<dim>-1</dim>
				</port>
				<port id="1" precision="I64">
					<dim>1</dim>
					<dim>-1</dim>
					<dim>1</dim>
				</port>
			</input>
			<output>
				<port id="2" precision="BOOL" names="Func_/decoder/LessOrEqualO1">
					<dim>-1</dim>
					<dim>-1</dim>
					<dim>-1</dim>
				</port>
			</output>
		</layer>
		<layer id="186" name="Func_/decoder/LessOrEqualO2" type="Equal" version="opset1">
			<data auto_broadcast="numpy" />
			<rt_info>
				<attribute name="fused_names" version="0" value="Func_/decoder/LessOrEqualO2" />
			</rt_info>
			<input>
				<port id="0" precision="I64">
					<dim>-1</dim>
					<dim>-1</dim>
					<dim>-1</dim>
				</port>
				<port id="1" precision="I64">
					<dim>1</dim>
					<dim>-1</dim>
					<dim>1</dim>
				</port>
			</input>
			<output>
				<port id="2" precision="BOOL" names="Func_/decoder/LessOrEqualO2">
					<dim>-1</dim>
					<dim>-1</dim>
					<dim>-1</dim>
				</port>
			</output>
		</layer>
		<layer id="187" name="/decoder/LessOrEqual_output_0" type="LogicalOr" version="opset1">
			<data auto_broadcast="numpy" />
			<rt_info>
				<attribute name="fused_names" version="0" value="/decoder/LessOrEqual_output_0" />
			</rt_info>
			<input>
				<port id="0" precision="BOOL">
					<dim>-1</dim>
					<dim>-1</dim>
					<dim>-1</dim>
				</port>
				<port id="1" precision="BOOL">
					<dim>-1</dim>
					<dim>-1</dim>
					<dim>-1</dim>
				</port>
			</input>
			<output>
				<port id="2" precision="BOOL" names="/decoder/LessOrEqual_output_0">
					<dim>-1</dim>
					<dim>-1</dim>
					<dim>-1</dim>
				</port>
			</output>
		</layer>
		<layer id="188" name="/decoder/Cast_1" type="Convert" version="opset1">
			<data destination_type="f32" />
			<rt_info>
				<attribute name="fused_names" version="0" value="/decoder/Cast_1" />
			</rt_info>
			<input>
				<port id="0" precision="BOOL">
					<dim>-1</dim>
					<dim>-1</dim>
					<dim>-1</dim>
				</port>
			</input>
			<output>
				<port id="1" precision="FP32" names="/decoder/Cast_1_output_0">
					<dim>-1</dim>
					<dim>-1</dim>
					<dim>-1</dim>
				</port>
			</output>
		</layer>
		<layer id="189" name="/decoder/Shape_5" type="ShapeOf" version="opset3">
			<data output_type="i64" />
			<rt_info>
				<attribute name="fused_names" version="0" value="/decoder/Shape_5" />
			</rt_info>
			<input>
				<port id="0" precision="FP32">
					<dim>-1</dim>
					<dim>-1</dim>
					<dim>-1</dim>
				</port>
			</input>
			<output>
				<port id="1" precision="I64" names="/decoder/Shape_5_output_0">
					<dim>3</dim>
				</port>
			</output>
		</layer>
		<layer id="190" name="/decoder/Constant_12" type="Const" version="opset1">
			<data element_type="i64" shape="" offset="141320" size="8" />
			<rt_info>
				<attribute name="fused_names" version="0" value="/decoder/Constant_12" />
			</rt_info>
			<output>
				<port id="0" precision="I64" names="/decoder/Constant_12_output_0" />
			</output>
		</layer>
		<layer id="191" name="Constant_4659966" type="Const" version="opset1">
			<data element_type="i64" shape="" offset="141328" size="8" />
			<rt_info>
				<attribute name="fused_names" version="0" value="Constant_4659966" />
			</rt_info>
			<output>
				<port id="0" precision="I64" />
			</output>
		</layer>
		<layer id="192" name="/decoder/Gather_4" type="Gather" version="opset8">
			<data batch_dims="0" />
			<rt_info>
				<attribute name="fused_names" version="0" value="/decoder/Constant_12, /decoder/Gather_4, Constant_4659966" />
			</rt_info>
			<input>
				<port id="0" precision="I64">
					<dim>3</dim>
				</port>
				<port id="1" precision="I64" />
				<port id="2" precision="I64" />
			</input>
			<output>
				<port id="3" precision="I64" names="/decoder/Gather_4_output_0" />
			</output>
		</layer>
		<layer id="193" name="/decoder/Sub" type="Subtract" version="opset1">
			<data auto_broadcast="numpy" />
			<rt_info>
				<attribute name="fused_names" version="0" value="/decoder/Sub" />
			</rt_info>
			<input>
				<port id="0" precision="I64" />
				<port id="1" precision="I64" />
			</input>
			<output>
				<port id="2" precision="I64" names="/decoder/Sub_output_0" />
			</output>
		</layer>
		<layer id="194" name="Constant_76" type="Const" version="opset1">
			<data element_type="i64" shape="1" offset="141328" size="8" />
			<rt_info>
				<attribute name="fused_names" version="0" value="Constant_76" />
			</rt_info>
			<output>
				<port id="0" precision="I64" names="onnx::Unsqueeze_201">
					<dim>1</dim>
				</port>
			</output>
		</layer>
		<layer id="195" name="/decoder/Unsqueeze_12" type="Unsqueeze" version="opset1">
			<rt_info>
				<attribute name="fused_names" version="0" value="/decoder/Unsqueeze_12, Constant_76" />
			</rt_info>
			<input>
				<port id="0" precision="I64" />
				<port id="1" precision="I64">
					<dim>1</dim>
				</port>
			</input>
			<output>
				<port id="2" precision="I64" names="/decoder/Unsqueeze_12_output_0">
					<dim>1</dim>
				</port>
			</output>
		</layer>
		<layer id="196" name="/decoder/Concat_4" type="Concat" version="opset1">
			<data axis="0" />
			<rt_info>
				<attribute name="fused_names" version="0" value="/decoder/Concat_4" />
			</rt_info>
			<input>
				<port id="0" precision="I64">
					<dim>1</dim>
				</port>
				<port id="1" precision="I64">
					<dim>1</dim>
				</port>
				<port id="2" precision="I64">
					<dim>1</dim>
				</port>
			</input>
			<output>
				<port id="3" precision="I64" names="/decoder/Concat_4_output_0">
					<dim>3</dim>
				</port>
			</output>
		</layer>
		<layer id="197" name="/decoder/ConstantOfShape_2" type="Broadcast" version="opset3">
			<data mode="numpy" />
			<rt_info>
				<attribute name="fused_names" version="0" value="/decoder/ConstantOfShape_2" />
			</rt_info>
			<input>
				<port id="0" precision="FP32" />
				<port id="1" precision="I64">
					<dim>3</dim>
				</port>
			</input>
			<output>
				<port id="2" precision="FP32" names="/decoder/ConstantOfShape_2_output_0">
					<dim>-1</dim>
					<dim>-1</dim>
					<dim>-1</dim>
				</port>
			</output>
		</layer>
		<layer id="198" name="/decoder/Concat_5" type="Concat" version="opset1">
			<data axis="-1" />
			<rt_info>
				<attribute name="fused_names" version="0" value="/decoder/Concat_5" />
			</rt_info>
			<input>
				<port id="0" precision="FP32">
					<dim>-1</dim>
					<dim>-1</dim>
					<dim>-1</dim>
				</port>
				<port id="1" precision="FP32">
					<dim>-1</dim>
					<dim>-1</dim>
					<dim>-1</dim>
				</port>
			</input>
			<output>
				<port id="2" precision="FP32" names="/decoder/Concat_5_output_0">
					<dim>-1</dim>
					<dim>-1</dim>
					<dim>-1</dim>
				</port>
			</output>
		</layer>
		<layer id="199" name="/decoder/Constant_13" type="Const" version="opset1">
			<data element_type="i64" shape="1" offset="141320" size="8" />
			<rt_info>
				<attribute name="fused_names" version="0" value="/decoder/Constant_13" />
			</rt_info>
			<output>
				<port id="0" precision="I64" names="/decoder/Constant_13_output_0">
					<dim>1</dim>
				</port>
			</output>
		</layer>
		<layer id="200" name="/decoder/Unsqueeze_13" type="Unsqueeze" version="opset1">
			<rt_info>
				<attribute name="fused_names" version="0" value="/decoder/Unsqueeze_13" />
			</rt_info>
			<input>
				<port id="0" precision="FP32">
					<dim>-1</dim>
					<dim>-1</dim>
					<dim>-1</dim>
				</port>
				<port id="1" precision="I64">
					<dim>1</dim>
				</port>
			</input>
			<output>
				<port id="2" precision="FP32" names="/decoder/Unsqueeze_13_output_0">
					<dim>-1</dim>
					<dim>1</dim>
					<dim>-1</dim>
					<dim>-1</dim>
				</port>
			</output>
		</layer>
		<layer id="201" name="/decoder/Constant_14" type="Const" version="opset1">
			<data element_type="i64" shape="1" offset="141320" size="8" />
			<rt_info>
				<attribute name="fused_names" version="0" value="/decoder/Constant_14" />
			</rt_info>
			<output>
				<port id="0" precision="I64" names="/decoder/Constant_14_output_0">
					<dim>1</dim>
				</port>
			</output>
		</layer>
		<layer id="202" name="/decoder/Unsqueeze_14" type="Unsqueeze" version="opset1">
			<rt_info>
				<attribute name="fused_names" version="0" value="/decoder/Unsqueeze_14" />
			</rt_info>
			<input>
				<port id="0" precision="FP32">
					<dim>-1</dim>
					<dim>-1</dim>
				</port>
				<port id="1" precision="I64">
					<dim>1</dim>
				</port>
			</input>
			<output>
				<port id="2" precision="FP32" names="/decoder/Unsqueeze_14_output_0">
					<dim>-1</dim>
					<dim>1</dim>
					<dim>-1</dim>
				</port>
			</output>
		</layer>
		<layer id="203" name="/decoder/Constant_15" type="Const" version="opset1">
			<data element_type="i64" shape="1" offset="149716" size="8" />
			<rt_info>
				<attribute name="fused_names" version="0" value="/decoder/Constant_15" />
			</rt_info>
			<output>
				<port id="0" precision="I64" names="/decoder/Constant_15_output_0">
					<dim>1</dim>
				</port>
			</output>
		</layer>
		<layer id="204" name="/decoder/Unsqueeze_15" type="Unsqueeze" version="opset1">
			<rt_info>
				<attribute name="fused_names" version="0" value="/decoder/Unsqueeze_15" />
			</rt_info>
			<input>
				<port id="0" precision="FP32">
					<dim>-1</dim>
					<dim>1</dim>
					<dim>-1</dim>
				</port>
				<port id="1" precision="I64">
					<dim>1</dim>
				</port>
			</input>
			<output>
				<port id="2" precision="FP32" names="/decoder/Unsqueeze_15_output_0">
					<dim>-1</dim>
					<dim>1</dim>
					<dim>1</dim>
					<dim>-1</dim>
				</port>
			</output>
		</layer>
		<layer id="205" name="/decoder/Mul" type="Multiply" version="opset1">
			<data auto_broadcast="numpy" />
			<rt_info>
				<attribute name="fused_names" version="0" value="/decoder/Mul" />
			</rt_info>
			<input>
				<port id="0" precision="FP32">
					<dim>-1</dim>
					<dim>1</dim>
					<dim>-1</dim>
					<dim>-1</dim>
				</port>
				<port id="1" precision="FP32">
					<dim>-1</dim>
					<dim>1</dim>
					<dim>1</dim>
					<dim>-1</dim>
				</port>
			</input>
			<output>
				<port id="2" precision="FP32" names="/decoder/Mul_output_0">
					<dim>-1</dim>
					<dim>1</dim>
					<dim>-1</dim>
					<dim>-1</dim>
				</port>
			</output>
		</layer>
		<layer id="206" name="/decoder/Cast_2" type="Convert" version="opset1">
			<data destination_type="f32" />
			<rt_info>
				<attribute name="fused_names" version="0" value="/decoder/Cast_2" />
			</rt_info>
			<input>
				<port id="0" precision="FP32">
					<dim>-1</dim>
					<dim>1</dim>
					<dim>-1</dim>
					<dim>-1</dim>
				</port>
			</input>
			<output>
				<port id="1" precision="FP32" names="/decoder/Cast_2_output_0">
					<dim>-1</dim>
					<dim>1</dim>
					<dim>-1</dim>
					<dim>-1</dim>
				</port>
			</output>
		</layer>
		<layer id="207" name="/decoder/Sub_1" type="Subtract" version="opset1">
			<data auto_broadcast="numpy" />
			<rt_info>
				<attribute name="fused_names" version="0" value="/decoder/Sub_1" />
			</rt_info>
			<input>
				<port id="0" precision="FP32" />
				<port id="1" precision="FP32">
					<dim>-1</dim>
					<dim>1</dim>
					<dim>-1</dim>
					<dim>-1</dim>
				</port>
			</input>
			<output>
				<port id="2" precision="FP32" names="/decoder/Sub_1_output_0">
					<dim>-1</dim>
					<dim>1</dim>
					<dim>-1</dim>
					<dim>-1</dim>
				</port>
			</output>
		</layer>
		<layer id="208" name="/decoder/Constant_17" type="Const" version="opset1">
			<data element_type="f32" shape="" offset="149772" size="4" />
			<rt_info>
				<attribute name="fused_names" version="0" value="/decoder/Constant_17" />
			</rt_info>
			<output>
				<port id="0" precision="FP32" names="/decoder/Constant_17_output_0" />
			</output>
		</layer>
		<layer id="209" name="/decoder/Mul_1" type="Multiply" version="opset1">
			<data auto_broadcast="numpy" />
			<rt_info>
				<attribute name="fused_names" version="0" value="/decoder/Mul_1" />
			</rt_info>
			<input>
				<port id="0" precision="FP32">
					<dim>-1</dim>
					<dim>1</dim>
					<dim>-1</dim>
					<dim>-1</dim>
				</port>
				<port id="1" precision="FP32" />
			</input>
			<output>
				<port id="2" precision="FP32" names="/decoder/Mul_1_output_0">
					<dim>-1</dim>
					<dim>1</dim>
					<dim>-1</dim>
					<dim>-1</dim>
				</port>
			</output>
		</layer>
		<layer id="210" name="/decoder/block.0/layer.0/SelfAttention/Add_2" type="Add" version="opset1">
			<data auto_broadcast="numpy" />
			<rt_info>
				<attribute name="fused_names" version="0" value="/decoder/block.0/layer.0/SelfAttention/Add_2" />
			</rt_info>
			<input>
				<port id="0" precision="FP32">
					<dim>1</dim>
					<dim>4</dim>
					<dim>-1</dim>
					<dim>-1</dim>
				</port>
				<port id="1" precision="FP32">
					<dim>-1</dim>
					<dim>1</dim>
					<dim>-1</dim>
					<dim>-1</dim>
				</port>
			</input>
			<output>
				<port id="2" precision="FP32" names="/decoder/block.0/layer.0/SelfAttention/Add_2_output_0">
					<dim>-1</dim>
					<dim>4</dim>
					<dim>-1</dim>
					<dim>-1</dim>
				</port>
			</output>
		</layer>
		<layer id="211" name="/decoder/block.0/layer.0/SelfAttention/Add_3" type="Add" version="opset1">
			<data auto_broadcast="numpy" />
			<rt_info>
				<attribute name="fused_names" version="0" value="/decoder/block.0/layer.0/SelfAttention/Add_3" />
			</rt_info>
			<input>
				<port id="0" precision="FP32">
					<dim>-1</dim>
					<dim>4</dim>
					<dim>-1</dim>
					<dim>-1</dim>
				</port>
				<port id="1" precision="FP32">
					<dim>-1</dim>
					<dim>4</dim>
					<dim>-1</dim>
					<dim>-1</dim>
				</port>
			</input>
			<output>
				<port id="2" precision="FP32" names="/decoder/block.0/layer.0/SelfAttention/Add_3_output_0">
					<dim>-1</dim>
					<dim>4</dim>
					<dim>-1</dim>
					<dim>-1</dim>
				</port>
			</output>
		</layer>
		<layer id="212" name="/decoder/block.0/layer.0/SelfAttention/Cast_4" type="Convert" version="opset1">
			<data destination_type="f32" />
			<rt_info>
				<attribute name="fused_names" version="0" value="/decoder/block.0/layer.0/SelfAttention/Cast_4" />
			</rt_info>
			<input>
				<port id="0" precision="FP32">
					<dim>-1</dim>
					<dim>4</dim>
					<dim>-1</dim>
					<dim>-1</dim>
				</port>
			</input>
			<output>
				<port id="1" precision="FP32" names="/decoder/block.0/layer.0/SelfAttention/Cast_4_output_0">
					<dim>-1</dim>
					<dim>4</dim>
					<dim>-1</dim>
					<dim>-1</dim>
				</port>
			</output>
		</layer>
		<layer id="213" name="/decoder/block.0/layer.0/SelfAttention/Softmax" type="SoftMax" version="opset8">
			<data axis="-1" />
			<rt_info>
				<attribute name="fused_names" version="0" value="/decoder/block.0/layer.0/SelfAttention/Softmax" />
			</rt_info>
			<input>
				<port id="0" precision="FP32">
					<dim>-1</dim>
					<dim>4</dim>
					<dim>-1</dim>
					<dim>-1</dim>
				</port>
			</input>
			<output>
				<port id="1" precision="FP32" names="/decoder/block.0/layer.0/SelfAttention/Softmax_output_0">
					<dim>-1</dim>
					<dim>4</dim>
					<dim>-1</dim>
					<dim>-1</dim>
				</port>
			</output>
		</layer>
		<layer id="214" name="onnx::MatMul_1016" type="Const" version="opset1">
			<data element_type="f32" shape="32, 32" offset="149776" size="4096" />
			<rt_info>
				<attribute name="fused_names" version="0" value="onnx::MatMul_1016" />
			</rt_info>
			<output>
				<port id="0" precision="FP32" names="onnx::MatMul_1016">
					<dim>32</dim>
					<dim>32</dim>
				</port>
			</output>
		</layer>
		<layer id="215" name="/decoder/block.0/layer.0/SelfAttention/v/MatMul" type="MatMul" version="opset1">
			<data transpose_a="false" transpose_b="false" />
			<rt_info>
				<attribute name="fused_names" version="0" value="/decoder/block.0/layer.0/SelfAttention/v/MatMul" />
			</rt_info>
			<input>
				<port id="0" precision="FP32">
					<dim>-1</dim>
					<dim>-1</dim>
					<dim>32</dim>
				</port>
				<port id="1" precision="FP32">
					<dim>32</dim>
					<dim>32</dim>
				</port>
			</input>
			<output>
				<port id="2" precision="FP32" names="/decoder/block.0/layer.0/SelfAttention/v/MatMul_output_0">
					<dim>-1</dim>
					<dim>-1</dim>
					<dim>32</dim>
				</port>
			</output>
		</layer>
		<layer id="216" name="Constant_133" type="Const" version="opset1">
			<data element_type="i64" shape="1" offset="141328" size="8" />
			<rt_info>
				<attribute name="fused_names" version="0" value="Constant_133" />
			</rt_info>
			<output>
				<port id="0" precision="I64" names="onnx::Unsqueeze_267">
					<dim>1</dim>
				</port>
			</output>
		</layer>
		<layer id="217" name="/decoder/block.0/layer.0/SelfAttention/Unsqueeze_2" type="Unsqueeze" version="opset1">
			<rt_info>
				<attribute name="fused_names" version="0" value="/decoder/block.0/layer.0/SelfAttention/Unsqueeze_2, Constant_133" />
			</rt_info>
			<input>
				<port id="0" precision="I64" />
				<port id="1" precision="I64">
					<dim>1</dim>
				</port>
			</input>
			<output>
				<port id="2" precision="I64" names="/decoder/block.0/layer.0/SelfAttention/Unsqueeze_2_output_0">
					<dim>1</dim>
				</port>
			</output>
		</layer>
		<layer id="218" name="/decoder/block.0/layer.0/SelfAttention/Constant_8" type="Const" version="opset1">
			<data element_type="i64" shape="1" offset="141312" size="8" />
			<rt_info>
				<attribute name="fused_names" version="0" value="/decoder/block.0/layer.0/SelfAttention/Constant_8" />
			</rt_info>
			<output>
				<port id="0" precision="I64" names="/decoder/block.0/layer.0/SelfAttention/Constant_8_output_0">
					<dim>1</dim>
				</port>
			</output>
		</layer>
		<layer id="219" name="/decoder/block.0/layer.0/SelfAttention/Constant_9" type="Const" version="opset1">
			<data element_type="i64" shape="1" offset="145444" size="8" />
			<rt_info>
				<attribute name="fused_names" version="0" value="/decoder/block.0/layer.0/SelfAttention/Constant_9" />
			</rt_info>
			<output>
				<port id="0" precision="I64" names="/decoder/block.0/layer.0/SelfAttention/Constant_9_output_0">
					<dim>1</dim>
				</port>
			</output>
		</layer>
		<layer id="220" name="/decoder/block.0/layer.0/SelfAttention/Constant_10" type="Const" version="opset1">
			<data element_type="i64" shape="1" offset="145452" size="8" />
			<rt_info>
				<attribute name="fused_names" version="0" value="/decoder/block.0/layer.0/SelfAttention/Constant_10" />
			</rt_info>
			<output>
				<port id="0" precision="I64" names="/decoder/block.0/layer.0/SelfAttention/Constant_10_output_0">
					<dim>1</dim>
				</port>
			</output>
		</layer>
		<layer id="221" name="/decoder/block.0/layer.0/SelfAttention/Concat_2" type="Concat" version="opset1">
			<data axis="0" />
			<rt_info>
				<attribute name="fused_names" version="0" value="/decoder/block.0/layer.0/SelfAttention/Concat_2, /decoder/block.0/layer.0/SelfAttention/Constant_10, /decoder/block.0/layer.0/SelfAttention/Constant_8, /decoder/block.0/layer.0/SelfAttention/Constant_9" />
			</rt_info>
			<input>
				<port id="0" precision="I64">
					<dim>1</dim>
				</port>
				<port id="1" precision="I64">
					<dim>1</dim>
				</port>
				<port id="2" precision="I64">
					<dim>1</dim>
				</port>
				<port id="3" precision="I64">
					<dim>1</dim>
				</port>
			</input>
			<output>
				<port id="4" precision="I64" names="/decoder/block.0/layer.0/SelfAttention/Concat_2_output_0">
					<dim>4</dim>
				</port>
			</output>
		</layer>
		<layer id="222" name="/decoder/block.0/layer.0/SelfAttention/Reshape_2" type="Reshape" version="opset1">
			<data special_zero="true" />
			<rt_info>
				<attribute name="fused_names" version="0" value="/decoder/block.0/layer.0/SelfAttention/Reshape_2" />
			</rt_info>
			<input>
				<port id="0" precision="FP32">
					<dim>-1</dim>
					<dim>-1</dim>
					<dim>32</dim>
				</port>
				<port id="1" precision="I64">
					<dim>4</dim>
				</port>
			</input>
			<output>
				<port id="2" precision="FP32" names="/decoder/block.0/layer.0/SelfAttention/Reshape_2_output_0">
					<dim>-1</dim>
					<dim>-1</dim>
					<dim>4</dim>
					<dim>8</dim>
				</port>
			</output>
		</layer>
		<layer id="223" name="Constant_4660143" type="Const" version="opset1">
			<data element_type="i64" shape="4" offset="145460" size="32" />
			<rt_info>
				<attribute name="fused_names" version="0" value="Constant_4660143" />
			</rt_info>
			<output>
				<port id="0" precision="I64">
					<dim>4</dim>
				</port>
			</output>
		</layer>
		<layer id="224" name="/decoder/block.0/layer.0/SelfAttention/Transpose_2" type="Transpose" version="opset1">
			<rt_info>
				<attribute name="fused_names" version="0" value="/decoder/block.0/layer.0/SelfAttention/Transpose_2" />
			</rt_info>
			<input>
				<port id="0" precision="FP32">
					<dim>-1</dim>
					<dim>-1</dim>
					<dim>4</dim>
					<dim>8</dim>
				</port>
				<port id="1" precision="I64">
					<dim>4</dim>
				</port>
			</input>
			<output>
				<port id="2" precision="FP32" names="/decoder/block.0/layer.0/SelfAttention/Transpose_2_output_0">
					<dim>-1</dim>
					<dim>4</dim>
					<dim>-1</dim>
					<dim>8</dim>
				</port>
			</output>
		</layer>
		<layer id="225" name="present.0.decoder.value" type="Concat" version="opset1">
			<data axis="2" />
			<rt_info>
				<attribute name="fused_names" version="0" value="present.0.decoder.value" />
			</rt_info>
			<input>
				<port id="0" precision="FP32">
					<dim>-1</dim>
					<dim>4</dim>
					<dim>-1</dim>
					<dim>8</dim>
				</port>
				<port id="1" precision="FP32">
					<dim>-1</dim>
					<dim>4</dim>
					<dim>-1</dim>
					<dim>8</dim>
				</port>
			</input>
			<output>
				<port id="2" precision="FP32" names="present.0.decoder.value">
					<dim>-1</dim>
					<dim>4</dim>
					<dim>-1</dim>
					<dim>8</dim>
				</port>
			</output>
		</layer>
		<layer id="226" name="/decoder/block.0/layer.0/SelfAttention/MatMul_1" type="MatMul" version="opset1">
			<data transpose_a="false" transpose_b="false" />
			<rt_info>
				<attribute name="fused_names" version="0" value="/decoder/block.0/layer.0/SelfAttention/MatMul_1" />
			</rt_info>
			<input>
				<port id="0" precision="FP32">
					<dim>-1</dim>
					<dim>4</dim>
					<dim>-1</dim>
					<dim>-1</dim>
				</port>
				<port id="1" precision="FP32">
					<dim>-1</dim>
					<dim>4</dim>
					<dim>-1</dim>
					<dim>8</dim>
				</port>
			</input>
			<output>
				<port id="2" precision="FP32" names="/decoder/block.0/layer.0/SelfAttention/MatMul_1_output_0">
					<dim>-1</dim>
					<dim>4</dim>
					<dim>-1</dim>
					<dim>8</dim>
				</port>
			</output>
		</layer>
		<layer id="227" name="Constant_4660367" type="Const" version="opset1">
			<data element_type="i64" shape="4" offset="145460" size="32" />
			<rt_info>
				<attribute name="fused_names" version="0" value="Constant_4660367" />
			</rt_info>
			<output>
				<port id="0" precision="I64">
					<dim>4</dim>
				</port>
			</output>
		</layer>
		<layer id="228" name="/decoder/block.0/layer.0/SelfAttention/Transpose_5" type="Transpose" version="opset1">
			<rt_info>
				<attribute name="fused_names" version="0" value="/decoder/block.0/layer.0/SelfAttention/Transpose_5" />
			</rt_info>
			<input>
				<port id="0" precision="FP32">
					<dim>-1</dim>
					<dim>4</dim>
					<dim>-1</dim>
					<dim>8</dim>
				</port>
				<port id="1" precision="I64">
					<dim>4</dim>
				</port>
			</input>
			<output>
				<port id="2" precision="FP32" names="/decoder/block.0/layer.0/SelfAttention/Transpose_5_output_0">
					<dim>-1</dim>
					<dim>-1</dim>
					<dim>4</dim>
					<dim>8</dim>
				</port>
			</output>
		</layer>
		<layer id="229" name="Constant_202" type="Const" version="opset1">
			<data element_type="i64" shape="1" offset="141328" size="8" />
			<rt_info>
				<attribute name="fused_names" version="0" value="Constant_202" />
			</rt_info>
			<output>
				<port id="0" precision="I64" names="onnx::Unsqueeze_344">
					<dim>1</dim>
				</port>
			</output>
		</layer>
		<layer id="230" name="/decoder/block.0/layer.0/SelfAttention/Unsqueeze_7" type="Unsqueeze" version="opset1">
			<rt_info>
				<attribute name="fused_names" version="0" value="/decoder/block.0/layer.0/SelfAttention/Unsqueeze_7, Constant_202" />
			</rt_info>
			<input>
				<port id="0" precision="I64" />
				<port id="1" precision="I64">
					<dim>1</dim>
				</port>
			</input>
			<output>
				<port id="2" precision="I64" names="/decoder/block.0/layer.0/SelfAttention/Unsqueeze_7_output_0">
					<dim>1</dim>
				</port>
			</output>
		</layer>
		<layer id="231" name="/decoder/block.0/layer.0/SelfAttention/Constant_27" type="Const" version="opset1">
			<data element_type="i64" shape="1" offset="141312" size="8" />
			<rt_info>
				<attribute name="fused_names" version="0" value="/decoder/block.0/layer.0/SelfAttention/Constant_27" />
			</rt_info>
			<output>
				<port id="0" precision="I64" names="/decoder/block.0/layer.0/SelfAttention/Constant_27_output_0">
					<dim>1</dim>
				</port>
			</output>
		</layer>
		<layer id="232" name="/decoder/block.0/layer.0/SelfAttention/Constant_28" type="Const" version="opset1">
			<data element_type="i64" shape="1" offset="153872" size="8" />
			<rt_info>
				<attribute name="fused_names" version="0" value="/decoder/block.0/layer.0/SelfAttention/Constant_28" />
			</rt_info>
			<output>
				<port id="0" precision="I64" names="/decoder/block.0/layer.0/SelfAttention/Constant_28_output_0">
					<dim>1</dim>
				</port>
			</output>
		</layer>
		<layer id="233" name="/decoder/block.0/layer.0/SelfAttention/Concat_5" type="Concat" version="opset1">
			<data axis="0" />
			<rt_info>
				<attribute name="fused_names" version="0" value="/decoder/block.0/layer.0/SelfAttention/Concat_5, /decoder/block.0/layer.0/SelfAttention/Constant_27, /decoder/block.0/layer.0/SelfAttention/Constant_28" />
			</rt_info>
			<input>
				<port id="0" precision="I64">
					<dim>1</dim>
				</port>
				<port id="1" precision="I64">
					<dim>1</dim>
				</port>
				<port id="2" precision="I64">
					<dim>1</dim>
				</port>
			</input>
			<output>
				<port id="3" precision="I64" names="/decoder/block.0/layer.0/SelfAttention/Concat_5_output_0">
					<dim>3</dim>
				</port>
			</output>
		</layer>
		<layer id="234" name="/decoder/block.0/layer.0/SelfAttention/Reshape_3" type="Reshape" version="opset1">
			<data special_zero="true" />
			<rt_info>
				<attribute name="fused_names" version="0" value="/decoder/block.0/layer.0/SelfAttention/Reshape_3" />
			</rt_info>
			<input>
				<port id="0" precision="FP32">
					<dim>-1</dim>
					<dim>-1</dim>
					<dim>4</dim>
					<dim>8</dim>
				</port>
				<port id="1" precision="I64">
					<dim>3</dim>
				</port>
			</input>
			<output>
				<port id="2" precision="FP32" names="/decoder/block.0/layer.0/SelfAttention/Reshape_3_output_0">
					<dim>-1</dim>
					<dim>-1</dim>
					<dim>32</dim>
				</port>
			</output>
		</layer>
		<layer id="235" name="onnx::MatMul_1021" type="Const" version="opset1">
			<data element_type="f32" shape="32, 32" offset="153880" size="4096" />
			<rt_info>
				<attribute name="fused_names" version="0" value="onnx::MatMul_1021" />
			</rt_info>
			<output>
				<port id="0" precision="FP32" names="onnx::MatMul_1021">
					<dim>32</dim>
					<dim>32</dim>
				</port>
			</output>
		</layer>
		<layer id="236" name="/decoder/block.0/layer.0/SelfAttention/o/MatMul" type="MatMul" version="opset1">
			<data transpose_a="false" transpose_b="false" />
			<rt_info>
				<attribute name="fused_names" version="0" value="/decoder/block.0/layer.0/SelfAttention/o/MatMul" />
			</rt_info>
			<input>
				<port id="0" precision="FP32">
					<dim>-1</dim>
					<dim>-1</dim>
					<dim>32</dim>
				</port>
				<port id="1" precision="FP32">
					<dim>32</dim>
					<dim>32</dim>
				</port>
			</input>
			<output>
				<port id="2" precision="FP32" names="/decoder/block.0/layer.0/SelfAttention/o/MatMul_output_0">
					<dim>-1</dim>
					<dim>-1</dim>
					<dim>32</dim>
				</port>
			</output>
		</layer>
		<layer id="237" name="/decoder/block.0/layer.0/Add" type="Add" version="opset1">
			<data auto_broadcast="numpy" />
			<rt_info>
				<attribute name="fused_names" version="0" value="/decoder/block.0/layer.0/Add" />
			</rt_info>
			<input>
				<port id="0" precision="FP32">
					<dim>-1</dim>
					<dim>-1</dim>
					<dim>32</dim>
				</port>
				<port id="1" precision="FP32">
					<dim>-1</dim>
					<dim>-1</dim>
					<dim>32</dim>
				</port>
			</input>
			<output>
				<port id="2" precision="FP32" names="/decoder/block.0/layer.0/Add_output_0">
					<dim>-1</dim>
					<dim>-1</dim>
					<dim>32</dim>
				</port>
			</output>
		</layer>
		<layer id="238" name="/decoder/block.0/layer.1/layer_norm/Cast" type="Convert" version="opset1">
			<data destination_type="f32" />
			<rt_info>
				<attribute name="fused_names" version="0" value="/decoder/block.0/layer.1/layer_norm/Cast" />
			</rt_info>
			<input>
				<port id="0" precision="FP32">
					<dim>-1</dim>
					<dim>-1</dim>
					<dim>32</dim>
				</port>
			</input>
			<output>
				<port id="1" precision="FP32" names="/decoder/block.0/layer.1/layer_norm/Cast_output_0">
					<dim>-1</dim>
					<dim>-1</dim>
					<dim>32</dim>
				</port>
			</output>
		</layer>
		<layer id="239" name="/decoder/block.0/layer.1/layer_norm/Constant_2" type="Const" version="opset1">
			<data element_type="f32" shape="" offset="141336" size="4" />
			<rt_info>
				<attribute name="fused_names" version="0" value="/decoder/block.0/layer.1/layer_norm/Constant_2" />
			</rt_info>
			<output>
				<port id="0" precision="FP32" names="/decoder/block.0/layer.1/layer_norm/Constant_2_output_0" />
			</output>
		</layer>
		<layer id="240" name="/decoder/block.0/layer.1/layer_norm/Constant" type="Const" version="opset1">
			<data element_type="f32" shape="" offset="141340" size="4" />
			<rt_info>
				<attribute name="fused_names" version="0" value="/decoder/block.0/layer.1/layer_norm/Constant" />
			</rt_info>
			<output>
				<port id="0" precision="FP32" names="/decoder/block.0/layer.1/layer_norm/Constant_output_0" />
			</output>
		</layer>
		<layer id="241" name="/decoder/block.0/layer.1/layer_norm/Pow" type="Power" version="opset1">
			<data auto_broadcast="numpy" />
			<rt_info>
				<attribute name="fused_names" version="0" value="/decoder/block.0/layer.1/layer_norm/Pow" />
			</rt_info>
			<input>
				<port id="0" precision="FP32">
					<dim>-1</dim>
					<dim>-1</dim>
					<dim>32</dim>
				</port>
				<port id="1" precision="FP32" />
			</input>
			<output>
				<port id="2" precision="FP32" names="/decoder/block.0/layer.1/layer_norm/Pow_output_0">
					<dim>-1</dim>
					<dim>-1</dim>
					<dim>32</dim>
				</port>
			</output>
		</layer>
		<layer id="242" name="Constant_4660390" type="Const" version="opset1">
			<data element_type="i64" shape="1" offset="141312" size="8" />
			<rt_info>
				<attribute name="fused_names" version="0" value="Constant_4660390" />
			</rt_info>
			<output>
				<port id="0" precision="I64">
					<dim>1</dim>
				</port>
			</output>
		</layer>
		<layer id="243" name="/decoder/block.0/layer.1/layer_norm/ReduceMean" type="ReduceMean" version="opset1">
			<data keep_dims="true" />
			<rt_info>
				<attribute name="fused_names" version="0" value="/decoder/block.0/layer.1/layer_norm/ReduceMean" />
			</rt_info>
			<input>
				<port id="0" precision="FP32">
					<dim>-1</dim>
					<dim>-1</dim>
					<dim>32</dim>
				</port>
				<port id="1" precision="I64">
					<dim>1</dim>
				</port>
			</input>
			<output>
				<port id="2" precision="FP32" names="/decoder/block.0/layer.1/layer_norm/ReduceMean_output_0">
					<dim>-1</dim>
					<dim>-1</dim>
					<dim>1</dim>
				</port>
			</output>
		</layer>
		<layer id="244" name="/decoder/block.0/layer.1/layer_norm/Constant_1" type="Const" version="opset1">
			<data element_type="f32" shape="" offset="141344" size="4" />
			<rt_info>
				<attribute name="fused_names" version="0" value="/decoder/block.0/layer.1/layer_norm/Constant_1" />
			</rt_info>
			<output>
				<port id="0" precision="FP32" names="/decoder/block.0/layer.1/layer_norm/Constant_1_output_0" />
			</output>
		</layer>
		<layer id="245" name="/decoder/block.0/layer.1/layer_norm/Add" type="Add" version="opset1">
			<data auto_broadcast="numpy" />
			<rt_info>
				<attribute name="fused_names" version="0" value="/decoder/block.0/layer.1/layer_norm/Add" />
			</rt_info>
			<input>
				<port id="0" precision="FP32">
					<dim>-1</dim>
					<dim>-1</dim>
					<dim>1</dim>
				</port>
				<port id="1" precision="FP32" />
			</input>
			<output>
				<port id="2" precision="FP32" names="/decoder/block.0/layer.1/layer_norm/Add_output_0">
					<dim>-1</dim>
					<dim>-1</dim>
					<dim>1</dim>
				</port>
			</output>
		</layer>
		<layer id="246" name="/decoder/block.0/layer.1/layer_norm/Sqrt" type="Sqrt" version="opset1">
			<rt_info>
				<attribute name="fused_names" version="0" value="/decoder/block.0/layer.1/layer_norm/Sqrt" />
			</rt_info>
			<input>
				<port id="0" precision="FP32">
					<dim>-1</dim>
					<dim>-1</dim>
					<dim>1</dim>
				</port>
			</input>
			<output>
				<port id="1" precision="FP32" names="/decoder/block.0/layer.1/layer_norm/Sqrt_output_0">
					<dim>-1</dim>
					<dim>-1</dim>
					<dim>1</dim>
				</port>
			</output>
		</layer>
		<layer id="247" name="/decoder/block.0/layer.1/layer_norm/Div" type="Divide" version="opset1">
			<data auto_broadcast="numpy" m_pythondiv="true" />
			<rt_info>
				<attribute name="fused_names" version="0" value="/decoder/block.0/layer.1/layer_norm/Div" />
			</rt_info>
			<input>
				<port id="0" precision="FP32" />
				<port id="1" precision="FP32">
					<dim>-1</dim>
					<dim>-1</dim>
					<dim>1</dim>
				</port>
			</input>
			<output>
				<port id="2" precision="FP32" names="/decoder/block.0/layer.1/layer_norm/Div_output_0">
					<dim>-1</dim>
					<dim>-1</dim>
					<dim>1</dim>
				</port>
			</output>
		</layer>
		<layer id="248" name="/decoder/block.0/layer.1/layer_norm/Mul" type="Multiply" version="opset1">
			<data auto_broadcast="numpy" />
			<rt_info>
				<attribute name="fused_names" version="0" value="/decoder/block.0/layer.1/layer_norm/Mul" />
			</rt_info>
			<input>
				<port id="0" precision="FP32">
					<dim>-1</dim>
					<dim>-1</dim>
					<dim>32</dim>
				</port>
				<port id="1" precision="FP32">
					<dim>-1</dim>
					<dim>-1</dim>
					<dim>1</dim>
				</port>
			</input>
			<output>
				<port id="2" precision="FP32" names="/decoder/block.0/layer.1/layer_norm/Mul_output_0">
					<dim>-1</dim>
					<dim>-1</dim>
					<dim>32</dim>
				</port>
			</output>
		</layer>
		<layer id="249" name="/decoder/block.0/layer.1/layer_norm/Mul_1" type="Multiply" version="opset1">
			<data auto_broadcast="numpy" />
			<rt_info>
				<attribute name="fused_names" version="0" value="/decoder/block.0/layer.1/layer_norm/Mul_1" />
			</rt_info>
			<input>
				<port id="0" precision="FP32">
					<dim>32</dim>
				</port>
				<port id="1" precision="FP32">
					<dim>-1</dim>
					<dim>-1</dim>
					<dim>32</dim>
				</port>
			</input>
			<output>
				<port id="2" precision="FP32" names="/decoder/block.0/layer.1/layer_norm/Mul_1_output_0">
					<dim>-1</dim>
					<dim>-1</dim>
					<dim>32</dim>
				</port>
			</output>
		</layer>
		<layer id="250" name="onnx::MatMul_1022" type="Const" version="opset1">
			<data element_type="f32" shape="32, 32" offset="157976" size="4096" />
			<rt_info>
				<attribute name="fused_names" version="0" value="onnx::MatMul_1022" />
			</rt_info>
			<output>
				<port id="0" precision="FP32" names="onnx::MatMul_1022">
					<dim>32</dim>
					<dim>32</dim>
				</port>
			</output>
		</layer>
		<layer id="251" name="/decoder/block.0/layer.1/EncDecAttention/q/MatMul" type="MatMul" version="opset1">
			<data transpose_a="false" transpose_b="false" />
			<rt_info>
				<attribute name="fused_names" version="0" value="/decoder/block.0/layer.1/EncDecAttention/q/MatMul" />
			</rt_info>
			<input>
				<port id="0" precision="FP32">
					<dim>-1</dim>
					<dim>-1</dim>
					<dim>32</dim>
				</port>
				<port id="1" precision="FP32">
					<dim>32</dim>
					<dim>32</dim>
				</port>
			</input>
			<output>
				<port id="2" precision="FP32" names="/decoder/block.0/layer.1/EncDecAttention/q/MatMul_output_0">
					<dim>-1</dim>
					<dim>-1</dim>
					<dim>32</dim>
				</port>
			</output>
		</layer>
		<layer id="252" name="/decoder/block.0/layer.1/EncDecAttention/Shape" type="ShapeOf" version="opset3">
			<data output_type="i64" />
			<rt_info>
				<attribute name="fused_names" version="0" value="/decoder/block.0/layer.1/EncDecAttention/Shape" />
			</rt_info>
			<input>
				<port id="0" precision="FP32">
					<dim>-1</dim>
					<dim>-1</dim>
					<dim>32</dim>
				</port>
			</input>
			<output>
				<port id="1" precision="I64" names="/decoder/block.0/layer.1/EncDecAttention/Shape_output_0">
					<dim>3</dim>
				</port>
			</output>
		</layer>
		<layer id="253" name="/decoder/block.0/layer.1/EncDecAttention/Constant" type="Const" version="opset1">
			<data element_type="i64" shape="" offset="141328" size="8" />
			<rt_info>
				<attribute name="fused_names" version="0" value="/decoder/block.0/layer.1/EncDecAttention/Constant" />
			</rt_info>
			<output>
				<port id="0" precision="I64" names="/decoder/block.0/layer.1/EncDecAttention/Constant_output_0" />
			</output>
		</layer>
		<layer id="254" name="Constant_4660401" type="Const" version="opset1">
			<data element_type="i64" shape="" offset="141328" size="8" />
			<rt_info>
				<attribute name="fused_names" version="0" value="Constant_4660401" />
			</rt_info>
			<output>
				<port id="0" precision="I64" />
			</output>
		</layer>
		<layer id="255" name="/decoder/block.0/layer.1/EncDecAttention/Gather" type="Gather" version="opset8">
			<data batch_dims="0" />
			<rt_info>
				<attribute name="fused_names" version="0" value="/decoder/block.0/layer.1/EncDecAttention/Constant, /decoder/block.0/layer.1/EncDecAttention/Gather, Constant_4660401" />
			</rt_info>
			<input>
				<port id="0" precision="I64">
					<dim>3</dim>
				</port>
				<port id="1" precision="I64" />
				<port id="2" precision="I64" />
			</input>
			<output>
				<port id="3" precision="I64" names="/decoder/block.0/layer.1/EncDecAttention/Gather_output_0" />
			</output>
		</layer>
		<layer id="256" name="Constant_235" type="Const" version="opset1">
			<data element_type="i64" shape="1" offset="141328" size="8" />
			<rt_info>
				<attribute name="fused_names" version="0" value="Constant_235" />
			</rt_info>
			<output>
				<port id="0" precision="I64" names="onnx::Unsqueeze_381">
					<dim>1</dim>
				</port>
			</output>
		</layer>
		<layer id="257" name="/decoder/block.0/layer.1/EncDecAttention/Unsqueeze" type="Unsqueeze" version="opset1">
			<rt_info>
				<attribute name="fused_names" version="0" value="/decoder/block.0/layer.1/EncDecAttention/Unsqueeze, Constant_235" />
			</rt_info>
			<input>
				<port id="0" precision="I64" />
				<port id="1" precision="I64">
					<dim>1</dim>
				</port>
			</input>
			<output>
				<port id="2" precision="I64" names="/decoder/block.0/layer.1/EncDecAttention/Unsqueeze_output_0">
					<dim>1</dim>
				</port>
			</output>
		</layer>
		<layer id="258" name="/decoder/block.0/layer.1/EncDecAttention/Constant_3" type="Const" version="opset1">
			<data element_type="i64" shape="1" offset="141312" size="8" />
			<rt_info>
				<attribute name="fused_names" version="0" value="/decoder/block.0/layer.1/EncDecAttention/Constant_3" />
			</rt_info>
			<output>
				<port id="0" precision="I64" names="/decoder/block.0/layer.1/EncDecAttention/Constant_3_output_0">
					<dim>1</dim>
				</port>
			</output>
		</layer>
		<layer id="259" name="/decoder/block.0/layer.1/EncDecAttention/Constant_4" type="Const" version="opset1">
			<data element_type="i64" shape="1" offset="145444" size="8" />
			<rt_info>
				<attribute name="fused_names" version="0" value="/decoder/block.0/layer.1/EncDecAttention/Constant_4" />
			</rt_info>
			<output>
				<port id="0" precision="I64" names="/decoder/block.0/layer.1/EncDecAttention/Constant_4_output_0">
					<dim>1</dim>
				</port>
			</output>
		</layer>
		<layer id="260" name="/decoder/block.0/layer.1/EncDecAttention/Constant_5" type="Const" version="opset1">
			<data element_type="i64" shape="1" offset="145452" size="8" />
			<rt_info>
				<attribute name="fused_names" version="0" value="/decoder/block.0/layer.1/EncDecAttention/Constant_5" />
			</rt_info>
			<output>
				<port id="0" precision="I64" names="/decoder/block.0/layer.1/EncDecAttention/Constant_5_output_0">
					<dim>1</dim>
				</port>
			</output>
		</layer>
		<layer id="261" name="/decoder/block.0/layer.1/EncDecAttention/Concat" type="Concat" version="opset1">
			<data axis="0" />
			<rt_info>
				<attribute name="fused_names" version="0" value="/decoder/block.0/layer.1/EncDecAttention/Concat, /decoder/block.0/layer.1/EncDecAttention/Constant_3, /decoder/block.0/layer.1/EncDecAttention/Constant_4, /decoder/block.0/layer.1/EncDecAttention/Constant_5" />
			</rt_info>
			<input>
				<port id="0" precision="I64">
					<dim>1</dim>
				</port>
				<port id="1" precision="I64">
					<dim>1</dim>
				</port>
				<port id="2" precision="I64">
					<dim>1</dim>
				</port>
				<port id="3" precision="I64">
					<dim>1</dim>
				</port>
			</input>
			<output>
				<port id="4" precision="I64" names="/decoder/block.0/layer.1/EncDecAttention/Concat_output_0">
					<dim>4</dim>
				</port>
			</output>
		</layer>
		<layer id="262" name="/decoder/block.0/layer.1/EncDecAttention/Reshape" type="Reshape" version="opset1">
			<data special_zero="true" />
			<rt_info>
				<attribute name="fused_names" version="0" value="/decoder/block.0/layer.1/EncDecAttention/Reshape" />
			</rt_info>
			<input>
				<port id="0" precision="FP32">
					<dim>-1</dim>
					<dim>-1</dim>
					<dim>32</dim>
				</port>
				<port id="1" precision="I64">
					<dim>4</dim>
				</port>
			</input>
			<output>
				<port id="2" precision="FP32" names="/decoder/block.0/layer.1/EncDecAttention/Reshape_output_0">
					<dim>-1</dim>
					<dim>-1</dim>
					<dim>4</dim>
					<dim>8</dim>
				</port>
			</output>
		</layer>
		<layer id="263" name="Constant_4660426" type="Const" version="opset1">
			<data element_type="i64" shape="4" offset="145460" size="32" />
			<rt_info>
				<attribute name="fused_names" version="0" value="Constant_4660426" />
			</rt_info>
			<output>
				<port id="0" precision="I64">
					<dim>4</dim>
				</port>
			</output>
		</layer>
		<layer id="264" name="/decoder/block.0/layer.1/EncDecAttention/Transpose" type="Transpose" version="opset1">
			<rt_info>
				<attribute name="fused_names" version="0" value="/decoder/block.0/layer.1/EncDecAttention/Transpose" />
			</rt_info>
			<input>
				<port id="0" precision="FP32">
					<dim>-1</dim>
					<dim>-1</dim>
					<dim>4</dim>
					<dim>8</dim>
				</port>
				<port id="1" precision="I64">
					<dim>4</dim>
				</port>
			</input>
			<output>
				<port id="2" precision="FP32" names="/decoder/block.0/layer.1/EncDecAttention/Transpose_output_0">
					<dim>-1</dim>
					<dim>4</dim>
					<dim>-1</dim>
					<dim>8</dim>
				</port>
			</output>
		</layer>
		<layer id="265" name="/decoder/block.0/layer.1/EncDecAttention/MatMul" type="MatMul" version="opset1">
			<data transpose_a="false" transpose_b="true" />
			<rt_info>
				<attribute name="fused_names" version="0" value="/decoder/block.0/layer.1/EncDecAttention/MatMul, /decoder/block.0/layer.1/EncDecAttention/Transpose_1" />
			</rt_info>
			<input>
				<port id="0" precision="FP32">
					<dim>-1</dim>
					<dim>4</dim>
					<dim>-1</dim>
					<dim>8</dim>
				</port>
				<port id="1" precision="FP32">
					<dim>-1</dim>
					<dim>4</dim>
					<dim>-1</dim>
					<dim>8</dim>
				</port>
			</input>
			<output>
				<port id="2" precision="FP32" names="/decoder/block.0/layer.1/EncDecAttention/MatMul_output_0">
					<dim>-1</dim>
					<dim>4</dim>
					<dim>-1</dim>
					<dim>-1</dim>
				</port>
			</output>
		</layer>
		<layer id="266" name="Constant_4660439" type="Const" version="opset1">
			<data element_type="f32" shape="" offset="162072" size="4" />
			<rt_info>
				<attribute name="fused_names" version="0" value="Constant_4660439" />
			</rt_info>
			<output>
				<port id="0" precision="FP32" />
			</output>
		</layer>
		<layer id="267" name="/decoder/block.0/layer.1/EncDecAttention/Constant_6" type="Const" version="opset1">
			<data element_type="i64" shape="1" offset="141320" size="8" />
			<rt_info>
				<attribute name="fused_names" version="0" value="/decoder/block.0/layer.1/EncDecAttention/Constant_6" />
			</rt_info>
			<output>
				<port id="0" precision="I64" names="/decoder/block.0/layer.1/EncDecAttention/Constant_6_output_0">
					<dim>1</dim>
				</port>
			</output>
		</layer>
		<layer id="268" name="/decoder/block.0/layer.1/EncDecAttention/Constant_7" type="Const" version="opset1">
			<data element_type="i64" shape="1" offset="145444" size="8" />
			<rt_info>
				<attribute name="fused_names" version="0" value="/decoder/block.0/layer.1/EncDecAttention/Constant_7" />
			</rt_info>
			<output>
				<port id="0" precision="I64" names="/decoder/block.0/layer.1/EncDecAttention/Constant_7_output_0">
					<dim>1</dim>
				</port>
			</output>
		</layer>
		<layer id="269" name="/decoder/block.0/layer.1/EncDecAttention/Shape_1" type="ShapeOf" version="opset3">
			<data output_type="i64" />
			<rt_info>
				<attribute name="fused_names" version="0" value="/decoder/block.0/layer.1/EncDecAttention/Shape_1" />
			</rt_info>
			<input>
				<port id="0" precision="FP32">
					<dim>-1</dim>
					<dim>-1</dim>
					<dim>32</dim>
				</port>
			</input>
			<output>
				<port id="1" precision="I64" names="/decoder/block.0/layer.1/EncDecAttention/Shape_1_output_0">
					<dim>3</dim>
				</port>
			</output>
		</layer>
		<layer id="270" name="/decoder/block.0/layer.1/EncDecAttention/Constant_1" type="Const" version="opset1">
			<data element_type="i64" shape="" offset="141320" size="8" />
			<rt_info>
				<attribute name="fused_names" version="0" value="/decoder/block.0/layer.1/EncDecAttention/Constant_1" />
			</rt_info>
			<output>
				<port id="0" precision="I64" names="/decoder/block.0/layer.1/EncDecAttention/Constant_1_output_0" />
			</output>
		</layer>
		<layer id="271" name="Constant_4660405" type="Const" version="opset1">
			<data element_type="i64" shape="" offset="141328" size="8" />
			<rt_info>
				<attribute name="fused_names" version="0" value="Constant_4660405" />
			</rt_info>
			<output>
				<port id="0" precision="I64" />
			</output>
		</layer>
		<layer id="272" name="/decoder/block.0/layer.1/EncDecAttention/Gather_1" type="Gather" version="opset8">
			<data batch_dims="0" />
			<rt_info>
				<attribute name="fused_names" version="0" value="/decoder/block.0/layer.1/EncDecAttention/Constant_1, /decoder/block.0/layer.1/EncDecAttention/Gather_1, Constant_4660405" />
			</rt_info>
			<input>
				<port id="0" precision="I64">
					<dim>3</dim>
				</port>
				<port id="1" precision="I64" />
				<port id="2" precision="I64" />
			</input>
			<output>
				<port id="3" precision="I64" names="/decoder/block.0/layer.1/EncDecAttention/Gather_1_output_0" />
			</output>
		</layer>
		<layer id="273" name="/decoder/block.0/Shape" type="ShapeOf" version="opset3">
			<data output_type="i64" />
			<rt_info>
				<attribute name="fused_names" version="0" value="/decoder/block.0/Shape" />
			</rt_info>
			<input>
				<port id="0" precision="FP32">
					<dim>-1</dim>
					<dim>4</dim>
					<dim>-1</dim>
					<dim>8</dim>
				</port>
			</input>
			<output>
				<port id="1" precision="I64" names="/decoder/block.0/Shape_output_0">
					<dim>4</dim>
				</port>
			</output>
		</layer>
		<layer id="274" name="/decoder/block.0/Constant" type="Const" version="opset1">
			<data element_type="i64" shape="" offset="149716" size="8" />
			<rt_info>
				<attribute name="fused_names" version="0" value="/decoder/block.0/Constant" />
			</rt_info>
			<output>
				<port id="0" precision="I64" names="/decoder/block.0/Constant_output_0" />
			</output>
		</layer>
		<layer id="275" name="Constant_4660385" type="Const" version="opset1">
			<data element_type="i64" shape="" offset="141328" size="8" />
			<rt_info>
				<attribute name="fused_names" version="0" value="Constant_4660385" />
			</rt_info>
			<output>
				<port id="0" precision="I64" />
			</output>
		</layer>
		<layer id="276" name="/decoder/block.0/Gather" type="Gather" version="opset8">
			<data batch_dims="0" />
			<rt_info>
				<attribute name="fused_names" version="0" value="/decoder/block.0/Constant, /decoder/block.0/Gather, Constant_4660385" />
			</rt_info>
			<input>
				<port id="0" precision="I64">
					<dim>4</dim>
				</port>
				<port id="1" precision="I64" />
				<port id="2" precision="I64" />
			</input>
			<output>
				<port id="3" precision="I64" names="/decoder/block.0/Gather_output_0" />
			</output>
		</layer>
		<layer id="277" name="/decoder/block.0/layer.1/EncDecAttention/Add" type="Add" version="opset1">
			<data auto_broadcast="numpy" />
			<rt_info>
				<attribute name="fused_names" version="0" value="/decoder/block.0/layer.1/EncDecAttention/Add" />
			</rt_info>
			<input>
				<port id="0" precision="I64" />
				<port id="1" precision="I64" />
			</input>
			<output>
				<port id="2" precision="I64" names="/decoder/block.0/layer.1/EncDecAttention/Add_output_0" />
			</output>
		</layer>
		<layer id="278" name="Constant_247" type="Const" version="opset1">
			<data element_type="i64" shape="1" offset="141328" size="8" />
			<rt_info>
				<attribute name="fused_names" version="0" value="Constant_247" />
			</rt_info>
			<output>
				<port id="0" precision="I64" names="onnx::Unsqueeze_398">
					<dim>1</dim>
				</port>
			</output>
		</layer>
		<layer id="279" name="/decoder/block.0/layer.1/EncDecAttention/Unsqueeze_1" type="Unsqueeze" version="opset1">
			<rt_info>
				<attribute name="fused_names" version="0" value="/decoder/block.0/layer.1/EncDecAttention/Unsqueeze_1, Constant_247" />
			</rt_info>
			<input>
				<port id="0" precision="I64" />
				<port id="1" precision="I64">
					<dim>1</dim>
				</port>
			</input>
			<output>
				<port id="2" precision="I64" names="/decoder/block.0/layer.1/EncDecAttention/Unsqueeze_1_output_0">
					<dim>1</dim>
				</port>
			</output>
		</layer>
		<layer id="280" name="/decoder/block.0/layer.1/EncDecAttention/Shape_2" type="ShapeOf" version="opset3">
			<data output_type="i64" />
			<rt_info>
				<attribute name="fused_names" version="0" value="/decoder/block.0/layer.1/EncDecAttention/Shape_2" />
			</rt_info>
			<input>
				<port id="0" precision="FP32">
					<dim>-1</dim>
					<dim>-1</dim>
					<dim>32</dim>
				</port>
			</input>
			<output>
				<port id="1" precision="I64" names="/decoder/block.0/layer.1/EncDecAttention/Shape_2_output_0">
					<dim>3</dim>
				</port>
			</output>
		</layer>
		<layer id="281" name="/decoder/block.0/layer.1/EncDecAttention/Constant_2" type="Const" version="opset1">
			<data element_type="i64" shape="" offset="141320" size="8" />
			<rt_info>
				<attribute name="fused_names" version="0" value="/decoder/block.0/layer.1/EncDecAttention/Constant_2" />
			</rt_info>
			<output>
				<port id="0" precision="I64" names="/decoder/block.0/layer.1/EncDecAttention/Constant_2_output_0" />
			</output>
		</layer>
		<layer id="282" name="Constant_4660410" type="Const" version="opset1">
			<data element_type="i64" shape="" offset="141328" size="8" />
			<rt_info>
				<attribute name="fused_names" version="0" value="Constant_4660410" />
			</rt_info>
			<output>
				<port id="0" precision="I64" />
			</output>
		</layer>
		<layer id="283" name="/decoder/block.0/layer.1/EncDecAttention/Gather_2" type="Gather" version="opset8">
			<data batch_dims="0" />
			<rt_info>
				<attribute name="fused_names" version="0" value="/decoder/block.0/layer.1/EncDecAttention/Constant_2, /decoder/block.0/layer.1/EncDecAttention/Gather_2, Constant_4660410" />
			</rt_info>
			<input>
				<port id="0" precision="I64">
					<dim>3</dim>
				</port>
				<port id="1" precision="I64" />
				<port id="2" precision="I64" />
			</input>
			<output>
				<port id="3" precision="I64" names="/decoder/block.0/layer.1/EncDecAttention/Gather_2_output_0" />
			</output>
		</layer>
		<layer id="284" name="Constant_249" type="Const" version="opset1">
			<data element_type="i64" shape="1" offset="141328" size="8" />
			<rt_info>
				<attribute name="fused_names" version="0" value="Constant_249" />
			</rt_info>
			<output>
				<port id="0" precision="I64" names="onnx::Unsqueeze_400">
					<dim>1</dim>
				</port>
			</output>
		</layer>
		<layer id="285" name="/decoder/block.0/layer.1/EncDecAttention/Unsqueeze_2" type="Unsqueeze" version="opset1">
			<rt_info>
				<attribute name="fused_names" version="0" value="/decoder/block.0/layer.1/EncDecAttention/Unsqueeze_2, Constant_249" />
			</rt_info>
			<input>
				<port id="0" precision="I64" />
				<port id="1" precision="I64">
					<dim>1</dim>
				</port>
			</input>
			<output>
				<port id="2" precision="I64" names="/decoder/block.0/layer.1/EncDecAttention/Unsqueeze_2_output_0">
					<dim>1</dim>
				</port>
			</output>
		</layer>
		<layer id="286" name="/decoder/block.0/layer.1/EncDecAttention/Concat_1" type="Concat" version="opset1">
			<data axis="0" />
			<rt_info>
				<attribute name="fused_names" version="0" value="/decoder/block.0/layer.1/EncDecAttention/Concat_1, /decoder/block.0/layer.1/EncDecAttention/Constant_6, /decoder/block.0/layer.1/EncDecAttention/Constant_7" />
			</rt_info>
			<input>
				<port id="0" precision="I64">
					<dim>1</dim>
				</port>
				<port id="1" precision="I64">
					<dim>1</dim>
				</port>
				<port id="2" precision="I64">
					<dim>1</dim>
				</port>
				<port id="3" precision="I64">
					<dim>1</dim>
				</port>
			</input>
			<output>
				<port id="4" precision="I64" names="/decoder/block.0/layer.1/EncDecAttention/Concat_1_output_0">
					<dim>4</dim>
				</port>
			</output>
		</layer>
		<layer id="287" name="/decoder/block.0/layer.1/EncDecAttention/ConstantOfShape" type="Broadcast" version="opset3">
			<data mode="numpy" />
			<rt_info>
				<attribute name="fused_names" version="0" value="/decoder/block.0/layer.1/EncDecAttention/ConstantOfShape" />
			</rt_info>
			<input>
				<port id="0" precision="FP32" />
				<port id="1" precision="I64">
					<dim>4</dim>
				</port>
			</input>
			<output>
				<port id="2" precision="FP32" names="/decoder/block.0/layer.1/EncDecAttention/ConstantOfShape_output_0">
					<dim>1</dim>
					<dim>4</dim>
					<dim>-1</dim>
					<dim>-1</dim>
				</port>
			</output>
		</layer>
		<layer id="288" name="/decoder/block.0/layer.1/EncDecAttention/Neg" type="Negative" version="opset1">
			<rt_info>
				<attribute name="fused_names" version="0" value="/decoder/block.0/layer.1/EncDecAttention/Neg" />
			</rt_info>
			<input>
				<port id="0" precision="I64" />
			</input>
			<output>
				<port id="1" precision="I64" names="/decoder/block.0/layer.1/EncDecAttention/Neg_output_0" />
			</output>
		</layer>
		<layer id="289" name="/decoder/block.0/layer.1/EncDecAttention/Constant_8" type="Const" version="opset1">
			<data element_type="i64" shape="1" offset="141328" size="8" />
			<rt_info>
				<attribute name="fused_names" version="0" value="/decoder/block.0/layer.1/EncDecAttention/Constant_8" />
			</rt_info>
			<output>
				<port id="0" precision="I64" names="/decoder/block.0/layer.1/EncDecAttention/Constant_8_output_0">
					<dim>1</dim>
				</port>
			</output>
		</layer>
		<layer id="290" name="/decoder/block.0/layer.1/EncDecAttention/Unsqueeze_3" type="Unsqueeze" version="opset1">
			<rt_info>
				<attribute name="fused_names" version="0" value="/decoder/block.0/layer.1/EncDecAttention/Unsqueeze_3" />
			</rt_info>
			<input>
				<port id="0" precision="I64" />
				<port id="1" precision="I64">
					<dim>1</dim>
				</port>
			</input>
			<output>
				<port id="2" precision="I64" names="/decoder/block.0/layer.1/EncDecAttention/Unsqueeze_3_output_0">
					<dim>1</dim>
				</port>
			</output>
		</layer>
		<layer id="291" name="/decoder/block.0/layer.1/EncDecAttention/Constant_9" type="Const" version="opset1">
			<data element_type="i64" shape="1" offset="149764" size="8" />
			<rt_info>
				<attribute name="fused_names" version="0" value="/decoder/block.0/layer.1/EncDecAttention/Constant_9" />
			</rt_info>
			<output>
				<port id="0" precision="I64" names="/decoder/block.0/layer.1/EncDecAttention/Constant_9_output_0">
					<dim>1</dim>
				</port>
			</output>
		</layer>
		<layer id="292" name="/decoder/block.0/layer.1/EncDecAttention/Constant_11" type="Const" version="opset1">
			<data element_type="i64" shape="1" offset="141320" size="8" />
			<rt_info>
				<attribute name="fused_names" version="0" value="/decoder/block.0/layer.1/EncDecAttention/Constant_11" />
			</rt_info>
			<output>
				<port id="0" precision="I64" names="/decoder/block.0/layer.1/EncDecAttention/Constant_11_output_0">
					<dim>1</dim>
				</port>
			</output>
		</layer>
		<layer id="293" name="/decoder/block.0/layer.1/EncDecAttention/Constant_10" type="Const" version="opset1">
			<data element_type="i64" shape="1" offset="149716" size="8" />
			<rt_info>
				<attribute name="fused_names" version="0" value="/decoder/block.0/layer.1/EncDecAttention/Constant_10" />
			</rt_info>
			<output>
				<port id="0" precision="I64" names="/decoder/block.0/layer.1/EncDecAttention/Constant_10_output_0">
					<dim>1</dim>
				</port>
			</output>
		</layer>
		<layer id="294" name="/decoder/block.0/layer.1/EncDecAttention/Slice" type="Slice" version="opset8">
			<rt_info>
				<attribute name="fused_names" version="0" value="/decoder/block.0/layer.1/EncDecAttention/Slice" />
			</rt_info>
			<input>
				<port id="0" precision="FP32">
					<dim>1</dim>
					<dim>4</dim>
					<dim>-1</dim>
					<dim>-1</dim>
				</port>
				<port id="1" precision="I64">
					<dim>1</dim>
				</port>
				<port id="2" precision="I64">
					<dim>1</dim>
				</port>
				<port id="3" precision="I64">
					<dim>1</dim>
				</port>
				<port id="4" precision="I64">
					<dim>1</dim>
				</port>
			</input>
			<output>
				<port id="5" precision="FP32" names="/decoder/block.0/layer.1/EncDecAttention/Slice_output_0">
					<dim>1</dim>
					<dim>4</dim>
					<dim>-1</dim>
					<dim>-1</dim>
				</port>
			</output>
		</layer>
		<layer id="295" name="/decoder/Constant_20" type="Const" version="opset1">
			<data element_type="f32" shape="" offset="141336" size="4" />
			<rt_info>
				<attribute name="fused_names" version="0" value="/decoder/Constant_20" />
			</rt_info>
			<output>
				<port id="0" precision="FP32" names="/decoder/Constant_20_output_0" />
			</output>
		</layer>
		<layer id="296" name="/decoder/Constant_18" type="Const" version="opset1">
			<data element_type="i64" shape="1" offset="141320" size="8" />
			<rt_info>
				<attribute name="fused_names" version="0" value="/decoder/Constant_18" />
			</rt_info>
			<output>
				<port id="0" precision="I64" names="/decoder/Constant_18_output_0">
					<dim>1</dim>
				</port>
			</output>
		</layer>
		<layer id="297" name="/decoder/Unsqueeze_16" type="Unsqueeze" version="opset1">
			<rt_info>
				<attribute name="fused_names" version="0" value="/decoder/Unsqueeze_16" />
			</rt_info>
			<input>
				<port id="0" precision="I64">
					<dim>-1</dim>
					<dim>-1</dim>
				</port>
				<port id="1" precision="I64">
					<dim>1</dim>
				</port>
			</input>
			<output>
				<port id="2" precision="I64" names="/decoder/Unsqueeze_16_output_0">
					<dim>-1</dim>
					<dim>1</dim>
					<dim>-1</dim>
				</port>
			</output>
		</layer>
		<layer id="298" name="/decoder/Constant_19" type="Const" version="opset1">
			<data element_type="i64" shape="1" offset="149716" size="8" />
			<rt_info>
				<attribute name="fused_names" version="0" value="/decoder/Constant_19" />
			</rt_info>
			<output>
				<port id="0" precision="I64" names="/decoder/Constant_19_output_0">
…
		<edge from-layer="219" from-port="0" to-layer="221" to-port="2" />
		<edge from-layer="220" from-port="0" to-layer="221" to-port="3" />
		<edge from-layer="221" from-port="4" to-layer="222" to-port="1" />
		<edge from-layer="222" from-port="2" to-layer="224" to-port="0" />
		<edge from-layer="223" from-port="0" to-layer="224" to-port="1" />
		<edge from-layer="224" from-port="2" to-layer="225" to-port="1" />
		<edge from-layer="225" from-port="2" to-layer="226" to-port="1" />
		<edge from-layer="225" from-port="2" to-layer="770" to-port="0" />
		<edge from-layer="226" from-port="2" to-layer="228" to-port="0" />
		<edge from-layer="227" from-port="0" to-layer="228" to-port="1" />
		<edge from-layer="228" from-port="2" to-layer="234" to-port="0" />
		<edge from-layer="229" from-port="0" to-layer="230" to-port="1" />
		<edge from-layer="230" from-port="2" to-layer="233" to-port="0" />
		<edge from-layer="231" from-port="0" to-layer="233" to-port="1" />
		<edge from-layer="232" from-port="0" to-layer="233" to-port="2" />
		<edge from-layer="233" from-port="3" to-layer="234" to-port="1" />
		<edge from-layer="234" from-port="2" to-layer="236" to-port="0" />
		<edge from-layer="235" from-port="0" to-layer="236" to-port="1" />
		<edge from-layer="236" from-port="2" to-layer="237" to-port="1" />
		<edge from-layer="237" from-port="2" to-layer="238" to-port="0" />
		<edge from-layer="238" from-port="1" to-layer="319" to-port="0" />
		<edge from-layer="238" from-port="1" to-layer="241" to-port="0" />
		<edge from-layer="238" from-port="1" to-layer="248" to-port="0" />
		<edge from-layer="239" from-port="0" to-layer="247" to-port="0" />
		<edge from-layer="240" from-port="0" to-layer="241" to-port="1" />
		<edge from-layer="241" from-port="2" to-layer="243" to-port="0" />
		<edge from-layer="242" from-port="0" to-layer="243" to-port="1" />
		<edge from-layer="243" from-port="2" to-layer="245" to-port="0" />
		<edge from-layer="244" from-port="0" to-layer="245" to-port="1" />
		<edge from-layer="245" from-port="2" to-layer="246" to-port="0" />
		<edge from-layer="246" from-port="1" to-layer="247" to-port="1" />
		<edge from-layer="247" from-port="2" to-layer="248" to-port="1" />
		<edge from-layer="248" from-port="2" to-layer="249" to-port="1" />
		<edge from-layer="249" from-port="2" to-layer="269" to-port="0" />
		<edge from-layer="249" from-port="2" to-layer="251" to-port="0" />
		<edge from-layer="249" from-port="2" to-layer="252" to-port="0" />
		<edge from-layer="250" from-port="0" to-layer="251" to-port="1" />
		<edge from-layer="251" from-port="2" to-layer="262" to-port="0" />
		<edge from-layer="252" from-port="1" to-layer="255" to-port="0" />
		<edge from-layer="253" from-port="0" to-layer="255" to-port="1" />
		<edge from-layer="254" from-port="0" to-layer="255" to-port="2" />
		<edge from-layer="255" from-port="3" to-layer="257" to-port="0" />
		<edge from-layer="255" from-port="3" to-layer="312" to-port="0" />
		<edge from-layer="256" from-port="0" to-layer="257" to-port="1" />
		<edge from-layer="257" from-port="2" to-layer="261" to-port="0" />
		<edge from-layer="258" from-port="0" to-layer="261" to-port="1" />
		<edge from-layer="259" from-port="0" to-layer="261" to-port="2" />
		<edge from-layer="260" from-port="0" to-layer="261" to-port="3" />
		<edge from-layer="261" from-port="4" to-layer="262" to-port="1" />
		<edge from-layer="262" from-port="2" to-layer="264" to-port="0" />
		<edge from-layer="263" from-port="0" to-layer="264" to-port="1" />
		<edge from-layer="264" from-port="2" to-layer="265" to-port="0" />
		<edge from-layer="265" from-port="2" to-layer="305" to-port="0" />
		<edge from-layer="266" from-port="0" to-layer="287" to-port="0" />
		<edge from-layer="267" from-port="0" to-layer="286" to-port="0" />
		<edge from-layer="268" from-port="0" to-layer="286" to-port="1" />
		<edge from-layer="269" from-port="1" to-layer="272" to-port="0" />
		<edge from-layer="270" from-port="0" to-layer="272" to-port="1" />
		<edge from-layer="271" from-port="0" to-layer="272" to-port="2" />
		<edge from-layer="272" from-port="3" to-layer="288" to-port="0" />
		<edge from-layer="272" from-port="3" to-layer="277" to-port="0" />
		<edge from-layer="273" from-port="1" to-layer="276" to-port="0" />
		<edge from-layer="274" from-port="0" to-layer="276" to-port="1" />
		<edge from-layer="275" from-port="0" to-layer="276" to-port="2" />
		<edge from-layer="276" from-port="3" to-layer="277" to-port="1" />
		<edge from-layer="277" from-port="2" to-layer="279" to-port="0" />
		<edge from-layer="278" from-port="0" to-layer="279" to-port="1" />
		<edge from-layer="279" from-port="2" to-layer="286" to-port="2" />
		<edge from-layer="280" from-port="1" to-layer="283" to-port="0" />
		<edge from-layer="281" from-port="0" to-layer="283" to-port="1" />
		<edge from-layer="282" from-port="0" to-layer="283" to-port="2" />
		<edge from-layer="283" from-port="3" to-layer="285" to-port="0" />
		<edge from-layer="284" from-port="0" to-layer="285" to-port="1" />
		<edge from-layer="285" from-port="2" to-layer="286" to-port="3" />
		<edge from-layer="286" from-port="4" to-layer="287" to-port="1" />
		<edge from-layer="287" from-port="2" to-layer="294" to-port="0" />
		<edge from-layer="288" from-port="1" to-layer="290" to-port="0" />
		<edge from-layer="289" from-port="0" to-layer="290" to-port="1" />
		<edge from-layer="290" from-port="2" to-layer="294" to-port="1" />
		<edge from-layer="291" from-port="0" to-layer="294" to-port="2" />
		<edge from-layer="292" from-port="0" to-layer="294" to-port="3" />
		<edge from-layer="293" from-port="0" to-layer="294" to-port="4" />
		<edge from-layer="294" from-port="5" to-layer="304" to-port="0" />
		<edge from-layer="295" from-port="0" to-layer="301" to-port="0" />
		<edge from-layer="296" from-port="0" to-layer="297" to-port="1" />
		<edge from-layer="297" from-port="2" to-layer="299" to-port="0" />
		<edge from-layer="298" from-port="0" to-layer="299" to-port="1" />
		<edge from-layer="299" from-port="2" to-layer="300" to-port="0" />
		<edge from-layer="300" from-port="1" to-layer="301" to-port="1" />
		<edge from-layer="301" from-port="2" to-layer="303" to-port="0" />
		<edge from-layer="302" from-port="0" to-layer="303" to-port="1" />
		<edge from-layer="303" from-port="2" to-layer="304" to-port="1" />
		<edge from-layer="304" from-port="2" to-layer="433" to-port="1" />
		<edge from-layer="304" from-port="2" to-layer="561" to-port="1" />
		<edge from-layer="304" from-port="2" to-layer="305" to-port="1" />
		<edge from-layer="304" from-port="2" to-layer="827" to-port="1" />
		<edge from-layer="304" from-port="2" to-layer="689" to-port="1" />
		<edge from-layer="305" from-port="2" to-layer="306" to-port="0" />
		<edge from-layer="306" from-port="1" to-layer="307" to-port="0" />
		<edge from-layer="307" from-port="1" to-layer="308" to-port="0" />
		<edge from-layer="308" from-port="2" to-layer="310" to-port="0" />
		<edge from-layer="309" from-port="0" to-layer="310" to-port="1" />
		<edge from-layer="310" from-port="2" to-layer="316" to-port="0" />
		<edge from-layer="311" from-port="0" to-layer="312" to-port="1" />
		<edge from-layer="312" from-port="2" to-layer="315" to-port="0" />
		<edge from-layer="313" from-port="0" to-layer="315" to-port="1" />
		<edge from-layer="314" from-port="0" to-layer="315" to-port="2" />
		<edge from-layer="315" from-port="3" to-layer="316" to-port="1" />
		<edge from-layer="316" from-port="2" to-layer="318" to-port="0" />
		<edge from-layer="317" from-port="0" to-layer="318" to-port="1" />
		<edge from-layer="318" from-port="2" to-layer="319" to-port="1" />
		<edge from-layer="319" from-port="2" to-layer="320" to-port="0" />
		<edge from-layer="320" from-port="1" to-layer="323" to-port="0" />
		<edge from-layer="320" from-port="1" to-layer="330" to-port="0" />
		<edge from-layer="320" from-port="1" to-layer="337" to-port="0" />
		<edge from-layer="321" from-port="0" to-layer="329" to-port="0" />
		<edge from-layer="322" from-port="0" to-layer="323" to-port="1" />
		<edge from-layer="323" from-port="2" to-layer="325" to-port="0" />
		<edge from-layer="324" from-port="0" to-layer="325" to-port="1" />
		<edge from-layer="325" from-port="2" to-layer="327" to-port="0" />
		<edge from-layer="326" from-port="0" to-layer="327" to-port="1" />
		<edge from-layer="327" from-port="2" to-layer="328" to-port="0" />
		<edge from-layer="328" from-port="1" to-layer="329" to-port="1" />
		<edge from-layer="329" from-port="2" to-layer="330" to-port="1" />
		<edge from-layer="330" from-port="2" to-layer="331" to-port="1" />
		<edge from-layer="331" from-port="2" to-layer="333" to-port="0" />
		<edge from-layer="332" from-port="0" to-layer="333" to-port="1" />
		<edge from-layer="333" from-port="2" to-layer="334" to-port="0" />
		<edge from-layer="334" from-port="1" to-layer="336" to-port="0" />
		<edge from-layer="335" from-port="0" to-layer="336" to-port="1" />
		<edge from-layer="336" from-port="2" to-layer="337" to-port="1" />
		<edge from-layer="337" from-port="2" to-layer="338" to-port="0" />
		<edge from-layer="338" from-port="1" to-layer="341" to-port="0" />
		<edge from-layer="338" from-port="1" to-layer="404" to-port="0" />
		<edge from-layer="338" from-port="1" to-layer="348" to-port="0" />
		<edge from-layer="339" from-port="0" to-layer="347" to-port="0" />
		<edge from-layer="340" from-port="0" to-layer="341" to-port="1" />
		<edge from-layer="341" from-port="2" to-layer="343" to-port="0" />
		<edge from-layer="342" from-port="0" to-layer="343" to-port="1" />
		<edge from-layer="343" from-port="2" to-layer="345" to-port="0" />
		<edge from-layer="344" from-port="0" to-layer="345" to-port="1" />
		<edge from-layer="345" from-port="2" to-layer="346" to-port="0" />
		<edge from-layer="346" from-port="1" to-layer="347" to-port="1" />
		<edge from-layer="347" from-port="2" to-layer="348" to-port="1" />
		<edge from-layer="348" from-port="2" to-layer="349" to-port="1" />
		<edge from-layer="349" from-port="2" to-layer="351" to-port="0" />
		<edge from-layer="349" from-port="2" to-layer="352" to-port="0" />
		<edge from-layer="349" from-port="2" to-layer="382" to-port="0" />
		<edge from-layer="349" from-port="2" to-layer="366" to-port="0" />
		<edge from-layer="350" from-port="0" to-layer="351" to-port="1" />
		<edge from-layer="351" from-port="2" to-layer="362" to-port="0" />
		<edge from-layer="352" from-port="1" to-layer="355" to-port="0" />
		<edge from-layer="353" from-port="0" to-layer="355" to-port="1" />
		<edge from-layer="354" from-port="0" to-layer="355" to-port="2" />
		<edge from-layer="355" from-port="3" to-layer="357" to-port="0" />
		<edge from-layer="355" from-port="3" to-layer="397" to-port="0" />
		<edge from-layer="355" from-port="3" to-layer="384" to-port="0" />
		<edge from-layer="355" from-port="3" to-layer="368" to-port="0" />
		<edge from-layer="356" from-port="0" to-layer="357" to-port="1" />
		<edge from-layer="357" from-port="2" to-layer="361" to-port="0" />
		<edge from-layer="358" from-port="0" to-layer="361" to-port="1" />
		<edge from-layer="359" from-port="0" to-layer="361" to-port="2" />
		<edge from-layer="360" from-port="0" to-layer="361" to-port="3" />
		<edge from-layer="361" from-port="4" to-layer="362" to-port="1" />
		<edge from-layer="362" from-port="2" to-layer="364" to-port="0" />
		<edge from-layer="363" from-port="0" to-layer="364" to-port="1" />
		<edge from-layer="364" from-port="2" to-layer="377" to-port="0" />
		<edge from-layer="365" from-port="0" to-layer="366" to-port="1" />
		<edge from-layer="366" from-port="2" to-layer="373" to-port="0" />
		<edge from-layer="367" from-port="0" to-layer="368" to-port="1" />
		<edge from-layer="368" from-port="2" to-layer="372" to-port="0" />
		<edge from-layer="369" from-port="0" to-layer="372" to-port="1" />
		<edge from-layer="370" from-port="0" to-layer="372" to-port="2" />
		<edge from-layer="371" from-port="0" to-layer="372" to-port="3" />
		<edge from-layer="372" from-port="4" to-layer="373" to-port="1" />
		<edge from-layer="373" from-port="2" to-layer="375" to-port="0" />
		<edge from-layer="374" from-port="0" to-layer="375" to-port="1" />
		<edge from-layer="375" from-port="2" to-layer="376" to-port="1" />
		<edge from-layer="376" from-port="2" to-layer="377" to-port="1" />
		<edge from-layer="376" from-port="2" to-layer="769" to-port="0" />
		<edge from-layer="377" from-port="2" to-layer="378" to-port="0" />
		<edge from-layer="378" from-port="2" to-layer="379" to-port="0" />
		<edge from-layer="379" from-port="1" to-layer="380" to-port="0" />
		<edge from-layer="380" from-port="1" to-layer="393" to-port="0" />
		<edge from-layer="381" from-port="0" to-layer="382" to-port="1" />
		<edge from-layer="382" from-port="2" to-layer="389" to-port="0" />
		<edge from-layer="383" from-port="0" to-layer="384" to-port="1" />
		<edge from-layer="384" from-port="2" to-layer="388" to-port="0" />
		<edge from-layer="385" from-port="0" to-layer="388" to-port="1" />
		<edge from-layer="386" from-port="0" to-layer="388" to-port="2" />
		<edge from-layer="387" from-port="0" to-layer="388" to-port="3" />
		<edge from-layer="388" from-port="4" to-layer="389" to-port="1" />
		<edge from-layer="389" from-port="2" to-layer="391" to-port="0" />
		<edge from-layer="390" from-port="0" to-layer="391" to-port="1" />
		<edge from-layer="391" from-port="2" to-layer="392" to-port="1" />
		<edge from-layer="392" from-port="2" to-layer="768" to-port="0" />
		<edge from-layer="392" from-port="2" to-layer="393" to-port="1" />
		<edge from-layer="393" from-port="2" to-layer="395" to-port="0" />
		<edge from-layer="394" from-port="0" to-layer="395" to-port="1" />
		<edge from-layer="395" from-port="2" to-layer="401" to-port="0" />
		<edge from-layer="396" from-port="0" to-layer="397" to-port="1" />
		<edge from-layer="397" from-port="2" to-layer="400" to-port="0" />
		<edge from-layer="398" from-port="0" to-layer="400" to-port="1" />
		<edge from-layer="399" from-port="0" to-layer="400" to-port="2" />
		<edge from-layer="400" from-port="3" to-layer="401" to-port="1" />
		<edge from-layer="401" from-port="2" to-layer="403" to-port="0" />
		<edge from-layer="402" from-port="0" to-layer="403" to-port="1" />
		<edge from-layer="403" from-port="2" to-layer="404" to-port="1" />
		<edge from-layer="404" from-port="2" to-layer="405" to-port="0" />
		<edge from-layer="405" from-port="1" to-layer="415" to-port="0" />
		<edge from-layer="405" from-port="1" to-layer="447" to-port="0" />
		<edge from-layer="405" from-port="1" to-layer="408" to-port="0" />
		<edge from-layer="406" from-port="0" to-layer="414" to-port="0" />
		<edge from-layer="407" from-port="0" to-layer="408" to-port="1" />
		<edge from-layer="408" from-port="2" to-layer="410" to-port="0" />
		<edge from-layer="409" from-port="0" to-layer="410" to-port="1" />
		<edge from-layer="410" from-port="2" to-layer="412" to-port="0" />
		<edge from-layer="411" from-port="0" to-layer="412" to-port="1" />
		<edge from-layer="412" from-port="2" to-layer="413" to-port="0" />
		<edge from-layer="413" from-port="1" to-layer="414" to-port="1" />
		<edge from-layer="414" from-port="2" to-layer="415" to-port="1" />
		<edge from-layer="415" from-port="2" to-layer="416" to-port="1" />
		<edge from-layer="416" from-port="2" to-layer="419" to-port="0" />
		<edge from-layer="416" from-port="2" to-layer="418" to-port="0" />
		<edge from-layer="417" from-port="0" to-layer="418" to-port="1" />
		<edge from-layer="418" from-port="2" to-layer="429" to-port="0" />
		<edge from-layer="419" from-port="1" to-layer="422" to-port="0" />
		<edge from-layer="420" from-port="0" to-layer="422" to-port="1" />
		<edge from-layer="421" from-port="0" to-layer="422" to-port="2" />
		<edge from-layer="422" from-port="3" to-layer="440" to-port="0" />
		<edge from-layer="422" from-port="3" to-layer="424" to-port="0" />
		<edge from-layer="423" from-port="0" to-layer="424" to-port="1" />
		<edge from-layer="424" from-port="2" to-layer="428" to-port="0" />
		<edge from-layer="425" from-port="0" to-layer="428" to-port="1" />
		<edge from-layer="426" from-port="0" to-layer="428" to-port="2" />
		<edge from-layer="427" from-port="0" to-layer="428" to-port="3" />
		<edge from-layer="428" from-port="4" to-layer="429" to-port="1" />
		<edge from-layer="429" from-port="2" to-layer="431" to-port="0" />
		<edge from-layer="430" from-port="0" to-layer="431" to-port="1" />
		<edge from-layer="431" from-port="2" to-layer="432" to-port="0" />
		<edge from-layer="432" from-port="2" to-layer="433" to-port="0" />
		<edge from-layer="433" from-port="2" to-layer="434" to-port="0" />
		<edge from-layer="434" from-port="1" to-layer="435" to-port="0" />
		<edge from-layer="435" from-port="1" to-layer="436" to-port="0" />
		<edge from-layer="436" from-port="2" to-layer="438" to-port="0" />
		<edge from-layer="437" from-port="0" to-layer="438" to-port="1" />
		<edge from-layer="438" from-port="2" to-layer="444" to-port="0" />
		<edge from-layer="439" from-port="0" to-layer="440" to-port="1" />
		<edge from-layer="440" from-port="2" to-layer="443" to-port="0" />
		<edge from-layer="441" from-port="0" to-layer="443" to-port="1" />
		<edge from-layer="442" from-port="0" to-layer="443" to-port="2" />
		<edge from-layer="443" from-port="3" to-layer="444" to-port="1" />
		<edge from-layer="444" from-port="2" to-layer="446" to-port="0" />
		<edge from-layer="445" from-port="0" to-layer="446" to-port="1" />
		<edge from-layer="446" from-port="2" to-layer="447" to-port="1" />
		<edge from-layer="447" from-port="2" to-layer="448" to-port="0" />
		<edge from-layer="448" from-port="1" to-layer="458" to-port="0" />
		<edge from-layer="448" from-port="1" to-layer="451" to-port="0" />
		<edge from-layer="448" from-port="1" to-layer="465" to-port="0" />
		<edge from-layer="449" from-port="0" to-layer="457" to-port="0" />
		<edge from-layer="450" from-port="0" to-layer="451" to-port="1" />
		<edge from-layer="451" from-port="2" to-layer="453" to-port="0" />
		<edge from-layer="452" from-port="0" to-layer="453" to-port="1" />
		<edge from-layer="453" from-port="2" to-layer="455" to-port="0" />
		<edge from-layer="454" from-port="0" to-layer="455" to-port="1" />
		<edge from-layer="455" from-port="2" to-layer="456" to-port="0" />
		<edge from-layer="456" from-port="1" to-layer="457" to-port="1" />
		<edge from-layer="457" from-port="2" to-layer="458" to-port="1" />
		<edge from-layer="458" from-port="2" to-layer="459" to-port="1" />
		<edge from-layer="459" from-port="2" to-layer="461" to-port="0" />
		<edge from-layer="460" from-port="0" to-layer="461" to-port="1" />
		<edge from-layer="461" from-port="2" to-layer="462" to-port="0" />
		<edge from-layer="462" from-port="1" to-layer="464" to-port="0" />
		<edge from-layer="463" from-port="0" to-layer="464" to-port="1" />
		<edge from-layer="464" from-port="2" to-layer="465" to-port="1" />
		<edge from-layer="465" from-port="2" to-layer="466" to-port="0" />
		<edge from-layer="466" from-port="1" to-layer="469" to-port="0" />
		<edge from-layer="466" from-port="1" to-layer="476" to-port="0" />
		<edge from-layer="466" from-port="1" to-layer="532" to-port="0" />
		<edge from-layer="467" from-port="0" to-layer="475" to-port="0" />
		<edge from-layer="468" from-port="0" to-layer="469" to-port="1" />
		<edge from-layer="469" from-port="2" to-layer="471" to-port="0" />
		<edge from-layer="470" from-port="0" to-layer="471" to-port="1" />
		<edge from-layer="471" from-port="2" to-layer="473" to-port="0" />
		<edge from-layer="472" from-port="0" to-layer="473" to-port="1" />
		<edge from-layer="473" from-port="2" to-layer="474" to-port="0" />
		<edge from-layer="474" from-port="1" to-layer="475" to-port="1" />
		<edge from-layer="475" from-port="2" to-layer="476" to-port="1" />
		<edge from-layer="476" from-port="2" to-layer="477" to-port="1" />
		<edge from-layer="477" from-port="2" to-layer="494" to-port="0" />
		<edge from-layer="477" from-port="2" to-layer="510" to-port="0" />
		<edge from-layer="477" from-port="2" to-layer="479" to-port="0" />
		<edge from-layer="477" from-port="2" to-layer="480" to-port="0" />
		<edge from-layer="478" from-port="0" to-layer="479" to-port="1" />
		<edge from-layer="479" from-port="2" to-layer="490" to-port="0" />
		<edge from-layer="480" from-port="1" to-layer="483" to-port="0" />
		<edge from-layer="481" from-port="0" to-layer="483" to-port="1" />
		<edge from-layer="482" from-port="0" to-layer="483" to-port="2" />
		<edge from-layer="483" from-port="3" to-layer="496" to-port="0" />
		<edge from-layer="483" from-port="3" to-layer="485" to-port="0" />
		<edge from-layer="483" from-port="3" to-layer="512" to-port="0" />
		<edge from-layer="483" from-port="3" to-layer="525" to-port="0" />
		<edge from-layer="484" from-port="0" to-layer="485" to-port="1" />
		<edge from-layer="485" from-port="2" to-layer="489" to-port="0" />
		<edge from-layer="486" from-port="0" to-layer="489" to-port="1" />
		<edge from-layer="487" from-port="0" to-layer="489" to-port="2" />
		<edge from-layer="488" from-port="0" to-layer="489" to-port="3" />
		<edge from-layer="489" from-port="4" to-layer="490" to-port="1" />
		<edge from-layer="490" from-port="2" to-layer="492" to-port="0" />
		<edge from-layer="491" from-port="0" to-layer="492" to-port="1" />
		<edge from-layer="492" from-port="2" to-layer="505" to-port="0" />
		<edge from-layer="493" from-port="0" to-layer="494" to-port="1" />
		<edge from-layer="494" from-port="2" to-layer="501" to-port="0" />
		<edge from-layer="495" from-port="0" to-layer="496" to-port="1" />
		<edge from-layer="496" from-port="2" to-layer="500" to-port="0" />
		<edge from-layer="497" from-port="0" to-layer="500" to-port="1" />
		<edge from-layer="498" from-port="0" to-layer="500" to-port="2" />
		<edge from-layer="499" from-port="0" to-layer="500" to-port="3" />
		<edge from-layer="500" from-port="4" to-layer="501" to-port="1" />
		<edge from-layer="501" from-port="2" to-layer="503" to-port="0" />
		<edge from-layer="502" from-port="0" to-layer="503" to-port="1" />
		<edge from-layer="503" from-port="2" to-layer="504" to-port="1" />
		<edge from-layer="504" from-port="2" to-layer="767" to-port="0" />
		<edge from-layer="504" from-port="2" to-layer="505" to-port="1" />
		<edge from-layer="505" from-port="2" to-layer="506" to-port="0" />
		<edge from-layer="506" from-port="2" to-layer="507" to-port="0" />
		<edge from-layer="507" from-port="1" to-layer="508" to-port="0" />
		<edge from-layer="508" from-port="1" to-layer="521" to-port="0" />
		<edge from-layer="509" from-port="0" to-layer="510" to-port="1" />
		<edge from-layer="510" from-port="2" to-layer="517" to-port="0" />
		<edge from-layer="511" from-port="0" to-layer="512" to-port="1" />
		<edge from-layer="512" from-port="2" to-layer="516" to-port="0" />
		<edge from-layer="513" from-port="0" to-layer="516" to-port="1" />
		<edge from-layer="514" from-port="0" to-layer="516" to-port="2" />
		<edge from-layer="515" from-port="0" to-layer="516" to-port="3" />
		<edge from-layer="516" from-port="4" to-layer="517" to-port="1" />
		<edge from-layer="517" from-port="2" to-layer="519" to-port="0" />
		<edge from-layer="518" from-port="0" to-layer="519" to-port="1" />
		<edge from-layer="519" from-port="2" to-layer="520" to-port="1" />
		<edge from-layer="520" from-port="2" to-layer="521" to-port="1" />
		<edge from-layer="520" from-port="2" to-layer="766" to-port="0" />
		<edge from-layer="521" from-port="2" to-layer="523" to-port="0" />
		<edge from-layer="522" from-port="0" to-layer="523" to-port="1" />
		<edge from-layer="523" from-port="2" to-layer="529" to-port="0" />
		<edge from-layer="524" from-port="0" to-layer="525" to-port="1" />
		<edge from-layer="525" from-port="2" to-layer="528" to-port="0" />
		<edge from-layer="526" from-port="0" to-layer="528" to-port="1" />
		<edge from-layer="527" from-port="0" to-layer="528" to-port="2" />
		<edge from-layer="528" from-port="3" to-layer="529" to-port="1" />
		<edge from-layer="529" from-port="2" to-layer="531" to-port="0" />
		<edge from-layer="530" from-port="0" to-layer="531" to-port="1" />
		<edge from-layer="531" from-port="2" to-layer="532" to-port="1" />
		<edge from-layer="532" from-port="2" to-layer="533" to-port="0" />
		<edge from-layer="533" from-port="1" to-layer="536" to-port="0" />
		<edge from-layer="533" from-port="1" to-layer="575" to-port="0" />
		<edge from-layer="533" from-port="1" to-layer="543" to-port="0" />
		<edge from-layer="534" from-port="0" to-layer="542" to-port="0" />
		<edge from-layer="535" from-port="0" to-layer="536" to-port="1" />
		<edge from-layer="536" from-port="2" to-layer="538" to-port="0" />
		<edge from-layer="537" from-port="0" to-layer="538" to-port="1" />
		<edge from-layer="538" from-port="2" to-layer="540" to-port="0" />
		<edge from-layer="539" from-port="0" to-layer="540" to-port="1" />
		<edge from-layer="540" from-port="2" to-layer="541" to-port="0" />
		<edge from-layer="541" from-port="1" to-layer="542" to-port="1" />
		<edge from-layer="542" from-port="2" to-layer="543" to-port="1" />
		<edge from-layer="543" from-port="2" to-layer="544" to-port="1" />
		<edge from-layer="544" from-port="2" to-layer="546" to-port="0" />
		<edge from-layer="544" from-port="2" to-layer="547" to-port="0" />
		<edge from-layer="545" from-port="0" to-layer="546" to-port="1" />
		<edge from-layer="546" from-port="2" to-layer="557" to-port="0" />
		<edge from-layer="547" from-port="1" to-layer="550" to-port="0" />
		<edge from-layer="548" from-port="0" to-layer="550" to-port="1" />
		<edge from-layer="549" from-port="0" to-layer="550" to-port="2" />
		<edge from-layer="550" from-port="3" to-layer="568" to-port="0" />
		<edge from-layer="550" from-port="3" to-layer="552" to-port="0" />
		<edge from-layer="551" from-port="0" to-layer="552" to-port="1" />
		<edge from-layer="552" from-port="2" to-layer="556" to-port="0" />
		<edge from-layer="553" from-port="0" to-layer="556" to-port="1" />
		<edge from-layer="554" from-port="0" to-layer="556" to-port="2" />
		<edge from-layer="555" from-port="0" to-layer="556" to-port="3" />
		<edge from-layer="556" from-port="4" to-layer="557" to-port="1" />
		<edge from-layer="557" from-port="2" to-layer="559" to-port="0" />
		<edge from-layer="558" from-port="0" to-layer="559" to-port="1" />
		<edge from-layer="559" from-port="2" to-layer="560" to-port="0" />
		<edge from-layer="560" from-port="2" to-layer="561" to-port="0" />
		<edge from-layer="561" from-port="2" to-layer="562" to-port="0" />
		<edge from-layer="562" from-port="1" to-layer="563" to-port="0" />
		<edge from-layer="563" from-port="1" to-layer="564" to-port="0" />
		<edge from-layer="564" from-port="2" to-layer="566" to-port="0" />
		<edge from-layer="565" from-port="0" to-layer="566" to-port="1" />
		<edge from-layer="566" from-port="2" to-layer="572" to-port="0" />
		<edge from-layer="567" from-port="0" to-layer="568" to-port="1" />
		<edge from-layer="568" from-port="2" to-layer="571" to-port="0" />
		<edge from-layer="569" from-port="0" to-layer="571" to-port="1" />
		<edge from-layer="570" from-port="0" to-layer="571" to-port="2" />
		<edge from-layer="571" from-port="3" to-layer="572" to-port="1" />
		<edge from-layer="572" from-port="2" to-layer="574" to-port="0" />
		<edge from-layer="573" from-port="0" to-layer="574" to-port="1" />
		<edge from-layer="574" from-port="2" to-layer="575" to-port="1" />
		<edge from-layer="575" from-port="2" to-layer="576" to-port="0" />
		<edge from-layer="576" from-port="1" to-layer="593" to-port="0" />
		<edge from-layer="576" from-port="1" to-layer="586" to-port="0" />
		<edge from-layer="576" from-port="1" to-layer="579" to-port="0" />
		<edge from-layer="577" from-port="0" to-layer="585" to-port="0" />
		<edge from-layer="578" from-port="0" to-layer="579" to-port="1" />
		<edge from-layer="579" from-port="2" to-layer="581" to-port="0" />
		<edge from-layer="580" from-port="0" to-layer="581" to-port="1" />
		<edge from-layer="581" from-port="2" to-layer="583" to-port="0" />
		<edge from-layer="582" from-port="0" to-layer="583" to-port="1" />
		<edge from-layer="583" from-port="2" to-layer="584" to-port="0" />
		<edge from-layer="584" from-port="1" to-layer="585" to-port="1" />
		<edge from-layer="585" from-port="2" to-layer="586" to-port="1" />
		<edge from-layer="586" from-port="2" to-layer="587" to-port="1" />
		<edge from-layer="587" from-port="2" to-layer="589" to-port="0" />
		<edge from-layer="588" from-port="0" to-layer="589" to-port="1" />
		<edge from-layer="589" from-port="2" to-layer="590" to-port="0" />
		<edge from-layer="590" from-port="1" to-layer="592" to-port="0" />
		<edge from-layer="591" from-port="0" to-layer="592" to-port="1" />
		<edge from-layer="592" from-port="2" to-layer="593" to-port="1" />
		<edge from-layer="593" from-port="2" to-layer="594" to-port="0" />
		<edge from-layer="594" from-port="1" to-layer="660" to-port="0" />
		<edge from-layer="594" from-port="1" to-layer="597" to-port="0" />
		<edge from-layer="594" from-port="1" to-layer="604" to-port="0" />
		<edge from-layer="595" from-port="0" to-layer="603" to-port="0" />
		<edge from-layer="596" from-port="0" to-layer="597" to-port="1" />
		<edge from-layer="597" from-port="2" to-layer="599" to-port="0" />
		<edge from-layer="598" from-port="0" to-layer="599" to-port="1" />
		<edge from-layer="599" from-port="2" to-layer="601" to-port="0" />
		<edge from-layer="600" from-port="0" to-layer="601" to-port="1" />
		<edge from-layer="601" from-port="2" to-layer="602" to-port="0" />
		<edge from-layer="602" from-port="1" to-layer="603" to-port="1" />
		<edge from-layer="603" from-port="2" to-layer="604" to-port="1" />
		<edge from-layer="604" from-port="2" to-layer="605" to-port="1" />
		<edge from-layer="605" from-port="2" to-layer="638" to-port="0" />
		<edge from-layer="605" from-port="2" to-layer="608" to-port="0" />
		<edge from-layer="605" from-port="2" to-layer="607" to-port="0" />
		<edge from-layer="605" from-port="2" to-layer="622" to-port="0" />
		<edge from-layer="606" from-port="0" to-layer="607" to-port="1" />
		<edge from-layer="607" from-port="2" to-layer="618" to-port="0" />
		<edge from-layer="608" from-port="1" to-layer="611" to-port="0" />
		<edge from-layer="609" from-port="0" to-layer="611" to-port="1" />
		<edge from-layer="610" from-port="0" to-layer="611" to-port="2" />
		<edge from-layer="611" from-port="3" to-layer="613" to-port="0" />
		<edge from-layer="611" from-port="3" to-layer="624" to-port="0" />
		<edge from-layer="611" from-port="3" to-layer="653" to-port="0" />
		<edge from-layer="611" from-port="3" to-layer="640" to-port="0" />
		<edge from-layer="612" from-port="0" to-layer="613" to-port="1" />
		<edge from-layer="613" from-port="2" to-layer="617" to-port="0" />
		<edge from-layer="614" from-port="0" to-layer="617" to-port="1" />
		<edge from-layer="615" from-port="0" to-layer="617" to-port="2" />
		<edge from-layer="616" from-port="0" to-layer="617" to-port="3" />
		<edge from-layer="617" from-port="4" to-layer="618" to-port="1" />
		<edge from-layer="618" from-port="2" to-layer="620" to-port="0" />
		<edge from-layer="619" from-port="0" to-layer="620" to-port="1" />
		<edge from-layer="620" from-port="2" to-layer="633" to-port="0" />
		<edge from-layer="621" from-port="0" to-layer="622" to-port="1" />
		<edge from-layer="622" from-port="2" to-layer="629" to-port="0" />
		<edge from-layer="623" from-port="0" to-layer="624" to-port="1" />
		<edge from-layer="624" from-port="2" to-layer="628" to-port="0" />
		<edge from-layer="625" from-port="0" to-layer="628" to-port="1" />
		<edge from-layer="626" from-port="0" to-layer="628" to-port="2" />
		<edge from-layer="627" from-port="0" to-layer="628" to-port="3" />
		<edge from-layer="628" from-port="4" to-layer="629" to-port="1" />
		<edge from-layer="629" from-port="2" to-layer="631" to-port="0" />
		<edge from-layer="630" from-port="0" to-layer="631" to-port="1" />
		<edge from-layer="631" from-port="2" to-layer="632" to-port="1" />
		<edge from-layer="632" from-port="2" to-layer="633" to-port="1" />
		<edge from-layer="632" from-port="2" to-layer="765" to-port="0" />
		<edge from-layer="633" from-port="2" to-layer="634" to-port="0" />
		<edge from-layer="634" from-port="2" to-layer="635" to-port="0" />
		<edge from-layer="635" from-port="1" to-layer="636" to-port="0" />
		<edge from-layer="636" from-port="1" to-layer="649" to-port="0" />
		<edge from-layer="637" from-port="0" to-layer="638" to-port="1" />
		<edge from-layer="638" from-port="2" to-layer="645" to-port="0" />
		<edge from-layer="639" from-port="0" to-layer="640" to-port="1" />
		<edge from-layer="640" from-port="2" to-layer="644" to-port="0" />
		<edge from-layer="641" from-port="0" to-layer="644" to-port="1" />
		<edge from-layer="642" from-port="0" to-layer="644" to-port="2" />
		<edge from-layer="643" from-port="0" to-layer="644" to-port="3" />
		<edge from-layer="644" from-port="4" to-layer="645" to-port="1" />
		<edge from-layer="645" from-port="2" to-layer="647" to-port="0" />
		<edge from-layer="646" from-port="0" to-layer="647" to-port="1" />
		<edge from-layer="647" from-port="2" to-layer="648" to-port="1" />
		<edge from-layer="648" from-port="2" to-layer="649" to-port="1" />
		<edge from-layer="648" from-port="2" to-layer="764" to-port="0" />
		<edge from-layer="649" from-port="2" to-layer="651" to-port="0" />
		<edge from-layer="650" from-port="0" to-layer="651" to-port="1" />
		<edge from-layer="651" from-port="2" to-layer="657" to-port="0" />
		<edge from-layer="652" from-port="0" to-layer="653" to-port="1" />
		<edge from-layer="653" from-port="2" to-layer="656" to-port="0" />
		<edge from-layer="654" from-port="0" to-layer="656" to-port="1" />
		<edge from-layer="655" from-port="0" to-layer="656" to-port="2" />
		<edge from-layer="656" from-port="3" to-layer="657" to-port="1" />
		<edge from-layer="657" from-port="2" to-layer="659" to-port="0" />
		<edge from-layer="658" from-port="0" to-layer="659" to-port="1" />
		<edge from-layer="659" from-port="2" to-layer="660" to-port="1" />
		<edge from-layer="660" from-port="2" to-layer="661" to-port="0" />
		<edge from-layer="661" from-port="1" to-layer="703" to-port="0" />
		<edge from-layer="661" from-port="1" to-layer="664" to-port="0" />
		<edge from-layer="661" from-port="1" to-layer="671" to-port="0" />
		<edge from-layer="662" from-port="0" to-layer="670" to-port="0" />
		<edge from-layer="663" from-port="0" to-layer="664" to-port="1" />
		<edge from-layer="664" from-port="2" to-layer="666" to-port="0" />
		<edge from-layer="665" from-port="0" to-layer="666" to-port="1" />
		<edge from-layer="666" from-port="2" to-layer="668" to-port="0" />
		<edge from-layer="667" from-port="0" to-layer="668" to-port="1" />
		<edge from-layer="668" from-port="2" to-layer="669" to-port="0" />
		<edge from-layer="669" from-port="1" to-layer="670" to-port="1" />
		<edge from-layer="670" from-port="2" to-layer="671" to-port="1" />
		<edge from-layer="671" from-port="2" to-layer="672" to-port="1" />
		<edge from-layer="672" from-port="2" to-layer="674" to-port="0" />
		<edge from-layer="672" from-port="2" to-layer="675" to-port="0" />
		<edge from-layer="673" from-port="0" to-layer="674" to-port="1" />
		<edge from-layer="674" from-port="2" to-layer="685" to-port="0" />
		<edge from-layer="675" from-port="1" to-layer="678" to-port="0" />
		<edge from-layer="676" from-port="0" to-layer="678" to-port="1" />
		<edge from-layer="677" from-port="0" to-layer="678" to-port="2" />
		<edge from-layer="678" from-port="3" to-layer="680" to-port="0" />
		<edge from-layer="678" from-port="3" to-layer="696" to-port="0" />
		<edge from-layer="679" from-port="0" to-layer="680" to-port="1" />
		<edge from-layer="680" from-port="2" to-layer="684" to-port="0" />
		<edge from-layer="681" from-port="0" to-layer="684" to-port="1" />
		<edge from-layer="682" from-port="0" to-layer="684" to-port="2" />
		<edge from-layer="683" from-port="0" to-layer="684" to-port="3" />
		<edge from-layer="684" from-port="4" to-layer="685" to-port="1" />
		<edge from-layer="685" from-port="2" to-layer="687" to-port="0" />
		<edge from-layer="686" from-port="0" to-layer="687" to-port="1" />
		<edge from-layer="687" from-port="2" to-layer="688" to-port="0" />
		<edge from-layer="688" from-port="2" to-layer="689" to-port="0" />
		<edge from-layer="689" from-port="2" to-layer="690" to-port="0" />
		<edge from-layer="690" from-port="1" to-layer="691" to-port="0" />
		<edge from-layer="691" from-port="1" to-layer="692" to-port="0" />
		<edge from-layer="692" from-port="2" to-layer="694" to-port="0" />
		<edge from-layer="693" from-port="0" to-layer="694" to-port="1" />
		<edge from-layer="694" from-port="2" to-layer="700" to-port="0" />
		<edge from-layer="695" from-port="0" to-layer="696" to-port="1" />
		<edge from-layer="696" from-port="2" to-layer="699" to-port="0" />
		<edge from-layer="697" from-port="0" to-layer="699" to-port="1" />
		<edge from-layer="698" from-port="0" to-layer="699" to-port="2" />
		<edge from-layer="699" from-port="3" to-layer="700" to-port="1" />
		<edge from-layer="700" from-port="2" to-layer="702" to-port="0" />
		<edge from-layer="701" from-port="0" to-layer="702" to-port="1" />
		<edge from-layer="702" from-port="2" to-layer="703" to-port="1" />
		<edge from-layer="703" from-port="2" to-layer="704" to-port="0" />
		<edge from-layer="704" from-port="1" to-layer="721" to-port="0" />
		<edge from-layer="704" from-port="1" to-layer="714" to-port="0" />
		<edge from-layer="704" from-port="1" to-layer="707" to-port="0" />
		<edge from-layer="705" from-port="0" to-layer="713" to-port="0" />
		<edge from-layer="706" from-port="0" to-layer="707" to-port="1" />
		<edge from-layer="707" from-port="2" to-layer="709" to-port="0" />
		<edge from-layer="708" from-port="0" to-layer="709" to-port="1" />
		<edge from-layer="709" from-port="2" to-layer="711" to-port="0" />
		<edge from-layer="710" from-port="0" to-layer="711" to-port="1" />
		<edge from-layer="711" from-port="2" to-layer="712" to-port="0" />
		<edge from-layer="712" from-port="1" to-layer="713" to-port="1" />
		<edge from-layer="713" from-port="2" to-layer="714" to-port="1" />
		<edge from-layer="714" from-port="2" to-layer="715" to-port="1" />
		<edge from-layer="715" from-port="2" to-layer="717" to-port="0" />
		<edge from-layer="716" from-port="0" to-layer="717" to-port="1" />
		<edge from-layer="717" from-port="2" to-layer="718" to-port="0" />
		<edge from-layer="718" from-port="1" to-layer="720" to-port="0" />
		<edge from-layer="719" from-port="0" to-layer="720" to-port="1" />
		<edge from-layer="720" from-port="2" to-layer="721" to-port="1" />
		<edge from-layer="721" from-port="2" to-layer="722" to-port="0" />
		<edge from-layer="722" from-port="1" to-layer="798" to-port="0" />
		<edge from-layer="722" from-port="1" to-layer="725" to-port="0" />
		<edge from-layer="722" from-port="1" to-layer="732" to-port="0" />
		<edge from-layer="723" from-port="0" to-layer="731" to-port="0" />
		<edge from-layer="724" from-port="0" to-layer="725" to-port="1" />
		<edge from-layer="725" from-port="2" to-layer="727" to-port="0" />
		<edge from-layer="726" from-port="0" to-layer="727" to-port="1" />
		<edge from-layer="727" from-port="2" to-layer="729" to-port="0" />
		<edge from-layer="728" from-port="0" to-layer="729" to-port="1" />
		<edge from-layer="729" from-port="2" to-layer="730" to-port="0" />
		<edge from-layer="730" from-port="1" to-layer="731" to-port="1" />
		<edge from-layer="731" from-port="2" to-layer="732" to-port="1" />
		<edge from-layer="732" from-port="2" to-layer="733" to-port="1" />
		<edge from-layer="733" from-port="2" to-layer="752" to-port="0" />
		<edge from-layer="733" from-port="2" to-layer="773" to-port="0" />
		<edge from-layer="733" from-port="2" to-layer="735" to-port="0" />
		<edge from-layer="733" from-port="2" to-layer="736" to-port="0" />
		<edge from-layer="734" from-port="0" to-layer="735" to-port="1" />
		<edge from-layer="735" from-port="2" to-layer="746" to-port="0" />
		<edge from-layer="736" from-port="1" to-layer="739" to-port="0" />
		<edge from-layer="737" from-port="0" to-layer="739" to-port="1" />
		<edge from-layer="738" from-port="0" to-layer="739" to-port="2" />
		<edge from-layer="739" from-port="3" to-layer="791" to-port="0" />
		<edge from-layer="739" from-port="3" to-layer="754" to-port="0" />
		<edge from-layer="739" from-port="3" to-layer="775" to-port="0" />
		<edge from-layer="739" from-port="3" to-layer="741" to-port="0" />
		<edge from-layer="740" from-port="0" to-layer="741" to-port="1" />
		<edge from-layer="741" from-port="2" to-layer="745" to-port="0" />
		<edge from-layer="742" from-port="0" to-layer="745" to-port="1" />
		<edge from-layer="743" from-port="0" to-layer="745" to-port="2" />
		<edge from-layer="744" from-port="0" to-layer="745" to-port="3" />
		<edge from-layer="745" from-port="4" to-layer="746" to-port="1" />
		<edge from-layer="746" from-port="2" to-layer="748" to-port="0" />
		<edge from-layer="747" from-port="0" to-layer="748" to-port="1" />
		<edge from-layer="748" from-port="2" to-layer="749" to-port="1" />
		<edge from-layer="749" from-port="2" to-layer="787" to-port="1" />
		<edge from-layer="749" from-port="2" to-layer="750" to-port="0" />
		<edge from-layer="751" from-port="0" to-layer="752" to-port="1" />
		<edge from-layer="752" from-port="2" to-layer="759" to-port="0" />
		<edge from-layer="753" from-port="0" to-layer="754" to-port="1" />
		<edge from-layer="754" from-port="2" to-layer="758" to-port="0" />
		<edge from-layer="755" from-port="0" to-layer="758" to-port="1" />
		<edge from-layer="756" from-port="0" to-layer="758" to-port="2" />
		<edge from-layer="757" from-port="0" to-layer="758" to-port="3" />
		<edge from-layer="758" from-port="4" to-layer="759" to-port="1" />
		<edge from-layer="759" from-port="2" to-layer="761" to-port="0" />
		<edge from-layer="760" from-port="0" to-layer="761" to-port="1" />
		<edge from-layer="761" from-port="2" to-layer="762" to-port="1" />
		<edge from-layer="762" from-port="2" to-layer="763" to-port="0" />
		<edge from-layer="762" from-port="2" to-layer="783" to-port="1" />
		<edge from-layer="772" from-port="0" to-layer="773" to-port="1" />
		<edge from-layer="773" from-port="2" to-layer="780" to-port="0" />
		<edge from-layer="774" from-port="0" to-layer="775" to-port="1" />
		<edge from-layer="775" from-port="2" to-layer="779" to-port="0" />
		<edge from-layer="776" from-port="0" to-layer="779" to-port="1" />
		<edge from-layer="777" from-port="0" to-layer="779" to-port="2" />
		<edge from-layer="778" from-port="0" to-layer="779" to-port="3" />
		<edge from-layer="779" from-port="4" to-layer="780" to-port="1" />
		<edge from-layer="780" from-port="2" to-layer="782" to-port="0" />
		<edge from-layer="781" from-port="0" to-layer="782" to-port="1" />
		<edge from-layer="782" from-port="2" to-layer="783" to-port="0" />
		<edge from-layer="783" from-port="2" to-layer="784" to-port="0" />
		<edge from-layer="784" from-port="2" to-layer="785" to-port="0" />
		<edge from-layer="785" from-port="1" to-layer="786" to-port="0" />
		<edge from-layer="786" from-port="1" to-layer="787" to-port="0" />
		<edge from-layer="787" from-port="2" to-layer="789" to-port="0" />
		<edge from-layer="788" from-port="0" to-layer="789" to-port="1" />
		<edge from-layer="789" from-port="2" to-layer="795" to-port="0" />
		<edge from-layer="790" from-port="0" to-layer="791" to-port="1" />
		<edge from-layer="791" from-port="2" to-layer="794" to-port="0" />
		<edge from-layer="792" from-port="0" to-layer="794" to-port="1" />
		<edge from-layer="793" from-port="0" to-layer="794" to-port="2" />
		<edge from-layer="794" from-port="3" to-layer="795" to-port="1" />
		<edge from-layer="795" from-port="2" to-layer="797" to-port="0" />
		<edge from-layer="796" from-port="0" to-layer="797" to-port="1" />
		<edge from-layer="797" from-port="2" to-layer="798" to-port="1" />
		<edge from-layer="798" from-port="2" to-layer="799" to-port="0" />
		<edge from-layer="799" from-port="1" to-layer="841" to-port="0" />
		<edge from-layer="799" from-port="1" to-layer="809" to-port="0" />
		<edge from-layer="799" from-port="1" to-layer="802" to-port="0" />
		<edge from-layer="800" from-port="0" to-layer="808" to-port="0" />
		<edge from-layer="801" from-port="0" to-layer="802" to-port="1" />
		<edge from-layer="802" from-port="2" to-layer="804" to-port="0" />
		<edge from-layer="803" from-port="0" to-layer="804" to-port="1" />
		<edge from-layer="804" from-port="2" to-layer="806" to-port="0" />
		<edge from-layer="805" from-port="0" to-layer="806" to-port="1" />
		<edge from-layer="806" from-port="2" to-layer="807" to-port="0" />
		<edge from-layer="807" from-port="1" to-layer="808" to-port="1" />
		<edge from-layer="808" from-port="2" to-layer="809" to-port="1" />
		<edge from-layer="809" from-port="2" to-layer="810" to-port="1" />
		<edge from-layer="810" from-port="2" to-layer="813" to-port="0" />
		<edge from-layer="810" from-port="2" to-layer="812" to-port="0" />
		<edge from-layer="811" from-port="0" to-layer="812" to-port="1" />
		<edge from-layer="812" from-port="2" to-layer="823" to-port="0" />
		<edge from-layer="813" from-port="1" to-layer="816" to-port="0" />
		<edge from-layer="814" from-port="0" to-layer="816" to-port="1" />
		<edge from-layer="815" from-port="0" to-layer="816" to-port="2" />
		<edge from-layer="816" from-port="3" to-layer="834" to-port="0" />
		<edge from-layer="816" from-port="3" to-layer="818" to-port="0" />
		<edge from-layer="817" from-port="0" to-layer="818" to-port="1" />
		<edge from-layer="818" from-port="2" to-layer="822" to-port="0" />
		<edge from-layer="819" from-port="0" to-layer="822" to-port="1" />
		<edge from-layer="820" from-port="0" to-layer="822" to-port="2" />
		<edge from-layer="821" from-port="0" to-layer="822" to-port="3" />
		<edge from-layer="822" from-port="4" to-layer="823" to-port="1" />
		<edge from-layer="823" from-port="2" to-layer="825" to-port="0" />
		<edge from-layer="824" from-port="0" to-layer="825" to-port="1" />
		<edge from-layer="825" from-port="2" to-layer="826" to-port="0" />
		<edge from-layer="826" from-port="2" to-layer="827" to-port="0" />
		<edge from-layer="827" from-port="2" to-layer="828" to-port="0" />
		<edge from-layer="828" from-port="1" to-layer="829" to-port="0" />
		<edge from-layer="829" from-port="1" to-layer="830" to-port="0" />
		<edge from-layer="830" from-port="2" to-layer="832" to-port="0" />
		<edge from-layer="831" from-port="0" to-layer="832" to-port="1" />
		<edge from-layer="832" from-port="2" to-layer="838" to-port="0" />
		<edge from-layer="833" from-port="0" to-layer="834" to-port="1" />
		<edge from-layer="834" from-port="2" to-layer="837" to-port="0" />
		<edge from-layer="835" from-port="0" to-layer="837" to-port="1" />
		<edge from-layer="836" from-port="0" to-layer="837" to-port="2" />
		<edge from-layer="837" from-port="3" to-layer="838" to-port="1" />
		<edge from-layer="838" from-port="2" to-layer="840" to-port="0" />
		<edge from-layer="839" from-port="0" to-layer="840" to-port="1" />
		<edge from-layer="840" from-port="2" to-layer="841" to-port="1" />
		<edge from-layer="841" from-port="2" to-layer="842" to-port="0" />
		<edge from-layer="842" from-port="1" to-layer="859" to-port="0" />
		<edge from-layer="842" from-port="1" to-layer="852" to-port="0" />
		<edge from-layer="842" from-port="1" to-layer="845" to-port="0" />
		<edge from-layer="843" from-port="0" to-layer="851" to-port="0" />
		<edge from-layer="844" from-port="0" to-layer="845" to-port="1" />
		<edge from-layer="845" from-port="2" to-layer="847" to-port="0" />
		<edge from-layer="846" from-port="0" to-layer="847" to-port="1" />
		<edge from-layer="847" from-port="2" to-layer="849" to-port="0" />
		<edge from-layer="848" from-port="0" to-layer="849" to-port="1" />
		<edge from-layer="849" from-port="2" to-layer="850" to-port="0" />
		<edge from-layer="850" from-port="1" to-layer="851" to-port="1" />
		<edge from-layer="851" from-port="2" to-layer="852" to-port="1" />
		<edge from-layer="852" from-port="2" to-layer="853" to-port="1" />
		<edge from-layer="853" from-port="2" to-layer="855" to-port="0" />
		<edge from-layer="854" from-port="0" to-layer="855" to-port="1" />
		<edge from-layer="855" from-port="2" to-layer="856" to-port="0" />
		<edge from-layer="856" from-port="1" to-layer="858" to-port="0" />
		<edge from-layer="857" from-port="0" to-layer="858" to-port="1" />
		<edge from-layer="858" from-port="2" to-layer="859" to-port="1" />
		<edge from-layer="859" from-port="2" to-layer="860" to-port="0" />
		<edge from-layer="860" from-port="1" to-layer="863" to-port="0" />
		<edge from-layer="860" from-port="1" to-layer="870" to-port="0" />
		<edge from-layer="861" from-port="0" to-layer="869" to-port="0" />
		<edge from-layer="862" from-port="0" to-layer="863" to-port="1" />
		<edge from-layer="863" from-port="2" to-layer="865" to-port="0" />
		<edge from-layer="864" from-port="0" to-layer="865" to-port="1" />
		<edge from-layer="865" from-port="2" to-layer="867" to-port="0" />
		<edge from-layer="866" from-port="0" to-layer="867" to-port="1" />
		<edge from-layer="867" from-port="2" to-layer="868" to-port="0" />
		<edge from-layer="868" from-port="1" to-layer="869" to-port="1" />
		<edge from-layer="869" from-port="2" to-layer="870" to-port="1" />
		<edge from-layer="870" from-port="2" to-layer="871" to-port="1" />
		<edge from-layer="871" from-port="2" to-layer="873" to-port="0" />
		<edge from-layer="872" from-port="0" to-layer="873" to-port="1" />
		<edge from-layer="873" from-port="2" to-layer="875" to-port="0" />
		<edge from-layer="874" from-port="0" to-layer="875" to-port="1" />
		<edge from-layer="875" from-port="2" to-layer="876" to-port="0" />
	</edges>
	<rt_info />
</net>
