<?xml version="1.0"?>
<net name="torch_jit" version="11">
	<layers>
		<layer id="1" name="input_ids" type="Parameter" version="opset1">
			<data shape="?,?" element_type="i64" />
			<rt_info>
				<attribute name="fused_names" version="0" value="input_ids" />
			</rt_info>
			<output>
				<port id="0" precision="I64" names="input_ids">
					<dim>-1</dim>
					<dim>-1</dim>
				</port>
			</output>
		</layer>
		<layer id="0" name="attention_mask" type="Parameter" version="opset1">
			<data shape="?,?" element_type="i64" />
			<rt_info>
				<attribute name="fused_names" version="0" value="attention_mask" />
			</rt_info>
			<output>
				<port id="0" precision="I64" names="attention_mask">
					<dim>-1</dim>
					<dim>-1</dim>
				</port>
			</output>
		</layer>
		<layer id="2" name="block.0.layer.1.layer_norm.weight" type="Const" version="opset1">
			<data element_type="f32" shape="32" offset="0" size="128" />
			<rt_info>
				<attribute name="fused_names" version="0" value="block.0.layer.1.layer_norm.weight" />
			</rt_info>
			<output>
				<port id="0" precision="FP32" names="block.0.layer.0.layer_norm.weight,block.0.layer.1.layer_norm.weight,block.1.layer.0.layer_norm.weight,block.1.layer.1.layer_norm.weight,block.2.layer.0.layer_norm.weight,block.2.layer.1.layer_norm.weight,block.3.layer.0.layer_norm.weight,block.3.layer.1.layer_norm.weight,block.4.layer.0.layer_norm.weight,block.4.layer.1.layer_norm.weight,final_layer_norm.weight">
					<dim>32</dim>
				</port>
			</output>
		</layer>
		<layer id="3" name="embed_tokens.weight" type="Const" version="opset1">
			<data element_type="f32" shape="1103, 32" offset="128" size="141184" />
			<rt_info>
				<attribute name="fused_names" version="0" value="embed_tokens.weight" />
			</rt_info>
			<output>
				<port id="0" precision="FP32" names="embed_tokens.weight">
					<dim>1103</dim>
					<dim>32</dim>
				</port>
			</output>
		</layer>
		<layer id="4" name="/Constant_1" type="Const" version="opset1">
			<data element_type="i64" shape="1" offset="141312" size="8" />
			<rt_info>
				<attribute name="fused_names" version="0" value="/Constant_1" />
			</rt_info>
			<output>
				<port id="0" precision="I64" names="/Constant_1_output_0">
					<dim>1</dim>
				</port>
			</output>
		</layer>
		<layer id="5" name="/Shape" type="ShapeOf" version="opset3">
			<data output_type="i64" />
			<rt_info>
				<attribute name="fused_names" version="0" value="/Shape" />
			</rt_info>
			<input>
				<port id="0" precision="I64">
					<dim>-1</dim>
					<dim>-1</dim>
				</port>
			</input>
			<output>
				<port id="1" precision="I64" names="/Shape_output_0">
					<dim>2</dim>
				</port>
			</output>
		</layer>
		<layer id="6" name="/Constant" type="Const" version="opset1">
			<data element_type="i64" shape="" offset="141320" size="8" />
			<rt_info>
				<attribute name="fused_names" version="0" value="/Constant" />
			</rt_info>
			<output>
				<port id="0" precision="I64" names="/Constant_output_0" />
			</output>
		</layer>
		<layer id="7" name="Constant_4657839" type="Const" version="opset1">
			<data element_type="i64" shape="" offset="141328" size="8" />
			<rt_info>
				<attribute name="fused_names" version="0" value="Constant_4657839" />
			</rt_info>
			<output>
				<port id="0" precision="I64" />
			</output>
		</layer>
		<layer id="8" name="/Gather" type="Gather" version="opset8">
			<data batch_dims="0" />
			<rt_info>
				<attribute name="fused_names" version="0" value="/Constant, /Gather, Constant_4657839" />
			</rt_info>
			<input>
				<port id="0" precision="I64">
					<dim>2</dim>
				</port>
				<port id="1" precision="I64" />
				<port id="2" precision="I64" />
			</input>
			<output>
				<port id="3" precision="I64" names="/Gather_output_0" />
			</output>
		</layer>
		<layer id="9" name="Constant_14" type="Const" version="opset1">
			<data element_type="i64" shape="1" offset="141328" size="8" />
			<rt_info>
				<attribute name="fused_names" version="0" value="Constant_14" />
			</rt_info>
			<output>
				<port id="0" precision="I64" names="onnx::Unsqueeze_51">
					<dim>1</dim>
				</port>
			</output>
		</layer>
		<layer id="10" name="/Unsqueeze" type="Unsqueeze" version="opset1">
			<rt_info>
				<attribute name="fused_names" version="0" value="/Unsqueeze, Constant_14" />
			</rt_info>
			<input>
				<port id="0" precision="I64" />
				<port id="1" precision="I64">
					<dim>1</dim>
				</port>
			</input>
			<output>
				<port id="2" precision="I64" names="/Unsqueeze_output_0">
					<dim>1</dim>
				</port>
			</output>
		</layer>
		<layer id="11" name="/Concat" type="Concat" version="opset1">
			<data axis="0" />
			<rt_info>
				<attribute name="fused_names" version="0" value="/Concat, /Constant_1" />
			</rt_info>
			<input>
				<port id="0" precision="I64">
					<dim>1</dim>
				</port>
				<port id="1" precision="I64">
					<dim>1</dim>
				</port>
			</input>
			<output>
				<port id="2" precision="I64" names="/Concat_output_0">
					<dim>2</dim>
				</port>
			</output>
		</layer>
		<layer id="12" name="/Reshape" type="Reshape" version="opset1">
			<data special_zero="true" />
			<rt_info>
				<attribute name="fused_names" version="0" value="/Reshape" />
			</rt_info>
			<input>
				<port id="0" precision="I64">
					<dim>-1</dim>
					<dim>-1</dim>
				</port>
				<port id="1" precision="I64">
					<dim>2</dim>
				</port>
			</input>
			<output>
				<port id="2" precision="I64" names="/Reshape_output_0">
					<dim>-1</dim>
					<dim>-1</dim>
				</port>
			</output>
		</layer>
		<layer id="13" name="Constant_4657852" type="Const" version="opset1">
			<data element_type="i64" shape="" offset="141328" size="8" />
			<rt_info>
				<attribute name="fused_names" version="0" value="Constant_4657852" />
			</rt_info>
			<output>
				<port id="0" precision="I64" />
			</output>
		</layer>
		<layer id="14" name="/embed_tokens/Gather" type="Gather" version="opset8">
			<data batch_dims="0" />
			<rt_info>
				<attribute name="fused_names" version="0" value="/embed_tokens/Gather" />
			</rt_info>
			<input>
				<port id="0" precision="FP32">
					<dim>1103</dim>
					<dim>32</dim>
				</port>
				<port id="1" precision="I64">
					<dim>-1</dim>
					<dim>-1</dim>
				</port>
				<port id="2" precision="I64" />
			</input>
			<output>
				<port id="3" precision="FP32" names="/embed_tokens/Gather_output_0">
					<dim>-1</dim>
					<dim>-1</dim>
					<dim>32</dim>
				</port>
			</output>
		</layer>
		<layer id="15" name="/block.0/layer.0/layer_norm/Cast" type="Convert" version="opset1">
			<data destination_type="f32" />
			<rt_info>
				<attribute name="fused_names" version="0" value="/block.0/layer.0/layer_norm/Cast" />
			</rt_info>
			<input>
				<port id="0" precision="FP32">
					<dim>-1</dim>
					<dim>-1</dim>
					<dim>32</dim>
				</port>
			</input>
			<output>
				<port id="1" precision="FP32" names="/block.0/layer.0/layer_norm/Cast_output_0">
					<dim>-1</dim>
					<dim>-1</dim>
					<dim>32</dim>
				</port>
			</output>
		</layer>
		<layer id="16" name="/block.0/layer.0/layer_norm/Constant_2" type="Const" version="opset1">
			<data element_type="f32" shape="" offset="141336" size="4" />
			<rt_info>
				<attribute name="fused_names" version="0" value="/block.0/layer.0/layer_norm/Constant_2" />
			</rt_info>
			<output>
				<port id="0" precision="FP32" names="/block.0/layer.0/layer_norm/Constant_2_output_0" />
			</output>
		</layer>
		<layer id="17" name="/block.0/layer.0/layer_norm/Constant" type="Const" version="opset1">
			<data element_type="f32" shape="" offset="141340" size="4" />
			<rt_info>
				<attribute name="fused_names" version="0" value="/block.0/layer.0/layer_norm/Constant" />
			</rt_info>
			<output>
				<port id="0" precision="FP32" names="/block.0/layer.0/layer_norm/Constant_output_0" />
			</output>
		</layer>
		<layer id="18" name="/block.0/layer.0/layer_norm/Pow" type="Power" version="opset1">
			<data auto_broadcast="numpy" />
			<rt_info>
				<attribute name="fused_names" version="0" value="/block.0/layer.0/layer_norm/Pow" />
			</rt_info>
			<input>
				<port id="0" precision="FP32">
					<dim>-1</dim>
					<dim>-1</dim>
					<dim>32</dim>
				</port>
				<port id="1" precision="FP32" />
			</input>
			<output>
				<port id="2" precision="FP32" names="/block.0/layer.0/layer_norm/Pow_output_0">
					<dim>-1</dim>
					<dim>-1</dim>
					<dim>32</dim>
				</port>
			</output>
		</layer>
		<layer id="19" name="Constant_4657866" type="Const" version="opset1">
			<data element_type="i64" shape="1" offset="141312" size="8" />
			<rt_info>
				<attribute name="fused_names" version="0" value="Constant_4657866" />
			</rt_info>
			<output>
				<port id="0" precision="I64">
					<dim>1</dim>
				</port>
			</output>
		</layer>
		<layer id="20" name="/block.0/layer.0/layer_norm/ReduceMean" type="ReduceMean" version="opset1">
			<data keep_dims="true" />
			<rt_info>
				<attribute name="fused_names" version="0" value="/block.0/layer.0/layer_norm/ReduceMean" />
			</rt_info>
			<input>
				<port id="0" precision="FP32">
					<dim>-1</dim>
					<dim>-1</dim>
					<dim>32</dim>
				</port>
				<port id="1" precision="I64">
					<dim>1</dim>
				</port>
			</input>
			<output>
				<port id="2" precision="FP32" names="/block.0/layer.0/layer_norm/ReduceMean_output_0">
					<dim>-1</dim>
					<dim>-1</dim>
					<dim>1</dim>
				</port>
			</output>
		</layer>
		<layer id="21" name="/block.0/layer.0/layer_norm/Constant_1" type="Const" version="opset1">
			<data element_type="f32" shape="" offset="141344" size="4" />
			<rt_info>
				<attribute name="fused_names" version="0" value="/block.0/layer.0/layer_norm/Constant_1" />
			</rt_info>
			<output>
				<port id="0" precision="FP32" names="/block.0/layer.0/layer_norm/Constant_1_output_0" />
			</output>
		</layer>
		<layer id="22" name="/block.0/layer.0/layer_norm/Add" type="Add" version="opset1">
			<data auto_broadcast="numpy" />
			<rt_info>
				<attribute name="fused_names" version="0" value="/block.0/layer.0/layer_norm/Add" />
			</rt_info>
			<input>
				<port id="0" precision="FP32">
					<dim>-1</dim>
					<dim>-1</dim>
					<dim>1</dim>
				</port>
				<port id="1" precision="FP32" />
			</input>
			<output>
				<port id="2" precision="FP32" names="/block.0/layer.0/layer_norm/Add_output_0">
					<dim>-1</dim>
					<dim>-1</dim>
					<dim>1</dim>
				</port>
			</output>
		</layer>
		<layer id="23" name="/block.0/layer.0/layer_norm/Sqrt" type="Sqrt" version="opset1">
			<rt_info>
				<attribute name="fused_names" version="0" value="/block.0/layer.0/layer_norm/Sqrt" />
			</rt_info>
			<input>
				<port id="0" precision="FP32">
					<dim>-1</dim>
					<dim>-1</dim>
					<dim>1</dim>
				</port>
			</input>
			<output>
				<port id="1" precision="FP32" names="/block.0/layer.0/layer_norm/Sqrt_output_0">
					<dim>-1</dim>
					<dim>-1</dim>
					<dim>1</dim>
				</port>
			</output>
		</layer>
		<layer id="24" name="/block.0/layer.0/layer_norm/Div" type="Divide" version="opset1">
			<data auto_broadcast="numpy" m_pythondiv="true" />
			<rt_info>
				<attribute name="fused_names" version="0" value="/block.0/layer.0/layer_norm/Div" />
			</rt_info>
			<input>
				<port id="0" precision="FP32" />
				<port id="1" precision="FP32">
					<dim>-1</dim>
					<dim>-1</dim>
					<dim>1</dim>
				</port>
			</input>
			<output>
				<port id="2" precision="FP32" names="/block.0/layer.0/layer_norm/Div_output_0">
					<dim>-1</dim>
					<dim>-1</dim>
					<dim>1</dim>
				</port>
			</output>
		</layer>
		<layer id="25" name="/block.0/layer.0/layer_norm/Mul" type="Multiply" version="opset1">
			<data auto_broadcast="numpy" />
			<rt_info>
				<attribute name="fused_names" version="0" value="/block.0/layer.0/layer_norm/Mul" />
			</rt_info>
			<input>
				<port id="0" precision="FP32">
					<dim>-1</dim>
					<dim>-1</dim>
					<dim>32</dim>
				</port>
				<port id="1" precision="FP32">
					<dim>-1</dim>
					<dim>-1</dim>
					<dim>1</dim>
				</port>
			</input>
			<output>
				<port id="2" precision="FP32" names="/block.0/layer.0/layer_norm/Mul_output_0">
					<dim>-1</dim>
					<dim>-1</dim>
					<dim>32</dim>
				</port>
			</output>
		</layer>
		<layer id="26" name="/block.0/layer.0/layer_norm/Mul_1" type="Multiply" version="opset1">
			<data auto_broadcast="numpy" />
			<rt_info>
				<attribute name="fused_names" version="0" value="/block.0/layer.0/layer_norm/Mul_1" />
			</rt_info>
			<input>
				<port id="0" precision="FP32">
					<dim>32</dim>
				</port>
				<port id="1" precision="FP32">
					<dim>-1</dim>
					<dim>-1</dim>
					<dim>32</dim>
				</port>
			</input>
			<output>
				<port id="2" precision="FP32" names="/block.0/layer.0/layer_norm/Mul_1_output_0">
					<dim>-1</dim>
					<dim>-1</dim>
					<dim>32</dim>
				</port>
			</output>
		</layer>
		<layer id="27" name="onnx::MatMul_558" type="Const" version="opset1">
			<data element_type="f32" shape="32, 32" offset="141348" size="4096" />
			<rt_info>
				<attribute name="fused_names" version="0" value="onnx::MatMul_558" />
			</rt_info>
			<output>
				<port id="0" precision="FP32" names="onnx::MatMul_558">
					<dim>32</dim>
					<dim>32</dim>
				</port>
			</output>
		</layer>
		<layer id="28" name="/block.0/layer.0/SelfAttention/q/MatMul" type="MatMul" version="opset1">
			<data transpose_a="false" transpose_b="false" />
			<rt_info>
				<attribute name="fused_names" version="0" value="/block.0/layer.0/SelfAttention/q/MatMul" />
			</rt_info>
			<input>
				<port id="0" precision="FP32">
					<dim>-1</dim>
					<dim>-1</dim>
					<dim>32</dim>
				</port>
				<port id="1" precision="FP32">
					<dim>32</dim>
					<dim>32</dim>
				</port>
			</input>
			<output>
				<port id="2" precision="FP32" names="/block.0/layer.0/SelfAttention/q/MatMul_output_0">
					<dim>-1</dim>
					<dim>-1</dim>
					<dim>32</dim>
				</port>
			</output>
		</layer>
		<layer id="29" name="/block.0/layer.0/SelfAttention/Shape" type="ShapeOf" version="opset3">
			<data output_type="i64" />
			<rt_info>
				<attribute name="fused_names" version="0" value="/block.0/layer.0/SelfAttention/Shape" />
			</rt_info>
			<input>
				<port id="0" precision="FP32">
					<dim>-1</dim>
					<dim>-1</dim>
					<dim>32</dim>
				</port>
			</input>
			<output>
				<port id="1" precision="I64" names="/block.0/layer.0/SelfAttention/Shape_output_0">
					<dim>3</dim>
				</port>
			</output>
		</layer>
		<layer id="30" name="/block.0/layer.0/SelfAttention/Constant" type="Const" version="opset1">
			<data element_type="i64" shape="" offset="141328" size="8" />
			<rt_info>
				<attribute name="fused_names" version="0" value="/block.0/layer.0/SelfAttention/Constant" />
			</rt_info>
			<output>
				<port id="0" precision="I64" names="/block.0/layer.0/SelfAttention/Constant_output_0" />
			</output>
		</layer>
		<layer id="31" name="Constant_4657877" type="Const" version="opset1">
			<data element_type="i64" shape="" offset="141328" size="8" />
			<rt_info>
				<attribute name="fused_names" version="0" value="Constant_4657877" />
			</rt_info>
			<output>
				<port id="0" precision="I64" />
			</output>
		</layer>
		<layer id="32" name="/block.0/layer.0/SelfAttention/Gather" type="Gather" version="opset8">
			<data batch_dims="0" />
			<rt_info>
				<attribute name="fused_names" version="0" value="/block.0/layer.0/SelfAttention/Constant, /block.0/layer.0/SelfAttention/Gather, Constant_4657877" />
			</rt_info>
			<input>
				<port id="0" precision="I64">
					<dim>3</dim>
				</port>
				<port id="1" precision="I64" />
				<port id="2" precision="I64" />
			</input>
			<output>
				<port id="3" precision="I64" names="/block.0/layer.0/SelfAttention/Gather_output_0" />
			</output>
		</layer>
		<layer id="33" name="Constant_46" type="Const" version="opset1">
			<data element_type="i64" shape="1" offset="141328" size="8" />
			<rt_info>
				<attribute name="fused_names" version="0" value="Constant_46" />
			</rt_info>
			<output>
				<port id="0" precision="I64" names="onnx::Unsqueeze_86">
					<dim>1</dim>
				</port>
			</output>
		</layer>
		<layer id="34" name="/block.0/layer.0/SelfAttention/Unsqueeze" type="Unsqueeze" version="opset1">
			<rt_info>
				<attribute name="fused_names" version="0" value="/block.0/layer.0/SelfAttention/Unsqueeze, Constant_46" />
			</rt_info>
			<input>
				<port id="0" precision="I64" />
				<port id="1" precision="I64">
					<dim>1</dim>
				</port>
			</input>
			<output>
				<port id="2" precision="I64" names="/block.0/layer.0/SelfAttention/Unsqueeze_output_0">
					<dim>1</dim>
				</port>
			</output>
		</layer>
		<layer id="35" name="/block.0/layer.0/SelfAttention/Constant_2" type="Const" version="opset1">
			<data element_type="i64" shape="1" offset="141312" size="8" />
			<rt_info>
				<attribute name="fused_names" version="0" value="/block.0/layer.0/SelfAttention/Constant_2" />
			</rt_info>
			<output>
				<port id="0" precision="I64" names="/block.0/layer.0/SelfAttention/Constant_2_output_0">
					<dim>1</dim>
				</port>
			</output>
		</layer>
		<layer id="36" name="/block.0/layer.0/SelfAttention/Constant_3" type="Const" version="opset1">
			<data element_type="i64" shape="1" offset="145444" size="8" />
			<rt_info>
				<attribute name="fused_names" version="0" value="/block.0/layer.0/SelfAttention/Constant_3" />
			</rt_info>
			<output>
				<port id="0" precision="I64" names="/block.0/layer.0/SelfAttention/Constant_3_output_0">
					<dim>1</dim>
				</port>
			</output>
		</layer>
		<layer id="37" name="/block.0/layer.0/SelfAttention/Constant_4" type="Const" version="opset1">
			<data element_type="i64" shape="1" offset="145452" size="8" />
			<rt_info>
				<attribute name="fused_names" version="0" value="/block.0/layer.0/SelfAttention/Constant_4" />
			</rt_info>
			<output>
				<port id="0" precision="I64" names="/block.0/layer.0/SelfAttention/Constant_4_output_0">
					<dim>1</dim>
				</port>
			</output>
		</layer>
		<layer id="38" name="/block.0/layer.0/SelfAttention/Concat" type="Concat" version="opset1">
			<data axis="0" />
			<rt_info>
				<attribute name="fused_names" version="0" value="/block.0/layer.0/SelfAttention/Concat, /block.0/layer.0/SelfAttention/Constant_2, /block.0/layer.0/SelfAttention/Constant_3, /block.0/layer.0/SelfAttention/Constant_4" />
			</rt_info>
			<input>
				<port id="0" precision="I64">
					<dim>1</dim>
				</port>
				<port id="1" precision="I64">
					<dim>1</dim>
				</port>
				<port id="2" precision="I64">
					<dim>1</dim>
				</port>
				<port id="3" precision="I64">
					<dim>1</dim>
				</port>
			</input>
			<output>
				<port id="4" precision="I64" names="/block.0/layer.0/SelfAttention/Concat_output_0">
					<dim>4</dim>
				</port>
			</output>
		</layer>
		<layer id="39" name="/block.0/layer.0/SelfAttention/Reshape" type="Reshape" version="opset1">
			<data special_zero="true" />
			<rt_info>
				<attribute name="fused_names" version="0" value="/block.0/layer.0/SelfAttention/Reshape" />
			</rt_info>
			<input>
				<port id="0" precision="FP32">
					<dim>-1</dim>
					<dim>-1</dim>
					<dim>32</dim>
				</port>
				<port id="1" precision="I64">
					<dim>4</dim>
				</port>
			</input>
			<output>
				<port id="2" precision="FP32" names="/block.0/layer.0/SelfAttention/Reshape_output_0">
					<dim>-1</dim>
					<dim>-1</dim>
					<dim>4</dim>
					<dim>8</dim>
				</port>
			</output>
		</layer>
		<layer id="40" name="Constant_4657909" type="Const" version="opset1">
			<data element_type="i64" shape="4" offset="145460" size="32" />
			<rt_info>
				<attribute name="fused_names" version="0" value="Constant_4657909" />
			</rt_info>
			<output>
				<port id="0" precision="I64">
					<dim>4</dim>
				</port>
			</output>
		</layer>
		<layer id="41" name="/block.0/layer.0/SelfAttention/Transpose" type="Transpose" version="opset1">
			<rt_info>
				<attribute name="fused_names" version="0" value="/block.0/layer.0/SelfAttention/Transpose" />
			</rt_info>
			<input>
				<port id="0" precision="FP32">
					<dim>-1</dim>
					<dim>-1</dim>
					<dim>4</dim>
					<dim>8</dim>
				</port>
				<port id="1" precision="I64">
					<dim>4</dim>
				</port>
			</input>
			<output>
				<port id="2" precision="FP32" names="/block.0/layer.0/SelfAttention/Transpose_output_0">
					<dim>-1</dim>
					<dim>4</dim>
					<dim>-1</dim>
					<dim>8</dim>
				</port>
			</output>
		</layer>
		<layer id="42" name="onnx::MatMul_568" type="Const" version="opset1">
			<data element_type="f32" shape="32, 32" offset="145492" size="4096" />
			<rt_info>
				<attribute name="fused_names" version="0" value="onnx::MatMul_568" />
			</rt_info>
			<output>
				<port id="0" precision="FP32" names="onnx::MatMul_568">
					<dim>32</dim>
					<dim>32</dim>
				</port>
			</output>
		</layer>
		<layer id="43" name="/block.0/layer.0/SelfAttention/k/MatMul" type="MatMul" version="opset1">
			<data transpose_a="false" transpose_b="false" />
			<rt_info>
				<attribute name="fused_names" version="0" value="/block.0/layer.0/SelfAttention/k/MatMul" />
			</rt_info>
			<input>
				<port id="0" precision="FP32">
					<dim>-1</dim>
					<dim>-1</dim>
					<dim>32</dim>
				</port>
				<port id="1" precision="FP32">
					<dim>32</dim>
					<dim>32</dim>
				</port>
			</input>
			<output>
				<port id="2" precision="FP32" names="/block.0/layer.0/SelfAttention/k/MatMul_output_0">
					<dim>-1</dim>
					<dim>-1</dim>
					<dim>32</dim>
				</port>
			</output>
		</layer>
		<layer id="44" name="Constant_52" type="Const" version="opset1">
			<data element_type="i64" shape="1" offset="141328" size="8" />
			<rt_info>
				<attribute name="fused_names" version="0" value="Constant_52" />
			</rt_info>
			<output>
				<port id="0" precision="I64" names="onnx::Unsqueeze_95">
					<dim>1</dim>
				</port>
			</output>
		</layer>
		<layer id="45" name="/block.0/layer.0/SelfAttention/Unsqueeze_1" type="Unsqueeze" version="opset1">
			<rt_info>
				<attribute name="fused_names" version="0" value="/block.0/layer.0/SelfAttention/Unsqueeze_1, Constant_52" />
			</rt_info>
			<input>
				<port id="0" precision="I64" />
				<port id="1" precision="I64">
					<dim>1</dim>
				</port>
			</input>
			<output>
				<port id="2" precision="I64" names="/block.0/layer.0/SelfAttention/Unsqueeze_1_output_0">
					<dim>1</dim>
				</port>
			</output>
		</layer>
		<layer id="46" name="/block.0/layer.0/SelfAttention/Constant_5" type="Const" version="opset1">
			<data element_type="i64" shape="1" offset="141312" size="8" />
			<rt_info>
				<attribute name="fused_names" version="0" value="/block.0/layer.0/SelfAttention/Constant_5" />
			</rt_info>
			<output>
				<port id="0" precision="I64" names="/block.0/layer.0/SelfAttention/Constant_5_output_0">
					<dim>1</dim>
				</port>
			</output>
		</layer>
		<layer id="47" name="/block.0/layer.0/SelfAttention/Constant_6" type="Const" version="opset1">
			<data element_type="i64" shape="1" offset="145444" size="8" />
			<rt_info>
				<attribute name="fused_names" version="0" value="/block.0/layer.0/SelfAttention/Constant_6" />
			</rt_info>
			<output>
				<port id="0" precision="I64" names="/block.0/layer.0/SelfAttention/Constant_6_output_0">
					<dim>1</dim>
				</port>
			</output>
		</layer>
		<layer id="48" name="/block.0/layer.0/SelfAttention/Constant_7" type="Const" version="opset1">
			<data element_type="i64" shape="1" offset="145452" size="8" />
			<rt_info>
				<attribute name="fused_names" version="0" value="/block.0/layer.0/SelfAttention/Constant_7" />
			</rt_info>
			<output>
				<port id="0" precision="I64" names="/block.0/layer.0/SelfAttention/Constant_7_output_0">
					<dim>1</dim>
				</port>
			</output>
		</layer>
		<layer id="49" name="/block.0/layer.0/SelfAttention/Concat_1" type="Concat" version="opset1">
			<data axis="0" />
			<rt_info>
				<attribute name="fused_names" version="0" value="/block.0/layer.0/SelfAttention/Concat_1, /block.0/layer.0/SelfAttention/Constant_5, /block.0/layer.0/SelfAttention/Constant_6, /block.0/layer.0/SelfAttention/Constant_7" />
			</rt_info>
			<input>
				<port id="0" precision="I64">
					<dim>1</dim>
				</port>
				<port id="1" precision="I64">
					<dim>1</dim>
				</port>
				<port id="2" precision="I64">
					<dim>1</dim>
				</port>
				<port id="3" precision="I64">
					<dim>1</dim>
				</port>
			</input>
			<output>
				<port id="4" precision="I64" names="/block.0/layer.0/SelfAttention/Concat_1_output_0">
					<dim>4</dim>
				</port>
			</output>
		</layer>
		<layer id="50" name="/block.0/layer.0/SelfAttention/Reshape_1" type="Reshape" version="opset1">
			<data special_zero="true" />
			<rt_info>
				<attribute name="fused_names" version="0" value="/block.0/layer.0/SelfAttention/Reshape_1" />
			</rt_info>
			<input>
				<port id="0" precision="FP32">
					<dim>-1</dim>
					<dim>-1</dim>
					<dim>32</dim>
				</port>
				<port id="1" precision="I64">
					<dim>4</dim>
				</port>
			</input>
			<output>
				<port id="2" precision="FP32" names="/block.0/layer.0/SelfAttention/Reshape_1_output_0">
					<dim>-1</dim>
					<dim>-1</dim>
					<dim>4</dim>
					<dim>8</dim>
				</port>
			</output>
		</layer>
		<layer id="51" name="Constant_4657929" type="Const" version="opset1">
			<data element_type="i64" shape="4" offset="149588" size="32" />
			<rt_info>
				<attribute name="fused_names" version="0" value="Constant_4657929" />
			</rt_info>
			<output>
				<port id="0" precision="I64">
					<dim>4</dim>
				</port>
			</output>
		</layer>
		<layer id="52" name="/block.0/layer.0/SelfAttention/Transpose_2" type="Transpose" version="opset1">
			<rt_info>
				<attribute name="fused_names" version="0" value="/block.0/layer.0/SelfAttention/Transpose_2" />
			</rt_info>
			<input>
				<port id="0" precision="FP32">
					<dim>-1</dim>
					<dim>-1</dim>
					<dim>4</dim>
					<dim>8</dim>
				</port>
				<port id="1" precision="I64">
					<dim>4</dim>
				</port>
			</input>
			<output>
				<port id="2" precision="FP32" names="/block.0/layer.0/SelfAttention/Transpose_2_output_0">
					<dim>-1</dim>
					<dim>4</dim>
					<dim>8</dim>
					<dim>-1</dim>
				</port>
			</output>
		</layer>
		<layer id="53" name="/block.0/layer.0/SelfAttention/MatMul" type="MatMul" version="opset1">
			<data transpose_a="false" transpose_b="false" />
			<rt_info>
				<attribute name="fused_names" version="0" value="/block.0/layer.0/SelfAttention/MatMul" />
			</rt_info>
			<input>
				<port id="0" precision="FP32">
					<dim>-1</dim>
					<dim>4</dim>
					<dim>-1</dim>
					<dim>8</dim>
				</port>
				<port id="1" precision="FP32">
					<dim>-1</dim>
					<dim>4</dim>
					<dim>8</dim>
					<dim>-1</dim>
				</port>
			</input>
			<output>
				<port id="2" precision="FP32" names="/block.0/layer.0/SelfAttention/MatMul_output_0">
					<dim>-1</dim>
					<dim>4</dim>
					<dim>-1</dim>
					<dim>-1</dim>
				</port>
			</output>
		</layer>
		<layer id="54" name="block.0.layer.0.SelfAttention.relative_attention_bias.weight" type="Const" version="opset1">
			<data element_type="f32" shape="8, 4" offset="149620" size="128" />
			<rt_info>
				<attribute name="fused_names" version="0" value="block.0.layer.0.SelfAttention.relative_attention_bias.weight" />
			</rt_info>
			<output>
				<port id="0" precision="FP32" names="block.0.layer.0.SelfAttention.relative_attention_bias.weight">
					<dim>8</dim>
					<dim>4</dim>
				</port>
			</output>
		</layer>
		<layer id="55" name="/block.0/layer.0/SelfAttention/Constant_11" type="Const" version="opset1">
			<data element_type="i64" shape="" offset="141328" size="8" />
			<rt_info>
				<attribute name="fused_names" version="0" value="/block.0/layer.0/SelfAttention/Constant_11" />
			</rt_info>
			<output>
				<port id="0" precision="I64" names="/block.0/layer.0/SelfAttention/Constant_11_output_0" />
			</output>
		</layer>
		<layer id="56" name="/block.0/layer.0/SelfAttention/Shape_1" type="ShapeOf" version="opset3">
			<data output_type="i64" />
			<rt_info>
				<attribute name="fused_names" version="0" value="/block.0/layer.0/SelfAttention/Shape_1" />
			</rt_info>
			<input>
				<port id="0" precision="FP32">
					<dim>-1</dim>
					<dim>-1</dim>
					<dim>32</dim>
				</port>
			</input>
			<output>
				<port id="1" precision="I64" names="/block.0/layer.0/SelfAttention/Shape_1_output_0">
					<dim>3</dim>
				</port>
			</output>
		</layer>
		<layer id="57" name="/block.0/layer.0/SelfAttention/Constant_1" type="Const" version="opset1">
			<data element_type="i64" shape="" offset="141320" size="8" />
			<rt_info>
				<attribute name="fused_names" version="0" value="/block.0/layer.0/SelfAttention/Constant_1" />
			</rt_info>
			<output>
				<port id="0" precision="I64" names="/block.0/layer.0/SelfAttention/Constant_1_output_0" />
			</output>
		</layer>
		<layer id="58" name="Constant_4657881" type="Const" version="opset1">
			<data element_type="i64" shape="" offset="141328" size="8" />
			<rt_info>
				<attribute name="fused_names" version="0" value="Constant_4657881" />
			</rt_info>
			<output>
				<port id="0" precision="I64" />
			</output>
		</layer>
		<layer id="59" name="/block.0/layer.0/SelfAttention/Gather_1" type="Gather" version="opset8">
			<data batch_dims="0" />
			<rt_info>
				<attribute name="fused_names" version="0" value="/block.0/layer.0/SelfAttention/Constant_1, /block.0/layer.0/SelfAttention/Gather_1, Constant_4657881" />
			</rt_info>
			<input>
				<port id="0" precision="I64">
					<dim>3</dim>
				</port>
				<port id="1" precision="I64" />
				<port id="2" precision="I64" />
			</input>
			<output>
				<port id="3" precision="I64" names="/block.0/layer.0/SelfAttention/Gather_1_output_0" />
			</output>
		</layer>
		<layer id="60" name="/block.0/layer.0/SelfAttention/Cast" type="Convert" version="opset1">
			<data destination_type="i64" />
			<rt_info>
				<attribute name="fused_names" version="0" value="/block.0/layer.0/SelfAttention/Cast" />
			</rt_info>
			<input>
				<port id="0" precision="I64" />
			</input>
			<output>
				<port id="1" precision="I64" names="/block.0/layer.0/SelfAttention/Cast_output_0" />
			</output>
		</layer>
		<layer id="61" name="/block.0/layer.0/SelfAttention/Constant_12" type="Const" version="opset1">
			<data element_type="i64" shape="" offset="141320" size="8" />
			<rt_info>
				<attribute name="fused_names" version="0" value="/block.0/layer.0/SelfAttention/Constant_12" />
			</rt_info>
			<output>
				<port id="0" precision="I64" names="/block.0/layer.0/SelfAttention/Constant_12_output_0" />
			</output>
		</layer>
		<layer id="62" name="/block.0/layer.0/SelfAttention/Range" type="Range" version="opset4">
			<data output_type="i64" />
			<rt_info>
				<attribute name="fused_names" version="0" value="/block.0/layer.0/SelfAttention/Range" />
			</rt_info>
			<input>
				<port id="0" precision="I64" />
				<port id="1" precision="I64" />
				<port id="2" precision="I64" />
			</input>
			<output>
				<port id="3" precision="I64" names="/block.0/layer.0/SelfAttention/Range_output_0">
					<dim>-1</dim>
				</port>
			</output>
		</layer>
		<layer id="63" name="/block.0/layer.0/SelfAttention/Constant_14" type="Const" version="opset1">
			<data element_type="i64" shape="1" offset="141328" size="8" />
			<rt_info>
				<attribute name="fused_names" version="0" value="/block.0/layer.0/SelfAttention/Constant_14" />
			</rt_info>
			<output>
				<port id="0" precision="I64" names="/block.0/layer.0/SelfAttention/Constant_14_output_0">
					<dim>1</dim>
				</port>
			</output>
		</layer>
		<layer id="64" name="/block.0/layer.0/SelfAttention/Unsqueeze_4" type="Unsqueeze" version="opset1">
			<rt_info>
				<attribute name="fused_names" version="0" value="/block.0/layer.0/SelfAttention/Unsqueeze_4" />
			</rt_info>
			<input>
				<port id="0" precision="I64">
					<dim>-1</dim>
				</port>
				<port id="1" precision="I64">
					<dim>1</dim>
				</port>
			</input>
			<output>
				<port id="2" precision="I64" names="/block.0/layer.0/SelfAttention/Unsqueeze_4_output_0">
					<dim>1</dim>
					<dim>-1</dim>
				</port>
			</output>
		</layer>
		<layer id="65" name="/block.0/layer.0/SelfAttention/Constant_13" type="Const" version="opset1">
			<data element_type="i64" shape="1" offset="141320" size="8" />
			<rt_info>
				<attribute name="fused_names" version="0" value="/block.0/layer.0/SelfAttention/Constant_13" />
			</rt_info>
			<output>
				<port id="0" precision="I64" names="/block.0/layer.0/SelfAttention/Constant_13_output_0">
					<dim>1</dim>
				</port>
			</output>
		</layer>
		<layer id="66" name="/block.0/layer.0/SelfAttention/Unsqueeze_3" type="Unsqueeze" version="opset1">
			<rt_info>
				<attribute name="fused_names" version="0" value="/block.0/layer.0/SelfAttention/Unsqueeze_3" />
			</rt_info>
			<input>
				<port id="0" precision="I64">
					<dim>-1</dim>
				</port>
				<port id="1" precision="I64">
					<dim>1</dim>
				</port>
			</input>
			<output>
				<port id="2" precision="I64" names="/block.0/layer.0/SelfAttention/Unsqueeze_3_output_0">
					<dim>-1</dim>
					<dim>1</dim>
				</port>
			</output>
		</layer>
		<layer id="67" name="/block.0/layer.0/SelfAttention/Sub" type="Subtract" version="opset1">
			<data auto_broadcast="numpy" />
			<rt_info>
				<attribute name="fused_names" version="0" value="/block.0/layer.0/SelfAttention/Sub" />
			</rt_info>
			<input>
				<port id="0" precision="I64">
					<dim>1</dim>
					<dim>-1</dim>
				</port>
				<port id="1" precision="I64">
					<dim>-1</dim>
					<dim>1</dim>
				</port>
			</input>
			<output>
				<port id="2" precision="I64" names="/block.0/layer.0/SelfAttention/Sub_output_0">
					<dim>-1</dim>
					<dim>-1</dim>
				</port>
			</output>
		</layer>
		<layer id="68" name="/block.0/layer.0/SelfAttention/Constant_15" type="Const" version="opset1">
			<data element_type="i64" shape="" offset="141328" size="8" />
			<rt_info>
				<attribute name="fused_names" version="0" value="/block.0/layer.0/SelfAttention/Constant_15" />
			</rt_info>
			<output>
				<port id="0" precision="I64" names="/block.0/layer.0/SelfAttention/Constant_15_output_0" />
			</output>
		</layer>
		<layer id="69" name="/block.0/layer.0/SelfAttention/Greater" type="Greater" version="opset1">
			<data auto_broadcast="numpy" />
			<rt_info>
				<attribute name="fused_names" version="0" value="/block.0/layer.0/SelfAttention/Greater" />
			</rt_info>
			<input>
				<port id="0" precision="I64">
					<dim>-1</dim>
					<dim>-1</dim>
				</port>
				<port id="1" precision="I64" />
			</input>
			<output>
				<port id="2" precision="BOOL" names="/block.0/layer.0/SelfAttention/Greater_output_0">
					<dim>-1</dim>
					<dim>-1</dim>
				</port>
			</output>
		</layer>
		<layer id="70" name="/block.0/layer.0/SelfAttention/Cast_1" type="Convert" version="opset1">
			<data destination_type="i64" />
			<rt_info>
				<attribute name="fused_names" version="0" value="/block.0/layer.0/SelfAttention/Cast_1" />
			</rt_info>
			<input>
				<port id="0" precision="BOOL">
					<dim>-1</dim>
					<dim>-1</dim>
				</port>
			</input>
			<output>
				<port id="1" precision="I64" names="/block.0/layer.0/SelfAttention/Cast_1_output_0">
					<dim>-1</dim>
					<dim>-1</dim>
				</port>
			</output>
		</layer>
		<layer id="71" name="/block.0/layer.0/SelfAttention/Constant_16" type="Const" version="opset1">
			<data element_type="i64" shape="" offset="145444" size="8" />
			<rt_info>
				<attribute name="fused_names" version="0" value="/block.0/layer.0/SelfAttention/Constant_16" />
			</rt_info>
			<output>
				<port id="0" precision="I64" names="/block.0/layer.0/SelfAttention/Constant_16_output_0" />
			</output>
		</layer>
		<layer id="72" name="/block.0/layer.0/SelfAttention/Mul" type="Multiply" version="opset1">
			<data auto_broadcast="numpy" />
			<rt_info>
				<attribute name="fused_names" version="0" value="/block.0/layer.0/SelfAttention/Mul" />
			</rt_info>
			<input>
				<port id="0" precision="I64">
					<dim>-1</dim>
					<dim>-1</dim>
				</port>
				<port id="1" precision="I64" />
			</input>
			<output>
				<port id="2" precision="I64" names="/block.0/layer.0/SelfAttention/Mul_output_0">
					<dim>-1</dim>
					<dim>-1</dim>
				</port>
			</output>
		</layer>
		<layer id="73" name="/block.0/layer.0/SelfAttention/Constant_17" type="Const" version="opset1">
			<data element_type="i64" shape="" offset="141328" size="8" />
			<rt_info>
				<attribute name="fused_names" version="0" value="/block.0/layer.0/SelfAttention/Constant_17" />
			</rt_info>
			<output>
				<port id="0" precision="I64" names="/block.0/layer.0/SelfAttention/Constant_17_output_0" />
			</output>
		</layer>
		<layer id="74" name="/block.0/layer.0/SelfAttention/Add" type="Add" version="opset1">
			<data auto_broadcast="numpy" />
			<rt_info>
				<attribute name="fused_names" version="0" value="/block.0/layer.0/SelfAttention/Add" />
			</rt_info>
			<input>
				<port id="0" precision="I64">
					<dim>-1</dim>
					<dim>-1</dim>
				</port>
				<port id="1" precision="I64" />
			</input>
			<output>
				<port id="2" precision="I64" names="/block.0/layer.0/SelfAttention/Add_output_0">
					<dim>-1</dim>
					<dim>-1</dim>
				</port>
			</output>
		</layer>
		<layer id="75" name="/block.0/layer.0/SelfAttention/Abs" type="Abs" version="opset1">
			<rt_info>
				<attribute name="fused_names" version="0" value="/block.0/layer.0/SelfAttention/Abs" />
			</rt_info>
			<input>
				<port id="0" precision="I64">
					<dim>-1</dim>
					<dim>-1</dim>
				</port>
			</input>
			<output>
				<port id="1" precision="I64" names="/block.0/layer.0/SelfAttention/Abs_output_0">
					<dim>-1</dim>
					<dim>-1</dim>
				</port>
			</output>
		</layer>
		<layer id="76" name="/block.0/layer.0/SelfAttention/Constant_18" type="Const" version="opset1">
			<data element_type="i64" shape="" offset="149748" size="8" />
			<rt_info>
				<attribute name="fused_names" version="0" value="/block.0/layer.0/SelfAttention/Constant_18" />
			</rt_info>
			<output>
				<port id="0" precision="I64" names="/block.0/layer.0/SelfAttention/Constant_18_output_0" />
			</output>
		</layer>
		<layer id="77" name="/block.0/layer.0/SelfAttention/Less" type="Less" version="opset1">
			<data auto_broadcast="numpy" />
			<rt_info>
				<attribute name="fused_names" version="0" value="/block.0/layer.0/SelfAttention/Less" />
			</rt_info>
			<input>
				<port id="0" precision="I64">
					<dim>-1</dim>
					<dim>-1</dim>
				</port>
				<port id="1" precision="I64" />
			</input>
			<output>
				<port id="2" precision="BOOL" names="/block.0/layer.0/SelfAttention/Less_output_0">
					<dim>-1</dim>
					<dim>-1</dim>
				</port>
			</output>
		</layer>
		<layer id="78" name="/block.0/layer.0/SelfAttention/Cast_2" type="Convert" version="opset1">
			<data destination_type="f32" />
			<rt_info>
				<attribute name="fused_names" version="0" value="/block.0/layer.0/SelfAttention/Cast_2" />
			</rt_info>
			<input>
				<port id="0" precision="I64">
					<dim>-1</dim>
					<dim>-1</dim>
				</port>
			</input>
			<output>
				<port id="1" precision="FP32" names="/block.0/layer.0/SelfAttention/Cast_2_output_0">
					<dim>-1</dim>
					<dim>-1</dim>
				</port>
			</output>
		</layer>
		<layer id="79" name="/block.0/layer.0/SelfAttention/Constant_19" type="Const" version="opset1">
			<data element_type="f32" shape="" offset="141340" size="4" />
			<rt_info>
				<attribute name="fused_names" version="0" value="/block.0/layer.0/SelfAttention/Constant_19" />
			</rt_info>
			<output>
				<port id="0" precision="FP32" names="/block.0/layer.0/SelfAttention/Constant_19_output_0" />
			</output>
		</layer>
		<layer id="80" name="/block.0/layer.0/SelfAttention/Div" type="Divide" version="opset1">
			<data auto_broadcast="numpy" m_pythondiv="true" />
			<rt_info>
				<attribute name="fused_names" version="0" value="/block.0/layer.0/SelfAttention/Div" />
			</rt_info>
			<input>
				<port id="0" precision="FP32">
					<dim>-1</dim>
					<dim>-1</dim>
				</port>
				<port id="1" precision="FP32" />
			</input>
			<output>
				<port id="2" precision="FP32" names="/block.0/layer.0/SelfAttention/Div_output_0">
					<dim>-1</dim>
					<dim>-1</dim>
				</port>
			</output>
		</layer>
		<layer id="81" name="/block.0/layer.0/SelfAttention/Log" type="Log" version="opset1">
			<rt_info>
				<attribute name="fused_names" version="0" value="/block.0/layer.0/SelfAttention/Log" />
			</rt_info>
			<input>
				<port id="0" precision="FP32">
					<dim>-1</dim>
					<dim>-1</dim>
				</port>
			</input>
			<output>
				<port id="1" precision="FP32" names="/block.0/layer.0/SelfAttention/Log_output_0">
					<dim>-1</dim>
					<dim>-1</dim>
				</port>
			</output>
		</layer>
		<layer id="82" name="/block.0/layer.0/SelfAttention/Constant_20" type="Const" version="opset1">
			<data element_type="f32" shape="" offset="149756" size="4" />
			<rt_info>
				<attribute name="fused_names" version="0" value="/block.0/layer.0/SelfAttention/Constant_20" />
			</rt_info>
			<output>
				<port id="0" precision="FP32" names="/block.0/layer.0/SelfAttention/Constant_20_output_0" />
			</output>
		</layer>
		<layer id="83" name="/block.0/layer.0/SelfAttention/Div_1" type="Divide" version="opset1">
			<data auto_broadcast="numpy" m_pythondiv="true" />
			<rt_info>
				<attribute name="fused_names" version="0" value="/block.0/layer.0/SelfAttention/Div_1" />
			</rt_info>
			<input>
				<port id="0" precision="FP32">
					<dim>-1</dim>
					<dim>-1</dim>
				</port>
				<port id="1" precision="FP32" />
			</input>
			<output>
				<port id="2" precision="FP32" names="/block.0/layer.0/SelfAttention/Div_1_output_0">
					<dim>-1</dim>
					<dim>-1</dim>
				</port>
			</output>
		</layer>
		<layer id="84" name="/block.0/layer.0/SelfAttention/Constant_21" type="Const" version="opset1">
			<data element_type="f32" shape="" offset="141340" size="4" />
			<rt_info>
				<attribute name="fused_names" version="0" value="/block.0/layer.0/SelfAttention/Constant_21" />
			</rt_info>
			<output>
				<port id="0" precision="FP32" names="/block.0/layer.0/SelfAttention/Constant_21_output_0" />
			</output>
		</layer>
		<layer id="85" name="/block.0/layer.0/SelfAttention/Mul_1" type="Multiply" version="opset1">
			<data auto_broadcast="numpy" />
			<rt_info>
				<attribute name="fused_names" version="0" value="/block.0/layer.0/SelfAttention/Mul_1" />
			</rt_info>
			<input>
				<port id="0" precision="FP32">
					<dim>-1</dim>
					<dim>-1</dim>
				</port>
				<port id="1" precision="FP32" />
			</input>
			<output>
				<port id="2" precision="FP32" names="/block.0/layer.0/SelfAttention/Mul_1_output_0">
					<dim>-1</dim>
					<dim>-1</dim>
				</port>
			</output>
		</layer>
		<layer id="86" name="/block.0/layer.0/SelfAttention/Cast_3" type="Convert" version="opset1">
			<data destination_type="i64" />
			<rt_info>
				<attribute name="fused_names" version="0" value="/block.0/layer.0/SelfAttention/Cast_3" />
			</rt_info>
			<input>
				<port id="0" precision="FP32">
					<dim>-1</dim>
					<dim>-1</dim>
				</port>
			</input>
			<output>
				<port id="1" precision="I64" names="/block.0/layer.0/SelfAttention/Cast_3_output_0">
					<dim>-1</dim>
					<dim>-1</dim>
				</port>
			</output>
		</layer>
		<layer id="87" name="/block.0/layer.0/SelfAttention/Constant_22" type="Const" version="opset1">
			<data element_type="i64" shape="" offset="149748" size="8" />
			<rt_info>
				<attribute name="fused_names" version="0" value="/block.0/layer.0/SelfAttention/Constant_22" />
			</rt_info>
			<output>
				<port id="0" precision="I64" names="/block.0/layer.0/SelfAttention/Constant_22_output_0" />
			</output>
		</layer>
		<layer id="88" name="/block.0/layer.0/SelfAttention/Add_1" type="Add" version="opset1">
			<data auto_broadcast="numpy" />
			<rt_info>
				<attribute name="fused_names" version="0" value="/block.0/layer.0/SelfAttention/Add_1" />
			</rt_info>
			<input>
				<port id="0" precision="I64">
					<dim>-1</dim>
					<dim>-1</dim>
				</port>
				<port id="1" precision="I64" />
			</input>
			<output>
				<port id="2" precision="I64" names="/block.0/layer.0/SelfAttention/Add_1_output_0">
					<dim>-1</dim>
					<dim>-1</dim>
				</port>
			</output>
		</layer>
		<layer id="89" name="Constant_4657976" type="Const" version="opset1">
			<data element_type="i64" shape="" offset="149760" size="8" />
			<rt_info>
				<attribute name="fused_names" version="0" value="Constant_4657976" />
			</rt_info>
			<output>
				<port id="0" precision="I64" />
			</output>
		</layer>
		<layer id="90" name="/block.0/layer.0/SelfAttention/Shape_2" type="ShapeOf" version="opset3">
			<data output_type="i64" />
			<rt_info>
				<attribute name="fused_names" version="0" value="/block.0/layer.0/SelfAttention/Shape_2" />
			</rt_info>
			<input>
				<port id="0" precision="I64">
					<dim>-1</dim>
					<dim>-1</dim>
				</port>
			</input>
			<output>
				<port id="1" precision="I64" names="/block.0/layer.0/SelfAttention/Shape_2_output_0">
					<dim>2</dim>
				</port>
			</output>
		</layer>
		<layer id="91" name="/block.0/layer.0/SelfAttention/ConstantOfShape" type="Broadcast" version="opset3">
			<data mode="numpy" />
			<rt_info>
				<attribute name="fused_names" version="0" value="/block.0/layer.0/SelfAttention/ConstantOfShape" />
			</rt_info>
			<input>
				<port id="0" precision="I64" />
				<port id="1" precision="I64">
					<dim>2</dim>
				</port>
			</input>
			<output>
				<port id="2" precision="I64" names="/block.0/layer.0/SelfAttention/ConstantOfShape_output_0">
					<dim>-1</dim>
					<dim>-1</dim>
				</port>
			</output>
		</layer>
		<layer id="92" name="/block.0/layer.0/SelfAttention/Min" type="Minimum" version="opset1">
			<data auto_broadcast="numpy" />
			<rt_info>
				<attribute name="fused_names" version="0" value="/block.0/layer.0/SelfAttention/Min" />
			</rt_info>
			<input>
				<port id="0" precision="I64">
					<dim>-1</dim>
					<dim>-1</dim>
				</port>
				<port id="1" precision="I64">
					<dim>-1</dim>
					<dim>-1</dim>
				</port>
			</input>
			<output>
				<port id="2" precision="I64" names="/block.0/layer.0/SelfAttention/Min_output_0">
					<dim>-1</dim>
					<dim>-1</dim>
				</port>
			</output>
		</layer>
		<layer id="93" name="/block.0/layer.0/SelfAttention/Where" type="Select" version="opset1">
			<data auto_broadcast="numpy" />
			<rt_info>
				<attribute name="fused_names" version="0" value="/block.0/layer.0/SelfAttention/Where" />
			</rt_info>
			<input>
				<port id="0" precision="BOOL">
					<dim>-1</dim>
					<dim>-1</dim>
				</port>
				<port id="1" precision="I64">
					<dim>-1</dim>
					<dim>-1</dim>
				</port>
				<port id="2" precision="I64">
					<dim>-1</dim>
					<dim>-1</dim>
				</port>
			</input>
			<output>
				<port id="3" precision="I64" names="/block.0/layer.0/SelfAttention/Where_output_0">
					<dim>-1</dim>
					<dim>-1</dim>
				</port>
			</output>
		</layer>
		<layer id="94" name="/block.0/layer.0/SelfAttention/Add_2" type="Add" version="opset1">
			<data auto_broadcast="numpy" />
			<rt_info>
				<attribute name="fused_names" version="0" value="/block.0/layer.0/SelfAttention/Add_2" />
			</rt_info>
			<input>
				<port id="0" precision="I64">
					<dim>-1</dim>
					<dim>-1</dim>
				</port>
				<port id="1" precision="I64">
					<dim>-1</dim>
					<dim>-1</dim>
				</port>
			</input>
			<output>
				<port id="2" precision="I64" names="/block.0/layer.0/SelfAttention/Add_2_output_0">
					<dim>-1</dim>
					<dim>-1</dim>
				</port>
			</output>
		</layer>
		<layer id="95" name="Constant_4657987" type="Const" version="opset1">
			<data element_type="i64" shape="" offset="141328" size="8" />
			<rt_info>
				<attribute name="fused_names" version="0" value="Constant_4657987" />
			</rt_info>
			<output>
				<port id="0" precision="I64" />
			</output>
		</layer>
		<layer id="96" name="/block.0/layer.0/SelfAttention/relative_attention_bias/Gather" type="Gather" version="opset8">
			<data batch_dims="0" />
			<rt_info>
				<attribute name="fused_names" version="0" value="/block.0/layer.0/SelfAttention/relative_attention_bias/Gather" />
			</rt_info>
			<input>
				<port id="0" precision="FP32">
					<dim>8</dim>
					<dim>4</dim>
				</port>
				<port id="1" precision="I64">
					<dim>-1</dim>
					<dim>-1</dim>
				</port>
				<port id="2" precision="I64" />
			</input>
			<output>
				<port id="3" precision="FP32" names="/block.0/layer.0/SelfAttention/relative_attention_bias/Gather_output_0">
					<dim>-1</dim>
					<dim>-1</dim>
					<dim>4</dim>
				</port>
			</output>
		</layer>
		<layer id="97" name="Constant_4657989" type="Const" version="opset1">
			<data element_type="i64" shape="3" offset="149768" size="24" />
			<rt_info>
				<attribute name="fused_names" version="0" value="Constant_4657989" />
			</rt_info>
			<output>
				<port id="0" precision="I64">
					<dim>3</dim>
				</port>
			</output>
		</layer>
		<layer id="98" name="/block.0/layer.0/SelfAttention/Transpose_3" type="Transpose" version="opset1">
			<rt_info>
				<attribute name="fused_names" version="0" value="/block.0/layer.0/SelfAttention/Transpose_3" />
			</rt_info>
			<input>
				<port id="0" precision="FP32">
					<dim>-1</dim>
					<dim>-1</dim>
					<dim>4</dim>
				</port>
				<port id="1" precision="I64">
					<dim>3</dim>
				</port>
			</input>
			<output>
				<port id="2" precision="FP32" names="/block.0/layer.0/SelfAttention/Transpose_3_output_0">
					<dim>4</dim>
					<dim>-1</dim>
					<dim>-1</dim>
				</port>
			</output>
		</layer>
		<layer id="99" name="/block.0/layer.0/SelfAttention/Constant_23" type="Const" version="opset1">
			<data element_type="i64" shape="1" offset="141328" size="8" />
			<rt_info>
				<attribute name="fused_names" version="0" value="/block.0/layer.0/SelfAttention/Constant_23" />
			</rt_info>
			<output>
				<port id="0" precision="I64" names="/block.0/layer.0/SelfAttention/Constant_23_output_0">
					<dim>1</dim>
				</port>
			</output>
		</layer>
		<layer id="100" name="/block.0/layer.0/SelfAttention/Unsqueeze_5" type="Unsqueeze" version="opset1">
			<rt_info>
				<attribute name="fused_names" version="0" value="/block.0/layer.0/SelfAttention/Unsqueeze_5" />
			</rt_info>
			<input>
				<port id="0" precision="FP32">
					<dim>4</dim>
					<dim>-1</dim>
					<dim>-1</dim>
				</port>
				<port id="1" precision="I64">
					<dim>1</dim>
				</port>
			</input>
			<output>
				<port id="2" precision="FP32" names="/block.0/layer.0/SelfAttention/Unsqueeze_5_output_0">
					<dim>1</dim>
					<dim>4</dim>
					<dim>-1</dim>
					<dim>-1</dim>
				</port>
			</output>
		</layer>
		<layer id="101" name="/Constant_4" type="Const" version="opset1">
			<data element_type="f32" shape="" offset="141336" size="4" />
			<rt_info>
				<attribute name="fused_names" version="0" value="/Constant_4" />
			</rt_info>
			<output>
				<port id="0" precision="FP32" names="/Constant_4_output_0" />
			</output>
		</layer>
		<layer id="102" name="/Constant_2" type="Const" version="opset1">
			<data element_type="i64" shape="1" offset="141320" size="8" />
			<rt_info>
				<attribute name="fused_names" version="0" value="/Constant_2" />
			</rt_info>
			<output>
				<port id="0" precision="I64" names="/Constant_2_output_0">
					<dim>1</dim>
				</port>
			</output>
		</layer>
		<layer id="103" name="/Unsqueeze_1" type="Unsqueeze" version="opset1">
			<rt_info>
				<attribute name="fused_names" version="0" value="/Unsqueeze_1" />
			</rt_info>
			<input>
				<port id="0" precision="I64">
					<dim>-1</dim>
					<dim>-1</dim>
				</port>
				<port id="1" precision="I64">
					<dim>1</dim>
				</port>
			</input>
			<output>
				<port id="2" precision="I64" names="/Unsqueeze_1_output_0">
					<dim>-1</dim>
					<dim>1</dim>
					<dim>-1</dim>
				</port>
			</output>
		</layer>
		<layer id="104" name="/Constant_3" type="Const" version="opset1">
			<data element_type="i64" shape="1" offset="149748" size="8" />
			<rt_info>
				<attribute name="fused_names" version="0" value="/Constant_3" />
			</rt_info>
			<output>
				<port id="0" precision="I64" names="/Constant_3_output_0">
					<dim>1</dim>
				</port>
			</output>
		</layer>
		<layer id="105" name="/Unsqueeze_2" type="Unsqueeze" version="opset1">
			<rt_info>
				<attribute name="fused_names" version="0" value="/Unsqueeze_2" />
			</rt_info>
			<input>
				<port id="0" precision="I64">
					<dim>-1</dim>
					<dim>1</dim>
					<dim>-1</dim>
				</port>
				<port id="1" precision="I64">
					<dim>1</dim>
				</port>
			</input>
			<output>
				<port id="2" precision="I64" names="/Unsqueeze_2_output_0">
					<dim>-1</dim>
					<dim>1</dim>
					<dim>1</dim>
					<dim>-1</dim>
				</port>
			</output>
		</layer>
		<layer id="106" name="/Cast" type="Convert" version="opset1">
			<data destination_type="f32" />
			<rt_info>
				<attribute name="fused_names" version="0" value="/Cast" />
			</rt_info>
			<input>
				<port id="0" precision="I64">
					<dim>-1</dim>
					<dim>1</dim>
					<dim>1</dim>
					<dim>-1</dim>
				</port>
			</input>
			<output>
				<port id="1" precision="FP32" names="/Cast_output_0">
					<dim>-1</dim>
					<dim>1</dim>
					<dim>1</dim>
					<dim>-1</dim>
				</port>
			</output>
		</layer>
		<layer id="107" name="/Sub" type="Subtract" version="opset1">
			<data auto_broadcast="numpy" />
			<rt_info>
				<attribute name="fused_names" version="0" value="/Sub" />
			</rt_info>
			<input>
				<port id="0" precision="FP32" />
				<port id="1" precision="FP32">
					<dim>-1</dim>
					<dim>1</dim>
					<dim>1</dim>
					<dim>-1</dim>
				</port>
			</input>
			<output>
				<port id="2" precision="FP32" names="/Sub_output_0">
					<dim>-1</dim>
					<dim>1</dim>
					<dim>1</dim>
					<dim>-1</dim>
				</port>
			</output>
		</layer>
		<layer id="108" name="/Constant_5" type="Const" version="opset1">
			<data element_type="f32" shape="" offset="149792" size="4" />
			<rt_info>
				<attribute name="fused_names" version="0" value="/Constant_5" />
			</rt_info>
			<output>
				<port id="0" precision="FP32" names="/Constant_5_output_0" />
			</output>
		</layer>
		<layer id="109" name="/Mul" type="Multiply" version="opset1">
			<data auto_broadcast="numpy" />
			<rt_info>
				<attribute name="fused_names" version="0" value="/Mul" />
			</rt_info>
			<input>
				<port id="0" precision="FP32">
					<dim>-1</dim>
					<dim>1</dim>
					<dim>1</dim>
					<dim>-1</dim>
				</port>
				<port id="1" precision="FP32" />
			</input>
			<output>
				<port id="2" precision="FP32" names="/Mul_output_0">
					<dim>-1</dim>
					<dim>1</dim>
					<dim>1</dim>
					<dim>-1</dim>
				</port>
			</output>
		</layer>
		<layer id="110" name="/block.0/layer.0/SelfAttention/Add_3" type="Add" version="opset1">
			<data auto_broadcast="numpy" />
			<rt_info>
				<attribute name="fused_names" version="0" value="/block.0/layer.0/SelfAttention/Add_3" />
			</rt_info>
			<input>
				<port id="0" precision="FP32">
					<dim>1</dim>
					<dim>4</dim>
					<dim>-1</dim>
					<dim>-1</dim>
				</port>
				<port id="1" precision="FP32">
					<dim>-1</dim>
					<dim>1</dim>
					<dim>1</dim>
					<dim>-1</dim>
				</port>
			</input>
			<output>
				<port id="2" precision="FP32" names="/block.0/layer.0/SelfAttention/Add_3_output_0">
					<dim>-1</dim>
					<dim>4</dim>
					<dim>-1</dim>
					<dim>-1</dim>
				</port>
			</output>
		</layer>
		<layer id="111" name="/block.0/layer.0/SelfAttention/Add_4" type="Add" version="opset1">
			<data auto_broadcast="numpy" />
			<rt_info>
				<attribute name="fused_names" version="0" value="/block.0/layer.0/SelfAttention/Add_4" />
			</rt_info>
			<input>
				<port id="0" precision="FP32">
					<dim>-1</dim>
					<dim>4</dim>
					<dim>-1</dim>
					<dim>-1</dim>
				</port>
				<port id="1" precision="FP32">
					<dim>-1</dim>
					<dim>4</dim>
					<dim>-1</dim>
					<dim>-1</dim>
				</port>
			</input>
			<output>
				<port id="2" precision="FP32" names="/block.0/layer.0/SelfAttention/Add_4_output_0">
					<dim>-1</dim>
					<dim>4</dim>
					<dim>-1</dim>
					<dim>-1</dim>
				</port>
			</output>
		</layer>
		<layer id="112" name="/block.0/layer.0/SelfAttention/Cast_4" type="Convert" version="opset1">
			<data destination_type="f32" />
			<rt_info>
				<attribute name="fused_names" version="0" value="/block.0/layer.0/SelfAttention/Cast_4" />
			</rt_info>
			<input>
				<port id="0" precision="FP32">
					<dim>-1</dim>
					<dim>4</dim>
					<dim>-1</dim>
					<dim>-1</dim>
				</port>
			</input>
			<output>
				<port id="1" precision="FP32" names="/block.0/layer.0/SelfAttention/Cast_4_output_0">
					<dim>-1</dim>
					<dim>4</dim>
					<dim>-1</dim>
					<dim>-1</dim>
				</port>
			</output>
		</layer>
		<layer id="113" name="/block.0/layer.0/SelfAttention/Softmax" type="SoftMax" version="opset8">
			<data axis="-1" />
			<rt_info>
				<attribute name="fused_names" version="0" value="/block.0/layer.0/SelfAttention/Softmax" />
			</rt_info>
			<input>
				<port id="0" precision="FP32">
					<dim>-1</dim>
					<dim>4</dim>
					<dim>-1</dim>
					<dim>-1</dim>
				</port>
			</input>
			<output>
				<port id="1" precision="FP32" names="/block.0/layer.0/SelfAttention/Softmax_output_0">
					<dim>-1</dim>
					<dim>4</dim>
					<dim>-1</dim>
					<dim>-1</dim>
				</port>
			</output>
		</layer>
		<layer id="114" name="onnx::MatMul_569" type="Const" version="opset1">
			<data element_type="f32" shape="32, 32" offset="149796" size="4096" />
			<rt_info>
				<attribute name="fused_names" version="0" value="onnx::MatMul_569" />
			</rt_info>
			<output>
				<port id="0" precision="FP32" names="onnx::MatMul_569">
					<dim>32</dim>
					<dim>32</dim>
				</port>
			</output>
		</layer>
		<layer id="115" name="/block.0/layer.0/SelfAttention/v/MatMul" type="MatMul" version="opset1">
			<data transpose_a="false" transpose_b="false" />
			<rt_info>
				<attribute name="fused_names" version="0" value="/block.0/layer.0/SelfAttention/v/MatMul" />
			</rt_info>
			<input>
				<port id="0" precision="FP32">
					<dim>-1</dim>
					<dim>-1</dim>
					<dim>32</dim>
				</port>
				<port id="1" precision="FP32">
					<dim>32</dim>
					<dim>32</dim>
				</port>
			</input>
			<output>
				<port id="2" precision="FP32" names="/block.0/layer.0/SelfAttention/v/MatMul_output_0">
					<dim>-1</dim>
					<dim>-1</dim>
					<dim>32</dim>
				</port>
			</output>
		</layer>
		<layer id="116" name="Constant_58" type="Const" version="opset1">
			<data element_type="i64" shape="1" offset="141328" size="8" />
			<rt_info>
				<attribute name="fused_names" version="0" value="Constant_58" />
			</rt_info>
			<output>
				<port id="0" precision="I64" names="onnx::Unsqueeze_104">
					<dim>1</dim>
				</port>
			</output>
		</layer>
		<layer id="117" name="/block.0/layer.0/SelfAttention/Unsqueeze_2" type="Unsqueeze" version="opset1">
			<rt_info>
				<attribute name="fused_names" version="0" value="/block.0/layer.0/SelfAttention/Unsqueeze_2, Constant_58" />
			</rt_info>
			<input>
				<port id="0" precision="I64" />
				<port id="1" precision="I64">
					<dim>1</dim>
				</port>
			</input>
			<output>
				<port id="2" precision="I64" names="/block.0/layer.0/SelfAttention/Unsqueeze_2_output_0">
					<dim>1</dim>
				</port>
			</output>
		</layer>
		<layer id="118" name="/block.0/layer.0/SelfAttention/Constant_8" type="Const" version="opset1">
			<data element_type="i64" shape="1" offset="141312" size="8" />
			<rt_info>
				<attribute name="fused_names" version="0" value="/block.0/layer.0/SelfAttention/Constant_8" />
			</rt_info>
			<output>
				<port id="0" precision="I64" names="/block.0/layer.0/SelfAttention/Constant_8_output_0">
					<dim>1</dim>
				</port>
			</output>
		</layer>
		<layer id="119" name="/block.0/layer.0/SelfAttention/Constant_9" type="Const" version="opset1">
			<data element_type="i64" shape="1" offset="145444" size="8" />
			<rt_info>
				<attribute name="fused_names" version="0" value="/block.0/layer.0/SelfAttention/Constant_9" />
			</rt_info>
			<output>
				<port id="0" precision="I64" names="/block.0/layer.0/SelfAttention/Constant_9_output_0">
					<dim>1</dim>
				</port>
			</output>
		</layer>
		<layer id="120" name="/block.0/layer.0/SelfAttention/Constant_10" type="Const" version="opset1">
			<data element_type="i64" shape="1" offset="145452" size="8" />
			<rt_info>
				<attribute name="fused_names" version="0" value="/block.0/layer.0/SelfAttention/Constant_10" />
			</rt_info>
			<output>
				<port id="0" precision="I64" names="/block.0/layer.0/SelfAttention/Constant_10_output_0">
					<dim>1</dim>
				</port>
			</output>
		</layer>
		<layer id="121" name="/block.0/layer.0/SelfAttention/Concat_2" type="Concat" version="opset1">
			<data axis="0" />
			<rt_info>
				<attribute name="fused_names" version="0" value="/block.0/layer.0/SelfAttention/Concat_2, /block.0/layer.0/SelfAttention/Constant_10, /block.0/layer.0/SelfAttention/Constant_8, /block.0/layer.0/SelfAttention/Constant_9" />
			</rt_info>
			<input>
				<port id="0" precision="I64">
					<dim>1</dim>
				</port>
				<port id="1" precision="I64">
					<dim>1</dim>
				</port>
				<port id="2" precision="I64">
					<dim>1</dim>
				</port>
				<port id="3" precision="I64">
					<dim>1</dim>
				</port>
			</input>
			<output>
				<port id="4" precision="I64" names="/block.0/layer.0/SelfAttention/Concat_2_output_0">
					<dim>4</dim>
				</port>
			</output>
		</layer>
		<layer id="122" name="/block.0/layer.0/SelfAttention/Reshape_2" type="Reshape" version="opset1">
			<data special_zero="true" />
			<rt_info>
				<attribute name="fused_names" version="0" value="/block.0/layer.0/SelfAttention/Reshape_2" />
			</rt_info>
			<input>
				<port id="0" precision="FP32">
					<dim>-1</dim>
					<dim>-1</dim>
					<dim>32</dim>
				</port>
				<port id="1" precision="I64">
					<dim>4</dim>
				</port>
			</input>
			<output>
				<port id="2" precision="FP32" names="/block.0/layer.0/SelfAttention/Reshape_2_output_0">
					<dim>-1</dim>
					<dim>-1</dim>
					<dim>4</dim>
					<dim>8</dim>
				</port>
			</output>
		</layer>
		<layer id="123" name="Constant_4657927" type="Const" version="opset1">
			<data element_type="i64" shape="4" offset="145460" size="32" />
			<rt_info>
				<attribute name="fused_names" version="0" value="Constant_4657927" />
			</rt_info>
			<output>
				<port id="0" precision="I64">
					<dim>4</dim>
				</port>
			</output>
		</layer>
		<layer id="124" name="/block.0/layer.0/SelfAttention/Transpose_1" type="Transpose" version="opset1">
			<rt_info>
				<attribute name="fused_names" version="0" value="/block.0/layer.0/SelfAttention/Transpose_1" />
			</rt_info>
			<input>
				<port id="0" precision="FP32">
					<dim>-1</dim>
					<dim>-1</dim>
					<dim>4</dim>
					<dim>8</dim>
				</port>
				<port id="1" precision="I64">
					<dim>4</dim>
				</port>
			</input>
			<output>
				<port id="2" precision="FP32" names="/block.0/layer.0/SelfAttention/Transpose_1_output_0">
					<dim>-1</dim>
					<dim>4</dim>
					<dim>-1</dim>
					<dim>8</dim>
				</port>
			</output>
		</layer>
		<layer id="125" name="/block.0/layer.0/SelfAttention/MatMul_1" type="MatMul" version="opset1">
			<data transpose_a="false" transpose_b="false" />
			<rt_info>
				<attribute name="fused_names" version="0" value="/block.0/layer.0/SelfAttention/MatMul_1" />
			</rt_info>
			<input>
				<port id="0" precision="FP32">
					<dim>-1</dim>
					<dim>4</dim>
					<dim>-1</dim>
					<dim>-1</dim>
				</port>
				<port id="1" precision="FP32">
					<dim>-1</dim>
					<dim>4</dim>
					<dim>-1</dim>
					<dim>8</dim>
				</port>
			</input>
			<output>
				<port id="2" precision="FP32" names="/block.0/layer.0/SelfAttention/MatMul_1_output_0">
					<dim>-1</dim>
					<dim>4</dim>
					<dim>-1</dim>
					<dim>8</dim>
				</port>
			</output>
		</layer>
		<layer id="126" name="Constant_4657998" type="Const" version="opset1">
			<data element_type="i64" shape="4" offset="145460" size="32" />
			<rt_info>
				<attribute name="fused_names" version="0" value="Constant_4657998" />
			</rt_info>
			<output>
				<port id="0" precision="I64">
					<dim>4</dim>
				</port>
			</output>
		</layer>
		<layer id="127" name="/block.0/layer.0/SelfAttention/Transpose_4" type="Transpose" version="opset1">
			<rt_info>
				<attribute name="fused_names" version="0" value="/block.0/layer.0/SelfAttention/Transpose_4" />
			</rt_info>
			<input>
				<port id="0" precision="FP32">
					<dim>-1</dim>
					<dim>4</dim>
					<dim>-1</dim>
					<dim>8</dim>
				</port>
				<port id="1" precision="I64">
					<dim>4</dim>
				</port>
			</input>
			<output>
				<port id="2" precision="FP32" names="/block.0/layer.0/SelfAttention/Transpose_4_output_0">
					<dim>-1</dim>
					<dim>-1</dim>
					<dim>4</dim>
					<dim>8</dim>
				</port>
			</output>
		</layer>
		<layer id="128" name="Constant_118" type="Const" version="opset1">
			<data element_type="i64" shape="1" offset="141328" size="8" />
			<rt_info>
				<attribute name="fused_names" version="0" value="Constant_118" />
			</rt_info>
			<output>
				<port id="0" precision="I64" names="onnx::Unsqueeze_170">
					<dim>1</dim>
				</port>
			</output>
		</layer>
		<layer id="129" name="/block.0/layer.0/SelfAttention/Unsqueeze_6" type="Unsqueeze" version="opset1">
			<rt_info>
				<attribute name="fused_names" version="0" value="/block.0/layer.0/SelfAttention/Unsqueeze_6, Constant_118" />
			</rt_info>
			<input>
				<port id="0" precision="I64" />
				<port id="1" precision="I64">
					<dim>1</dim>
				</port>
			</input>
			<output>
				<port id="2" precision="I64" names="/block.0/layer.0/SelfAttention/Unsqueeze_6_output_0">
					<dim>1</dim>
				</port>
			</output>
		</layer>
		<layer id="130" name="/block.0/layer.0/SelfAttention/Constant_24" type="Const" version="opset1">
			<data element_type="i64" shape="1" offset="141312" size="8" />
			<rt_info>
				<attribute name="fused_names" version="0" value="/block.0/layer.0/SelfAttention/Constant_24" />
			</rt_info>
			<output>
				<port id="0" precision="I64" names="/block.0/layer.0/SelfAttention/Constant_24_output_0">
					<dim>1</dim>
				</port>
			</output>
		</layer>
		<layer id="131" name="/block.0/layer.0/SelfAttention/Constant_25" type="Const" version="opset1">
			<data element_type="i64" shape="1" offset="153892" size="8" />
			<rt_info>
				<attribute name="fused_names" version="0" value="/block.0/layer.0/SelfAttention/Constant_25" />
			</rt_info>
			<output>
				<port id="0" precision="I64" names="/block.0/layer.0/SelfAttention/Constant_25_output_0">
					<dim>1</dim>
				</port>
			</output>
		</layer>
		<layer id="132" name="/block.0/layer.0/SelfAttention/Concat_3" type="Concat" version="opset1">
			<data axis="0" />
			<rt_info>
				<attribute name="fused_names" version="0" value="/block.0/layer.0/SelfAttention/Concat_3, /block.0/layer.0/SelfAttention/Constant_24, /block.0/layer.0/SelfAttention/Constant_25" />
			</rt_info>
			<input>
				<port id="0" precision="I64">
					<dim>1</dim>
				</port>
				<port id="1" precision="I64">
					<dim>1</dim>
				</port>
				<port id="2" precision="I64">
					<dim>1</dim>
				</port>
			</input>
			<output>
				<port id="3" precision="I64" names="/block.0/layer.0/SelfAttention/Concat_3_output_0">
					<dim>3</dim>
				</port>
			</output>
		</layer>
		<layer id="133" name="/block.0/layer.0/SelfAttention/Reshape_3" type="Reshape" version="opset1">
			<data special_zero="true" />
			<rt_info>
				<attribute name="fused_names" version="0" value="/block.0/layer.0/SelfAttention/Reshape_3" />
			</rt_info>
			<input>
				<port id="0" precision="FP32">
					<dim>-1</dim>
					<dim>-1</dim>
					<dim>4</dim>
					<dim>8</dim>
				</port>
				<port id="1" precision="I64">
					<dim>3</dim>
				</port>
			</input>
			<output>
				<port id="2" precision="FP32" names="/block.0/layer.0/SelfAttention/Reshape_3_output_0">
					<dim>-1</dim>
					<dim>-1</dim>
					<dim>32</dim>
				</port>
			</output>
		</layer>
		<layer id="134" name="onnx::MatMul_572" type="Const" version="opset1">
			<data element_type="f32" shape="32, 32" offset="153900" size="4096" />
			<rt_info>
				<attribute name="fused_names" version="0" value="onnx::MatMul_572" />
			</rt_info>
			<output>
				<port id="0" precision="FP32" names="onnx::MatMul_572">
					<dim>32</dim>
					<dim>32</dim>
				</port>
			</output>
		</layer>
		<layer id="135" name="/block.0/layer.0/SelfAttention/o/MatMul" type="MatMul" version="opset1">
			<data transpose_a="false" transpose_b="false" />
			<rt_info>
				<attribute name="fused_names" version="0" value="/block.0/layer.0/SelfAttention/o/MatMul" />
			</rt_info>
			<input>
				<port id="0" precision="FP32">
					<dim>-1</dim>
					<dim>-1</dim>
					<dim>32</dim>
				</port>
				<port id="1" precision="FP32">
					<dim>32</dim>
					<dim>32</dim>
				</port>
			</input>
			<output>
				<port id="2" precision="FP32" names="/block.0/layer.0/SelfAttention/o/MatMul_output_0">
					<dim>-1</dim>
					<dim>-1</dim>
					<dim>32</dim>
				</port>
			</output>
		</layer>
		<layer id="136" name="/block.0/layer.0/Add" type="Add" version="opset1">
			<data auto_broadcast="numpy" />
			<rt_info>
				<attribute name="fused_names" version="0" value="/block.0/layer.0/Add" />
			</rt_info>
			<input>
				<port id="0" precision="FP32">
					<dim>-1</dim>
					<dim>-1</dim>
					<dim>32</dim>
				</port>
				<port id="1" precision="FP32">
					<dim>-1</dim>
					<dim>-1</dim>
					<dim>32</dim>
				</port>
			</input>
			<output>
				<port id="2" precision="FP32" names="/block.0/layer.0/Add_output_0">
					<dim>-1</dim>
					<dim>-1</dim>
					<dim>32</dim>
				</port>
			</output>
		</layer>
		<layer id="137" name="/block.0/layer.1/layer_norm/Cast" type="Convert" version="opset1">
			<data destination_type="f32" />
			<rt_info>
				<attribute name="fused_names" version="0" value="/block.0/layer.1/layer_norm/Cast" />
			</rt_info>
			<input>
				<port id="0" precision="FP32">
					<dim>-1</dim>
					<dim>-1</dim>
					<dim>32</dim>
				</port>
			</input>
			<output>
				<port id="1" precision="FP32" names="/block.0/layer.1/layer_norm/Cast_output_0">
					<dim>-1</dim>
					<dim>-1</dim>
					<dim>32</dim>
				</port>
			</output>
		</layer>
		<layer id="138" name="/block.0/layer.1/layer_norm/Constant_2" type="Const" version="opset1">
			<data element_type="f32" shape="" offset="141336" size="4" />
			<rt_info>
				<attribute name="fused_names" version="0" value="/block.0/layer.1/layer_norm/Constant_2" />
			</rt_info>
			<output>
				<port id="0" precision="FP32" names="/block.0/layer.1/layer_norm/Constant_2_output_0" />
			</output>
		</layer>
		<layer id="139" name="/block.0/layer.1/layer_norm/Constant" type="Const" version="opset1">
			<data element_type="f32" shape="" offset="141340" size="4" />
			<rt_info>
				<attribute name="fused_names" version="0" value="/block.0/layer.1/layer_norm/Constant" />
			</rt_info>
			<output>
				<port id="0" precision="FP32" names="/block.0/layer.1/layer_norm/Constant_output_0" />
			</output>
		</layer>
		<layer id="140" name="/block.0/layer.1/layer_norm/Pow" type="Power" version="opset1">
			<data auto_broadcast="numpy" />
			<rt_info>
				<attribute name="fused_names" version="0" value="/block.0/layer.1/layer_norm/Pow" />
			</rt_info>
			<input>
				<port id="0" precision="FP32">
					<dim>-1</dim>
					<dim>-1</dim>
					<dim>32</dim>
				</port>
				<port id="1" precision="FP32" />
			</input>
			<output>
				<port id="2" precision="FP32" names="/block.0/layer.1/layer_norm/Pow_output_0">
					<dim>-1</dim>
					<dim>-1</dim>
					<dim>32</dim>
				</port>
			</output>
		</layer>
		<layer id="141" name="Constant_4658017" type="Const" version="opset1">
			<data element_type="i64" shape="1" offset="141312" size="8" />
			<rt_info>
				<attribute name="fused_names" version="0" value="Constant_4658017" />
			</rt_info>
			<output>
				<port id="0" precision="I64">
					<dim>1</dim>
				</port>
			</output>
		</layer>
		<layer id="142" name="/block.0/layer.1/layer_norm/ReduceMean" type="ReduceMean" version="opset1">
			<data keep_dims="true" />
			<rt_info>
				<attribute name="fused_names" version="0" value="/block.0/layer.1/layer_norm/ReduceMean" />
			</rt_info>
			<input>
				<port id="0" precision="FP32">
					<dim>-1</dim>
					<dim>-1</dim>
					<dim>32</dim>
				</port>
				<port id="1" precision="I64">
					<dim>1</dim>
				</port>
			</input>
			<output>
				<port id="2" precision="FP32" names="/block.0/layer.1/layer_norm/ReduceMean_output_0">
					<dim>-1</dim>
					<dim>-1</dim>
					<dim>1</dim>
				</port>
			</output>
		</layer>
		<layer id="143" name="/block.0/layer.1/layer_norm/Constant_1" type="Const" version="opset1">
			<data element_type="f32" shape="" offset="141344" size="4" />
			<rt_info>
				<attribute name="fused_names" version="0" value="/block.0/layer.1/layer_norm/Constant_1" />
			</rt_info>
			<output>
				<port id="0" precision="FP32" names="/block.0/layer.1/layer_norm/Constant_1_output_0" />
			</output>
		</layer>
		<layer id="144" name="/block.0/layer.1/layer_norm/Add" type="Add" version="opset1">
			<data auto_broadcast="numpy" />
			<rt_info>
				<attribute name="fused_names" version="0" value="/block.0/layer.1/layer_norm/Add" />
			</rt_info>
			<input>
				<port id="0" precision="FP32">
					<dim>-1</dim>
					<dim>-1</dim>
					<dim>1</dim>
				</port>
				<port id="1" precision="FP32" />
			</input>
			<output>
				<port id="2" precision="FP32" names="/block.0/layer.1/layer_norm/Add_output_0">
					<dim>-1</dim>
					<dim>-1</dim>
					<dim>1</dim>
				</port>
			</output>
		</layer>
		<layer id="145" name="/block.0/layer.1/layer_norm/Sqrt" type="Sqrt" version="opset1">
			<rt_info>
				<attribute name="fused_names" version="0" value="/block.0/layer.1/layer_norm/Sqrt" />
			</rt_info>
			<input>
				<port id="0" precision="FP32">
					<dim>-1</dim>
					<dim>-1</dim>
					<dim>1</dim>
				</port>
			</input>
			<output>
				<port id="1" precision="FP32" names="/block.0/layer.1/layer_norm/Sqrt_output_0">
					<dim>-1</dim>
					<dim>-1</dim>
					<dim>1</dim>
				</port>
			</output>
		</layer>
		<layer id="146" name="/block.0/layer.1/layer_norm/Div" type="Divide" version="opset1">
			<data auto_broadcast="numpy" m_pythondiv="true" />
			<rt_info>
				<attribute name="fused_names" version="0" value="/block.0/layer.1/layer_norm/Div" />
			</rt_info>
			<input>
				<port id="0" precision="FP32" />
				<port id="1" precision="FP32">
					<dim>-1</dim>
					<dim>-1</dim>
					<dim>1</dim>
				</port>
			</input>
			<output>
				<port id="2" precision="FP32" names="/block.0/layer.1/layer_norm/Div_output_0">
					<dim>-1</dim>
					<dim>-1</dim>
					<dim>1</dim>
				</port>
			</output>
		</layer>
		<layer id="147" name="/block.0/layer.1/layer_norm/Mul" type="Multiply" version="opset1">
			<data auto_broadcast="numpy" />
			<rt_info>
				<attribute name="fused_names" version="0" value="/block.0/layer.1/layer_norm/Mul" />
			</rt_info>
			<input>
				<port id="0" precision="FP32">
					<dim>-1</dim>
					<dim>-1</dim>
					<dim>32</dim>
				</port>
				<port id="1" precision="FP32">
					<dim>-1</dim>
					<dim>-1</dim>
					<dim>1</dim>
				</port>
			</input>
			<output>
				<port id="2" precision="FP32" names="/block.0/layer.1/layer_norm/Mul_output_0">
					<dim>-1</dim>
					<dim>-1</dim>
					<dim>32</dim>
				</port>
			</output>
		</layer>
		<layer id="148" name="/block.0/layer.1/layer_norm/Mul_1" type="Multiply" version="opset1">
			<data auto_broadcast="numpy" />
			<rt_info>
				<attribute name="fused_names" version="0" value="/block.0/layer.1/layer_norm/Mul_1" />
			</rt_info>
			<input>
				<port id="0" precision="FP32">
					<dim>32</dim>
				</port>
				<port id="1" precision="FP32">
					<dim>-1</dim>
					<dim>-1</dim>
					<dim>32</dim>
				</port>
			</input>
			<output>
				<port id="2" precision="FP32" names="/block.0/layer.1/layer_norm/Mul_1_output_0">
					<dim>-1</dim>
					<dim>-1</dim>
					<dim>32</dim>
				</port>
			</output>
		</layer>
		<layer id="149" name="onnx::MatMul_573" type="Const" version="opset1">
			<data element_type="f32" shape="32, 37" offset="157996" size="4736" />
			<rt_info>
				<attribute name="fused_names" version="0" value="onnx::MatMul_573" />
			</rt_info>
			<output>
				<port id="0" precision="FP32" names="onnx::MatMul_573">
					<dim>32</dim>
					<dim>37</dim>
				</port>
			</output>
		</layer>
		<layer id="150" name="/block.0/layer.1/DenseReluDense/wi/MatMul" type="MatMul" version="opset1">
			<data transpose_a="false" transpose_b="false" />
			<rt_info>
				<attribute name="fused_names" version="0" value="/block.0/layer.1/DenseReluDense/wi/MatMul" />
			</rt_info>
			<input>
				<port id="0" precision="FP32">
					<dim>-1</dim>
					<dim>-1</dim>
					<dim>32</dim>
				</port>
				<port id="1" precision="FP32">
					<dim>32</dim>
					<dim>37</dim>
				</port>
			</input>
			<output>
				<port id="2" precision="FP32" names="/block.0/layer.1/DenseReluDense/wi/MatMul_output_0">
					<dim>-1</dim>
					<dim>-1</dim>
					<dim>37</dim>
				</port>
			</output>
		</layer>
		<layer id="151" name="/block.0/layer.1/DenseReluDense/act/Relu" type="ReLU" version="opset1">
			<rt_info>
				<attribute name="fused_names" version="0" value="/block.0/layer.1/DenseReluDense/act/Relu" />
			</rt_info>
			<input>
				<port id="0" precision="FP32">
					<dim>-1</dim>
					<dim>-1</dim>
					<dim>37</dim>
				</port>
			</input>
			<output>
				<port id="1" precision="FP32" names="/block.0/layer.1/DenseReluDense/act/Relu_output_0">
					<dim>-1</dim>
					<dim>-1</dim>
					<dim>37</dim>
				</port>
			</output>
		</layer>
		<layer id="152" name="onnx::MatMul_574" type="Const" version="opset1">
			<data element_type="f32" shape="37, 32" offset="162732" size="4736" />
			<rt_info>
				<attribute name="fused_names" version="0" value="onnx::MatMul_574" />
			</rt_info>
			<output>
				<port id="0" precision="FP32" names="onnx::MatMul_574">
					<dim>37</dim>
					<dim>32</dim>
				</port>
			</output>
		</layer>
		<layer id="153" name="/block.0/layer.1/DenseReluDense/wo/MatMul" type="MatMul" version="opset1">
			<data transpose_a="false" transpose_b="false" />
			<rt_info>
				<attribute name="fused_names" version="0" value="/block.0/layer.1/DenseReluDense/wo/MatMul" />
			</rt_info>
			<input>
				<port id="0" precision="FP32">
					<dim>-1</dim>
					<dim>-1</dim>
					<dim>37</dim>
				</port>
				<port id="1" precision="FP32">
					<dim>37</dim>
					<dim>32</dim>
				</port>
			</input>
			<output>
				<port id="2" precision="FP32" names="/block.0/layer.1/DenseReluDense/wo/MatMul_output_0">
					<dim>-1</dim>
					<dim>-1</dim>
					<dim>32</dim>
				</port>
			</output>
		</layer>
		<layer id="154" name="/block.0/layer.1/Add" type="Add" version="opset1">
			<data auto_broadcast="numpy" />
			<rt_info>
				<attribute name="fused_names" version="0" value="/block.0/layer.1/Add" />
			</rt_info>
			<input>
				<port id="0" precision="FP32">
					<dim>-1</dim>
					<dim>-1</dim>
					<dim>32</dim>
				</port>
				<port id="1" precision="FP32">
					<dim>-1</dim>
					<dim>-1</dim>
					<dim>32</dim>
				</port>
			</input>
			<output>
				<port id="2" precision="FP32" names="/block.0/layer.1/Add_output_0">
					<dim>-1</dim>
					<dim>-1</dim>
					<dim>32</dim>
				</port>
			</output>
		</layer>
		<layer id="155" name="/block.1/layer.0/layer_norm/Cast" type="Convert" version="opset1">
			<data destination_type="f32" />
			<rt_info>
				<attribute name="fused_names" version="0" value="/block.1/layer.0/layer_norm/Cast" />
			</rt_info>
			<input>
				<port id="0" precision="FP32">
					<dim>-1</dim>
					<dim>-1</dim>
					<dim>32</dim>
				</port>
			</input>
			<output>
				<port id="1" precision="FP32" names="/block.1/layer.0/layer_norm/Cast_output_0">
					<dim>-1</dim>
					<dim>-1</dim>
					<dim>32</dim>
				</port>
			</output>
		</layer>
		<layer id="156" name="/block.1/layer.0/layer_norm/Constant_2" type="Const" version="opset1">
			<data element_type="f32" shape="" offset="141336" size="4" />
			<rt_info>
				<attribute name="fused_names" version="0" value="/block.1/layer.0/layer_norm/Constant_2" />
			</rt_info>
			<output>
				<port id="0" precision="FP32" names="/block.1/layer.0/layer_norm/Constant_2_output_0" />
			</output>
		</layer>
		<layer id="157" name="/block.1/layer.0/layer_norm/Constant" type="Const" version="opset1">
			<data element_type="f32" shape="" offset="141340" size="4" />
			<rt_info>
				<attribute name="fused_names" version="0" value="/block.1/layer.0/layer_norm/Constant" />
			</rt_info>
			<output>
				<port id="0" precision="FP32" names="/block.1/layer.0/layer_norm/Constant_output_0" />
			</output>
		</layer>
		<layer id="158" name="/block.1/layer.0/layer_norm/Pow" type="Power" version="opset1">
			<data auto_broadcast="numpy" />
			<rt_info>
				<attribute name="fused_names" version="0" value="/block.1/layer.0/layer_norm/Pow" />
			</rt_info>
			<input>
				<port id="0" precision="FP32">
					<dim>-1</dim>
					<dim>-1</dim>
					<dim>32</dim>
				</port>
				<port id="1" precision="FP32" />
			</input>
			<output>
				<port id="2" precision="FP32" names="/block.1/layer.0/layer_norm/Pow_output_0">
					<dim>-1</dim>
					<dim>-1</dim>
					<dim>32</dim>
				</port>
			</output>
		</layer>
		<layer id="159" name="Constant_4658033" type="Const" version="opset1">
			<data element_type="i64" shape="1" offset="141312" size="8" />
			<rt_info>
				<attribute name="fused_names" version="0" value="Constant_4658033" />
			</rt_info>
			<output>
				<port id="0" precision="I64">
					<dim>1</dim>
				</port>
			</output>
		</layer>
		<layer id="160" name="/block.1/layer.0/layer_norm/ReduceMean" type="ReduceMean" version="opset1">
			<data keep_dims="true" />
			<rt_info>
				<attribute name="fused_names" version="0" value="/block.1/layer.0/layer_norm/ReduceMean" />
			</rt_info>
			<input>
				<port id="0" precision="FP32">
					<dim>-1</dim>
					<dim>-1</dim>
					<dim>32</dim>
				</port>
				<port id="1" precision="I64">
					<dim>1</dim>
				</port>
			</input>
			<output>
				<port id="2" precision="FP32" names="/block.1/layer.0/layer_norm/ReduceMean_output_0">
					<dim>-1</dim>
					<dim>-1</dim>
					<dim>1</dim>
				</port>
			</output>
		</layer>
		<layer id="161" name="/block.1/layer.0/layer_norm/Constant_1" type="Const" version="opset1">
			<data element_type="f32" shape="" offset="141344" size="4" />
			<rt_info>
				<attribute name="fused_names" version="0" value="/block.1/layer.0/layer_norm/Constant_1" />
			</rt_info>
			<output>
				<port id="0" precision="FP32" names="/block.1/layer.0/layer_norm/Constant_1_output_0" />
			</output>
		</layer>
		<layer id="162" name="/block.1/layer.0/layer_norm/Add" type="Add" version="opset1">
			<data auto_broadcast="numpy" />
			<rt_info>
				<attribute name="fused_names" version="0" value="/block.1/layer.0/layer_norm/Add" />
			</rt_info>
			<input>
				<port id="0" precision="FP32">
					<dim>-1</dim>
					<dim>-1</dim>
					<dim>1</dim>
				</port>
				<port id="1" precision="FP32" />
			</input>
			<output>
				<port id="2" precision="FP32" names="/block.1/layer.0/layer_norm/Add_output_0">
					<dim>-1</dim>
					<dim>-1</dim>
					<dim>1</dim>
				</port>
			</output>
		</layer>
		<layer id="163" name="/block.1/layer.0/layer_norm/Sqrt" type="Sqrt" version="opset1">
			<rt_info>
				<attribute name="fused_names" version="0" value="/block.1/layer.0/layer_norm/Sqrt" />
			</rt_info>
			<input>
				<port id="0" precision="FP32">
					<dim>-1</dim>
					<dim>-1</dim>
					<dim>1</dim>
				</port>
			</input>
			<output>
				<port id="1" precision="FP32" names="/block.1/layer.0/layer_norm/Sqrt_output_0">
					<dim>-1</dim>
					<dim>-1</dim>
					<dim>1</dim>
				</port>
			</output>
		</layer>
		<layer id="164" name="/block.1/layer.0/layer_norm/Div" type="Divide" version="opset1">
			<data auto_broadcast="numpy" m_pythondiv="true" />
			<rt_info>
				<attribute name="fused_names" version="0" value="/block.1/layer.0/layer_norm/Div" />
			</rt_info>
			<input>
				<port id="0" precision="FP32" />
				<port id="1" precision="FP32">
					<dim>-1</dim>
					<dim>-1</dim>
					<dim>1</dim>
				</port>
			</input>
			<output>
				<port id="2" precision="FP32" names="/block.1/layer.0/layer_norm/Div_output_0">
					<dim>-1</dim>
					<dim>-1</dim>
					<dim>1</dim>
				</port>
			</output>
		</layer>
		<layer id="165" name="/block.1/layer.0/layer_norm/Mul" type="Multiply" version="opset1">
			<data auto_broadcast="numpy" />
			<rt_info>
				<attribute name="fused_names" version="0" value="/block.1/layer.0/layer_norm/Mul" />
			</rt_info>
			<input>
				<port id="0" precision="FP32">
					<dim>-1</dim>
					<dim>-1</dim>
					<dim>32</dim>
				</port>
				<port id="1" precision="FP32">
					<dim>-1</dim>
					<dim>-1</dim>
					<dim>1</dim>
				</port>
			</input>
			<output>
				<port id="2" precision="FP32" names="/block.1/layer.0/layer_norm/Mul_output_0">
					<dim>-1</dim>
					<dim>-1</dim>
					<dim>32</dim>
				</port>
			</output>
		</layer>
		<layer id="166" name="/block.1/layer.0/layer_norm/Mul_1" type="Multiply" version="opset1">
			<data auto_broadcast="numpy" />
			<rt_info>
				<attribute name="fused_names" version="0" value="/block.1/layer.0/layer_norm/Mul_1" />
			</rt_info>
			<input>
				<port id="0" precision="FP32">
					<dim>32</dim>
				</port>
				<port id="1" precision="FP32">
					<dim>-1</dim>
					<dim>-1</dim>
					<dim>32</dim>
				</port>
			</input>
			<output>
				<port id="2" precision="FP32" names="/block.1/layer.0/layer_norm/Mul_1_output_0">
					<dim>-1</dim>
					<dim>-1</dim>
					<dim>32</dim>
				</port>
			</output>
		</layer>
		<layer id="167" name="onnx::MatMul_575" type="Const" version="opset1">
			<data element_type="f32" shape="32, 32" offset="167468" size="4096" />
			<rt_info>
				<attribute name="fused_names" version="0" value="onnx::MatMul_575" />
			</rt_info>
			<output>
				<port id="0" precision="FP32" names="onnx::MatMul_575">
					<dim>32</dim>
					<dim>32</dim>
				</port>
			</output>
		</layer>
		<layer id="168" name="/block.1/layer.0/SelfAttention/q/MatMul" type="MatMul" version="opset1">
			<data transpose_a="false" transpose_b="false" />
			<rt_info>
				<attribute name="fused_names" version="0" value="/block.1/layer.0/SelfAttention/q/MatMul" />
			</rt_info>
			<input>
				<port id="0" precision="FP32">
					<dim>-1</dim>
					<dim>-1</dim>
					<dim>32</dim>
				</port>
				<port id="1" precision="FP32">
					<dim>32</dim>
					<dim>32</dim>
				</port>
			</input>
			<output>
				<port id="2" precision="FP32" names="/block.1/layer.0/SelfAttention/q/MatMul_output_0">
					<dim>-1</dim>
					<dim>-1</dim>
					<dim>32</dim>
				</port>
			</output>
		</layer>
		<layer id="169" name="/block.1/layer.0/SelfAttention/Shape" type="ShapeOf" version="opset3">
			<data output_type="i64" />
			<rt_info>
				<attribute name="fused_names" version="0" value="/block.1/layer.0/SelfAttention/Shape" />
			</rt_info>
			<input>
				<port id="0" precision="FP32">
					<dim>-1</dim>
					<dim>-1</dim>
					<dim>32</dim>
				</port>
			</input>
			<output>
				<port id="1" precision="I64" names="/block.1/layer.0/SelfAttention/Shape_output_0">
					<dim>3</dim>
				</port>
			</output>
		</layer>
		<layer id="170" name="/block.1/layer.0/SelfAttention/Constant" type="Const" version="opset1">
			<data element_type="i64" shape="" offset="141328" size="8" />
			<rt_info>
				<attribute name="fused_names" version="0" value="/block.1/layer.0/SelfAttention/Constant" />
			</rt_info>
			<output>
				<port id="0" precision="I64" names="/block.1/layer.0/SelfAttention/Constant_output_0" />
			</output>
		</layer>
		<layer id="171" name="Constant_4658044" type="Const" version="opset1">
			<data element_type="i64" shape="" offset="141328" size="8" />
			<rt_info>
				<attribute name="fused_names" version="0" value="Constant_4658044" />
			</rt_info>
			<output>
				<port id="0" precision="I64" />
			</output>
		</layer>
		<layer id="172" name="/block.1/layer.0/SelfAttention/Gather" type="Gather" version="opset8">
			<data batch_dims="0" />
			<rt_info>
				<attribute name="fused_names" version="0" value="/block.1/layer.0/SelfAttention/Constant, /block.1/layer.0/SelfAttention/Gather, Constant_4658044" />
			</rt_info>
			<input>
				<port id="0" precision="I64">
					<dim>3</dim>
				</port>
				<port id="1" precision="I64" />
				<port id="2" precision="I64" />
			</input>
			<output>
				<port id="3" precision="I64" names="/block.1/layer.0/SelfAttention/Gather_output_0" />
			</output>
		</layer>
		<layer id="173" name="Constant_156" type="Const" version="opset1">
			<data element_type="i64" shape="1" offset="141328" size="8" />
			<rt_info>
				<attribute name="fused_names" version="0" value="Constant_156" />
			</rt_info>
			<output>
				<port id="0" precision="I64" names="onnx::Unsqueeze_214">
					<dim>1</dim>
				</port>
			</output>
		</layer>
		<layer id="174" name="/block.1/layer.0/SelfAttention/Unsqueeze" type="Unsqueeze" version="opset1">
			<rt_info>
				<attribute name="fused_names" version="0" value="/block.1/layer.0/SelfAttention/Unsqueeze, Constant_156" />
			</rt_info>
			<input>
				<port id="0" precision="I64" />
				<port id="1" precision="I64">
					<dim>1</dim>
				</port>
			</input>
			<output>
				<port id="2" precision="I64" names="/block.1/layer.0/SelfAttention/Unsqueeze_output_0">
					<dim>1</dim>
				</port>
			</output>
		</layer>
		<layer id="175" name="/block.1/layer.0/SelfAttention/Constant_1" type="Const" version="opset1">
			<data element_type="i64" shape="1" offset="141312" size="8" />
			<rt_info>
				<attribute name="fused_names" version="0" value="/block.1/layer.0/SelfAttention/Constant_1" />
			</rt_info>
			<output>
				<port id="0" precision="I64" names="/block.1/layer.0/SelfAttention/Constant_1_output_0">
					<dim>1</dim>
				</port>
			</output>
		</layer>
		<layer id="176" name="/block.1/layer.0/SelfAttention/Constant_2" type="Const" version="opset1">
			<data element_type="i64" shape="1" offset="145444" size="8" />
			<rt_info>
				<attribute name="fused_names" version="0" value="/block.1/layer.0/SelfAttention/Constant_2" />
			</rt_info>
			<output>
				<port id="0" precision="I64" names="/block.1/layer.0/SelfAttention/Constant_2_output_0">
					<dim>1</dim>
				</port>
			</output>
		</layer>
		<layer id="177" name="/block.1/layer.0/SelfAttention/Constant_3" type="Const" version="opset1">
			<data element_type="i64" shape="1" offset="145452" size="8" />
			<rt_info>
				<attribute name="fused_names" version="0" value="/block.1/layer.0/SelfAttention/Constant_3" />
			</rt_info>
			<output>
				<port id="0" precision="I64" names="/block.1/layer.0/SelfAttention/Constant_3_output_0">
					<dim>1</dim>
				</port>
			</output>
		</layer>
		<layer id="178" name="/block.1/layer.0/SelfAttention/Concat" type="Concat" version="opset1">
			<data axis="0" />
			<rt_info>
				<attribute name="fused_names" version="0" value="/block.1/layer.0/SelfAttention/Concat, /block.1/layer.0/SelfAttention/Constant_1, /block.1/layer.0/SelfAttention/Constant_2, /block.1/layer.0/SelfAttention/Constant_3" />
			</rt_info>
			<input>
				<port id="0" precision="I64">
					<dim>1</dim>
				</port>
				<port id="1" precision="I64">
					<dim>1</dim>
				</port>
				<port id="2" precision="I64">
					<dim>1</dim>
				</port>
				<port id="3" precision="I64">
					<dim>1</dim>
				</port>
			</input>
			<output>
				<port id="4" precision="I64" names="/block.1/layer.0/SelfAttention/Concat_output_0">
					<dim>4</dim>
				</port>
			</output>
		</layer>
		<layer id="179" name="/block.1/layer.0/SelfAttention/Reshape" type="Reshape" version="opset1">
			<data special_zero="true" />
			<rt_info>
				<attribute name="fused_names" version="0" value="/block.1/layer.0/SelfAttention/Reshape" />
			</rt_info>
			<input>
				<port id="0" precision="FP32">
					<dim>-1</dim>
					<dim>-1</dim>
					<dim>32</dim>
				</port>
				<port id="1" precision="I64">
					<dim>4</dim>
				</port>
			</input>
			<output>
				<port id="2" precision="FP32" names="/block.1/layer.0/SelfAttention/Reshape_output_0">
					<dim>-1</dim>
					<dim>-1</dim>
					<dim>4</dim>
					<dim>8</dim>
				</port>
			</output>
		</layer>
		<layer id="180" name="Constant_4658072" type="Const" version="opset1">
			<data element_type="i64" shape="4" offset="145460" size="32" />
			<rt_info>
				<attribute name="fused_names" version="0" value="Constant_4658072" />
			</rt_info>
			<output>
				<port id="0" precision="I64">
					<dim>4</dim>
				</port>
			</output>
		</layer>
		<layer id="181" name="/block.1/layer.0/SelfAttention/Transpose" type="Transpose" version="opset1">
			<rt_info>
				<attribute name="fused_names" version="0" value="/block.1/layer.0/SelfAttention/Transpose" />
			</rt_info>
			<input>
				<port id="0" precision="FP32">
					<dim>-1</dim>
					<dim>-1</dim>
					<dim>4</dim>
					<dim>8</dim>
				</port>
				<port id="1" precision="I64">
					<dim>4</dim>
				</port>
			</input>
			<output>
				<port id="2" precision="FP32" names="/block.1/layer.0/SelfAttention/Transpose_output_0">
					<dim>-1</dim>
					<dim>4</dim>
					<dim>-1</dim>
					<dim>8</dim>
				</port>
			</output>
		</layer>
		<layer id="182" name="onnx::MatMul_585" type="Const" version="opset1">
			<data element_type="f32" shape="32, 32" offset="171564" size="4096" />
			<rt_info>
				<attribute name="fused_names" version="0" value="onnx::MatMul_585" />
			</rt_info>
			<output>
				<port id="0" precision="FP32" names="onnx::MatMul_585">
					<dim>32</dim>
					<dim>32</dim>
				</port>
			</output>
		</layer>
		<layer id="183" name="/block.1/layer.0/SelfAttention/k/MatMul" type="MatMul" version="opset1">
			<data transpose_a="false" transpose_b="false" />
			<rt_info>
				<attribute name="fused_names" version="0" value="/block.1/layer.0/SelfAttention/k/MatMul" />
			</rt_info>
			<input>
				<port id="0" precision="FP32">
					<dim>-1</dim>
					<dim>-1</dim>
					<dim>32</dim>
				</port>
				<port id="1" precision="FP32">
					<dim>32</dim>
					<dim>32</dim>
				</port>
			</input>
			<output>
				<port id="2" precision="FP32" names="/block.1/layer.0/SelfAttention/k/MatMul_output_0">
					<dim>-1</dim>
					<dim>-1</dim>
					<dim>32</dim>
				</port>
			</output>
		</layer>
		<layer id="184" name="Constant_162" type="Const" version="opset1">
			<data element_type="i64" shape="1" offset="141328" size="8" />
			<rt_info>
				<attribute name="fused_names" version="0" value="Constant_162" />
			</rt_info>
			<output>
				<port id="0" precision="I64" names="onnx::Unsqueeze_223">
					<dim>1</dim>
				</port>
			</output>
		</layer>
		<layer id="185" name="/block.1/layer.0/SelfAttention/Unsqueeze_1" type="Unsqueeze" version="opset1">
			<rt_info>
				<attribute name="fused_names" version="0" value="/block.1/layer.0/SelfAttention/Unsqueeze_1, Constant_162" />
			</rt_info>
			<input>
				<port id="0" precision="I64" />
				<port id="1" precision="I64">
					<dim>1</dim>
				</port>
			</input>
			<output>
				<port id="2" precision="I64" names="/block.1/layer.0/SelfAttention/Unsqueeze_1_output_0">
					<dim>1</dim>
				</port>
			</output>
		</layer>
		<layer id="186" name="/block.1/layer.0/SelfAttention/Constant_4" type="Const" version="opset1">
			<data element_type="i64" shape="1" offset="141312" size="8" />
			<rt_info>
				<attribute name="fused_names" version="0" value="/block.1/layer.0/SelfAttention/Constant_4" />
			</rt_info>
			<output>
				<port id="0" precision="I64" names="/block.1/layer.0/SelfAttention/Constant_4_output_0">
					<dim>1</dim>
				</port>
			</output>
		</layer>
		<layer id="187" name="/block.1/layer.0/SelfAttention/Constant_5" type="Const" version="opset1">
			<data element_type="i64" shape="1" offset="145444" size="8" />
			<rt_info>
				<attribute name="fused_names" version="0" value="/block.1/layer.0/SelfAttention/Constant_5" />
			</rt_info>
			<output>
				<port id="0" precision="I64" names="/block.1/layer.0/SelfAttention/Constant_5_output_0">
					<dim>1</dim>
				</port>
			</output>
		</layer>
		<layer id="188" name="/block.1/layer.0/SelfAttention/Constant_6" type="Const" version="opset1">
			<data element_type="i64" shape="1" offset="145452" size="8" />
			<rt_info>
				<attribute name="fused_names" version="0" value="/block.1/layer.0/SelfAttention/Constant_6" />
			</rt_info>
			<output>
				<port id="0" precision="I64" names="/block.1/layer.0/SelfAttention/Constant_6_output_0">
					<dim>1</dim>
				</port>
			</output>
		</layer>
		<layer id="189" name="/block.1/layer.0/SelfAttention/Concat_1" type="Concat" version="opset1">
			<data axis="0" />
			<rt_info>
				<attribute name="fused_names" version="0" value="/block.1/layer.0/SelfAttention/Concat_1, /block.1/layer.0/SelfAttention/Constant_4, /block.1/layer.0/SelfAttention/Constant_5, /block.1/layer.0/SelfAttention/Constant_6" />
			</rt_info>
			<input>
				<port id="0" precision="I64">
					<dim>1</dim>
				</port>
				<port id="1" precision="I64">
					<dim>1</dim>
				</port>
				<port id="2" precision="I64">
					<dim>1</dim>
				</port>
				<port id="3" precision="I64">
					<dim>1</dim>
				</port>
			</input>
			<output>
				<port id="4" precision="I64" names="/block.1/layer.0/SelfAttention/Concat_1_output_0">
					<dim>4</dim>
				</port>
			</output>
		</layer>
		<layer id="190" name="/block.1/layer.0/SelfAttention/Reshape_1" type="Reshape" version="opset1">
			<data special_zero="true" />
			<rt_info>
				<attribute name="fused_names" version="0" value="/block.1/layer.0/SelfAttention/Reshape_1" />
			</rt_info>
			<input>
				<port id="0" precision="FP32">
					<dim>-1</dim>
					<dim>-1</dim>
					<dim>32</dim>
				</port>
				<port id="1" precision="I64">
					<dim>4</dim>
				</port>
			</input>
			<output>
				<port id="2" precision="FP32" names="/block.1/layer.0/SelfAttention/Reshape_1_output_0">
					<dim>-1</dim>
					<dim>-1</dim>
					<dim>4</dim>
					<dim>8</dim>
				</port>
			</output>
		</layer>
		<layer id="191" name="Constant_4658092" type="Const" version="opset1">
			<data element_type="i64" shape="4" offset="149588" size="32" />
			<rt_info>
				<attribute name="fused_names" version="0" value="Constant_4658092" />
			</rt_info>
			<output>
				<port id="0" precision="I64">
					<dim>4</dim>
				</port>
			</output>
		</layer>
		<layer id="192" name="/block.1/layer.0/SelfAttention/Transpose_2" type="Transpose" version="opset1">
			<rt_info>
				<attribute name="fused_names" version="0" value="/block.1/layer.0/SelfAttention/Transpose_2" />
			</rt_info>
			<input>
				<port id="0" precision="FP32">
					<dim>-1</dim>
					<dim>-1</dim>
					<dim>4</dim>
					<dim>8</dim>
				</port>
				<port id="1" precision="I64">
					<dim>4</dim>
				</port>
			</input>
			<output>
				<port id="2" precision="FP32" names="/block.1/layer.0/SelfAttention/Transpose_2_output_0">
					<dim>-1</dim>
					<dim>4</dim>
					<dim>8</dim>
					<dim>-1</dim>
				</port>
			</output>
		</layer>
		<layer id="193" name="/block.1/layer.0/SelfAttention/MatMul" type="MatMul" version="opset1">
			<data transpose_a="false" transpose_b="false" />
			<rt_info>
				<attribute name="fused_names" version="0" value="/block.1/layer.0/SelfAttention/MatMul" />
			</rt_info>
			<input>
				<port id="0" precision="FP32">
					<dim>-1</dim>
					<dim>4</dim>
					<dim>-1</dim>
					<dim>8</dim>
				</port>
				<port id="1" precision="FP32">
					<dim>-1</dim>
					<dim>4</dim>
					<dim>8</dim>
					<dim>-1</dim>
				</port>
			</input>
			<output>
				<port id="2" precision="FP32" names="/block.1/layer.0/SelfAttention/MatMul_output_0">
					<dim>-1</dim>
					<dim>4</dim>
					<dim>-1</dim>
					<dim>-1</dim>
				</port>
			</output>
		</layer>
		<layer id="194" name="/block.1/layer.0/SelfAttention/Add" type="Add" version="opset1">
			<data auto_broadcast="numpy" />
			<rt_info>
				<attribute name="fused_names" version="0" value="/block.1/layer.0/SelfAttention/Add" />
			</rt_info>
			<input>
				<port id="0" precision="FP32">
					<dim>-1</dim>
					<dim>4</dim>
					<dim>-1</dim>
					<dim>-1</dim>
				</port>
				<port id="1" precision="FP32">
					<dim>-1</dim>
					<dim>4</dim>
					<dim>-1</dim>
					<dim>-1</dim>
				</port>
			</input>
			<output>
				<port id="2" precision="FP32" names="/block.1/layer.0/SelfAttention/Add_output_0">
					<dim>-1</dim>
					<dim>4</dim>
					<dim>-1</dim>
					<dim>-1</dim>
				</port>
			</output>
		</layer>
		<layer id="195" name="/block.1/layer.0/SelfAttention/Cast" type="Convert" version="opset1">
			<data destination_type="f32" />
			<rt_info>
				<attribute name="fused_names" version="0" value="/block.1/layer.0/SelfAttention/Cast" />
			</rt_info>
			<input>
				<port id="0" precision="FP32">
					<dim>-1</dim>
					<dim>4</dim>
					<dim>-1</dim>
					<dim>-1</dim>
				</port>
			</input>
			<output>
				<port id="1" precision="FP32" names="/block.1/layer.0/SelfAttention/Cast_output_0">
					<dim>-1</dim>
					<dim>4</dim>
					<dim>-1</dim>
					<dim>-1</dim>
				</port>
			</output>
		</layer>
		<layer id="196" name="/block.1/layer.0/SelfAttention/Softmax" type="SoftMax" version="opset8">
			<data axis="-1" />
			<rt_info>
				<attribute name="fused_names" version="0" value="/block.1/layer.0/SelfAttention/Softmax" />
			</rt_info>
			<input>
				<port id="0" precision="FP32">
					<dim>-1</dim>
					<dim>4</dim>
					<dim>-1</dim>
					<dim>-1</dim>
				</port>
			</input>
			<output>
				<port id="1" precision="FP32" names="/block.1/layer.0/SelfAttention/Softmax_output_0">
					<dim>-1</dim>
					<dim>4</dim>
					<dim>-1</dim>
					<dim>-1</dim>
				</port>
			</output>
		</layer>
		<layer id="197" name="onnx::MatMul_586" type="Const" version="opset1">
			<data element_type="f32" shape="32, 32" offset="175660" size="4096" />
			<rt_info>
				<attribute name="fused_names" version="0" value="onnx::MatMul_586" />
			</rt_info>
			<output>
				<port id="0" precision="FP32" names="onnx::MatMul_586">
					<dim>32</dim>
					<dim>32</dim>
				</port>
			</output>
		</layer>
		<layer id="198" name="/block.1/layer.0/SelfAttention/v/MatMul" type="MatMul" version="opset1">
			<data transpose_a="false" transpose_b="false" />
			<rt_info>
				<attribute name="fused_names" version="0" value="/block.1/layer.0/SelfAttention/v/MatMul" />
			</rt_info>
			<input>
				<port id="0" precision="FP32">
					<dim>-1</dim>
					<dim>-1</dim>
					<dim>32</dim>
				</port>
				<port id="1" precision="FP32">
					<dim>32</dim>
					<dim>32</dim>
				</port>
			</input>
			<output>
				<port id="2" precision="FP32" names="/block.1/layer.0/SelfAttention/v/MatMul_output_0">
					<dim>-1</dim>
					<dim>-1</dim>
					<dim>32</dim>
				</port>
			</output>
		</layer>
		<layer id="199" name="Constant_168" type="Const" version="opset1">
			<data element_type="i64" shape="1" offset="141328" size="8" />
			<rt_info>
				<attribute name="fused_names" version="0" value="Constant_168" />
			</rt_info>
			<output>
				<port id="0" precision="I64" names="onnx::Unsqueeze_232">
					<dim>1</dim>
				</port>
			</output>
		</layer>
		<layer id="200" name="/block.1/layer.0/SelfAttention/Unsqueeze_2" type="Unsqueeze" version="opset1">
			<rt_info>
				<attribute name="fused_names" version="0" value="/block.1/layer.0/SelfAttention/Unsqueeze_2, Constant_168" />
			</rt_info>
			<input>
				<port id="0" precision="I64" />
				<port id="1" precision="I64">
					<dim>1</dim>
				</port>
			</input>
			<output>
				<port id="2" precision="I64" names="/block.1/layer.0/SelfAttention/Unsqueeze_2_output_0">
					<dim>1</dim>
				</port>
			</output>
		</layer>
		<layer id="201" name="/block.1/layer.0/SelfAttention/Constant_7" type="Const" version="opset1">
			<data element_type="i64" shape="1" offset="141312" size="8" />
			<rt_info>
				<attribute name="fused_names" version="0" value="/block.1/layer.0/SelfAttention/Constant_7" />
			</rt_info>
			<output>
				<port id="0" precision="I64" names="/block.1/layer.0/SelfAttention/Constant_7_output_0">
					<dim>1</dim>
				</port>
			</output>
		</layer>
		<layer id="202" name="/block.1/layer.0/SelfAttention/Constant_8" type="Const" version="opset1">
			<data element_type="i64" shape="1" offset="145444" size="8" />
			<rt_info>
				<attribute name="fused_names" version="0" value="/block.1/layer.0/SelfAttention/Constant_8" />
			</rt_info>
			<output>
				<port id="0" precision="I64" names="/block.1/layer.0/SelfAttention/Constant_8_output_0">
					<dim>1</dim>
				</port>
			</output>
		</layer>
		<layer id="203" name="/block.1/layer.0/SelfAttention/Constant_9" type="Const" version="opset1">
			<data element_type="i64" shape="1" offset="145452" size="8" />
			<rt_info>
				<attribute name="fused_names" version="0" value="/block.1/layer.0/SelfAttention/Constant_9" />
			</rt_info>
			<output>
				<port id="0" precision="I64" names="/block.1/layer.0/SelfAttention/Constant_9_output_0">
					<dim>1</dim>
				</port>
			</output>
		</layer>
		<layer id="204" name="/block.1/layer.0/SelfAttention/Concat_2" type="Concat" version="opset1">
			<data axis="0" />
			<rt_info>
				<attribute name="fused_names" version="0" value="/block.1/layer.0/SelfAttention/Concat_2, /block.1/layer.0/SelfAttention/Constant_7, /block.1/layer.0/SelfAttention/Constant_8, /block.1/layer.0/SelfAttention/Constant_9" />
			</rt_info>
			<input>
				<port id="0" precision="I64">
					<dim>1</dim>
				</port>
				<port id="1" precision="I64">
					<dim>1</dim>
				</port>
				<port id="2" precision="I64">
					<dim>1</dim>
				</port>
				<port id="3" precision="I64">
					<dim>1</dim>
				</port>
			</input>
			<output>
				<port id="4" precision="I64" names="/block.1/layer.0/SelfAttention/Concat_2_output_0">
					<dim>4</dim>
				</port>
			</output>
		</layer>
		<layer id="205" name="/block.1/layer.0/SelfAttention/Reshape_2" type="Reshape" version="opset1">
			<data special_zero="true" />
			<rt_info>
				<attribute name="fused_names" version="0" value="/block.1/layer.0/SelfAttention/Reshape_2" />
			</rt_info>
			<input>
				<port id="0" precision="FP32">
					<dim>-1</dim>
					<dim>-1</dim>
					<dim>32</dim>
				</port>
				<port id="1" precision="I64">
					<dim>4</dim>
				</port>
			</input>
			<output>
				<port id="2" precision="FP32" names="/block.1/layer.0/SelfAttention/Reshape_2_output_0">
					<dim>-1</dim>
					<dim>-1</dim>
					<dim>4</dim>
					<dim>8</dim>
				</port>
			</output>
		</layer>
		<layer id="206" name="Constant_4658090" type="Const" version="opset1">
			<data element_type="i64" shape="4" offset="145460" size="32" />
			<rt_info>
				<attribute name="fused_names" version="0" value="Constant_4658090" />
			</rt_info>
			<output>
				<port id="0" precision="I64">
					<dim>4</dim>
				</port>
			</output>
		</layer>
		<layer id="207" name="/block.1/layer.0/SelfAttention/Transpose_1" type="Transpose" version="opset1">
			<rt_info>
				<attribute name="fused_names" version="0" value="/block.1/layer.0/SelfAttention/Transpose_1" />
			</rt_info>
			<input>
				<port id="0" precision="FP32">
					<dim>-1</dim>
					<dim>-1</dim>
					<dim>4</dim>
					<dim>8</dim>
				</port>
				<port id="1" precision="I64">
					<dim>4</dim>
				</port>
			</input>
			<output>
				<port id="2" precision="FP32" names="/block.1/layer.0/SelfAttention/Transpose_1_output_0">
					<dim>-1</dim>
					<dim>4</dim>
					<dim>-1</dim>
					<dim>8</dim>
				</port>
			</output>
		</layer>
		<layer id="208" name="/block.1/layer.0/SelfAttention/MatMul_1" type="MatMul" version="opset1">
			<data transpose_a="false" transpose_b="false" />
			<rt_info>
				<attribute name="fused_names" version="0" value="/block.1/layer.0/SelfAttention/MatMul_1" />
			</rt_info>
			<input>
				<port id="0" precision="FP32">
					<dim>-1</dim>
					<dim>4</dim>
					<dim>-1</dim>
					<dim>-1</dim>
				</port>
				<port id="1" precision="FP32">
					<dim>-1</dim>
					<dim>4</dim>
					<dim>-1</dim>
					<dim>8</dim>
				</port>
			</input>
			<output>
				<port id="2" precision="FP32" names="/block.1/layer.0/SelfAttention/MatMul_1_output_0">
					<dim>-1</dim>
					<dim>4</dim>
					<dim>-1</dim>
					<dim>8</dim>
				</port>
			</output>
		</layer>
		<layer id="209" name="Constant_4658099" type="Const" version="opset1">
			<data element_type="i64" shape="4" offset="145460" size="32" />
			<rt_info>
				<attribute name="fused_names" version="0" value="Constant_4658099" />
			</rt_info>
			<output>
				<port id="0" precision="I64">
					<dim>4</dim>
				</port>
			</output>
		</layer>
		<layer id="210" name="/block.1/layer.0/SelfAttention/Transpose_3" type="Transpose" version="opset1">
			<rt_info>
				<attribute name="fused_names" version="0" value="/block.1/layer.0/SelfAttention/Transpose_3" />
			</rt_info>
			<input>
				<port id="0" precision="FP32">
					<dim>-1</dim>
					<dim>4</dim>
					<dim>-1</dim>
					<dim>8</dim>
				</port>
				<port id="1" precision="I64">
					<dim>4</dim>
				</port>
			</input>
			<output>
				<port id="2" precision="FP32" names="/block.1/layer.0/SelfAttention/Transpose_3_output_0">
					<dim>-1</dim>
					<dim>-1</dim>
					<dim>4</dim>
					<dim>8</dim>
				</port>
			</output>
		</layer>
		<layer id="211" name="Constant_188" type="Const" version="opset1">
			<data element_type="i64" shape="1" offset="141328" size="8" />
			<rt_info>
				<attribute name="fused_names" version="0" value="Constant_188" />
			</rt_info>
			<output>
				<port id="0" precision="I64" names="onnx::Unsqueeze_257">
					<dim>1</dim>
				</port>
			</output>
		</layer>
		<layer id="212" name="/block.1/layer.0/SelfAttention/Unsqueeze_3" type="Unsqueeze" version="opset1">
			<rt_info>
				<attribute name="fused_names" version="0" value="/block.1/layer.0/SelfAttention/Unsqueeze_3, Constant_188" />
			</rt_info>
			<input>
				<port id="0" precision="I64" />
				<port id="1" precision="I64">
					<dim>1</dim>
				</port>
			</input>
			<output>
				<port id="2" precision="I64" names="/block.1/layer.0/SelfAttention/Unsqueeze_3_output_0">
					<dim>1</dim>
				</port>
			</output>
		</layer>
		<layer id="213" name="/block.1/layer.0/SelfAttention/Constant_10" type="Const" version="opset1">
			<data element_type="i64" shape="1" offset="141312" size="8" />
			<rt_info>
				<attribute name="fused_names" version="0" value="/block.1/layer.0/SelfAttention/Constant_10" />
			</rt_info>
			<output>
				<port id="0" precision="I64" names="/block.1/layer.0/SelfAttention/Constant_10_output_0">
					<dim>1</dim>
				</port>
			</output>
		</layer>
		<layer id="214" name="/block.1/layer.0/SelfAttention/Constant_11" type="Const" version="opset1">
			<data element_type="i64" shape="1" offset="153892" size="8" />
			<rt_info>
				<attribute name="fused_names" version="0" value="/block.1/layer.0/SelfAttention/Constant_11" />
			</rt_info>
			<output>
				<port id="0" precision="I64" names="/block.1/layer.0/SelfAttention/Constant_11_output_0">
					<dim>1</dim>
				</port>
			</output>
		</layer>
		<layer id="215" name="/block.1/layer.0/SelfAttention/Concat_3" type="Concat" version="opset1">
			<data axis="0" />
			<rt_info>
				<attribute name="fused_names" version="0" value="/block.1/layer.0/SelfAttention/Concat_3, /block.1/layer.0/SelfAttention/Constant_10, /block.1/layer.0/SelfAttention/Constant_11" />
			</rt_info>
			<input>
				<port id="0" precision="I64">
					<dim>1</dim>
				</port>
				<port id="1" precision="I64">
					<dim>1</dim>
				</port>
				<port id="2" precision="I64">
					<dim>1</dim>
				</port>
			</input>
			<output>
				<port id="3" precision="I64" names="/block.1/layer.0/SelfAttention/Concat_3_output_0">
					<dim>3</dim>
				</port>
			</output>
		</layer>
		<layer id="216" name="/block.1/layer.0/SelfAttention/Reshape_3" type="Reshape" version="opset1">
			<data special_zero="true" />
			<rt_info>
				<attribute name="fused_names" version="0" value="/block.1/layer.0/SelfAttention/Reshape_3" />
			</rt_info>
			<input>
				<port id="0" precision="FP32">
					<dim>-1</dim>
					<dim>-1</dim>
					<dim>4</dim>
					<dim>8</dim>
				</port>
				<port id="1" precision="I64">
					<dim>3</dim>
				</port>
			</input>
			<output>
				<port id="2" precision="FP32" names="/block.1/layer.0/SelfAttention/Reshape_3_output_0">
					<dim>-1</dim>
					<dim>-1</dim>
					<dim>32</dim>
				</port>
			</output>
		</layer>
		<layer id="217" name="onnx::MatMul_589" type="Const" version="opset1">
			<data element_type="f32" shape="32, 32" offset="179756" size="4096" />
			<rt_info>
				<attribute name="fused_names" version="0" value="onnx::MatMul_589" />
			</rt_info>
			<output>
				<port id="0" precision="FP32" names="onnx::MatMul_589">
					<dim>32</dim>
					<dim>32</dim>
				</port>
			</output>
		</layer>
		<layer id="218" name="/block.1/layer.0/SelfAttention/o/MatMul" type="MatMul" version="opset1">
			<data transpose_a="false" transpose_b="false" />
			<rt_info>
				<attribute name="fused_names" version="0" value="/block.1/layer.0/SelfAttention/o/MatMul" />
			</rt_info>
			<input>
				<port id="0" precision="FP32">
					<dim>-1</dim>
					<dim>-1</dim>
					<dim>32</dim>
				</port>
				<port id="1" precision="FP32">
					<dim>32</dim>
					<dim>32</dim>
				</port>
			</input>
			<output>
				<port id="2" precision="FP32" names="/block.1/layer.0/SelfAttention/o/MatMul_output_0">
					<dim>-1</dim>
					<dim>-1</dim>
					<dim>32</dim>
				</port>
			</output>
		</layer>
		<layer id="219" name="/block.1/layer.0/Add" type="Add" version="opset1">
			<data auto_broadcast="numpy" />
			<rt_info>
				<attribute name="fused_names" version="0" value="/block.1/layer.0/Add" />
			</rt_info>
			<input>
				<port id="0" precision="FP32">
					<dim>-1</dim>
					<dim>-1</dim>
					<dim>32</dim>
				</port>
				<port id="1" precision="FP32">
					<dim>-1</dim>
					<dim>-1</dim>
					<dim>32</dim>
				</port>
			</input>
			<output>
				<port id="2" precision="FP32" names="/block.1/layer.0/Add_output_0">
					<dim>-1</dim>
					<dim>-1</dim>
					<dim>32</dim>
				</port>
			</output>
		</layer>
		<layer id="220" name="/block.1/layer.1/layer_norm/Cast" type="Convert" version="opset1">
			<data destination_type="f32" />
			<rt_info>
				<attribute name="fused_names" version="0" value="/block.1/layer.1/layer_norm/Cast" />
			</rt_info>
			<input>
				<port id="0" precision="FP32">
					<dim>-1</dim>
					<dim>-1</dim>
					<dim>32</dim>
				</port>
			</input>
			<output>
				<port id="1" precision="FP32" names="/block.1/layer.1/layer_norm/Cast_output_0">
					<dim>-1</dim>
					<dim>-1</dim>
					<dim>32</dim>
				</port>
			</output>
		</layer>
		<layer id="221" name="/block.1/layer.1/layer_norm/Constant_2" type="Const" version="opset1">
			<data element_type="f32" shape="" offset="141336" size="4" />
			<rt_info>
				<attribute name="fused_names" version="0" value="/block.1/layer.1/layer_norm/Constant_2" />
			</rt_info>
			<output>
				<port id="0" precision="FP32" names="/block.1/layer.1/layer_norm/Constant_2_output_0" />
			</output>
		</layer>
		<layer id="222" name="/block.1/layer.1/layer_norm/Constant" type="Const" version="opset1">
			<data element_type="f32" shape="" offset="141340" size="4" />
			<rt_info>
				<attribute name="fused_names" version="0" value="/block.1/layer.1/layer_norm/Constant" />
			</rt_info>
			<output>
				<port id="0" precision="FP32" names="/block.1/layer.1/layer_norm/Constant_output_0" />
			</output>
		</layer>
		<layer id="223" name="/block.1/layer.1/layer_norm/Pow" type="Power" version="opset1">
			<data auto_broadcast="numpy" />
			<rt_info>
				<attribute name="fused_names" version="0" value="/block.1/layer.1/layer_norm/Pow" />
			</rt_info>
			<input>
				<port id="0" precision="FP32">
					<dim>-1</dim>
					<dim>-1</dim>
					<dim>32</dim>
				</port>
				<port id="1" precision="FP32" />
			</input>
			<output>
				<port id="2" precision="FP32" names="/block.1/layer.1/layer_norm/Pow_output_0">
					<dim>-1</dim>
					<dim>-1</dim>
					<dim>32</dim>
				</port>
			</output>
		</layer>
		<layer id="224" name="Constant_4658118" type="Const" version="opset1">
			<data element_type="i64" shape="1" offset="141312" size="8" />
			<rt_info>
				<attribute name="fused_names" version="0" value="Constant_4658118" />
			</rt_info>
			<output>
				<port id="0" precision="I64">
					<dim>1</dim>
				</port>
			</output>
		</layer>
		<layer id="225" name="/block.1/layer.1/layer_norm/ReduceMean" type="ReduceMean" version="opset1">
			<data keep_dims="true" />
			<rt_info>
				<attribute name="fused_names" version="0" value="/block.1/layer.1/layer_norm/ReduceMean" />
			</rt_info>
			<input>
				<port id="0" precision="FP32">
					<dim>-1</dim>
					<dim>-1</dim>
					<dim>32</dim>
				</port>
				<port id="1" precision="I64">
					<dim>1</dim>
				</port>
			</input>
			<output>
				<port id="2" precision="FP32" names="/block.1/layer.1/layer_norm/ReduceMean_output_0">
					<dim>-1</dim>
					<dim>-1</dim>
					<dim>1</dim>
				</port>
			</output>
		</layer>
		<layer id="226" name="/block.1/layer.1/layer_norm/Constant_1" type="Const" version="opset1">
			<data element_type="f32" shape="" offset="141344" size="4" />
			<rt_info>
				<attribute name="fused_names" version="0" value="/block.1/layer.1/layer_norm/Constant_1" />
			</rt_info>
			<output>
				<port id="0" precision="FP32" names="/block.1/layer.1/layer_norm/Constant_1_output_0" />
			</output>
		</layer>
		<layer id="227" name="/block.1/layer.1/layer_norm/Add" type="Add" version="opset1">
			<data auto_broadcast="numpy" />
			<rt_info>
				<attribute name="fused_names" version="0" value="/block.1/layer.1/layer_norm/Add" />
			</rt_info>
			<input>
				<port id="0" precision="FP32">
					<dim>-1</dim>
					<dim>-1</dim>
					<dim>1</dim>
				</port>
				<port id="1" precision="FP32" />
			</input>
			<output>
				<port id="2" precision="FP32" names="/block.1/layer.1/layer_norm/Add_output_0">
					<dim>-1</dim>
					<dim>-1</dim>
					<dim>1</dim>
				</port>
			</output>
		</layer>
		<layer id="228" name="/block.1/layer.1/layer_norm/Sqrt" type="Sqrt" version="opset1">
			<rt_info>
				<attribute name="fused_names" version="0" value="/block.1/layer.1/layer_norm/Sqrt" />
			</rt_info>
			<input>
				<port id="0" precision="FP32">
					<dim>-1</dim>
					<dim>-1</dim>
					<dim>1</dim>
				</port>
			</input>
			<output>
				<port id="1" precision="FP32" names="/block.1/layer.1/layer_norm/Sqrt_output_0">
					<dim>-1</dim>
					<dim>-1</dim>
					<dim>1</dim>
				</port>
			</output>
		</layer>
		<layer id="229" name="/block.1/layer.1/layer_norm/Div" type="Divide" version="opset1">
			<data auto_broadcast="numpy" m_pythondiv="true" />
			<rt_info>
				<attribute name="fused_names" version="0" value="/block.1/layer.1/layer_norm/Div" />
			</rt_info>
			<input>
				<port id="0" precision="FP32" />
				<port id="1" precision="FP32">
					<dim>-1</dim>
					<dim>-1</dim>
					<dim>1</dim>
				</port>
			</input>
			<output>
				<port id="2" precision="FP32" names="/block.1/layer.1/layer_norm/Div_output_0">
					<dim>-1</dim>
					<dim>-1</dim>
					<dim>1</dim>
				</port>
			</output>
		</layer>
		<layer id="230" name="/block.1/layer.1/layer_norm/Mul" type="Multiply" version="opset1">
			<data auto_broadcast="numpy" />
			<rt_info>
				<attribute name="fused_names" version="0" value="/block.1/layer.1/layer_norm/Mul" />
			</rt_info>
			<input>
				<port id="0" precision="FP32">
					<dim>-1</dim>
					<dim>-1</dim>
					<dim>32</dim>
				</port>
				<port id="1" precision="FP32">
					<dim>-1</dim>
					<dim>-1</dim>
					<dim>1</dim>
				</port>
			</input>
			<output>
				<port id="2" precision="FP32" names="/block.1/layer.1/layer_norm/Mul_output_0">
					<dim>-1</dim>
					<dim>-1</dim>
					<dim>32</dim>
				</port>
			</output>
		</layer>
		<layer id="231" name="/block.1/layer.1/layer_norm/Mul_1" type="Multiply" version="opset1">
			<data auto_broadcast="numpy" />
			<rt_info>
				<attribute name="fused_names" version="0" value="/block.1/layer.1/layer_norm/Mul_1" />
			</rt_info>
			<input>
				<port id="0" precision="FP32">
					<dim>32</dim>
				</port>
				<port id="1" precision="FP32">
					<dim>-1</dim>
					<dim>-1</dim>
					<dim>32</dim>
				</port>
			</input>
			<output>
				<port id="2" precision="FP32" names="/block.1/layer.1/layer_norm/Mul_1_output_0">
					<dim>-1</dim>
					<dim>-1</dim>
					<dim>32</dim>
				</port>
			</output>
		</layer>
		<layer id="232" name="onnx::MatMul_590" type="Const" version="opset1">
			<data element_type="f32" shape="32, 37" offset="183852" size="4736" />
			<rt_info>
				<attribute name="fused_names" version="0" value="onnx::MatMul_590" />
			</rt_info>
			<output>
				<port id="0" precision="FP32" names="onnx::MatMul_590">
					<dim>32</dim>
					<dim>37</dim>
				</port>
			</output>
		</layer>
		<layer id="233" name="/block.1/layer.1/DenseReluDense/wi/MatMul" type="MatMul" version="opset1">
			<data transpose_a="false" transpose_b="false" />
			<rt_info>
				<attribute name="fused_names" version="0" value="/block.1/layer.1/DenseReluDense/wi/MatMul" />
			</rt_info>
			<input>
				<port id="0" precision="FP32">
					<dim>-1</dim>
					<dim>-1</dim>
					<dim>32</dim>
				</port>
				<port id="1" precision="FP32">
					<dim>32</dim>
					<dim>37</dim>
				</port>
			</input>
			<output>
				<port id="2" precision="FP32" names="/block.1/layer.1/DenseReluDense/wi/MatMul_output_0">
					<dim>-1</dim>
					<dim>-1</dim>
					<dim>37</dim>
				</port>
			</output>
		</layer>
		<layer id="234" name="/block.1/layer.1/DenseReluDense/act/Relu" type="ReLU" version="opset1">
			<rt_info>
				<attribute name="fused_names" version="0" value="/block.1/layer.1/DenseReluDense/act/Relu" />
			</rt_info>
			<input>
				<port id="0" precision="FP32">
					<dim>-1</dim>
					<dim>-1</dim>
					<dim>37</dim>
				</port>
			</input>
			<output>
				<port id="1" precision="FP32" names="/block.1/layer.1/DenseReluDense/act/Relu_output_0">
					<dim>-1</dim>
					<dim>-1</dim>
					<dim>37</dim>
				</port>
			</output>
		</layer>
		<layer id="235" name="onnx::MatMul_591" type="Const" version="opset1">
			<data element_type="f32" shape="37, 32" offset="188588" size="4736" />
			<rt_info>
				<attribute name="fused_names" version="0" value="onnx::MatMul_591" />
			</rt_info>
			<output>
				<port id="0" precision="FP32" names="onnx::MatMul_591">
					<dim>37</dim>
					<dim>32</dim>
				</port>
			</output>
		</layer>
		<layer id="236" name="/block.1/layer.1/DenseReluDense/wo/MatMul" type="MatMul" version="opset1">
			<data transpose_a="false" transpose_b="false" />
			<rt_info>
				<attribute name="fused_names" version="0" value="/block.1/layer.1/DenseReluDense/wo/MatMul" />
			</rt_info>
			<input>
				<port id="0" precision="FP32">
					<dim>-1</dim>
					<dim>-1</dim>
					<dim>37</dim>
				</port>
				<port id="1" precision="FP32">
					<dim>37</dim>
					<dim>32</dim>
				</port>
			</input>
			<output>
				<port id="2" precision="FP32" names="/block.1/layer.1/DenseReluDense/wo/MatMul_output_0">
					<dim>-1</dim>
					<dim>-1</dim>
					<dim>32</dim>
				</port>
			</output>
		</layer>
		<layer id="237" name="/block.1/layer.1/Add" type="Add" version="opset1">
			<data auto_broadcast="numpy" />
			<rt_info>
				<attribute name="fused_names" version="0" value="/block.1/layer.1/Add" />
			</rt_info>
			<input>
				<port id="0" precision="FP32">
					<dim>-1</dim>
					<dim>-1</dim>
					<dim>32</dim>
				</port>
				<port id="1" precision="FP32">
					<dim>-1</dim>
					<dim>-1</dim>
					<dim>32</dim>
				</port>
			</input>
			<output>
				<port id="2" precision="FP32" names="/block.1/layer.1/Add_output_0">
					<dim>-1</dim>
					<dim>-1</dim>
					<dim>32</dim>
				</port>
			</output>
		</layer>
		<layer id="238" name="/block.2/layer.0/layer_norm/Cast" type="Convert" version="opset1">
			<data destination_type="f32" />
			<rt_info>
				<attribute name="fused_names" version="0" value="/block.2/layer.0/layer_norm/Cast" />
			</rt_info>
			<input>
				<port id="0" precision="FP32">
					<dim>-1</dim>
					<dim>-1</dim>
					<dim>32</dim>
				</port>
			</input>
			<output>
				<port id="1" precision="FP32" names="/block.2/layer.0/layer_norm/Cast_output_0">
					<dim>-1</dim>
					<dim>-1</dim>
					<dim>32</dim>
				</port>
			</output>
		</layer>
		<layer id="239" name="/block.2/layer.0/layer_norm/Constant_2" type="Const" version="opset1">
			<data element_type="f32" shape="" offset="141336" size="4" />
			<rt_info>
				<attribute name="fused_names" version="0" value="/block.2/layer.0/layer_norm/Constant_2" />
			</rt_info>
			<output>
				<port id="0" precision="FP32" names="/block.2/layer.0/layer_norm/Constant_2_output_0" />
			</output>
		</layer>
		<layer id="240" name="/block.2/layer.0/layer_norm/Constant" type="Const" version="opset1">
			<data element_type="f32" shape="" offset="141340" size="4" />
			<rt_info>
				<attribute name="fused_names" version="0" value="/block.2/layer.0/layer_norm/Constant" />
			</rt_info>
			<output>
				<port id="0" precision="FP32" names="/block.2/layer.0/layer_norm/Constant_output_0" />
			</output>
		</layer>
		<layer id="241" name="/block.2/layer.0/layer_norm/Pow" type="Power" version="opset1">
			<data auto_broadcast="numpy" />
			<rt_info>
				<attribute name="fused_names" version="0" value="/block.2/layer.0/layer_norm/Pow" />
			</rt_info>
			<input>
				<port id="0" precision="FP32">
					<dim>-1</dim>
					<dim>-1</dim>
					<dim>32</dim>
				</port>
				<port id="1" precision="FP32" />
			</input>
			<output>
				<port id="2" precision="FP32" names="/block.2/layer.0/layer_norm/Pow_output_0">
					<dim>-1</dim>
					<dim>-1</dim>
					<dim>32</dim>
				</port>
			</output>
		</layer>
		<layer id="242" name="Constant_4658134" type="Const" version="opset1">
			<data element_type="i64" shape="1" offset="141312" size="8" />
			<rt_info>
				<attribute name="fused_names" version="0" value="Constant_4658134" />
			</rt_info>
			<output>
				<port id="0" precision="I64">
					<dim>1</dim>
				</port>
			</output>
		</layer>
		<layer id="243" name="/block.2/layer.0/layer_norm/ReduceMean" type="ReduceMean" version="opset1">
			<data keep_dims="true" />
			<rt_info>
				<attribute name="fused_names" version="0" value="/block.2/layer.0/layer_norm/ReduceMean" />
			</rt_info>
			<input>
				<port id="0" precision="FP32">
					<dim>-1</dim>
					<dim>-1</dim>
					<dim>32</dim>
				</port>
				<port id="1" precision="I64">
					<dim>1</dim>
				</port>
			</input>
			<output>
				<port id="2" precision="FP32" names="/block.2/layer.0/layer_norm/ReduceMean_output_0">
					<dim>-1</dim>
					<dim>-1</dim>
					<dim>1</dim>
				</port>
			</output>
		</layer>
		<layer id="244" name="/block.2/layer.0/layer_norm/Constant_1" type="Const" version="opset1">
			<data element_type="f32" shape="" offset="141344" size="4" />
			<rt_info>
				<attribute name="fused_names" version="0" value="/block.2/layer.0/layer_norm/Constant_1" />
			</rt_info>
			<output>
				<port id="0" precision="FP32" names="/block.2/layer.0/layer_norm/Constant_1_output_0" />
			</output>
		</layer>
		<layer id="245" name="/block.2/layer.0/layer_norm/Add" type="Add" version="opset1">
			<data auto_broadcast="numpy" />
			<rt_info>
				<attribute name="fused_names" version="0" value="/block.2/layer.0/layer_norm/Add" />
			</rt_info>
			<input>
				<port id="0" precision="FP32">
					<dim>-1</dim>
					<dim>-1</dim>
					<dim>1</dim>
				</port>
				<port id="1" precision="FP32" />
			</input>
			<output>
				<port id="2" precision="FP32" names="/block.2/layer.0/layer_norm/Add_output_0">
					<dim>-1</dim>
					<dim>-1</dim>
					<dim>1</dim>
				</port>
			</output>
		</layer>
		<layer id="246" name="/block.2/layer.0/layer_norm/Sqrt" type="Sqrt" version="opset1">
			<rt_info>
				<attribute name="fused_names" version="0" value="/block.2/layer.0/layer_norm/Sqrt" />
			</rt_info>
			<input>
				<port id="0" precision="FP32">
					<dim>-1</dim>
					<dim>-1</dim>
					<dim>1</dim>
				</port>
			</input>
			<output>
				<port id="1" precision="FP32" names="/block.2/layer.0/layer_norm/Sqrt_output_0">
					<dim>-1</dim>
					<dim>-1</dim>
					<dim>1</dim>
				</port>
			</output>
		</layer>
		<layer id="247" name="/block.2/layer.0/layer_norm/Div" type="Divide" version="opset1">
			<data auto_broadcast="numpy" m_pythondiv="true" />
			<rt_info>
				<attribute name="fused_names" version="0" value="/block.2/layer.0/layer_norm/Div" />
			</rt_info>
			<input>
				<port id="0" precision="FP32" />
				<port id="1" precision="FP32">
					<dim>-1</dim>
					<dim>-1</dim>
					<dim>1</dim>
				</port>
			</input>
			<output>
				<port id="2" precision="FP32" names="/block.2/layer.0/layer_norm/Div_output_0">
					<dim>-1</dim>
					<dim>-1</dim>
					<dim>1</dim>
				</port>
			</output>
		</layer>
		<layer id="248" name="/block.2/layer.0/layer_norm/Mul" type="Multiply" version="opset1">
			<data auto_broadcast="numpy" />
			<rt_info>
				<attribute name="fused_names" version="0" value="/block.2/layer.0/layer_norm/Mul" />
			</rt_info>
			<input>
				<port id="0" precision="FP32">
					<dim>-1</dim>
					<dim>-1</dim>
					<dim>32</dim>
				</port>
				<port id="1" precision="FP32">
					<dim>-1</dim>
					<dim>-1</dim>
					<dim>1</dim>
				</port>
			</input>
			<output>
				<port id="2" precision="FP32" names="/block.2/layer.0/layer_norm/Mul_output_0">
					<dim>-1</dim>
					<dim>-1</dim>
					<dim>32</dim>
				</port>
			</output>
		</layer>
		<layer id="249" name="/block.2/layer.0/layer_norm/Mul_1" type="Multiply" version="opset1">
			<data auto_broadcast="numpy" />
			<rt_info>
				<attribute name="fused_names" version="0" value="/block.2/layer.0/layer_norm/Mul_1" />
			</rt_info>
			<input>
				<port id="0" precision="FP32">
					<dim>32</dim>
				</port>
				<port id="1" precision="FP32">
					<dim>-1</dim>
					<dim>-1</dim>
					<dim>32</dim>
				</port>
			</input>
			<output>
				<port id="2" precision="FP32" names="/block.2/layer.0/layer_norm/Mul_1_output_0">
					<dim>-1</dim>
					<dim>-1</dim>
					<dim>32</dim>
				</port>
			</output>
		</layer>
		<layer id="250" name="onnx::MatMul_592" type="Const" version="opset1">
			<data element_type="f32" shape="32, 32" offset="193324" size="4096" />
			<rt_info>
				<attribute name="fused_names" version="0" value="onnx::MatMul_592" />
			</rt_info>
			<output>
				<port id="0" precision="FP32" names="onnx::MatMul_592">
					<dim>32</dim>
					<dim>32</dim>
				</port>
			</output>
		</layer>
		<layer id="251" name="/block.2/layer.0/SelfAttention/q/MatMul" type="MatMul" version="opset1">
			<data transpose_a="false" transpose_b="false" />
			<rt_info>
				<attribute name="fused_names" version="0" value="/block.2/layer.0/SelfAttention/q/MatMul" />
			</rt_info>
			<input>
				<port id="0" precision="FP32">
					<dim>-1</dim>
					<dim>-1</dim>
					<dim>32</dim>
				</port>
				<port id="1" precision="FP32">
					<dim>32</dim>
					<dim>32</dim>
				</port>
			</input>
			<output>
				<port id="2" precision="FP32" names="/block.2/layer.0/SelfAttention/q/MatMul_output_0">
					<dim>-1</dim>
					<dim>-1</dim>
					<dim>32</dim>
				</port>
			</output>
		</layer>
		<layer id="252" name="/block.2/layer.0/SelfAttention/Shape" type="ShapeOf" version="opset3">
			<data output_type="i64" />
			<rt_info>
				<attribute name="fused_names" version="0" value="/block.2/layer.0/SelfAttention/Shape" />
			</rt_info>
			<input>
				<port id="0" precision="FP32">
					<dim>-1</dim>
					<dim>-1</dim>
					<dim>32</dim>
				</port>
			</input>
			<output>
				<port id="1" precision="I64" names="/block.2/layer.0/SelfAttention/Shape_output_0">
					<dim>3</dim>
				</port>
			</output>
		</layer>
		<layer id="253" name="/block.2/layer.0/SelfAttention/Constant" type="Const" version="opset1">
			<data element_type="i64" shape="" offset="141328" size="8" />
			<rt_info>
				<attribute name="fused_names" version="0" value="/block.2/layer.0/SelfAttention/Constant" />
			</rt_info>
			<output>
				<port id="0" precision="I64" names="/block.2/layer.0/SelfAttention/Constant_output_0" />
			</output>
		</layer>
		<layer id="254" name="Constant_4658145" type="Const" version="opset1">
			<data element_type="i64" shape="" offset="141328" size="8" />
			<rt_info>
				<attribute name="fused_names" version="0" value="Constant_4658145" />
			</rt_info>
			<output>
				<port id="0" precision="I64" />
			</output>
		</layer>
		<layer id="255" name="/block.2/layer.0/SelfAttention/Gather" type="Gather" version="opset8">
			<data batch_dims="0" />
			<rt_info>
				<attribute name="fused_names" version="0" value="/block.2/layer.0/SelfAttention/Constant, /block.2/layer.0/SelfAttention/Gather, Constant_4658145" />
			</rt_info>
			<input>
				<port id="0" precision="I64">
					<dim>3</dim>
				</port>
				<port id="1" precision="I64" />
				<port id="2" precision="I64" />
			</input>
			<output>
				<port id="3" precision="I64" names="/block.2/layer.0/SelfAttention/Gather_output_0" />
			</output>
		</layer>
		<layer id="256" name="Constant_226" type="Const" version="opset1">
			<data element_type="i64" shape="1" offset="141328" size="8" />
			<rt_info>
				<attribute name="fused_names" version="0" value="Constant_226" />
			</rt_info>
			<output>
				<port id="0" precision="I64" names="onnx::Unsqueeze_301">
					<dim>1</dim>
				</port>
			</output>
		</layer>
		<layer id="257" name="/block.2/layer.0/SelfAttention/Unsqueeze" type="Unsqueeze" version="opset1">
			<rt_info>
				<attribute name="fused_names" version="0" value="/block.2/layer.0/SelfAttention/Unsqueeze, Constant_226" />
			</rt_info>
			<input>
				<port id="0" precision="I64" />
				<port id="1" precision="I64">
					<dim>1</dim>
				</port>
			</input>
			<output>
				<port id="2" precision="I64" names="/block.2/layer.0/SelfAttention/Unsqueeze_output_0">
					<dim>1</dim>
				</port>
			</output>
		</layer>
		<layer id="258" name="/block.2/layer.0/SelfAttention/Constant_1" type="Const" version="opset1">
			<data element_type="i64" shape="1" offset="141312" size="8" />
			<rt_info>
				<attribute name="fused_names" version="0" value="/block.2/layer.0/SelfAttention/Constant_1" />
			</rt_info>
			<output>
				<port id="0" precision="I64" names="/block.2/layer.0/SelfAttention/Constant_1_output_0">
					<dim>1</dim>
				</port>
			</output>
		</layer>
		<layer id="259" name="/block.2/layer.0/SelfAttention/Constant_2" type="Const" version="opset1">
			<data element_type="i64" shape="1" offset="145444" size="8" />
			<rt_info>
				<attribute name="fused_names" version="0" value="/block.2/layer.0/SelfAttention/Constant_2" />
			</rt_info>
			<output>
				<port id="0" precision="I64" names="/block.2/layer.0/SelfAttention/Constant_2_output_0">
					<dim>1</dim>
				</port>
			</output>
		</layer>
		<layer id="260" name="/block.2/layer.0/SelfAttention/Constant_3" type="Const" version="opset1">
			<data element_type="i64" shape="1" offset="145452" size="8" />
			<rt_info>
				<attribute name="fused_names" version="0" value="/block.2/layer.0/SelfAttention/Constant_3" />
			</rt_info>
			<output>
				<port id="0" precision="I64" names="/block.2/layer.0/SelfAttention/Constant_3_output_0">
					<dim>1</dim>
				</port>
			</output>
		</layer>
		<layer id="261" name="/block.2/layer.0/SelfAttention/Concat" type="Concat" version="opset1">
			<data axis="0" />
			<rt_info>
				<attribute name="fused_names" version="0" value="/block.2/layer.0/SelfAttention/Concat, /block.2/layer.0/SelfAttention/Constant_1, /block.2/layer.0/SelfAttention/Constant_2, /block.2/layer.0/SelfAttention/Constant_3" />
			</rt_info>
			<input>
				<port id="0" precision="I64">
					<dim>1</dim>
				</port>
				<port id="1" precision="I64">
					<dim>1</dim>
				</port>
				<port id="2" precision="I64">
					<dim>1</dim>
				</port>
				<port id="3" precision="I64">
					<dim>1</dim>
				</port>
			</input>
			<output>
				<port id="4" precision="I64" names="/block.2/layer.0/SelfAttention/Concat_output_0">
					<dim>4</dim>
				</port>
			</output>
		</layer>
		<layer id="262" name="/block.2/layer.0/SelfAttention/Reshape" type="Reshape" version="opset1">
			<data special_zero="true" />
			<rt_info>
				<attribute name="fused_names" version="0" value="/block.2/layer.0/SelfAttention/Reshape" />
			</rt_info>
			<input>
				<port id="0" precision="FP32">
					<dim>-1</dim>
					<dim>-1</dim>
					<dim>32</dim>
				</port>
				<port id="1" precision="I64">
					<dim>4</dim>
				</port>
			</input>
			<output>
				<port id="2" precision="FP32" names="/block.2/layer.0/SelfAttention/Reshape_output_0">
					<dim>-1</dim>
					<dim>-1</dim>
					<dim>4</dim>
					<dim>8</dim>
				</port>
			</output>
		</layer>
		<layer id="263" name="Constant_4658173" type="Const" version="opset1">
			<data element_type="i64" shape="4" offset="145460" size="32" />
			<rt_info>
				<attribute name="fused_names" version="0" value="Constant_4658173" />
			</rt_info>
			<output>
				<port id="0" precision="I64">
					<dim>4</dim>
				</port>
			</output>
		</layer>
		<layer id="264" name="/block.2/layer.0/SelfAttention/Transpose" type="Transpose" version="opset1">
			<rt_info>
				<attribute name="fused_names" version="0" value="/block.2/layer.0/SelfAttention/Transpose" />
			</rt_info>
			<input>
				<port id="0" precision="FP32">
					<dim>-1</dim>
					<dim>-1</dim>
					<dim>4</dim>
					<dim>8</dim>
				</port>
				<port id="1" precision="I64">
					<dim>4</dim>
				</port>
			</input>
			<output>
				<port id="2" precision="FP32" names="/block.2/layer.0/SelfAttention/Transpose_output_0">
					<dim>-1</dim>
					<dim>4</dim>
					<dim>-1</dim>
					<dim>8</dim>
				</port>
			</output>
		</layer>
		<layer id="265" name="onnx::MatMul_602" type="Const" version="opset1">
			<data element_type="f32" shape="32, 32" offset="197420" size="4096" />
			<rt_info>
				<attribute name="fused_names" version="0" value="onnx::MatMul_602" />
			</rt_info>
			<output>
				<port id="0" precision="FP32" names="onnx::MatMul_602">
					<dim>32</dim>
					<dim>32</dim>
				</port>
			</output>
		</layer>
		<layer id="266" name="/block.2/layer.0/SelfAttention/k/MatMul" type="MatMul" version="opset1">
			<data transpose_a="false" transpose_b="false" />
			<rt_info>
				<attribute name="fused_names" version="0" value="/block.2/layer.0/SelfAttention/k/MatMul" />
			</rt_info>
			<input>
				<port id="0" precision="FP32">
					<dim>-1</dim>
					<dim>-1</dim>
					<dim>32</dim>
				</port>
				<port id="1" precision="FP32">
					<dim>32</dim>
					<dim>32</dim>
				</port>
			</input>
			<output>
				<port id="2" precision="FP32" names="/block.2/layer.0/SelfAttention/k/MatMul_output_0">
					<dim>-1</dim>
					<dim>-1</dim>
					<dim>32</dim>
				</port>
			</output>
		</layer>
		<layer id="267" name="Constant_232" type="Const" version="opset1">
			<data element_type="i64" shape="1" offset="141328" size="8" />
			<rt_info>
				<attribute name="fused_names" version="0" value="Constant_232" />
			</rt_info>
			<output>
				<port id="0" precision="I64" names="onnx::Unsqueeze_310">
					<dim>1</dim>
				</port>
			</output>
		</layer>
		<layer id="268" name="/block.2/layer.0/SelfAttention/Unsqueeze_1" type="Unsqueeze" version="opset1">
			<rt_info>
				<attribute name="fused_names" version="0" value="/block.2/layer.0/SelfAttention/Unsqueeze_1, Constant_232" />
			</rt_info>
			<input>
				<port id="0" precision="I64" />
				<port id="1" precision="I64">
					<dim>1</dim>
				</port>
			</input>
			<output>
				<port id="2" precision="I64" names="/block.2/layer.0/SelfAttention/Unsqueeze_1_output_0">
					<dim>1</dim>
				</port>
			</output>
		</layer>
		<layer id="269" name="/block.2/layer.0/SelfAttention/Constant_4" type="Const" version="opset1">
			<data element_type="i64" shape="1" offset="141312" size="8" />
			<rt_info>
				<attribute name="fused_names" version="0" value="/block.2/layer.0/SelfAttention/Constant_4" />
			</rt_info>
			<output>
				<port id="0" precision="I64" names="/block.2/layer.0/SelfAttention/Constant_4_output_0">
					<dim>1</dim>
				</port>
			</output>
		</layer>
		<layer id="270" name="/block.2/layer.0/SelfAttention/Constant_5" type="Const" version="opset1">
			<data element_type="i64" shape="1" offset="145444" size="8" />
			<rt_info>
				<attribute name="fused_names" version="0" value="/block.2/layer.0/SelfAttention/Constant_5" />
			</rt_info>
			<output>
				<port id="0" precision="I64" names="/block.2/layer.0/SelfAttention/Constant_5_output_0">
					<dim>1</dim>
				</port>
			</output>
		</layer>
		<layer id="271" name="/block.2/layer.0/SelfAttention/Constant_6" type="Const" version="opset1">
			<data element_type="i64" shape="1" offset="145452" size="8" />
			<rt_info>
				<attribute name="fused_names" version="0" value="/block.2/layer.0/SelfAttention/Constant_6" />
			</rt_info>
			<output>
				<port id="0" precision="I64" names="/block.2/layer.0/SelfAttention/Constant_6_output_0">
					<dim>1</dim>
				</port>
			</output>
		</layer>
		<layer id="272" name="/block.2/layer.0/SelfAttention/Concat_1" type="Concat" version="opset1">
			<data axis="0" />
			<rt_info>
				<attribute name="fused_names" version="0" value="/block.2/layer.0/SelfAttention/Concat_1, /block.2/layer.0/SelfAttention/Constant_4, /block.2/layer.0/SelfAttention/Constant_5, /block.2/layer.0/SelfAttention/Constant_6" />
			</rt_info>
			<input>
				<port id="0" precision="I64">
					<dim>1</dim>
				</port>
				<port id="1" precision="I64">
					<dim>1</dim>
				</port>
				<port id="2" precision="I64">
					<dim>1</dim>
				</port>
				<port id="3" precision="I64">
					<dim>1</dim>
				</port>
			</input>
			<output>
				<port id="4" precision="I64" names="/block.2/layer.0/SelfAttention/Concat_1_output_0">
					<dim>4</dim>
				</port>
			</output>
		</layer>
		<layer id="273" name="/block.2/layer.0/SelfAttention/Reshape_1" type="Reshape" version="opset1">
			<data special_zero="true" />
			<rt_info>
				<attribute name="fused_names" version="0" value="/block.2/layer.0/SelfAttention/Reshape_1" />
			</rt_info>
			<input>
				<port id="0" precision="FP32">
					<dim>-1</dim>
					<dim>-1</dim>
					<dim>32</dim>
				</port>
				<port id="1" precision="I64">
					<dim>4</dim>
				</port>
			</input>
			<output>
				<port id="2" precision="FP32" names="/block.2/layer.0/SelfAttention/Reshape_1_output_0">
					<dim>-1</dim>
					<dim>-1</dim>
					<dim>4</dim>
					<dim>8</dim>
				</port>
			</output>
		</layer>
		<layer id="274" name="Constant_4658193" type="Const" version="opset1">
			<data element_type="i64" shape="4" offset="149588" size="32" />
			<rt_info>
				<attribute name="fused_names" version="0" value="Constant_4658193" />
			</rt_info>
			<output>
				<port id="0" precision="I64">
					<dim>4</dim>
				</port>
			</output>
		</layer>
		<layer id="275" name="/block.2/layer.0/SelfAttention/Transpose_2" type="Transpose" version="opset1">
			<rt_info>
				<attribute name="fused_names" version="0" value="/block.2/layer.0/SelfAttention/Transpose_2" />
			</rt_info>
			<input>
				<port id="0" precision="FP32">
					<dim>-1</dim>
					<dim>-1</dim>
					<dim>4</dim>
					<dim>8</dim>
				</port>
				<port id="1" precision="I64">
					<dim>4</dim>
				</port>
			</input>
			<output>
				<port id="2" precision="FP32" names="/block.2/layer.0/SelfAttention/Transpose_2_output_0">
					<dim>-1</dim>
					<dim>4</dim>
					<dim>8</dim>
					<dim>-1</dim>
				</port>
			</output>
		</layer>
		<layer id="276" name="/block.2/layer.0/SelfAttention/MatMul" type="MatMul" version="opset1">
			<data transpose_a="false" transpose_b="false" />
			<rt_info>
				<attribute name="fused_names" version="0" value="/block.2/layer.0/SelfAttention/MatMul" />
			</rt_info>
			<input>
				<port id="0" precision="FP32">
					<dim>-1</dim>
					<dim>4</dim>
					<dim>-1</dim>
					<dim>8</dim>
				</port>
				<port id="1" precision="FP32">
					<dim>-1</dim>
					<dim>4</dim>
					<dim>8</dim>
					<dim>-1</dim>
				</port>
			</input>
			<output>
				<port id="2" precision="FP32" names="/block.2/layer.0/SelfAttention/MatMul_output_0">
					<dim>-1</dim>
					<dim>4</dim>
					<dim>-1</dim>
					<dim>-1</dim>
				</port>
			</output>
		</layer>
		<layer id="277" name="/block.2/layer.0/SelfAttention/Add" type="Add" version="opset1">
			<data auto_broadcast="numpy" />
			<rt_info>
				<attribute name="fused_names" version="0" value="/block.2/layer.0/SelfAttention/Add" />
			</rt_info>
			<input>
				<port id="0" precision="FP32">
					<dim>-1</dim>
					<dim>4</dim>
					<dim>-1</dim>
					<dim>-1</dim>
				</port>
				<port id="1" precision="FP32">
					<dim>-1</dim>
					<dim>4</dim>
					<dim>-1</dim>
					<dim>-1</dim>
				</port>
			</input>
			<output>
				<port id="2" precision="FP32" names="/block.2/layer.0/SelfAttention/Add_output_0">
					<dim>-1</dim>
					<dim>4</dim>
					<dim>-1</dim>
					<dim>-1</dim>
				</port>
			</output>
		</layer>
		<layer id="278" name="/block.2/layer.0/SelfAttention/Cast" type="Convert" version="opset1">
			<data destination_type="f32" />
			<rt_info>
				<attribute name="fused_names" version="0" value="/block.2/layer.0/SelfAttention/Cast" />
			</rt_info>
			<input>
				<port id="0" precision="FP32">
					<dim>-1</dim>
					<dim>4</dim>
					<dim>-1</dim>
					<dim>-1</dim>
				</port>
			</input>
			<output>
				<port id="1" precision="FP32" names="/block.2/layer.0/SelfAttention/Cast_output_0">
					<dim>-1</dim>
					<dim>4</dim>
					<dim>-1</dim>
					<dim>-1</dim>
				</port>
			</output>
		</layer>
		<layer id="279" name="/block.2/layer.0/SelfAttention/Softmax" type="SoftMax" version="opset8">
			<data axis="-1" />
			<rt_info>
				<attribute name="fused_names" version="0" value="/block.2/layer.0/SelfAttention/Softmax" />
			</rt_info>
			<input>
				<port id="0" precision="FP32">
					<dim>-1</dim>
					<dim>4</dim>
					<dim>-1</dim>
					<dim>-1</dim>
				</port>
			</input>
			<output>
				<port id="1" precision="FP32" names="/block.2/layer.0/SelfAttention/Softmax_output_0">
					<dim>-1</dim>
					<dim>4</dim>
					<dim>-1</dim>
					<dim>-1</dim>
				</port>
			</output>
		</layer>
		<layer id="280" name="onnx::MatMul_603" type="Const" version="opset1">
			<data element_type="f32" shape="32, 32" offset="201516" size="4096" />
			<rt_info>
				<attribute name="fused_names" version="0" value="onnx::MatMul_603" />
			</rt_info>
			<output>
				<port id="0" precision="FP32" names="onnx::MatMul_603">
					<dim>32</dim>
					<dim>32</dim>
				</port>
			</output>
		</layer>
		<layer id="281" name="/block.2/layer.0/SelfAttention/v/MatMul" type="MatMul" version="opset1">
			<data transpose_a="false" transpose_b="false" />
			<rt_info>
				<attribute name="fused_names" version="0" value="/block.2/layer.0/SelfAttention/v/MatMul" />
			</rt_info>
			<input>
				<port id="0" precision="FP32">
					<dim>-1</dim>
					<dim>-1</dim>
					<dim>32</dim>
				</port>
				<port id="1" precision="FP32">
					<dim>32</dim>
					<dim>32</dim>
				</port>
			</input>
			<output>
				<port id="2" precision="FP32" names="/block.2/layer.0/SelfAttention/v/MatMul_output_0">
					<dim>-1</dim>
					<dim>-1</dim>
					<dim>32</dim>
				</port>
			</output>
		</layer>
		<layer id="282" name="Constant_238" type="Const" version="opset1">
			<data element_type="i64" shape="1" offset="141328" size="8" />
			<rt_info>
				<attribute name="fused_names" version="0" value="Constant_238" />
			</rt_info>
			<output>
				<port id="0" precision="I64" names="onnx::Unsqueeze_319">
					<dim>1</dim>
				</port>
			</output>
		</layer>
		<layer id="283" name="/block.2/layer.0/SelfAttention/Unsqueeze_2" type="Unsqueeze" version="opset1">
			<rt_info>
				<attribute name="fused_names" version="0" value="/block.2/layer.0/SelfAttention/Unsqueeze_2, Constant_238" />
			</rt_info>
			<input>
				<port id="0" precision="I64" />
				<port id="1" precision="I64">
					<dim>1</dim>
				</port>
			</input>
			<output>
				<port id="2" precision="I64" names="/block.2/layer.0/SelfAttention/Unsqueeze_2_output_0">
					<dim>1</dim>
				</port>
			</output>
		</layer>
		<layer id="284" name="/block.2/layer.0/SelfAttention/Constant_7" type="Const" version="opset1">
			<data element_type="i64" shape="1" offset="141312" size="8" />
			<rt_info>
				<attribute name="fused_names" version="0" value="/block.2/layer.0/SelfAttention/Constant_7" />
			</rt_info>
			<output>
				<port id="0" precision="I64" names="/block.2/layer.0/SelfAttention/Constant_7_output_0">
					<dim>1</dim>
				</port>
			</output>
		</layer>
		<layer id="285" name="/block.2/layer.0/SelfAttention/Constant_8" type="Const" version="opset1">
			<data element_type="i64" shape="1" offset="145444" size="8" />
			<rt_info>
				<attribute name="fused_names" version="0" value="/block.2/layer.0/SelfAttention/Constant_8" />
			</rt_info>
			<output>
				<port id="0" precision="I64" names="/block.2/layer.0/SelfAttention/Constant_8_output_0">
					<dim>1</dim>
				</port>
			</output>
		</layer>
		<layer id="286" name="/block.2/layer.0/SelfAttention/Constant_9" type="Const" version="opset1">
			<data element_type="i64" shape="1" offset="145452" size="8" />
			<rt_info>
				<attribute name="fused_names" version="0" value="/block.2/layer.0/SelfAttention/Constant_9" />
			</rt_info>
			<output>
				<port id="0" precision="I64" names="/block.2/layer.0/SelfAttention/Constant_9_output_0">
					<dim>1</dim>
				</port>
			</output>
		</layer>
		<layer id="287" name="/block.2/layer.0/SelfAttention/Concat_2" type="Concat" version="opset1">
			<data axis="0" />
			<rt_info>
				<attribute name="fused_names" version="0" value="/block.2/layer.0/SelfAttention/Concat_2, /block.2/layer.0/SelfAttention/Constant_7, /block.2/layer.0/SelfAttention/Constant_8, /block.2/layer.0/SelfAttention/Constant_9" />
…
				<attribute name="fused_names" version="0" value="/block.4/layer.1/layer_norm/Mul" />
			</rt_info>
			<input>
				<port id="0" precision="FP32">
					<dim>-1</dim>
					<dim>-1</dim>
					<dim>32</dim>
				</port>
				<port id="1" precision="FP32">
					<dim>-1</dim>
					<dim>-1</dim>
					<dim>1</dim>
				</port>
			</input>
			<output>
				<port id="2" precision="FP32" names="/block.4/layer.1/layer_norm/Mul_output_0">
					<dim>-1</dim>
					<dim>-1</dim>
					<dim>32</dim>
				</port>
			</output>
		</layer>
		<layer id="480" name="/block.4/layer.1/layer_norm/Mul_1" type="Multiply" version="opset1">
			<data auto_broadcast="numpy" />
			<rt_info>
				<attribute name="fused_names" version="0" value="/block.4/layer.1/layer_norm/Mul_1" />
			</rt_info>
			<input>
				<port id="0" precision="FP32">
					<dim>32</dim>
				</port>
				<port id="1" precision="FP32">
					<dim>-1</dim>
					<dim>-1</dim>
					<dim>32</dim>
				</port>
			</input>
			<output>
				<port id="2" precision="FP32" names="/block.4/layer.1/layer_norm/Mul_1_output_0">
					<dim>-1</dim>
					<dim>-1</dim>
					<dim>32</dim>
				</port>
			</output>
		</layer>
		<layer id="481" name="onnx::MatMul_641" type="Const" version="opset1">
			<data element_type="f32" shape="32, 37" offset="261420" size="4736" />
			<rt_info>
				<attribute name="fused_names" version="0" value="onnx::MatMul_641" />
			</rt_info>
			<output>
				<port id="0" precision="FP32" names="onnx::MatMul_641">
					<dim>32</dim>
					<dim>37</dim>
				</port>
			</output>
		</layer>
		<layer id="482" name="/block.4/layer.1/DenseReluDense/wi/MatMul" type="MatMul" version="opset1">
			<data transpose_a="false" transpose_b="false" />
			<rt_info>
				<attribute name="fused_names" version="0" value="/block.4/layer.1/DenseReluDense/wi/MatMul" />
			</rt_info>
			<input>
				<port id="0" precision="FP32">
					<dim>-1</dim>
					<dim>-1</dim>
					<dim>32</dim>
				</port>
				<port id="1" precision="FP32">
					<dim>32</dim>
					<dim>37</dim>
				</port>
			</input>
			<output>
				<port id="2" precision="FP32" names="/block.4/layer.1/DenseReluDense/wi/MatMul_output_0">
					<dim>-1</dim>
					<dim>-1</dim>
					<dim>37</dim>
				</port>
			</output>
		</layer>
		<layer id="483" name="/block.4/layer.1/DenseReluDense/act/Relu" type="ReLU" version="opset1">
			<rt_info>
				<attribute name="fused_names" version="0" value="/block.4/layer.1/DenseReluDense/act/Relu" />
			</rt_info>
			<input>
				<port id="0" precision="FP32">
					<dim>-1</dim>
					<dim>-1</dim>
					<dim>37</dim>
				</port>
			</input>
			<output>
				<port id="1" precision="FP32" names="/block.4/layer.1/DenseReluDense/act/Relu_output_0">
					<dim>-1</dim>
					<dim>-1</dim>
					<dim>37</dim>
				</port>
			</output>
		</layer>
		<layer id="484" name="onnx::MatMul_642" type="Const" version="opset1">
			<data element_type="f32" shape="37, 32" offset="266156" size="4736" />
			<rt_info>
				<attribute name="fused_names" version="0" value="onnx::MatMul_642" />
			</rt_info>
			<output>
				<port id="0" precision="FP32" names="onnx::MatMul_642">
					<dim>37</dim>
					<dim>32</dim>
				</port>
			</output>
		</layer>
		<layer id="485" name="/block.4/layer.1/DenseReluDense/wo/MatMul" type="MatMul" version="opset1">
			<data transpose_a="false" transpose_b="false" />
			<rt_info>
				<attribute name="fused_names" version="0" value="/block.4/layer.1/DenseReluDense/wo/MatMul" />
			</rt_info>
			<input>
				<port id="0" precision="FP32">
					<dim>-1</dim>
					<dim>-1</dim>
					<dim>37</dim>
				</port>
				<port id="1" precision="FP32">
					<dim>37</dim>
					<dim>32</dim>
				</port>
			</input>
			<output>
				<port id="2" precision="FP32" names="/block.4/layer.1/DenseReluDense/wo/MatMul_output_0">
					<dim>-1</dim>
					<dim>-1</dim>
					<dim>32</dim>
				</port>
			</output>
		</layer>
		<layer id="486" name="/block.4/layer.1/Add" type="Add" version="opset1">
			<data auto_broadcast="numpy" />
			<rt_info>
				<attribute name="fused_names" version="0" value="/block.4/layer.1/Add" />
			</rt_info>
			<input>
				<port id="0" precision="FP32">
					<dim>-1</dim>
					<dim>-1</dim>
					<dim>32</dim>
				</port>
				<port id="1" precision="FP32">
					<dim>-1</dim>
					<dim>-1</dim>
					<dim>32</dim>
				</port>
			</input>
			<output>
				<port id="2" precision="FP32" names="/block.4/layer.1/Add_output_0">
					<dim>-1</dim>
					<dim>-1</dim>
					<dim>32</dim>
				</port>
			</output>
		</layer>
		<layer id="487" name="/final_layer_norm/Cast" type="Convert" version="opset1">
			<data destination_type="f32" />
			<rt_info>
				<attribute name="fused_names" version="0" value="/final_layer_norm/Cast" />
			</rt_info>
			<input>
				<port id="0" precision="FP32">
					<dim>-1</dim>
					<dim>-1</dim>
					<dim>32</dim>
				</port>
			</input>
			<output>
				<port id="1" precision="FP32" names="/final_layer_norm/Cast_output_0">
					<dim>-1</dim>
					<dim>-1</dim>
					<dim>32</dim>
				</port>
			</output>
		</layer>
		<layer id="488" name="/final_layer_norm/Constant_2" type="Const" version="opset1">
			<data element_type="f32" shape="" offset="141336" size="4" />
			<rt_info>
				<attribute name="fused_names" version="0" value="/final_layer_norm/Constant_2" />
			</rt_info>
			<output>
				<port id="0" precision="FP32" names="/final_layer_norm/Constant_2_output_0" />
			</output>
		</layer>
		<layer id="489" name="/final_layer_norm/Constant" type="Const" version="opset1">
			<data element_type="f32" shape="" offset="141340" size="4" />
			<rt_info>
				<attribute name="fused_names" version="0" value="/final_layer_norm/Constant" />
			</rt_info>
			<output>
				<port id="0" precision="FP32" names="/final_layer_norm/Constant_output_0" />
			</output>
		</layer>
		<layer id="490" name="/final_layer_norm/Pow" type="Power" version="opset1">
			<data auto_broadcast="numpy" />
			<rt_info>
				<attribute name="fused_names" version="0" value="/final_layer_norm/Pow" />
			</rt_info>
			<input>
				<port id="0" precision="FP32">
					<dim>-1</dim>
					<dim>-1</dim>
					<dim>32</dim>
				</port>
				<port id="1" precision="FP32" />
			</input>
			<output>
				<port id="2" precision="FP32" names="/final_layer_norm/Pow_output_0">
					<dim>-1</dim>
					<dim>-1</dim>
					<dim>32</dim>
				</port>
			</output>
		</layer>
		<layer id="491" name="Constant_4658437" type="Const" version="opset1">
			<data element_type="i64" shape="1" offset="141312" size="8" />
			<rt_info>
				<attribute name="fused_names" version="0" value="Constant_4658437" />
			</rt_info>
			<output>
				<port id="0" precision="I64">
					<dim>1</dim>
				</port>
			</output>
		</layer>
		<layer id="492" name="/final_layer_norm/ReduceMean" type="ReduceMean" version="opset1">
			<data keep_dims="true" />
			<rt_info>
				<attribute name="fused_names" version="0" value="/final_layer_norm/ReduceMean" />
			</rt_info>
			<input>
				<port id="0" precision="FP32">
					<dim>-1</dim>
					<dim>-1</dim>
					<dim>32</dim>
				</port>
				<port id="1" precision="I64">
					<dim>1</dim>
				</port>
			</input>
			<output>
				<port id="2" precision="FP32" names="/final_layer_norm/ReduceMean_output_0">
					<dim>-1</dim>
					<dim>-1</dim>
					<dim>1</dim>
				</port>
			</output>
		</layer>
		<layer id="493" name="/final_layer_norm/Constant_1" type="Const" version="opset1">
			<data element_type="f32" shape="" offset="141344" size="4" />
			<rt_info>
				<attribute name="fused_names" version="0" value="/final_layer_norm/Constant_1" />
			</rt_info>
			<output>
				<port id="0" precision="FP32" names="/final_layer_norm/Constant_1_output_0" />
			</output>
		</layer>
		<layer id="494" name="/final_layer_norm/Add" type="Add" version="opset1">
			<data auto_broadcast="numpy" />
			<rt_info>
				<attribute name="fused_names" version="0" value="/final_layer_norm/Add" />
			</rt_info>
			<input>
				<port id="0" precision="FP32">
					<dim>-1</dim>
					<dim>-1</dim>
					<dim>1</dim>
				</port>
				<port id="1" precision="FP32" />
			</input>
			<output>
				<port id="2" precision="FP32" names="/final_layer_norm/Add_output_0">
					<dim>-1</dim>
					<dim>-1</dim>
					<dim>1</dim>
				</port>
			</output>
		</layer>
		<layer id="495" name="/final_layer_norm/Sqrt" type="Sqrt" version="opset1">
			<rt_info>
				<attribute name="fused_names" version="0" value="/final_layer_norm/Sqrt" />
			</rt_info>
			<input>
				<port id="0" precision="FP32">
					<dim>-1</dim>
					<dim>-1</dim>
					<dim>1</dim>
				</port>
			</input>
			<output>
				<port id="1" precision="FP32" names="/final_layer_norm/Sqrt_output_0">
					<dim>-1</dim>
					<dim>-1</dim>
					<dim>1</dim>
				</port>
			</output>
		</layer>
		<layer id="496" name="/final_layer_norm/Div" type="Divide" version="opset1">
			<data auto_broadcast="numpy" m_pythondiv="true" />
			<rt_info>
				<attribute name="fused_names" version="0" value="/final_layer_norm/Div" />
			</rt_info>
			<input>
				<port id="0" precision="FP32" />
				<port id="1" precision="FP32">
					<dim>-1</dim>
					<dim>-1</dim>
					<dim>1</dim>
				</port>
			</input>
			<output>
				<port id="2" precision="FP32" names="/final_layer_norm/Div_output_0">
					<dim>-1</dim>
					<dim>-1</dim>
					<dim>1</dim>
				</port>
			</output>
		</layer>
		<layer id="497" name="/final_layer_norm/Mul" type="Multiply" version="opset1">
			<data auto_broadcast="numpy" />
			<rt_info>
				<attribute name="fused_names" version="0" value="/final_layer_norm/Mul" />
			</rt_info>
			<input>
				<port id="0" precision="FP32">
					<dim>-1</dim>
					<dim>-1</dim>
					<dim>32</dim>
				</port>
				<port id="1" precision="FP32">
					<dim>-1</dim>
					<dim>-1</dim>
					<dim>1</dim>
				</port>
			</input>
			<output>
				<port id="2" precision="FP32" names="/final_layer_norm/Mul_output_0">
					<dim>-1</dim>
					<dim>-1</dim>
					<dim>32</dim>
				</port>
			</output>
		</layer>
		<layer id="498" name="last_hidden_state" type="Multiply" version="opset1">
			<data auto_broadcast="numpy" />
			<rt_info>
				<attribute name="fused_names" version="0" value="last_hidden_state" />
			</rt_info>
			<input>
				<port id="0" precision="FP32">
					<dim>32</dim>
				</port>
				<port id="1" precision="FP32">
					<dim>-1</dim>
					<dim>-1</dim>
					<dim>32</dim>
				</port>
			</input>
			<output>
				<port id="2" precision="FP32" names="last_hidden_state">
					<dim>-1</dim>
					<dim>-1</dim>
					<dim>32</dim>
				</port>
			</output>
		</layer>
		<layer id="499" name="last_hidden_state/sink_port_0" type="Result" version="opset1">
			<rt_info>
				<attribute name="fused_names" version="0" value="last_hidden_state/sink_port_0" />
			</rt_info>
			<input>
				<port id="0" precision="FP32">
					<dim>-1</dim>
					<dim>-1</dim>
					<dim>32</dim>
				</port>
			</input>
		</layer>
	</layers>
	<edges>
		<edge from-layer="0" from-port="0" to-layer="103" to-port="0" />
		<edge from-layer="1" from-port="0" to-layer="12" to-port="0" />
		<edge from-layer="1" from-port="0" to-layer="5" to-port="0" />
		<edge from-layer="2" from-port="0" to-layer="148" to-port="0" />
		<edge from-layer="2" from-port="0" to-layer="166" to-port="0" />
		<edge from-layer="2" from-port="0" to-layer="231" to-port="0" />
		<edge from-layer="2" from-port="0" to-layer="249" to-port="0" />
		<edge from-layer="2" from-port="0" to-layer="26" to-port="0" />
		<edge from-layer="2" from-port="0" to-layer="498" to-port="0" />
		<edge from-layer="2" from-port="0" to-layer="480" to-port="0" />
		<edge from-layer="2" from-port="0" to-layer="415" to-port="0" />
		<edge from-layer="2" from-port="0" to-layer="314" to-port="0" />
		<edge from-layer="2" from-port="0" to-layer="332" to-port="0" />
		<edge from-layer="2" from-port="0" to-layer="397" to-port="0" />
		<edge from-layer="3" from-port="0" to-layer="14" to-port="0" />
		<edge from-layer="4" from-port="0" to-layer="11" to-port="0" />
		<edge from-layer="5" from-port="1" to-layer="8" to-port="0" />
		<edge from-layer="6" from-port="0" to-layer="8" to-port="1" />
		<edge from-layer="7" from-port="0" to-layer="8" to-port="2" />
		<edge from-layer="8" from-port="3" to-layer="10" to-port="0" />
		<edge from-layer="9" from-port="0" to-layer="10" to-port="1" />
		<edge from-layer="10" from-port="2" to-layer="11" to-port="1" />
		<edge from-layer="11" from-port="2" to-layer="12" to-port="1" />
		<edge from-layer="12" from-port="2" to-layer="14" to-port="1" />
		<edge from-layer="13" from-port="0" to-layer="14" to-port="2" />
		<edge from-layer="14" from-port="3" to-layer="15" to-port="0" />
		<edge from-layer="15" from-port="1" to-layer="136" to-port="0" />
		<edge from-layer="15" from-port="1" to-layer="18" to-port="0" />
		<edge from-layer="15" from-port="1" to-layer="25" to-port="0" />
		<edge from-layer="16" from-port="0" to-layer="24" to-port="0" />
		<edge from-layer="17" from-port="0" to-layer="18" to-port="1" />
		<edge from-layer="18" from-port="2" to-layer="20" to-port="0" />
		<edge from-layer="19" from-port="0" to-layer="20" to-port="1" />
		<edge from-layer="20" from-port="2" to-layer="22" to-port="0" />
		<edge from-layer="21" from-port="0" to-layer="22" to-port="1" />
		<edge from-layer="22" from-port="2" to-layer="23" to-port="0" />
		<edge from-layer="23" from-port="1" to-layer="24" to-port="1" />
		<edge from-layer="24" from-port="2" to-layer="25" to-port="1" />
		<edge from-layer="25" from-port="2" to-layer="26" to-port="1" />
		<edge from-layer="26" from-port="2" to-layer="56" to-port="0" />
		<edge from-layer="26" from-port="2" to-layer="43" to-port="0" />
		<edge from-layer="26" from-port="2" to-layer="115" to-port="0" />
		<edge from-layer="26" from-port="2" to-layer="29" to-port="0" />
		<edge from-layer="26" from-port="2" to-layer="28" to-port="0" />
		<edge from-layer="27" from-port="0" to-layer="28" to-port="1" />
		<edge from-layer="28" from-port="2" to-layer="39" to-port="0" />
		<edge from-layer="29" from-port="1" to-layer="32" to-port="0" />
		<edge from-layer="30" from-port="0" to-layer="32" to-port="1" />
		<edge from-layer="31" from-port="0" to-layer="32" to-port="2" />
		<edge from-layer="32" from-port="3" to-layer="129" to-port="0" />
		<edge from-layer="32" from-port="3" to-layer="45" to-port="0" />
		<edge from-layer="32" from-port="3" to-layer="117" to-port="0" />
		<edge from-layer="32" from-port="3" to-layer="34" to-port="0" />
		<edge from-layer="33" from-port="0" to-layer="34" to-port="1" />
		<edge from-layer="34" from-port="2" to-layer="38" to-port="0" />
		<edge from-layer="35" from-port="0" to-layer="38" to-port="1" />
		<edge from-layer="36" from-port="0" to-layer="38" to-port="2" />
		<edge from-layer="37" from-port="0" to-layer="38" to-port="3" />
		<edge from-layer="38" from-port="4" to-layer="39" to-port="1" />
		<edge from-layer="39" from-port="2" to-layer="41" to-port="0" />
		<edge from-layer="40" from-port="0" to-layer="41" to-port="1" />
		<edge from-layer="41" from-port="2" to-layer="53" to-port="0" />
		<edge from-layer="42" from-port="0" to-layer="43" to-port="1" />
		<edge from-layer="43" from-port="2" to-layer="50" to-port="0" />
		<edge from-layer="44" from-port="0" to-layer="45" to-port="1" />
		<edge from-layer="45" from-port="2" to-layer="49" to-port="0" />
		<edge from-layer="46" from-port="0" to-layer="49" to-port="1" />
		<edge from-layer="47" from-port="0" to-layer="49" to-port="2" />
		<edge from-layer="48" from-port="0" to-layer="49" to-port="3" />
		<edge from-layer="49" from-port="4" to-layer="50" to-port="1" />
		<edge from-layer="50" from-port="2" to-layer="52" to-port="0" />
		<edge from-layer="51" from-port="0" to-layer="52" to-port="1" />
		<edge from-layer="52" from-port="2" to-layer="53" to-port="1" />
		<edge from-layer="53" from-port="2" to-layer="111" to-port="0" />
		<edge from-layer="54" from-port="0" to-layer="96" to-port="0" />
		<edge from-layer="55" from-port="0" to-layer="62" to-port="0" />
		<edge from-layer="56" from-port="1" to-layer="59" to-port="0" />
		<edge from-layer="57" from-port="0" to-layer="59" to-port="1" />
		<edge from-layer="58" from-port="0" to-layer="59" to-port="2" />
		<edge from-layer="59" from-port="3" to-layer="60" to-port="0" />
		<edge from-layer="60" from-port="1" to-layer="62" to-port="1" />
		<edge from-layer="61" from-port="0" to-layer="62" to-port="2" />
		<edge from-layer="62" from-port="3" to-layer="64" to-port="0" />
		<edge from-layer="62" from-port="3" to-layer="66" to-port="0" />
		<edge from-layer="63" from-port="0" to-layer="64" to-port="1" />
		<edge from-layer="64" from-port="2" to-layer="67" to-port="0" />
		<edge from-layer="65" from-port="0" to-layer="66" to-port="1" />
		<edge from-layer="66" from-port="2" to-layer="67" to-port="1" />
		<edge from-layer="67" from-port="2" to-layer="75" to-port="0" />
		<edge from-layer="67" from-port="2" to-layer="69" to-port="0" />
		<edge from-layer="68" from-port="0" to-layer="69" to-port="1" />
		<edge from-layer="69" from-port="2" to-layer="70" to-port="0" />
		<edge from-layer="70" from-port="1" to-layer="72" to-port="0" />
		<edge from-layer="71" from-port="0" to-layer="72" to-port="1" />
		<edge from-layer="72" from-port="2" to-layer="74" to-port="0" />
		<edge from-layer="73" from-port="0" to-layer="74" to-port="1" />
		<edge from-layer="74" from-port="2" to-layer="94" to-port="0" />
		<edge from-layer="75" from-port="1" to-layer="93" to-port="1" />
		<edge from-layer="75" from-port="1" to-layer="77" to-port="0" />
		<edge from-layer="75" from-port="1" to-layer="78" to-port="0" />
		<edge from-layer="76" from-port="0" to-layer="77" to-port="1" />
		<edge from-layer="77" from-port="2" to-layer="93" to-port="0" />
		<edge from-layer="78" from-port="1" to-layer="80" to-port="0" />
		<edge from-layer="79" from-port="0" to-layer="80" to-port="1" />
		<edge from-layer="80" from-port="2" to-layer="81" to-port="0" />
		<edge from-layer="81" from-port="1" to-layer="83" to-port="0" />
		<edge from-layer="82" from-port="0" to-layer="83" to-port="1" />
		<edge from-layer="83" from-port="2" to-layer="85" to-port="0" />
		<edge from-layer="84" from-port="0" to-layer="85" to-port="1" />
		<edge from-layer="85" from-port="2" to-layer="86" to-port="0" />
		<edge from-layer="86" from-port="1" to-layer="88" to-port="0" />
		<edge from-layer="87" from-port="0" to-layer="88" to-port="1" />
		<edge from-layer="88" from-port="2" to-layer="92" to-port="0" />
		<edge from-layer="88" from-port="2" to-layer="90" to-port="0" />
		<edge from-layer="89" from-port="0" to-layer="91" to-port="0" />
		<edge from-layer="90" from-port="1" to-layer="91" to-port="1" />
		<edge from-layer="91" from-port="2" to-layer="92" to-port="1" />
		<edge from-layer="92" from-port="2" to-layer="93" to-port="2" />
		<edge from-layer="93" from-port="3" to-layer="94" to-port="1" />
		<edge from-layer="94" from-port="2" to-layer="96" to-port="1" />
		<edge from-layer="95" from-port="0" to-layer="96" to-port="2" />
		<edge from-layer="96" from-port="3" to-layer="98" to-port="0" />
		<edge from-layer="97" from-port="0" to-layer="98" to-port="1" />
		<edge from-layer="98" from-port="2" to-layer="100" to-port="0" />
		<edge from-layer="99" from-port="0" to-layer="100" to-port="1" />
		<edge from-layer="100" from-port="2" to-layer="110" to-port="0" />
		<edge from-layer="101" from-port="0" to-layer="107" to-port="0" />
		<edge from-layer="102" from-port="0" to-layer="103" to-port="1" />
		<edge from-layer="103" from-port="2" to-layer="105" to-port="0" />
		<edge from-layer="104" from-port="0" to-layer="105" to-port="1" />
		<edge from-layer="105" from-port="2" to-layer="106" to-port="0" />
		<edge from-layer="106" from-port="1" to-layer="107" to-port="1" />
		<edge from-layer="107" from-port="2" to-layer="109" to-port="0" />
		<edge from-layer="108" from-port="0" to-layer="109" to-port="1" />
		<edge from-layer="109" from-port="2" to-layer="110" to-port="1" />
		<edge from-layer="110" from-port="2" to-layer="277" to-port="1" />
		<edge from-layer="110" from-port="2" to-layer="194" to-port="1" />
		<edge from-layer="110" from-port="2" to-layer="111" to-port="1" />
		<edge from-layer="110" from-port="2" to-layer="360" to-port="1" />
		<edge from-layer="110" from-port="2" to-layer="443" to-port="1" />
		<edge from-layer="111" from-port="2" to-layer="112" to-port="0" />
		<edge from-layer="112" from-port="1" to-layer="113" to-port="0" />
		<edge from-layer="113" from-port="1" to-layer="125" to-port="0" />
		<edge from-layer="114" from-port="0" to-layer="115" to-port="1" />
		<edge from-layer="115" from-port="2" to-layer="122" to-port="0" />
		<edge from-layer="116" from-port="0" to-layer="117" to-port="1" />
		<edge from-layer="117" from-port="2" to-layer="121" to-port="0" />
		<edge from-layer="118" from-port="0" to-layer="121" to-port="1" />
		<edge from-layer="119" from-port="0" to-layer="121" to-port="2" />
		<edge from-layer="120" from-port="0" to-layer="121" to-port="3" />
		<edge from-layer="121" from-port="4" to-layer="122" to-port="1" />
		<edge from-layer="122" from-port="2" to-layer="124" to-port="0" />
		<edge from-layer="123" from-port="0" to-layer="124" to-port="1" />
		<edge from-layer="124" from-port="2" to-layer="125" to-port="1" />
		<edge from-layer="125" from-port="2" to-layer="127" to-port="0" />
		<edge from-layer="126" from-port="0" to-layer="127" to-port="1" />
		<edge from-layer="127" from-port="2" to-layer="133" to-port="0" />
		<edge from-layer="128" from-port="0" to-layer="129" to-port="1" />
		<edge from-layer="129" from-port="2" to-layer="132" to-port="0" />
		<edge from-layer="130" from-port="0" to-layer="132" to-port="1" />
		<edge from-layer="131" from-port="0" to-layer="132" to-port="2" />
		<edge from-layer="132" from-port="3" to-layer="133" to-port="1" />
		<edge from-layer="133" from-port="2" to-layer="135" to-port="0" />
		<edge from-layer="134" from-port="0" to-layer="135" to-port="1" />
		<edge from-layer="135" from-port="2" to-layer="136" to-port="1" />
		<edge from-layer="136" from-port="2" to-layer="137" to-port="0" />
		<edge from-layer="137" from-port="1" to-layer="140" to-port="0" />
		<edge from-layer="137" from-port="1" to-layer="154" to-port="0" />
		<edge from-layer="137" from-port="1" to-layer="147" to-port="0" />
		<edge from-layer="138" from-port="0" to-layer="146" to-port="0" />
		<edge from-layer="139" from-port="0" to-layer="140" to-port="1" />
		<edge from-layer="140" from-port="2" to-layer="142" to-port="0" />
		<edge from-layer="141" from-port="0" to-layer="142" to-port="1" />
		<edge from-layer="142" from-port="2" to-layer="144" to-port="0" />
		<edge from-layer="143" from-port="0" to-layer="144" to-port="1" />
		<edge from-layer="144" from-port="2" to-layer="145" to-port="0" />
		<edge from-layer="145" from-port="1" to-layer="146" to-port="1" />
		<edge from-layer="146" from-port="2" to-layer="147" to-port="1" />
		<edge from-layer="147" from-port="2" to-layer="148" to-port="1" />
		<edge from-layer="148" from-port="2" to-layer="150" to-port="0" />
		<edge from-layer="149" from-port="0" to-layer="150" to-port="1" />
		<edge from-layer="150" from-port="2" to-layer="151" to-port="0" />
		<edge from-layer="151" from-port="1" to-layer="153" to-port="0" />
		<edge from-layer="152" from-port="0" to-layer="153" to-port="1" />
		<edge from-layer="153" from-port="2" to-layer="154" to-port="1" />
		<edge from-layer="154" from-port="2" to-layer="155" to-port="0" />
		<edge from-layer="155" from-port="1" to-layer="165" to-port="0" />
		<edge from-layer="155" from-port="1" to-layer="219" to-port="0" />
		<edge from-layer="155" from-port="1" to-layer="158" to-port="0" />
		<edge from-layer="156" from-port="0" to-layer="164" to-port="0" />
		<edge from-layer="157" from-port="0" to-layer="158" to-port="1" />
		<edge from-layer="158" from-port="2" to-layer="160" to-port="0" />
		<edge from-layer="159" from-port="0" to-layer="160" to-port="1" />
		<edge from-layer="160" from-port="2" to-layer="162" to-port="0" />
		<edge from-layer="161" from-port="0" to-layer="162" to-port="1" />
		<edge from-layer="162" from-port="2" to-layer="163" to-port="0" />
		<edge from-layer="163" from-port="1" to-layer="164" to-port="1" />
		<edge from-layer="164" from-port="2" to-layer="165" to-port="1" />
		<edge from-layer="165" from-port="2" to-layer="166" to-port="1" />
		<edge from-layer="166" from-port="2" to-layer="198" to-port="0" />
		<edge from-layer="166" from-port="2" to-layer="168" to-port="0" />
		<edge from-layer="166" from-port="2" to-layer="183" to-port="0" />
		<edge from-layer="166" from-port="2" to-layer="169" to-port="0" />
		<edge from-layer="167" from-port="0" to-layer="168" to-port="1" />
		<edge from-layer="168" from-port="2" to-layer="179" to-port="0" />
		<edge from-layer="169" from-port="1" to-layer="172" to-port="0" />
		<edge from-layer="170" from-port="0" to-layer="172" to-port="1" />
		<edge from-layer="171" from-port="0" to-layer="172" to-port="2" />
		<edge from-layer="172" from-port="3" to-layer="200" to-port="0" />
		<edge from-layer="172" from-port="3" to-layer="185" to-port="0" />
		<edge from-layer="172" from-port="3" to-layer="174" to-port="0" />
		<edge from-layer="172" from-port="3" to-layer="212" to-port="0" />
		<edge from-layer="173" from-port="0" to-layer="174" to-port="1" />
		<edge from-layer="174" from-port="2" to-layer="178" to-port="0" />
		<edge from-layer="175" from-port="0" to-layer="178" to-port="1" />
		<edge from-layer="176" from-port="0" to-layer="178" to-port="2" />
		<edge from-layer="177" from-port="0" to-layer="178" to-port="3" />
		<edge from-layer="178" from-port="4" to-layer="179" to-port="1" />
		<edge from-layer="179" from-port="2" to-layer="181" to-port="0" />
		<edge from-layer="180" from-port="0" to-layer="181" to-port="1" />
		<edge from-layer="181" from-port="2" to-layer="193" to-port="0" />
		<edge from-layer="182" from-port="0" to-layer="183" to-port="1" />
		<edge from-layer="183" from-port="2" to-layer="190" to-port="0" />
		<edge from-layer="184" from-port="0" to-layer="185" to-port="1" />
		<edge from-layer="185" from-port="2" to-layer="189" to-port="0" />
		<edge from-layer="186" from-port="0" to-layer="189" to-port="1" />
		<edge from-layer="187" from-port="0" to-layer="189" to-port="2" />
		<edge from-layer="188" from-port="0" to-layer="189" to-port="3" />
		<edge from-layer="189" from-port="4" to-layer="190" to-port="1" />
		<edge from-layer="190" from-port="2" to-layer="192" to-port="0" />
		<edge from-layer="191" from-port="0" to-layer="192" to-port="1" />
		<edge from-layer="192" from-port="2" to-layer="193" to-port="1" />
		<edge from-layer="193" from-port="2" to-layer="194" to-port="0" />
		<edge from-layer="194" from-port="2" to-layer="195" to-port="0" />
		<edge from-layer="195" from-port="1" to-layer="196" to-port="0" />
		<edge from-layer="196" from-port="1" to-layer="208" to-port="0" />
		<edge from-layer="197" from-port="0" to-layer="198" to-port="1" />
		<edge from-layer="198" from-port="2" to-layer="205" to-port="0" />
		<edge from-layer="199" from-port="0" to-layer="200" to-port="1" />
		<edge from-layer="200" from-port="2" to-layer="204" to-port="0" />
		<edge from-layer="201" from-port="0" to-layer="204" to-port="1" />
		<edge from-layer="202" from-port="0" to-layer="204" to-port="2" />
		<edge from-layer="203" from-port="0" to-layer="204" to-port="3" />
		<edge from-layer="204" from-port="4" to-layer="205" to-port="1" />
		<edge from-layer="205" from-port="2" to-layer="207" to-port="0" />
		<edge from-layer="206" from-port="0" to-layer="207" to-port="1" />
		<edge from-layer="207" from-port="2" to-layer="208" to-port="1" />
		<edge from-layer="208" from-port="2" to-layer="210" to-port="0" />
		<edge from-layer="209" from-port="0" to-layer="210" to-port="1" />
		<edge from-layer="210" from-port="2" to-layer="216" to-port="0" />
		<edge from-layer="211" from-port="0" to-layer="212" to-port="1" />
		<edge from-layer="212" from-port="2" to-layer="215" to-port="0" />
		<edge from-layer="213" from-port="0" to-layer="215" to-port="1" />
		<edge from-layer="214" from-port="0" to-layer="215" to-port="2" />
		<edge from-layer="215" from-port="3" to-layer="216" to-port="1" />
		<edge from-layer="216" from-port="2" to-layer="218" to-port="0" />
		<edge from-layer="217" from-port="0" to-layer="218" to-port="1" />
		<edge from-layer="218" from-port="2" to-layer="219" to-port="1" />
		<edge from-layer="219" from-port="2" to-layer="220" to-port="0" />
		<edge from-layer="220" from-port="1" to-layer="223" to-port="0" />
		<edge from-layer="220" from-port="1" to-layer="230" to-port="0" />
		<edge from-layer="220" from-port="1" to-layer="237" to-port="0" />
		<edge from-layer="221" from-port="0" to-layer="229" to-port="0" />
		<edge from-layer="222" from-port="0" to-layer="223" to-port="1" />
		<edge from-layer="223" from-port="2" to-layer="225" to-port="0" />
		<edge from-layer="224" from-port="0" to-layer="225" to-port="1" />
		<edge from-layer="225" from-port="2" to-layer="227" to-port="0" />
		<edge from-layer="226" from-port="0" to-layer="227" to-port="1" />
		<edge from-layer="227" from-port="2" to-layer="228" to-port="0" />
		<edge from-layer="228" from-port="1" to-layer="229" to-port="1" />
		<edge from-layer="229" from-port="2" to-layer="230" to-port="1" />
		<edge from-layer="230" from-port="2" to-layer="231" to-port="1" />
		<edge from-layer="231" from-port="2" to-layer="233" to-port="0" />
		<edge from-layer="232" from-port="0" to-layer="233" to-port="1" />
		<edge from-layer="233" from-port="2" to-layer="234" to-port="0" />
		<edge from-layer="234" from-port="1" to-layer="236" to-port="0" />
		<edge from-layer="235" from-port="0" to-layer="236" to-port="1" />
		<edge from-layer="236" from-port="2" to-layer="237" to-port="1" />
		<edge from-layer="237" from-port="2" to-layer="238" to-port="0" />
		<edge from-layer="238" from-port="1" to-layer="241" to-port="0" />
		<edge from-layer="238" from-port="1" to-layer="248" to-port="0" />
		<edge from-layer="238" from-port="1" to-layer="302" to-port="0" />
		<edge from-layer="239" from-port="0" to-layer="247" to-port="0" />
		<edge from-layer="240" from-port="0" to-layer="241" to-port="1" />
		<edge from-layer="241" from-port="2" to-layer="243" to-port="0" />
		<edge from-layer="242" from-port="0" to-layer="243" to-port="1" />
		<edge from-layer="243" from-port="2" to-layer="245" to-port="0" />
		<edge from-layer="244" from-port="0" to-layer="245" to-port="1" />
		<edge from-layer="245" from-port="2" to-layer="246" to-port="0" />
		<edge from-layer="246" from-port="1" to-layer="247" to-port="1" />
		<edge from-layer="247" from-port="2" to-layer="248" to-port="1" />
		<edge from-layer="248" from-port="2" to-layer="249" to-port="1" />
		<edge from-layer="249" from-port="2" to-layer="252" to-port="0" />
		<edge from-layer="249" from-port="2" to-layer="251" to-port="0" />
		<edge from-layer="249" from-port="2" to-layer="281" to-port="0" />
		<edge from-layer="249" from-port="2" to-layer="266" to-port="0" />
		<edge from-layer="250" from-port="0" to-layer="251" to-port="1" />
		<edge from-layer="251" from-port="2" to-layer="262" to-port="0" />
		<edge from-layer="252" from-port="1" to-layer="255" to-port="0" />
		<edge from-layer="253" from-port="0" to-layer="255" to-port="1" />
		<edge from-layer="254" from-port="0" to-layer="255" to-port="2" />
		<edge from-layer="255" from-port="3" to-layer="268" to-port="0" />
		<edge from-layer="255" from-port="3" to-layer="257" to-port="0" />
		<edge from-layer="255" from-port="3" to-layer="295" to-port="0" />
		<edge from-layer="255" from-port="3" to-layer="283" to-port="0" />
		<edge from-layer="256" from-port="0" to-layer="257" to-port="1" />
		<edge from-layer="257" from-port="2" to-layer="261" to-port="0" />
		<edge from-layer="258" from-port="0" to-layer="261" to-port="1" />
		<edge from-layer="259" from-port="0" to-layer="261" to-port="2" />
		<edge from-layer="260" from-port="0" to-layer="261" to-port="3" />
		<edge from-layer="261" from-port="4" to-layer="262" to-port="1" />
		<edge from-layer="262" from-port="2" to-layer="264" to-port="0" />
		<edge from-layer="263" from-port="0" to-layer="264" to-port="1" />
		<edge from-layer="264" from-port="2" to-layer="276" to-port="0" />
		<edge from-layer="265" from-port="0" to-layer="266" to-port="1" />
		<edge from-layer="266" from-port="2" to-layer="273" to-port="0" />
		<edge from-layer="267" from-port="0" to-layer="268" to-port="1" />
		<edge from-layer="268" from-port="2" to-layer="272" to-port="0" />
		<edge from-layer="269" from-port="0" to-layer="272" to-port="1" />
		<edge from-layer="270" from-port="0" to-layer="272" to-port="2" />
		<edge from-layer="271" from-port="0" to-layer="272" to-port="3" />
		<edge from-layer="272" from-port="4" to-layer="273" to-port="1" />
		<edge from-layer="273" from-port="2" to-layer="275" to-port="0" />
		<edge from-layer="274" from-port="0" to-layer="275" to-port="1" />
		<edge from-layer="275" from-port="2" to-layer="276" to-port="1" />
		<edge from-layer="276" from-port="2" to-layer="277" to-port="0" />
		<edge from-layer="277" from-port="2" to-layer="278" to-port="0" />
		<edge from-layer="278" from-port="1" to-layer="279" to-port="0" />
		<edge from-layer="279" from-port="1" to-layer="291" to-port="0" />
		<edge from-layer="280" from-port="0" to-layer="281" to-port="1" />
		<edge from-layer="281" from-port="2" to-layer="288" to-port="0" />
		<edge from-layer="282" from-port="0" to-layer="283" to-port="1" />
		<edge from-layer="283" from-port="2" to-layer="287" to-port="0" />
		<edge from-layer="284" from-port="0" to-layer="287" to-port="1" />
		<edge from-layer="285" from-port="0" to-layer="287" to-port="2" />
		<edge from-layer="286" from-port="0" to-layer="287" to-port="3" />
		<edge from-layer="287" from-port="4" to-layer="288" to-port="1" />
		<edge from-layer="288" from-port="2" to-layer="290" to-port="0" />
		<edge from-layer="289" from-port="0" to-layer="290" to-port="1" />
		<edge from-layer="290" from-port="2" to-layer="291" to-port="1" />
		<edge from-layer="291" from-port="2" to-layer="293" to-port="0" />
		<edge from-layer="292" from-port="0" to-layer="293" to-port="1" />
		<edge from-layer="293" from-port="2" to-layer="299" to-port="0" />
		<edge from-layer="294" from-port="0" to-layer="295" to-port="1" />
		<edge from-layer="295" from-port="2" to-layer="298" to-port="0" />
		<edge from-layer="296" from-port="0" to-layer="298" to-port="1" />
		<edge from-layer="297" from-port="0" to-layer="298" to-port="2" />
		<edge from-layer="298" from-port="3" to-layer="299" to-port="1" />
		<edge from-layer="299" from-port="2" to-layer="301" to-port="0" />
		<edge from-layer="300" from-port="0" to-layer="301" to-port="1" />
		<edge from-layer="301" from-port="2" to-layer="302" to-port="1" />
		<edge from-layer="302" from-port="2" to-layer="303" to-port="0" />
		<edge from-layer="303" from-port="1" to-layer="320" to-port="0" />
		<edge from-layer="303" from-port="1" to-layer="313" to-port="0" />
		<edge from-layer="303" from-port="1" to-layer="306" to-port="0" />
		<edge from-layer="304" from-port="0" to-layer="312" to-port="0" />
		<edge from-layer="305" from-port="0" to-layer="306" to-port="1" />
		<edge from-layer="306" from-port="2" to-layer="308" to-port="0" />
		<edge from-layer="307" from-port="0" to-layer="308" to-port="1" />
		<edge from-layer="308" from-port="2" to-layer="310" to-port="0" />
		<edge from-layer="309" from-port="0" to-layer="310" to-port="1" />
		<edge from-layer="310" from-port="2" to-layer="311" to-port="0" />
		<edge from-layer="311" from-port="1" to-layer="312" to-port="1" />
		<edge from-layer="312" from-port="2" to-layer="313" to-port="1" />
		<edge from-layer="313" from-port="2" to-layer="314" to-port="1" />
		<edge from-layer="314" from-port="2" to-layer="316" to-port="0" />
		<edge from-layer="315" from-port="0" to-layer="316" to-port="1" />
		<edge from-layer="316" from-port="2" to-layer="317" to-port="0" />
		<edge from-layer="317" from-port="1" to-layer="319" to-port="0" />
		<edge from-layer="318" from-port="0" to-layer="319" to-port="1" />
		<edge from-layer="319" from-port="2" to-layer="320" to-port="1" />
		<edge from-layer="320" from-port="2" to-layer="321" to-port="0" />
		<edge from-layer="321" from-port="1" to-layer="385" to-port="0" />
		<edge from-layer="321" from-port="1" to-layer="331" to-port="0" />
		<edge from-layer="321" from-port="1" to-layer="324" to-port="0" />
		<edge from-layer="322" from-port="0" to-layer="330" to-port="0" />
		<edge from-layer="323" from-port="0" to-layer="324" to-port="1" />
		<edge from-layer="324" from-port="2" to-layer="326" to-port="0" />
		<edge from-layer="325" from-port="0" to-layer="326" to-port="1" />
		<edge from-layer="326" from-port="2" to-layer="328" to-port="0" />
		<edge from-layer="327" from-port="0" to-layer="328" to-port="1" />
		<edge from-layer="328" from-port="2" to-layer="329" to-port="0" />
		<edge from-layer="329" from-port="1" to-layer="330" to-port="1" />
		<edge from-layer="330" from-port="2" to-layer="331" to-port="1" />
		<edge from-layer="331" from-port="2" to-layer="332" to-port="1" />
		<edge from-layer="332" from-port="2" to-layer="335" to-port="0" />
		<edge from-layer="332" from-port="2" to-layer="364" to-port="0" />
		<edge from-layer="332" from-port="2" to-layer="334" to-port="0" />
		<edge from-layer="332" from-port="2" to-layer="349" to-port="0" />
		<edge from-layer="333" from-port="0" to-layer="334" to-port="1" />
		<edge from-layer="334" from-port="2" to-layer="345" to-port="0" />
		<edge from-layer="335" from-port="1" to-layer="338" to-port="0" />
		<edge from-layer="336" from-port="0" to-layer="338" to-port="1" />
		<edge from-layer="337" from-port="0" to-layer="338" to-port="2" />
		<edge from-layer="338" from-port="3" to-layer="366" to-port="0" />
		<edge from-layer="338" from-port="3" to-layer="378" to-port="0" />
		<edge from-layer="338" from-port="3" to-layer="351" to-port="0" />
		<edge from-layer="338" from-port="3" to-layer="340" to-port="0" />
		<edge from-layer="339" from-port="0" to-layer="340" to-port="1" />
		<edge from-layer="340" from-port="2" to-layer="344" to-port="0" />
		<edge from-layer="341" from-port="0" to-layer="344" to-port="1" />
		<edge from-layer="342" from-port="0" to-layer="344" to-port="2" />
		<edge from-layer="343" from-port="0" to-layer="344" to-port="3" />
		<edge from-layer="344" from-port="4" to-layer="345" to-port="1" />
		<edge from-layer="345" from-port="2" to-layer="347" to-port="0" />
		<edge from-layer="346" from-port="0" to-layer="347" to-port="1" />
		<edge from-layer="347" from-port="2" to-layer="359" to-port="0" />
		<edge from-layer="348" from-port="0" to-layer="349" to-port="1" />
		<edge from-layer="349" from-port="2" to-layer="356" to-port="0" />
		<edge from-layer="350" from-port="0" to-layer="351" to-port="1" />
		<edge from-layer="351" from-port="2" to-layer="355" to-port="0" />
		<edge from-layer="352" from-port="0" to-layer="355" to-port="1" />
		<edge from-layer="353" from-port="0" to-layer="355" to-port="2" />
		<edge from-layer="354" from-port="0" to-layer="355" to-port="3" />
		<edge from-layer="355" from-port="4" to-layer="356" to-port="1" />
		<edge from-layer="356" from-port="2" to-layer="358" to-port="0" />
		<edge from-layer="357" from-port="0" to-layer="358" to-port="1" />
		<edge from-layer="358" from-port="2" to-layer="359" to-port="1" />
		<edge from-layer="359" from-port="2" to-layer="360" to-port="0" />
		<edge from-layer="360" from-port="2" to-layer="361" to-port="0" />
		<edge from-layer="361" from-port="1" to-layer="362" to-port="0" />
		<edge from-layer="362" from-port="1" to-layer="374" to-port="0" />
		<edge from-layer="363" from-port="0" to-layer="364" to-port="1" />
		<edge from-layer="364" from-port="2" to-layer="371" to-port="0" />
		<edge from-layer="365" from-port="0" to-layer="366" to-port="1" />
		<edge from-layer="366" from-port="2" to-layer="370" to-port="0" />
		<edge from-layer="367" from-port="0" to-layer="370" to-port="1" />
		<edge from-layer="368" from-port="0" to-layer="370" to-port="2" />
		<edge from-layer="369" from-port="0" to-layer="370" to-port="3" />
		<edge from-layer="370" from-port="4" to-layer="371" to-port="1" />
		<edge from-layer="371" from-port="2" to-layer="373" to-port="0" />
		<edge from-layer="372" from-port="0" to-layer="373" to-port="1" />
		<edge from-layer="373" from-port="2" to-layer="374" to-port="1" />
		<edge from-layer="374" from-port="2" to-layer="376" to-port="0" />
		<edge from-layer="375" from-port="0" to-layer="376" to-port="1" />
		<edge from-layer="376" from-port="2" to-layer="382" to-port="0" />
		<edge from-layer="377" from-port="0" to-layer="378" to-port="1" />
		<edge from-layer="378" from-port="2" to-layer="381" to-port="0" />
		<edge from-layer="379" from-port="0" to-layer="381" to-port="1" />
		<edge from-layer="380" from-port="0" to-layer="381" to-port="2" />
		<edge from-layer="381" from-port="3" to-layer="382" to-port="1" />
		<edge from-layer="382" from-port="2" to-layer="384" to-port="0" />
		<edge from-layer="383" from-port="0" to-layer="384" to-port="1" />
		<edge from-layer="384" from-port="2" to-layer="385" to-port="1" />
		<edge from-layer="385" from-port="2" to-layer="386" to-port="0" />
		<edge from-layer="386" from-port="1" to-layer="403" to-port="0" />
		<edge from-layer="386" from-port="1" to-layer="396" to-port="0" />
		<edge from-layer="386" from-port="1" to-layer="389" to-port="0" />
		<edge from-layer="387" from-port="0" to-layer="395" to-port="0" />
		<edge from-layer="388" from-port="0" to-layer="389" to-port="1" />
		<edge from-layer="389" from-port="2" to-layer="391" to-port="0" />
		<edge from-layer="390" from-port="0" to-layer="391" to-port="1" />
		<edge from-layer="391" from-port="2" to-layer="393" to-port="0" />
		<edge from-layer="392" from-port="0" to-layer="393" to-port="1" />
		<edge from-layer="393" from-port="2" to-layer="394" to-port="0" />
		<edge from-layer="394" from-port="1" to-layer="395" to-port="1" />
		<edge from-layer="395" from-port="2" to-layer="396" to-port="1" />
		<edge from-layer="396" from-port="2" to-layer="397" to-port="1" />
		<edge from-layer="397" from-port="2" to-layer="399" to-port="0" />
		<edge from-layer="398" from-port="0" to-layer="399" to-port="1" />
		<edge from-layer="399" from-port="2" to-layer="400" to-port="0" />
		<edge from-layer="400" from-port="1" to-layer="402" to-port="0" />
		<edge from-layer="401" from-port="0" to-layer="402" to-port="1" />
		<edge from-layer="402" from-port="2" to-layer="403" to-port="1" />
		<edge from-layer="403" from-port="2" to-layer="404" to-port="0" />
		<edge from-layer="404" from-port="1" to-layer="407" to-port="0" />
		<edge from-layer="404" from-port="1" to-layer="468" to-port="0" />
		<edge from-layer="404" from-port="1" to-layer="414" to-port="0" />
		<edge from-layer="405" from-port="0" to-layer="413" to-port="0" />
		<edge from-layer="406" from-port="0" to-layer="407" to-port="1" />
		<edge from-layer="407" from-port="2" to-layer="409" to-port="0" />
		<edge from-layer="408" from-port="0" to-layer="409" to-port="1" />
		<edge from-layer="409" from-port="2" to-layer="411" to-port="0" />
		<edge from-layer="410" from-port="0" to-layer="411" to-port="1" />
		<edge from-layer="411" from-port="2" to-layer="412" to-port="0" />
		<edge from-layer="412" from-port="1" to-layer="413" to-port="1" />
		<edge from-layer="413" from-port="2" to-layer="414" to-port="1" />
		<edge from-layer="414" from-port="2" to-layer="415" to-port="1" />
		<edge from-layer="415" from-port="2" to-layer="417" to-port="0" />
		<edge from-layer="415" from-port="2" to-layer="418" to-port="0" />
		<edge from-layer="415" from-port="2" to-layer="447" to-port="0" />
		<edge from-layer="415" from-port="2" to-layer="432" to-port="0" />
		<edge from-layer="416" from-port="0" to-layer="417" to-port="1" />
		<edge from-layer="417" from-port="2" to-layer="428" to-port="0" />
		<edge from-layer="418" from-port="1" to-layer="421" to-port="0" />
		<edge from-layer="419" from-port="0" to-layer="421" to-port="1" />
		<edge from-layer="420" from-port="0" to-layer="421" to-port="2" />
		<edge from-layer="421" from-port="3" to-layer="461" to-port="0" />
		<edge from-layer="421" from-port="3" to-layer="449" to-port="0" />
		<edge from-layer="421" from-port="3" to-layer="423" to-port="0" />
		<edge from-layer="421" from-port="3" to-layer="434" to-port="0" />
		<edge from-layer="422" from-port="0" to-layer="423" to-port="1" />
		<edge from-layer="423" from-port="2" to-layer="427" to-port="0" />
		<edge from-layer="424" from-port="0" to-layer="427" to-port="1" />
		<edge from-layer="425" from-port="0" to-layer="427" to-port="2" />
		<edge from-layer="426" from-port="0" to-layer="427" to-port="3" />
		<edge from-layer="427" from-port="4" to-layer="428" to-port="1" />
		<edge from-layer="428" from-port="2" to-layer="430" to-port="0" />
		<edge from-layer="429" from-port="0" to-layer="430" to-port="1" />
		<edge from-layer="430" from-port="2" to-layer="442" to-port="0" />
		<edge from-layer="431" from-port="0" to-layer="432" to-port="1" />
		<edge from-layer="432" from-port="2" to-layer="439" to-port="0" />
		<edge from-layer="433" from-port="0" to-layer="434" to-port="1" />
		<edge from-layer="434" from-port="2" to-layer="438" to-port="0" />
		<edge from-layer="435" from-port="0" to-layer="438" to-port="1" />
		<edge from-layer="436" from-port="0" to-layer="438" to-port="2" />
		<edge from-layer="437" from-port="0" to-layer="438" to-port="3" />
		<edge from-layer="438" from-port="4" to-layer="439" to-port="1" />
		<edge from-layer="439" from-port="2" to-layer="441" to-port="0" />
		<edge from-layer="440" from-port="0" to-layer="441" to-port="1" />
		<edge from-layer="441" from-port="2" to-layer="442" to-port="1" />
		<edge from-layer="442" from-port="2" to-layer="443" to-port="0" />
		<edge from-layer="443" from-port="2" to-layer="444" to-port="0" />
		<edge from-layer="444" from-port="1" to-layer="445" to-port="0" />
		<edge from-layer="445" from-port="1" to-layer="457" to-port="0" />
		<edge from-layer="446" from-port="0" to-layer="447" to-port="1" />
		<edge from-layer="447" from-port="2" to-layer="454" to-port="0" />
		<edge from-layer="448" from-port="0" to-layer="449" to-port="1" />
		<edge from-layer="449" from-port="2" to-layer="453" to-port="0" />
		<edge from-layer="450" from-port="0" to-layer="453" to-port="1" />
		<edge from-layer="451" from-port="0" to-layer="453" to-port="2" />
		<edge from-layer="452" from-port="0" to-layer="453" to-port="3" />
		<edge from-layer="453" from-port="4" to-layer="454" to-port="1" />
		<edge from-layer="454" from-port="2" to-layer="456" to-port="0" />
		<edge from-layer="455" from-port="0" to-layer="456" to-port="1" />
		<edge from-layer="456" from-port="2" to-layer="457" to-port="1" />
		<edge from-layer="457" from-port="2" to-layer="459" to-port="0" />
		<edge from-layer="458" from-port="0" to-layer="459" to-port="1" />
		<edge from-layer="459" from-port="2" to-layer="465" to-port="0" />
		<edge from-layer="460" from-port="0" to-layer="461" to-port="1" />
		<edge from-layer="461" from-port="2" to-layer="464" to-port="0" />
		<edge from-layer="462" from-port="0" to-layer="464" to-port="1" />
		<edge from-layer="463" from-port="0" to-layer="464" to-port="2" />
		<edge from-layer="464" from-port="3" to-layer="465" to-port="1" />
		<edge from-layer="465" from-port="2" to-layer="467" to-port="0" />
		<edge from-layer="466" from-port="0" to-layer="467" to-port="1" />
		<edge from-layer="467" from-port="2" to-layer="468" to-port="1" />
		<edge from-layer="468" from-port="2" to-layer="469" to-port="0" />
		<edge from-layer="469" from-port="1" to-layer="472" to-port="0" />
		<edge from-layer="469" from-port="1" to-layer="479" to-port="0" />
		<edge from-layer="469" from-port="1" to-layer="486" to-port="0" />
		<edge from-layer="470" from-port="0" to-layer="478" to-port="0" />
		<edge from-layer="471" from-port="0" to-layer="472" to-port="1" />
		<edge from-layer="472" from-port="2" to-layer="474" to-port="0" />
		<edge from-layer="473" from-port="0" to-layer="474" to-port="1" />
		<edge from-layer="474" from-port="2" to-layer="476" to-port="0" />
		<edge from-layer="475" from-port="0" to-layer="476" to-port="1" />
		<edge from-layer="476" from-port="2" to-layer="477" to-port="0" />
		<edge from-layer="477" from-port="1" to-layer="478" to-port="1" />
		<edge from-layer="478" from-port="2" to-layer="479" to-port="1" />
		<edge from-layer="479" from-port="2" to-layer="480" to-port="1" />
		<edge from-layer="480" from-port="2" to-layer="482" to-port="0" />
		<edge from-layer="481" from-port="0" to-layer="482" to-port="1" />
		<edge from-layer="482" from-port="2" to-layer="483" to-port="0" />
		<edge from-layer="483" from-port="1" to-layer="485" to-port="0" />
		<edge from-layer="484" from-port="0" to-layer="485" to-port="1" />
		<edge from-layer="485" from-port="2" to-layer="486" to-port="1" />
		<edge from-layer="486" from-port="2" to-layer="487" to-port="0" />
		<edge from-layer="487" from-port="1" to-layer="490" to-port="0" />
		<edge from-layer="487" from-port="1" to-layer="497" to-port="0" />
		<edge from-layer="488" from-port="0" to-layer="496" to-port="0" />
		<edge from-layer="489" from-port="0" to-layer="490" to-port="1" />
		<edge from-layer="490" from-port="2" to-layer="492" to-port="0" />
		<edge from-layer="491" from-port="0" to-layer="492" to-port="1" />
		<edge from-layer="492" from-port="2" to-layer="494" to-port="0" />
		<edge from-layer="493" from-port="0" to-layer="494" to-port="1" />
		<edge from-layer="494" from-port="2" to-layer="495" to-port="0" />
		<edge from-layer="495" from-port="1" to-layer="496" to-port="1" />
		<edge from-layer="496" from-port="2" to-layer="497" to-port="1" />
		<edge from-layer="497" from-port="2" to-layer="498" to-port="1" />
		<edge from-layer="498" from-port="2" to-layer="499" to-port="0" />
	</edges>
	<rt_info />
</net>
