<?xml version="1.0"?>
<net name="torch_jit" version="11">
	<layers>
		<layer id="2" name="input_ids" type="Parameter" version="opset1">
			<data shape="?,?" element_type="i64" />
			<rt_info>
				<attribute name="fused_names" version="0" value="input_ids" />
			</rt_info>
			<output>
				<port id="0" precision="I64" names="input_ids">
					<dim>-1</dim>
					<dim>-1</dim>
				</port>
			</output>
		</layer>
		<layer id="1" name="attention_mask" type="Parameter" version="opset1">
			<data shape="?,?" element_type="i64" />
			<rt_info>
				<attribute name="fused_names" version="0" value="attention_mask" />
			</rt_info>
			<output>
				<port id="0" precision="I64" names="attention_mask">
					<dim>-1</dim>
					<dim>-1</dim>
				</port>
			</output>
		</layer>
		<layer id="0" name="token_type_ids" type="Parameter" version="opset1">
			<data shape="?,?" element_type="i64" />
			<rt_info>
				<attribute name="fused_names" version="0" value="token_type_ids" />
			</rt_info>
			<output>
				<port id="0" precision="I64" names="token_type_ids">
					<dim>-1</dim>
					<dim>-1</dim>
				</port>
			</output>
		</layer>
		<layer id="3" name="cls.predictions.bias" type="Const" version="opset1">
			<data element_type="f32" shape="1124" offset="0" size="4496" />
			<rt_info>
				<attribute name="fused_names" version="0" value="cls.predictions.bias" />
			</rt_info>
			<output>
				<port id="0" precision="FP32" names="cls.predictions.bias">
					<dim>1124</dim>
				</port>
			</output>
		</layer>
		<layer id="4" name="bert.encoder.layer.0.attention.self.query.bias" type="Const" version="opset1">
			<data element_type="f32" shape="32" offset="4496" size="128" />
			<rt_info>
				<attribute name="fused_names" version="0" value="bert.encoder.layer.0.attention.self.query.bias" />
			</rt_info>
			<output>
				<port id="0" precision="FP32" names="bert.embeddings.LayerNorm.bias,bert.encoder.layer.0.attention.output.LayerNorm.bias,bert.encoder.layer.0.attention.output.dense.bias,bert.encoder.layer.0.attention.self.key.bias,bert.encoder.layer.0.attention.self.query.bias,bert.encoder.layer.0.attention.self.value.bias,bert.encoder.layer.0.output.LayerNorm.bias,bert.encoder.layer.0.output.dense.bias,bert.encoder.layer.1.attention.output.LayerNorm.bias,bert.encoder.layer.1.attention.output.dense.bias,bert.encoder.layer.1.attention.self.key.bias,bert.encoder.layer.1.attention.self.query.bias,bert.encoder.layer.1.attention.self.value.bias,bert.encoder.layer.1.output.LayerNorm.bias,bert.encoder.layer.1.output.dense.bias,bert.encoder.layer.2.attention.output.LayerNorm.bias,bert.encoder.layer.2.attention.output.dense.bias,bert.encoder.layer.2.attention.self.key.bias,bert.encoder.layer.2.attention.self.query.bias,bert.encoder.layer.2.attention.self.value.bias,bert.encoder.layer.2.output.LayerNorm.bias,bert.encoder.layer.2.output.dense.bias,bert.encoder.layer.3.attention.output.LayerNorm.bias,bert.encoder.layer.3.attention.output.dense.bias,bert.encoder.layer.3.attention.self.key.bias,bert.encoder.layer.3.attention.self.query.bias,bert.encoder.layer.3.attention.self.value.bias,bert.encoder.layer.3.output.LayerNorm.bias,bert.encoder.layer.3.output.dense.bias,bert.encoder.layer.4.attention.output.LayerNorm.bias,bert.encoder.layer.4.attention.output.dense.bias,bert.encoder.layer.4.attention.self.key.bias,bert.encoder.layer.4.attention.self.query.bias,bert.encoder.layer.4.attention.self.value.bias,bert.encoder.layer.4.output.LayerNorm.bias,bert.encoder.layer.4.output.dense.bias,cls.predictions.transform.LayerNorm.bias,cls.predictions.transform.dense.bias">
					<dim>32</dim>
				</port>
			</output>
		</layer>
		<layer id="5" name="bert.encoder.layer.1.intermediate.dense.bias" type="Const" version="opset1">
			<data element_type="f32" shape="37" offset="4624" size="148" />
			<rt_info>
				<attribute name="fused_names" version="0" value="bert.encoder.layer.1.intermediate.dense.bias" />
			</rt_info>
			<output>
				<port id="0" precision="FP32" names="bert.encoder.layer.0.intermediate.dense.bias,bert.encoder.layer.1.intermediate.dense.bias,bert.encoder.layer.2.intermediate.dense.bias,bert.encoder.layer.3.intermediate.dense.bias,bert.encoder.layer.4.intermediate.dense.bias">
					<dim>37</dim>
				</port>
			</output>
		</layer>
		<layer id="6" name="bert.embeddings.word_embeddings.weight" type="Const" version="opset1">
			<data element_type="f32" shape="1124, 32" offset="4772" size="143872" />
			<rt_info>
				<attribute name="fused_names" version="0" value="bert.embeddings.word_embeddings.weight" />
			</rt_info>
			<output>
				<port id="0" precision="FP32" names="bert.embeddings.word_embeddings.weight">
					<dim>1124</dim>
					<dim>32</dim>
				</port>
			</output>
		</layer>
		<layer id="7" name="Constant_4451893" type="Const" version="opset1">
			<data element_type="i64" shape="" offset="148644" size="8" />
			<rt_info>
				<attribute name="fused_names" version="0" value="Constant_4451893" />
			</rt_info>
			<output>
				<port id="0" precision="I64" />
			</output>
		</layer>
		<layer id="8" name="/bert/embeddings/word_embeddings/Gather" type="Gather" version="opset8">
			<data batch_dims="0" />
			<rt_info>
				<attribute name="fused_names" version="0" value="/bert/embeddings/word_embeddings/Gather" />
			</rt_info>
			<input>
				<port id="0" precision="FP32">
					<dim>1124</dim>
					<dim>32</dim>
				</port>
				<port id="1" precision="I64">
					<dim>-1</dim>
					<dim>-1</dim>
				</port>
				<port id="2" precision="I64" />
			</input>
			<output>
				<port id="3" precision="FP32" names="/bert/embeddings/word_embeddings/Gather_output_0">
					<dim>-1</dim>
					<dim>-1</dim>
					<dim>32</dim>
				</port>
			</output>
		</layer>
		<layer id="9" name="bert.embeddings.token_type_embeddings.weight" type="Const" version="opset1">
			<data element_type="f32" shape="16, 32" offset="148652" size="2048" />
			<rt_info>
				<attribute name="fused_names" version="0" value="bert.embeddings.token_type_embeddings.weight" />
			</rt_info>
			<output>
				<port id="0" precision="FP32" names="bert.embeddings.token_type_embeddings.weight">
					<dim>16</dim>
					<dim>32</dim>
				</port>
			</output>
		</layer>
		<layer id="10" name="Constant_4451895" type="Const" version="opset1">
			<data element_type="i64" shape="" offset="148644" size="8" />
			<rt_info>
				<attribute name="fused_names" version="0" value="Constant_4451895" />
			</rt_info>
			<output>
				<port id="0" precision="I64" />
			</output>
		</layer>
		<layer id="11" name="/bert/embeddings/token_type_embeddings/Gather" type="Gather" version="opset8">
			<data batch_dims="0" />
			<rt_info>
				<attribute name="fused_names" version="0" value="/bert/embeddings/token_type_embeddings/Gather" />
			</rt_info>
			<input>
				<port id="0" precision="FP32">
					<dim>16</dim>
					<dim>32</dim>
				</port>
				<port id="1" precision="I64">
					<dim>-1</dim>
					<dim>-1</dim>
				</port>
				<port id="2" precision="I64" />
			</input>
			<output>
				<port id="3" precision="FP32" names="/bert/embeddings/token_type_embeddings/Gather_output_0">
					<dim>-1</dim>
					<dim>-1</dim>
					<dim>32</dim>
				</port>
			</output>
		</layer>
		<layer id="12" name="/bert/embeddings/Add" type="Add" version="opset1">
			<data auto_broadcast="numpy" />
			<rt_info>
				<attribute name="fused_names" version="0" value="/bert/embeddings/Add" />
			</rt_info>
			<input>
				<port id="0" precision="FP32">
					<dim>-1</dim>
					<dim>-1</dim>
					<dim>32</dim>
				</port>
				<port id="1" precision="FP32">
					<dim>-1</dim>
					<dim>-1</dim>
					<dim>32</dim>
				</port>
			</input>
			<output>
				<port id="2" precision="FP32" names="/bert/embeddings/Add_output_0">
					<dim>-1</dim>
					<dim>-1</dim>
					<dim>32</dim>
				</port>
			</output>
		</layer>
		<layer id="13" name="bert.embeddings.position_embeddings.weight" type="Const" version="opset1">
			<data element_type="f32" shape="512, 32" offset="150700" size="65536" />
			<rt_info>
				<attribute name="fused_names" version="0" value="bert.embeddings.position_embeddings.weight" />
			</rt_info>
			<output>
				<port id="0" precision="FP32" names="bert.embeddings.position_embeddings.weight">
					<dim>512</dim>
					<dim>32</dim>
				</port>
			</output>
		</layer>
		<layer id="14" name="Constant_62" type="Const" version="opset1">
			<data element_type="i64" shape="1, 512" offset="216236" size="4096" />
			<rt_info>
				<attribute name="fused_names" version="0" value="Constant_62" />
			</rt_info>
			<output>
				<port id="0" precision="I64" names="onnx::Slice_105">
					<dim>1</dim>
					<dim>512</dim>
				</port>
			</output>
		</layer>
		<layer id="15" name="/bert/embeddings/Constant_1" type="Const" version="opset1">
			<data element_type="i64" shape="1" offset="148644" size="8" />
			<rt_info>
				<attribute name="fused_names" version="0" value="/bert/embeddings/Constant_1" />
			</rt_info>
			<output>
				<port id="0" precision="I64" names="/bert/embeddings/Constant_1_output_0">
					<dim>1</dim>
				</port>
			</output>
		</layer>
		<layer id="16" name="/bert/embeddings/Shape" type="ShapeOf" version="opset3">
			<data output_type="i64" />
			<rt_info>
				<attribute name="fused_names" version="0" value="/bert/embeddings/Shape" />
			</rt_info>
			<input>
				<port id="0" precision="I64">
					<dim>-1</dim>
					<dim>-1</dim>
				</port>
			</input>
			<output>
				<port id="1" precision="I64" names="/bert/embeddings/Shape_output_0">
					<dim>2</dim>
				</port>
			</output>
		</layer>
		<layer id="17" name="/bert/embeddings/Constant" type="Const" version="opset1">
			<data element_type="i64" shape="" offset="220332" size="8" />
			<rt_info>
				<attribute name="fused_names" version="0" value="/bert/embeddings/Constant" />
			</rt_info>
			<output>
				<port id="0" precision="I64" names="/bert/embeddings/Constant_output_0" />
			</output>
		</layer>
		<layer id="18" name="Constant_4451878" type="Const" version="opset1">
			<data element_type="i64" shape="" offset="148644" size="8" />
			<rt_info>
				<attribute name="fused_names" version="0" value="Constant_4451878" />
			</rt_info>
			<output>
				<port id="0" precision="I64" />
			</output>
		</layer>
		<layer id="19" name="/bert/embeddings/Gather" type="Gather" version="opset8">
			<data batch_dims="0" />
			<rt_info>
				<attribute name="fused_names" version="0" value="/bert/embeddings/Constant, /bert/embeddings/Gather, Constant_4451878" />
			</rt_info>
			<input>
				<port id="0" precision="I64">
					<dim>2</dim>
				</port>
				<port id="1" precision="I64" />
				<port id="2" precision="I64" />
			</input>
			<output>
				<port id="3" precision="I64" names="/bert/embeddings/Gather_output_0" />
			</output>
		</layer>
		<layer id="20" name="Constant_4451882" type="Const" version="opset1">
			<data element_type="i64" shape="1" offset="148644" size="8" />
			<rt_info>
				<attribute name="fused_names" version="0" value="Constant_4451882" />
			</rt_info>
			<output>
				<port id="0" precision="I64">
					<dim>1</dim>
				</port>
			</output>
		</layer>
		<layer id="21" name="/bert/embeddings/Unsqueeze" type="Unsqueeze" version="opset1">
			<rt_info>
				<attribute name="fused_names" version="0" value="/bert/embeddings/Unsqueeze, Constant_4451882" />
			</rt_info>
			<input>
				<port id="0" precision="I64" />
				<port id="1" precision="I64">
					<dim>1</dim>
				</port>
			</input>
			<output>
				<port id="2" precision="I64" names="/bert/embeddings/Unsqueeze_output_0">
					<dim>1</dim>
				</port>
			</output>
		</layer>
		<layer id="22" name="/bert/embeddings/Constant_3" type="Const" version="opset1">
			<data element_type="i64" shape="1" offset="220332" size="8" />
			<rt_info>
				<attribute name="fused_names" version="0" value="/bert/embeddings/Constant_3" />
			</rt_info>
			<output>
				<port id="0" precision="I64" names="/bert/embeddings/Constant_3_output_0">
					<dim>1</dim>
				</port>
			</output>
		</layer>
		<layer id="23" name="/bert/embeddings/Constant_2" type="Const" version="opset1">
			<data element_type="i64" shape="1" offset="220332" size="8" />
			<rt_info>
				<attribute name="fused_names" version="0" value="/bert/embeddings/Constant_2" />
			</rt_info>
			<output>
				<port id="0" precision="I64" names="/bert/embeddings/Constant_2_output_0">
					<dim>1</dim>
				</port>
			</output>
		</layer>
		<layer id="24" name="/bert/embeddings/Slice" type="Slice" version="opset8">
			<rt_info>
				<attribute name="fused_names" version="0" value="/bert/embeddings/Slice" />
			</rt_info>
			<input>
				<port id="0" precision="I64">
					<dim>1</dim>
					<dim>512</dim>
				</port>
				<port id="1" precision="I64">
					<dim>1</dim>
				</port>
				<port id="2" precision="I64">
					<dim>1</dim>
				</port>
				<port id="3" precision="I64">
					<dim>1</dim>
				</port>
				<port id="4" precision="I64">
					<dim>1</dim>
				</port>
			</input>
			<output>
				<port id="5" precision="I64" names="/bert/embeddings/Slice_output_0">
					<dim>1</dim>
					<dim>-1</dim>
				</port>
			</output>
		</layer>
		<layer id="25" name="Constant_4451898" type="Const" version="opset1">
			<data element_type="i64" shape="" offset="148644" size="8" />
			<rt_info>
				<attribute name="fused_names" version="0" value="Constant_4451898" />
			</rt_info>
			<output>
				<port id="0" precision="I64" />
			</output>
		</layer>
		<layer id="26" name="/bert/embeddings/position_embeddings/Gather" type="Gather" version="opset8">
			<data batch_dims="0" />
			<rt_info>
				<attribute name="fused_names" version="0" value="/bert/embeddings/position_embeddings/Gather" />
			</rt_info>
			<input>
				<port id="0" precision="FP32">
					<dim>512</dim>
					<dim>32</dim>
				</port>
				<port id="1" precision="I64">
					<dim>1</dim>
					<dim>-1</dim>
				</port>
				<port id="2" precision="I64" />
			</input>
			<output>
				<port id="3" precision="FP32" names="/bert/embeddings/position_embeddings/Gather_output_0">
					<dim>1</dim>
					<dim>-1</dim>
					<dim>32</dim>
				</port>
			</output>
		</layer>
		<layer id="27" name="/bert/embeddings/Add_1" type="Add" version="opset1">
			<data auto_broadcast="numpy" />
			<rt_info>
				<attribute name="fused_names" version="0" value="/bert/embeddings/Add_1" />
			</rt_info>
			<input>
				<port id="0" precision="FP32">
					<dim>-1</dim>
					<dim>-1</dim>
					<dim>32</dim>
				</port>
				<port id="1" precision="FP32">
					<dim>1</dim>
					<dim>-1</dim>
					<dim>32</dim>
				</port>
			</input>
			<output>
				<port id="2" precision="FP32" names="/bert/embeddings/Add_1_output_0">
					<dim>-1</dim>
					<dim>-1</dim>
					<dim>32</dim>
				</port>
			</output>
		</layer>
		<layer id="28" name="Constant_4451901" type="Const" version="opset1">
			<data element_type="i64" shape="1" offset="220340" size="8" />
			<rt_info>
				<attribute name="fused_names" version="0" value="Constant_4451901" />
			</rt_info>
			<output>
				<port id="0" precision="I64">
					<dim>1</dim>
				</port>
			</output>
		</layer>
		<layer id="29" name="/bert/embeddings/LayerNorm/ReduceMean" type="ReduceMean" version="opset1">
			<data keep_dims="true" />
			<rt_info>
				<attribute name="fused_names" version="0" value="/bert/embeddings/LayerNorm/ReduceMean" />
			</rt_info>
			<input>
				<port id="0" precision="FP32">
					<dim>-1</dim>
					<dim>-1</dim>
					<dim>32</dim>
				</port>
				<port id="1" precision="I64">
					<dim>1</dim>
				</port>
			</input>
			<output>
				<port id="2" precision="FP32" names="/bert/embeddings/LayerNorm/ReduceMean_output_0">
					<dim>-1</dim>
					<dim>-1</dim>
					<dim>1</dim>
				</port>
			</output>
		</layer>
		<layer id="30" name="/bert/embeddings/LayerNorm/Sub" type="Subtract" version="opset1">
			<data auto_broadcast="numpy" />
			<rt_info>
				<attribute name="fused_names" version="0" value="/bert/embeddings/LayerNorm/Sub" />
			</rt_info>
			<input>
				<port id="0" precision="FP32">
					<dim>-1</dim>
					<dim>-1</dim>
					<dim>32</dim>
				</port>
				<port id="1" precision="FP32">
					<dim>-1</dim>
					<dim>-1</dim>
					<dim>1</dim>
				</port>
			</input>
			<output>
				<port id="2" precision="FP32" names="/bert/embeddings/LayerNorm/Sub_output_0">
					<dim>-1</dim>
					<dim>-1</dim>
					<dim>32</dim>
				</port>
			</output>
		</layer>
		<layer id="31" name="/bert/embeddings/LayerNorm/Constant" type="Const" version="opset1">
			<data element_type="f32" shape="" offset="220348" size="4" />
			<rt_info>
				<attribute name="fused_names" version="0" value="/bert/embeddings/LayerNorm/Constant" />
			</rt_info>
			<output>
				<port id="0" precision="FP32" names="/bert/embeddings/LayerNorm/Constant_output_0" />
			</output>
		</layer>
		<layer id="32" name="/bert/embeddings/LayerNorm/Pow" type="Power" version="opset1">
			<data auto_broadcast="numpy" />
			<rt_info>
				<attribute name="fused_names" version="0" value="/bert/embeddings/LayerNorm/Pow" />
			</rt_info>
			<input>
				<port id="0" precision="FP32">
					<dim>-1</dim>
					<dim>-1</dim>
					<dim>32</dim>
				</port>
				<port id="1" precision="FP32" />
			</input>
			<output>
				<port id="2" precision="FP32" names="/bert/embeddings/LayerNorm/Pow_output_0">
					<dim>-1</dim>
					<dim>-1</dim>
					<dim>32</dim>
				</port>
			</output>
		</layer>
		<layer id="33" name="Constant_4451906" type="Const" version="opset1">
			<data element_type="i64" shape="1" offset="220340" size="8" />
			<rt_info>
				<attribute name="fused_names" version="0" value="Constant_4451906" />
			</rt_info>
			<output>
				<port id="0" precision="I64">
					<dim>1</dim>
				</port>
			</output>
		</layer>
		<layer id="34" name="/bert/embeddings/LayerNorm/ReduceMean_1" type="ReduceMean" version="opset1">
			<data keep_dims="true" />
			<rt_info>
				<attribute name="fused_names" version="0" value="/bert/embeddings/LayerNorm/ReduceMean_1" />
			</rt_info>
			<input>
				<port id="0" precision="FP32">
					<dim>-1</dim>
					<dim>-1</dim>
					<dim>32</dim>
				</port>
				<port id="1" precision="I64">
					<dim>1</dim>
				</port>
			</input>
			<output>
				<port id="2" precision="FP32" names="/bert/embeddings/LayerNorm/ReduceMean_1_output_0">
					<dim>-1</dim>
					<dim>-1</dim>
					<dim>1</dim>
				</port>
			</output>
		</layer>
		<layer id="35" name="/bert/embeddings/LayerNorm/Constant_1" type="Const" version="opset1">
			<data element_type="f32" shape="" offset="220352" size="4" />
			<rt_info>
				<attribute name="fused_names" version="0" value="/bert/embeddings/LayerNorm/Constant_1" />
			</rt_info>
			<output>
				<port id="0" precision="FP32" names="/bert/embeddings/LayerNorm/Constant_1_output_0" />
			</output>
		</layer>
		<layer id="36" name="/bert/embeddings/LayerNorm/Add" type="Add" version="opset1">
			<data auto_broadcast="numpy" />
			<rt_info>
				<attribute name="fused_names" version="0" value="/bert/embeddings/LayerNorm/Add" />
			</rt_info>
			<input>
				<port id="0" precision="FP32">
					<dim>-1</dim>
					<dim>-1</dim>
					<dim>1</dim>
				</port>
				<port id="1" precision="FP32" />
			</input>
			<output>
				<port id="2" precision="FP32" names="/bert/embeddings/LayerNorm/Add_output_0">
					<dim>-1</dim>
					<dim>-1</dim>
					<dim>1</dim>
				</port>
			</output>
		</layer>
		<layer id="37" name="/bert/embeddings/LayerNorm/Sqrt" type="Sqrt" version="opset1">
			<rt_info>
				<attribute name="fused_names" version="0" value="/bert/embeddings/LayerNorm/Sqrt" />
			</rt_info>
			<input>
				<port id="0" precision="FP32">
					<dim>-1</dim>
					<dim>-1</dim>
					<dim>1</dim>
				</port>
			</input>
			<output>
				<port id="1" precision="FP32" names="/bert/embeddings/LayerNorm/Sqrt_output_0">
					<dim>-1</dim>
					<dim>-1</dim>
					<dim>1</dim>
				</port>
			</output>
		</layer>
		<layer id="38" name="/bert/embeddings/LayerNorm/Div" type="Divide" version="opset1">
			<data auto_broadcast="numpy" m_pythondiv="true" />
			<rt_info>
				<attribute name="fused_names" version="0" value="/bert/embeddings/LayerNorm/Div" />
			</rt_info>
			<input>
				<port id="0" precision="FP32">
					<dim>-1</dim>
					<dim>-1</dim>
					<dim>32</dim>
				</port>
				<port id="1" precision="FP32">
					<dim>-1</dim>
					<dim>-1</dim>
					<dim>1</dim>
				</port>
			</input>
			<output>
				<port id="2" precision="FP32" names="/bert/embeddings/LayerNorm/Div_output_0">
					<dim>-1</dim>
					<dim>-1</dim>
					<dim>32</dim>
				</port>
			</output>
		</layer>
		<layer id="39" name="bert.encoder.layer.0.attention.output.LayerNorm.weight" type="Const" version="opset1">
			<data element_type="f32" shape="32" offset="220356" size="128" />
			<rt_info>
				<attribute name="fused_names" version="0" value="bert.encoder.layer.0.attention.output.LayerNorm.weight" />
			</rt_info>
			<output>
				<port id="0" precision="FP32" names="bert.embeddings.LayerNorm.weight,bert.encoder.layer.0.attention.output.LayerNorm.weight,bert.encoder.layer.0.output.LayerNorm.weight,bert.encoder.layer.1.attention.output.LayerNorm.weight,bert.encoder.layer.1.output.LayerNorm.weight,bert.encoder.layer.2.attention.output.LayerNorm.weight,bert.encoder.layer.2.output.LayerNorm.weight,bert.encoder.layer.3.attention.output.LayerNorm.weight,bert.encoder.layer.3.output.LayerNorm.weight,bert.encoder.layer.4.attention.output.LayerNorm.weight,bert.encoder.layer.4.output.LayerNorm.weight,cls.predictions.transform.LayerNorm.weight">
					<dim>32</dim>
				</port>
			</output>
		</layer>
		<layer id="40" name="/bert/embeddings/LayerNorm/Mul" type="Multiply" version="opset1">
			<data auto_broadcast="numpy" />
			<rt_info>
				<attribute name="fused_names" version="0" value="/bert/embeddings/LayerNorm/Mul" />
			</rt_info>
			<input>
				<port id="0" precision="FP32">
					<dim>-1</dim>
					<dim>-1</dim>
					<dim>32</dim>
				</port>
				<port id="1" precision="FP32">
					<dim>32</dim>
				</port>
			</input>
			<output>
				<port id="2" precision="FP32" names="/bert/embeddings/LayerNorm/Mul_output_0">
					<dim>-1</dim>
					<dim>-1</dim>
					<dim>32</dim>
				</port>
			</output>
		</layer>
		<layer id="41" name="/bert/embeddings/LayerNorm/Add_1" type="Add" version="opset1">
			<data auto_broadcast="numpy" />
			<rt_info>
				<attribute name="fused_names" version="0" value="/bert/embeddings/LayerNorm/Add_1" />
			</rt_info>
			<input>
				<port id="0" precision="FP32">
					<dim>-1</dim>
					<dim>-1</dim>
					<dim>32</dim>
				</port>
				<port id="1" precision="FP32">
					<dim>32</dim>
				</port>
			</input>
			<output>
				<port id="2" precision="FP32" names="/bert/embeddings/LayerNorm/Add_1_output_0">
					<dim>-1</dim>
					<dim>-1</dim>
					<dim>32</dim>
				</port>
			</output>
		</layer>
		<layer id="42" name="onnx::MatMul_692" type="Const" version="opset1">
			<data element_type="f32" shape="32, 32" offset="220484" size="4096" />
			<rt_info>
				<attribute name="fused_names" version="0" value="onnx::MatMul_692" />
			</rt_info>
			<output>
				<port id="0" precision="FP32" names="onnx::MatMul_692">
					<dim>32</dim>
					<dim>32</dim>
				</port>
			</output>
		</layer>
		<layer id="43" name="/bert/encoder/layer.0/attention/self/query/MatMul" type="MatMul" version="opset1">
			<data transpose_a="false" transpose_b="false" />
			<rt_info>
				<attribute name="fused_names" version="0" value="/bert/encoder/layer.0/attention/self/query/MatMul" />
			</rt_info>
			<input>
				<port id="0" precision="FP32">
					<dim>-1</dim>
					<dim>-1</dim>
					<dim>32</dim>
				</port>
				<port id="1" precision="FP32">
					<dim>32</dim>
					<dim>32</dim>
				</port>
			</input>
			<output>
				<port id="2" precision="FP32" names="/bert/encoder/layer.0/attention/self/query/MatMul_output_0">
					<dim>-1</dim>
					<dim>-1</dim>
					<dim>32</dim>
				</port>
			</output>
		</layer>
		<layer id="44" name="/bert/encoder/layer.0/attention/self/query/Add" type="Add" version="opset1">
			<data auto_broadcast="numpy" />
			<rt_info>
				<attribute name="fused_names" version="0" value="/bert/encoder/layer.0/attention/self/query/Add" />
			</rt_info>
			<input>
				<port id="0" precision="FP32">
					<dim>32</dim>
				</port>
				<port id="1" precision="FP32">
					<dim>-1</dim>
					<dim>-1</dim>
					<dim>32</dim>
				</port>
			</input>
			<output>
				<port id="2" precision="FP32" names="/bert/encoder/layer.0/attention/self/query/Add_output_0">
					<dim>-1</dim>
					<dim>-1</dim>
					<dim>32</dim>
				</port>
			</output>
		</layer>
		<layer id="45" name="/bert/encoder/layer.0/attention/self/Shape_4" type="ShapeOf" version="opset3">
			<data output_type="i64" />
			<rt_info>
				<attribute name="fused_names" version="0" value="/bert/encoder/layer.0/attention/self/Shape_4" />
			</rt_info>
			<input>
				<port id="0" precision="FP32">
					<dim>-1</dim>
					<dim>-1</dim>
					<dim>32</dim>
				</port>
			</input>
			<output>
				<port id="1" precision="I64" names="/bert/encoder/layer.0/attention/self/Shape_4_output_0">
					<dim>3</dim>
				</port>
			</output>
		</layer>
		<layer id="46" name="/bert/encoder/layer.0/attention/self/Constant_8" type="Const" version="opset1">
			<data element_type="i64" shape="" offset="148644" size="8" />
			<rt_info>
				<attribute name="fused_names" version="0" value="/bert/encoder/layer.0/attention/self/Constant_8" />
			</rt_info>
			<output>
				<port id="0" precision="I64" names="/bert/encoder/layer.0/attention/self/Constant_8_output_0" />
			</output>
		</layer>
		<layer id="47" name="Constant_4451976" type="Const" version="opset1">
			<data element_type="i64" shape="" offset="148644" size="8" />
			<rt_info>
				<attribute name="fused_names" version="0" value="Constant_4451976" />
			</rt_info>
			<output>
				<port id="0" precision="I64" />
			</output>
		</layer>
		<layer id="48" name="/bert/encoder/layer.0/attention/self/Gather_4" type="Gather" version="opset8">
			<data batch_dims="0" />
			<rt_info>
				<attribute name="fused_names" version="0" value="/bert/encoder/layer.0/attention/self/Constant_8, /bert/encoder/layer.0/attention/self/Gather_4, Constant_4451976" />
			</rt_info>
			<input>
				<port id="0" precision="I64">
					<dim>3</dim>
				</port>
				<port id="1" precision="I64" />
				<port id="2" precision="I64" />
			</input>
			<output>
				<port id="3" precision="I64" names="/bert/encoder/layer.0/attention/self/Gather_4_output_0" />
			</output>
		</layer>
		<layer id="49" name="Constant_4451982" type="Const" version="opset1">
			<data element_type="i64" shape="1" offset="148644" size="8" />
			<rt_info>
				<attribute name="fused_names" version="0" value="Constant_4451982" />
			</rt_info>
			<output>
				<port id="0" precision="I64">
					<dim>1</dim>
				</port>
			</output>
		</layer>
		<layer id="50" name="/bert/encoder/layer.0/attention/self/Unsqueeze_4" type="Unsqueeze" version="opset1">
			<rt_info>
				<attribute name="fused_names" version="0" value="/bert/encoder/layer.0/attention/self/Unsqueeze_4, Constant_4451982" />
			</rt_info>
			<input>
				<port id="0" precision="I64" />
				<port id="1" precision="I64">
					<dim>1</dim>
				</port>
			</input>
			<output>
				<port id="2" precision="I64" names="/bert/encoder/layer.0/attention/self/Unsqueeze_4_output_0">
					<dim>1</dim>
				</port>
			</output>
		</layer>
		<layer id="51" name="/bert/encoder/layer.0/attention/self/Shape_5" type="ShapeOf" version="opset3">
			<data output_type="i64" />
			<rt_info>
				<attribute name="fused_names" version="0" value="/bert/encoder/layer.0/attention/self/Shape_5" />
			</rt_info>
			<input>
				<port id="0" precision="FP32">
					<dim>-1</dim>
					<dim>-1</dim>
					<dim>32</dim>
				</port>
			</input>
			<output>
				<port id="1" precision="I64" names="/bert/encoder/layer.0/attention/self/Shape_5_output_0">
					<dim>3</dim>
				</port>
			</output>
		</layer>
		<layer id="52" name="/bert/encoder/layer.0/attention/self/Constant_9" type="Const" version="opset1">
			<data element_type="i64" shape="" offset="220332" size="8" />
			<rt_info>
				<attribute name="fused_names" version="0" value="/bert/encoder/layer.0/attention/self/Constant_9" />
			</rt_info>
			<output>
				<port id="0" precision="I64" names="/bert/encoder/layer.0/attention/self/Constant_9_output_0" />
			</output>
		</layer>
		<layer id="53" name="Constant_4451980" type="Const" version="opset1">
			<data element_type="i64" shape="" offset="148644" size="8" />
			<rt_info>
				<attribute name="fused_names" version="0" value="Constant_4451980" />
			</rt_info>
			<output>
				<port id="0" precision="I64" />
			</output>
		</layer>
		<layer id="54" name="/bert/encoder/layer.0/attention/self/Gather_5" type="Gather" version="opset8">
			<data batch_dims="0" />
			<rt_info>
				<attribute name="fused_names" version="0" value="/bert/encoder/layer.0/attention/self/Constant_9, /bert/encoder/layer.0/attention/self/Gather_5, Constant_4451980" />
			</rt_info>
			<input>
				<port id="0" precision="I64">
					<dim>3</dim>
				</port>
				<port id="1" precision="I64" />
				<port id="2" precision="I64" />
			</input>
			<output>
				<port id="3" precision="I64" names="/bert/encoder/layer.0/attention/self/Gather_5_output_0" />
			</output>
		</layer>
		<layer id="55" name="Constant_4451984" type="Const" version="opset1">
			<data element_type="i64" shape="1" offset="148644" size="8" />
			<rt_info>
				<attribute name="fused_names" version="0" value="Constant_4451984" />
			</rt_info>
			<output>
				<port id="0" precision="I64">
					<dim>1</dim>
				</port>
			</output>
		</layer>
		<layer id="56" name="/bert/encoder/layer.0/attention/self/Unsqueeze_5" type="Unsqueeze" version="opset1">
			<rt_info>
				<attribute name="fused_names" version="0" value="/bert/encoder/layer.0/attention/self/Unsqueeze_5, Constant_4451984" />
			</rt_info>
			<input>
				<port id="0" precision="I64" />
				<port id="1" precision="I64">
					<dim>1</dim>
				</port>
			</input>
			<output>
				<port id="2" precision="I64" names="/bert/encoder/layer.0/attention/self/Unsqueeze_5_output_0">
					<dim>1</dim>
				</port>
			</output>
		</layer>
		<layer id="57" name="/bert/encoder/layer.0/attention/self/Constant_10" type="Const" version="opset1">
			<data element_type="i64" shape="1" offset="224580" size="8" />
			<rt_info>
				<attribute name="fused_names" version="0" value="/bert/encoder/layer.0/attention/self/Constant_10" />
			</rt_info>
			<output>
				<port id="0" precision="I64" names="/bert/encoder/layer.0/attention/self/Constant_10_output_0">
					<dim>1</dim>
				</port>
			</output>
		</layer>
		<layer id="58" name="/bert/encoder/layer.0/attention/self/Constant_11" type="Const" version="opset1">
			<data element_type="i64" shape="1" offset="224588" size="8" />
			<rt_info>
				<attribute name="fused_names" version="0" value="/bert/encoder/layer.0/attention/self/Constant_11" />
			</rt_info>
			<output>
				<port id="0" precision="I64" names="/bert/encoder/layer.0/attention/self/Constant_11_output_0">
					<dim>1</dim>
				</port>
			</output>
		</layer>
		<layer id="59" name="/bert/encoder/layer.0/attention/self/Concat_2" type="Concat" version="opset1">
			<data axis="0" />
			<rt_info>
				<attribute name="fused_names" version="0" value="/bert/encoder/layer.0/attention/self/Concat_2, /bert/encoder/layer.0/attention/self/Constant_10, /bert/encoder/layer.0/attention/self/Constant_11" />
			</rt_info>
			<input>
				<port id="0" precision="I64">
					<dim>1</dim>
				</port>
				<port id="1" precision="I64">
					<dim>1</dim>
				</port>
				<port id="2" precision="I64">
					<dim>1</dim>
				</port>
				<port id="3" precision="I64">
					<dim>1</dim>
				</port>
			</input>
			<output>
				<port id="4" precision="I64" names="/bert/encoder/layer.0/attention/self/Concat_2_output_0">
					<dim>4</dim>
				</port>
			</output>
		</layer>
		<layer id="60" name="/bert/encoder/layer.0/attention/self/Reshape_2" type="Reshape" version="opset1">
			<data special_zero="true" />
			<rt_info>
				<attribute name="fused_names" version="0" value="/bert/encoder/layer.0/attention/self/Reshape_2" />
			</rt_info>
			<input>
				<port id="0" precision="FP32">
					<dim>-1</dim>
					<dim>-1</dim>
					<dim>32</dim>
				</port>
				<port id="1" precision="I64">
					<dim>4</dim>
				</port>
			</input>
			<output>
				<port id="2" precision="FP32" names="/bert/encoder/layer.0/attention/self/Reshape_2_output_0">
					<dim>-1</dim>
					<dim>-1</dim>
					<dim>4</dim>
					<dim>8</dim>
				</port>
			</output>
		</layer>
		<layer id="61" name="Constant_4452000" type="Const" version="opset1">
			<data element_type="i64" shape="4" offset="224596" size="32" />
			<rt_info>
				<attribute name="fused_names" version="0" value="Constant_4452000" />
			</rt_info>
			<output>
				<port id="0" precision="I64">
					<dim>4</dim>
				</port>
			</output>
		</layer>
		<layer id="62" name="/bert/encoder/layer.0/attention/self/Transpose_1" type="Transpose" version="opset1">
			<rt_info>
				<attribute name="fused_names" version="0" value="/bert/encoder/layer.0/attention/self/Transpose_1" />
			</rt_info>
			<input>
				<port id="0" precision="FP32">
					<dim>-1</dim>
					<dim>-1</dim>
					<dim>4</dim>
					<dim>8</dim>
				</port>
				<port id="1" precision="I64">
					<dim>4</dim>
				</port>
			</input>
			<output>
				<port id="2" precision="FP32" names="/bert/encoder/layer.0/attention/self/Transpose_1_output_0">
					<dim>-1</dim>
					<dim>4</dim>
					<dim>-1</dim>
					<dim>8</dim>
				</port>
			</output>
		</layer>
		<layer id="63" name="onnx::MatMul_693" type="Const" version="opset1">
			<data element_type="f32" shape="32, 32" offset="224628" size="4096" />
			<rt_info>
				<attribute name="fused_names" version="0" value="onnx::MatMul_693" />
			</rt_info>
			<output>
				<port id="0" precision="FP32" names="onnx::MatMul_693">
					<dim>32</dim>
					<dim>32</dim>
				</port>
			</output>
		</layer>
		<layer id="64" name="/bert/encoder/layer.0/attention/self/key/MatMul" type="MatMul" version="opset1">
			<data transpose_a="false" transpose_b="false" />
			<rt_info>
				<attribute name="fused_names" version="0" value="/bert/encoder/layer.0/attention/self/key/MatMul" />
			</rt_info>
			<input>
				<port id="0" precision="FP32">
					<dim>-1</dim>
					<dim>-1</dim>
					<dim>32</dim>
				</port>
				<port id="1" precision="FP32">
					<dim>32</dim>
					<dim>32</dim>
				</port>
			</input>
			<output>
				<port id="2" precision="FP32" names="/bert/encoder/layer.0/attention/self/key/MatMul_output_0">
					<dim>-1</dim>
					<dim>-1</dim>
					<dim>32</dim>
				</port>
			</output>
		</layer>
		<layer id="65" name="/bert/encoder/layer.0/attention/self/key/Add" type="Add" version="opset1">
			<data auto_broadcast="numpy" />
			<rt_info>
				<attribute name="fused_names" version="0" value="/bert/encoder/layer.0/attention/self/key/Add" />
			</rt_info>
			<input>
				<port id="0" precision="FP32">
					<dim>32</dim>
				</port>
				<port id="1" precision="FP32">
					<dim>-1</dim>
					<dim>-1</dim>
					<dim>32</dim>
				</port>
			</input>
			<output>
				<port id="2" precision="FP32" names="/bert/encoder/layer.0/attention/self/key/Add_output_0">
					<dim>-1</dim>
					<dim>-1</dim>
					<dim>32</dim>
				</port>
			</output>
		</layer>
		<layer id="66" name="/bert/encoder/layer.0/attention/self/Shape" type="ShapeOf" version="opset3">
			<data output_type="i64" />
			<rt_info>
				<attribute name="fused_names" version="0" value="/bert/encoder/layer.0/attention/self/Shape" />
			</rt_info>
			<input>
				<port id="0" precision="FP32">
					<dim>-1</dim>
					<dim>-1</dim>
					<dim>32</dim>
				</port>
			</input>
			<output>
				<port id="1" precision="I64" names="/bert/encoder/layer.0/attention/self/Shape_output_0">
					<dim>3</dim>
				</port>
			</output>
		</layer>
		<layer id="67" name="/bert/encoder/layer.0/attention/self/Constant" type="Const" version="opset1">
			<data element_type="i64" shape="" offset="148644" size="8" />
			<rt_info>
				<attribute name="fused_names" version="0" value="/bert/encoder/layer.0/attention/self/Constant" />
			</rt_info>
			<output>
				<port id="0" precision="I64" names="/bert/encoder/layer.0/attention/self/Constant_output_0" />
			</output>
		</layer>
		<layer id="68" name="Constant_4451920" type="Const" version="opset1">
			<data element_type="i64" shape="" offset="148644" size="8" />
			<rt_info>
				<attribute name="fused_names" version="0" value="Constant_4451920" />
			</rt_info>
			<output>
				<port id="0" precision="I64" />
			</output>
		</layer>
		<layer id="69" name="/bert/encoder/layer.0/attention/self/Gather" type="Gather" version="opset8">
			<data batch_dims="0" />
			<rt_info>
				<attribute name="fused_names" version="0" value="/bert/encoder/layer.0/attention/self/Constant, /bert/encoder/layer.0/attention/self/Gather, Constant_4451920" />
			</rt_info>
			<input>
				<port id="0" precision="I64">
					<dim>3</dim>
				</port>
				<port id="1" precision="I64" />
				<port id="2" precision="I64" />
			</input>
			<output>
				<port id="3" precision="I64" names="/bert/encoder/layer.0/attention/self/Gather_output_0" />
			</output>
		</layer>
		<layer id="70" name="Constant_4451926" type="Const" version="opset1">
			<data element_type="i64" shape="1" offset="148644" size="8" />
			<rt_info>
				<attribute name="fused_names" version="0" value="Constant_4451926" />
			</rt_info>
			<output>
				<port id="0" precision="I64">
					<dim>1</dim>
				</port>
			</output>
		</layer>
		<layer id="71" name="/bert/encoder/layer.0/attention/self/Unsqueeze" type="Unsqueeze" version="opset1">
			<rt_info>
				<attribute name="fused_names" version="0" value="/bert/encoder/layer.0/attention/self/Unsqueeze, Constant_4451926" />
			</rt_info>
			<input>
				<port id="0" precision="I64" />
				<port id="1" precision="I64">
					<dim>1</dim>
				</port>
			</input>
			<output>
				<port id="2" precision="I64" names="/bert/encoder/layer.0/attention/self/Unsqueeze_output_0">
					<dim>1</dim>
				</port>
			</output>
		</layer>
		<layer id="72" name="/bert/encoder/layer.0/attention/self/Shape_1" type="ShapeOf" version="opset3">
			<data output_type="i64" />
			<rt_info>
				<attribute name="fused_names" version="0" value="/bert/encoder/layer.0/attention/self/Shape_1" />
			</rt_info>
			<input>
				<port id="0" precision="FP32">
					<dim>-1</dim>
					<dim>-1</dim>
					<dim>32</dim>
				</port>
			</input>
			<output>
				<port id="1" precision="I64" names="/bert/encoder/layer.0/attention/self/Shape_1_output_0">
					<dim>3</dim>
				</port>
			</output>
		</layer>
		<layer id="73" name="/bert/encoder/layer.0/attention/self/Constant_1" type="Const" version="opset1">
			<data element_type="i64" shape="" offset="220332" size="8" />
			<rt_info>
				<attribute name="fused_names" version="0" value="/bert/encoder/layer.0/attention/self/Constant_1" />
			</rt_info>
			<output>
				<port id="0" precision="I64" names="/bert/encoder/layer.0/attention/self/Constant_1_output_0" />
			</output>
		</layer>
		<layer id="74" name="Constant_4451924" type="Const" version="opset1">
			<data element_type="i64" shape="" offset="148644" size="8" />
			<rt_info>
				<attribute name="fused_names" version="0" value="Constant_4451924" />
			</rt_info>
			<output>
				<port id="0" precision="I64" />
			</output>
		</layer>
		<layer id="75" name="/bert/encoder/layer.0/attention/self/Gather_1" type="Gather" version="opset8">
			<data batch_dims="0" />
			<rt_info>
				<attribute name="fused_names" version="0" value="/bert/encoder/layer.0/attention/self/Constant_1, /bert/encoder/layer.0/attention/self/Gather_1, Constant_4451924" />
			</rt_info>
			<input>
				<port id="0" precision="I64">
					<dim>3</dim>
				</port>
				<port id="1" precision="I64" />
				<port id="2" precision="I64" />
			</input>
			<output>
				<port id="3" precision="I64" names="/bert/encoder/layer.0/attention/self/Gather_1_output_0" />
			</output>
		</layer>
		<layer id="76" name="Constant_4451928" type="Const" version="opset1">
			<data element_type="i64" shape="1" offset="148644" size="8" />
			<rt_info>
				<attribute name="fused_names" version="0" value="Constant_4451928" />
			</rt_info>
			<output>
				<port id="0" precision="I64">
					<dim>1</dim>
				</port>
			</output>
		</layer>
		<layer id="77" name="/bert/encoder/layer.0/attention/self/Unsqueeze_1" type="Unsqueeze" version="opset1">
			<rt_info>
				<attribute name="fused_names" version="0" value="/bert/encoder/layer.0/attention/self/Unsqueeze_1, Constant_4451928" />
			</rt_info>
			<input>
				<port id="0" precision="I64" />
				<port id="1" precision="I64">
					<dim>1</dim>
				</port>
			</input>
			<output>
				<port id="2" precision="I64" names="/bert/encoder/layer.0/attention/self/Unsqueeze_1_output_0">
					<dim>1</dim>
				</port>
			</output>
		</layer>
		<layer id="78" name="/bert/encoder/layer.0/attention/self/Constant_2" type="Const" version="opset1">
			<data element_type="i64" shape="1" offset="224580" size="8" />
			<rt_info>
				<attribute name="fused_names" version="0" value="/bert/encoder/layer.0/attention/self/Constant_2" />
			</rt_info>
			<output>
				<port id="0" precision="I64" names="/bert/encoder/layer.0/attention/self/Constant_2_output_0">
					<dim>1</dim>
				</port>
			</output>
		</layer>
		<layer id="79" name="/bert/encoder/layer.0/attention/self/Constant_3" type="Const" version="opset1">
			<data element_type="i64" shape="1" offset="224588" size="8" />
			<rt_info>
				<attribute name="fused_names" version="0" value="/bert/encoder/layer.0/attention/self/Constant_3" />
			</rt_info>
			<output>
				<port id="0" precision="I64" names="/bert/encoder/layer.0/attention/self/Constant_3_output_0">
					<dim>1</dim>
				</port>
			</output>
		</layer>
		<layer id="80" name="/bert/encoder/layer.0/attention/self/Concat" type="Concat" version="opset1">
			<data axis="0" />
			<rt_info>
				<attribute name="fused_names" version="0" value="/bert/encoder/layer.0/attention/self/Concat, /bert/encoder/layer.0/attention/self/Constant_2, /bert/encoder/layer.0/attention/self/Constant_3" />
			</rt_info>
			<input>
				<port id="0" precision="I64">
					<dim>1</dim>
				</port>
				<port id="1" precision="I64">
					<dim>1</dim>
				</port>
				<port id="2" precision="I64">
					<dim>1</dim>
				</port>
				<port id="3" precision="I64">
					<dim>1</dim>
				</port>
			</input>
			<output>
				<port id="4" precision="I64" names="/bert/encoder/layer.0/attention/self/Concat_output_0">
					<dim>4</dim>
				</port>
			</output>
		</layer>
		<layer id="81" name="/bert/encoder/layer.0/attention/self/Reshape" type="Reshape" version="opset1">
			<data special_zero="true" />
			<rt_info>
				<attribute name="fused_names" version="0" value="/bert/encoder/layer.0/attention/self/Reshape" />
			</rt_info>
			<input>
				<port id="0" precision="FP32">
					<dim>-1</dim>
					<dim>-1</dim>
					<dim>32</dim>
				</port>
				<port id="1" precision="I64">
					<dim>4</dim>
				</port>
			</input>
			<output>
				<port id="2" precision="FP32" names="/bert/encoder/layer.0/attention/self/Reshape_output_0">
					<dim>-1</dim>
					<dim>-1</dim>
					<dim>4</dim>
					<dim>8</dim>
				</port>
			</output>
		</layer>
		<layer id="82" name="Constant_4452002" type="Const" version="opset1">
			<data element_type="i64" shape="4" offset="228724" size="32" />
			<rt_info>
				<attribute name="fused_names" version="0" value="Constant_4452002" />
			</rt_info>
			<output>
				<port id="0" precision="I64">
					<dim>4</dim>
				</port>
			</output>
		</layer>
		<layer id="83" name="/bert/encoder/layer.0/attention/self/Transpose_2" type="Transpose" version="opset1">
			<rt_info>
				<attribute name="fused_names" version="0" value="/bert/encoder/layer.0/attention/self/Transpose_2" />
			</rt_info>
			<input>
				<port id="0" precision="FP32">
					<dim>-1</dim>
					<dim>-1</dim>
					<dim>4</dim>
					<dim>8</dim>
				</port>
				<port id="1" precision="I64">
					<dim>4</dim>
				</port>
			</input>
			<output>
				<port id="2" precision="FP32" names="/bert/encoder/layer.0/attention/self/Transpose_2_output_0">
					<dim>-1</dim>
					<dim>4</dim>
					<dim>8</dim>
					<dim>-1</dim>
				</port>
			</output>
		</layer>
		<layer id="84" name="/bert/encoder/layer.0/attention/self/MatMul" type="MatMul" version="opset1">
			<data transpose_a="false" transpose_b="false" />
			<rt_info>
				<attribute name="fused_names" version="0" value="/bert/encoder/layer.0/attention/self/MatMul" />
			</rt_info>
			<input>
				<port id="0" precision="FP32">
					<dim>-1</dim>
					<dim>4</dim>
					<dim>-1</dim>
					<dim>8</dim>
				</port>
				<port id="1" precision="FP32">
					<dim>-1</dim>
					<dim>4</dim>
					<dim>8</dim>
					<dim>-1</dim>
				</port>
			</input>
			<output>
				<port id="2" precision="FP32" names="/bert/encoder/layer.0/attention/self/MatMul_output_0">
					<dim>-1</dim>
					<dim>4</dim>
					<dim>-1</dim>
					<dim>-1</dim>
				</port>
			</output>
		</layer>
		<layer id="85" name="/bert/encoder/layer.0/attention/self/Constant_12" type="Const" version="opset1">
			<data element_type="f32" shape="" offset="228756" size="4" />
			<rt_info>
				<attribute name="fused_names" version="0" value="/bert/encoder/layer.0/attention/self/Constant_12" />
			</rt_info>
			<output>
				<port id="0" precision="FP32" names="/bert/encoder/layer.0/attention/self/Constant_12_output_0" />
			</output>
		</layer>
		<layer id="86" name="/bert/encoder/layer.0/attention/self/Div" type="Divide" version="opset1">
			<data auto_broadcast="numpy" m_pythondiv="true" />
			<rt_info>
				<attribute name="fused_names" version="0" value="/bert/encoder/layer.0/attention/self/Div" />
			</rt_info>
			<input>
				<port id="0" precision="FP32">
					<dim>-1</dim>
					<dim>4</dim>
					<dim>-1</dim>
					<dim>-1</dim>
				</port>
				<port id="1" precision="FP32" />
			</input>
			<output>
				<port id="2" precision="FP32" names="/bert/encoder/layer.0/attention/self/Div_output_0">
					<dim>-1</dim>
					<dim>4</dim>
					<dim>-1</dim>
					<dim>-1</dim>
				</port>
			</output>
		</layer>
		<layer id="87" name="/bert/Constant" type="Const" version="opset1">
			<data element_type="f32" shape="" offset="228760" size="4" />
			<rt_info>
				<attribute name="fused_names" version="0" value="/bert/Constant" />
			</rt_info>
			<output>
				<port id="0" precision="FP32" names="/bert/Constant_output_0" />
			</output>
		</layer>
		<layer id="88" name="Constant_4451867" type="Const" version="opset1">
			<data element_type="i64" shape="1" offset="220332" size="8" />
			<rt_info>
				<attribute name="fused_names" version="0" value="Constant_4451867" />
			</rt_info>
			<output>
				<port id="0" precision="I64">
					<dim>1</dim>
				</port>
			</output>
		</layer>
		<layer id="89" name="/bert/Unsqueeze" type="Unsqueeze" version="opset1">
			<rt_info>
				<attribute name="fused_names" version="0" value="/bert/Unsqueeze" />
			</rt_info>
			<input>
				<port id="0" precision="I64">
					<dim>-1</dim>
					<dim>-1</dim>
				</port>
				<port id="1" precision="I64">
					<dim>1</dim>
				</port>
			</input>
			<output>
				<port id="2" precision="I64" names="/bert/Unsqueeze_output_0">
					<dim>-1</dim>
					<dim>1</dim>
					<dim>-1</dim>
				</port>
			</output>
		</layer>
		<layer id="90" name="Constant_4451869" type="Const" version="opset1">
			<data element_type="i64" shape="1" offset="228764" size="8" />
			<rt_info>
				<attribute name="fused_names" version="0" value="Constant_4451869" />
			</rt_info>
			<output>
				<port id="0" precision="I64">
					<dim>1</dim>
				</port>
			</output>
		</layer>
		<layer id="91" name="/bert/Unsqueeze_1" type="Unsqueeze" version="opset1">
			<rt_info>
				<attribute name="fused_names" version="0" value="/bert/Unsqueeze_1" />
			</rt_info>
			<input>
				<port id="0" precision="I64">
					<dim>-1</dim>
					<dim>1</dim>
					<dim>-1</dim>
				</port>
				<port id="1" precision="I64">
					<dim>1</dim>
				</port>
			</input>
			<output>
				<port id="2" precision="I64" names="/bert/Unsqueeze_1_output_0">
					<dim>-1</dim>
					<dim>1</dim>
					<dim>1</dim>
					<dim>-1</dim>
				</port>
			</output>
		</layer>
		<layer id="92" name="/bert/Cast" type="Convert" version="opset1">
			<data destination_type="f32" />
			<rt_info>
				<attribute name="fused_names" version="0" value="/bert/Cast" />
			</rt_info>
			<input>
				<port id="0" precision="I64">
					<dim>-1</dim>
					<dim>1</dim>
					<dim>1</dim>
					<dim>-1</dim>
				</port>
			</input>
			<output>
				<port id="1" precision="FP32" names="/bert/Cast_output_0">
					<dim>-1</dim>
					<dim>1</dim>
					<dim>1</dim>
					<dim>-1</dim>
				</port>
			</output>
		</layer>
		<layer id="93" name="/bert/Sub" type="Subtract" version="opset1">
			<data auto_broadcast="numpy" />
			<rt_info>
				<attribute name="fused_names" version="0" value="/bert/Sub" />
			</rt_info>
			<input>
				<port id="0" precision="FP32" />
				<port id="1" precision="FP32">
					<dim>-1</dim>
					<dim>1</dim>
					<dim>1</dim>
					<dim>-1</dim>
				</port>
			</input>
			<output>
				<port id="2" precision="FP32" names="/bert/Sub_output_0">
					<dim>-1</dim>
					<dim>1</dim>
					<dim>1</dim>
					<dim>-1</dim>
				</port>
			</output>
		</layer>
		<layer id="94" name="/bert/Constant_1" type="Const" version="opset1">
			<data element_type="f32" shape="" offset="228772" size="4" />
			<rt_info>
				<attribute name="fused_names" version="0" value="/bert/Constant_1" />
			</rt_info>
			<output>
				<port id="0" precision="FP32" names="/bert/Constant_1_output_0" />
			</output>
		</layer>
		<layer id="95" name="/bert/Mul" type="Multiply" version="opset1">
			<data auto_broadcast="numpy" />
			<rt_info>
				<attribute name="fused_names" version="0" value="/bert/Mul" />
			</rt_info>
			<input>
				<port id="0" precision="FP32">
					<dim>-1</dim>
					<dim>1</dim>
					<dim>1</dim>
					<dim>-1</dim>
				</port>
				<port id="1" precision="FP32" />
			</input>
			<output>
				<port id="2" precision="FP32" names="/bert/Mul_output_0">
					<dim>-1</dim>
					<dim>1</dim>
					<dim>1</dim>
					<dim>-1</dim>
				</port>
			</output>
		</layer>
		<layer id="96" name="/bert/encoder/layer.0/attention/self/Add" type="Add" version="opset1">
			<data auto_broadcast="numpy" />
			<rt_info>
				<attribute name="fused_names" version="0" value="/bert/encoder/layer.0/attention/self/Add" />
			</rt_info>
			<input>
				<port id="0" precision="FP32">
					<dim>-1</dim>
					<dim>4</dim>
					<dim>-1</dim>
					<dim>-1</dim>
				</port>
				<port id="1" precision="FP32">
					<dim>-1</dim>
					<dim>1</dim>
					<dim>1</dim>
					<dim>-1</dim>
				</port>
			</input>
			<output>
				<port id="2" precision="FP32" names="/bert/encoder/layer.0/attention/self/Add_output_0">
					<dim>-1</dim>
					<dim>4</dim>
					<dim>-1</dim>
					<dim>-1</dim>
				</port>
			</output>
		</layer>
		<layer id="97" name="/bert/encoder/layer.0/attention/self/Softmax" type="SoftMax" version="opset8">
			<data axis="3" />
			<rt_info>
				<attribute name="fused_names" version="0" value="/bert/encoder/layer.0/attention/self/Softmax" />
			</rt_info>
			<input>
				<port id="0" precision="FP32">
					<dim>-1</dim>
					<dim>4</dim>
					<dim>-1</dim>
					<dim>-1</dim>
				</port>
			</input>
			<output>
				<port id="1" precision="FP32" names="/bert/encoder/layer.0/attention/self/Softmax_output_0">
					<dim>-1</dim>
					<dim>4</dim>
					<dim>-1</dim>
					<dim>-1</dim>
				</port>
			</output>
		</layer>
		<layer id="98" name="onnx::MatMul_696" type="Const" version="opset1">
			<data element_type="f32" shape="32, 32" offset="228776" size="4096" />
			<rt_info>
				<attribute name="fused_names" version="0" value="onnx::MatMul_696" />
			</rt_info>
			<output>
				<port id="0" precision="FP32" names="onnx::MatMul_696">
					<dim>32</dim>
					<dim>32</dim>
				</port>
			</output>
		</layer>
		<layer id="99" name="/bert/encoder/layer.0/attention/self/value/MatMul" type="MatMul" version="opset1">
			<data transpose_a="false" transpose_b="false" />
			<rt_info>
				<attribute name="fused_names" version="0" value="/bert/encoder/layer.0/attention/self/value/MatMul" />
			</rt_info>
			<input>
				<port id="0" precision="FP32">
					<dim>-1</dim>
					<dim>-1</dim>
					<dim>32</dim>
				</port>
				<port id="1" precision="FP32">
					<dim>32</dim>
					<dim>32</dim>
				</port>
			</input>
			<output>
				<port id="2" precision="FP32" names="/bert/encoder/layer.0/attention/self/value/MatMul_output_0">
					<dim>-1</dim>
					<dim>-1</dim>
					<dim>32</dim>
				</port>
			</output>
		</layer>
		<layer id="100" name="/bert/encoder/layer.0/attention/self/value/Add" type="Add" version="opset1">
			<data auto_broadcast="numpy" />
			<rt_info>
				<attribute name="fused_names" version="0" value="/bert/encoder/layer.0/attention/self/value/Add" />
			</rt_info>
			<input>
				<port id="0" precision="FP32">
					<dim>32</dim>
				</port>
				<port id="1" precision="FP32">
					<dim>-1</dim>
					<dim>-1</dim>
					<dim>32</dim>
				</port>
			</input>
			<output>
				<port id="2" precision="FP32" names="/bert/encoder/layer.0/attention/self/value/Add_output_0">
					<dim>-1</dim>
					<dim>-1</dim>
					<dim>32</dim>
				</port>
			</output>
		</layer>
		<layer id="101" name="/bert/encoder/layer.0/attention/self/Shape_2" type="ShapeOf" version="opset3">
			<data output_type="i64" />
			<rt_info>
				<attribute name="fused_names" version="0" value="/bert/encoder/layer.0/attention/self/Shape_2" />
			</rt_info>
			<input>
				<port id="0" precision="FP32">
					<dim>-1</dim>
					<dim>-1</dim>
					<dim>32</dim>
				</port>
			</input>
			<output>
				<port id="1" precision="I64" names="/bert/encoder/layer.0/attention/self/Shape_2_output_0">
					<dim>3</dim>
				</port>
			</output>
		</layer>
		<layer id="102" name="/bert/encoder/layer.0/attention/self/Constant_4" type="Const" version="opset1">
			<data element_type="i64" shape="" offset="148644" size="8" />
			<rt_info>
				<attribute name="fused_names" version="0" value="/bert/encoder/layer.0/attention/self/Constant_4" />
			</rt_info>
			<output>
				<port id="0" precision="I64" names="/bert/encoder/layer.0/attention/self/Constant_4_output_0" />
			</output>
		</layer>
		<layer id="103" name="Constant_4451948" type="Const" version="opset1">
			<data element_type="i64" shape="" offset="148644" size="8" />
			<rt_info>
				<attribute name="fused_names" version="0" value="Constant_4451948" />
			</rt_info>
			<output>
				<port id="0" precision="I64" />
			</output>
		</layer>
		<layer id="104" name="/bert/encoder/layer.0/attention/self/Gather_2" type="Gather" version="opset8">
			<data batch_dims="0" />
			<rt_info>
				<attribute name="fused_names" version="0" value="/bert/encoder/layer.0/attention/self/Constant_4, /bert/encoder/layer.0/attention/self/Gather_2, Constant_4451948" />
			</rt_info>
			<input>
				<port id="0" precision="I64">
					<dim>3</dim>
				</port>
				<port id="1" precision="I64" />
				<port id="2" precision="I64" />
			</input>
			<output>
				<port id="3" precision="I64" names="/bert/encoder/layer.0/attention/self/Gather_2_output_0" />
			</output>
		</layer>
		<layer id="105" name="Constant_4451954" type="Const" version="opset1">
			<data element_type="i64" shape="1" offset="148644" size="8" />
			<rt_info>
				<attribute name="fused_names" version="0" value="Constant_4451954" />
			</rt_info>
			<output>
				<port id="0" precision="I64">
					<dim>1</dim>
				</port>
			</output>
		</layer>
		<layer id="106" name="/bert/encoder/layer.0/attention/self/Unsqueeze_2" type="Unsqueeze" version="opset1">
			<rt_info>
				<attribute name="fused_names" version="0" value="/bert/encoder/layer.0/attention/self/Unsqueeze_2, Constant_4451954" />
			</rt_info>
			<input>
				<port id="0" precision="I64" />
				<port id="1" precision="I64">
					<dim>1</dim>
				</port>
			</input>
			<output>
				<port id="2" precision="I64" names="/bert/encoder/layer.0/attention/self/Unsqueeze_2_output_0">
					<dim>1</dim>
				</port>
			</output>
		</layer>
		<layer id="107" name="/bert/encoder/layer.0/attention/self/Shape_3" type="ShapeOf" version="opset3">
			<data output_type="i64" />
			<rt_info>
				<attribute name="fused_names" version="0" value="/bert/encoder/layer.0/attention/self/Shape_3" />
			</rt_info>
			<input>
				<port id="0" precision="FP32">
					<dim>-1</dim>
					<dim>-1</dim>
					<dim>32</dim>
				</port>
			</input>
			<output>
				<port id="1" precision="I64" names="/bert/encoder/layer.0/attention/self/Shape_3_output_0">
					<dim>3</dim>
				</port>
			</output>
		</layer>
		<layer id="108" name="/bert/encoder/layer.0/attention/self/Constant_5" type="Const" version="opset1">
			<data element_type="i64" shape="" offset="220332" size="8" />
			<rt_info>
				<attribute name="fused_names" version="0" value="/bert/encoder/layer.0/attention/self/Constant_5" />
			</rt_info>
			<output>
				<port id="0" precision="I64" names="/bert/encoder/layer.0/attention/self/Constant_5_output_0" />
			</output>
		</layer>
		<layer id="109" name="Constant_4451952" type="Const" version="opset1">
			<data element_type="i64" shape="" offset="148644" size="8" />
			<rt_info>
				<attribute name="fused_names" version="0" value="Constant_4451952" />
			</rt_info>
			<output>
				<port id="0" precision="I64" />
			</output>
		</layer>
		<layer id="110" name="/bert/encoder/layer.0/attention/self/Gather_3" type="Gather" version="opset8">
			<data batch_dims="0" />
			<rt_info>
				<attribute name="fused_names" version="0" value="/bert/encoder/layer.0/attention/self/Constant_5, /bert/encoder/layer.0/attention/self/Gather_3, Constant_4451952" />
			</rt_info>
			<input>
				<port id="0" precision="I64">
					<dim>3</dim>
				</port>
				<port id="1" precision="I64" />
				<port id="2" precision="I64" />
			</input>
			<output>
				<port id="3" precision="I64" names="/bert/encoder/layer.0/attention/self/Gather_3_output_0" />
			</output>
		</layer>
		<layer id="111" name="Constant_4451956" type="Const" version="opset1">
			<data element_type="i64" shape="1" offset="148644" size="8" />
			<rt_info>
				<attribute name="fused_names" version="0" value="Constant_4451956" />
			</rt_info>
			<output>
				<port id="0" precision="I64">
					<dim>1</dim>
				</port>
			</output>
		</layer>
		<layer id="112" name="/bert/encoder/layer.0/attention/self/Unsqueeze_3" type="Unsqueeze" version="opset1">
			<rt_info>
				<attribute name="fused_names" version="0" value="/bert/encoder/layer.0/attention/self/Unsqueeze_3, Constant_4451956" />
			</rt_info>
			<input>
				<port id="0" precision="I64" />
				<port id="1" precision="I64">
					<dim>1</dim>
				</port>
			</input>
			<output>
				<port id="2" precision="I64" names="/bert/encoder/layer.0/attention/self/Unsqueeze_3_output_0">
					<dim>1</dim>
				</port>
			</output>
		</layer>
		<layer id="113" name="/bert/encoder/layer.0/attention/self/Constant_6" type="Const" version="opset1">
			<data element_type="i64" shape="1" offset="224580" size="8" />
			<rt_info>
				<attribute name="fused_names" version="0" value="/bert/encoder/layer.0/attention/self/Constant_6" />
			</rt_info>
			<output>
				<port id="0" precision="I64" names="/bert/encoder/layer.0/attention/self/Constant_6_output_0">
					<dim>1</dim>
				</port>
			</output>
		</layer>
		<layer id="114" name="/bert/encoder/layer.0/attention/self/Constant_7" type="Const" version="opset1">
			<data element_type="i64" shape="1" offset="224588" size="8" />
			<rt_info>
				<attribute name="fused_names" version="0" value="/bert/encoder/layer.0/attention/self/Constant_7" />
			</rt_info>
			<output>
				<port id="0" precision="I64" names="/bert/encoder/layer.0/attention/self/Constant_7_output_0">
					<dim>1</dim>
				</port>
			</output>
		</layer>
		<layer id="115" name="/bert/encoder/layer.0/attention/self/Concat_1" type="Concat" version="opset1">
			<data axis="0" />
			<rt_info>
				<attribute name="fused_names" version="0" value="/bert/encoder/layer.0/attention/self/Concat_1, /bert/encoder/layer.0/attention/self/Constant_6, /bert/encoder/layer.0/attention/self/Constant_7" />
			</rt_info>
			<input>
				<port id="0" precision="I64">
					<dim>1</dim>
				</port>
				<port id="1" precision="I64">
					<dim>1</dim>
				</port>
				<port id="2" precision="I64">
					<dim>1</dim>
				</port>
				<port id="3" precision="I64">
					<dim>1</dim>
				</port>
			</input>
			<output>
				<port id="4" precision="I64" names="/bert/encoder/layer.0/attention/self/Concat_1_output_0">
					<dim>4</dim>
				</port>
			</output>
		</layer>
		<layer id="116" name="/bert/encoder/layer.0/attention/self/Reshape_1" type="Reshape" version="opset1">
			<data special_zero="true" />
			<rt_info>
				<attribute name="fused_names" version="0" value="/bert/encoder/layer.0/attention/self/Reshape_1" />
			</rt_info>
			<input>
				<port id="0" precision="FP32">
					<dim>-1</dim>
					<dim>-1</dim>
					<dim>32</dim>
				</port>
				<port id="1" precision="I64">
					<dim>4</dim>
				</port>
			</input>
			<output>
				<port id="2" precision="FP32" names="/bert/encoder/layer.0/attention/self/Reshape_1_output_0">
					<dim>-1</dim>
					<dim>-1</dim>
					<dim>4</dim>
					<dim>8</dim>
				</port>
			</output>
		</layer>
		<layer id="117" name="Constant_4451972" type="Const" version="opset1">
			<data element_type="i64" shape="4" offset="224596" size="32" />
			<rt_info>
				<attribute name="fused_names" version="0" value="Constant_4451972" />
			</rt_info>
			<output>
				<port id="0" precision="I64">
					<dim>4</dim>
				</port>
			</output>
		</layer>
		<layer id="118" name="/bert/encoder/layer.0/attention/self/Transpose" type="Transpose" version="opset1">
			<rt_info>
				<attribute name="fused_names" version="0" value="/bert/encoder/layer.0/attention/self/Transpose" />
			</rt_info>
			<input>
				<port id="0" precision="FP32">
					<dim>-1</dim>
					<dim>-1</dim>
					<dim>4</dim>
					<dim>8</dim>
				</port>
				<port id="1" precision="I64">
					<dim>4</dim>
				</port>
			</input>
			<output>
				<port id="2" precision="FP32" names="/bert/encoder/layer.0/attention/self/Transpose_output_0">
					<dim>-1</dim>
					<dim>4</dim>
					<dim>-1</dim>
					<dim>8</dim>
				</port>
			</output>
		</layer>
		<layer id="119" name="/bert/encoder/layer.0/attention/self/MatMul_1" type="MatMul" version="opset1">
			<data transpose_a="false" transpose_b="false" />
			<rt_info>
				<attribute name="fused_names" version="0" value="/bert/encoder/layer.0/attention/self/MatMul_1" />
			</rt_info>
			<input>
				<port id="0" precision="FP32">
					<dim>-1</dim>
					<dim>4</dim>
					<dim>-1</dim>
					<dim>-1</dim>
				</port>
				<port id="1" precision="FP32">
					<dim>-1</dim>
					<dim>4</dim>
					<dim>-1</dim>
					<dim>8</dim>
				</port>
			</input>
			<output>
				<port id="2" precision="FP32" names="/bert/encoder/layer.0/attention/self/MatMul_1_output_0">
					<dim>-1</dim>
					<dim>4</dim>
					<dim>-1</dim>
					<dim>8</dim>
				</port>
			</output>
		</layer>
		<layer id="120" name="Constant_4452010" type="Const" version="opset1">
			<data element_type="i64" shape="4" offset="224596" size="32" />
			<rt_info>
				<attribute name="fused_names" version="0" value="Constant_4452010" />
			</rt_info>
			<output>
				<port id="0" precision="I64">
					<dim>4</dim>
				</port>
			</output>
		</layer>
		<layer id="121" name="/bert/encoder/layer.0/attention/self/Transpose_3" type="Transpose" version="opset1">
			<rt_info>
				<attribute name="fused_names" version="0" value="/bert/encoder/layer.0/attention/self/Transpose_3" />
			</rt_info>
			<input>
				<port id="0" precision="FP32">
					<dim>-1</dim>
					<dim>4</dim>
					<dim>-1</dim>
					<dim>8</dim>
				</port>
				<port id="1" precision="I64">
					<dim>4</dim>
				</port>
			</input>
			<output>
				<port id="2" precision="FP32" names="/bert/encoder/layer.0/attention/self/Transpose_3_output_0">
					<dim>-1</dim>
					<dim>-1</dim>
					<dim>4</dim>
					<dim>8</dim>
				</port>
			</output>
		</layer>
		<layer id="122" name="/bert/encoder/layer.0/attention/self/Shape_6" type="ShapeOf" version="opset3">
			<data output_type="i64" />
			<rt_info>
				<attribute name="fused_names" version="0" value="/bert/encoder/layer.0/attention/self/Shape_6" />
			</rt_info>
			<input>
				<port id="0" precision="FP32">
					<dim>-1</dim>
					<dim>-1</dim>
					<dim>4</dim>
					<dim>8</dim>
				</port>
			</input>
			<output>
				<port id="1" precision="I64" names="/bert/encoder/layer.0/attention/self/Shape_6_output_0">
					<dim>4</dim>
				</port>
			</output>
		</layer>
		<layer id="123" name="/bert/encoder/layer.0/attention/self/Constant_13" type="Const" version="opset1">
			<data element_type="i64" shape="" offset="148644" size="8" />
			<rt_info>
				<attribute name="fused_names" version="0" value="/bert/encoder/layer.0/attention/self/Constant_13" />
			</rt_info>
			<output>
				<port id="0" precision="I64" names="/bert/encoder/layer.0/attention/self/Constant_13_output_0" />
			</output>
		</layer>
		<layer id="124" name="Constant_4452014" type="Const" version="opset1">
			<data element_type="i64" shape="" offset="148644" size="8" />
			<rt_info>
				<attribute name="fused_names" version="0" value="Constant_4452014" />
			</rt_info>
			<output>
				<port id="0" precision="I64" />
			</output>
		</layer>
		<layer id="125" name="/bert/encoder/layer.0/attention/self/Gather_6" type="Gather" version="opset8">
			<data batch_dims="0" />
			<rt_info>
				<attribute name="fused_names" version="0" value="/bert/encoder/layer.0/attention/self/Constant_13, /bert/encoder/layer.0/attention/self/Gather_6, Constant_4452014" />
			</rt_info>
			<input>
				<port id="0" precision="I64">
					<dim>4</dim>
				</port>
				<port id="1" precision="I64" />
				<port id="2" precision="I64" />
			</input>
			<output>
				<port id="3" precision="I64" names="/bert/encoder/layer.0/attention/self/Gather_6_output_0" />
			</output>
		</layer>
		<layer id="126" name="Constant_4452020" type="Const" version="opset1">
			<data element_type="i64" shape="1" offset="148644" size="8" />
			<rt_info>
				<attribute name="fused_names" version="0" value="Constant_4452020" />
			</rt_info>
			<output>
				<port id="0" precision="I64">
					<dim>1</dim>
				</port>
			</output>
		</layer>
		<layer id="127" name="/bert/encoder/layer.0/attention/self/Unsqueeze_6" type="Unsqueeze" version="opset1">
			<rt_info>
				<attribute name="fused_names" version="0" value="/bert/encoder/layer.0/attention/self/Unsqueeze_6, Constant_4452020" />
			</rt_info>
			<input>
				<port id="0" precision="I64" />
				<port id="1" precision="I64">
					<dim>1</dim>
				</port>
			</input>
			<output>
				<port id="2" precision="I64" names="/bert/encoder/layer.0/attention/self/Unsqueeze_6_output_0">
					<dim>1</dim>
				</port>
			</output>
		</layer>
		<layer id="128" name="/bert/encoder/layer.0/attention/self/Shape_7" type="ShapeOf" version="opset3">
			<data output_type="i64" />
			<rt_info>
				<attribute name="fused_names" version="0" value="/bert/encoder/layer.0/attention/self/Shape_7" />
			</rt_info>
			<input>
				<port id="0" precision="FP32">
					<dim>-1</dim>
					<dim>-1</dim>
					<dim>4</dim>
					<dim>8</dim>
				</port>
			</input>
			<output>
				<port id="1" precision="I64" names="/bert/encoder/layer.0/attention/self/Shape_7_output_0">
					<dim>4</dim>
				</port>
			</output>
		</layer>
		<layer id="129" name="/bert/encoder/layer.0/attention/self/Constant_14" type="Const" version="opset1">
			<data element_type="i64" shape="" offset="220332" size="8" />
			<rt_info>
				<attribute name="fused_names" version="0" value="/bert/encoder/layer.0/attention/self/Constant_14" />
			</rt_info>
			<output>
				<port id="0" precision="I64" names="/bert/encoder/layer.0/attention/self/Constant_14_output_0" />
			</output>
		</layer>
		<layer id="130" name="Constant_4452018" type="Const" version="opset1">
			<data element_type="i64" shape="" offset="148644" size="8" />
			<rt_info>
				<attribute name="fused_names" version="0" value="Constant_4452018" />
			</rt_info>
			<output>
				<port id="0" precision="I64" />
			</output>
		</layer>
		<layer id="131" name="/bert/encoder/layer.0/attention/self/Gather_7" type="Gather" version="opset8">
			<data batch_dims="0" />
			<rt_info>
				<attribute name="fused_names" version="0" value="/bert/encoder/layer.0/attention/self/Constant_14, /bert/encoder/layer.0/attention/self/Gather_7, Constant_4452018" />
			</rt_info>
			<input>
				<port id="0" precision="I64">
					<dim>4</dim>
				</port>
				<port id="1" precision="I64" />
				<port id="2" precision="I64" />
			</input>
			<output>
				<port id="3" precision="I64" names="/bert/encoder/layer.0/attention/self/Gather_7_output_0" />
			</output>
		</layer>
		<layer id="132" name="Constant_4452022" type="Const" version="opset1">
			<data element_type="i64" shape="1" offset="148644" size="8" />
			<rt_info>
				<attribute name="fused_names" version="0" value="Constant_4452022" />
			</rt_info>
			<output>
				<port id="0" precision="I64">
					<dim>1</dim>
				</port>
			</output>
		</layer>
		<layer id="133" name="/bert/encoder/layer.0/attention/self/Unsqueeze_7" type="Unsqueeze" version="opset1">
			<rt_info>
				<attribute name="fused_names" version="0" value="/bert/encoder/layer.0/attention/self/Unsqueeze_7, Constant_4452022" />
			</rt_info>
			<input>
				<port id="0" precision="I64" />
				<port id="1" precision="I64">
					<dim>1</dim>
				</port>
			</input>
			<output>
				<port id="2" precision="I64" names="/bert/encoder/layer.0/attention/self/Unsqueeze_7_output_0">
					<dim>1</dim>
				</port>
			</output>
		</layer>
		<layer id="134" name="/bert/encoder/layer.0/attention/self/Constant_15" type="Const" version="opset1">
			<data element_type="i64" shape="1" offset="232872" size="8" />
			<rt_info>
				<attribute name="fused_names" version="0" value="/bert/encoder/layer.0/attention/self/Constant_15" />
			</rt_info>
			<output>
				<port id="0" precision="I64" names="/bert/encoder/layer.0/attention/self/Constant_15_output_0">
					<dim>1</dim>
				</port>
			</output>
		</layer>
		<layer id="135" name="/bert/encoder/layer.0/attention/self/Concat_3" type="Concat" version="opset1">
			<data axis="0" />
			<rt_info>
				<attribute name="fused_names" version="0" value="/bert/encoder/layer.0/attention/self/Concat_3, /bert/encoder/layer.0/attention/self/Constant_15" />
			</rt_info>
			<input>
				<port id="0" precision="I64">
					<dim>1</dim>
				</port>
				<port id="1" precision="I64">
					<dim>1</dim>
				</port>
				<port id="2" precision="I64">
					<dim>1</dim>
				</port>
			</input>
			<output>
				<port id="3" precision="I64" names="/bert/encoder/layer.0/attention/self/Concat_3_output_0">
					<dim>3</dim>
				</port>
			</output>
		</layer>
		<layer id="136" name="/bert/encoder/layer.0/attention/self/Reshape_3" type="Reshape" version="opset1">
			<data special_zero="true" />
			<rt_info>
				<attribute name="fused_names" version="0" value="/bert/encoder/layer.0/attention/self/Reshape_3" />
			</rt_info>
			<input>
				<port id="0" precision="FP32">
					<dim>-1</dim>
					<dim>-1</dim>
					<dim>4</dim>
					<dim>8</dim>
				</port>
				<port id="1" precision="I64">
					<dim>3</dim>
				</port>
			</input>
			<output>
				<port id="2" precision="FP32" names="/bert/encoder/layer.0/attention/self/Reshape_3_output_0">
					<dim>-1</dim>
					<dim>-1</dim>
					<dim>32</dim>
				</port>
			</output>
		</layer>
		<layer id="137" name="onnx::MatMul_702" type="Const" version="opset1">
			<data element_type="f32" shape="32, 32" offset="232880" size="4096" />
			<rt_info>
				<attribute name="fused_names" version="0" value="onnx::MatMul_702" />
			</rt_info>
			<output>
				<port id="0" precision="FP32" names="onnx::MatMul_702">
					<dim>32</dim>
					<dim>32</dim>
				</port>
			</output>
		</layer>
		<layer id="138" name="/bert/encoder/layer.0/attention/output/dense/MatMul" type="MatMul" version="opset1">
			<data transpose_a="false" transpose_b="false" />
			<rt_info>
				<attribute name="fused_names" version="0" value="/bert/encoder/layer.0/attention/output/dense/MatMul" />
			</rt_info>
			<input>
				<port id="0" precision="FP32">
					<dim>-1</dim>
					<dim>-1</dim>
					<dim>32</dim>
				</port>
				<port id="1" precision="FP32">
					<dim>32</dim>
					<dim>32</dim>
				</port>
			</input>
			<output>
				<port id="2" precision="FP32" names="/bert/encoder/layer.0/attention/output/dense/MatMul_output_0">
					<dim>-1</dim>
					<dim>-1</dim>
					<dim>32</dim>
				</port>
			</output>
		</layer>
		<layer id="139" name="/bert/encoder/layer.0/attention/output/dense/Add" type="Add" version="opset1">
			<data auto_broadcast="numpy" />
			<rt_info>
				<attribute name="fused_names" version="0" value="/bert/encoder/layer.0/attention/output/dense/Add" />
			</rt_info>
			<input>
				<port id="0" precision="FP32">
					<dim>32</dim>
				</port>
				<port id="1" precision="FP32">
					<dim>-1</dim>
					<dim>-1</dim>
					<dim>32</dim>
				</port>
			</input>
			<output>
				<port id="2" precision="FP32" names="/bert/encoder/layer.0/attention/output/dense/Add_output_0">
					<dim>-1</dim>
					<dim>-1</dim>
					<dim>32</dim>
				</port>
			</output>
		</layer>
		<layer id="140" name="/bert/encoder/layer.0/attention/output/Add" type="Add" version="opset1">
			<data auto_broadcast="numpy" />
			<rt_info>
				<attribute name="fused_names" version="0" value="/bert/encoder/layer.0/attention/output/Add" />
			</rt_info>
			<input>
				<port id="0" precision="FP32">
					<dim>-1</dim>
					<dim>-1</dim>
					<dim>32</dim>
				</port>
				<port id="1" precision="FP32">
					<dim>-1</dim>
					<dim>-1</dim>
					<dim>32</dim>
				</port>
			</input>
			<output>
				<port id="2" precision="FP32" names="/bert/encoder/layer.0/attention/output/Add_output_0">
					<dim>-1</dim>
					<dim>-1</dim>
					<dim>32</dim>
				</port>
			</output>
		</layer>
		<layer id="141" name="Constant_4452040" type="Const" version="opset1">
			<data element_type="i64" shape="1" offset="220340" size="8" />
			<rt_info>
				<attribute name="fused_names" version="0" value="Constant_4452040" />
			</rt_info>
			<output>
				<port id="0" precision="I64">
					<dim>1</dim>
				</port>
			</output>
		</layer>
		<layer id="142" name="/bert/encoder/layer.0/attention/output/LayerNorm/ReduceMean" type="ReduceMean" version="opset1">
			<data keep_dims="true" />
			<rt_info>
				<attribute name="fused_names" version="0" value="/bert/encoder/layer.0/attention/output/LayerNorm/ReduceMean" />
			</rt_info>
			<input>
				<port id="0" precision="FP32">
					<dim>-1</dim>
					<dim>-1</dim>
					<dim>32</dim>
				</port>
				<port id="1" precision="I64">
					<dim>1</dim>
				</port>
			</input>
			<output>
				<port id="2" precision="FP32" names="/bert/encoder/layer.0/attention/output/LayerNorm/ReduceMean_output_0">
					<dim>-1</dim>
					<dim>-1</dim>
					<dim>1</dim>
				</port>
			</output>
		</layer>
		<layer id="143" name="/bert/encoder/layer.0/attention/output/LayerNorm/Sub" type="Subtract" version="opset1">
			<data auto_broadcast="numpy" />
			<rt_info>
				<attribute name="fused_names" version="0" value="/bert/encoder/layer.0/attention/output/LayerNorm/Sub" />
			</rt_info>
			<input>
				<port id="0" precision="FP32">
					<dim>-1</dim>
					<dim>-1</dim>
					<dim>32</dim>
				</port>
				<port id="1" precision="FP32">
					<dim>-1</dim>
					<dim>-1</dim>
					<dim>1</dim>
				</port>
			</input>
			<output>
				<port id="2" precision="FP32" names="/bert/encoder/layer.0/attention/output/LayerNorm/Sub_output_0">
					<dim>-1</dim>
					<dim>-1</dim>
					<dim>32</dim>
				</port>
			</output>
		</layer>
		<layer id="144" name="/bert/encoder/layer.0/attention/output/LayerNorm/Constant" type="Const" version="opset1">
			<data element_type="f32" shape="" offset="220348" size="4" />
			<rt_info>
				<attribute name="fused_names" version="0" value="/bert/encoder/layer.0/attention/output/LayerNorm/Constant" />
			</rt_info>
			<output>
				<port id="0" precision="FP32" names="/bert/encoder/layer.0/attention/output/LayerNorm/Constant_output_0" />
			</output>
		</layer>
		<layer id="145" name="/bert/encoder/layer.0/attention/output/LayerNorm/Pow" type="Power" version="opset1">
			<data auto_broadcast="numpy" />
			<rt_info>
				<attribute name="fused_names" version="0" value="/bert/encoder/layer.0/attention/output/LayerNorm/Pow" />
			</rt_info>
			<input>
				<port id="0" precision="FP32">
					<dim>-1</dim>
					<dim>-1</dim>
					<dim>32</dim>
				</port>
				<port id="1" precision="FP32" />
			</input>
			<output>
				<port id="2" precision="FP32" names="/bert/encoder/layer.0/attention/output/LayerNorm/Pow_output_0">
					<dim>-1</dim>
					<dim>-1</dim>
					<dim>32</dim>
				</port>
			</output>
		</layer>
		<layer id="146" name="Constant_4452045" type="Const" version="opset1">
			<data element_type="i64" shape="1" offset="220340" size="8" />
			<rt_info>
				<attribute name="fused_names" version="0" value="Constant_4452045" />
			</rt_info>
			<output>
				<port id="0" precision="I64">
					<dim>1</dim>
				</port>
			</output>
		</layer>
		<layer id="147" name="/bert/encoder/layer.0/attention/output/LayerNorm/ReduceMean_1" type="ReduceMean" version="opset1">
			<data keep_dims="true" />
			<rt_info>
				<attribute name="fused_names" version="0" value="/bert/encoder/layer.0/attention/output/LayerNorm/ReduceMean_1" />
			</rt_info>
			<input>
				<port id="0" precision="FP32">
					<dim>-1</dim>
					<dim>-1</dim>
					<dim>32</dim>
				</port>
				<port id="1" precision="I64">
					<dim>1</dim>
				</port>
			</input>
			<output>
				<port id="2" precision="FP32" names="/bert/encoder/layer.0/attention/output/LayerNorm/ReduceMean_1_output_0">
					<dim>-1</dim>
					<dim>-1</dim>
					<dim>1</dim>
				</port>
			</output>
		</layer>
		<layer id="148" name="/bert/encoder/layer.0/attention/output/LayerNorm/Constant_1" type="Const" version="opset1">
			<data element_type="f32" shape="" offset="220352" size="4" />
			<rt_info>
				<attribute name="fused_names" version="0" value="/bert/encoder/layer.0/attention/output/LayerNorm/Constant_1" />
			</rt_info>
			<output>
				<port id="0" precision="FP32" names="/bert/encoder/layer.0/attention/output/LayerNorm/Constant_1_output_0" />
			</output>
		</layer>
		<layer id="149" name="/bert/encoder/layer.0/attention/output/LayerNorm/Add" type="Add" version="opset1">
			<data auto_broadcast="numpy" />
			<rt_info>
				<attribute name="fused_names" version="0" value="/bert/encoder/layer.0/attention/output/LayerNorm/Add" />
			</rt_info>
			<input>
				<port id="0" precision="FP32">
					<dim>-1</dim>
					<dim>-1</dim>
					<dim>1</dim>
				</port>
				<port id="1" precision="FP32" />
			</input>
			<output>
				<port id="2" precision="FP32" names="/bert/encoder/layer.0/attention/output/LayerNorm/Add_output_0">
					<dim>-1</dim>
					<dim>-1</dim>
					<dim>1</dim>
				</port>
			</output>
		</layer>
		<layer id="150" name="/bert/encoder/layer.0/attention/output/LayerNorm/Sqrt" type="Sqrt" version="opset1">
			<rt_info>
				<attribute name="fused_names" version="0" value="/bert/encoder/layer.0/attention/output/LayerNorm/Sqrt" />
			</rt_info>
			<input>
				<port id="0" precision="FP32">
					<dim>-1</dim>
					<dim>-1</dim>
					<dim>1</dim>
				</port>
			</input>
			<output>
				<port id="1" precision="FP32" names="/bert/encoder/layer.0/attention/output/LayerNorm/Sqrt_output_0">
					<dim>-1</dim>
					<dim>-1</dim>
					<dim>1</dim>
				</port>
			</output>
		</layer>
		<layer id="151" name="/bert/encoder/layer.0/attention/output/LayerNorm/Div" type="Divide" version="opset1">
			<data auto_broadcast="numpy" m_pythondiv="true" />
			<rt_info>
				<attribute name="fused_names" version="0" value="/bert/encoder/layer.0/attention/output/LayerNorm/Div" />
			</rt_info>
			<input>
				<port id="0" precision="FP32">
					<dim>-1</dim>
					<dim>-1</dim>
					<dim>32</dim>
				</port>
				<port id="1" precision="FP32">
					<dim>-1</dim>
					<dim>-1</dim>
					<dim>1</dim>
				</port>
			</input>
			<output>
				<port id="2" precision="FP32" names="/bert/encoder/layer.0/attention/output/LayerNorm/Div_output_0">
					<dim>-1</dim>
					<dim>-1</dim>
					<dim>32</dim>
				</port>
			</output>
		</layer>
		<layer id="152" name="/bert/encoder/layer.0/attention/output/LayerNorm/Mul" type="Multiply" version="opset1">
			<data auto_broadcast="numpy" />
			<rt_info>
				<attribute name="fused_names" version="0" value="/bert/encoder/layer.0/attention/output/LayerNorm/Mul" />
			</rt_info>
			<input>
				<port id="0" precision="FP32">
					<dim>-1</dim>
					<dim>-1</dim>
					<dim>32</dim>
				</port>
				<port id="1" precision="FP32">
					<dim>32</dim>
				</port>
			</input>
			<output>
				<port id="2" precision="FP32" names="/bert/encoder/layer.0/attention/output/LayerNorm/Mul_output_0">
					<dim>-1</dim>
					<dim>-1</dim>
					<dim>32</dim>
				</port>
			</output>
		</layer>
		<layer id="153" name="/bert/encoder/layer.0/attention/output/LayerNorm/Add_1" type="Add" version="opset1">
			<data auto_broadcast="numpy" />
			<rt_info>
				<attribute name="fused_names" version="0" value="/bert/encoder/layer.0/attention/output/LayerNorm/Add_1" />
			</rt_info>
			<input>
				<port id="0" precision="FP32">
					<dim>-1</dim>
					<dim>-1</dim>
					<dim>32</dim>
				</port>
				<port id="1" precision="FP32">
					<dim>32</dim>
				</port>
			</input>
			<output>
				<port id="2" precision="FP32" names="/bert/encoder/layer.0/attention/output/LayerNorm/Add_1_output_0">
					<dim>-1</dim>
					<dim>-1</dim>
					<dim>32</dim>
				</port>
			</output>
		</layer>
		<layer id="154" name="onnx::MatMul_703" type="Const" version="opset1">
			<data element_type="f32" shape="32, 37" offset="236976" size="4736" />
			<rt_info>
				<attribute name="fused_names" version="0" value="onnx::MatMul_703" />
			</rt_info>
			<output>
				<port id="0" precision="FP32" names="onnx::MatMul_703">
					<dim>32</dim>
					<dim>37</dim>
				</port>
			</output>
		</layer>
		<layer id="155" name="/bert/encoder/layer.0/intermediate/dense/MatMul" type="MatMul" version="opset1">
			<data transpose_a="false" transpose_b="false" />
			<rt_info>
				<attribute name="fused_names" version="0" value="/bert/encoder/layer.0/intermediate/dense/MatMul" />
			</rt_info>
			<input>
				<port id="0" precision="FP32">
					<dim>-1</dim>
					<dim>-1</dim>
					<dim>32</dim>
				</port>
				<port id="1" precision="FP32">
					<dim>32</dim>
					<dim>37</dim>
				</port>
			</input>
			<output>
				<port id="2" precision="FP32" names="/bert/encoder/layer.0/intermediate/dense/MatMul_output_0">
					<dim>-1</dim>
					<dim>-1</dim>
					<dim>37</dim>
				</port>
			</output>
		</layer>
		<layer id="156" name="/bert/encoder/layer.0/intermediate/dense/Add" type="Add" version="opset1">
			<data auto_broadcast="numpy" />
			<rt_info>
				<attribute name="fused_names" version="0" value="/bert/encoder/layer.0/intermediate/dense/Add" />
			</rt_info>
			<input>
				<port id="0" precision="FP32">
					<dim>37</dim>
				</port>
				<port id="1" precision="FP32">
					<dim>-1</dim>
					<dim>-1</dim>
					<dim>37</dim>
				</port>
			</input>
			<output>
				<port id="2" precision="FP32" names="/bert/encoder/layer.0/intermediate/dense/Add_output_0">
					<dim>-1</dim>
					<dim>-1</dim>
					<dim>37</dim>
				</port>
			</output>
		</layer>
		<layer id="157" name="/bert/encoder/layer.0/intermediate/intermediate_act_fn/Constant" type="Const" version="opset1">
			<data element_type="f32" shape="" offset="241712" size="4" />
			<rt_info>
				<attribute name="fused_names" version="0" value="/bert/encoder/layer.0/intermediate/intermediate_act_fn/Constant" />
			</rt_info>
			<output>
				<port id="0" precision="FP32" names="/bert/encoder/layer.0/intermediate/intermediate_act_fn/Constant_output_0" />
			</output>
		</layer>
		<layer id="158" name="/bert/encoder/layer.0/intermediate/intermediate_act_fn/Div" type="Divide" version="opset1">
			<data auto_broadcast="numpy" m_pythondiv="true" />
			<rt_info>
				<attribute name="fused_names" version="0" value="/bert/encoder/layer.0/intermediate/intermediate_act_fn/Div" />
			</rt_info>
			<input>
				<port id="0" precision="FP32">
					<dim>-1</dim>
					<dim>-1</dim>
					<dim>37</dim>
				</port>
				<port id="1" precision="FP32" />
			</input>
			<output>
				<port id="2" precision="FP32" names="/bert/encoder/layer.0/intermediate/intermediate_act_fn/Div_output_0">
					<dim>-1</dim>
					<dim>-1</dim>
					<dim>37</dim>
				</port>
			</output>
		</layer>
		<layer id="159" name="/bert/encoder/layer.0/intermediate/intermediate_act_fn/Erf" type="Erf" version="opset1">
			<rt_info>
				<attribute name="fused_names" version="0" value="/bert/encoder/layer.0/intermediate/intermediate_act_fn/Erf" />
			</rt_info>
			<input>
				<port id="0" precision="FP32">
					<dim>-1</dim>
					<dim>-1</dim>
					<dim>37</dim>
				</port>
			</input>
			<output>
				<port id="1" precision="FP32" names="/bert/encoder/layer.0/intermediate/intermediate_act_fn/Erf_output_0">
					<dim>-1</dim>
					<dim>-1</dim>
					<dim>37</dim>
				</port>
			</output>
		</layer>
		<layer id="160" name="/bert/encoder/layer.0/intermediate/intermediate_act_fn/Constant_1" type="Const" version="opset1">
			<data element_type="f32" shape="" offset="228760" size="4" />
			<rt_info>
				<attribute name="fused_names" version="0" value="/bert/encoder/layer.0/intermediate/intermediate_act_fn/Constant_1" />
			</rt_info>
			<output>
				<port id="0" precision="FP32" names="/bert/encoder/layer.0/intermediate/intermediate_act_fn/Constant_1_output_0" />
			</output>
		</layer>
		<layer id="161" name="/bert/encoder/layer.0/intermediate/intermediate_act_fn/Add" type="Add" version="opset1">
			<data auto_broadcast="numpy" />
			<rt_info>
				<attribute name="fused_names" version="0" value="/bert/encoder/layer.0/intermediate/intermediate_act_fn/Add" />
			</rt_info>
			<input>
				<port id="0" precision="FP32">
					<dim>-1</dim>
					<dim>-1</dim>
					<dim>37</dim>
				</port>
				<port id="1" precision="FP32" />
			</input>
			<output>
				<port id="2" precision="FP32" names="/bert/encoder/layer.0/intermediate/intermediate_act_fn/Add_output_0">
					<dim>-1</dim>
					<dim>-1</dim>
					<dim>37</dim>
				</port>
			</output>
		</layer>
		<layer id="162" name="/bert/encoder/layer.0/intermediate/intermediate_act_fn/Mul" type="Multiply" version="opset1">
			<data auto_broadcast="numpy" />
			<rt_info>
				<attribute name="fused_names" version="0" value="/bert/encoder/layer.0/intermediate/intermediate_act_fn/Mul" />
			</rt_info>
			<input>
				<port id="0" precision="FP32">
					<dim>-1</dim>
					<dim>-1</dim>
					<dim>37</dim>
				</port>
				<port id="1" precision="FP32">
					<dim>-1</dim>
					<dim>-1</dim>
					<dim>37</dim>
				</port>
			</input>
			<output>
				<port id="2" precision="FP32" names="/bert/encoder/layer.0/intermediate/intermediate_act_fn/Mul_output_0">
					<dim>-1</dim>
					<dim>-1</dim>
					<dim>37</dim>
				</port>
			</output>
		</layer>
		<layer id="163" name="/bert/encoder/layer.0/intermediate/intermediate_act_fn/Constant_2" type="Const" version="opset1">
			<data element_type="f32" shape="" offset="241716" size="4" />
			<rt_info>
				<attribute name="fused_names" version="0" value="/bert/encoder/layer.0/intermediate/intermediate_act_fn/Constant_2" />
			</rt_info>
			<output>
				<port id="0" precision="FP32" names="/bert/encoder/layer.0/intermediate/intermediate_act_fn/Constant_2_output_0" />
			</output>
		</layer>
		<layer id="164" name="/bert/encoder/layer.0/intermediate/intermediate_act_fn/Mul_1" type="Multiply" version="opset1">
			<data auto_broadcast="numpy" />
			<rt_info>
				<attribute name="fused_names" version="0" value="/bert/encoder/layer.0/intermediate/intermediate_act_fn/Mul_1" />
			</rt_info>
			<input>
				<port id="0" precision="FP32">
					<dim>-1</dim>
					<dim>-1</dim>
					<dim>37</dim>
				</port>
				<port id="1" precision="FP32" />
			</input>
			<output>
				<port id="2" precision="FP32" names="/bert/encoder/layer.0/intermediate/intermediate_act_fn/Mul_1_output_0">
					<dim>-1</dim>
					<dim>-1</dim>
					<dim>37</dim>
				</port>
			</output>
		</layer>
		<layer id="165" name="onnx::MatMul_704" type="Const" version="opset1">
			<data element_type="f32" shape="37, 32" offset="241720" size="4736" />
			<rt_info>
				<attribute name="fused_names" version="0" value="onnx::MatMul_704" />
			</rt_info>
			<output>
				<port id="0" precision="FP32" names="onnx::MatMul_704">
					<dim>37</dim>
					<dim>32</dim>
				</port>
			</output>
		</layer>
		<layer id="166" name="/bert/encoder/layer.0/output/dense/MatMul" type="MatMul" version="opset1">
			<data transpose_a="false" transpose_b="false" />
			<rt_info>
				<attribute name="fused_names" version="0" value="/bert/encoder/layer.0/output/dense/MatMul" />
			</rt_info>
			<input>
				<port id="0" precision="FP32">
					<dim>-1</dim>
					<dim>-1</dim>
					<dim>37</dim>
				</port>
				<port id="1" precision="FP32">
					<dim>37</dim>
					<dim>32</dim>
				</port>
			</input>
			<output>
				<port id="2" precision="FP32" names="/bert/encoder/layer.0/output/dense/MatMul_output_0">
					<dim>-1</dim>
					<dim>-1</dim>
					<dim>32</dim>
				</port>
			</output>
		</layer>
		<layer id="167" name="/bert/encoder/layer.0/output/dense/Add" type="Add" version="opset1">
			<data auto_broadcast="numpy" />
			<rt_info>
				<attribute name="fused_names" version="0" value="/bert/encoder/layer.0/output/dense/Add" />
			</rt_info>
			<input>
				<port id="0" precision="FP32">
					<dim>32</dim>
				</port>
				<port id="1" precision="FP32">
					<dim>-1</dim>
					<dim>-1</dim>
					<dim>32</dim>
				</port>
			</input>
			<output>
				<port id="2" precision="FP32" names="/bert/encoder/layer.0/output/dense/Add_output_0">
					<dim>-1</dim>
					<dim>-1</dim>
					<dim>32</dim>
				</port>
			</output>
		</layer>
		<layer id="168" name="/bert/encoder/layer.0/output/Add" type="Add" version="opset1">
			<data auto_broadcast="numpy" />
			<rt_info>
				<attribute name="fused_names" version="0" value="/bert/encoder/layer.0/output/Add" />
			</rt_info>
			<input>
				<port id="0" precision="FP32">
					<dim>-1</dim>
					<dim>-1</dim>
					<dim>32</dim>
				</port>
				<port id="1" precision="FP32">
					<dim>-1</dim>
					<dim>-1</dim>
					<dim>32</dim>
				</port>
			</input>
			<output>
				<port id="2" precision="FP32" names="/bert/encoder/layer.0/output/Add_output_0">
					<dim>-1</dim>
					<dim>-1</dim>
					<dim>32</dim>
				</port>
			</output>
		</layer>
		<layer id="169" name="Constant_4452066" type="Const" version="opset1">
			<data element_type="i64" shape="1" offset="220340" size="8" />
			<rt_info>
				<attribute name="fused_names" version="0" value="Constant_4452066" />
			</rt_info>
			<output>
				<port id="0" precision="I64">
					<dim>1</dim>
				</port>
			</output>
		</layer>
		<layer id="170" name="/bert/encoder/layer.0/output/LayerNorm/ReduceMean" type="ReduceMean" version="opset1">
			<data keep_dims="true" />
			<rt_info>
				<attribute name="fused_names" version="0" value="/bert/encoder/layer.0/output/LayerNorm/ReduceMean" />
			</rt_info>
			<input>
				<port id="0" precision="FP32">
					<dim>-1</dim>
					<dim>-1</dim>
					<dim>32</dim>
				</port>
				<port id="1" precision="I64">
					<dim>1</dim>
				</port>
			</input>
			<output>
				<port id="2" precision="FP32" names="/bert/encoder/layer.0/output/LayerNorm/ReduceMean_output_0">
					<dim>-1</dim>
					<dim>-1</dim>
					<dim>1</dim>
				</port>
			</output>
		</layer>
		<layer id="171" name="/bert/encoder/layer.0/output/LayerNorm/Sub" type="Subtract" version="opset1">
			<data auto_broadcast="numpy" />
			<rt_info>
				<attribute name="fused_names" version="0" value="/bert/encoder/layer.0/output/LayerNorm/Sub" />
			</rt_info>
			<input>
				<port id="0" precision="FP32">
					<dim>-1</dim>
					<dim>-1</dim>
					<dim>32</dim>
				</port>
				<port id="1" precision="FP32">
					<dim>-1</dim>
					<dim>-1</dim>
					<dim>1</dim>
				</port>
			</input>
			<output>
				<port id="2" precision="FP32" names="/bert/encoder/layer.0/output/LayerNorm/Sub_output_0">
					<dim>-1</dim>
					<dim>-1</dim>
					<dim>32</dim>
				</port>
			</output>
		</layer>
		<layer id="172" name="/bert/encoder/layer.0/output/LayerNorm/Constant" type="Const" version="opset1">
			<data element_type="f32" shape="" offset="220348" size="4" />
			<rt_info>
				<attribute name="fused_names" version="0" value="/bert/encoder/layer.0/output/LayerNorm/Constant" />
			</rt_info>
			<output>
				<port id="0" precision="FP32" names="/bert/encoder/layer.0/output/LayerNorm/Constant_output_0" />
			</output>
		</layer>
		<layer id="173" name="/bert/encoder/layer.0/output/LayerNorm/Pow" type="Power" version="opset1">
			<data auto_broadcast="numpy" />
			<rt_info>
				<attribute name="fused_names" version="0" value="/bert/encoder/layer.0/output/LayerNorm/Pow" />
			</rt_info>
			<input>
				<port id="0" precision="FP32">
					<dim>-1</dim>
					<dim>-1</dim>
					<dim>32</dim>
				</port>
				<port id="1" precision="FP32" />
			</input>
			<output>
				<port id="2" precision="FP32" names="/bert/encoder/layer.0/output/LayerNorm/Pow_output_0">
					<dim>-1</dim>
					<dim>-1</dim>
					<dim>32</dim>
				</port>
			</output>
		</layer>
		<layer id="174" name="Constant_4452071" type="Const" version="opset1">
			<data element_type="i64" shape="1" offset="220340" size="8" />
			<rt_info>
				<attribute name="fused_names" version="0" value="Constant_4452071" />
			</rt_info>
			<output>
				<port id="0" precision="I64">
					<dim>1</dim>
				</port>
			</output>
		</layer>
		<layer id="175" name="/bert/encoder/layer.0/output/LayerNorm/ReduceMean_1" type="ReduceMean" version="opset1">
			<data keep_dims="true" />
			<rt_info>
				<attribute name="fused_names" version="0" value="/bert/encoder/layer.0/output/LayerNorm/ReduceMean_1" />
			</rt_info>
			<input>
				<port id="0" precision="FP32">
					<dim>-1</dim>
					<dim>-1</dim>
					<dim>32</dim>
				</port>
				<port id="1" precision="I64">
					<dim>1</dim>
				</port>
			</input>
			<output>
				<port id="2" precision="FP32" names="/bert/encoder/layer.0/output/LayerNorm/ReduceMean_1_output_0">
					<dim>-1</dim>
					<dim>-1</dim>
					<dim>1</dim>
				</port>
			</output>
		</layer>
		<layer id="176" name="/bert/encoder/layer.0/output/LayerNorm/Constant_1" type="Const" version="opset1">
			<data element_type="f32" shape="" offset="220352" size="4" />
			<rt_info>
				<attribute name="fused_names" version="0" value="/bert/encoder/layer.0/output/LayerNorm/Constant_1" />
			</rt_info>
			<output>
				<port id="0" precision="FP32" names="/bert/encoder/layer.0/output/LayerNorm/Constant_1_output_0" />
			</output>
		</layer>
		<layer id="177" name="/bert/encoder/layer.0/output/LayerNorm/Add" type="Add" version="opset1">
			<data auto_broadcast="numpy" />
			<rt_info>
				<attribute name="fused_names" version="0" value="/bert/encoder/layer.0/output/LayerNorm/Add" />
			</rt_info>
			<input>
				<port id="0" precision="FP32">
					<dim>-1</dim>
					<dim>-1</dim>
					<dim>1</dim>
				</port>
				<port id="1" precision="FP32" />
			</input>
			<output>
				<port id="2" precision="FP32" names="/bert/encoder/layer.0/output/LayerNorm/Add_output_0">
					<dim>-1</dim>
					<dim>-1</dim>
					<dim>1</dim>
				</port>
			</output>
		</layer>
		<layer id="178" name="/bert/encoder/layer.0/output/LayerNorm/Sqrt" type="Sqrt" version="opset1">
			<rt_info>
				<attribute name="fused_names" version="0" value="/bert/encoder/layer.0/output/LayerNorm/Sqrt" />
			</rt_info>
			<input>
				<port id="0" precision="FP32">
					<dim>-1</dim>
					<dim>-1</dim>
					<dim>1</dim>
				</port>
			</input>
			<output>
				<port id="1" precision="FP32" names="/bert/encoder/layer.0/output/LayerNorm/Sqrt_output_0">
					<dim>-1</dim>
					<dim>-1</dim>
					<dim>1</dim>
				</port>
			</output>
		</layer>
		<layer id="179" name="/bert/encoder/layer.0/output/LayerNorm/Div" type="Divide" version="opset1">
			<data auto_broadcast="numpy" m_pythondiv="true" />
			<rt_info>
				<attribute name="fused_names" version="0" value="/bert/encoder/layer.0/output/LayerNorm/Div" />
			</rt_info>
			<input>
				<port id="0" precision="FP32">
					<dim>-1</dim>
					<dim>-1</dim>
					<dim>32</dim>
				</port>
				<port id="1" precision="FP32">
					<dim>-1</dim>
					<dim>-1</dim>
					<dim>1</dim>
				</port>
			</input>
			<output>
				<port id="2" precision="FP32" names="/bert/encoder/layer.0/output/LayerNorm/Div_output_0">
					<dim>-1</dim>
					<dim>-1</dim>
					<dim>32</dim>
				</port>
			</output>
		</layer>
		<layer id="180" name="/bert/encoder/layer.0/output/LayerNorm/Mul" type="Multiply" version="opset1">
			<data auto_broadcast="numpy" />
			<rt_info>
				<attribute name="fused_names" version="0" value="/bert/encoder/layer.0/output/LayerNorm/Mul" />
			</rt_info>
			<input>
				<port id="0" precision="FP32">
					<dim>-1</dim>
					<dim>-1</dim>
					<dim>32</dim>
				</port>
				<port id="1" precision="FP32">
					<dim>32</dim>
				</port>
			</input>
			<output>
				<port id="2" precision="FP32" names="/bert/encoder/layer.0/output/LayerNorm/Mul_output_0">
					<dim>-1</dim>
					<dim>-1</dim>
					<dim>32</dim>
				</port>
			</output>
		</layer>
		<layer id="181" name="/bert/encoder/layer.0/output/LayerNorm/Add_1" type="Add" version="opset1">
			<data auto_broadcast="numpy" />
			<rt_info>
				<attribute name="fused_names" version="0" value="/bert/encoder/layer.0/output/LayerNorm/Add_1" />
			</rt_info>
			<input>
				<port id="0" precision="FP32">
					<dim>-1</dim>
					<dim>-1</dim>
					<dim>32</dim>
				</port>
				<port id="1" precision="FP32">
					<dim>32</dim>
				</port>
			</input>
			<output>
				<port id="2" precision="FP32" names="/bert/encoder/layer.0/output/LayerNorm/Add_1_output_0">
					<dim>-1</dim>
					<dim>-1</dim>
					<dim>32</dim>
				</port>
			</output>
		</layer>
		<layer id="182" name="onnx::MatMul_705" type="Const" version="opset1">
			<data element_type="f32" shape="32, 32" offset="246456" size="4096" />
			<rt_info>
				<attribute name="fused_names" version="0" value="onnx::MatMul_705" />
			</rt_info>
			<output>
				<port id="0" precision="FP32" names="onnx::MatMul_705">
					<dim>32</dim>
					<dim>32</dim>
				</port>
			</output>
		</layer>
		<layer id="183" name="/bert/encoder/layer.1/attention/self/query/MatMul" type="MatMul" version="opset1">
			<data transpose_a="false" transpose_b="false" />
			<rt_info>
				<attribute name="fused_names" version="0" value="/bert/encoder/layer.1/attention/self/query/MatMul" />
			</rt_info>
			<input>
				<port id="0" precision="FP32">
					<dim>-1</dim>
					<dim>-1</dim>
					<dim>32</dim>
				</port>
				<port id="1" precision="FP32">
					<dim>32</dim>
					<dim>32</dim>
				</port>
			</input>
			<output>
				<port id="2" precision="FP32" names="/bert/encoder/layer.1/attention/self/query/MatMul_output_0">
					<dim>-1</dim>
					<dim>-1</dim>
					<dim>32</dim>
				</port>
			</output>
		</layer>
		<layer id="184" name="/bert/encoder/layer.1/attention/self/query/Add" type="Add" version="opset1">
			<data auto_broadcast="numpy" />
			<rt_info>
				<attribute name="fused_names" version="0" value="/bert/encoder/layer.1/attention/self/query/Add" />
			</rt_info>
			<input>
				<port id="0" precision="FP32">
					<dim>32</dim>
				</port>
				<port id="1" precision="FP32">
					<dim>-1</dim>
					<dim>-1</dim>
					<dim>32</dim>
				</port>
			</input>
			<output>
				<port id="2" precision="FP32" names="/bert/encoder/layer.1/attention/self/query/Add_output_0">
					<dim>-1</dim>
					<dim>-1</dim>
					<dim>32</dim>
				</port>
			</output>
		</layer>
		<layer id="185" name="/bert/encoder/layer.1/attention/self/Shape_4" type="ShapeOf" version="opset3">
			<data output_type="i64" />
			<rt_info>
				<attribute name="fused_names" version="0" value="/bert/encoder/layer.1/attention/self/Shape_4" />
			</rt_info>
			<input>
				<port id="0" precision="FP32">
					<dim>-1</dim>
					<dim>-1</dim>
					<dim>32</dim>
				</port>
			</input>
			<output>
				<port id="1" precision="I64" names="/bert/encoder/layer.1/attention/self/Shape_4_output_0">
					<dim>3</dim>
				</port>
			</output>
		</layer>
		<layer id="186" name="/bert/encoder/layer.1/attention/self/Constant_8" type="Const" version="opset1">
			<data element_type="i64" shape="" offset="148644" size="8" />
			<rt_info>
				<attribute name="fused_names" version="0" value="/bert/encoder/layer.1/attention/self/Constant_8" />
			</rt_info>
			<output>
				<port id="0" precision="I64" names="/bert/encoder/layer.1/attention/self/Constant_8_output_0" />
			</output>
		</layer>
		<layer id="187" name="Constant_4452141" type="Const" version="opset1">
			<data element_type="i64" shape="" offset="148644" size="8" />
			<rt_info>
				<attribute name="fused_names" version="0" value="Constant_4452141" />
			</rt_info>
			<output>
				<port id="0" precision="I64" />
			</output>
		</layer>
		<layer id="188" name="/bert/encoder/layer.1/attention/self/Gather_4" type="Gather" version="opset8">
			<data batch_dims="0" />
			<rt_info>
				<attribute name="fused_names" version="0" value="/bert/encoder/layer.1/attention/self/Constant_8, /bert/encoder/layer.1/attention/self/Gather_4, Constant_4452141" />
			</rt_info>
			<input>
				<port id="0" precision="I64">
					<dim>3</dim>
				</port>
				<port id="1" precision="I64" />
				<port id="2" precision="I64" />
			</input>
			<output>
				<port id="3" precision="I64" names="/bert/encoder/layer.1/attention/self/Gather_4_output_0" />
			</output>
		</layer>
		<layer id="189" name="Constant_4452147" type="Const" version="opset1">
			<data element_type="i64" shape="1" offset="148644" size="8" />
			<rt_info>
				<attribute name="fused_names" version="0" value="Constant_4452147" />
			</rt_info>
			<output>
				<port id="0" precision="I64">
					<dim>1</dim>
				</port>
			</output>
		</layer>
		<layer id="190" name="/bert/encoder/layer.1/attention/self/Unsqueeze_4" type="Unsqueeze" version="opset1">
			<rt_info>
				<attribute name="fused_names" version="0" value="/bert/encoder/layer.1/attention/self/Unsqueeze_4, Constant_4452147" />
			</rt_info>
			<input>
				<port id="0" precision="I64" />
				<port id="1" precision="I64">
					<dim>1</dim>
				</port>
			</input>
			<output>
				<port id="2" precision="I64" names="/bert/encoder/layer.1/attention/self/Unsqueeze_4_output_0">
					<dim>1</dim>
				</port>
			</output>
		</layer>
		<layer id="191" name="/bert/encoder/layer.1/attention/self/Shape_5" type="ShapeOf" version="opset3">
			<data output_type="i64" />
			<rt_info>
				<attribute name="fused_names" version="0" value="/bert/encoder/layer.1/attention/self/Shape_5" />
			</rt_info>
			<input>
				<port id="0" precision="FP32">
					<dim>-1</dim>
					<dim>-1</dim>
					<dim>32</dim>
				</port>
			</input>
			<output>
				<port id="1" precision="I64" names="/bert/encoder/layer.1/attention/self/Shape_5_output_0">
					<dim>3</dim>
				</port>
			</output>
		</layer>
		<layer id="192" name="/bert/encoder/layer.1/attention/self/Constant_9" type="Const" version="opset1">
			<data element_type="i64" shape="" offset="220332" size="8" />
			<rt_info>
				<attribute name="fused_names" version="0" value="/bert/encoder/layer.1/attention/self/Constant_9" />
			</rt_info>
			<output>
				<port id="0" precision="I64" names="/bert/encoder/layer.1/attention/self/Constant_9_output_0" />
			</output>
		</layer>
		<layer id="193" name="Constant_4452145" type="Const" version="opset1">
			<data element_type="i64" shape="" offset="148644" size="8" />
			<rt_info>
				<attribute name="fused_names" version="0" value="Constant_4452145" />
			</rt_info>
			<output>
				<port id="0" precision="I64" />
			</output>
		</layer>
		<layer id="194" name="/bert/encoder/layer.1/attention/self/Gather_5" type="Gather" version="opset8">
			<data batch_dims="0" />
			<rt_info>
				<attribute name="fused_names" version="0" value="/bert/encoder/layer.1/attention/self/Constant_9, /bert/encoder/layer.1/attention/self/Gather_5, Constant_4452145" />
			</rt_info>
			<input>
				<port id="0" precision="I64">
					<dim>3</dim>
				</port>
				<port id="1" precision="I64" />
				<port id="2" precision="I64" />
			</input>
			<output>
				<port id="3" precision="I64" names="/bert/encoder/layer.1/attention/self/Gather_5_output_0" />
			</output>
		</layer>
		<layer id="195" name="Constant_4452149" type="Const" version="opset1">
			<data element_type="i64" shape="1" offset="148644" size="8" />
			<rt_info>
				<attribute name="fused_names" version="0" value="Constant_4452149" />
			</rt_info>
			<output>
				<port id="0" precision="I64">
					<dim>1</dim>
				</port>
			</output>
		</layer>
		<layer id="196" name="/bert/encoder/layer.1/attention/self/Unsqueeze_5" type="Unsqueeze" version="opset1">
			<rt_info>
				<attribute name="fused_names" version="0" value="/bert/encoder/layer.1/attention/self/Unsqueeze_5, Constant_4452149" />
			</rt_info>
			<input>
				<port id="0" precision="I64" />
				<port id="1" precision="I64">
					<dim>1</dim>
				</port>
			</input>
			<output>
				<port id="2" precision="I64" names="/bert/encoder/layer.1/attention/self/Unsqueeze_5_output_0">
					<dim>1</dim>
				</port>
			</output>
		</layer>
		<layer id="197" name="/bert/encoder/layer.1/attention/self/Constant_10" type="Const" version="opset1">
			<data element_type="i64" shape="1" offset="224580" size="8" />
			<rt_info>
				<attribute name="fused_names" version="0" value="/bert/encoder/layer.1/attention/self/Constant_10" />
			</rt_info>
			<output>
				<port id="0" precision="I64" names="/bert/encoder/layer.1/attention/self/Constant_10_output_0">
					<dim>1</dim>
				</port>
			</output>
		</layer>
		<layer id="198" name="/bert/encoder/layer.1/attention/self/Constant_11" type="Const" version="opset1">
			<data element_type="i64" shape="1" offset="224588" size="8" />
			<rt_info>
				<attribute name="fused_names" version="0" value="/bert/encoder/layer.1/attention/self/Constant_11" />
			</rt_info>
			<output>
				<port id="0" precision="I64" names="/bert/encoder/layer.1/attention/self/Constant_11_output_0">
					<dim>1</dim>
				</port>
			</output>
		</layer>
		<layer id="199" name="/bert/encoder/layer.1/attention/self/Concat_2" type="Concat" version="opset1">
			<data axis="0" />
			<rt_info>
				<attribute name="fused_names" version="0" value="/bert/encoder/layer.1/attention/self/Concat_2, /bert/encoder/layer.1/attention/self/Constant_10, /bert/encoder/layer.1/attention/self/Constant_11" />
			</rt_info>
			<input>
				<port id="0" precision="I64">
					<dim>1</dim>
				</port>
				<port id="1" precision="I64">
					<dim>1</dim>
				</port>
				<port id="2" precision="I64">
					<dim>1</dim>
				</port>
				<port id="3" precision="I64">
					<dim>1</dim>
				</port>
			</input>
			<output>
				<port id="4" precision="I64" names="/bert/encoder/layer.1/attention/self/Concat_2_output_0">
					<dim>4</dim>
				</port>
			</output>
		</layer>
		<layer id="200" name="/bert/encoder/layer.1/attention/self/Reshape_2" type="Reshape" version="opset1">
			<data special_zero="true" />
			<rt_info>
				<attribute name="fused_names" version="0" value="/bert/encoder/layer.1/attention/self/Reshape_2" />
			</rt_info>
			<input>
				<port id="0" precision="FP32">
					<dim>-1</dim>
					<dim>-1</dim>
					<dim>32</dim>
				</port>
				<port id="1" precision="I64">
					<dim>4</dim>
				</port>
			</input>
			<output>
				<port id="2" precision="FP32" names="/bert/encoder/layer.1/attention/self/Reshape_2_output_0">
					<dim>-1</dim>
					<dim>-1</dim>
					<dim>4</dim>
					<dim>8</dim>
				</port>
			</output>
		</layer>
		<layer id="201" name="Constant_4452165" type="Const" version="opset1">
			<data element_type="i64" shape="4" offset="224596" size="32" />
			<rt_info>
				<attribute name="fused_names" version="0" value="Constant_4452165" />
			</rt_info>
			<output>
				<port id="0" precision="I64">
					<dim>4</dim>
				</port>
			</output>
		</layer>
		<layer id="202" name="/bert/encoder/layer.1/attention/self/Transpose_1" type="Transpose" version="opset1">
			<rt_info>
				<attribute name="fused_names" version="0" value="/bert/encoder/layer.1/attention/self/Transpose_1" />
			</rt_info>
			<input>
				<port id="0" precision="FP32">
					<dim>-1</dim>
					<dim>-1</dim>
					<dim>4</dim>
					<dim>8</dim>
				</port>
				<port id="1" precision="I64">
					<dim>4</dim>
				</port>
			</input>
			<output>
				<port id="2" precision="FP32" names="/bert/encoder/layer.1/attention/self/Transpose_1_output_0">
					<dim>-1</dim>
					<dim>4</dim>
					<dim>-1</dim>
					<dim>8</dim>
				</port>
			</output>
		</layer>
		<layer id="203" name="onnx::MatMul_706" type="Const" version="opset1">
			<data element_type="f32" shape="32, 32" offset="250552" size="4096" />
			<rt_info>
				<attribute name="fused_names" version="0" value="onnx::MatMul_706" />
			</rt_info>
			<output>
				<port id="0" precision="FP32" names="onnx::MatMul_706">
					<dim>32</dim>
					<dim>32</dim>
				</port>
			</output>
		</layer>
		<layer id="204" name="/bert/encoder/layer.1/attention/self/key/MatMul" type="MatMul" version="opset1">
			<data transpose_a="false" transpose_b="false" />
			<rt_info>
				<attribute name="fused_names" version="0" value="/bert/encoder/layer.1/attention/self/key/MatMul" />
			</rt_info>
			<input>
				<port id="0" precision="FP32">
					<dim>-1</dim>
					<dim>-1</dim>
					<dim>32</dim>
				</port>
				<port id="1" precision="FP32">
					<dim>32</dim>
					<dim>32</dim>
				</port>
			</input>
			<output>
				<port id="2" precision="FP32" names="/bert/encoder/layer.1/attention/self/key/MatMul_output_0">
					<dim>-1</dim>
					<dim>-1</dim>
					<dim>32</dim>
				</port>
			</output>
		</layer>
		<layer id="205" name="/bert/encoder/layer.1/attention/self/key/Add" type="Add" version="opset1">
			<data auto_broadcast="numpy" />
			<rt_info>
				<attribute name="fused_names" version="0" value="/bert/encoder/layer.1/attention/self/key/Add" />
			</rt_info>
			<input>
				<port id="0" precision="FP32">
					<dim>32</dim>
				</port>
				<port id="1" precision="FP32">
					<dim>-1</dim>
					<dim>-1</dim>
					<dim>32</dim>
				</port>
			</input>
			<output>
				<port id="2" precision="FP32" names="/bert/encoder/layer.1/attention/self/key/Add_output_0">
					<dim>-1</dim>
					<dim>-1</dim>
					<dim>32</dim>
				</port>
			</output>
		</layer>
		<layer id="206" name="/bert/encoder/layer.1/attention/self/Shape" type="ShapeOf" version="opset3">
			<data output_type="i64" />
			<rt_info>
				<attribute name="fused_names" version="0" value="/bert/encoder/layer.1/attention/self/Shape" />
			</rt_info>
			<input>
				<port id="0" precision="FP32">
					<dim>-1</dim>
					<dim>-1</dim>
					<dim>32</dim>
				</port>
			</input>
			<output>
				<port id="1" precision="I64" names="/bert/encoder/layer.1/attention/self/Shape_output_0">
					<dim>3</dim>
				</port>
			</output>
		</layer>
		<layer id="207" name="/bert/encoder/layer.1/attention/self/Constant" type="Const" version="opset1">
			<data element_type="i64" shape="" offset="148644" size="8" />
			<rt_info>
				<attribute name="fused_names" version="0" value="/bert/encoder/layer.1/attention/self/Constant" />
			</rt_info>
			<output>
				<port id="0" precision="I64" names="/bert/encoder/layer.1/attention/self/Constant_output_0" />
			</output>
		</layer>
		<layer id="208" name="Constant_4452085" type="Const" version="opset1">
			<data element_type="i64" shape="" offset="148644" size="8" />
			<rt_info>
				<attribute name="fused_names" version="0" value="Constant_4452085" />
			</rt_info>
			<output>
				<port id="0" precision="I64" />
			</output>
		</layer>
		<layer id="209" name="/bert/encoder/layer.1/attention/self/Gather" type="Gather" version="opset8">
			<data batch_dims="0" />
			<rt_info>
				<attribute name="fused_names" version="0" value="/bert/encoder/layer.1/attention/self/Constant, /bert/encoder/layer.1/attention/self/Gather, Constant_4452085" />
			</rt_info>
			<input>
				<port id="0" precision="I64">
					<dim>3</dim>
				</port>
				<port id="1" precision="I64" />
				<port id="2" precision="I64" />
			</input>
			<output>
				<port id="3" precision="I64" names="/bert/encoder/layer.1/attention/self/Gather_output_0" />
			</output>
		</layer>
		<layer id="210" name="Constant_4452091" type="Const" version="opset1">
			<data element_type="i64" shape="1" offset="148644" size="8" />
			<rt_info>
				<attribute name="fused_names" version="0" value="Constant_4452091" />
			</rt_info>
			<output>
				<port id="0" precision="I64">
					<dim>1</dim>
				</port>
			</output>
		</layer>
		<layer id="211" name="/bert/encoder/layer.1/attention/self/Unsqueeze" type="Unsqueeze" version="opset1">
			<rt_info>
				<attribute name="fused_names" version="0" value="/bert/encoder/layer.1/attention/self/Unsqueeze, Constant_4452091" />
			</rt_info>
			<input>
				<port id="0" precision="I64" />
				<port id="1" precision="I64">
					<dim>1</dim>
				</port>
			</input>
			<output>
				<port id="2" precision="I64" names="/bert/encoder/layer.1/attention/self/Unsqueeze_output_0">
					<dim>1</dim>
				</port>
			</output>
		</layer>
		<layer id="212" name="/bert/encoder/layer.1/attention/self/Shape_1" type="ShapeOf" version="opset3">
			<data output_type="i64" />
			<rt_info>
				<attribute name="fused_names" version="0" value="/bert/encoder/layer.1/attention/self/Shape_1" />
			</rt_info>
			<input>
				<port id="0" precision="FP32">
					<dim>-1</dim>
					<dim>-1</dim>
					<dim>32</dim>
				</port>
			</input>
			<output>
				<port id="1" precision="I64" names="/bert/encoder/layer.1/attention/self/Shape_1_output_0">
					<dim>3</dim>
				</port>
			</output>
		</layer>
		<layer id="213" name="/bert/encoder/layer.1/attention/self/Constant_1" type="Const" version="opset1">
			<data element_type="i64" shape="" offset="220332" size="8" />
			<rt_info>
				<attribute name="fused_names" version="0" value="/bert/encoder/layer.1/attention/self/Constant_1" />
			</rt_info>
			<output>
				<port id="0" precision="I64" names="/bert/encoder/layer.1/attention/self/Constant_1_output_0" />
			</output>
		</layer>
		<layer id="214" name="Constant_4452089" type="Const" version="opset1">
			<data element_type="i64" shape="" offset="148644" size="8" />
			<rt_info>
				<attribute name="fused_names" version="0" value="Constant_4452089" />
			</rt_info>
			<output>
				<port id="0" precision="I64" />
			</output>
		</layer>
		<layer id="215" name="/bert/encoder/layer.1/attention/self/Gather_1" type="Gather" version="opset8">
			<data batch_dims="0" />
			<rt_info>
				<attribute name="fused_names" version="0" value="/bert/encoder/layer.1/attention/self/Constant_1, /bert/encoder/layer.1/attention/self/Gather_1, Constant_4452089" />
			</rt_info>
			<input>
				<port id="0" precision="I64">
					<dim>3</dim>
				</port>
				<port id="1" precision="I64" />
				<port id="2" precision="I64" />
			</input>
			<output>
				<port id="3" precision="I64" names="/bert/encoder/layer.1/attention/self/Gather_1_output_0" />
			</output>
		</layer>
		<layer id="216" name="Constant_4452093" type="Const" version="opset1">
			<data element_type="i64" shape="1" offset="148644" size="8" />
			<rt_info>
				<attribute name="fused_names" version="0" value="Constant_4452093" />
			</rt_info>
			<output>
				<port id="0" precision="I64">
					<dim>1</dim>
				</port>
			</output>
		</layer>
		<layer id="217" name="/bert/encoder/layer.1/attention/self/Unsqueeze_1" type="Unsqueeze" version="opset1">
			<rt_info>
				<attribute name="fused_names" version="0" value="/bert/encoder/layer.1/attention/self/Unsqueeze_1, Constant_4452093" />
			</rt_info>
			<input>
				<port id="0" precision="I64" />
				<port id="1" precision="I64">
					<dim>1</dim>
				</port>
			</input>
			<output>
				<port id="2" precision="I64" names="/bert/encoder/layer.1/attention/self/Unsqueeze_1_output_0">
					<dim>1</dim>
				</port>
			</output>
		</layer>
		<layer id="218" name="/bert/encoder/layer.1/attention/self/Constant_2" type="Const" version="opset1">
			<data element_type="i64" shape="1" offset="224580" size="8" />
			<rt_info>
				<attribute name="fused_names" version="0" value="/bert/encoder/layer.1/attention/self/Constant_2" />
			</rt_info>
			<output>
				<port id="0" precision="I64" names="/bert/encoder/layer.1/attention/self/Constant_2_output_0">
					<dim>1</dim>
				</port>
			</output>
		</layer>
		<layer id="219" name="/bert/encoder/layer.1/attention/self/Constant_3" type="Const" version="opset1">
			<data element_type="i64" shape="1" offset="224588" size="8" />
			<rt_info>
				<attribute name="fused_names" version="0" value="/bert/encoder/layer.1/attention/self/Constant_3" />
			</rt_info>
			<output>
				<port id="0" precision="I64" names="/bert/encoder/layer.1/attention/self/Constant_3_output_0">
					<dim>1</dim>
				</port>
			</output>
		</layer>
		<layer id="220" name="/bert/encoder/layer.1/attention/self/Concat" type="Concat" version="opset1">
			<data axis="0" />
			<rt_info>
				<attribute name="fused_names" version="0" value="/bert/encoder/layer.1/attention/self/Concat, /bert/encoder/layer.1/attention/self/Constant_2, /bert/encoder/layer.1/attention/self/Constant_3" />
			</rt_info>
			<input>
				<port id="0" precision="I64">
					<dim>1</dim>
				</port>
				<port id="1" precision="I64">
					<dim>1</dim>
				</port>
				<port id="2" precision="I64">
					<dim>1</dim>
				</port>
				<port id="3" precision="I64">
					<dim>1</dim>
				</port>
			</input>
			<output>
				<port id="4" precision="I64" names="/bert/encoder/layer.1/attention/self/Concat_output_0">
					<dim>4</dim>
				</port>
			</output>
		</layer>
		<layer id="221" name="/bert/encoder/layer.1/attention/self/Reshape" type="Reshape" version="opset1">
			<data special_zero="true" />
			<rt_info>
				<attribute name="fused_names" version="0" value="/bert/encoder/layer.1/attention/self/Reshape" />
			</rt_info>
			<input>
				<port id="0" precision="FP32">
					<dim>-1</dim>
					<dim>-1</dim>
					<dim>32</dim>
				</port>
				<port id="1" precision="I64">
					<dim>4</dim>
				</port>
			</input>
			<output>
				<port id="2" precision="FP32" names="/bert/encoder/layer.1/attention/self/Reshape_output_0">
					<dim>-1</dim>
					<dim>-1</dim>
					<dim>4</dim>
					<dim>8</dim>
				</port>
			</output>
		</layer>
		<layer id="222" name="Constant_4452167" type="Const" version="opset1">
			<data element_type="i64" shape="4" offset="228724" size="32" />
			<rt_info>
				<attribute name="fused_names" version="0" value="Constant_4452167" />
			</rt_info>
			<output>
				<port id="0" precision="I64">
					<dim>4</dim>
				</port>
			</output>
		</layer>
		<layer id="223" name="/bert/encoder/layer.1/attention/self/Transpose_2" type="Transpose" version="opset1">
			<rt_info>
				<attribute name="fused_names" version="0" value="/bert/encoder/layer.1/attention/self/Transpose_2" />
			</rt_info>
			<input>
				<port id="0" precision="FP32">
					<dim>-1</dim>
					<dim>-1</dim>
					<dim>4</dim>
					<dim>8</dim>
				</port>
				<port id="1" precision="I64">
					<dim>4</dim>
				</port>
			</input>
			<output>
				<port id="2" precision="FP32" names="/bert/encoder/layer.1/attention/self/Transpose_2_output_0">
					<dim>-1</dim>
					<dim>4</dim>
					<dim>8</dim>
					<dim>-1</dim>
				</port>
			</output>
		</layer>
		<layer id="224" name="/bert/encoder/layer.1/attention/self/MatMul" type="MatMul" version="opset1">
			<data transpose_a="false" transpose_b="false" />
			<rt_info>
				<attribute name="fused_names" version="0" value="/bert/encoder/layer.1/attention/self/MatMul" />
			</rt_info>
			<input>
				<port id="0" precision="FP32">
					<dim>-1</dim>
					<dim>4</dim>
					<dim>-1</dim>
					<dim>8</dim>
				</port>
				<port id="1" precision="FP32">
					<dim>-1</dim>
					<dim>4</dim>
					<dim>8</dim>
					<dim>-1</dim>
				</port>
			</input>
			<output>
				<port id="2" precision="FP32" names="/bert/encoder/layer.1/attention/self/MatMul_output_0">
					<dim>-1</dim>
					<dim>4</dim>
					<dim>-1</dim>
					<dim>-1</dim>
				</port>
			</output>
		</layer>
		<layer id="225" name="/bert/encoder/layer.1/attention/self/Constant_12" type="Const" version="opset1">
			<data element_type="f32" shape="" offset="228756" size="4" />
			<rt_info>
				<attribute name="fused_names" version="0" value="/bert/encoder/layer.1/attention/self/Constant_12" />
			</rt_info>
			<output>
				<port id="0" precision="FP32" names="/bert/encoder/layer.1/attention/self/Constant_12_output_0" />
			</output>
		</layer>
		<layer id="226" name="/bert/encoder/layer.1/attention/self/Div" type="Divide" version="opset1">
			<data auto_broadcast="numpy" m_pythondiv="true" />
			<rt_info>
				<attribute name="fused_names" version="0" value="/bert/encoder/layer.1/attention/self/Div" />
			</rt_info>
			<input>
				<port id="0" precision="FP32">
					<dim>-1</dim>
					<dim>4</dim>
					<dim>-1</dim>
					<dim>-1</dim>
				</port>
				<port id="1" precision="FP32" />
			</input>
			<output>
				<port id="2" precision="FP32" names="/bert/encoder/layer.1/attention/self/Div_output_0">
					<dim>-1</dim>
					<dim>4</dim>
					<dim>-1</dim>
					<dim>-1</dim>
				</port>
			</output>
		</layer>
		<layer id="227" name="/bert/encoder/layer.1/attention/self/Add" type="Add" version="opset1">
			<data auto_broadcast="numpy" />
			<rt_info>
				<attribute name="fused_names" version="0" value="/bert/encoder/layer.1/attention/self/Add" />
			</rt_info>
			<input>
				<port id="0" precision="FP32">
					<dim>-1</dim>
					<dim>4</dim>
					<dim>-1</dim>
					<dim>-1</dim>
				</port>
				<port id="1" precision="FP32">
					<dim>-1</dim>
					<dim>1</dim>
					<dim>1</dim>
					<dim>-1</dim>
				</port>
			</input>
			<output>
				<port id="2" precision="FP32" names="/bert/encoder/layer.1/attention/self/Add_output_0">
					<dim>-1</dim>
					<dim>4</dim>
					<dim>-1</dim>
					<dim>-1</dim>
				</port>
			</output>
		</layer>
		<layer id="228" name="/bert/encoder/layer.1/attention/self/Softmax" type="SoftMax" version="opset8">
			<data axis="3" />
			<rt_info>
				<attribute name="fused_names" version="0" value="/bert/encoder/layer.1/attention/self/Softmax" />
			</rt_info>
			<input>
				<port id="0" precision="FP32">
					<dim>-1</dim>
					<dim>4</dim>
					<dim>-1</dim>
					<dim>-1</dim>
				</port>
			</input>
			<output>
				<port id="1" precision="FP32" names="/bert/encoder/layer.1/attention/self/Softmax_output_0">
					<dim>-1</dim>
					<dim>4</dim>
					<dim>-1</dim>
					<dim>-1</dim>
				</port>
			</output>
		</layer>
		<layer id="229" name="onnx::MatMul_709" type="Const" version="opset1">
			<data element_type="f32" shape="32, 32" offset="254648" size="4096" />
			<rt_info>
				<attribute name="fused_names" version="0" value="onnx::MatMul_709" />
			</rt_info>
			<output>
				<port id="0" precision="FP32" names="onnx::MatMul_709">
					<dim>32</dim>
					<dim>32</dim>
				</port>
			</output>
		</layer>
		<layer id="230" name="/bert/encoder/layer.1/attention/self/value/MatMul" type="MatMul" version="opset1">
			<data transpose_a="false" transpose_b="false" />
			<rt_info>
				<attribute name="fused_names" version="0" value="/bert/encoder/layer.1/attention/self/value/MatMul" />
			</rt_info>
			<input>
				<port id="0" precision="FP32">
					<dim>-1</dim>
					<dim>-1</dim>
					<dim>32</dim>
				</port>
				<port id="1" precision="FP32">
					<dim>32</dim>
					<dim>32</dim>
				</port>
			</input>
			<output>
				<port id="2" precision="FP32" names="/bert/encoder/layer.1/attention/self/value/MatMul_output_0">
					<dim>-1</dim>
					<dim>-1</dim>
					<dim>32</dim>
				</port>
			</output>
		</layer>
		<layer id="231" name="/bert/encoder/layer.1/attention/self/value/Add" type="Add" version="opset1">
			<data auto_broadcast="numpy" />
			<rt_info>
				<attribute name="fused_names" version="0" value="/bert/encoder/layer.1/attention/self/value/Add" />
			</rt_info>
			<input>
				<port id="0" precision="FP32">
					<dim>32</dim>
				</port>
				<port id="1" precision="FP32">
					<dim>-1</dim>
					<dim>-1</dim>
					<dim>32</dim>
				</port>
			</input>
			<output>
				<port id="2" precision="FP32" names="/bert/encoder/layer.1/attention/self/value/Add_output_0">
					<dim>-1</dim>
					<dim>-1</dim>
					<dim>32</dim>
				</port>
			</output>
		</layer>
		<layer id="232" name="/bert/encoder/layer.1/attention/self/Shape_2" type="ShapeOf" version="opset3">
			<data output_type="i64" />
			<rt_info>
				<attribute name="fused_names" version="0" value="/bert/encoder/layer.1/attention/self/Shape_2" />
			</rt_info>
			<input>
				<port id="0" precision="FP32">
					<dim>-1</dim>
					<dim>-1</dim>
					<dim>32</dim>
				</port>
			</input>
			<output>
				<port id="1" precision="I64" names="/bert/encoder/layer.1/attention/self/Shape_2_output_0">
					<dim>3</dim>
				</port>
			</output>
		</layer>
		<layer id="233" name="/bert/encoder/layer.1/attention/self/Constant_4" type="Const" version="opset1">
			<data element_type="i64" shape="" offset="148644" size="8" />
			<rt_info>
				<attribute name="fused_names" version="0" value="/bert/encoder/layer.1/attention/self/Constant_4" />
			</rt_info>
			<output>
				<port id="0" precision="I64" names="/bert/encoder/layer.1/attention/self/Constant_4_output_0" />
			</output>
		</layer>
		<layer id="234" name="Constant_4452113" type="Const" version="opset1">
			<data element_type="i64" shape="" offset="148644" size="8" />
			<rt_info>
				<attribute name="fused_names" version="0" value="Constant_4452113" />
			</rt_info>
			<output>
				<port id="0" precision="I64" />
			</output>
		</layer>
		<layer id="235" name="/bert/encoder/layer.1/attention/self/Gather_2" type="Gather" version="opset8">
			<data batch_dims="0" />
			<rt_info>
				<attribute name="fused_names" version="0" value="/bert/encoder/layer.1/attention/self/Constant_4, /bert/encoder/layer.1/attention/self/Gather_2, Constant_4452113" />
			</rt_info>
			<input>
				<port id="0" precision="I64">
					<dim>3</dim>
				</port>
				<port id="1" precision="I64" />
				<port id="2" precision="I64" />
			</input>
			<output>
				<port id="3" precision="I64" names="/bert/encoder/layer.1/attention/self/Gather_2_output_0" />
			</output>
		</layer>
		<layer id="236" name="Constant_4452119" type="Const" version="opset1">
			<data element_type="i64" shape="1" offset="148644" size="8" />
			<rt_info>
				<attribute name="fused_names" version="0" value="Constant_4452119" />
			</rt_info>
			<output>
				<port id="0" precision="I64">
					<dim>1</dim>
				</port>
			</output>
		</layer>
		<layer id="237" name="/bert/encoder/layer.1/attention/self/Unsqueeze_2" type="Unsqueeze" version="opset1">
			<rt_info>
				<attribute name="fused_names" version="0" value="/bert/encoder/layer.1/attention/self/Unsqueeze_2, Constant_4452119" />
			</rt_info>
			<input>
				<port id="0" precision="I64" />
				<port id="1" precision="I64">
					<dim>1</dim>
				</port>
			</input>
			<output>
				<port id="2" precision="I64" names="/bert/encoder/layer.1/attention/self/Unsqueeze_2_output_0">
					<dim>1</dim>
				</port>
			</output>
		</layer>
		<layer id="238" name="/bert/encoder/layer.1/attention/self/Shape_3" type="ShapeOf" version="opset3">
			<data output_type="i64" />
			<rt_info>
				<attribute name="fused_names" version="0" value="/bert/encoder/layer.1/attention/self/Shape_3" />
			</rt_info>
			<input>
				<port id="0" precision="FP32">
					<dim>-1</dim>
					<dim>-1</dim>
					<dim>32</dim>
				</port>
			</input>
			<output>
				<port id="1" precision="I64" names="/bert/encoder/layer.1/attention/self/Shape_3_output_0">
					<dim>3</dim>
				</port>
			</output>
		</layer>
		<layer id="239" name="/bert/encoder/layer.1/attention/self/Constant_5" type="Const" version="opset1">
			<data element_type="i64" shape="" offset="220332" size="8" />
			<rt_info>
				<attribute name="fused_names" version="0" value="/bert/encoder/layer.1/attention/self/Constant_5" />
			</rt_info>
			<output>
				<port id="0" precision="I64" names="/bert/encoder/layer.1/attention/self/Constant_5_output_0" />
			</output>
		</layer>
		<layer id="240" name="Constant_4452117" type="Const" version="opset1">
			<data element_type="i64" shape="" offset="148644" size="8" />
			<rt_info>
				<attribute name="fused_names" version="0" value="Constant_4452117" />
			</rt_info>
			<output>
				<port id="0" precision="I64" />
			</output>
		</layer>
		<layer id="241" name="/bert/encoder/layer.1/attention/self/Gather_3" type="Gather" version="opset8">
			<data batch_dims="0" />
			<rt_info>
				<attribute name="fused_names" version="0" value="/bert/encoder/layer.1/attention/self/Constant_5, /bert/encoder/layer.1/attention/self/Gather_3, Constant_4452117" />
			</rt_info>
			<input>
				<port id="0" precision="I64">
					<dim>3</dim>
				</port>
				<port id="1" precision="I64" />
				<port id="2" precision="I64" />
			</input>
			<output>
				<port id="3" precision="I64" names="/bert/encoder/layer.1/attention/self/Gather_3_output_0" />
			</output>
		</layer>
		<layer id="242" name="Constant_4452121" type="Const" version="opset1">
			<data element_type="i64" shape="1" offset="148644" size="8" />
			<rt_info>
				<attribute name="fused_names" version="0" value="Constant_4452121" />
			</rt_info>
			<output>
				<port id="0" precision="I64">
					<dim>1</dim>
				</port>
			</output>
		</layer>
		<layer id="243" name="/bert/encoder/layer.1/attention/self/Unsqueeze_3" type="Unsqueeze" version="opset1">
			<rt_info>
				<attribute name="fused_names" version="0" value="/bert/encoder/layer.1/attention/self/Unsqueeze_3, Constant_4452121" />
			</rt_info>
			<input>
				<port id="0" precision="I64" />
				<port id="1" precision="I64">
					<dim>1</dim>
				</port>
			</input>
			<output>
				<port id="2" precision="I64" names="/bert/encoder/layer.1/attention/self/Unsqueeze_3_output_0">
					<dim>1</dim>
				</port>
			</output>
		</layer>
		<layer id="244" name="/bert/encoder/layer.1/attention/self/Constant_6" type="Const" version="opset1">
			<data element_type="i64" shape="1" offset="224580" size="8" />
			<rt_info>
				<attribute name="fused_names" version="0" value="/bert/encoder/layer.1/attention/self/Constant_6" />
			</rt_info>
			<output>
				<port id="0" precision="I64" names="/bert/encoder/layer.1/attention/self/Constant_6_output_0">
					<dim>1</dim>
				</port>
			</output>
		</layer>
		<layer id="245" name="/bert/encoder/layer.1/attention/self/Constant_7" type="Const" version="opset1">
			<data element_type="i64" shape="1" offset="224588" size="8" />
			<rt_info>
				<attribute name="fused_names" version="0" value="/bert/encoder/layer.1/attention/self/Constant_7" />
			</rt_info>
			<output>
				<port id="0" precision="I64" names="/bert/encoder/layer.1/attention/self/Constant_7_output_0">
					<dim>1</dim>
				</port>
			</output>
		</layer>
		<layer id="246" name="/bert/encoder/layer.1/attention/self/Concat_1" type="Concat" version="opset1">
			<data axis="0" />
			<rt_info>
				<attribute name="fused_names" version="0" value="/bert/encoder/layer.1/attention/self/Concat_1, /bert/encoder/layer.1/attention/self/Constant_6, /bert/encoder/layer.1/attention/self/Constant_7" />
			</rt_info>
			<input>
				<port id="0" precision="I64">
					<dim>1</dim>
				</port>
				<port id="1" precision="I64">
					<dim>1</dim>
				</port>
				<port id="2" precision="I64">
					<dim>1</dim>
				</port>
				<port id="3" precision="I64">
					<dim>1</dim>
				</port>
			</input>
			<output>
				<port id="4" precision="I64" names="/bert/encoder/layer.1/attention/self/Concat_1_output_0">
					<dim>4</dim>
				</port>
			</output>
		</layer>
		<layer id="247" name="/bert/encoder/layer.1/attention/self/Reshape_1" type="Reshape" version="opset1">
			<data special_zero="true" />
			<rt_info>
				<attribute name="fused_names" version="0" value="/bert/encoder/layer.1/attention/self/Reshape_1" />
			</rt_info>
			<input>
				<port id="0" precision="FP32">
					<dim>-1</dim>
					<dim>-1</dim>
					<dim>32</dim>
				</port>
				<port id="1" precision="I64">
					<dim>4</dim>
				</port>
			</input>
			<output>
				<port id="2" precision="FP32" names="/bert/encoder/layer.1/attention/self/Reshape_1_output_0">
					<dim>-1</dim>
					<dim>-1</dim>
					<dim>4</dim>
					<dim>8</dim>
				</port>
			</output>
		</layer>
		<layer id="248" name="Constant_4452137" type="Const" version="opset1">
			<data element_type="i64" shape="4" offset="224596" size="32" />
			<rt_info>
				<attribute name="fused_names" version="0" value="Constant_4452137" />
			</rt_info>
			<output>
				<port id="0" precision="I64">
					<dim>4</dim>
				</port>
			</output>
		</layer>
		<layer id="249" name="/bert/encoder/layer.1/attention/self/Transpose" type="Transpose" version="opset1">
			<rt_info>
				<attribute name="fused_names" version="0" value="/bert/encoder/layer.1/attention/self/Transpose" />
			</rt_info>
			<input>
				<port id="0" precision="FP32">
					<dim>-1</dim>
					<dim>-1</dim>
					<dim>4</dim>
					<dim>8</dim>
				</port>
				<port id="1" precision="I64">
					<dim>4</dim>
				</port>
			</input>
			<output>
				<port id="2" precision="FP32" names="/bert/encoder/layer.1/attention/self/Transpose_output_0">
					<dim>-1</dim>
					<dim>4</dim>
					<dim>-1</dim>
					<dim>8</dim>
				</port>
			</output>
		</layer>
		<layer id="250" name="/bert/encoder/layer.1/attention/self/MatMul_1" type="MatMul" version="opset1">
			<data transpose_a="false" transpose_b="false" />
			<rt_info>
				<attribute name="fused_names" version="0" value="/bert/encoder/layer.1/attention/self/MatMul_1" />
			</rt_info>
			<input>
				<port id="0" precision="FP32">
					<dim>-1</dim>
					<dim>4</dim>
					<dim>-1</dim>
					<dim>-1</dim>
				</port>
				<port id="1" precision="FP32">
					<dim>-1</dim>
					<dim>4</dim>
					<dim>-1</dim>
					<dim>8</dim>
				</port>
			</input>
			<output>
				<port id="2" precision="FP32" names="/bert/encoder/layer.1/attention/self/MatMul_1_output_0">
					<dim>-1</dim>
					<dim>4</dim>
					<dim>-1</dim>
					<dim>8</dim>
				</port>
			</output>
		</layer>
		<layer id="251" name="Constant_4452175" type="Const" version="opset1">
			<data element_type="i64" shape="4" offset="224596" size="32" />
			<rt_info>
				<attribute name="fused_names" version="0" value="Constant_4452175" />
			</rt_info>
			<output>
				<port id="0" precision="I64">
					<dim>4</dim>
				</port>
			</output>
		</layer>
		<layer id="252" name="/bert/encoder/layer.1/attention/self/Transpose_3" type="Transpose" version="opset1">
			<rt_info>
				<attribute name="fused_names" version="0" value="/bert/encoder/layer.1/attention/self/Transpose_3" />
			</rt_info>
			<input>
				<port id="0" precision="FP32">
					<dim>-1</dim>
					<dim>4</dim>
					<dim>-1</dim>
					<dim>8</dim>
				</port>
				<port id="1" precision="I64">
					<dim>4</dim>
				</port>
			</input>
			<output>
				<port id="2" precision="FP32" names="/bert/encoder/layer.1/attention/self/Transpose_3_output_0">
					<dim>-1</dim>
					<dim>-1</dim>
					<dim>4</dim>
					<dim>8</dim>
				</port>
			</output>
		</layer>
		<layer id="253" name="/bert/encoder/layer.1/attention/self/Shape_6" type="ShapeOf" version="opset3">
			<data output_type="i64" />
			<rt_info>
				<attribute name="fused_names" version="0" value="/bert/encoder/layer.1/attention/self/Shape_6" />
			</rt_info>
			<input>
				<port id="0" precision="FP32">
					<dim>-1</dim>
					<dim>-1</dim>
					<dim>4</dim>
					<dim>8</dim>
				</port>
			</input>
			<output>
				<port id="1" precision="I64" names="/bert/encoder/layer.1/attention/self/Shape_6_output_0">
					<dim>4</dim>
				</port>
			</output>
		</layer>
		<layer id="254" name="/bert/encoder/layer.1/attention/self/Constant_13" type="Const" version="opset1">
			<data element_type="i64" shape="" offset="148644" size="8" />
			<rt_info>
				<attribute name="fused_names" version="0" value="/bert/encoder/layer.1/attention/self/Constant_13" />
			</rt_info>
			<output>
				<port id="0" precision="I64" names="/bert/encoder/layer.1/attention/self/Constant_13_output_0" />
			</output>
		</layer>
		<layer id="255" name="Constant_4452179" type="Const" version="opset1">
			<data element_type="i64" shape="" offset="148644" size="8" />
			<rt_info>
				<attribute name="fused_names" version="0" value="Constant_4452179" />
			</rt_info>
			<output>
				<port id="0" precision="I64" />
			</output>
		</layer>
		<layer id="256" name="/bert/encoder/layer.1/attention/self/Gather_6" type="Gather" version="opset8">
			<data batch_dims="0" />
			<rt_info>
				<attribute name="fused_names" version="0" value="/bert/encoder/layer.1/attention/self/Constant_13, /bert/encoder/layer.1/attention/self/Gather_6, Constant_4452179" />
			</rt_info>
			<input>
				<port id="0" precision="I64">
					<dim>4</dim>
				</port>
				<port id="1" precision="I64" />
				<port id="2" precision="I64" />
			</input>
			<output>
				<port id="3" precision="I64" names="/bert/encoder/layer.1/attention/self/Gather_6_output_0" />
			</output>
		</layer>
		<layer id="257" name="Constant_4452185" type="Const" version="opset1">
			<data element_type="i64" shape="1" offset="148644" size="8" />
			<rt_info>
				<attribute name="fused_names" version="0" value="Constant_4452185" />
			</rt_info>
			<output>
				<port id="0" precision="I64">
					<dim>1</dim>
				</port>
			</output>
		</layer>
		<layer id="258" name="/bert/encoder/layer.1/attention/self/Unsqueeze_6" type="Unsqueeze" version="opset1">
			<rt_info>
				<attribute name="fused_names" version="0" value="/bert/encoder/layer.1/attention/self/Unsqueeze_6, Constant_4452185" />
			</rt_info>
			<input>
				<port id="0" precision="I64" />
				<port id="1" precision="I64">
					<dim>1</dim>
				</port>
			</input>
			<output>
				<port id="2" precision="I64" names="/bert/encoder/layer.1/attention/self/Unsqueeze_6_output_0">
					<dim>1</dim>
				</port>
			</output>
		</layer>
		<layer id="259" name="/bert/encoder/layer.1/attention/self/Shape_7" type="ShapeOf" version="opset3">
			<data output_type="i64" />
			<rt_info>
				<attribute name="fused_names" version="0" value="/bert/encoder/layer.1/attention/self/Shape_7" />
			</rt_info>
			<input>
				<port id="0" precision="FP32">
					<dim>-1</dim>
					<dim>-1</dim>
					<dim>4</dim>
					<dim>8</dim>
				</port>
			</input>
			<output>
				<port id="1" precision="I64" names="/bert/encoder/layer.1/attention/self/Shape_7_output_0">
					<dim>4</dim>
				</port>
			</output>
		</layer>
		<layer id="260" name="/bert/encoder/layer.1/attention/self/Constant_14" type="Const" version="opset1">
			<data element_type="i64" shape="" offset="220332" size="8" />
			<rt_info>
				<attribute name="fused_names" version="0" value="/bert/encoder/layer.1/attention/self/Constant_14" />
			</rt_info>
			<output>
				<port id="0" precision="I64" names="/bert/encoder/layer.1/attention/self/Constant_14_output_0" />
			</output>
		</layer>
		<layer id="261" name="Constant_4452183" type="Const" version="opset1">
			<data element_type="i64" shape="" offset="148644" size="8" />
			<rt_info>
				<attribute name="fused_names" version="0" value="Constant_4452183" />
			</rt_info>
			<output>
				<port id="0" precision="I64" />
			</output>
		</layer>
		<layer id="262" name="/bert/encoder/layer.1/attention/self/Gather_7" type="Gather" version="opset8">
			<data batch_dims="0" />
			<rt_info>
				<attribute name="fused_names" version="0" value="/bert/encoder/layer.1/attention/self/Constant_14, /bert/encoder/layer.1/attention/self/Gather_7, Constant_4452183" />
			</rt_info>
			<input>
				<port id="0" precision="I64">
					<dim>4</dim>
				</port>
				<port id="1" precision="I64" />
				<port id="2" precision="I64" />
			</input>
			<output>
				<port id="3" precision="I64" names="/bert/encoder/layer.1/attention/self/Gather_7_output_0" />
			</output>
		</layer>
		<layer id="263" name="Constant_4452187" type="Const" version="opset1">
			<data element_type="i64" shape="1" offset="148644" size="8" />
			<rt_info>
				<attribute name="fused_names" version="0" value="Constant_4452187" />
			</rt_info>
			<output>
				<port id="0" precision="I64">
					<dim>1</dim>
				</port>
			</output>
		</layer>
		<layer id="264" name="/bert/encoder/layer.1/attention/self/Unsqueeze_7" type="Unsqueeze" version="opset1">
			<rt_info>
				<attribute name="fused_names" version="0" value="/bert/encoder/layer.1/attention/self/Unsqueeze_7, Constant_4452187" />
			</rt_info>
			<input>
				<port id="0" precision="I64" />
				<port id="1" precision="I64">
					<dim>1</dim>
				</port>
			</input>
			<output>
				<port id="2" precision="I64" names="/bert/encoder/layer.1/attention/self/Unsqueeze_7_output_0">
					<dim>1</dim>
				</port>
			</output>
		</layer>
		<layer id="265" name="/bert/encoder/layer.1/attention/self/Constant_15" type="Const" version="opset1">
			<data element_type="i64" shape="1" offset="232872" size="8" />
			<rt_info>
				<attribute name="fused_names" version="0" value="/bert/encoder/layer.1/attention/self/Constant_15" />
			</rt_info>
			<output>
				<port id="0" precision="I64" names="/bert/encoder/layer.1/attention/self/Constant_15_output_0">
					<dim>1</dim>
				</port>
			</output>
		</layer>
		<layer id="266" name="/bert/encoder/layer.1/attention/self/Concat_3" type="Concat" version="opset1">
			<data axis="0" />
			<rt_info>
				<attribute name="fused_names" version="0" value="/bert/encoder/layer.1/attention/self/Concat_3, /bert/encoder/layer.1/attention/self/Constant_15" />
			</rt_info>
			<input>
				<port id="0" precision="I64">
					<dim>1</dim>
				</port>
				<port id="1" precision="I64">
					<dim>1</dim>
				</port>
				<port id="2" precision="I64">
					<dim>1</dim>
				</port>
			</input>
			<output>
				<port id="3" precision="I64" names="/bert/encoder/layer.1/attention/self/Concat_3_output_0">
					<dim>3</dim>
				</port>
			</output>
		</layer>
		<layer id="267" name="/bert/encoder/layer.1/attention/self/Reshape_3" type="Reshape" version="opset1">
			<data special_zero="true" />
			<rt_info>
				<attribute name="fused_names" version="0" value="/bert/encoder/layer.1/attention/self/Reshape_3" />
			</rt_info>
			<input>
				<port id="0" precision="FP32">
					<dim>-1</dim>
					<dim>-1</dim>
					<dim>4</dim>
					<dim>8</dim>
				</port>
				<port id="1" precision="I64">
					<dim>3</dim>
				</port>
			</input>
			<output>
				<port id="2" precision="FP32" names="/bert/encoder/layer.1/attention/self/Reshape_3_output_0">
					<dim>-1</dim>
					<dim>-1</dim>
					<dim>32</dim>
				</port>
			</output>
		</layer>
		<layer id="268" name="onnx::MatMul_715" type="Const" version="opset1">
			<data element_type="f32" shape="32, 32" offset="258744" size="4096" />
			<rt_info>
				<attribute name="fused_names" version="0" value="onnx::MatMul_715" />
			</rt_info>
			<output>
				<port id="0" precision="FP32" names="onnx::MatMul_715">
					<dim>32</dim>
					<dim>32</dim>
				</port>
			</output>
		</layer>
		<layer id="269" name="/bert/encoder/layer.1/attention/output/dense/MatMul" type="MatMul" version="opset1">
			<data transpose_a="false" transpose_b="false" />
			<rt_info>
				<attribute name="fused_names" version="0" value="/bert/encoder/layer.1/attention/output/dense/MatMul" />
			</rt_info>
			<input>
				<port id="0" precision="FP32">
					<dim>-1</dim>
					<dim>-1</dim>
					<dim>32</dim>
				</port>
				<port id="1" precision="FP32">
					<dim>32</dim>
					<dim>32</dim>
				</port>
			</input>
			<output>
				<port id="2" precision="FP32" names="/bert/encoder/layer.1/attention/output/dense/MatMul_output_0">
					<dim>-1</dim>
					<dim>-1</dim>
					<dim>32</dim>
				</port>
			</output>
		</layer>
		<layer id="270" name="/bert/encoder/layer.1/attention/output/dense/Add" type="Add" version="opset1">
			<data auto_broadcast="numpy" />
			<rt_info>
				<attribute name="fused_names" version="0" value="/bert/encoder/layer.1/attention/output/dense/Add" />
			</rt_info>
			<input>
				<port id="0" precision="FP32">
					<dim>32</dim>
				</port>
				<port id="1" precision="FP32">
					<dim>-1</dim>
					<dim>-1</dim>
					<dim>32</dim>
				</port>
			</input>
			<output>
				<port id="2" precision="FP32" names="/bert/encoder/layer.1/attention/output/dense/Add_output_0">
					<dim>-1</dim>
					<dim>-1</dim>
					<dim>32</dim>
				</port>
			</output>
		</layer>
		<layer id="271" name="/bert/encoder/layer.1/attention/output/Add" type="Add" version="opset1">
			<data auto_broadcast="numpy" />
			<rt_info>
				<attribute name="fused_names" version="0" value="/bert/encoder/layer.1/attention/output/Add" />
			</rt_info>
			<input>
				<port id="0" precision="FP32">
					<dim>-1</dim>
					<dim>-1</dim>
					<dim>32</dim>
				</port>
				<port id="1" precision="FP32">
					<dim>-1</dim>
					<dim>-1</dim>
					<dim>32</dim>
				</port>
			</input>
			<output>
				<port id="2" precision="FP32" names="/bert/encoder/layer.1/attention/output/Add_output_0">
					<dim>-1</dim>
					<dim>-1</dim>
					<dim>32</dim>
				</port>
			</output>
		</layer>
		<layer id="272" name="Constant_4452205" type="Const" version="opset1">
			<data element_type="i64" shape="1" offset="220340" size="8" />
			<rt_info>
				<attribute name="fused_names" version="0" value="Constant_4452205" />
			</rt_info>
			<output>
				<port id="0" precision="I64">
					<dim>1</dim>
				</port>
			</output>
		</layer>
		<layer id="273" name="/bert/encoder/layer.1/attention/output/LayerNorm/ReduceMean" type="ReduceMean" version="opset1">
			<data keep_dims="true" />
			<rt_info>
				<attribute name="fused_names" version="0" value="/bert/encoder/layer.1/attention/output/LayerNorm/ReduceMean" />
			</rt_info>
			<input>
				<port id="0" precision="FP32">
					<dim>-1</dim>
					<dim>-1</dim>
					<dim>32</dim>
				</port>
				<port id="1" precision="I64">
					<dim>1</dim>
				</port>
			</input>
			<output>
				<port id="2" precision="FP32" names="/bert/encoder/layer.1/attention/output/LayerNorm/ReduceMean_output_0">
					<dim>-1</dim>
					<dim>-1</dim>
					<dim>1</dim>
				</port>
			</output>
		</layer>
		<layer id="274" name="/bert/encoder/layer.1/attention/output/LayerNorm/Sub" type="Subtract" version="opset1">
			<data auto_broadcast="numpy" />
			<rt_info>
				<attribute name="fused_names" version="0" value="/bert/encoder/layer.1/attention/output/LayerNorm/Sub" />
			</rt_info>
			<input>
				<port id="0" precision="FP32">
					<dim>-1</dim>
					<dim>-1</dim>
					<dim>32</dim>
				</port>
				<port id="1" precision="FP32">
					<dim>-1</dim>
					<dim>-1</dim>
					<dim>1</dim>
				</port>
			</input>
			<output>
				<port id="2" precision="FP32" names="/bert/encoder/layer.1/attention/output/LayerNorm/Sub_output_0">
					<dim>-1</dim>
					<dim>-1</dim>
					<dim>32</dim>
				</port>
			</output>
		</layer>
		<layer id="275" name="/bert/encoder/layer.1/attention/output/LayerNorm/Constant" type="Const" version="opset1">
			<data element_type="f32" shape="" offset="220348" size="4" />
			<rt_info>
				<attribute name="fused_names" version="0" value="/bert/encoder/layer.1/attention/output/LayerNorm/Constant" />
			</rt_info>
			<output>
				<port id="0" precision="FP32" names="/bert/encoder/layer.1/attention/output/LayerNorm/Constant_output_0" />
			</output>
		</layer>
		<layer id="276" name="/bert/encoder/layer.1/attention/output/LayerNorm/Pow" type="Power" version="opset1">
			<data auto_broadcast="numpy" />
			<rt_info>
				<attribute name="fused_names" version="0" value="/bert/encoder/layer.1/attention/output/LayerNorm/Pow" />
			</rt_info>
			<input>
				<port id="0" precision="FP32">
					<dim>-1</dim>
					<dim>-1</dim>
					<dim>32</dim>
				</port>
				<port id="1" precision="FP32" />
			</input>
			<output>
				<port id="2" precision="FP32" names="/bert/encoder/layer.1/attention/output/LayerNorm/Pow_output_0">
					<dim>-1</dim>
					<dim>-1</dim>
					<dim>32</dim>
				</port>
			</output>
		</layer>
		<layer id="277" name="Constant_4452210" type="Const" version="opset1">
			<data element_type="i64" shape="1" offset="220340" size="8" />
			<rt_info>
				<attribute name="fused_names" version="0" value="Constant_4452210" />
			</rt_info>
			<output>
				<port id="0" precision="I64">
					<dim>1</dim>
				</port>
			</output>
		</layer>
		<layer id="278" name="/bert/encoder/layer.1/attention/output/LayerNorm/ReduceMean_1" type="ReduceMean" version="opset1">
			<data keep_dims="true" />
			<rt_info>
				<attribute name="fused_names" version="0" value="/bert/encoder/layer.1/attention/output/LayerNorm/ReduceMean_1" />
			</rt_info>
			<input>
				<port id="0" precision="FP32">
					<dim>-1</dim>
					<dim>-1</dim>
					<dim>32</dim>
				</port>
				<port id="1" precision="I64">
					<dim>1</dim>
				</port>
			</input>
			<output>
				<port id="2" precision="FP32" names="/bert/encoder/layer.1/attention/output/LayerNorm/ReduceMean_1_output_0">
					<dim>-1</dim>
					<dim>-1</dim>
					<dim>1</dim>
				</port>
			</output>
		</layer>
		<layer id="279" name="/bert/encoder/layer.1/attention/output/LayerNorm/Constant_1" type="Const" version="opset1">
			<data element_type="f32" shape="" offset="220352" size="4" />
			<rt_info>
				<attribute name="fused_names" version="0" value="/bert/encoder/layer.1/attention/output/LayerNorm/Constant_1" />
			</rt_info>
			<output>
…
		<edge from-layer="93" from-port="2" to-layer="95" to-port="0" />
		<edge from-layer="94" from-port="0" to-layer="95" to-port="1" />
		<edge from-layer="95" from-port="2" to-layer="96" to-port="1" />
		<edge from-layer="95" from-port="2" to-layer="227" to-port="1" />
		<edge from-layer="95" from-port="2" to-layer="620" to-port="1" />
		<edge from-layer="95" from-port="2" to-layer="358" to-port="1" />
		<edge from-layer="95" from-port="2" to-layer="489" to-port="1" />
		<edge from-layer="96" from-port="2" to-layer="97" to-port="0" />
		<edge from-layer="97" from-port="1" to-layer="119" to-port="0" />
		<edge from-layer="98" from-port="0" to-layer="99" to-port="1" />
		<edge from-layer="99" from-port="2" to-layer="100" to-port="1" />
		<edge from-layer="100" from-port="2" to-layer="107" to-port="0" />
		<edge from-layer="100" from-port="2" to-layer="116" to-port="0" />
		<edge from-layer="100" from-port="2" to-layer="101" to-port="0" />
		<edge from-layer="101" from-port="1" to-layer="104" to-port="0" />
		<edge from-layer="102" from-port="0" to-layer="104" to-port="1" />
		<edge from-layer="103" from-port="0" to-layer="104" to-port="2" />
		<edge from-layer="104" from-port="3" to-layer="106" to-port="0" />
		<edge from-layer="105" from-port="0" to-layer="106" to-port="1" />
		<edge from-layer="106" from-port="2" to-layer="115" to-port="0" />
		<edge from-layer="107" from-port="1" to-layer="110" to-port="0" />
		<edge from-layer="108" from-port="0" to-layer="110" to-port="1" />
		<edge from-layer="109" from-port="0" to-layer="110" to-port="2" />
		<edge from-layer="110" from-port="3" to-layer="112" to-port="0" />
		<edge from-layer="111" from-port="0" to-layer="112" to-port="1" />
		<edge from-layer="112" from-port="2" to-layer="115" to-port="1" />
		<edge from-layer="113" from-port="0" to-layer="115" to-port="2" />
		<edge from-layer="114" from-port="0" to-layer="115" to-port="3" />
		<edge from-layer="115" from-port="4" to-layer="116" to-port="1" />
		<edge from-layer="116" from-port="2" to-layer="118" to-port="0" />
		<edge from-layer="117" from-port="0" to-layer="118" to-port="1" />
		<edge from-layer="118" from-port="2" to-layer="119" to-port="1" />
		<edge from-layer="119" from-port="2" to-layer="121" to-port="0" />
		<edge from-layer="120" from-port="0" to-layer="121" to-port="1" />
		<edge from-layer="121" from-port="2" to-layer="122" to-port="0" />
		<edge from-layer="121" from-port="2" to-layer="136" to-port="0" />
		<edge from-layer="121" from-port="2" to-layer="128" to-port="0" />
		<edge from-layer="122" from-port="1" to-layer="125" to-port="0" />
		<edge from-layer="123" from-port="0" to-layer="125" to-port="1" />
		<edge from-layer="124" from-port="0" to-layer="125" to-port="2" />
		<edge from-layer="125" from-port="3" to-layer="127" to-port="0" />
		<edge from-layer="126" from-port="0" to-layer="127" to-port="1" />
		<edge from-layer="127" from-port="2" to-layer="135" to-port="0" />
		<edge from-layer="128" from-port="1" to-layer="131" to-port="0" />
		<edge from-layer="129" from-port="0" to-layer="131" to-port="1" />
		<edge from-layer="130" from-port="0" to-layer="131" to-port="2" />
		<edge from-layer="131" from-port="3" to-layer="133" to-port="0" />
		<edge from-layer="132" from-port="0" to-layer="133" to-port="1" />
		<edge from-layer="133" from-port="2" to-layer="135" to-port="1" />
		<edge from-layer="134" from-port="0" to-layer="135" to-port="2" />
		<edge from-layer="135" from-port="3" to-layer="136" to-port="1" />
		<edge from-layer="136" from-port="2" to-layer="138" to-port="0" />
		<edge from-layer="137" from-port="0" to-layer="138" to-port="1" />
		<edge from-layer="138" from-port="2" to-layer="139" to-port="1" />
		<edge from-layer="139" from-port="2" to-layer="140" to-port="0" />
		<edge from-layer="140" from-port="2" to-layer="142" to-port="0" />
		<edge from-layer="140" from-port="2" to-layer="143" to-port="0" />
		<edge from-layer="141" from-port="0" to-layer="142" to-port="1" />
		<edge from-layer="142" from-port="2" to-layer="143" to-port="1" />
		<edge from-layer="143" from-port="2" to-layer="151" to-port="0" />
		<edge from-layer="143" from-port="2" to-layer="145" to-port="0" />
		<edge from-layer="144" from-port="0" to-layer="145" to-port="1" />
		<edge from-layer="145" from-port="2" to-layer="147" to-port="0" />
		<edge from-layer="146" from-port="0" to-layer="147" to-port="1" />
		<edge from-layer="147" from-port="2" to-layer="149" to-port="0" />
		<edge from-layer="148" from-port="0" to-layer="149" to-port="1" />
		<edge from-layer="149" from-port="2" to-layer="150" to-port="0" />
		<edge from-layer="150" from-port="1" to-layer="151" to-port="1" />
		<edge from-layer="151" from-port="2" to-layer="152" to-port="0" />
		<edge from-layer="152" from-port="2" to-layer="153" to-port="0" />
		<edge from-layer="153" from-port="2" to-layer="155" to-port="0" />
		<edge from-layer="153" from-port="2" to-layer="168" to-port="1" />
		<edge from-layer="154" from-port="0" to-layer="155" to-port="1" />
		<edge from-layer="155" from-port="2" to-layer="156" to-port="1" />
		<edge from-layer="156" from-port="2" to-layer="162" to-port="0" />
		<edge from-layer="156" from-port="2" to-layer="158" to-port="0" />
		<edge from-layer="157" from-port="0" to-layer="158" to-port="1" />
		<edge from-layer="158" from-port="2" to-layer="159" to-port="0" />
		<edge from-layer="159" from-port="1" to-layer="161" to-port="0" />
		<edge from-layer="160" from-port="0" to-layer="161" to-port="1" />
		<edge from-layer="161" from-port="2" to-layer="162" to-port="1" />
		<edge from-layer="162" from-port="2" to-layer="164" to-port="0" />
		<edge from-layer="163" from-port="0" to-layer="164" to-port="1" />
		<edge from-layer="164" from-port="2" to-layer="166" to-port="0" />
		<edge from-layer="165" from-port="0" to-layer="166" to-port="1" />
		<edge from-layer="166" from-port="2" to-layer="167" to-port="1" />
		<edge from-layer="167" from-port="2" to-layer="168" to-port="0" />
		<edge from-layer="168" from-port="2" to-layer="170" to-port="0" />
		<edge from-layer="168" from-port="2" to-layer="171" to-port="0" />
		<edge from-layer="169" from-port="0" to-layer="170" to-port="1" />
		<edge from-layer="170" from-port="2" to-layer="171" to-port="1" />
		<edge from-layer="171" from-port="2" to-layer="179" to-port="0" />
		<edge from-layer="171" from-port="2" to-layer="173" to-port="0" />
		<edge from-layer="172" from-port="0" to-layer="173" to-port="1" />
		<edge from-layer="173" from-port="2" to-layer="175" to-port="0" />
		<edge from-layer="174" from-port="0" to-layer="175" to-port="1" />
		<edge from-layer="175" from-port="2" to-layer="177" to-port="0" />
		<edge from-layer="176" from-port="0" to-layer="177" to-port="1" />
		<edge from-layer="177" from-port="2" to-layer="178" to-port="0" />
		<edge from-layer="178" from-port="1" to-layer="179" to-port="1" />
		<edge from-layer="179" from-port="2" to-layer="180" to-port="0" />
		<edge from-layer="180" from-port="2" to-layer="181" to-port="0" />
		<edge from-layer="181" from-port="2" to-layer="271" to-port="1" />
		<edge from-layer="181" from-port="2" to-layer="230" to-port="0" />
		<edge from-layer="181" from-port="2" to-layer="204" to-port="0" />
		<edge from-layer="181" from-port="2" to-layer="183" to-port="0" />
		<edge from-layer="182" from-port="0" to-layer="183" to-port="1" />
		<edge from-layer="183" from-port="2" to-layer="184" to-port="1" />
		<edge from-layer="184" from-port="2" to-layer="185" to-port="0" />
		<edge from-layer="184" from-port="2" to-layer="191" to-port="0" />
		<edge from-layer="184" from-port="2" to-layer="200" to-port="0" />
		<edge from-layer="185" from-port="1" to-layer="188" to-port="0" />
		<edge from-layer="186" from-port="0" to-layer="188" to-port="1" />
		<edge from-layer="187" from-port="0" to-layer="188" to-port="2" />
		<edge from-layer="188" from-port="3" to-layer="190" to-port="0" />
		<edge from-layer="189" from-port="0" to-layer="190" to-port="1" />
		<edge from-layer="190" from-port="2" to-layer="199" to-port="0" />
		<edge from-layer="191" from-port="1" to-layer="194" to-port="0" />
		<edge from-layer="192" from-port="0" to-layer="194" to-port="1" />
		<edge from-layer="193" from-port="0" to-layer="194" to-port="2" />
		<edge from-layer="194" from-port="3" to-layer="196" to-port="0" />
		<edge from-layer="195" from-port="0" to-layer="196" to-port="1" />
		<edge from-layer="196" from-port="2" to-layer="199" to-port="1" />
		<edge from-layer="197" from-port="0" to-layer="199" to-port="2" />
		<edge from-layer="198" from-port="0" to-layer="199" to-port="3" />
		<edge from-layer="199" from-port="4" to-layer="200" to-port="1" />
		<edge from-layer="200" from-port="2" to-layer="202" to-port="0" />
		<edge from-layer="201" from-port="0" to-layer="202" to-port="1" />
		<edge from-layer="202" from-port="2" to-layer="224" to-port="0" />
		<edge from-layer="203" from-port="0" to-layer="204" to-port="1" />
		<edge from-layer="204" from-port="2" to-layer="205" to-port="1" />
		<edge from-layer="205" from-port="2" to-layer="221" to-port="0" />
		<edge from-layer="205" from-port="2" to-layer="206" to-port="0" />
		<edge from-layer="205" from-port="2" to-layer="212" to-port="0" />
		<edge from-layer="206" from-port="1" to-layer="209" to-port="0" />
		<edge from-layer="207" from-port="0" to-layer="209" to-port="1" />
		<edge from-layer="208" from-port="0" to-layer="209" to-port="2" />
		<edge from-layer="209" from-port="3" to-layer="211" to-port="0" />
		<edge from-layer="210" from-port="0" to-layer="211" to-port="1" />
		<edge from-layer="211" from-port="2" to-layer="220" to-port="0" />
		<edge from-layer="212" from-port="1" to-layer="215" to-port="0" />
		<edge from-layer="213" from-port="0" to-layer="215" to-port="1" />
		<edge from-layer="214" from-port="0" to-layer="215" to-port="2" />
		<edge from-layer="215" from-port="3" to-layer="217" to-port="0" />
		<edge from-layer="216" from-port="0" to-layer="217" to-port="1" />
		<edge from-layer="217" from-port="2" to-layer="220" to-port="1" />
		<edge from-layer="218" from-port="0" to-layer="220" to-port="2" />
		<edge from-layer="219" from-port="0" to-layer="220" to-port="3" />
		<edge from-layer="220" from-port="4" to-layer="221" to-port="1" />
		<edge from-layer="221" from-port="2" to-layer="223" to-port="0" />
		<edge from-layer="222" from-port="0" to-layer="223" to-port="1" />
		<edge from-layer="223" from-port="2" to-layer="224" to-port="1" />
		<edge from-layer="224" from-port="2" to-layer="226" to-port="0" />
		<edge from-layer="225" from-port="0" to-layer="226" to-port="1" />
		<edge from-layer="226" from-port="2" to-layer="227" to-port="0" />
		<edge from-layer="227" from-port="2" to-layer="228" to-port="0" />
		<edge from-layer="228" from-port="1" to-layer="250" to-port="0" />
		<edge from-layer="229" from-port="0" to-layer="230" to-port="1" />
		<edge from-layer="230" from-port="2" to-layer="231" to-port="1" />
		<edge from-layer="231" from-port="2" to-layer="247" to-port="0" />
		<edge from-layer="231" from-port="2" to-layer="238" to-port="0" />
		<edge from-layer="231" from-port="2" to-layer="232" to-port="0" />
		<edge from-layer="232" from-port="1" to-layer="235" to-port="0" />
		<edge from-layer="233" from-port="0" to-layer="235" to-port="1" />
		<edge from-layer="234" from-port="0" to-layer="235" to-port="2" />
		<edge from-layer="235" from-port="3" to-layer="237" to-port="0" />
		<edge from-layer="236" from-port="0" to-layer="237" to-port="1" />
		<edge from-layer="237" from-port="2" to-layer="246" to-port="0" />
		<edge from-layer="238" from-port="1" to-layer="241" to-port="0" />
		<edge from-layer="239" from-port="0" to-layer="241" to-port="1" />
		<edge from-layer="240" from-port="0" to-layer="241" to-port="2" />
		<edge from-layer="241" from-port="3" to-layer="243" to-port="0" />
		<edge from-layer="242" from-port="0" to-layer="243" to-port="1" />
		<edge from-layer="243" from-port="2" to-layer="246" to-port="1" />
		<edge from-layer="244" from-port="0" to-layer="246" to-port="2" />
		<edge from-layer="245" from-port="0" to-layer="246" to-port="3" />
		<edge from-layer="246" from-port="4" to-layer="247" to-port="1" />
		<edge from-layer="247" from-port="2" to-layer="249" to-port="0" />
		<edge from-layer="248" from-port="0" to-layer="249" to-port="1" />
		<edge from-layer="249" from-port="2" to-layer="250" to-port="1" />
		<edge from-layer="250" from-port="2" to-layer="252" to-port="0" />
		<edge from-layer="251" from-port="0" to-layer="252" to-port="1" />
		<edge from-layer="252" from-port="2" to-layer="253" to-port="0" />
		<edge from-layer="252" from-port="2" to-layer="259" to-port="0" />
		<edge from-layer="252" from-port="2" to-layer="267" to-port="0" />
		<edge from-layer="253" from-port="1" to-layer="256" to-port="0" />
		<edge from-layer="254" from-port="0" to-layer="256" to-port="1" />
		<edge from-layer="255" from-port="0" to-layer="256" to-port="2" />
		<edge from-layer="256" from-port="3" to-layer="258" to-port="0" />
		<edge from-layer="257" from-port="0" to-layer="258" to-port="1" />
		<edge from-layer="258" from-port="2" to-layer="266" to-port="0" />
		<edge from-layer="259" from-port="1" to-layer="262" to-port="0" />
		<edge from-layer="260" from-port="0" to-layer="262" to-port="1" />
		<edge from-layer="261" from-port="0" to-layer="262" to-port="2" />
		<edge from-layer="262" from-port="3" to-layer="264" to-port="0" />
		<edge from-layer="263" from-port="0" to-layer="264" to-port="1" />
		<edge from-layer="264" from-port="2" to-layer="266" to-port="1" />
		<edge from-layer="265" from-port="0" to-layer="266" to-port="2" />
		<edge from-layer="266" from-port="3" to-layer="267" to-port="1" />
		<edge from-layer="267" from-port="2" to-layer="269" to-port="0" />
		<edge from-layer="268" from-port="0" to-layer="269" to-port="1" />
		<edge from-layer="269" from-port="2" to-layer="270" to-port="1" />
		<edge from-layer="270" from-port="2" to-layer="271" to-port="0" />
		<edge from-layer="271" from-port="2" to-layer="273" to-port="0" />
		<edge from-layer="271" from-port="2" to-layer="274" to-port="0" />
		<edge from-layer="272" from-port="0" to-layer="273" to-port="1" />
		<edge from-layer="273" from-port="2" to-layer="274" to-port="1" />
		<edge from-layer="274" from-port="2" to-layer="282" to-port="0" />
		<edge from-layer="274" from-port="2" to-layer="276" to-port="0" />
		<edge from-layer="275" from-port="0" to-layer="276" to-port="1" />
		<edge from-layer="276" from-port="2" to-layer="278" to-port="0" />
		<edge from-layer="277" from-port="0" to-layer="278" to-port="1" />
		<edge from-layer="278" from-port="2" to-layer="280" to-port="0" />
		<edge from-layer="279" from-port="0" to-layer="280" to-port="1" />
		<edge from-layer="280" from-port="2" to-layer="281" to-port="0" />
		<edge from-layer="281" from-port="1" to-layer="282" to-port="1" />
		<edge from-layer="282" from-port="2" to-layer="283" to-port="0" />
		<edge from-layer="283" from-port="2" to-layer="284" to-port="0" />
		<edge from-layer="284" from-port="2" to-layer="299" to-port="1" />
		<edge from-layer="284" from-port="2" to-layer="286" to-port="0" />
		<edge from-layer="285" from-port="0" to-layer="286" to-port="1" />
		<edge from-layer="286" from-port="2" to-layer="287" to-port="1" />
		<edge from-layer="287" from-port="2" to-layer="289" to-port="0" />
		<edge from-layer="287" from-port="2" to-layer="293" to-port="0" />
		<edge from-layer="288" from-port="0" to-layer="289" to-port="1" />
		<edge from-layer="289" from-port="2" to-layer="290" to-port="0" />
		<edge from-layer="290" from-port="1" to-layer="292" to-port="0" />
		<edge from-layer="291" from-port="0" to-layer="292" to-port="1" />
		<edge from-layer="292" from-port="2" to-layer="293" to-port="1" />
		<edge from-layer="293" from-port="2" to-layer="295" to-port="0" />
		<edge from-layer="294" from-port="0" to-layer="295" to-port="1" />
		<edge from-layer="295" from-port="2" to-layer="297" to-port="0" />
		<edge from-layer="296" from-port="0" to-layer="297" to-port="1" />
		<edge from-layer="297" from-port="2" to-layer="298" to-port="1" />
		<edge from-layer="298" from-port="2" to-layer="299" to-port="0" />
		<edge from-layer="299" from-port="2" to-layer="302" to-port="0" />
		<edge from-layer="299" from-port="2" to-layer="301" to-port="0" />
		<edge from-layer="300" from-port="0" to-layer="301" to-port="1" />
		<edge from-layer="301" from-port="2" to-layer="302" to-port="1" />
		<edge from-layer="302" from-port="2" to-layer="304" to-port="0" />
		<edge from-layer="302" from-port="2" to-layer="310" to-port="0" />
		<edge from-layer="303" from-port="0" to-layer="304" to-port="1" />
		<edge from-layer="304" from-port="2" to-layer="306" to-port="0" />
		<edge from-layer="305" from-port="0" to-layer="306" to-port="1" />
		<edge from-layer="306" from-port="2" to-layer="308" to-port="0" />
		<edge from-layer="307" from-port="0" to-layer="308" to-port="1" />
		<edge from-layer="308" from-port="2" to-layer="309" to-port="0" />
		<edge from-layer="309" from-port="1" to-layer="310" to-port="1" />
		<edge from-layer="310" from-port="2" to-layer="311" to-port="0" />
		<edge from-layer="311" from-port="2" to-layer="312" to-port="0" />
		<edge from-layer="312" from-port="2" to-layer="361" to-port="0" />
		<edge from-layer="312" from-port="2" to-layer="402" to-port="1" />
		<edge from-layer="312" from-port="2" to-layer="335" to-port="0" />
		<edge from-layer="312" from-port="2" to-layer="314" to-port="0" />
		<edge from-layer="313" from-port="0" to-layer="314" to-port="1" />
		<edge from-layer="314" from-port="2" to-layer="315" to-port="1" />
		<edge from-layer="315" from-port="2" to-layer="316" to-port="0" />
		<edge from-layer="315" from-port="2" to-layer="331" to-port="0" />
		<edge from-layer="315" from-port="2" to-layer="322" to-port="0" />
		<edge from-layer="316" from-port="1" to-layer="319" to-port="0" />
		<edge from-layer="317" from-port="0" to-layer="319" to-port="1" />
		<edge from-layer="318" from-port="0" to-layer="319" to-port="2" />
		<edge from-layer="319" from-port="3" to-layer="321" to-port="0" />
		<edge from-layer="320" from-port="0" to-layer="321" to-port="1" />
		<edge from-layer="321" from-port="2" to-layer="330" to-port="0" />
		<edge from-layer="322" from-port="1" to-layer="325" to-port="0" />
		<edge from-layer="323" from-port="0" to-layer="325" to-port="1" />
		<edge from-layer="324" from-port="0" to-layer="325" to-port="2" />
		<edge from-layer="325" from-port="3" to-layer="327" to-port="0" />
		<edge from-layer="326" from-port="0" to-layer="327" to-port="1" />
		<edge from-layer="327" from-port="2" to-layer="330" to-port="1" />
		<edge from-layer="328" from-port="0" to-layer="330" to-port="2" />
		<edge from-layer="329" from-port="0" to-layer="330" to-port="3" />
		<edge from-layer="330" from-port="4" to-layer="331" to-port="1" />
		<edge from-layer="331" from-port="2" to-layer="333" to-port="0" />
		<edge from-layer="332" from-port="0" to-layer="333" to-port="1" />
		<edge from-layer="333" from-port="2" to-layer="355" to-port="0" />
		<edge from-layer="334" from-port="0" to-layer="335" to-port="1" />
		<edge from-layer="335" from-port="2" to-layer="336" to-port="1" />
		<edge from-layer="336" from-port="2" to-layer="352" to-port="0" />
		<edge from-layer="336" from-port="2" to-layer="337" to-port="0" />
		<edge from-layer="336" from-port="2" to-layer="343" to-port="0" />
		<edge from-layer="337" from-port="1" to-layer="340" to-port="0" />
		<edge from-layer="338" from-port="0" to-layer="340" to-port="1" />
		<edge from-layer="339" from-port="0" to-layer="340" to-port="2" />
		<edge from-layer="340" from-port="3" to-layer="342" to-port="0" />
		<edge from-layer="341" from-port="0" to-layer="342" to-port="1" />
		<edge from-layer="342" from-port="2" to-layer="351" to-port="0" />
		<edge from-layer="343" from-port="1" to-layer="346" to-port="0" />
		<edge from-layer="344" from-port="0" to-layer="346" to-port="1" />
		<edge from-layer="345" from-port="0" to-layer="346" to-port="2" />
		<edge from-layer="346" from-port="3" to-layer="348" to-port="0" />
		<edge from-layer="347" from-port="0" to-layer="348" to-port="1" />
		<edge from-layer="348" from-port="2" to-layer="351" to-port="1" />
		<edge from-layer="349" from-port="0" to-layer="351" to-port="2" />
		<edge from-layer="350" from-port="0" to-layer="351" to-port="3" />
		<edge from-layer="351" from-port="4" to-layer="352" to-port="1" />
		<edge from-layer="352" from-port="2" to-layer="354" to-port="0" />
		<edge from-layer="353" from-port="0" to-layer="354" to-port="1" />
		<edge from-layer="354" from-port="2" to-layer="355" to-port="1" />
		<edge from-layer="355" from-port="2" to-layer="357" to-port="0" />
		<edge from-layer="356" from-port="0" to-layer="357" to-port="1" />
		<edge from-layer="357" from-port="2" to-layer="358" to-port="0" />
		<edge from-layer="358" from-port="2" to-layer="359" to-port="0" />
		<edge from-layer="359" from-port="1" to-layer="381" to-port="0" />
		<edge from-layer="360" from-port="0" to-layer="361" to-port="1" />
		<edge from-layer="361" from-port="2" to-layer="362" to-port="1" />
		<edge from-layer="362" from-port="2" to-layer="378" to-port="0" />
		<edge from-layer="362" from-port="2" to-layer="363" to-port="0" />
		<edge from-layer="362" from-port="2" to-layer="369" to-port="0" />
		<edge from-layer="363" from-port="1" to-layer="366" to-port="0" />
		<edge from-layer="364" from-port="0" to-layer="366" to-port="1" />
		<edge from-layer="365" from-port="0" to-layer="366" to-port="2" />
		<edge from-layer="366" from-port="3" to-layer="368" to-port="0" />
		<edge from-layer="367" from-port="0" to-layer="368" to-port="1" />
		<edge from-layer="368" from-port="2" to-layer="377" to-port="0" />
		<edge from-layer="369" from-port="1" to-layer="372" to-port="0" />
		<edge from-layer="370" from-port="0" to-layer="372" to-port="1" />
		<edge from-layer="371" from-port="0" to-layer="372" to-port="2" />
		<edge from-layer="372" from-port="3" to-layer="374" to-port="0" />
		<edge from-layer="373" from-port="0" to-layer="374" to-port="1" />
		<edge from-layer="374" from-port="2" to-layer="377" to-port="1" />
		<edge from-layer="375" from-port="0" to-layer="377" to-port="2" />
		<edge from-layer="376" from-port="0" to-layer="377" to-port="3" />
		<edge from-layer="377" from-port="4" to-layer="378" to-port="1" />
		<edge from-layer="378" from-port="2" to-layer="380" to-port="0" />
		<edge from-layer="379" from-port="0" to-layer="380" to-port="1" />
		<edge from-layer="380" from-port="2" to-layer="381" to-port="1" />
		<edge from-layer="381" from-port="2" to-layer="383" to-port="0" />
		<edge from-layer="382" from-port="0" to-layer="383" to-port="1" />
		<edge from-layer="383" from-port="2" to-layer="390" to-port="0" />
		<edge from-layer="383" from-port="2" to-layer="398" to-port="0" />
		<edge from-layer="383" from-port="2" to-layer="384" to-port="0" />
		<edge from-layer="384" from-port="1" to-layer="387" to-port="0" />
		<edge from-layer="385" from-port="0" to-layer="387" to-port="1" />
		<edge from-layer="386" from-port="0" to-layer="387" to-port="2" />
		<edge from-layer="387" from-port="3" to-layer="389" to-port="0" />
		<edge from-layer="388" from-port="0" to-layer="389" to-port="1" />
		<edge from-layer="389" from-port="2" to-layer="397" to-port="0" />
		<edge from-layer="390" from-port="1" to-layer="393" to-port="0" />
		<edge from-layer="391" from-port="0" to-layer="393" to-port="1" />
		<edge from-layer="392" from-port="0" to-layer="393" to-port="2" />
		<edge from-layer="393" from-port="3" to-layer="395" to-port="0" />
		<edge from-layer="394" from-port="0" to-layer="395" to-port="1" />
		<edge from-layer="395" from-port="2" to-layer="397" to-port="1" />
		<edge from-layer="396" from-port="0" to-layer="397" to-port="2" />
		<edge from-layer="397" from-port="3" to-layer="398" to-port="1" />
		<edge from-layer="398" from-port="2" to-layer="400" to-port="0" />
		<edge from-layer="399" from-port="0" to-layer="400" to-port="1" />
		<edge from-layer="400" from-port="2" to-layer="401" to-port="1" />
		<edge from-layer="401" from-port="2" to-layer="402" to-port="0" />
		<edge from-layer="402" from-port="2" to-layer="404" to-port="0" />
		<edge from-layer="402" from-port="2" to-layer="405" to-port="0" />
		<edge from-layer="403" from-port="0" to-layer="404" to-port="1" />
		<edge from-layer="404" from-port="2" to-layer="405" to-port="1" />
		<edge from-layer="405" from-port="2" to-layer="407" to-port="0" />
		<edge from-layer="405" from-port="2" to-layer="413" to-port="0" />
		<edge from-layer="406" from-port="0" to-layer="407" to-port="1" />
		<edge from-layer="407" from-port="2" to-layer="409" to-port="0" />
		<edge from-layer="408" from-port="0" to-layer="409" to-port="1" />
		<edge from-layer="409" from-port="2" to-layer="411" to-port="0" />
		<edge from-layer="410" from-port="0" to-layer="411" to-port="1" />
		<edge from-layer="411" from-port="2" to-layer="412" to-port="0" />
		<edge from-layer="412" from-port="1" to-layer="413" to-port="1" />
		<edge from-layer="413" from-port="2" to-layer="414" to-port="0" />
		<edge from-layer="414" from-port="2" to-layer="415" to-port="0" />
		<edge from-layer="415" from-port="2" to-layer="417" to-port="0" />
		<edge from-layer="415" from-port="2" to-layer="430" to-port="1" />
		<edge from-layer="416" from-port="0" to-layer="417" to-port="1" />
		<edge from-layer="417" from-port="2" to-layer="418" to-port="1" />
		<edge from-layer="418" from-port="2" to-layer="424" to-port="0" />
		<edge from-layer="418" from-port="2" to-layer="420" to-port="0" />
		<edge from-layer="419" from-port="0" to-layer="420" to-port="1" />
		<edge from-layer="420" from-port="2" to-layer="421" to-port="0" />
		<edge from-layer="421" from-port="1" to-layer="423" to-port="0" />
		<edge from-layer="422" from-port="0" to-layer="423" to-port="1" />
		<edge from-layer="423" from-port="2" to-layer="424" to-port="1" />
		<edge from-layer="424" from-port="2" to-layer="426" to-port="0" />
		<edge from-layer="425" from-port="0" to-layer="426" to-port="1" />
		<edge from-layer="426" from-port="2" to-layer="428" to-port="0" />
		<edge from-layer="427" from-port="0" to-layer="428" to-port="1" />
		<edge from-layer="428" from-port="2" to-layer="429" to-port="1" />
		<edge from-layer="429" from-port="2" to-layer="430" to-port="0" />
		<edge from-layer="430" from-port="2" to-layer="433" to-port="0" />
		<edge from-layer="430" from-port="2" to-layer="432" to-port="0" />
		<edge from-layer="431" from-port="0" to-layer="432" to-port="1" />
		<edge from-layer="432" from-port="2" to-layer="433" to-port="1" />
		<edge from-layer="433" from-port="2" to-layer="435" to-port="0" />
		<edge from-layer="433" from-port="2" to-layer="441" to-port="0" />
		<edge from-layer="434" from-port="0" to-layer="435" to-port="1" />
		<edge from-layer="435" from-port="2" to-layer="437" to-port="0" />
		<edge from-layer="436" from-port="0" to-layer="437" to-port="1" />
		<edge from-layer="437" from-port="2" to-layer="439" to-port="0" />
		<edge from-layer="438" from-port="0" to-layer="439" to-port="1" />
		<edge from-layer="439" from-port="2" to-layer="440" to-port="0" />
		<edge from-layer="440" from-port="1" to-layer="441" to-port="1" />
		<edge from-layer="441" from-port="2" to-layer="442" to-port="0" />
		<edge from-layer="442" from-port="2" to-layer="443" to-port="0" />
		<edge from-layer="443" from-port="2" to-layer="492" to-port="0" />
		<edge from-layer="443" from-port="2" to-layer="445" to-port="0" />
		<edge from-layer="443" from-port="2" to-layer="466" to-port="0" />
		<edge from-layer="443" from-port="2" to-layer="533" to-port="1" />
		<edge from-layer="444" from-port="0" to-layer="445" to-port="1" />
		<edge from-layer="445" from-port="2" to-layer="446" to-port="1" />
		<edge from-layer="446" from-port="2" to-layer="447" to-port="0" />
		<edge from-layer="446" from-port="2" to-layer="453" to-port="0" />
		<edge from-layer="446" from-port="2" to-layer="462" to-port="0" />
		<edge from-layer="447" from-port="1" to-layer="450" to-port="0" />
		<edge from-layer="448" from-port="0" to-layer="450" to-port="1" />
		<edge from-layer="449" from-port="0" to-layer="450" to-port="2" />
		<edge from-layer="450" from-port="3" to-layer="452" to-port="0" />
		<edge from-layer="451" from-port="0" to-layer="452" to-port="1" />
		<edge from-layer="452" from-port="2" to-layer="461" to-port="0" />
		<edge from-layer="453" from-port="1" to-layer="456" to-port="0" />
		<edge from-layer="454" from-port="0" to-layer="456" to-port="1" />
		<edge from-layer="455" from-port="0" to-layer="456" to-port="2" />
		<edge from-layer="456" from-port="3" to-layer="458" to-port="0" />
		<edge from-layer="457" from-port="0" to-layer="458" to-port="1" />
		<edge from-layer="458" from-port="2" to-layer="461" to-port="1" />
		<edge from-layer="459" from-port="0" to-layer="461" to-port="2" />
		<edge from-layer="460" from-port="0" to-layer="461" to-port="3" />
		<edge from-layer="461" from-port="4" to-layer="462" to-port="1" />
		<edge from-layer="462" from-port="2" to-layer="464" to-port="0" />
		<edge from-layer="463" from-port="0" to-layer="464" to-port="1" />
		<edge from-layer="464" from-port="2" to-layer="486" to-port="0" />
		<edge from-layer="465" from-port="0" to-layer="466" to-port="1" />
		<edge from-layer="466" from-port="2" to-layer="467" to-port="1" />
		<edge from-layer="467" from-port="2" to-layer="483" to-port="0" />
		<edge from-layer="467" from-port="2" to-layer="474" to-port="0" />
		<edge from-layer="467" from-port="2" to-layer="468" to-port="0" />
		<edge from-layer="468" from-port="1" to-layer="471" to-port="0" />
		<edge from-layer="469" from-port="0" to-layer="471" to-port="1" />
		<edge from-layer="470" from-port="0" to-layer="471" to-port="2" />
		<edge from-layer="471" from-port="3" to-layer="473" to-port="0" />
		<edge from-layer="472" from-port="0" to-layer="473" to-port="1" />
		<edge from-layer="473" from-port="2" to-layer="482" to-port="0" />
		<edge from-layer="474" from-port="1" to-layer="477" to-port="0" />
		<edge from-layer="475" from-port="0" to-layer="477" to-port="1" />
		<edge from-layer="476" from-port="0" to-layer="477" to-port="2" />
		<edge from-layer="477" from-port="3" to-layer="479" to-port="0" />
		<edge from-layer="478" from-port="0" to-layer="479" to-port="1" />
		<edge from-layer="479" from-port="2" to-layer="482" to-port="1" />
		<edge from-layer="480" from-port="0" to-layer="482" to-port="2" />
		<edge from-layer="481" from-port="0" to-layer="482" to-port="3" />
		<edge from-layer="482" from-port="4" to-layer="483" to-port="1" />
		<edge from-layer="483" from-port="2" to-layer="485" to-port="0" />
		<edge from-layer="484" from-port="0" to-layer="485" to-port="1" />
		<edge from-layer="485" from-port="2" to-layer="486" to-port="1" />
		<edge from-layer="486" from-port="2" to-layer="488" to-port="0" />
		<edge from-layer="487" from-port="0" to-layer="488" to-port="1" />
		<edge from-layer="488" from-port="2" to-layer="489" to-port="0" />
		<edge from-layer="489" from-port="2" to-layer="490" to-port="0" />
		<edge from-layer="490" from-port="1" to-layer="512" to-port="0" />
		<edge from-layer="491" from-port="0" to-layer="492" to-port="1" />
		<edge from-layer="492" from-port="2" to-layer="493" to-port="1" />
		<edge from-layer="493" from-port="2" to-layer="509" to-port="0" />
		<edge from-layer="493" from-port="2" to-layer="500" to-port="0" />
		<edge from-layer="493" from-port="2" to-layer="494" to-port="0" />
		<edge from-layer="494" from-port="1" to-layer="497" to-port="0" />
		<edge from-layer="495" from-port="0" to-layer="497" to-port="1" />
		<edge from-layer="496" from-port="0" to-layer="497" to-port="2" />
		<edge from-layer="497" from-port="3" to-layer="499" to-port="0" />
		<edge from-layer="498" from-port="0" to-layer="499" to-port="1" />
		<edge from-layer="499" from-port="2" to-layer="508" to-port="0" />
		<edge from-layer="500" from-port="1" to-layer="503" to-port="0" />
		<edge from-layer="501" from-port="0" to-layer="503" to-port="1" />
		<edge from-layer="502" from-port="0" to-layer="503" to-port="2" />
		<edge from-layer="503" from-port="3" to-layer="505" to-port="0" />
		<edge from-layer="504" from-port="0" to-layer="505" to-port="1" />
		<edge from-layer="505" from-port="2" to-layer="508" to-port="1" />
		<edge from-layer="506" from-port="0" to-layer="508" to-port="2" />
		<edge from-layer="507" from-port="0" to-layer="508" to-port="3" />
		<edge from-layer="508" from-port="4" to-layer="509" to-port="1" />
		<edge from-layer="509" from-port="2" to-layer="511" to-port="0" />
		<edge from-layer="510" from-port="0" to-layer="511" to-port="1" />
		<edge from-layer="511" from-port="2" to-layer="512" to-port="1" />
		<edge from-layer="512" from-port="2" to-layer="514" to-port="0" />
		<edge from-layer="513" from-port="0" to-layer="514" to-port="1" />
		<edge from-layer="514" from-port="2" to-layer="529" to-port="0" />
		<edge from-layer="514" from-port="2" to-layer="521" to-port="0" />
		<edge from-layer="514" from-port="2" to-layer="515" to-port="0" />
		<edge from-layer="515" from-port="1" to-layer="518" to-port="0" />
		<edge from-layer="516" from-port="0" to-layer="518" to-port="1" />
		<edge from-layer="517" from-port="0" to-layer="518" to-port="2" />
		<edge from-layer="518" from-port="3" to-layer="520" to-port="0" />
		<edge from-layer="519" from-port="0" to-layer="520" to-port="1" />
		<edge from-layer="520" from-port="2" to-layer="528" to-port="0" />
		<edge from-layer="521" from-port="1" to-layer="524" to-port="0" />
		<edge from-layer="522" from-port="0" to-layer="524" to-port="1" />
		<edge from-layer="523" from-port="0" to-layer="524" to-port="2" />
		<edge from-layer="524" from-port="3" to-layer="526" to-port="0" />
		<edge from-layer="525" from-port="0" to-layer="526" to-port="1" />
		<edge from-layer="526" from-port="2" to-layer="528" to-port="1" />
		<edge from-layer="527" from-port="0" to-layer="528" to-port="2" />
		<edge from-layer="528" from-port="3" to-layer="529" to-port="1" />
		<edge from-layer="529" from-port="2" to-layer="531" to-port="0" />
		<edge from-layer="530" from-port="0" to-layer="531" to-port="1" />
		<edge from-layer="531" from-port="2" to-layer="532" to-port="1" />
		<edge from-layer="532" from-port="2" to-layer="533" to-port="0" />
		<edge from-layer="533" from-port="2" to-layer="535" to-port="0" />
		<edge from-layer="533" from-port="2" to-layer="536" to-port="0" />
		<edge from-layer="534" from-port="0" to-layer="535" to-port="1" />
		<edge from-layer="535" from-port="2" to-layer="536" to-port="1" />
		<edge from-layer="536" from-port="2" to-layer="544" to-port="0" />
		<edge from-layer="536" from-port="2" to-layer="538" to-port="0" />
		<edge from-layer="537" from-port="0" to-layer="538" to-port="1" />
		<edge from-layer="538" from-port="2" to-layer="540" to-port="0" />
		<edge from-layer="539" from-port="0" to-layer="540" to-port="1" />
		<edge from-layer="540" from-port="2" to-layer="542" to-port="0" />
		<edge from-layer="541" from-port="0" to-layer="542" to-port="1" />
		<edge from-layer="542" from-port="2" to-layer="543" to-port="0" />
		<edge from-layer="543" from-port="1" to-layer="544" to-port="1" />
		<edge from-layer="544" from-port="2" to-layer="545" to-port="0" />
		<edge from-layer="545" from-port="2" to-layer="546" to-port="0" />
		<edge from-layer="546" from-port="2" to-layer="548" to-port="0" />
		<edge from-layer="546" from-port="2" to-layer="561" to-port="1" />
		<edge from-layer="547" from-port="0" to-layer="548" to-port="1" />
		<edge from-layer="548" from-port="2" to-layer="549" to-port="1" />
		<edge from-layer="549" from-port="2" to-layer="551" to-port="0" />
		<edge from-layer="549" from-port="2" to-layer="555" to-port="0" />
		<edge from-layer="550" from-port="0" to-layer="551" to-port="1" />
		<edge from-layer="551" from-port="2" to-layer="552" to-port="0" />
		<edge from-layer="552" from-port="1" to-layer="554" to-port="0" />
		<edge from-layer="553" from-port="0" to-layer="554" to-port="1" />
		<edge from-layer="554" from-port="2" to-layer="555" to-port="1" />
		<edge from-layer="555" from-port="2" to-layer="557" to-port="0" />
		<edge from-layer="556" from-port="0" to-layer="557" to-port="1" />
		<edge from-layer="557" from-port="2" to-layer="559" to-port="0" />
		<edge from-layer="558" from-port="0" to-layer="559" to-port="1" />
		<edge from-layer="559" from-port="2" to-layer="560" to-port="1" />
		<edge from-layer="560" from-port="2" to-layer="561" to-port="0" />
		<edge from-layer="561" from-port="2" to-layer="564" to-port="0" />
		<edge from-layer="561" from-port="2" to-layer="563" to-port="0" />
		<edge from-layer="562" from-port="0" to-layer="563" to-port="1" />
		<edge from-layer="563" from-port="2" to-layer="564" to-port="1" />
		<edge from-layer="564" from-port="2" to-layer="572" to-port="0" />
		<edge from-layer="564" from-port="2" to-layer="566" to-port="0" />
		<edge from-layer="565" from-port="0" to-layer="566" to-port="1" />
		<edge from-layer="566" from-port="2" to-layer="568" to-port="0" />
		<edge from-layer="567" from-port="0" to-layer="568" to-port="1" />
		<edge from-layer="568" from-port="2" to-layer="570" to-port="0" />
		<edge from-layer="569" from-port="0" to-layer="570" to-port="1" />
		<edge from-layer="570" from-port="2" to-layer="571" to-port="0" />
		<edge from-layer="571" from-port="1" to-layer="572" to-port="1" />
		<edge from-layer="572" from-port="2" to-layer="573" to-port="0" />
		<edge from-layer="573" from-port="2" to-layer="574" to-port="0" />
		<edge from-layer="574" from-port="2" to-layer="623" to-port="0" />
		<edge from-layer="574" from-port="2" to-layer="664" to-port="1" />
		<edge from-layer="574" from-port="2" to-layer="576" to-port="0" />
		<edge from-layer="574" from-port="2" to-layer="597" to-port="0" />
		<edge from-layer="575" from-port="0" to-layer="576" to-port="1" />
		<edge from-layer="576" from-port="2" to-layer="577" to-port="1" />
		<edge from-layer="577" from-port="2" to-layer="593" to-port="0" />
		<edge from-layer="577" from-port="2" to-layer="584" to-port="0" />
		<edge from-layer="577" from-port="2" to-layer="578" to-port="0" />
		<edge from-layer="578" from-port="1" to-layer="581" to-port="0" />
		<edge from-layer="579" from-port="0" to-layer="581" to-port="1" />
		<edge from-layer="580" from-port="0" to-layer="581" to-port="2" />
		<edge from-layer="581" from-port="3" to-layer="583" to-port="0" />
		<edge from-layer="582" from-port="0" to-layer="583" to-port="1" />
		<edge from-layer="583" from-port="2" to-layer="592" to-port="0" />
		<edge from-layer="584" from-port="1" to-layer="587" to-port="0" />
		<edge from-layer="585" from-port="0" to-layer="587" to-port="1" />
		<edge from-layer="586" from-port="0" to-layer="587" to-port="2" />
		<edge from-layer="587" from-port="3" to-layer="589" to-port="0" />
		<edge from-layer="588" from-port="0" to-layer="589" to-port="1" />
		<edge from-layer="589" from-port="2" to-layer="592" to-port="1" />
		<edge from-layer="590" from-port="0" to-layer="592" to-port="2" />
		<edge from-layer="591" from-port="0" to-layer="592" to-port="3" />
		<edge from-layer="592" from-port="4" to-layer="593" to-port="1" />
		<edge from-layer="593" from-port="2" to-layer="595" to-port="0" />
		<edge from-layer="594" from-port="0" to-layer="595" to-port="1" />
		<edge from-layer="595" from-port="2" to-layer="617" to-port="0" />
		<edge from-layer="596" from-port="0" to-layer="597" to-port="1" />
		<edge from-layer="597" from-port="2" to-layer="598" to-port="1" />
		<edge from-layer="598" from-port="2" to-layer="605" to-port="0" />
		<edge from-layer="598" from-port="2" to-layer="614" to-port="0" />
		<edge from-layer="598" from-port="2" to-layer="599" to-port="0" />
		<edge from-layer="599" from-port="1" to-layer="602" to-port="0" />
		<edge from-layer="600" from-port="0" to-layer="602" to-port="1" />
		<edge from-layer="601" from-port="0" to-layer="602" to-port="2" />
		<edge from-layer="602" from-port="3" to-layer="604" to-port="0" />
		<edge from-layer="603" from-port="0" to-layer="604" to-port="1" />
		<edge from-layer="604" from-port="2" to-layer="613" to-port="0" />
		<edge from-layer="605" from-port="1" to-layer="608" to-port="0" />
		<edge from-layer="606" from-port="0" to-layer="608" to-port="1" />
		<edge from-layer="607" from-port="0" to-layer="608" to-port="2" />
		<edge from-layer="608" from-port="3" to-layer="610" to-port="0" />
		<edge from-layer="609" from-port="0" to-layer="610" to-port="1" />
		<edge from-layer="610" from-port="2" to-layer="613" to-port="1" />
		<edge from-layer="611" from-port="0" to-layer="613" to-port="2" />
		<edge from-layer="612" from-port="0" to-layer="613" to-port="3" />
		<edge from-layer="613" from-port="4" to-layer="614" to-port="1" />
		<edge from-layer="614" from-port="2" to-layer="616" to-port="0" />
		<edge from-layer="615" from-port="0" to-layer="616" to-port="1" />
		<edge from-layer="616" from-port="2" to-layer="617" to-port="1" />
		<edge from-layer="617" from-port="2" to-layer="619" to-port="0" />
		<edge from-layer="618" from-port="0" to-layer="619" to-port="1" />
		<edge from-layer="619" from-port="2" to-layer="620" to-port="0" />
		<edge from-layer="620" from-port="2" to-layer="621" to-port="0" />
		<edge from-layer="621" from-port="1" to-layer="643" to-port="0" />
		<edge from-layer="622" from-port="0" to-layer="623" to-port="1" />
		<edge from-layer="623" from-port="2" to-layer="624" to-port="1" />
		<edge from-layer="624" from-port="2" to-layer="640" to-port="0" />
		<edge from-layer="624" from-port="2" to-layer="631" to-port="0" />
		<edge from-layer="624" from-port="2" to-layer="625" to-port="0" />
		<edge from-layer="625" from-port="1" to-layer="628" to-port="0" />
		<edge from-layer="626" from-port="0" to-layer="628" to-port="1" />
		<edge from-layer="627" from-port="0" to-layer="628" to-port="2" />
		<edge from-layer="628" from-port="3" to-layer="630" to-port="0" />
		<edge from-layer="629" from-port="0" to-layer="630" to-port="1" />
		<edge from-layer="630" from-port="2" to-layer="639" to-port="0" />
		<edge from-layer="631" from-port="1" to-layer="634" to-port="0" />
		<edge from-layer="632" from-port="0" to-layer="634" to-port="1" />
		<edge from-layer="633" from-port="0" to-layer="634" to-port="2" />
		<edge from-layer="634" from-port="3" to-layer="636" to-port="0" />
		<edge from-layer="635" from-port="0" to-layer="636" to-port="1" />
		<edge from-layer="636" from-port="2" to-layer="639" to-port="1" />
		<edge from-layer="637" from-port="0" to-layer="639" to-port="2" />
		<edge from-layer="638" from-port="0" to-layer="639" to-port="3" />
		<edge from-layer="639" from-port="4" to-layer="640" to-port="1" />
		<edge from-layer="640" from-port="2" to-layer="642" to-port="0" />
		<edge from-layer="641" from-port="0" to-layer="642" to-port="1" />
		<edge from-layer="642" from-port="2" to-layer="643" to-port="1" />
		<edge from-layer="643" from-port="2" to-layer="645" to-port="0" />
		<edge from-layer="644" from-port="0" to-layer="645" to-port="1" />
		<edge from-layer="645" from-port="2" to-layer="646" to-port="0" />
		<edge from-layer="645" from-port="2" to-layer="652" to-port="0" />
		<edge from-layer="645" from-port="2" to-layer="660" to-port="0" />
		<edge from-layer="646" from-port="1" to-layer="649" to-port="0" />
		<edge from-layer="647" from-port="0" to-layer="649" to-port="1" />
		<edge from-layer="648" from-port="0" to-layer="649" to-port="2" />
		<edge from-layer="649" from-port="3" to-layer="651" to-port="0" />
		<edge from-layer="650" from-port="0" to-layer="651" to-port="1" />
		<edge from-layer="651" from-port="2" to-layer="659" to-port="0" />
		<edge from-layer="652" from-port="1" to-layer="655" to-port="0" />
		<edge from-layer="653" from-port="0" to-layer="655" to-port="1" />
		<edge from-layer="654" from-port="0" to-layer="655" to-port="2" />
		<edge from-layer="655" from-port="3" to-layer="657" to-port="0" />
		<edge from-layer="656" from-port="0" to-layer="657" to-port="1" />
		<edge from-layer="657" from-port="2" to-layer="659" to-port="1" />
		<edge from-layer="658" from-port="0" to-layer="659" to-port="2" />
		<edge from-layer="659" from-port="3" to-layer="660" to-port="1" />
		<edge from-layer="660" from-port="2" to-layer="662" to-port="0" />
		<edge from-layer="661" from-port="0" to-layer="662" to-port="1" />
		<edge from-layer="662" from-port="2" to-layer="663" to-port="1" />
		<edge from-layer="663" from-port="2" to-layer="664" to-port="0" />
		<edge from-layer="664" from-port="2" to-layer="667" to-port="0" />
		<edge from-layer="664" from-port="2" to-layer="666" to-port="0" />
		<edge from-layer="665" from-port="0" to-layer="666" to-port="1" />
		<edge from-layer="666" from-port="2" to-layer="667" to-port="1" />
		<edge from-layer="667" from-port="2" to-layer="675" to-port="0" />
		<edge from-layer="667" from-port="2" to-layer="669" to-port="0" />
		<edge from-layer="668" from-port="0" to-layer="669" to-port="1" />
		<edge from-layer="669" from-port="2" to-layer="671" to-port="0" />
		<edge from-layer="670" from-port="0" to-layer="671" to-port="1" />
		<edge from-layer="671" from-port="2" to-layer="673" to-port="0" />
		<edge from-layer="672" from-port="0" to-layer="673" to-port="1" />
		<edge from-layer="673" from-port="2" to-layer="674" to-port="0" />
		<edge from-layer="674" from-port="1" to-layer="675" to-port="1" />
		<edge from-layer="675" from-port="2" to-layer="676" to-port="0" />
		<edge from-layer="676" from-port="2" to-layer="677" to-port="0" />
		<edge from-layer="677" from-port="2" to-layer="692" to-port="1" />
		<edge from-layer="677" from-port="2" to-layer="679" to-port="0" />
		<edge from-layer="678" from-port="0" to-layer="679" to-port="1" />
		<edge from-layer="679" from-port="2" to-layer="680" to-port="1" />
		<edge from-layer="680" from-port="2" to-layer="686" to-port="0" />
		<edge from-layer="680" from-port="2" to-layer="682" to-port="0" />
		<edge from-layer="681" from-port="0" to-layer="682" to-port="1" />
		<edge from-layer="682" from-port="2" to-layer="683" to-port="0" />
		<edge from-layer="683" from-port="1" to-layer="685" to-port="0" />
		<edge from-layer="684" from-port="0" to-layer="685" to-port="1" />
		<edge from-layer="685" from-port="2" to-layer="686" to-port="1" />
		<edge from-layer="686" from-port="2" to-layer="688" to-port="0" />
		<edge from-layer="687" from-port="0" to-layer="688" to-port="1" />
		<edge from-layer="688" from-port="2" to-layer="690" to-port="0" />
		<edge from-layer="689" from-port="0" to-layer="690" to-port="1" />
		<edge from-layer="690" from-port="2" to-layer="691" to-port="1" />
		<edge from-layer="691" from-port="2" to-layer="692" to-port="0" />
		<edge from-layer="692" from-port="2" to-layer="695" to-port="0" />
		<edge from-layer="692" from-port="2" to-layer="694" to-port="0" />
		<edge from-layer="693" from-port="0" to-layer="694" to-port="1" />
		<edge from-layer="694" from-port="2" to-layer="695" to-port="1" />
		<edge from-layer="695" from-port="2" to-layer="697" to-port="0" />
		<edge from-layer="695" from-port="2" to-layer="703" to-port="0" />
		<edge from-layer="696" from-port="0" to-layer="697" to-port="1" />
		<edge from-layer="697" from-port="2" to-layer="699" to-port="0" />
		<edge from-layer="698" from-port="0" to-layer="699" to-port="1" />
		<edge from-layer="699" from-port="2" to-layer="701" to-port="0" />
		<edge from-layer="700" from-port="0" to-layer="701" to-port="1" />
		<edge from-layer="701" from-port="2" to-layer="702" to-port="0" />
		<edge from-layer="702" from-port="1" to-layer="703" to-port="1" />
		<edge from-layer="703" from-port="2" to-layer="704" to-port="0" />
		<edge from-layer="704" from-port="2" to-layer="705" to-port="0" />
		<edge from-layer="705" from-port="2" to-layer="707" to-port="0" />
		<edge from-layer="706" from-port="0" to-layer="707" to-port="1" />
		<edge from-layer="707" from-port="2" to-layer="708" to-port="1" />
		<edge from-layer="708" from-port="2" to-layer="714" to-port="0" />
		<edge from-layer="708" from-port="2" to-layer="710" to-port="0" />
		<edge from-layer="709" from-port="0" to-layer="710" to-port="1" />
		<edge from-layer="710" from-port="2" to-layer="711" to-port="0" />
		<edge from-layer="711" from-port="1" to-layer="713" to-port="0" />
		<edge from-layer="712" from-port="0" to-layer="713" to-port="1" />
		<edge from-layer="713" from-port="2" to-layer="714" to-port="1" />
		<edge from-layer="714" from-port="2" to-layer="716" to-port="0" />
		<edge from-layer="715" from-port="0" to-layer="716" to-port="1" />
		<edge from-layer="716" from-port="2" to-layer="719" to-port="0" />
		<edge from-layer="716" from-port="2" to-layer="718" to-port="0" />
		<edge from-layer="717" from-port="0" to-layer="718" to-port="1" />
		<edge from-layer="718" from-port="2" to-layer="719" to-port="1" />
		<edge from-layer="719" from-port="2" to-layer="721" to-port="0" />
		<edge from-layer="719" from-port="2" to-layer="727" to-port="0" />
		<edge from-layer="720" from-port="0" to-layer="721" to-port="1" />
		<edge from-layer="721" from-port="2" to-layer="723" to-port="0" />
		<edge from-layer="722" from-port="0" to-layer="723" to-port="1" />
		<edge from-layer="723" from-port="2" to-layer="725" to-port="0" />
		<edge from-layer="724" from-port="0" to-layer="725" to-port="1" />
		<edge from-layer="725" from-port="2" to-layer="726" to-port="0" />
		<edge from-layer="726" from-port="1" to-layer="727" to-port="1" />
		<edge from-layer="727" from-port="2" to-layer="728" to-port="0" />
		<edge from-layer="728" from-port="2" to-layer="729" to-port="0" />
		<edge from-layer="729" from-port="2" to-layer="731" to-port="0" />
		<edge from-layer="730" from-port="0" to-layer="731" to-port="1" />
		<edge from-layer="731" from-port="2" to-layer="732" to-port="1" />
		<edge from-layer="732" from-port="2" to-layer="733" to-port="0" />
	</edges>
	<rt_info />
</net>
