<?xml version="1.0"?>
<net name="torch_jit" version="11">
	<layers>
		<layer id="11" name="input_ids" type="Parameter" version="opset1">
			<data shape="?,?" element_type="i64" />
			<rt_info>
				<attribute name="fused_names" version="0" value="input_ids" />
			</rt_info>
			<output>
				<port id="0" precision="I64" names="input_ids">
					<dim>-1</dim>
					<dim>-1</dim>
				</port>
			</output>
		</layer>
		<layer id="10" name="past_key_values.0.key" type="Parameter" version="opset1">
			<data shape="?,4,?,8" element_type="f32" />
			<rt_info>
				<attribute name="fused_names" version="0" value="past_key_values.0.key" />
			</rt_info>
			<output>
				<port id="0" precision="FP32" names="past_key_values.0.key">
					<dim>-1</dim>
					<dim>4</dim>
					<dim>-1</dim>
					<dim>8</dim>
				</port>
			</output>
		</layer>
		<layer id="9" name="past_key_values.0.value" type="Parameter" version="opset1">
			<data shape="?,4,?,8" element_type="f32" />
			<rt_info>
				<attribute name="fused_names" version="0" value="past_key_values.0.value" />
			</rt_info>
			<output>
				<port id="0" precision="FP32" names="past_key_values.0.value">
					<dim>-1</dim>
					<dim>4</dim>
					<dim>-1</dim>
					<dim>8</dim>
				</port>
			</output>
		</layer>
		<layer id="8" name="past_key_values.1.key" type="Parameter" version="opset1">
			<data shape="?,4,?,8" element_type="f32" />
			<rt_info>
				<attribute name="fused_names" version="0" value="past_key_values.1.key" />
			</rt_info>
			<output>
				<port id="0" precision="FP32" names="past_key_values.1.key">
					<dim>-1</dim>
					<dim>4</dim>
					<dim>-1</dim>
					<dim>8</dim>
				</port>
			</output>
		</layer>
		<layer id="7" name="past_key_values.1.value" type="Parameter" version="opset1">
			<data shape="?,4,?,8" element_type="f32" />
			<rt_info>
				<attribute name="fused_names" version="0" value="past_key_values.1.value" />
			</rt_info>
			<output>
				<port id="0" precision="FP32" names="past_key_values.1.value">
					<dim>-1</dim>
					<dim>4</dim>
					<dim>-1</dim>
					<dim>8</dim>
				</port>
			</output>
		</layer>
		<layer id="6" name="past_key_values.2.key" type="Parameter" version="opset1">
			<data shape="?,4,?,8" element_type="f32" />
			<rt_info>
				<attribute name="fused_names" version="0" value="past_key_values.2.key" />
			</rt_info>
			<output>
				<port id="0" precision="FP32" names="past_key_values.2.key">
					<dim>-1</dim>
					<dim>4</dim>
					<dim>-1</dim>
					<dim>8</dim>
				</port>
			</output>
		</layer>
		<layer id="5" name="past_key_values.2.value" type="Parameter" version="opset1">
			<data shape="?,4,?,8" element_type="f32" />
			<rt_info>
				<attribute name="fused_names" version="0" value="past_key_values.2.value" />
			</rt_info>
			<output>
				<port id="0" precision="FP32" names="past_key_values.2.value">
					<dim>-1</dim>
					<dim>4</dim>
					<dim>-1</dim>
					<dim>8</dim>
				</port>
			</output>
		</layer>
		<layer id="4" name="past_key_values.3.key" type="Parameter" version="opset1">
			<data shape="?,4,?,8" element_type="f32" />
			<rt_info>
				<attribute name="fused_names" version="0" value="past_key_values.3.key" />
			</rt_info>
			<output>
				<port id="0" precision="FP32" names="past_key_values.3.key">
					<dim>-1</dim>
					<dim>4</dim>
					<dim>-1</dim>
					<dim>8</dim>
				</port>
			</output>
		</layer>
		<layer id="3" name="past_key_values.3.value" type="Parameter" version="opset1">
			<data shape="?,4,?,8" element_type="f32" />
			<rt_info>
				<attribute name="fused_names" version="0" value="past_key_values.3.value" />
			</rt_info>
			<output>
				<port id="0" precision="FP32" names="past_key_values.3.value">
					<dim>-1</dim>
					<dim>4</dim>
					<dim>-1</dim>
					<dim>8</dim>
				</port>
			</output>
		</layer>
		<layer id="2" name="past_key_values.4.key" type="Parameter" version="opset1">
			<data shape="?,4,?,8" element_type="f32" />
			<rt_info>
				<attribute name="fused_names" version="0" value="past_key_values.4.key" />
			</rt_info>
			<output>
				<port id="0" precision="FP32" names="past_key_values.4.key">
					<dim>-1</dim>
					<dim>4</dim>
					<dim>-1</dim>
					<dim>8</dim>
				</port>
			</output>
		</layer>
		<layer id="1" name="past_key_values.4.value" type="Parameter" version="opset1">
			<data shape="?,4,?,8" element_type="f32" />
			<rt_info>
				<attribute name="fused_names" version="0" value="past_key_values.4.value" />
			</rt_info>
			<output>
				<port id="0" precision="FP32" names="past_key_values.4.value">
					<dim>-1</dim>
					<dim>4</dim>
					<dim>-1</dim>
					<dim>8</dim>
				</port>
			</output>
		</layer>
		<layer id="0" name="attention_mask" type="Parameter" version="opset1">
			<data shape="?,?" element_type="i64" />
			<rt_info>
				<attribute name="fused_names" version="0" value="attention_mask" />
			</rt_info>
			<output>
				<port id="0" precision="I64" names="attention_mask">
					<dim>-1</dim>
					<dim>-1</dim>
				</port>
			</output>
		</layer>
		<layer id="12" name="Constant_212" type="Const" version="opset1">
			<data element_type="boolean" shape="1, 1, 512, 512" offset="0" size="262144" />
			<rt_info>
				<attribute name="fused_names" version="0" value="Constant_212" />
			</rt_info>
			<output>
				<port id="0" precision="BOOL" names="onnx::Slice_271">
					<dim>1</dim>
					<dim>1</dim>
					<dim>512</dim>
					<dim>512</dim>
				</port>
			</output>
		</layer>
		<layer id="13" name="transformer.wte.weight" type="Const" version="opset1">
			<data element_type="f32" shape="1000, 32" offset="262144" size="128000" />
			<rt_info>
				<attribute name="fused_names" version="0" value="transformer.wte.weight" />
			</rt_info>
			<output>
				<port id="0" precision="FP32" names="transformer.wte.weight">
					<dim>1000</dim>
					<dim>32</dim>
				</port>
			</output>
		</layer>
		<layer id="14" name="/transformer/Constant_2" type="Const" version="opset1">
			<data element_type="i64" shape="1" offset="390144" size="8" />
			<rt_info>
				<attribute name="fused_names" version="0" value="/transformer/Constant_2" />
			</rt_info>
			<output>
				<port id="0" precision="I64" names="/transformer/Constant_2_output_0">
					<dim>1</dim>
				</port>
			</output>
		</layer>
		<layer id="15" name="/transformer/Shape_1" type="ShapeOf" version="opset3">
			<data output_type="i64" />
			<rt_info>
				<attribute name="fused_names" version="0" value="/transformer/Shape_1" />
			</rt_info>
			<input>
				<port id="0" precision="I64">
					<dim>-1</dim>
					<dim>-1</dim>
				</port>
			</input>
			<output>
				<port id="1" precision="I64" names="/transformer/Shape_1_output_0">
					<dim>2</dim>
				</port>
			</output>
		</layer>
		<layer id="16" name="/transformer/Constant_1" type="Const" version="opset1">
			<data element_type="i64" shape="" offset="390152" size="8" />
			<rt_info>
				<attribute name="fused_names" version="0" value="/transformer/Constant_1" />
			</rt_info>
			<output>
				<port id="0" precision="I64" names="/transformer/Constant_1_output_0" />
			</output>
		</layer>
		<layer id="17" name="Constant_4611237" type="Const" version="opset1">
			<data element_type="i64" shape="" offset="390160" size="8" />
			<rt_info>
				<attribute name="fused_names" version="0" value="Constant_4611237" />
			</rt_info>
			<output>
				<port id="0" precision="I64" />
			</output>
		</layer>
		<layer id="18" name="/transformer/Gather_1" type="Gather" version="opset8">
			<data batch_dims="0" />
			<rt_info>
				<attribute name="fused_names" version="0" value="/transformer/Constant_1, /transformer/Gather_1, Constant_4611237" />
			</rt_info>
			<input>
				<port id="0" precision="I64">
					<dim>2</dim>
				</port>
				<port id="1" precision="I64" />
				<port id="2" precision="I64" />
			</input>
			<output>
				<port id="3" precision="I64" names="/transformer/Gather_1_output_0" />
			</output>
		</layer>
		<layer id="19" name="Constant_45" type="Const" version="opset1">
			<data element_type="i64" shape="1" offset="390160" size="8" />
			<rt_info>
				<attribute name="fused_names" version="0" value="Constant_45" />
			</rt_info>
			<output>
				<port id="0" precision="I64" names="onnx::Unsqueeze_86">
					<dim>1</dim>
				</port>
			</output>
		</layer>
		<layer id="20" name="/transformer/Unsqueeze" type="Unsqueeze" version="opset1">
			<rt_info>
				<attribute name="fused_names" version="0" value="/transformer/Unsqueeze, Constant_45" />
			</rt_info>
			<input>
				<port id="0" precision="I64" />
				<port id="1" precision="I64">
					<dim>1</dim>
				</port>
			</input>
			<output>
				<port id="2" precision="I64" names="/transformer/Unsqueeze_output_0">
					<dim>1</dim>
				</port>
			</output>
		</layer>
		<layer id="21" name="/transformer/Concat" type="Concat" version="opset1">
			<data axis="0" />
			<rt_info>
				<attribute name="fused_names" version="0" value="/transformer/Concat, /transformer/Constant_2" />
			</rt_info>
			<input>
				<port id="0" precision="I64">
					<dim>1</dim>
				</port>
				<port id="1" precision="I64">
					<dim>1</dim>
				</port>
			</input>
			<output>
				<port id="2" precision="I64" names="/transformer/Concat_output_0">
					<dim>2</dim>
				</port>
			</output>
		</layer>
		<layer id="22" name="/transformer/Reshape" type="Reshape" version="opset1">
			<data special_zero="true" />
			<rt_info>
				<attribute name="fused_names" version="0" value="/transformer/Reshape" />
			</rt_info>
			<input>
				<port id="0" precision="I64">
					<dim>-1</dim>
					<dim>-1</dim>
				</port>
				<port id="1" precision="I64">
					<dim>2</dim>
				</port>
			</input>
			<output>
				<port id="2" precision="I64" names="/transformer/Reshape_output_0">
					<dim>-1</dim>
					<dim>-1</dim>
				</port>
			</output>
		</layer>
		<layer id="23" name="Constant_4611389" type="Const" version="opset1">
			<data element_type="i64" shape="" offset="390160" size="8" />
			<rt_info>
				<attribute name="fused_names" version="0" value="Constant_4611389" />
			</rt_info>
			<output>
				<port id="0" precision="I64" />
			</output>
		</layer>
		<layer id="24" name="/transformer/wte/Gather" type="Gather" version="opset8">
			<data batch_dims="0" />
			<rt_info>
				<attribute name="fused_names" version="0" value="/transformer/wte/Gather" />
			</rt_info>
			<input>
				<port id="0" precision="FP32">
					<dim>1000</dim>
					<dim>32</dim>
				</port>
				<port id="1" precision="I64">
					<dim>-1</dim>
					<dim>-1</dim>
				</port>
				<port id="2" precision="I64" />
			</input>
			<output>
				<port id="3" precision="FP32" names="/transformer/wte/Gather_output_0">
					<dim>-1</dim>
					<dim>-1</dim>
					<dim>32</dim>
				</port>
			</output>
		</layer>
		<layer id="25" name="transformer.wpe.weight" type="Const" version="opset1">
			<data element_type="f32" shape="512, 32" offset="390168" size="65536" />
			<rt_info>
				<attribute name="fused_names" version="0" value="transformer.wpe.weight" />
			</rt_info>
			<output>
				<port id="0" precision="FP32" names="transformer.wpe.weight">
					<dim>512</dim>
					<dim>32</dim>
				</port>
			</output>
		</layer>
		<layer id="26" name="/transformer/Shape_3" type="ShapeOf" version="opset3">
			<data output_type="i64" />
			<rt_info>
				<attribute name="fused_names" version="0" value="/transformer/Shape_3" />
			</rt_info>
			<input>
				<port id="0" precision="FP32">
					<dim>-1</dim>
					<dim>4</dim>
					<dim>-1</dim>
					<dim>8</dim>
				</port>
			</input>
			<output>
				<port id="1" precision="I64" names="/transformer/Shape_3_output_0">
					<dim>4</dim>
				</port>
			</output>
		</layer>
		<layer id="27" name="/transformer/Constant_6" type="Const" version="opset1">
			<data element_type="i64" shape="1" offset="455704" size="8" />
			<rt_info>
				<attribute name="fused_names" version="0" value="/transformer/Constant_6" />
			</rt_info>
			<output>
				<port id="0" precision="I64" names="/transformer/Constant_6_output_0">
					<dim>1</dim>
				</port>
			</output>
		</layer>
		<layer id="28" name="/transformer/Constant_7" type="Const" version="opset1">
			<data element_type="i64" shape="1" offset="390144" size="8" />
			<rt_info>
				<attribute name="fused_names" version="0" value="/transformer/Constant_7" />
			</rt_info>
			<output>
				<port id="0" precision="I64" names="/transformer/Constant_7_output_0">
					<dim>1</dim>
				</port>
			</output>
		</layer>
		<layer id="29" name="Constant_4611262" type="Const" version="opset1">
			<data element_type="i64" shape="1" offset="390152" size="8" />
			<rt_info>
				<attribute name="fused_names" version="0" value="Constant_4611262" />
			</rt_info>
			<output>
				<port id="0" precision="I64">
					<dim>1</dim>
				</port>
			</output>
		</layer>
		<layer id="30" name="ShapeOf_4611263" type="Const" version="opset1">
			<data element_type="i64" shape="1" offset="390152" size="8" />
			<rt_info>
				<attribute name="fused_names" version="0" value="/transformer/Constant_6, ShapeOf_4611263" />
			</rt_info>
			<output>
				<port id="0" precision="I64">
					<dim>1</dim>
				</port>
			</output>
		</layer>
		<layer id="31" name="Broadcast_4611264" type="Broadcast" version="opset3">
			<data mode="numpy" />
			<rt_info>
				<attribute name="fused_names" version="0" value="/transformer/Constant_6, Broadcast_4611264, Constant_4611262, ShapeOf_4611263" />
			</rt_info>
			<input>
				<port id="0" precision="I64">
					<dim>1</dim>
				</port>
				<port id="1" precision="I64">
					<dim>1</dim>
				</port>
			</input>
			<output>
				<port id="2" precision="I64">
					<dim>1</dim>
				</port>
			</output>
		</layer>
		<layer id="32" name="/transformer/Constant_5" type="Const" version="opset1">
			<data element_type="i64" shape="1" offset="390160" size="8" />
			<rt_info>
				<attribute name="fused_names" version="0" value="/transformer/Constant_5" />
			</rt_info>
			<output>
				<port id="0" precision="I64" names="/transformer/Constant_5_output_0">
					<dim>1</dim>
				</port>
			</output>
		</layer>
		<layer id="33" name="/transformer/Slice" type="Slice" version="opset8">
			<rt_info>
				<attribute name="fused_names" version="0" value="/transformer/Constant_5, /transformer/Constant_6, /transformer/Constant_7, /transformer/Slice" />
			</rt_info>
			<input>
				<port id="0" precision="I64">
					<dim>4</dim>
				</port>
				<port id="1" precision="I64">
					<dim>1</dim>
				</port>
				<port id="2" precision="I64">
					<dim>1</dim>
				</port>
				<port id="3" precision="I64">
					<dim>1</dim>
				</port>
				<port id="4" precision="I64">
					<dim>1</dim>
				</port>
			</input>
			<output>
				<port id="5" precision="I64" names="/transformer/Slice_output_0">
					<dim>1</dim>
				</port>
			</output>
		</layer>
		<layer id="34" name="/transformer/Constant_8" type="Const" version="opset1">
			<data element_type="i64" shape="1" offset="390160" size="8" />
			<rt_info>
				<attribute name="fused_names" version="0" value="/transformer/Constant_8" />
			</rt_info>
			<output>
				<port id="0" precision="I64" names="/transformer/Constant_8_output_0">
					<dim>1</dim>
				</port>
			</output>
		</layer>
		<layer id="35" name="/transformer/Squeeze" type="Squeeze" version="opset1">
			<rt_info>
				<attribute name="fused_names" version="0" value="/transformer/Constant_8, /transformer/Squeeze" />
			</rt_info>
			<input>
				<port id="0" precision="I64">
					<dim>1</dim>
				</port>
				<port id="1" precision="I64">
					<dim>1</dim>
				</port>
			</input>
			<output>
				<port id="2" precision="I64" names="/transformer/Squeeze_output_0" />
			</output>
		</layer>
		<layer id="36" name="/transformer/Cast" type="Convert" version="opset1">
			<data destination_type="i64" />
			<rt_info>
				<attribute name="fused_names" version="0" value="/transformer/Cast" />
			</rt_info>
			<input>
				<port id="0" precision="I64" />
			</input>
			<output>
				<port id="1" precision="I64" names="/transformer/Cast_output_0" />
			</output>
		</layer>
		<layer id="37" name="/transformer/Add" type="Add" version="opset1">
			<data auto_broadcast="numpy" />
			<rt_info>
				<attribute name="fused_names" version="0" value="/transformer/Add" />
			</rt_info>
			<input>
				<port id="0" precision="I64" />
				<port id="1" precision="I64" />
			</input>
			<output>
				<port id="2" precision="I64" names="/transformer/Add_output_0" />
			</output>
		</layer>
		<layer id="38" name="/transformer/Cast_1" type="Convert" version="opset1">
			<data destination_type="i64" />
			<rt_info>
				<attribute name="fused_names" version="0" value="/transformer/Cast_1" />
			</rt_info>
			<input>
				<port id="0" precision="I64" />
			</input>
			<output>
				<port id="1" precision="I64" names="/transformer/Cast_1_output_0" />
			</output>
		</layer>
		<layer id="39" name="/transformer/Constant_9" type="Const" version="opset1">
			<data element_type="i64" shape="" offset="390152" size="8" />
			<rt_info>
				<attribute name="fused_names" version="0" value="/transformer/Constant_9" />
			</rt_info>
			<output>
				<port id="0" precision="I64" names="/transformer/Constant_9_output_0" />
			</output>
		</layer>
		<layer id="40" name="/transformer/Range" type="Range" version="opset4">
			<data output_type="i64" />
			<rt_info>
				<attribute name="fused_names" version="0" value="/transformer/Range" />
			</rt_info>
			<input>
				<port id="0" precision="I64" />
				<port id="1" precision="I64" />
				<port id="2" precision="I64" />
			</input>
			<output>
				<port id="3" precision="I64" names="/transformer/Range_output_0">
					<dim>-1</dim>
				</port>
			</output>
		</layer>
		<layer id="41" name="/transformer/Constant_10" type="Const" version="opset1">
			<data element_type="i64" shape="1" offset="390160" size="8" />
			<rt_info>
				<attribute name="fused_names" version="0" value="/transformer/Constant_10" />
			</rt_info>
			<output>
				<port id="0" precision="I64" names="/transformer/Constant_10_output_0">
					<dim>1</dim>
				</port>
			</output>
		</layer>
		<layer id="42" name="/transformer/Unsqueeze_2" type="Unsqueeze" version="opset1">
			<rt_info>
				<attribute name="fused_names" version="0" value="/transformer/Unsqueeze_2" />
			</rt_info>
			<input>
				<port id="0" precision="I64">
					<dim>-1</dim>
				</port>
				<port id="1" precision="I64">
					<dim>1</dim>
				</port>
			</input>
			<output>
				<port id="2" precision="I64" names="/transformer/Unsqueeze_2_output_0">
					<dim>1</dim>
					<dim>-1</dim>
				</port>
			</output>
		</layer>
		<layer id="43" name="/transformer/Constant_3" type="Const" version="opset1">
			<data element_type="i64" shape="1" offset="390144" size="8" />
			<rt_info>
				<attribute name="fused_names" version="0" value="/transformer/Constant_3" />
			</rt_info>
			<output>
				<port id="0" precision="I64" names="/transformer/Constant_3_output_0">
					<dim>1</dim>
				</port>
			</output>
		</layer>
		<layer id="44" name="Constant_49" type="Const" version="opset1">
			<data element_type="i64" shape="1" offset="390160" size="8" />
			<rt_info>
				<attribute name="fused_names" version="0" value="Constant_49" />
			</rt_info>
			<output>
				<port id="0" precision="I64" names="onnx::Unsqueeze_91">
					<dim>1</dim>
				</port>
			</output>
		</layer>
		<layer id="45" name="/transformer/Unsqueeze_1" type="Unsqueeze" version="opset1">
			<rt_info>
				<attribute name="fused_names" version="0" value="/transformer/Unsqueeze_1, Constant_49" />
			</rt_info>
			<input>
				<port id="0" precision="I64" />
				<port id="1" precision="I64">
					<dim>1</dim>
				</port>
			</input>
			<output>
				<port id="2" precision="I64" names="/transformer/Unsqueeze_1_output_0">
					<dim>1</dim>
				</port>
			</output>
		</layer>
		<layer id="46" name="/transformer/Concat_1" type="Concat" version="opset1">
			<data axis="0" />
			<rt_info>
				<attribute name="fused_names" version="0" value="/transformer/Concat_1, /transformer/Constant_3" />
			</rt_info>
			<input>
				<port id="0" precision="I64">
					<dim>1</dim>
				</port>
				<port id="1" precision="I64">
					<dim>1</dim>
				</port>
			</input>
			<output>
				<port id="2" precision="I64" names="/transformer/Concat_1_output_0">
					<dim>2</dim>
				</port>
			</output>
		</layer>
		<layer id="47" name="/transformer/Reshape_1" type="Reshape" version="opset1">
			<data special_zero="true" />
			<rt_info>
				<attribute name="fused_names" version="0" value="/transformer/Reshape_1" />
			</rt_info>
			<input>
				<port id="0" precision="I64">
					<dim>1</dim>
					<dim>-1</dim>
				</port>
				<port id="1" precision="I64">
					<dim>2</dim>
				</port>
			</input>
			<output>
				<port id="2" precision="I64" names="/transformer/Reshape_1_output_0">
					<dim>-1</dim>
					<dim>-1</dim>
				</port>
			</output>
		</layer>
		<layer id="48" name="Constant_4611391" type="Const" version="opset1">
			<data element_type="i64" shape="" offset="390160" size="8" />
			<rt_info>
				<attribute name="fused_names" version="0" value="Constant_4611391" />
			</rt_info>
			<output>
				<port id="0" precision="I64" />
			</output>
		</layer>
		<layer id="49" name="/transformer/wpe/Gather" type="Gather" version="opset8">
			<data batch_dims="0" />
			<rt_info>
				<attribute name="fused_names" version="0" value="/transformer/wpe/Gather" />
			</rt_info>
			<input>
				<port id="0" precision="FP32">
					<dim>512</dim>
					<dim>32</dim>
				</port>
				<port id="1" precision="I64">
					<dim>-1</dim>
					<dim>-1</dim>
				</port>
				<port id="2" precision="I64" />
			</input>
			<output>
				<port id="3" precision="FP32" names="/transformer/wpe/Gather_output_0">
					<dim>-1</dim>
					<dim>-1</dim>
					<dim>32</dim>
				</port>
			</output>
		</layer>
		<layer id="50" name="/transformer/Add_1" type="Add" version="opset1">
			<data auto_broadcast="numpy" />
			<rt_info>
				<attribute name="fused_names" version="0" value="/transformer/Add_1" />
			</rt_info>
			<input>
				<port id="0" precision="FP32">
					<dim>-1</dim>
					<dim>-1</dim>
					<dim>32</dim>
				</port>
				<port id="1" precision="FP32">
					<dim>-1</dim>
					<dim>-1</dim>
					<dim>32</dim>
				</port>
			</input>
			<output>
				<port id="2" precision="FP32" names="/transformer/Add_1_output_0">
					<dim>-1</dim>
					<dim>-1</dim>
					<dim>32</dim>
				</port>
			</output>
		</layer>
		<layer id="51" name="Constant_4611407" type="Const" version="opset1">
			<data element_type="i64" shape="1" offset="390144" size="8" />
			<rt_info>
				<attribute name="fused_names" version="0" value="Constant_4611407" />
			</rt_info>
			<output>
				<port id="0" precision="I64">
					<dim>1</dim>
				</port>
			</output>
		</layer>
		<layer id="52" name="/transformer/h.0/ln_1/ReduceMean" type="ReduceMean" version="opset1">
			<data keep_dims="true" />
			<rt_info>
				<attribute name="fused_names" version="0" value="/transformer/h.0/ln_1/ReduceMean" />
			</rt_info>
			<input>
				<port id="0" precision="FP32">
					<dim>-1</dim>
					<dim>-1</dim>
					<dim>32</dim>
				</port>
				<port id="1" precision="I64">
					<dim>1</dim>
				</port>
			</input>
			<output>
				<port id="2" precision="FP32" names="/transformer/h.0/ln_1/ReduceMean_output_0">
					<dim>-1</dim>
					<dim>-1</dim>
					<dim>1</dim>
				</port>
			</output>
		</layer>
		<layer id="53" name="/transformer/h.0/ln_1/Sub" type="Subtract" version="opset1">
			<data auto_broadcast="numpy" />
			<rt_info>
				<attribute name="fused_names" version="0" value="/transformer/h.0/ln_1/Sub" />
			</rt_info>
			<input>
				<port id="0" precision="FP32">
					<dim>-1</dim>
					<dim>-1</dim>
					<dim>32</dim>
				</port>
				<port id="1" precision="FP32">
					<dim>-1</dim>
					<dim>-1</dim>
					<dim>1</dim>
				</port>
			</input>
			<output>
				<port id="2" precision="FP32" names="/transformer/h.0/ln_1/Sub_output_0">
					<dim>-1</dim>
					<dim>-1</dim>
					<dim>32</dim>
				</port>
			</output>
		</layer>
		<layer id="54" name="/transformer/h.0/ln_1/Constant" type="Const" version="opset1">
			<data element_type="f32" shape="" offset="455712" size="4" />
			<rt_info>
				<attribute name="fused_names" version="0" value="/transformer/h.0/ln_1/Constant" />
			</rt_info>
			<output>
				<port id="0" precision="FP32" names="/transformer/h.0/ln_1/Constant_output_0" />
			</output>
		</layer>
		<layer id="55" name="/transformer/h.0/ln_1/Pow" type="Power" version="opset1">
			<data auto_broadcast="numpy" />
			<rt_info>
				<attribute name="fused_names" version="0" value="/transformer/h.0/ln_1/Pow" />
			</rt_info>
			<input>
				<port id="0" precision="FP32">
					<dim>-1</dim>
					<dim>-1</dim>
					<dim>32</dim>
				</port>
				<port id="1" precision="FP32" />
			</input>
			<output>
				<port id="2" precision="FP32" names="/transformer/h.0/ln_1/Pow_output_0">
					<dim>-1</dim>
					<dim>-1</dim>
					<dim>32</dim>
				</port>
			</output>
		</layer>
		<layer id="56" name="Constant_4611412" type="Const" version="opset1">
			<data element_type="i64" shape="1" offset="390144" size="8" />
			<rt_info>
				<attribute name="fused_names" version="0" value="Constant_4611412" />
			</rt_info>
			<output>
				<port id="0" precision="I64">
					<dim>1</dim>
				</port>
			</output>
		</layer>
		<layer id="57" name="/transformer/h.0/ln_1/ReduceMean_1" type="ReduceMean" version="opset1">
			<data keep_dims="true" />
			<rt_info>
				<attribute name="fused_names" version="0" value="/transformer/h.0/ln_1/ReduceMean_1" />
			</rt_info>
			<input>
				<port id="0" precision="FP32">
					<dim>-1</dim>
					<dim>-1</dim>
					<dim>32</dim>
				</port>
				<port id="1" precision="I64">
					<dim>1</dim>
				</port>
			</input>
			<output>
				<port id="2" precision="FP32" names="/transformer/h.0/ln_1/ReduceMean_1_output_0">
					<dim>-1</dim>
					<dim>-1</dim>
					<dim>1</dim>
				</port>
			</output>
		</layer>
		<layer id="58" name="/transformer/h.0/ln_1/Constant_1" type="Const" version="opset1">
			<data element_type="f32" shape="" offset="455716" size="4" />
			<rt_info>
				<attribute name="fused_names" version="0" value="/transformer/h.0/ln_1/Constant_1" />
			</rt_info>
			<output>
				<port id="0" precision="FP32" names="/transformer/h.0/ln_1/Constant_1_output_0" />
			</output>
		</layer>
		<layer id="59" name="/transformer/h.0/ln_1/Add" type="Add" version="opset1">
			<data auto_broadcast="numpy" />
			<rt_info>
				<attribute name="fused_names" version="0" value="/transformer/h.0/ln_1/Add" />
			</rt_info>
			<input>
				<port id="0" precision="FP32">
					<dim>-1</dim>
					<dim>-1</dim>
					<dim>1</dim>
				</port>
				<port id="1" precision="FP32" />
			</input>
			<output>
				<port id="2" precision="FP32" names="/transformer/h.0/ln_1/Add_output_0">
					<dim>-1</dim>
					<dim>-1</dim>
					<dim>1</dim>
				</port>
			</output>
		</layer>
		<layer id="60" name="/transformer/h.0/ln_1/Sqrt" type="Sqrt" version="opset1">
			<rt_info>
				<attribute name="fused_names" version="0" value="/transformer/h.0/ln_1/Sqrt" />
			</rt_info>
			<input>
				<port id="0" precision="FP32">
					<dim>-1</dim>
					<dim>-1</dim>
					<dim>1</dim>
				</port>
			</input>
			<output>
				<port id="1" precision="FP32" names="/transformer/h.0/ln_1/Sqrt_output_0">
					<dim>-1</dim>
					<dim>-1</dim>
					<dim>1</dim>
				</port>
			</output>
		</layer>
		<layer id="61" name="/transformer/h.0/ln_1/Div" type="Divide" version="opset1">
			<data auto_broadcast="numpy" m_pythondiv="true" />
			<rt_info>
				<attribute name="fused_names" version="0" value="/transformer/h.0/ln_1/Div" />
			</rt_info>
			<input>
				<port id="0" precision="FP32">
					<dim>-1</dim>
					<dim>-1</dim>
					<dim>32</dim>
				</port>
				<port id="1" precision="FP32">
					<dim>-1</dim>
					<dim>-1</dim>
					<dim>1</dim>
				</port>
			</input>
			<output>
				<port id="2" precision="FP32" names="/transformer/h.0/ln_1/Div_output_0">
					<dim>-1</dim>
					<dim>-1</dim>
					<dim>32</dim>
				</port>
			</output>
		</layer>
		<layer id="62" name="transformer.h.0.ln_2.weight" type="Const" version="opset1">
			<data element_type="f32" shape="32" offset="455720" size="128" />
			<rt_info>
				<attribute name="fused_names" version="0" value="transformer.h.0.ln_2.weight" />
			</rt_info>
			<output>
				<port id="0" precision="FP32" names="transformer.h.0.ln_1.weight,transformer.h.0.ln_2.weight,transformer.h.1.ln_1.weight,transformer.h.1.ln_2.weight,transformer.h.2.ln_1.weight,transformer.h.2.ln_2.weight,transformer.h.3.ln_1.weight,transformer.h.3.ln_2.weight,transformer.h.4.ln_1.weight,transformer.h.4.ln_2.weight,transformer.ln_f.weight">
					<dim>32</dim>
				</port>
			</output>
		</layer>
		<layer id="63" name="/transformer/h.0/ln_1/Mul" type="Multiply" version="opset1">
			<data auto_broadcast="numpy" />
			<rt_info>
				<attribute name="fused_names" version="0" value="/transformer/h.0/ln_1/Mul" />
			</rt_info>
			<input>
				<port id="0" precision="FP32">
					<dim>-1</dim>
					<dim>-1</dim>
					<dim>32</dim>
				</port>
				<port id="1" precision="FP32">
					<dim>32</dim>
				</port>
			</input>
			<output>
				<port id="2" precision="FP32" names="/transformer/h.0/ln_1/Mul_output_0">
					<dim>-1</dim>
					<dim>-1</dim>
					<dim>32</dim>
				</port>
			</output>
		</layer>
		<layer id="64" name="transformer.h.0.attn.c_proj.bias" type="Const" version="opset1">
			<data element_type="f32" shape="32" offset="455848" size="128" />
			<rt_info>
				<attribute name="fused_names" version="0" value="transformer.h.0.attn.c_proj.bias" />
			</rt_info>
			<output>
				<port id="0" precision="FP32" names="transformer.h.0.attn.c_proj.bias,transformer.h.0.ln_1.bias,transformer.h.0.ln_2.bias,transformer.h.0.mlp.c_proj.bias,transformer.h.1.attn.c_proj.bias,transformer.h.1.ln_1.bias,transformer.h.1.ln_2.bias,transformer.h.1.mlp.c_proj.bias,transformer.h.2.attn.c_proj.bias,transformer.h.2.ln_1.bias,transformer.h.2.ln_2.bias,transformer.h.2.mlp.c_proj.bias,transformer.h.3.attn.c_proj.bias,transformer.h.3.ln_1.bias,transformer.h.3.ln_2.bias,transformer.h.3.mlp.c_proj.bias,transformer.h.4.attn.c_proj.bias,transformer.h.4.ln_1.bias,transformer.h.4.ln_2.bias,transformer.h.4.mlp.c_proj.bias,transformer.ln_f.bias">
					<dim>32</dim>
				</port>
			</output>
		</layer>
		<layer id="65" name="/transformer/h.0/ln_1/Add_1" type="Add" version="opset1">
			<data auto_broadcast="numpy" />
			<rt_info>
				<attribute name="fused_names" version="0" value="/transformer/h.0/ln_1/Add_1" />
			</rt_info>
			<input>
				<port id="0" precision="FP32">
					<dim>-1</dim>
					<dim>-1</dim>
					<dim>32</dim>
				</port>
				<port id="1" precision="FP32">
					<dim>32</dim>
				</port>
			</input>
			<output>
				<port id="2" precision="FP32" names="/transformer/h.0/ln_1/Add_1_output_0">
					<dim>-1</dim>
					<dim>-1</dim>
					<dim>32</dim>
				</port>
			</output>
		</layer>
		<layer id="66" name="Constant_4617363" type="Const" version="opset1">
			<data element_type="i64" shape="1" offset="390144" size="8" />
			<rt_info>
				<attribute name="fused_names" version="0" value="/transformer/h.0/attn/c_attn/Concat, /transformer/h.0/attn/c_attn/Constant_6" />
			</rt_info>
			<output>
				<port id="0" precision="I64">
					<dim>1</dim>
				</port>
			</output>
		</layer>
		<layer id="67" name="ShapeOf_4617361" type="Const" version="opset1">
			<data element_type="i64" shape="2" offset="455976" size="16" />
			<output>
				<port id="0" precision="I64">
					<dim>2</dim>
				</port>
			</output>
		</layer>
		<layer id="68" name="Constant_4617360" type="Const" version="opset1">
			<data element_type="i64" shape="1" offset="390160" size="8" />
			<output>
				<port id="0" precision="I64">
					<dim>1</dim>
				</port>
			</output>
		</layer>
		<layer id="69" name="Constant_4617359" type="Const" version="opset1">
			<data element_type="i64" shape="" offset="390160" size="8" />
			<output>
				<port id="0" precision="I64" />
			</output>
		</layer>
		<layer id="70" name="Gather_4617362" type="Gather" version="opset1">
			<input>
				<port id="0" precision="I64">
					<dim>2</dim>
				</port>
				<port id="1" precision="I64">
					<dim>1</dim>
				</port>
				<port id="2" precision="I64" />
			</input>
			<output>
				<port id="3" precision="I64">
					<dim>1</dim>
				</port>
			</output>
		</layer>
		<layer id="71" name="/transformer/h.0/attn/c_attn/Concat" type="Concat" version="opset1">
			<data axis="0" />
			<rt_info>
				<attribute name="fused_names" version="0" value="/transformer/h.0/attn/c_attn/Concat, /transformer/h.0/attn/c_attn/Constant_6" />
			</rt_info>
			<input>
				<port id="0" precision="I64">
					<dim>1</dim>
				</port>
				<port id="1" precision="I64">
					<dim>1</dim>
				</port>
			</input>
			<output>
				<port id="2" precision="I64" names="/transformer/h.0/attn/c_attn/Concat_output_0">
					<dim>2</dim>
				</port>
			</output>
		</layer>
		<layer id="72" name="/transformer/h.0/attn/c_attn/Reshape" type="Reshape" version="opset1">
			<data special_zero="true" />
			<rt_info>
				<attribute name="fused_names" version="0" value="/transformer/h.0/attn/c_attn/Reshape" />
			</rt_info>
			<input>
				<port id="0" precision="FP32">
					<dim>-1</dim>
					<dim>-1</dim>
					<dim>32</dim>
				</port>
				<port id="1" precision="I64">
					<dim>2</dim>
				</port>
			</input>
			<output>
				<port id="2" precision="FP32" names="/transformer/h.0/attn/c_attn/Reshape_output_0">
					<dim>-1</dim>
					<dim>32</dim>
				</port>
			</output>
		</layer>
		<layer id="73" name="transformer.h.0.attn.c_attn.weight" type="Const" version="opset1">
			<data element_type="f32" shape="32, 96" offset="455992" size="12288" />
			<rt_info>
				<attribute name="fused_names" version="0" value="transformer.h.0.attn.c_attn.weight" />
			</rt_info>
			<output>
				<port id="0" precision="FP32" names="transformer.h.0.attn.c_attn.weight">
					<dim>32</dim>
					<dim>96</dim>
				</port>
			</output>
		</layer>
		<layer id="74" name="/transformer/h.0/attn/c_attn/Gemm/WithoutBiases" type="MatMul" version="opset1">
			<data transpose_a="false" transpose_b="false" />
			<rt_info>
				<attribute name="fused_names" version="0" value="/transformer/h.0/attn/c_attn/Gemm/WithoutBiases" />
			</rt_info>
			<input>
				<port id="0" precision="FP32">
					<dim>-1</dim>
					<dim>32</dim>
				</port>
				<port id="1" precision="FP32">
					<dim>32</dim>
					<dim>96</dim>
				</port>
			</input>
			<output>
				<port id="2" precision="FP32">
					<dim>-1</dim>
					<dim>96</dim>
				</port>
			</output>
		</layer>
		<layer id="75" name="Constant_4611452" type="Const" version="opset1">
			<data element_type="f32" shape="" offset="468280" size="4" />
			<rt_info>
				<attribute name="fused_names" version="0" value="Constant_4611452" />
			</rt_info>
			<output>
				<port id="0" precision="FP32" />
			</output>
		</layer>
		<layer id="76" name="Multiply_4611455" type="Multiply" version="opset1">
			<data auto_broadcast="numpy" />
			<rt_info>
				<attribute name="fused_names" version="0" value="Multiply_4611455" />
			</rt_info>
			<input>
				<port id="0" precision="FP32">
					<dim>-1</dim>
					<dim>96</dim>
				</port>
				<port id="1" precision="FP32" />
			</input>
			<output>
				<port id="2" precision="FP32">
					<dim>-1</dim>
					<dim>96</dim>
				</port>
			</output>
		</layer>
		<layer id="77" name="Constant_4611453" type="Const" version="opset1">
			<data element_type="f32" shape="" offset="468280" size="4" />
			<rt_info>
				<attribute name="fused_names" version="0" value="Constant_4611453" />
			</rt_info>
			<output>
				<port id="0" precision="FP32" />
			</output>
		</layer>
		<layer id="78" name="transformer.h.1.attn.c_attn.bias" type="Const" version="opset1">
			<data element_type="f32" shape="96" offset="468284" size="384" />
			<rt_info>
				<attribute name="fused_names" version="0" value="transformer.h.1.attn.c_attn.bias" />
			</rt_info>
			<output>
				<port id="0" precision="FP32" names="transformer.h.0.attn.c_attn.bias,transformer.h.1.attn.c_attn.bias,transformer.h.2.attn.c_attn.bias,transformer.h.3.attn.c_attn.bias,transformer.h.4.attn.c_attn.bias">
					<dim>96</dim>
				</port>
			</output>
		</layer>
		<layer id="79" name="Multiply_4611456" type="Multiply" version="opset1">
			<data auto_broadcast="numpy" />
			<rt_info>
				<attribute name="fused_names" version="0" value="Multiply_4611456" />
			</rt_info>
			<input>
				<port id="0" precision="FP32" />
				<port id="1" precision="FP32">
					<dim>96</dim>
				</port>
			</input>
			<output>
				<port id="2" precision="FP32">
					<dim>96</dim>
				</port>
			</output>
		</layer>
		<layer id="80" name="/transformer/h.0/attn/c_attn/Gemm" type="Add" version="opset1">
			<data auto_broadcast="numpy" />
			<rt_info>
				<attribute name="fused_names" version="0" value="/transformer/h.0/attn/c_attn/Gemm" />
			</rt_info>
			<input>
				<port id="0" precision="FP32">
					<dim>-1</dim>
					<dim>96</dim>
				</port>
				<port id="1" precision="FP32">
					<dim>96</dim>
				</port>
			</input>
			<output>
				<port id="2" precision="FP32" names="/transformer/h.0/attn/c_attn/Gemm_output_0">
					<dim>-1</dim>
					<dim>96</dim>
				</port>
			</output>
		</layer>
		<layer id="81" name="/transformer/h.0/attn/c_attn/Shape" type="ShapeOf" version="opset3">
			<data output_type="i64" />
			<rt_info>
				<attribute name="fused_names" version="0" value="/transformer/h.0/attn/c_attn/Shape" />
			</rt_info>
			<input>
				<port id="0" precision="FP32">
					<dim>-1</dim>
					<dim>-1</dim>
					<dim>32</dim>
				</port>
			</input>
			<output>
				<port id="1" precision="I64" names="/transformer/h.0/attn/c_attn/Shape_output_0">
					<dim>3</dim>
				</port>
			</output>
		</layer>
		<layer id="82" name="/transformer/h.0/attn/c_attn/Constant" type="Const" version="opset1">
			<data element_type="i64" shape="" offset="390160" size="8" />
			<rt_info>
				<attribute name="fused_names" version="0" value="/transformer/h.0/attn/c_attn/Constant" />
			</rt_info>
			<output>
				<port id="0" precision="I64" names="/transformer/h.0/attn/c_attn/Constant_output_0" />
			</output>
		</layer>
		<layer id="83" name="Constant_4611422" type="Const" version="opset1">
			<data element_type="i64" shape="" offset="390160" size="8" />
			<rt_info>
				<attribute name="fused_names" version="0" value="Constant_4611422" />
			</rt_info>
			<output>
				<port id="0" precision="I64" />
			</output>
		</layer>
		<layer id="84" name="/transformer/h.0/attn/c_attn/Gather" type="Gather" version="opset8">
			<data batch_dims="0" />
			<rt_info>
				<attribute name="fused_names" version="0" value="/transformer/h.0/attn/c_attn/Constant, /transformer/h.0/attn/c_attn/Gather, Constant_4611422" />
			</rt_info>
			<input>
				<port id="0" precision="I64">
					<dim>3</dim>
				</port>
				<port id="1" precision="I64" />
				<port id="2" precision="I64" />
			</input>
			<output>
				<port id="3" precision="I64" names="/transformer/h.0/attn/c_attn/Gather_output_0" />
			</output>
		</layer>
		<layer id="85" name="Constant_125" type="Const" version="opset1">
			<data element_type="i64" shape="1" offset="390160" size="8" />
			<rt_info>
				<attribute name="fused_names" version="0" value="Constant_125" />
			</rt_info>
			<output>
				<port id="0" precision="I64" names="onnx::Unsqueeze_173">
					<dim>1</dim>
				</port>
			</output>
		</layer>
		<layer id="86" name="/transformer/h.0/attn/c_attn/Unsqueeze_1" type="Unsqueeze" version="opset1">
			<rt_info>
				<attribute name="fused_names" version="0" value="/transformer/h.0/attn/c_attn/Unsqueeze_1, Constant_125" />
			</rt_info>
			<input>
				<port id="0" precision="I64" />
				<port id="1" precision="I64">
					<dim>1</dim>
				</port>
			</input>
			<output>
				<port id="2" precision="I64" names="/transformer/h.0/attn/c_attn/Unsqueeze_1_output_0">
					<dim>1</dim>
				</port>
			</output>
		</layer>
		<layer id="87" name="/transformer/h.0/attn/c_attn/Shape_1" type="ShapeOf" version="opset3">
			<data output_type="i64" />
			<rt_info>
				<attribute name="fused_names" version="0" value="/transformer/h.0/attn/c_attn/Shape_1" />
			</rt_info>
			<input>
				<port id="0" precision="FP32">
					<dim>-1</dim>
					<dim>-1</dim>
					<dim>32</dim>
				</port>
			</input>
			<output>
				<port id="1" precision="I64" names="/transformer/h.0/attn/c_attn/Shape_1_output_0">
					<dim>3</dim>
				</port>
			</output>
		</layer>
		<layer id="88" name="/transformer/h.0/attn/c_attn/Constant_1" type="Const" version="opset1">
			<data element_type="i64" shape="" offset="390152" size="8" />
			<rt_info>
				<attribute name="fused_names" version="0" value="/transformer/h.0/attn/c_attn/Constant_1" />
			</rt_info>
			<output>
				<port id="0" precision="I64" names="/transformer/h.0/attn/c_attn/Constant_1_output_0" />
			</output>
		</layer>
		<layer id="89" name="Constant_4611426" type="Const" version="opset1">
			<data element_type="i64" shape="" offset="390160" size="8" />
			<rt_info>
				<attribute name="fused_names" version="0" value="Constant_4611426" />
			</rt_info>
			<output>
				<port id="0" precision="I64" />
			</output>
		</layer>
		<layer id="90" name="/transformer/h.0/attn/c_attn/Gather_1" type="Gather" version="opset8">
			<data batch_dims="0" />
			<rt_info>
				<attribute name="fused_names" version="0" value="/transformer/h.0/attn/c_attn/Constant_1, /transformer/h.0/attn/c_attn/Gather_1, Constant_4611426" />
			</rt_info>
			<input>
				<port id="0" precision="I64">
					<dim>3</dim>
				</port>
				<port id="1" precision="I64" />
				<port id="2" precision="I64" />
			</input>
			<output>
				<port id="3" precision="I64" names="/transformer/h.0/attn/c_attn/Gather_1_output_0" />
			</output>
		</layer>
		<layer id="91" name="Constant_127" type="Const" version="opset1">
			<data element_type="i64" shape="1" offset="390160" size="8" />
			<rt_info>
				<attribute name="fused_names" version="0" value="Constant_127" />
			</rt_info>
			<output>
				<port id="0" precision="I64" names="onnx::Unsqueeze_175">
					<dim>1</dim>
				</port>
			</output>
		</layer>
		<layer id="92" name="/transformer/h.0/attn/c_attn/Unsqueeze_2" type="Unsqueeze" version="opset1">
			<rt_info>
				<attribute name="fused_names" version="0" value="/transformer/h.0/attn/c_attn/Unsqueeze_2, Constant_127" />
			</rt_info>
			<input>
				<port id="0" precision="I64" />
				<port id="1" precision="I64">
					<dim>1</dim>
				</port>
			</input>
			<output>
				<port id="2" precision="I64" names="/transformer/h.0/attn/c_attn/Unsqueeze_2_output_0">
					<dim>1</dim>
				</port>
			</output>
		</layer>
		<layer id="93" name="/transformer/h.0/attn/c_attn/Constant_7" type="Const" version="opset1">
			<data element_type="i64" shape="1" offset="468668" size="8" />
			<rt_info>
				<attribute name="fused_names" version="0" value="/transformer/h.0/attn/c_attn/Constant_7" />
			</rt_info>
			<output>
				<port id="0" precision="I64" names="/transformer/h.0/attn/c_attn/Constant_7_output_0">
					<dim>1</dim>
				</port>
			</output>
		</layer>
		<layer id="94" name="/transformer/h.0/attn/c_attn/Concat_1" type="Concat" version="opset1">
			<data axis="0" />
			<rt_info>
				<attribute name="fused_names" version="0" value="/transformer/h.0/attn/c_attn/Concat_1, /transformer/h.0/attn/c_attn/Constant_7" />
			</rt_info>
			<input>
				<port id="0" precision="I64">
					<dim>1</dim>
				</port>
				<port id="1" precision="I64">
					<dim>1</dim>
				</port>
				<port id="2" precision="I64">
					<dim>1</dim>
				</port>
			</input>
			<output>
				<port id="3" precision="I64" names="/transformer/h.0/attn/c_attn/Concat_1_output_0">
					<dim>3</dim>
				</port>
			</output>
		</layer>
		<layer id="95" name="/transformer/h.0/attn/c_attn/Reshape_1" type="Reshape" version="opset1">
			<data special_zero="true" />
			<rt_info>
				<attribute name="fused_names" version="0" value="/transformer/h.0/attn/c_attn/Reshape_1" />
			</rt_info>
			<input>
				<port id="0" precision="FP32">
					<dim>-1</dim>
					<dim>96</dim>
				</port>
				<port id="1" precision="I64">
					<dim>3</dim>
				</port>
			</input>
			<output>
				<port id="2" precision="FP32" names="/transformer/h.0/attn/c_attn/Reshape_1_output_0">
					<dim>-1</dim>
					<dim>-1</dim>
					<dim>96</dim>
				</port>
			</output>
		</layer>
		<layer id="96" name="Constant_4611476" type="Const" version="opset1">
			<data element_type="i64" shape="" offset="468676" size="8" />
			<rt_info>
				<attribute name="fused_names" version="0" value="Constant_4611476" />
			</rt_info>
			<output>
				<port id="0" precision="I64" />
			</output>
		</layer>
		<layer id="97" name="/transformer/h.0/attn/Constant" type="Const" version="opset1">
			<data element_type="i64" shape="3" offset="468684" size="24" />
			<rt_info>
				<attribute name="fused_names" version="0" value="/transformer/h.0/attn/Constant" />
			</rt_info>
			<output>
				<port id="0" precision="I64" names="/transformer/h.0/attn/Constant_output_0">
					<dim>3</dim>
				</port>
			</output>
		</layer>
		<layer id="98" name="/transformer/h.0/attn/Split" type="VariadicSplit" version="opset1">
			<rt_info>
				<attribute name="fused_names" version="0" value="/transformer/h.0/attn/Split" />
			</rt_info>
			<input>
				<port id="0" precision="FP32">
					<dim>-1</dim>
					<dim>-1</dim>
					<dim>96</dim>
				</port>
				<port id="1" precision="I64" />
				<port id="2" precision="I64">
					<dim>3</dim>
				</port>
			</input>
			<output>
				<port id="3" precision="FP32" names="/transformer/h.0/attn/Split_output_0">
					<dim>-1</dim>
					<dim>-1</dim>
					<dim>32</dim>
				</port>
				<port id="4" precision="FP32" names="/transformer/h.0/attn/Split_output_1">
					<dim>-1</dim>
					<dim>-1</dim>
					<dim>32</dim>
				</port>
				<port id="5" precision="FP32" names="/transformer/h.0/attn/Split_output_2">
					<dim>-1</dim>
					<dim>-1</dim>
					<dim>32</dim>
				</port>
			</output>
		</layer>
		<layer id="99" name="/transformer/h.0/attn/Shape_2" type="ShapeOf" version="opset3">
			<data output_type="i64" />
			<rt_info>
				<attribute name="fused_names" version="0" value="/transformer/h.0/attn/Shape_2" />
			</rt_info>
			<input>
				<port id="0" precision="FP32">
					<dim>-1</dim>
					<dim>-1</dim>
					<dim>32</dim>
				</port>
			</input>
			<output>
				<port id="1" precision="I64" names="/transformer/h.0/attn/Shape_2_output_0">
					<dim>3</dim>
				</port>
			</output>
		</layer>
		<layer id="100" name="/transformer/h.0/attn/Constant_5" type="Const" version="opset1">
			<data element_type="i64" shape="" offset="390160" size="8" />
			<rt_info>
				<attribute name="fused_names" version="0" value="/transformer/h.0/attn/Constant_5" />
			</rt_info>
			<output>
				<port id="0" precision="I64" names="/transformer/h.0/attn/Constant_5_output_0" />
			</output>
		</layer>
		<layer id="101" name="Constant_4611508" type="Const" version="opset1">
			<data element_type="i64" shape="" offset="390160" size="8" />
			<rt_info>
				<attribute name="fused_names" version="0" value="Constant_4611508" />
			</rt_info>
			<output>
				<port id="0" precision="I64" />
			</output>
		</layer>
		<layer id="102" name="/transformer/h.0/attn/Gather_2" type="Gather" version="opset8">
			<data batch_dims="0" />
			<rt_info>
				<attribute name="fused_names" version="0" value="/transformer/h.0/attn/Constant_5, /transformer/h.0/attn/Gather_2, Constant_4611508" />
			</rt_info>
			<input>
				<port id="0" precision="I64">
					<dim>3</dim>
				</port>
				<port id="1" precision="I64" />
				<port id="2" precision="I64" />
			</input>
			<output>
				<port id="3" precision="I64" names="/transformer/h.0/attn/Gather_2_output_0" />
			</output>
		</layer>
		<layer id="103" name="Constant_155" type="Const" version="opset1">
			<data element_type="i64" shape="1" offset="390160" size="8" />
			<rt_info>
				<attribute name="fused_names" version="0" value="Constant_155" />
			</rt_info>
			<output>
				<port id="0" precision="I64" names="onnx::Unsqueeze_210">
					<dim>1</dim>
				</port>
			</output>
		</layer>
		<layer id="104" name="/transformer/h.0/attn/Unsqueeze_2" type="Unsqueeze" version="opset1">
			<rt_info>
				<attribute name="fused_names" version="0" value="/transformer/h.0/attn/Unsqueeze_2, Constant_155" />
			</rt_info>
			<input>
				<port id="0" precision="I64" />
				<port id="1" precision="I64">
					<dim>1</dim>
				</port>
			</input>
			<output>
				<port id="2" precision="I64" names="/transformer/h.0/attn/Unsqueeze_2_output_0">
					<dim>1</dim>
				</port>
			</output>
		</layer>
		<layer id="105" name="/transformer/h.0/attn/Shape_3" type="ShapeOf" version="opset3">
			<data output_type="i64" />
			<rt_info>
				<attribute name="fused_names" version="0" value="/transformer/h.0/attn/Shape_3" />
			</rt_info>
			<input>
				<port id="0" precision="FP32">
					<dim>-1</dim>
					<dim>-1</dim>
					<dim>32</dim>
				</port>
			</input>
			<output>
				<port id="1" precision="I64" names="/transformer/h.0/attn/Shape_3_output_0">
					<dim>3</dim>
				</port>
			</output>
		</layer>
		<layer id="106" name="/transformer/h.0/attn/Constant_6" type="Const" version="opset1">
			<data element_type="i64" shape="" offset="390152" size="8" />
			<rt_info>
				<attribute name="fused_names" version="0" value="/transformer/h.0/attn/Constant_6" />
			</rt_info>
			<output>
				<port id="0" precision="I64" names="/transformer/h.0/attn/Constant_6_output_0" />
			</output>
		</layer>
		<layer id="107" name="Constant_4611512" type="Const" version="opset1">
			<data element_type="i64" shape="" offset="390160" size="8" />
			<rt_info>
				<attribute name="fused_names" version="0" value="Constant_4611512" />
			</rt_info>
			<output>
				<port id="0" precision="I64" />
			</output>
		</layer>
		<layer id="108" name="/transformer/h.0/attn/Gather_3" type="Gather" version="opset8">
			<data batch_dims="0" />
			<rt_info>
				<attribute name="fused_names" version="0" value="/transformer/h.0/attn/Constant_6, /transformer/h.0/attn/Gather_3, Constant_4611512" />
			</rt_info>
			<input>
				<port id="0" precision="I64">
					<dim>3</dim>
				</port>
				<port id="1" precision="I64" />
				<port id="2" precision="I64" />
			</input>
			<output>
				<port id="3" precision="I64" names="/transformer/h.0/attn/Gather_3_output_0" />
			</output>
		</layer>
		<layer id="109" name="Constant_157" type="Const" version="opset1">
			<data element_type="i64" shape="1" offset="390160" size="8" />
			<rt_info>
				<attribute name="fused_names" version="0" value="Constant_157" />
			</rt_info>
			<output>
				<port id="0" precision="I64" names="onnx::Unsqueeze_212">
					<dim>1</dim>
				</port>
			</output>
		</layer>
		<layer id="110" name="/transformer/h.0/attn/Unsqueeze_3" type="Unsqueeze" version="opset1">
			<rt_info>
				<attribute name="fused_names" version="0" value="/transformer/h.0/attn/Unsqueeze_3, Constant_157" />
			</rt_info>
			<input>
				<port id="0" precision="I64" />
				<port id="1" precision="I64">
					<dim>1</dim>
				</port>
			</input>
			<output>
				<port id="2" precision="I64" names="/transformer/h.0/attn/Unsqueeze_3_output_0">
					<dim>1</dim>
				</port>
			</output>
		</layer>
		<layer id="111" name="/transformer/h.0/attn/Constant_7" type="Const" version="opset1">
			<data element_type="i64" shape="1" offset="468708" size="8" />
			<rt_info>
				<attribute name="fused_names" version="0" value="/transformer/h.0/attn/Constant_7" />
			</rt_info>
			<output>
				<port id="0" precision="I64" names="/transformer/h.0/attn/Constant_7_output_0">
					<dim>1</dim>
				</port>
			</output>
		</layer>
		<layer id="112" name="/transformer/h.0/attn/Constant_8" type="Const" version="opset1">
			<data element_type="i64" shape="1" offset="468716" size="8" />
			<rt_info>
				<attribute name="fused_names" version="0" value="/transformer/h.0/attn/Constant_8" />
			</rt_info>
			<output>
				<port id="0" precision="I64" names="/transformer/h.0/attn/Constant_8_output_0">
					<dim>1</dim>
				</port>
			</output>
		</layer>
		<layer id="113" name="/transformer/h.0/attn/Concat_1" type="Concat" version="opset1">
			<data axis="0" />
			<rt_info>
				<attribute name="fused_names" version="0" value="/transformer/h.0/attn/Concat_1, /transformer/h.0/attn/Constant_7, /transformer/h.0/attn/Constant_8" />
			</rt_info>
			<input>
				<port id="0" precision="I64">
					<dim>1</dim>
				</port>
				<port id="1" precision="I64">
					<dim>1</dim>
				</port>
				<port id="2" precision="I64">
					<dim>1</dim>
				</port>
				<port id="3" precision="I64">
					<dim>1</dim>
				</port>
			</input>
			<output>
				<port id="4" precision="I64" names="/transformer/h.0/attn/Concat_1_output_0">
					<dim>4</dim>
				</port>
			</output>
		</layer>
		<layer id="114" name="/transformer/h.0/attn/Reshape_1" type="Reshape" version="opset1">
			<data special_zero="true" />
			<rt_info>
				<attribute name="fused_names" version="0" value="/transformer/h.0/attn/Reshape_1" />
			</rt_info>
			<input>
				<port id="0" precision="FP32">
					<dim>-1</dim>
					<dim>-1</dim>
					<dim>32</dim>
				</port>
				<port id="1" precision="I64">
					<dim>4</dim>
				</port>
			</input>
			<output>
				<port id="2" precision="FP32" names="/transformer/h.0/attn/Reshape_1_output_0">
					<dim>-1</dim>
					<dim>-1</dim>
					<dim>4</dim>
					<dim>8</dim>
				</port>
			</output>
		</layer>
		<layer id="115" name="Constant_4611532" type="Const" version="opset1">
			<data element_type="i64" shape="4" offset="468724" size="32" />
			<rt_info>
				<attribute name="fused_names" version="0" value="Constant_4611532" />
			</rt_info>
			<output>
				<port id="0" precision="I64">
					<dim>4</dim>
				</port>
			</output>
		</layer>
		<layer id="116" name="/transformer/h.0/attn/Transpose_1" type="Transpose" version="opset1">
			<rt_info>
				<attribute name="fused_names" version="0" value="/transformer/h.0/attn/Transpose_1" />
			</rt_info>
			<input>
				<port id="0" precision="FP32">
					<dim>-1</dim>
					<dim>-1</dim>
					<dim>4</dim>
					<dim>8</dim>
				</port>
				<port id="1" precision="I64">
					<dim>4</dim>
				</port>
			</input>
			<output>
				<port id="2" precision="FP32" names="/transformer/h.0/attn/Transpose_1_output_0">
					<dim>-1</dim>
					<dim>4</dim>
					<dim>-1</dim>
					<dim>8</dim>
				</port>
			</output>
		</layer>
		<layer id="117" name="present.0.key" type="Concat" version="opset1">
			<data axis="-2" />
			<rt_info>
				<attribute name="fused_names" version="0" value="present.0.key" />
			</rt_info>
			<input>
				<port id="0" precision="FP32">
					<dim>-1</dim>
					<dim>4</dim>
					<dim>-1</dim>
					<dim>8</dim>
				</port>
				<port id="1" precision="FP32">
					<dim>-1</dim>
					<dim>4</dim>
					<dim>-1</dim>
					<dim>8</dim>
				</port>
			</input>
			<output>
				<port id="2" precision="FP32" names="present.0.key">
					<dim>-1</dim>
					<dim>4</dim>
					<dim>-1</dim>
					<dim>8</dim>
				</port>
			</output>
		</layer>
		<layer id="118" name="/transformer/h.0/attn/Shape_8" type="ShapeOf" version="opset3">
			<data output_type="i64" />
			<rt_info>
				<attribute name="fused_names" version="0" value="/transformer/h.0/attn/Shape_8" />
			</rt_info>
			<input>
				<port id="0" precision="FP32">
					<dim>-1</dim>
					<dim>4</dim>
					<dim>-1</dim>
					<dim>8</dim>
				</port>
			</input>
			<output>
				<port id="1" precision="I64" names="/transformer/h.0/attn/Shape_8_output_0">
					<dim>4</dim>
				</port>
			</output>
		</layer>
		<layer id="119" name="/transformer/h.0/attn/Constant_24" type="Const" version="opset1">
			<data element_type="i64" shape="1" offset="455704" size="8" />
			<rt_info>
				<attribute name="fused_names" version="0" value="/transformer/h.0/attn/Constant_24" />
			</rt_info>
			<output>
				<port id="0" precision="I64" names="/transformer/h.0/attn/Constant_24_output_0">
					<dim>1</dim>
				</port>
			</output>
		</layer>
		<layer id="120" name="/transformer/h.0/attn/Constant_25" type="Const" version="opset1">
			<data element_type="i64" shape="1" offset="390144" size="8" />
			<rt_info>
				<attribute name="fused_names" version="0" value="/transformer/h.0/attn/Constant_25" />
			</rt_info>
			<output>
				<port id="0" precision="I64" names="/transformer/h.0/attn/Constant_25_output_0">
					<dim>1</dim>
				</port>
			</output>
		</layer>
		<layer id="121" name="Constant_4611605" type="Const" version="opset1">
			<data element_type="i64" shape="1" offset="390152" size="8" />
			<rt_info>
				<attribute name="fused_names" version="0" value="Constant_4611605" />
			</rt_info>
			<output>
				<port id="0" precision="I64">
					<dim>1</dim>
				</port>
			</output>
		</layer>
		<layer id="122" name="ShapeOf_4611606" type="Const" version="opset1">
			<data element_type="i64" shape="1" offset="390152" size="8" />
			<rt_info>
				<attribute name="fused_names" version="0" value="/transformer/h.0/attn/Constant_24, ShapeOf_4611606" />
			</rt_info>
			<output>
				<port id="0" precision="I64">
					<dim>1</dim>
				</port>
			</output>
		</layer>
		<layer id="123" name="Broadcast_4611607" type="Broadcast" version="opset3">
			<data mode="numpy" />
			<rt_info>
				<attribute name="fused_names" version="0" value="/transformer/h.0/attn/Constant_24, Broadcast_4611607, Constant_4611605, ShapeOf_4611606" />
			</rt_info>
			<input>
				<port id="0" precision="I64">
					<dim>1</dim>
				</port>
				<port id="1" precision="I64">
					<dim>1</dim>
				</port>
			</input>
			<output>
				<port id="2" precision="I64">
					<dim>1</dim>
				</port>
			</output>
		</layer>
		<layer id="124" name="/transformer/h.0/attn/Constant_23" type="Const" version="opset1">
			<data element_type="i64" shape="1" offset="390160" size="8" />
			<rt_info>
				<attribute name="fused_names" version="0" value="/transformer/h.0/attn/Constant_23" />
			</rt_info>
			<output>
				<port id="0" precision="I64" names="/transformer/h.0/attn/Constant_23_output_0">
					<dim>1</dim>
				</port>
			</output>
		</layer>
		<layer id="125" name="/transformer/h.0/attn/Slice_2" type="Slice" version="opset8">
			<rt_info>
				<attribute name="fused_names" version="0" value="/transformer/h.0/attn/Constant_23, /transformer/h.0/attn/Constant_24, /transformer/h.0/attn/Constant_25, /transformer/h.0/attn/Slice_2" />
			</rt_info>
			<input>
				<port id="0" precision="I64">
					<dim>4</dim>
				</port>
				<port id="1" precision="I64">
					<dim>1</dim>
				</port>
				<port id="2" precision="I64">
					<dim>1</dim>
				</port>
				<port id="3" precision="I64">
					<dim>1</dim>
				</port>
				<port id="4" precision="I64">
					<dim>1</dim>
				</port>
			</input>
			<output>
				<port id="5" precision="I64" names="/transformer/h.0/attn/Slice_2_output_0">
					<dim>1</dim>
				</port>
			</output>
		</layer>
		<layer id="126" name="/transformer/h.0/attn/Constant_26" type="Const" version="opset1">
			<data element_type="i64" shape="1" offset="390160" size="8" />
			<rt_info>
				<attribute name="fused_names" version="0" value="/transformer/h.0/attn/Constant_26" />
			</rt_info>
			<output>
				<port id="0" precision="I64" names="/transformer/h.0/attn/Constant_26_output_0">
					<dim>1</dim>
				</port>
			</output>
		</layer>
		<layer id="127" name="/transformer/h.0/attn/Squeeze_2" type="Squeeze" version="opset1">
			<rt_info>
				<attribute name="fused_names" version="0" value="/transformer/h.0/attn/Constant_26, /transformer/h.0/attn/Squeeze_2" />
			</rt_info>
			<input>
				<port id="0" precision="I64">
					<dim>1</dim>
				</port>
				<port id="1" precision="I64">
					<dim>1</dim>
				</port>
			</input>
			<output>
				<port id="2" precision="I64" names="/transformer/h.0/attn/Squeeze_2_output_0" />
			</output>
		</layer>
		<layer id="128" name="/transformer/h.0/attn/Shape" type="ShapeOf" version="opset3">
			<data output_type="i64" />
			<rt_info>
				<attribute name="fused_names" version="0" value="/transformer/h.0/attn/Shape" />
			</rt_info>
			<input>
				<port id="0" precision="FP32">
					<dim>-1</dim>
					<dim>-1</dim>
					<dim>32</dim>
				</port>
			</input>
			<output>
				<port id="1" precision="I64" names="/transformer/h.0/attn/Shape_output_0">
					<dim>3</dim>
				</port>
			</output>
		</layer>
		<layer id="129" name="/transformer/h.0/attn/Constant_1" type="Const" version="opset1">
			<data element_type="i64" shape="" offset="390160" size="8" />
			<rt_info>
				<attribute name="fused_names" version="0" value="/transformer/h.0/attn/Constant_1" />
			</rt_info>
			<output>
				<port id="0" precision="I64" names="/transformer/h.0/attn/Constant_1_output_0" />
			</output>
		</layer>
		<layer id="130" name="Constant_4611480" type="Const" version="opset1">
			<data element_type="i64" shape="" offset="390160" size="8" />
			<rt_info>
				<attribute name="fused_names" version="0" value="Constant_4611480" />
			</rt_info>
			<output>
				<port id="0" precision="I64" />
			</output>
		</layer>
		<layer id="131" name="/transformer/h.0/attn/Gather" type="Gather" version="opset8">
			<data batch_dims="0" />
			<rt_info>
				<attribute name="fused_names" version="0" value="/transformer/h.0/attn/Constant_1, /transformer/h.0/attn/Gather, Constant_4611480" />
			</rt_info>
			<input>
				<port id="0" precision="I64">
					<dim>3</dim>
				</port>
				<port id="1" precision="I64" />
				<port id="2" precision="I64" />
			</input>
			<output>
				<port id="3" precision="I64" names="/transformer/h.0/attn/Gather_output_0" />
			</output>
		</layer>
		<layer id="132" name="Constant_140" type="Const" version="opset1">
			<data element_type="i64" shape="1" offset="390160" size="8" />
			<rt_info>
				<attribute name="fused_names" version="0" value="Constant_140" />
			</rt_info>
			<output>
				<port id="0" precision="I64" names="onnx::Unsqueeze_193">
					<dim>1</dim>
				</port>
			</output>
		</layer>
		<layer id="133" name="/transformer/h.0/attn/Unsqueeze" type="Unsqueeze" version="opset1">
			<rt_info>
				<attribute name="fused_names" version="0" value="/transformer/h.0/attn/Unsqueeze, Constant_140" />
			</rt_info>
			<input>
				<port id="0" precision="I64" />
				<port id="1" precision="I64">
					<dim>1</dim>
				</port>
			</input>
			<output>
				<port id="2" precision="I64" names="/transformer/h.0/attn/Unsqueeze_output_0">
					<dim>1</dim>
				</port>
			</output>
		</layer>
		<layer id="134" name="/transformer/h.0/attn/Shape_1" type="ShapeOf" version="opset3">
			<data output_type="i64" />
			<rt_info>
				<attribute name="fused_names" version="0" value="/transformer/h.0/attn/Shape_1" />
			</rt_info>
			<input>
				<port id="0" precision="FP32">
					<dim>-1</dim>
					<dim>-1</dim>
					<dim>32</dim>
				</port>
			</input>
			<output>
				<port id="1" precision="I64" names="/transformer/h.0/attn/Shape_1_output_0">
					<dim>3</dim>
				</port>
			</output>
		</layer>
		<layer id="135" name="/transformer/h.0/attn/Constant_2" type="Const" version="opset1">
			<data element_type="i64" shape="" offset="390152" size="8" />
			<rt_info>
				<attribute name="fused_names" version="0" value="/transformer/h.0/attn/Constant_2" />
			</rt_info>
			<output>
				<port id="0" precision="I64" names="/transformer/h.0/attn/Constant_2_output_0" />
			</output>
		</layer>
		<layer id="136" name="Constant_4611484" type="Const" version="opset1">
			<data element_type="i64" shape="" offset="390160" size="8" />
			<rt_info>
				<attribute name="fused_names" version="0" value="Constant_4611484" />
			</rt_info>
			<output>
				<port id="0" precision="I64" />
			</output>
		</layer>
		<layer id="137" name="/transformer/h.0/attn/Gather_1" type="Gather" version="opset8">
			<data batch_dims="0" />
			<rt_info>
				<attribute name="fused_names" version="0" value="/transformer/h.0/attn/Constant_2, /transformer/h.0/attn/Gather_1, Constant_4611484" />
			</rt_info>
			<input>
				<port id="0" precision="I64">
					<dim>3</dim>
				</port>
				<port id="1" precision="I64" />
				<port id="2" precision="I64" />
			</input>
			<output>
				<port id="3" precision="I64" names="/transformer/h.0/attn/Gather_1_output_0" />
			</output>
		</layer>
		<layer id="138" name="Constant_142" type="Const" version="opset1">
			<data element_type="i64" shape="1" offset="390160" size="8" />
			<rt_info>
				<attribute name="fused_names" version="0" value="Constant_142" />
			</rt_info>
			<output>
				<port id="0" precision="I64" names="onnx::Unsqueeze_195">
					<dim>1</dim>
				</port>
			</output>
		</layer>
		<layer id="139" name="/transformer/h.0/attn/Unsqueeze_1" type="Unsqueeze" version="opset1">
			<rt_info>
				<attribute name="fused_names" version="0" value="/transformer/h.0/attn/Unsqueeze_1, Constant_142" />
			</rt_info>
			<input>
				<port id="0" precision="I64" />
				<port id="1" precision="I64">
					<dim>1</dim>
				</port>
			</input>
			<output>
				<port id="2" precision="I64" names="/transformer/h.0/attn/Unsqueeze_1_output_0">
					<dim>1</dim>
				</port>
			</output>
		</layer>
		<layer id="140" name="/transformer/h.0/attn/Constant_3" type="Const" version="opset1">
			<data element_type="i64" shape="1" offset="468708" size="8" />
			<rt_info>
				<attribute name="fused_names" version="0" value="/transformer/h.0/attn/Constant_3" />
			</rt_info>
			<output>
				<port id="0" precision="I64" names="/transformer/h.0/attn/Constant_3_output_0">
					<dim>1</dim>
				</port>
			</output>
		</layer>
		<layer id="141" name="/transformer/h.0/attn/Constant_4" type="Const" version="opset1">
			<data element_type="i64" shape="1" offset="468716" size="8" />
			<rt_info>
				<attribute name="fused_names" version="0" value="/transformer/h.0/attn/Constant_4" />
			</rt_info>
			<output>
				<port id="0" precision="I64" names="/transformer/h.0/attn/Constant_4_output_0">
					<dim>1</dim>
				</port>
			</output>
		</layer>
		<layer id="142" name="/transformer/h.0/attn/Concat" type="Concat" version="opset1">
			<data axis="0" />
			<rt_info>
				<attribute name="fused_names" version="0" value="/transformer/h.0/attn/Concat, /transformer/h.0/attn/Constant_3, /transformer/h.0/attn/Constant_4" />
			</rt_info>
			<input>
				<port id="0" precision="I64">
					<dim>1</dim>
				</port>
				<port id="1" precision="I64">
					<dim>1</dim>
				</port>
				<port id="2" precision="I64">
					<dim>1</dim>
				</port>
				<port id="3" precision="I64">
					<dim>1</dim>
				</port>
			</input>
			<output>
				<port id="4" precision="I64" names="/transformer/h.0/attn/Concat_output_0">
					<dim>4</dim>
				</port>
			</output>
		</layer>
		<layer id="143" name="/transformer/h.0/attn/Reshape" type="Reshape" version="opset1">
			<data special_zero="true" />
			<rt_info>
				<attribute name="fused_names" version="0" value="/transformer/h.0/attn/Reshape" />
			</rt_info>
			<input>
				<port id="0" precision="FP32">
					<dim>-1</dim>
					<dim>-1</dim>
					<dim>32</dim>
				</port>
				<port id="1" precision="I64">
					<dim>4</dim>
				</port>
			</input>
			<output>
				<port id="2" precision="FP32" names="/transformer/h.0/attn/Reshape_output_0">
					<dim>-1</dim>
					<dim>-1</dim>
					<dim>4</dim>
					<dim>8</dim>
				</port>
			</output>
		</layer>
		<layer id="144" name="Constant_4611504" type="Const" version="opset1">
			<data element_type="i64" shape="4" offset="468724" size="32" />
			<rt_info>
				<attribute name="fused_names" version="0" value="Constant_4611504" />
			</rt_info>
			<output>
				<port id="0" precision="I64">
					<dim>4</dim>
				</port>
			</output>
		</layer>
		<layer id="145" name="/transformer/h.0/attn/Transpose" type="Transpose" version="opset1">
			<rt_info>
				<attribute name="fused_names" version="0" value="/transformer/h.0/attn/Transpose" />
			</rt_info>
			<input>
				<port id="0" precision="FP32">
					<dim>-1</dim>
					<dim>-1</dim>
					<dim>4</dim>
					<dim>8</dim>
				</port>
				<port id="1" precision="I64">
					<dim>4</dim>
				</port>
			</input>
			<output>
				<port id="2" precision="FP32" names="/transformer/h.0/attn/Transpose_output_0">
					<dim>-1</dim>
					<dim>4</dim>
					<dim>-1</dim>
					<dim>8</dim>
				</port>
			</output>
		</layer>
		<layer id="146" name="/transformer/h.0/attn/Shape_7" type="ShapeOf" version="opset3">
			<data output_type="i64" />
			<rt_info>
				<attribute name="fused_names" version="0" value="/transformer/h.0/attn/Shape_7" />
			</rt_info>
			<input>
				<port id="0" precision="FP32">
					<dim>-1</dim>
					<dim>4</dim>
					<dim>-1</dim>
					<dim>8</dim>
				</port>
			</input>
			<output>
				<port id="1" precision="I64" names="/transformer/h.0/attn/Shape_7_output_0">
					<dim>4</dim>
				</port>
			</output>
		</layer>
		<layer id="147" name="/transformer/h.0/attn/Constant_20" type="Const" version="opset1">
			<data element_type="i64" shape="1" offset="455704" size="8" />
			<rt_info>
				<attribute name="fused_names" version="0" value="/transformer/h.0/attn/Constant_20" />
			</rt_info>
			<output>
				<port id="0" precision="I64" names="/transformer/h.0/attn/Constant_20_output_0">
					<dim>1</dim>
				</port>
			</output>
		</layer>
		<layer id="148" name="/transformer/h.0/attn/Constant_21" type="Const" version="opset1">
			<data element_type="i64" shape="1" offset="390144" size="8" />
			<rt_info>
				<attribute name="fused_names" version="0" value="/transformer/h.0/attn/Constant_21" />
			</rt_info>
			<output>
				<port id="0" precision="I64" names="/transformer/h.0/attn/Constant_21_output_0">
					<dim>1</dim>
				</port>
			</output>
		</layer>
		<layer id="149" name="Constant_4611592" type="Const" version="opset1">
			<data element_type="i64" shape="1" offset="390152" size="8" />
			<rt_info>
				<attribute name="fused_names" version="0" value="Constant_4611592" />
			</rt_info>
			<output>
				<port id="0" precision="I64">
					<dim>1</dim>
				</port>
			</output>
		</layer>
		<layer id="150" name="ShapeOf_4611593" type="Const" version="opset1">
			<data element_type="i64" shape="1" offset="390152" size="8" />
			<rt_info>
				<attribute name="fused_names" version="0" value="/transformer/h.0/attn/Constant_20, ShapeOf_4611593" />
			</rt_info>
			<output>
				<port id="0" precision="I64">
					<dim>1</dim>
				</port>
			</output>
		</layer>
		<layer id="151" name="Broadcast_4611594" type="Broadcast" version="opset3">
			<data mode="numpy" />
			<rt_info>
				<attribute name="fused_names" version="0" value="/transformer/h.0/attn/Constant_20, Broadcast_4611594, Constant_4611592, ShapeOf_4611593" />
			</rt_info>
			<input>
				<port id="0" precision="I64">
					<dim>1</dim>
				</port>
				<port id="1" precision="I64">
					<dim>1</dim>
				</port>
			</input>
			<output>
				<port id="2" precision="I64">
					<dim>1</dim>
				</port>
			</output>
		</layer>
		<layer id="152" name="/transformer/h.0/attn/Constant_19" type="Const" version="opset1">
			<data element_type="i64" shape="1" offset="390160" size="8" />
			<rt_info>
				<attribute name="fused_names" version="0" value="/transformer/h.0/attn/Constant_19" />
			</rt_info>
			<output>
				<port id="0" precision="I64" names="/transformer/h.0/attn/Constant_19_output_0">
					<dim>1</dim>
				</port>
			</output>
		</layer>
		<layer id="153" name="/transformer/h.0/attn/Slice_1" type="Slice" version="opset8">
			<rt_info>
				<attribute name="fused_names" version="0" value="/transformer/h.0/attn/Constant_19, /transformer/h.0/attn/Constant_20, /transformer/h.0/attn/Constant_21, /transformer/h.0/attn/Slice_1" />
			</rt_info>
			<input>
				<port id="0" precision="I64">
					<dim>4</dim>
				</port>
				<port id="1" precision="I64">
					<dim>1</dim>
				</port>
				<port id="2" precision="I64">
					<dim>1</dim>
				</port>
				<port id="3" precision="I64">
					<dim>1</dim>
				</port>
				<port id="4" precision="I64">
					<dim>1</dim>
				</port>
			</input>
			<output>
				<port id="5" precision="I64" names="/transformer/h.0/attn/Slice_1_output_0">
					<dim>1</dim>
				</port>
			</output>
		</layer>
		<layer id="154" name="/transformer/h.0/attn/Constant_22" type="Const" version="opset1">
			<data element_type="i64" shape="1" offset="390160" size="8" />
			<rt_info>
				<attribute name="fused_names" version="0" value="/transformer/h.0/attn/Constant_22" />
			</rt_info>
			<output>
				<port id="0" precision="I64" names="/transformer/h.0/attn/Constant_22_output_0">
					<dim>1</dim>
				</port>
			</output>
		</layer>
		<layer id="155" name="/transformer/h.0/attn/Squeeze_1" type="Squeeze" version="opset1">
			<rt_info>
				<attribute name="fused_names" version="0" value="/transformer/h.0/attn/Constant_22, /transformer/h.0/attn/Squeeze_1" />
			</rt_info>
			<input>
				<port id="0" precision="I64">
					<dim>1</dim>
				</port>
				<port id="1" precision="I64">
					<dim>1</dim>
				</port>
			</input>
			<output>
				<port id="2" precision="I64" names="/transformer/h.0/attn/Squeeze_1_output_0" />
			</output>
		</layer>
		<layer id="156" name="/transformer/h.0/attn/Sub" type="Subtract" version="opset1">
			<data auto_broadcast="numpy" />
			<rt_info>
				<attribute name="fused_names" version="0" value="/transformer/h.0/attn/Sub" />
			</rt_info>
			<input>
				<port id="0" precision="I64" />
				<port id="1" precision="I64" />
			</input>
			<output>
				<port id="2" precision="I64" names="/transformer/h.0/attn/Sub_output_0" />
			</output>
		</layer>
		<layer id="157" name="/transformer/h.0/attn/Constant_27" type="Const" version="opset1">
			<data element_type="i64" shape="1" offset="390160" size="8" />
			<rt_info>
				<attribute name="fused_names" version="0" value="/transformer/h.0/attn/Constant_27" />
			</rt_info>
			<output>
				<port id="0" precision="I64" names="/transformer/h.0/attn/Constant_27_output_0">
					<dim>1</dim>
				</port>
			</output>
		</layer>
		<layer id="158" name="/transformer/h.0/attn/Unsqueeze_6" type="Unsqueeze" version="opset1">
			<rt_info>
				<attribute name="fused_names" version="0" value="/transformer/h.0/attn/Constant_27, /transformer/h.0/attn/Unsqueeze_6" />
			</rt_info>
			<input>
				<port id="0" precision="I64" />
				<port id="1" precision="I64">
					<dim>1</dim>
				</port>
			</input>
			<output>
				<port id="2" precision="I64" names="/transformer/h.0/attn/Unsqueeze_6_output_0">
					<dim>1</dim>
				</port>
			</output>
		</layer>
		<layer id="159" name="/transformer/h.0/attn/Constant_28" type="Const" version="opset1">
			<data element_type="i64" shape="1" offset="390160" size="8" />
			<rt_info>
				<attribute name="fused_names" version="0" value="/transformer/h.0/attn/Constant_28" />
			</rt_info>
			<output>
				<port id="0" precision="I64" names="/transformer/h.0/attn/Constant_28_output_0">
					<dim>1</dim>
				</port>
			</output>
		</layer>
		<layer id="160" name="/transformer/h.0/attn/Unsqueeze_7" type="Unsqueeze" version="opset1">
			<rt_info>
				<attribute name="fused_names" version="0" value="/transformer/h.0/attn/Constant_28, /transformer/h.0/attn/Unsqueeze_7" />
			</rt_info>
			<input>
				<port id="0" precision="I64" />
				<port id="1" precision="I64">
					<dim>1</dim>
				</port>
			</input>
			<output>
				<port id="2" precision="I64" names="/transformer/h.0/attn/Unsqueeze_7_output_0">
					<dim>1</dim>
				</port>
			</output>
		</layer>
		<layer id="161" name="/transformer/h.0/attn/Constant_30" type="Const" version="opset1">
			<data element_type="i64" shape="1" offset="390152" size="8" />
			<rt_info>
				<attribute name="fused_names" version="0" value="/transformer/h.0/attn/Constant_30" />
			</rt_info>
			<output>
				<port id="0" precision="I64" names="/transformer/h.0/attn/Constant_30_output_0">
					<dim>1</dim>
				</port>
			</output>
		</layer>
		<layer id="162" name="/transformer/h.0/attn/Constant_29" type="Const" version="opset1">
			<data element_type="i64" shape="1" offset="468676" size="8" />
			<rt_info>
				<attribute name="fused_names" version="0" value="/transformer/h.0/attn/Constant_29" />
			</rt_info>
			<output>
				<port id="0" precision="I64" names="/transformer/h.0/attn/Constant_29_output_0">
					<dim>1</dim>
				</port>
			</output>
		</layer>
		<layer id="163" name="/transformer/h.0/attn/Slice_3" type="Slice" version="opset8">
			<rt_info>
				<attribute name="fused_names" version="0" value="/transformer/h.0/attn/Slice_3" />
			</rt_info>
			<input>
				<port id="0" precision="BOOL">
					<dim>1</dim>
					<dim>1</dim>
					<dim>512</dim>
					<dim>512</dim>
				</port>
				<port id="1" precision="I64">
					<dim>1</dim>
				</port>
				<port id="2" precision="I64">
					<dim>1</dim>
				</port>
				<port id="3" precision="I64">
					<dim>1</dim>
				</port>
				<port id="4" precision="I64">
					<dim>1</dim>
				</port>
			</input>
			<output>
				<port id="5" precision="BOOL" names="/transformer/h.0/attn/Slice_3_output_0">
					<dim>1</dim>
					<dim>1</dim>
					<dim>-1</dim>
					<dim>512</dim>
				</port>
			</output>
		</layer>
		<layer id="164" name="/transformer/h.0/attn/Constant_31" type="Const" version="opset1">
			<data element_type="i64" shape="1" offset="390160" size="8" />
			<rt_info>
				<attribute name="fused_names" version="0" value="/transformer/h.0/attn/Constant_31" />
			</rt_info>
			<output>
				<port id="0" precision="I64" names="/transformer/h.0/attn/Constant_31_output_0">
					<dim>1</dim>
				</port>
			</output>
		</layer>
		<layer id="165" name="/transformer/h.0/attn/Constant_32" type="Const" version="opset1">
			<data element_type="i64" shape="1" offset="390160" size="8" />
			<rt_info>
				<attribute name="fused_names" version="0" value="/transformer/h.0/attn/Constant_32" />
			</rt_info>
			<output>
				<port id="0" precision="I64" names="/transformer/h.0/attn/Constant_32_output_0">
					<dim>1</dim>
				</port>
			</output>
		</layer>
		<layer id="166" name="/transformer/h.0/attn/Unsqueeze_8" type="Unsqueeze" version="opset1">
			<rt_info>
				<attribute name="fused_names" version="0" value="/transformer/h.0/attn/Constant_32, /transformer/h.0/attn/Unsqueeze_8" />
			</rt_info>
			<input>
				<port id="0" precision="I64" />
				<port id="1" precision="I64">
					<dim>1</dim>
				</port>
			</input>
			<output>
				<port id="2" precision="I64" names="/transformer/h.0/attn/Unsqueeze_8_output_0">
					<dim>1</dim>
				</port>
			</output>
		</layer>
		<layer id="167" name="/transformer/h.0/attn/Constant_34" type="Const" version="opset1">
			<data element_type="i64" shape="1" offset="390152" size="8" />
			<rt_info>
				<attribute name="fused_names" version="0" value="/transformer/h.0/attn/Constant_34" />
			</rt_info>
			<output>
				<port id="0" precision="I64" names="/transformer/h.0/attn/Constant_34_output_0">
					<dim>1</dim>
				</port>
			</output>
		</layer>
		<layer id="168" name="/transformer/h.0/attn/Constant_33" type="Const" version="opset1">
			<data element_type="i64" shape="1" offset="468756" size="8" />
			<rt_info>
				<attribute name="fused_names" version="0" value="/transformer/h.0/attn/Constant_33" />
			</rt_info>
			<output>
				<port id="0" precision="I64" names="/transformer/h.0/attn/Constant_33_output_0">
					<dim>1</dim>
				</port>
			</output>
		</layer>
		<layer id="169" name="/transformer/h.0/attn/Slice_4" type="Slice" version="opset8">
			<rt_info>
				<attribute name="fused_names" version="0" value="/transformer/h.0/attn/Slice_4" />
			</rt_info>
			<input>
				<port id="0" precision="BOOL">
					<dim>1</dim>
					<dim>1</dim>
					<dim>-1</dim>
					<dim>512</dim>
				</port>
				<port id="1" precision="I64">
					<dim>1</dim>
				</port>
				<port id="2" precision="I64">
					<dim>1</dim>
				</port>
				<port id="3" precision="I64">
					<dim>1</dim>
				</port>
				<port id="4" precision="I64">
					<dim>1</dim>
				</port>
			</input>
			<output>
				<port id="5" precision="BOOL" names="/transformer/h.0/attn/Slice_4_output_0">
					<dim>1</dim>
					<dim>1</dim>
					<dim>-1</dim>
					<dim>-1</dim>
				</port>
			</output>
		</layer>
		<layer id="170" name="/transformer/h.0/attn/MatMul" type="MatMul" version="opset1">
			<data transpose_a="false" transpose_b="true" />
			<rt_info>
				<attribute name="fused_names" version="0" value="/transformer/h.0/attn/MatMul, /transformer/h.0/attn/Transpose_3" />
			</rt_info>
			<input>
				<port id="0" precision="FP32">
					<dim>-1</dim>
					<dim>4</dim>
					<dim>-1</dim>
					<dim>8</dim>
				</port>
				<port id="1" precision="FP32">
					<dim>-1</dim>
					<dim>4</dim>
					<dim>-1</dim>
					<dim>8</dim>
				</port>
			</input>
			<output>
				<port id="2" precision="FP32" names="/transformer/h.0/attn/MatMul_output_0">
					<dim>-1</dim>
					<dim>4</dim>
					<dim>-1</dim>
					<dim>-1</dim>
				</port>
			</output>
		</layer>
		<layer id="171" name="/transformer/h.0/attn/ConstantOfShape" type="Const" version="opset1">
			<data element_type="f32" shape="" offset="468764" size="4" />
			<rt_info>
				<attribute name="fused_names" version="0" value="/transformer/h.0/attn/ConstantOfShape" />
			</rt_info>
			<output>
				<port id="0" precision="FP32" names="/transformer/h.0/attn/ConstantOfShape_output_0" />
			</output>
		</layer>
		<layer id="172" name="/transformer/h.0/attn/Shape_4" type="ShapeOf" version="opset3">
			<data output_type="i64" />
			<rt_info>
				<attribute name="fused_names" version="0" value="/transformer/h.0/attn/Shape_4" />
			</rt_info>
			<input>
				<port id="0" precision="FP32">
					<dim>-1</dim>
					<dim>-1</dim>
					<dim>32</dim>
				</port>
			</input>
			<output>
				<port id="1" precision="I64" names="/transformer/h.0/attn/Shape_4_output_0">
					<dim>3</dim>
				</port>
			</output>
		</layer>
		<layer id="173" name="/transformer/h.0/attn/Constant_9" type="Const" version="opset1">
			<data element_type="i64" shape="" offset="390160" size="8" />
			<rt_info>
				<attribute name="fused_names" version="0" value="/transformer/h.0/attn/Constant_9" />
			</rt_info>
			<output>
				<port id="0" precision="I64" names="/transformer/h.0/attn/Constant_9_output_0" />
			</output>
		</layer>
		<layer id="174" name="Constant_4611536" type="Const" version="opset1">
			<data element_type="i64" shape="" offset="390160" size="8" />
			<rt_info>
				<attribute name="fused_names" version="0" value="Constant_4611536" />
			</rt_info>
			<output>
				<port id="0" precision="I64" />
			</output>
		</layer>
		<layer id="175" name="/transformer/h.0/attn/Gather_4" type="Gather" version="opset8">
			<data batch_dims="0" />
			<rt_info>
				<attribute name="fused_names" version="0" value="/transformer/h.0/attn/Constant_9, /transformer/h.0/attn/Gather_4, Constant_4611536" />
			</rt_info>
			<input>
				<port id="0" precision="I64">
					<dim>3</dim>
				</port>
				<port id="1" precision="I64" />
				<port id="2" precision="I64" />
			</input>
			<output>
				<port id="3" precision="I64" names="/transformer/h.0/attn/Gather_4_output_0" />
			</output>
		</layer>
		<layer id="176" name="Constant_170" type="Const" version="opset1">
			<data element_type="i64" shape="1" offset="390160" size="8" />
			<rt_info>
				<attribute name="fused_names" version="0" value="Constant_170" />
			</rt_info>
			<output>
				<port id="0" precision="I64" names="onnx::Unsqueeze_227">
					<dim>1</dim>
				</port>
			</output>
		</layer>
		<layer id="177" name="/transformer/h.0/attn/Unsqueeze_4" type="Unsqueeze" version="opset1">
			<rt_info>
				<attribute name="fused_names" version="0" value="/transformer/h.0/attn/Unsqueeze_4, Constant_170" />
			</rt_info>
			<input>
				<port id="0" precision="I64" />
				<port id="1" precision="I64">
					<dim>1</dim>
				</port>
			</input>
			<output>
				<port id="2" precision="I64" names="/transformer/h.0/attn/Unsqueeze_4_output_0">
					<dim>1</dim>
				</port>
			</output>
		</layer>
		<layer id="178" name="/transformer/h.0/attn/Shape_5" type="ShapeOf" version="opset3">
			<data output_type="i64" />
			<rt_info>
				<attribute name="fused_names" version="0" value="/transformer/h.0/attn/Shape_5" />
			</rt_info>
			<input>
				<port id="0" precision="FP32">
					<dim>-1</dim>
					<dim>-1</dim>
					<dim>32</dim>
				</port>
			</input>
			<output>
				<port id="1" precision="I64" names="/transformer/h.0/attn/Shape_5_output_0">
					<dim>3</dim>
				</port>
			</output>
		</layer>
		<layer id="179" name="/transformer/h.0/attn/Constant_10" type="Const" version="opset1">
			<data element_type="i64" shape="" offset="390152" size="8" />
			<rt_info>
				<attribute name="fused_names" version="0" value="/transformer/h.0/attn/Constant_10" />
			</rt_info>
			<output>
				<port id="0" precision="I64" names="/transformer/h.0/attn/Constant_10_output_0" />
			</output>
		</layer>
		<layer id="180" name="Constant_4611540" type="Const" version="opset1">
			<data element_type="i64" shape="" offset="390160" size="8" />
			<rt_info>
				<attribute name="fused_names" version="0" value="Constant_4611540" />
			</rt_info>
			<output>
				<port id="0" precision="I64" />
			</output>
		</layer>
		<layer id="181" name="/transformer/h.0/attn/Gather_5" type="Gather" version="opset8">
			<data batch_dims="0" />
			<rt_info>
				<attribute name="fused_names" version="0" value="/transformer/h.0/attn/Constant_10, /transformer/h.0/attn/Gather_5, Constant_4611540" />
			</rt_info>
			<input>
				<port id="0" precision="I64">
					<dim>3</dim>
				</port>
				<port id="1" precision="I64" />
				<port id="2" precision="I64" />
			</input>
			<output>
				<port id="3" precision="I64" names="/transformer/h.0/attn/Gather_5_output_0" />
			</output>
		</layer>
		<layer id="182" name="Constant_172" type="Const" version="opset1">
			<data element_type="i64" shape="1" offset="390160" size="8" />
			<rt_info>
				<attribute name="fused_names" version="0" value="Constant_172" />
			</rt_info>
			<output>
				<port id="0" precision="I64" names="onnx::Unsqueeze_229">
					<dim>1</dim>
				</port>
			</output>
		</layer>
		<layer id="183" name="/transformer/h.0/attn/Unsqueeze_5" type="Unsqueeze" version="opset1">
			<rt_info>
				<attribute name="fused_names" version="0" value="/transformer/h.0/attn/Unsqueeze_5, Constant_172" />
			</rt_info>
			<input>
				<port id="0" precision="I64" />
				<port id="1" precision="I64">
					<dim>1</dim>
				</port>
			</input>
			<output>
				<port id="2" precision="I64" names="/transformer/h.0/attn/Unsqueeze_5_output_0">
					<dim>1</dim>
				</port>
			</output>
		</layer>
		<layer id="184" name="/transformer/h.0/attn/Constant_11" type="Const" version="opset1">
			<data element_type="i64" shape="1" offset="468708" size="8" />
			<rt_info>
				<attribute name="fused_names" version="0" value="/transformer/h.0/attn/Constant_11" />
			</rt_info>
			<output>
				<port id="0" precision="I64" names="/transformer/h.0/attn/Constant_11_output_0">
					<dim>1</dim>
				</port>
			</output>
		</layer>
		<layer id="185" name="/transformer/h.0/attn/Constant_12" type="Const" version="opset1">
			<data element_type="i64" shape="1" offset="468716" size="8" />
			<rt_info>
				<attribute name="fused_names" version="0" value="/transformer/h.0/attn/Constant_12" />
			</rt_info>
			<output>
				<port id="0" precision="I64" names="/transformer/h.0/attn/Constant_12_output_0">
					<dim>1</dim>
				</port>
			</output>
		</layer>
		<layer id="186" name="/transformer/h.0/attn/Concat_2" type="Concat" version="opset1">
			<data axis="0" />
			<rt_info>
				<attribute name="fused_names" version="0" value="/transformer/h.0/attn/Concat_2, /transformer/h.0/attn/Constant_11, /transformer/h.0/attn/Constant_12" />
			</rt_info>
			<input>
				<port id="0" precision="I64">
					<dim>1</dim>
				</port>
				<port id="1" precision="I64">
					<dim>1</dim>
				</port>
				<port id="2" precision="I64">
					<dim>1</dim>
				</port>
				<port id="3" precision="I64">
					<dim>1</dim>
				</port>
			</input>
			<output>
				<port id="4" precision="I64" names="/transformer/h.0/attn/Concat_2_output_0">
					<dim>4</dim>
				</port>
			</output>
		</layer>
		<layer id="187" name="/transformer/h.0/attn/Reshape_2" type="Reshape" version="opset1">
			<data special_zero="true" />
			<rt_info>
				<attribute name="fused_names" version="0" value="/transformer/h.0/attn/Reshape_2" />
			</rt_info>
			<input>
				<port id="0" precision="FP32">
					<dim>-1</dim>
					<dim>-1</dim>
					<dim>32</dim>
				</port>
				<port id="1" precision="I64">
					<dim>4</dim>
				</port>
			</input>
			<output>
				<port id="2" precision="FP32" names="/transformer/h.0/attn/Reshape_2_output_0">
					<dim>-1</dim>
					<dim>-1</dim>
					<dim>4</dim>
					<dim>8</dim>
				</port>
			</output>
		</layer>
		<layer id="188" name="Constant_4611560" type="Const" version="opset1">
			<data element_type="i64" shape="4" offset="468724" size="32" />
			<rt_info>
				<attribute name="fused_names" version="0" value="Constant_4611560" />
			</rt_info>
			<output>
				<port id="0" precision="I64">
					<dim>4</dim>
				</port>
			</output>
		</layer>
		<layer id="189" name="/transformer/h.0/attn/Transpose_2" type="Transpose" version="opset1">
			<rt_info>
				<attribute name="fused_names" version="0" value="/transformer/h.0/attn/Transpose_2" />
			</rt_info>
			<input>
				<port id="0" precision="FP32">
					<dim>-1</dim>
					<dim>-1</dim>
					<dim>4</dim>
					<dim>8</dim>
				</port>
				<port id="1" precision="I64">
					<dim>4</dim>
				</port>
			</input>
			<output>
				<port id="2" precision="FP32" names="/transformer/h.0/attn/Transpose_2_output_0">
					<dim>-1</dim>
					<dim>4</dim>
					<dim>-1</dim>
					<dim>8</dim>
				</port>
			</output>
		</layer>
		<layer id="190" name="present.0.value" type="Concat" version="opset1">
			<data axis="-2" />
			<rt_info>
				<attribute name="fused_names" version="0" value="present.0.value" />
			</rt_info>
			<input>
				<port id="0" precision="FP32">
					<dim>-1</dim>
					<dim>4</dim>
					<dim>-1</dim>
					<dim>8</dim>
				</port>
				<port id="1" precision="FP32">
					<dim>-1</dim>
					<dim>4</dim>
					<dim>-1</dim>
					<dim>8</dim>
				</port>
			</input>
			<output>
				<port id="2" precision="FP32" names="present.0.value">
					<dim>-1</dim>
					<dim>4</dim>
					<dim>-1</dim>
					<dim>8</dim>
				</port>
			</output>
		</layer>
		<layer id="191" name="/transformer/h.0/attn/Shape_6" type="ShapeOf" version="opset3">
			<data output_type="i64" />
			<rt_info>
				<attribute name="fused_names" version="0" value="/transformer/h.0/attn/Shape_6" />
			</rt_info>
			<input>
				<port id="0" precision="FP32">
					<dim>-1</dim>
					<dim>4</dim>
					<dim>-1</dim>
					<dim>8</dim>
				</port>
			</input>
			<output>
				<port id="1" precision="I64" names="/transformer/h.0/attn/Shape_6_output_0">
					<dim>4</dim>
				</port>
			</output>
		</layer>
		<layer id="192" name="/transformer/h.0/attn/Constant_14" type="Const" version="opset1">
			<data element_type="i64" shape="1" offset="390144" size="8" />
			<rt_info>
				<attribute name="fused_names" version="0" value="/transformer/h.0/attn/Constant_14" />
			</rt_info>
			<output>
				<port id="0" precision="I64" names="/transformer/h.0/attn/Constant_14_output_0">
					<dim>1</dim>
				</port>
			</output>
		</layer>
		<layer id="193" name="/transformer/h.0/attn/Constant_15" type="Const" version="opset1">
			<data element_type="i64" shape="1" offset="468768" size="8" />
			<rt_info>
				<attribute name="fused_names" version="0" value="/transformer/h.0/attn/Constant_15" />
			</rt_info>
			<output>
				<port id="0" precision="I64" names="/transformer/h.0/attn/Constant_15_output_0">
					<dim>1</dim>
				</port>
			</output>
		</layer>
		<layer id="194" name="Constant_4611571" type="Const" version="opset1">
			<data element_type="i64" shape="1" offset="390152" size="8" />
			<rt_info>
				<attribute name="fused_names" version="0" value="Constant_4611571" />
			</rt_info>
			<output>
				<port id="0" precision="I64">
					<dim>1</dim>
				</port>
			</output>
		</layer>
		<layer id="195" name="ShapeOf_4611572" type="Const" version="opset1">
			<data element_type="i64" shape="1" offset="390152" size="8" />
			<rt_info>
				<attribute name="fused_names" version="0" value="ShapeOf_4611572" />
			</rt_info>
			<output>
				<port id="0" precision="I64">
					<dim>1</dim>
				</port>
			</output>
		</layer>
		<layer id="196" name="Broadcast_4611573" type="Broadcast" version="opset3">
			<data mode="numpy" />
			<rt_info>
				<attribute name="fused_names" version="0" value="Broadcast_4611573, Constant_4611571, ShapeOf_4611572" />
			</rt_info>
			<input>
				<port id="0" precision="I64">
					<dim>1</dim>
				</port>
				<port id="1" precision="I64">
					<dim>1</dim>
				</port>
			</input>
			<output>
				<port id="2" precision="I64">
					<dim>1</dim>
				</port>
			</output>
		</layer>
		<layer id="197" name="/transformer/h.0/attn/Constant_13" type="Const" version="opset1">
			<data element_type="i64" shape="1" offset="390160" size="8" />
			<rt_info>
				<attribute name="fused_names" version="0" value="/transformer/h.0/attn/Constant_13" />
			</rt_info>
			<output>
				<port id="0" precision="I64" names="/transformer/h.0/attn/Constant_13_output_0">
					<dim>1</dim>
				</port>
			</output>
		</layer>
		<layer id="198" name="/transformer/h.0/attn/Slice" type="Slice" version="opset8">
			<rt_info>
				<attribute name="fused_names" version="0" value="/transformer/h.0/attn/Slice" />
			</rt_info>
			<input>
				<port id="0" precision="I64">
					<dim>4</dim>
				</port>
				<port id="1" precision="I64">
					<dim>1</dim>
				</port>
				<port id="2" precision="I64">
					<dim>1</dim>
				</port>
				<port id="3" precision="I64">
					<dim>1</dim>
				</port>
				<port id="4" precision="I64">
					<dim>1</dim>
				</port>
			</input>
			<output>
				<port id="5" precision="I64" names="/transformer/h.0/attn/Slice_output_0">
					<dim>1</dim>
				</port>
			</output>
		</layer>
		<layer id="199" name="/transformer/h.0/attn/Constant_16" type="Const" version="opset1">
			<data element_type="i64" shape="1" offset="390160" size="8" />
			<rt_info>
				<attribute name="fused_names" version="0" value="/transformer/h.0/attn/Constant_16" />
			</rt_info>
			<output>
				<port id="0" precision="I64" names="/transformer/h.0/attn/Constant_16_output_0">
					<dim>1</dim>
				</port>
			</output>
		</layer>
		<layer id="200" name="/transformer/h.0/attn/Squeeze" type="Squeeze" version="opset1">
			<rt_info>
				<attribute name="fused_names" version="0" value="/transformer/h.0/attn/Squeeze" />
			</rt_info>
			<input>
				<port id="0" precision="I64">
					<dim>1</dim>
				</port>
				<port id="1" precision="I64">
					<dim>1</dim>
				</port>
			</input>
			<output>
				<port id="2" precision="I64" names="/transformer/h.0/attn/Squeeze_output_0" />
			</output>
		</layer>
		<layer id="201" name="/transformer/h.0/attn/Cast" type="Convert" version="opset1">
			<data destination_type="f32" />
			<rt_info>
				<attribute name="fused_names" version="0" value="/transformer/h.0/attn/Cast" />
			</rt_info>
			<input>
				<port id="0" precision="I64" />
			</input>
			<output>
				<port id="1" precision="FP32" names="/transformer/h.0/attn/Cast_output_0" />
			</output>
		</layer>
		<layer id="202" name="/transformer/h.0/attn/Constant_17" type="Const" version="opset1">
			<data element_type="f32" shape="" offset="468776" size="4" />
			<rt_info>
				<attribute name="fused_names" version="0" value="/transformer/h.0/attn/Constant_17" />
			</rt_info>
			<output>
				<port id="0" precision="FP32" names="/transformer/h.0/attn/Constant_17_output_0" />
			</output>
		</layer>
		<layer id="203" name="/transformer/h.0/attn/Pow" type="Power" version="opset1">
			<data auto_broadcast="numpy" />
			<rt_info>
				<attribute name="fused_names" version="0" value="/transformer/h.0/attn/Pow" />
			</rt_info>
			<input>
				<port id="0" precision="FP32" />
				<port id="1" precision="FP32" />
			</input>
			<output>
				<port id="2" precision="FP32" names="/transformer/h.0/attn/Pow_output_0" />
			</output>
		</layer>
		<layer id="204" name="/transformer/h.0/attn/Add" type="Add" version="opset1">
			<data auto_broadcast="numpy" />
			<rt_info>
				<attribute name="fused_names" version="0" value="/transformer/h.0/attn/Add" />
			</rt_info>
			<input>
				<port id="0" precision="FP32" />
				<port id="1" precision="FP32" />
			</input>
			<output>
				<port id="2" precision="FP32" names="/transformer/h.0/attn/Add_output_0" />
			</output>
		</layer>
		<layer id="205" name="/transformer/h.0/attn/Div" type="Divide" version="opset1">
			<data auto_broadcast="numpy" m_pythondiv="true" />
			<rt_info>
				<attribute name="fused_names" version="0" value="/transformer/h.0/attn/Div" />
			</rt_info>
			<input>
				<port id="0" precision="FP32">
					<dim>-1</dim>
					<dim>4</dim>
					<dim>-1</dim>
					<dim>-1</dim>
				</port>
				<port id="1" precision="FP32" />
			</input>
			<output>
				<port id="2" precision="FP32" names="/transformer/h.0/attn/Div_output_0">
					<dim>-1</dim>
					<dim>4</dim>
					<dim>-1</dim>
					<dim>-1</dim>
				</port>
			</output>
		</layer>
		<layer id="206" name="/transformer/h.0/attn/Cast_1" type="Convert" version="opset1">
			<data destination_type="f32" />
			<rt_info>
				<attribute name="fused_names" version="0" value="/transformer/h.0/attn/Cast_1" />
			</rt_info>
			<input>
				<port id="0" precision="FP32">
					<dim>-1</dim>
					<dim>4</dim>
					<dim>-1</dim>
					<dim>-1</dim>
				</port>
			</input>
			<output>
				<port id="1" precision="FP32" names="/transformer/h.0/attn/Cast_1_output_0">
					<dim>-1</dim>
					<dim>4</dim>
					<dim>-1</dim>
					<dim>-1</dim>
				</port>
			</output>
		</layer>
		<layer id="207" name="Constant_226" type="Const" version="opset1">
			<data element_type="f32" shape="" offset="468780" size="4" />
			<rt_info>
				<attribute name="fused_names" version="0" value="Constant_226" />
			</rt_info>
			<output>
				<port id="0" precision="FP32" names="onnx::Where_288" />
			</output>
		</layer>
		<layer id="208" name="/transformer/h.0/attn/Where" type="Select" version="opset1">
			<data auto_broadcast="numpy" />
			<rt_info>
				<attribute name="fused_names" version="0" value="/transformer/h.0/attn/Where" />
			</rt_info>
			<input>
				<port id="0" precision="BOOL">
					<dim>1</dim>
					<dim>1</dim>
					<dim>-1</dim>
					<dim>-1</dim>
				</port>
				<port id="1" precision="FP32">
					<dim>-1</dim>
					<dim>4</dim>
					<dim>-1</dim>
					<dim>-1</dim>
				</port>
				<port id="2" precision="FP32" />
			</input>
			<output>
				<port id="3" precision="FP32" names="/transformer/h.0/attn/Where_output_0">
					<dim>-1</dim>
					<dim>4</dim>
					<dim>-1</dim>
					<dim>-1</dim>
				</port>
			</output>
		</layer>
		<layer id="209" name="/transformer/Constant_14" type="Const" version="opset1">
			<data element_type="f32" shape="" offset="468280" size="4" />
			<rt_info>
				<attribute name="fused_names" version="0" value="/transformer/Constant_14" />
			</rt_info>
			<output>
				<port id="0" precision="FP32" names="/transformer/Constant_14_output_0" />
			</output>
		</layer>
		<layer id="210" name="/transformer/Shape_2" type="ShapeOf" version="opset3">
			<data output_type="i64" />
			<rt_info>
				<attribute name="fused_names" version="0" value="/transformer/Shape_2" />
			</rt_info>
			<input>
				<port id="0" precision="I64">
					<dim>-1</dim>
					<dim>-1</dim>
				</port>
			</input>
			<output>
				<port id="1" precision="I64" names="/transformer/Shape_2_output_0">
					<dim>2</dim>
				</port>
			</output>
		</layer>
		<layer id="211" name="/transformer/Constant_4" type="Const" version="opset1">
			<data element_type="i64" shape="" offset="390160" size="8" />
			<rt_info>
				<attribute name="fused_names" version="0" value="/transformer/Constant_4" />
			</rt_info>
			<output>
				<port id="0" precision="I64" names="/transformer/Constant_4_output_0" />
			</output>
		</layer>
		<layer id="212" name="Constant_4611256" type="Const" version="opset1">
			<data element_type="i64" shape="" offset="390160" size="8" />
			<rt_info>
				<attribute name="fused_names" version="0" value="Constant_4611256" />
			</rt_info>
			<output>
				<port id="0" precision="I64" />
			</output>
		</layer>
		<layer id="213" name="/transformer/Gather_2" type="Gather" version="opset8">
			<data batch_dims="0" />
			<rt_info>
				<attribute name="fused_names" version="0" value="/transformer/Constant_4, /transformer/Gather_2, Constant_4611256" />
			</rt_info>
			<input>
				<port id="0" precision="I64">
					<dim>2</dim>
				</port>
				<port id="1" precision="I64" />
				<port id="2" precision="I64" />
			</input>
			<output>
				<port id="3" precision="I64" names="/transformer/Gather_2_output_0" />
			</output>
		</layer>
		<layer id="214" name="Constant_71" type="Const" version="opset1">
			<data element_type="i64" shape="1" offset="390160" size="8" />
			<rt_info>
				<attribute name="fused_names" version="0" value="Constant_71" />
			</rt_info>
			<output>
				<port id="0" precision="I64" names="onnx::Unsqueeze_114">
					<dim>1</dim>
				</port>
			</output>
		</layer>
		<layer id="215" name="/transformer/Unsqueeze_3" type="Unsqueeze" version="opset1">
			<rt_info>
				<attribute name="fused_names" version="0" value="/transformer/Unsqueeze_3, Constant_71" />
			</rt_info>
			<input>
				<port id="0" precision="I64" />
				<port id="1" precision="I64">
					<dim>1</dim>
				</port>
			</input>
			<output>
				<port id="2" precision="I64" names="/transformer/Unsqueeze_3_output_0">
					<dim>1</dim>
				</port>
			</output>
		</layer>
		<layer id="216" name="/transformer/Constant_11" type="Const" version="opset1">
			<data element_type="i64" shape="1" offset="390144" size="8" />
			<rt_info>
				<attribute name="fused_names" version="0" value="/transformer/Constant_11" />
			</rt_info>
			<output>
				<port id="0" precision="I64" names="/transformer/Constant_11_output_0">
					<dim>1</dim>
				</port>
			</output>
		</layer>
		<layer id="217" name="/transformer/Concat_2" type="Concat" version="opset1">
			<data axis="0" />
			<rt_info>
				<attribute name="fused_names" version="0" value="/transformer/Concat_2, /transformer/Constant_11" />
			</rt_info>
			<input>
				<port id="0" precision="I64">
					<dim>1</dim>
				</port>
				<port id="1" precision="I64">
					<dim>1</dim>
				</port>
			</input>
			<output>
				<port id="2" precision="I64" names="/transformer/Concat_2_output_0">
					<dim>2</dim>
				</port>
			</output>
		</layer>
		<layer id="218" name="/transformer/Reshape_2" type="Reshape" version="opset1">
			<data special_zero="true" />
			<rt_info>
				<attribute name="fused_names" version="0" value="/transformer/Reshape_2" />
			</rt_info>
			<input>
				<port id="0" precision="I64">
					<dim>-1</dim>
					<dim>-1</dim>
				</port>
				<port id="1" precision="I64">
					<dim>2</dim>
				</port>
			</input>
			<output>
				<port id="2" precision="I64" names="/transformer/Reshape_2_output_0">
					<dim>-1</dim>
					<dim>-1</dim>
				</port>
			</output>
		</layer>
		<layer id="219" name="/transformer/Constant_12" type="Const" version="opset1">
			<data element_type="i64" shape="1" offset="390152" size="8" />
			<rt_info>
				<attribute name="fused_names" version="0" value="/transformer/Constant_12" />
			</rt_info>
			<output>
				<port id="0" precision="I64" names="/transformer/Constant_12_output_0">
					<dim>1</dim>
				</port>
			</output>
		</layer>
		<layer id="220" name="/transformer/Unsqueeze_4" type="Unsqueeze" version="opset1">
			<rt_info>
				<attribute name="fused_names" version="0" value="/transformer/Unsqueeze_4" />
			</rt_info>
			<input>
				<port id="0" precision="I64">
					<dim>-1</dim>
					<dim>-1</dim>
				</port>
				<port id="1" precision="I64">
					<dim>1</dim>
				</port>
			</input>
			<output>
				<port id="2" precision="I64" names="/transformer/Unsqueeze_4_output_0">
					<dim>-1</dim>
					<dim>1</dim>
					<dim>-1</dim>
				</port>
			</output>
		</layer>
		<layer id="221" name="/transformer/Constant_13" type="Const" version="opset1">
			<data element_type="i64" shape="1" offset="468676" size="8" />
			<rt_info>
				<attribute name="fused_names" version="0" value="/transformer/Constant_13" />
			</rt_info>
			<output>
				<port id="0" precision="I64" names="/transformer/Constant_13_output_0">
					<dim>1</dim>
				</port>
			</output>
		</layer>
		<layer id="222" name="/transformer/Unsqueeze_5" type="Unsqueeze" version="opset1">
			<rt_info>
				<attribute name="fused_names" version="0" value="/transformer/Unsqueeze_5" />
			</rt_info>
			<input>
				<port id="0" precision="I64">
					<dim>-1</dim>
					<dim>1</dim>
					<dim>-1</dim>
				</port>
				<port id="1" precision="I64">
					<dim>1</dim>
				</port>
			</input>
			<output>
				<port id="2" precision="I64" names="/transformer/Unsqueeze_5_output_0">
					<dim>-1</dim>
					<dim>1</dim>
					<dim>1</dim>
					<dim>-1</dim>
				</port>
			</output>
		</layer>
		<layer id="223" name="/transformer/Cast_2" type="Convert" version="opset1">
			<data destination_type="f32" />
			<rt_info>
				<attribute name="fused_names" version="0" value="/transformer/Cast_2" />
			</rt_info>
			<input>
				<port id="0" precision="I64">
					<dim>-1</dim>
					<dim>1</dim>
					<dim>1</dim>
					<dim>-1</dim>
				</port>
			</input>
			<output>
				<port id="1" precision="FP32" names="/transformer/Cast_2_output_0">
					<dim>-1</dim>
					<dim>1</dim>
					<dim>1</dim>
					<dim>-1</dim>
				</port>
			</output>
		</layer>
		<layer id="224" name="/transformer/Sub" type="Subtract" version="opset1">
			<data auto_broadcast="numpy" />
			<rt_info>
				<attribute name="fused_names" version="0" value="/transformer/Sub" />
			</rt_info>
			<input>
				<port id="0" precision="FP32" />
				<port id="1" precision="FP32">
					<dim>-1</dim>
					<dim>1</dim>
					<dim>1</dim>
					<dim>-1</dim>
				</port>
			</input>
			<output>
				<port id="2" precision="FP32" names="/transformer/Sub_output_0">
					<dim>-1</dim>
					<dim>1</dim>
					<dim>1</dim>
					<dim>-1</dim>
				</port>
			</output>
		</layer>
		<layer id="225" name="/transformer/Constant_15" type="Const" version="opset1">
			<data element_type="f32" shape="" offset="468780" size="4" />
			<rt_info>
				<attribute name="fused_names" version="0" value="/transformer/Constant_15" />
			</rt_info>
			<output>
				<port id="0" precision="FP32" names="/transformer/Constant_15_output_0" />
			</output>
		</layer>
		<layer id="226" name="/transformer/Mul" type="Multiply" version="opset1">
			<data auto_broadcast="numpy" />
			<rt_info>
				<attribute name="fused_names" version="0" value="/transformer/Mul" />
			</rt_info>
			<input>
				<port id="0" precision="FP32">
					<dim>-1</dim>
					<dim>1</dim>
					<dim>1</dim>
					<dim>-1</dim>
				</port>
				<port id="1" precision="FP32" />
			</input>
			<output>
				<port id="2" precision="FP32" names="/transformer/Mul_output_0">
					<dim>-1</dim>
					<dim>1</dim>
					<dim>1</dim>
					<dim>-1</dim>
				</port>
			</output>
		</layer>
		<layer id="227" name="/transformer/h.0/attn/Add_1" type="Add" version="opset1">
			<data auto_broadcast="numpy" />
			<rt_info>
				<attribute name="fused_names" version="0" value="/transformer/h.0/attn/Add_1" />
			</rt_info>
			<input>
				<port id="0" precision="FP32">
					<dim>-1</dim>
					<dim>4</dim>
					<dim>-1</dim>
					<dim>-1</dim>
				</port>
				<port id="1" precision="FP32">
					<dim>-1</dim>
					<dim>1</dim>
					<dim>1</dim>
					<dim>-1</dim>
				</port>
			</input>
			<output>
				<port id="2" precision="FP32" names="/transformer/h.0/attn/Add_1_output_0">
					<dim>-1</dim>
					<dim>4</dim>
					<dim>-1</dim>
					<dim>-1</dim>
				</port>
			</output>
		</layer>
		<layer id="228" name="/transformer/h.0/attn/Softmax" type="SoftMax" version="opset8">
			<data axis="-1" />
			<rt_info>
				<attribute name="fused_names" version="0" value="/transformer/h.0/attn/Softmax" />
			</rt_info>
			<input>
				<port id="0" precision="FP32">
					<dim>-1</dim>
					<dim>4</dim>
					<dim>-1</dim>
					<dim>-1</dim>
				</port>
			</input>
			<output>
				<port id="1" precision="FP32" names="/transformer/h.0/attn/Softmax_output_0">
					<dim>-1</dim>
					<dim>4</dim>
					<dim>-1</dim>
					<dim>-1</dim>
				</port>
			</output>
		</layer>
		<layer id="229" name="/transformer/h.0/attn/Cast_2" type="Convert" version="opset1">
			<data destination_type="f32" />
			<rt_info>
				<attribute name="fused_names" version="0" value="/transformer/h.0/attn/Cast_2" />
			</rt_info>
			<input>
				<port id="0" precision="FP32">
					<dim>-1</dim>
					<dim>4</dim>
					<dim>-1</dim>
					<dim>-1</dim>
				</port>
			</input>
			<output>
				<port id="1" precision="FP32" names="/transformer/h.0/attn/Cast_2_output_0">
					<dim>-1</dim>
					<dim>4</dim>
					<dim>-1</dim>
					<dim>-1</dim>
				</port>
			</output>
		</layer>
		<layer id="230" name="/transformer/h.0/attn/MatMul_1" type="MatMul" version="opset1">
			<data transpose_a="false" transpose_b="false" />
			<rt_info>
				<attribute name="fused_names" version="0" value="/transformer/h.0/attn/MatMul_1" />
			</rt_info>
			<input>
				<port id="0" precision="FP32">
					<dim>-1</dim>
					<dim>4</dim>
					<dim>-1</dim>
					<dim>-1</dim>
				</port>
				<port id="1" precision="FP32">
					<dim>-1</dim>
					<dim>4</dim>
					<dim>-1</dim>
					<dim>8</dim>
				</port>
			</input>
			<output>
				<port id="2" precision="FP32" names="/transformer/h.0/attn/MatMul_1_output_0">
					<dim>-1</dim>
					<dim>4</dim>
					<dim>-1</dim>
					<dim>8</dim>
				</port>
			</output>
		</layer>
		<layer id="231" name="Constant_4611714" type="Const" version="opset1">
			<data element_type="i64" shape="4" offset="468724" size="32" />
			<rt_info>
				<attribute name="fused_names" version="0" value="Constant_4611714" />
			</rt_info>
			<output>
				<port id="0" precision="I64">
					<dim>4</dim>
				</port>
			</output>
		</layer>
		<layer id="232" name="/transformer/h.0/attn/Transpose_4" type="Transpose" version="opset1">
			<rt_info>
				<attribute name="fused_names" version="0" value="/transformer/h.0/attn/Transpose_4" />
			</rt_info>
			<input>
				<port id="0" precision="FP32">
					<dim>-1</dim>
					<dim>4</dim>
					<dim>-1</dim>
					<dim>8</dim>
				</port>
				<port id="1" precision="I64">
					<dim>4</dim>
				</port>
			</input>
			<output>
				<port id="2" precision="FP32" names="/transformer/h.0/attn/Transpose_4_output_0">
					<dim>-1</dim>
					<dim>-1</dim>
					<dim>4</dim>
					<dim>8</dim>
				</port>
			</output>
		</layer>
		<layer id="233" name="/transformer/h.0/attn/Shape_9" type="ShapeOf" version="opset3">
			<data output_type="i64" />
			<rt_info>
				<attribute name="fused_names" version="0" value="/transformer/h.0/attn/Shape_9" />
			</rt_info>
			<input>
				<port id="0" precision="FP32">
					<dim>-1</dim>
					<dim>-1</dim>
					<dim>4</dim>
					<dim>8</dim>
				</port>
			</input>
			<output>
				<port id="1" precision="I64" names="/transformer/h.0/attn/Shape_9_output_0">
					<dim>4</dim>
				</port>
			</output>
		</layer>
		<layer id="234" name="/transformer/h.0/attn/Constant_35" type="Const" version="opset1">
			<data element_type="i64" shape="" offset="390160" size="8" />
			<rt_info>
				<attribute name="fused_names" version="0" value="/transformer/h.0/attn/Constant_35" />
			</rt_info>
			<output>
				<port id="0" precision="I64" names="/transformer/h.0/attn/Constant_35_output_0" />
			</output>
		</layer>
		<layer id="235" name="Constant_4611718" type="Const" version="opset1">
			<data element_type="i64" shape="" offset="390160" size="8" />
			<rt_info>
				<attribute name="fused_names" version="0" value="Constant_4611718" />
			</rt_info>
			<output>
				<port id="0" precision="I64" />
			</output>
		</layer>
		<layer id="236" name="/transformer/h.0/attn/Gather_6" type="Gather" version="opset8">
			<data batch_dims="0" />
			<rt_info>
				<attribute name="fused_names" version="0" value="/transformer/h.0/attn/Constant_35, /transformer/h.0/attn/Gather_6, Constant_4611718" />
			</rt_info>
			<input>
				<port id="0" precision="I64">
					<dim>4</dim>
				</port>
				<port id="1" precision="I64" />
				<port id="2" precision="I64" />
			</input>
			<output>
				<port id="3" precision="I64" names="/transformer/h.0/attn/Gather_6_output_0" />
			</output>
		</layer>
		<layer id="237" name="Constant_240" type="Const" version="opset1">
			<data element_type="i64" shape="1" offset="390160" size="8" />
			<rt_info>
				<attribute name="fused_names" version="0" value="Constant_240" />
			</rt_info>
			<output>
				<port id="0" precision="I64" names="onnx::Unsqueeze_302">
					<dim>1</dim>
				</port>
			</output>
		</layer>
		<layer id="238" name="/transformer/h.0/attn/Unsqueeze_9" type="Unsqueeze" version="opset1">
			<rt_info>
				<attribute name="fused_names" version="0" value="/transformer/h.0/attn/Unsqueeze_9, Constant_240" />
			</rt_info>
			<input>
				<port id="0" precision="I64" />
				<port id="1" precision="I64">
					<dim>1</dim>
				</port>
			</input>
			<output>
				<port id="2" precision="I64" names="/transformer/h.0/attn/Unsqueeze_9_output_0">
					<dim>1</dim>
				</port>
			</output>
		</layer>
		<layer id="239" name="/transformer/h.0/attn/Shape_10" type="ShapeOf" version="opset3">
			<data output_type="i64" />
			<rt_info>
				<attribute name="fused_names" version="0" value="/transformer/h.0/attn/Shape_10" />
			</rt_info>
			<input>
				<port id="0" precision="FP32">
					<dim>-1</dim>
					<dim>-1</dim>
					<dim>4</dim>
					<dim>8</dim>
				</port>
			</input>
			<output>
				<port id="1" precision="I64" names="/transformer/h.0/attn/Shape_10_output_0">
					<dim>4</dim>
				</port>
			</output>
		</layer>
		<layer id="240" name="/transformer/h.0/attn/Constant_36" type="Const" version="opset1">
			<data element_type="i64" shape="" offset="390152" size="8" />
			<rt_info>
				<attribute name="fused_names" version="0" value="/transformer/h.0/attn/Constant_36" />
			</rt_info>
			<output>
				<port id="0" precision="I64" names="/transformer/h.0/attn/Constant_36_output_0" />
			</output>
		</layer>
		<layer id="241" name="Constant_4611722" type="Const" version="opset1">
			<data element_type="i64" shape="" offset="390160" size="8" />
			<rt_info>
				<attribute name="fused_names" version="0" value="Constant_4611722" />
			</rt_info>
			<output>
				<port id="0" precision="I64" />
			</output>
		</layer>
		<layer id="242" name="/transformer/h.0/attn/Gather_7" type="Gather" version="opset8">
			<data batch_dims="0" />
			<rt_info>
				<attribute name="fused_names" version="0" value="/transformer/h.0/attn/Constant_36, /transformer/h.0/attn/Gather_7, Constant_4611722" />
			</rt_info>
			<input>
				<port id="0" precision="I64">
					<dim>4</dim>
				</port>
				<port id="1" precision="I64" />
				<port id="2" precision="I64" />
			</input>
			<output>
				<port id="3" precision="I64" names="/transformer/h.0/attn/Gather_7_output_0" />
			</output>
		</layer>
		<layer id="243" name="Constant_242" type="Const" version="opset1">
			<data element_type="i64" shape="1" offset="390160" size="8" />
			<rt_info>
				<attribute name="fused_names" version="0" value="Constant_242" />
			</rt_info>
			<output>
				<port id="0" precision="I64" names="onnx::Unsqueeze_304">
					<dim>1</dim>
				</port>
			</output>
		</layer>
		<layer id="244" name="/transformer/h.0/attn/Unsqueeze_10" type="Unsqueeze" version="opset1">
			<rt_info>
				<attribute name="fused_names" version="0" value="/transformer/h.0/attn/Unsqueeze_10, Constant_242" />
			</rt_info>
			<input>
				<port id="0" precision="I64" />
				<port id="1" precision="I64">
					<dim>1</dim>
				</port>
			</input>
			<output>
				<port id="2" precision="I64" names="/transformer/h.0/attn/Unsqueeze_10_output_0">
					<dim>1</dim>
				</port>
			</output>
		</layer>
		<layer id="245" name="/transformer/h.0/attn/Constant_37" type="Const" version="opset1">
			<data element_type="i64" shape="1" offset="468784" size="8" />
			<rt_info>
				<attribute name="fused_names" version="0" value="/transformer/h.0/attn/Constant_37" />
			</rt_info>
			<output>
				<port id="0" precision="I64" names="/transformer/h.0/attn/Constant_37_output_0">
					<dim>1</dim>
				</port>
			</output>
		</layer>
		<layer id="246" name="/transformer/h.0/attn/Concat_5" type="Concat" version="opset1">
			<data axis="0" />
			<rt_info>
				<attribute name="fused_names" version="0" value="/transformer/h.0/attn/Concat_5, /transformer/h.0/attn/Constant_37" />
			</rt_info>
			<input>
				<port id="0" precision="I64">
					<dim>1</dim>
				</port>
				<port id="1" precision="I64">
					<dim>1</dim>
				</port>
				<port id="2" precision="I64">
					<dim>1</dim>
				</port>
			</input>
			<output>
				<port id="3" precision="I64" names="/transformer/h.0/attn/Concat_5_output_0">
					<dim>3</dim>
				</port>
			</output>
		</layer>
		<layer id="247" name="/transformer/h.0/attn/Reshape_3" type="Reshape" version="opset1">
			<data special_zero="true" />
			<rt_info>
				<attribute name="fused_names" version="0" value="/transformer/h.0/attn/Reshape_3" />
			</rt_info>
			<input>
				<port id="0" precision="FP32">
					<dim>-1</dim>
					<dim>-1</dim>
					<dim>4</dim>
					<dim>8</dim>
				</port>
				<port id="1" precision="I64">
					<dim>3</dim>
				</port>
			</input>
			<output>
				<port id="2" precision="FP32" names="/transformer/h.0/attn/Reshape_3_output_0">
					<dim>-1</dim>
					<dim>-1</dim>
					<dim>32</dim>
				</port>
			</output>
		</layer>
		<layer id="248" name="Constant_4617369" type="Const" version="opset1">
			<data element_type="i64" shape="1" offset="390144" size="8" />
			<rt_info>
				<attribute name="fused_names" version="0" value="/transformer/h.0/attn/c_proj/Concat, /transformer/h.0/attn/c_proj/Constant_6" />
			</rt_info>
			<output>
				<port id="0" precision="I64">
					<dim>1</dim>
				</port>
			</output>
		</layer>
		<layer id="249" name="ShapeOf_4617367" type="Const" version="opset1">
			<data element_type="i64" shape="2" offset="468792" size="16" />
			<output>
				<port id="0" precision="I64">
					<dim>2</dim>
				</port>
			</output>
		</layer>
		<layer id="250" name="Constant_4617366" type="Const" version="opset1">
			<data element_type="i64" shape="1" offset="390160" size="8" />
			<output>
				<port id="0" precision="I64">
					<dim>1</dim>
				</port>
			</output>
		</layer>
		<layer id="251" name="Constant_4617365" type="Const" version="opset1">
			<data element_type="i64" shape="" offset="390160" size="8" />
			<output>
				<port id="0" precision="I64" />
			</output>
		</layer>
		<layer id="252" name="Gather_4617368" type="Gather" version="opset1">
			<input>
				<port id="0" precision="I64">
					<dim>2</dim>
				</port>
				<port id="1" precision="I64">
					<dim>1</dim>
				</port>
				<port id="2" precision="I64" />
			</input>
			<output>
				<port id="3" precision="I64">
					<dim>1</dim>
				</port>
			</output>
		</layer>
		<layer id="253" name="/transformer/h.0/attn/c_proj/Concat" type="Concat" version="opset1">
			<data axis="0" />
			<rt_info>
				<attribute name="fused_names" version="0" value="/transformer/h.0/attn/c_proj/Concat, /transformer/h.0/attn/c_proj/Constant_6" />
			</rt_info>
			<input>
				<port id="0" precision="I64">
					<dim>1</dim>
				</port>
				<port id="1" precision="I64">
					<dim>1</dim>
				</port>
			</input>
			<output>
				<port id="2" precision="I64" names="/transformer/h.0/attn/c_proj/Concat_output_0">
					<dim>2</dim>
				</port>
			</output>
		</layer>
		<layer id="254" name="/transformer/h.0/attn/c_proj/Reshape" type="Reshape" version="opset1">
			<data special_zero="true" />
			<rt_info>
				<attribute name="fused_names" version="0" value="/transformer/h.0/attn/c_proj/Reshape" />
			</rt_info>
			<input>
				<port id="0" precision="FP32">
					<dim>-1</dim>
					<dim>-1</dim>
					<dim>32</dim>
				</port>
				<port id="1" precision="I64">
					<dim>2</dim>
				</port>
			</input>
			<output>
				<port id="2" precision="FP32" names="/transformer/h.0/attn/c_proj/Reshape_output_0">
					<dim>-1</dim>
					<dim>32</dim>
				</port>
			</output>
		</layer>
		<layer id="255" name="transformer.h.0.attn.c_proj.weight" type="Const" version="opset1">
			<data element_type="f32" shape="32, 32" offset="468808" size="4096" />
			<rt_info>
				<attribute name="fused_names" version="0" value="transformer.h.0.attn.c_proj.weight" />
			</rt_info>
			<output>
				<port id="0" precision="FP32" names="transformer.h.0.attn.c_proj.weight">
					<dim>32</dim>
					<dim>32</dim>
				</port>
			</output>
		</layer>
		<layer id="256" name="/transformer/h.0/attn/c_proj/Gemm/WithoutBiases" type="MatMul" version="opset1">
			<data transpose_a="false" transpose_b="false" />
			<rt_info>
				<attribute name="fused_names" version="0" value="/transformer/h.0/attn/c_proj/Gemm/WithoutBiases" />
			</rt_info>
			<input>
				<port id="0" precision="FP32">
					<dim>-1</dim>
					<dim>32</dim>
				</port>
				<port id="1" precision="FP32">
					<dim>32</dim>
					<dim>32</dim>
				</port>
			</input>
			<output>
				<port id="2" precision="FP32">
					<dim>-1</dim>
					<dim>32</dim>
				</port>
			</output>
		</layer>
		<layer id="257" name="Constant_4611773" type="Const" version="opset1">
			<data element_type="f32" shape="" offset="468280" size="4" />
			<rt_info>
				<attribute name="fused_names" version="0" value="Constant_4611773" />
			</rt_info>
			<output>
				<port id="0" precision="FP32" />
			</output>
		</layer>
		<layer id="258" name="Multiply_4611776" type="Multiply" version="opset1">
			<data auto_broadcast="numpy" />
			<rt_info>
				<attribute name="fused_names" version="0" value="Multiply_4611776" />
			</rt_info>
			<input>
				<port id="0" precision="FP32">
					<dim>-1</dim>
					<dim>32</dim>
				</port>
				<port id="1" precision="FP32" />
			</input>
			<output>
				<port id="2" precision="FP32">
					<dim>-1</dim>
					<dim>32</dim>
				</port>
			</output>
		</layer>
		<layer id="259" name="Constant_4611774" type="Const" version="opset1">
			<data element_type="f32" shape="" offset="468280" size="4" />
			<rt_info>
				<attribute name="fused_names" version="0" value="Constant_4611774" />
			</rt_info>
			<output>
				<port id="0" precision="FP32" />
			</output>
		</layer>
		<layer id="260" name="Multiply_4611777" type="Multiply" version="opset1">
			<data auto_broadcast="numpy" />
			<rt_info>
				<attribute name="fused_names" version="0" value="Multiply_4611777" />
			</rt_info>
			<input>
				<port id="0" precision="FP32" />
				<port id="1" precision="FP32">
					<dim>32</dim>
				</port>
			</input>
			<output>
				<port id="2" precision="FP32">
					<dim>32</dim>
				</port>
			</output>
		</layer>
		<layer id="261" name="/transformer/h.0/attn/c_proj/Gemm" type="Add" version="opset1">
			<data auto_broadcast="numpy" />
			<rt_info>
				<attribute name="fused_names" version="0" value="/transformer/h.0/attn/c_proj/Gemm" />
			</rt_info>
			<input>
				<port id="0" precision="FP32">
					<dim>-1</dim>
					<dim>32</dim>
				</port>
				<port id="1" precision="FP32">
					<dim>32</dim>
				</port>
			</input>
			<output>
				<port id="2" precision="FP32" names="/transformer/h.0/attn/c_proj/Gemm_output_0">
					<dim>-1</dim>
					<dim>32</dim>
				</port>
			</output>
		</layer>
		<layer id="262" name="/transformer/h.0/attn/c_proj/Shape" type="ShapeOf" version="opset3">
			<data output_type="i64" />
			<rt_info>
				<attribute name="fused_names" version="0" value="/transformer/h.0/attn/c_proj/Shape" />
			</rt_info>
			<input>
				<port id="0" precision="FP32">
					<dim>-1</dim>
					<dim>-1</dim>
					<dim>32</dim>
				</port>
			</input>
			<output>
				<port id="1" precision="I64" names="/transformer/h.0/attn/c_proj/Shape_output_0">
					<dim>3</dim>
				</port>
			</output>
		</layer>
		<layer id="263" name="/transformer/h.0/attn/c_proj/Constant" type="Const" version="opset1">
			<data element_type="i64" shape="" offset="390160" size="8" />
			<rt_info>
				<attribute name="fused_names" version="0" value="/transformer/h.0/attn/c_proj/Constant" />
			</rt_info>
			<output>
				<port id="0" precision="I64" names="/transformer/h.0/attn/c_proj/Constant_output_0" />
			</output>
		</layer>
		<layer id="264" name="Constant_4611743" type="Const" version="opset1">
			<data element_type="i64" shape="" offset="390160" size="8" />
			<rt_info>
				<attribute name="fused_names" version="0" value="Constant_4611743" />
			</rt_info>
			<output>
				<port id="0" precision="I64" />
			</output>
		</layer>
		<layer id="265" name="/transformer/h.0/attn/c_proj/Gather" type="Gather" version="opset8">
			<data batch_dims="0" />
			<rt_info>
				<attribute name="fused_names" version="0" value="/transformer/h.0/attn/c_proj/Constant, /transformer/h.0/attn/c_proj/Gather, Constant_4611743" />
			</rt_info>
			<input>
				<port id="0" precision="I64">
					<dim>3</dim>
				</port>
				<port id="1" precision="I64" />
				<port id="2" precision="I64" />
			</input>
			<output>
				<port id="3" precision="I64" names="/transformer/h.0/attn/c_proj/Gather_output_0" />
			</output>
		</layer>
		<layer id="266" name="Constant_266" type="Const" version="opset1">
			<data element_type="i64" shape="1" offset="390160" size="8" />
			<rt_info>
				<attribute name="fused_names" version="0" value="Constant_266" />
			</rt_info>
			<output>
				<port id="0" precision="I64" names="onnx::Unsqueeze_330">
					<dim>1</dim>
				</port>
			</output>
		</layer>
		<layer id="267" name="/transformer/h.0/attn/c_proj/Unsqueeze_1" type="Unsqueeze" version="opset1">
			<rt_info>
				<attribute name="fused_names" version="0" value="/transformer/h.0/attn/c_proj/Unsqueeze_1, Constant_266" />
			</rt_info>
			<input>
				<port id="0" precision="I64" />
				<port id="1" precision="I64">
					<dim>1</dim>
				</port>
			</input>
			<output>
				<port id="2" precision="I64" names="/transformer/h.0/attn/c_proj/Unsqueeze_1_output_0">
					<dim>1</dim>
				</port>
			</output>
		</layer>
		<layer id="268" name="/transformer/h.0/attn/c_proj/Shape_1" type="ShapeOf" version="opset3">
			<data output_type="i64" />
			<rt_info>
				<attribute name="fused_names" version="0" value="/transformer/h.0/attn/c_proj/Shape_1" />
			</rt_info>
			<input>
				<port id="0" precision="FP32">
					<dim>-1</dim>
					<dim>-1</dim>
					<dim>32</dim>
				</port>
			</input>
			<output>
				<port id="1" precision="I64" names="/transformer/h.0/attn/c_proj/Shape_1_output_0">
					<dim>3</dim>
				</port>
			</output>
		</layer>
		<layer id="269" name="/transformer/h.0/attn/c_proj/Constant_1" type="Const" version="opset1">
			<data element_type="i64" shape="" offset="390152" size="8" />
			<rt_info>
				<attribute name="fused_names" version="0" value="/transformer/h.0/attn/c_proj/Constant_1" />
			</rt_info>
			<output>
				<port id="0" precision="I64" names="/transformer/h.0/attn/c_proj/Constant_1_output_0" />
			</output>
		</layer>
		<layer id="270" name="Constant_4611747" type="Const" version="opset1">
			<data element_type="i64" shape="" offset="390160" size="8" />
			<rt_info>
				<attribute name="fused_names" version="0" value="Constant_4611747" />
			</rt_info>
			<output>
				<port id="0" precision="I64" />
			</output>
		</layer>
		<layer id="271" name="/transformer/h.0/attn/c_proj/Gather_1" type="Gather" version="opset8">
			<data batch_dims="0" />
			<rt_info>
				<attribute name="fused_names" version="0" value="/transformer/h.0/attn/c_proj/Constant_1, /transformer/h.0/attn/c_proj/Gather_1, Constant_4611747" />
			</rt_info>
			<input>
				<port id="0" precision="I64">
					<dim>3</dim>
				</port>
				<port id="1" precision="I64" />
				<port id="2" precision="I64" />
			</input>
			<output>
				<port id="3" precision="I64" names="/transformer/h.0/attn/c_proj/Gather_1_output_0" />
			</output>
		</layer>
		<layer id="272" name="Constant_268" type="Const" version="opset1">
			<data element_type="i64" shape="1" offset="390160" size="8" />
			<rt_info>
				<attribute name="fused_names" version="0" value="Constant_268" />
			</rt_info>
			<output>
				<port id="0" precision="I64" names="onnx::Unsqueeze_332">
					<dim>1</dim>
				</port>
			</output>
		</layer>
		<layer id="273" name="/transformer/h.0/attn/c_proj/Unsqueeze_2" type="Unsqueeze" version="opset1">
			<rt_info>
				<attribute name="fused_names" version="0" value="/transformer/h.0/attn/c_proj/Unsqueeze_2, Constant_268" />
			</rt_info>
			<input>
				<port id="0" precision="I64" />
				<port id="1" precision="I64">
					<dim>1</dim>
				</port>
			</input>
			<output>
				<port id="2" precision="I64" names="/transformer/h.0/attn/c_proj/Unsqueeze_2_output_0">
					<dim>1</dim>
				</port>
			</output>
		</layer>
		<layer id="274" name="/transformer/h.0/attn/c_proj/Constant_7" type="Const" version="opset1">
			<data element_type="i64" shape="1" offset="468784" size="8" />
			<rt_info>
				<attribute name="fused_names" version="0" value="/transformer/h.0/attn/c_proj/Constant_7" />
			</rt_info>
			<output>
				<port id="0" precision="I64" names="/transformer/h.0/attn/c_proj/Constant_7_output_0">
					<dim>1</dim>
				</port>
			</output>
		</layer>
		<layer id="275" name="/transformer/h.0/attn/c_proj/Concat_1" type="Concat" version="opset1">
			<data axis="0" />
			<rt_info>
				<attribute name="fused_names" version="0" value="/transformer/h.0/attn/c_proj/Concat_1, /transformer/h.0/attn/c_proj/Constant_7" />
			</rt_info>
			<input>
				<port id="0" precision="I64">
					<dim>1</dim>
				</port>
				<port id="1" precision="I64">
					<dim>1</dim>
				</port>
				<port id="2" precision="I64">
					<dim>1</dim>
				</port>
			</input>
			<output>
				<port id="3" precision="I64" names="/transformer/h.0/attn/c_proj/Concat_1_output_0">
					<dim>3</dim>
				</port>
			</output>
		</layer>
		<layer id="276" name="/transformer/h.0/attn/c_proj/Reshape_1" type="Reshape" version="opset1">
			<data special_zero="true" />
			<rt_info>
				<attribute name="fused_names" version="0" value="/transformer/h.0/attn/c_proj/Reshape_1" />
			</rt_info>
			<input>
				<port id="0" precision="FP32">
					<dim>-1</dim>
					<dim>32</dim>
				</port>
				<port id="1" precision="I64">
					<dim>3</dim>
				</port>
			</input>
			<output>
				<port id="2" precision="FP32" names="/transformer/h.0/attn/c_proj/Reshape_1_output_0">
					<dim>-1</dim>
					<dim>-1</dim>
					<dim>32</dim>
				</port>
			</output>
		</layer>
		<layer id="277" name="/transformer/h.0/Add" type="Add" version="opset1">
			<data auto_broadcast="numpy" />
			<rt_info>
				<attribute name="fused_names" version="0" value="/transformer/h.0/Add" />
			</rt_info>
			<input>
				<port id="0" precision="FP32">
					<dim>-1</dim>
					<dim>-1</dim>
					<dim>32</dim>
				</port>
				<port id="1" precision="FP32">
					<dim>-1</dim>
					<dim>-1</dim>
					<dim>32</dim>
				</port>
			</input>
			<output>
				<port id="2" precision="FP32" names="/transformer/h.0/Add_output_0">
					<dim>-1</dim>
					<dim>-1</dim>
					<dim>32</dim>
				</port>
			</output>
		</layer>
		<layer id="278" name="Constant_4611797" type="Const" version="opset1">
			<data element_type="i64" shape="1" offset="390144" size="8" />
			<rt_info>
				<attribute name="fused_names" version="0" value="Constant_4611797" />
			</rt_info>
			<output>
				<port id="0" precision="I64">
					<dim>1</dim>
				</port>
			</output>
		</layer>
		<layer id="279" name="/transformer/h.0/ln_2/ReduceMean" type="ReduceMean" version="opset1">
			<data keep_dims="true" />
			<rt_info>
				<attribute name="fused_names" version="0" value="/transformer/h.0/ln_2/ReduceMean" />
			</rt_info>
			<input>
				<port id="0" precision="FP32">
					<dim>-1</dim>
					<dim>-1</dim>
					<dim>32</dim>
				</port>
				<port id="1" precision="I64">
					<dim>1</dim>
				</port>
			</input>
			<output>
				<port id="2" precision="FP32" names="/transformer/h.0/ln_2/ReduceMean_output_0">
					<dim>-1</dim>
					<dim>-1</dim>
					<dim>1</dim>
				</port>
			</output>
		</layer>
		<layer id="280" name="/transformer/h.0/ln_2/Sub" type="Subtract" version="opset1">
			<data auto_broadcast="numpy" />
			<rt_info>
				<attribute name="fused_names" version="0" value="/transformer/h.0/ln_2/Sub" />
			</rt_info>
			<input>
				<port id="0" precision="FP32">
					<dim>-1</dim>
					<dim>-1</dim>
					<dim>32</dim>
				</port>
				<port id="1" precision="FP32">
					<dim>-1</dim>
					<dim>-1</dim>
					<dim>1</dim>
				</port>
			</input>
			<output>
				<port id="2" precision="FP32" names="/transformer/h.0/ln_2/Sub_output_0">
					<dim>-1</dim>
					<dim>-1</dim>
					<dim>32</dim>
				</port>
			</output>
		</layer>
		<layer id="281" name="/transformer/h.0/ln_2/Constant" type="Const" version="opset1">
			<data element_type="f32" shape="" offset="455712" size="4" />
			<rt_info>
				<attribute name="fused_names" version="0" value="/transformer/h.0/ln_2/Constant" />
			</rt_info>
			<output>
				<port id="0" precision="FP32" names="/transformer/h.0/ln_2/Constant_output_0" />
			</output>
		</layer>
		<layer id="282" name="/transformer/h.0/ln_2/Pow" type="Power" version="opset1">
			<data auto_broadcast="numpy" />
			<rt_info>
				<attribute name="fused_names" version="0" value="/transformer/h.0/ln_2/Pow" />
			</rt_info>
			<input>
				<port id="0" precision="FP32">
					<dim>-1</dim>
					<dim>-1</dim>
					<dim>32</dim>
				</port>
				<port id="1" precision="FP32" />
			</input>
			<output>
				<port id="2" precision="FP32" names="/transformer/h.0/ln_2/Pow_output_0">
					<dim>-1</dim>
					<dim>-1</dim>
					<dim>32</dim>
				</port>
			</output>
		</layer>
		<layer id="283" name="Constant_4611802" type="Const" version="opset1">
			<data element_type="i64" shape="1" offset="390144" size="8" />
			<rt_info>
				<attribute name="fused_names" version="0" value="Constant_4611802" />
			</rt_info>
			<output>
				<port id="0" precision="I64">
					<dim>1</dim>
				</port>
			</output>
		</layer>
		<layer id="284" name="/transformer/h.0/ln_2/ReduceMean_1" type="ReduceMean" version="opset1">
			<data keep_dims="true" />
			<rt_info>
				<attribute name="fused_names" version="0" value="/transformer/h.0/ln_2/ReduceMean_1" />
			</rt_info>
			<input>
				<port id="0" precision="FP32">
					<dim>-1</dim>
					<dim>-1</dim>
					<dim>32</dim>
				</port>
				<port id="1" precision="I64">
					<dim>1</dim>
				</port>
			</input>
			<output>
				<port id="2" precision="FP32" names="/transformer/h.0/ln_2/ReduceMean_1_output_0">
					<dim>-1</dim>
					<dim>-1</dim>
					<dim>1</dim>
				</port>
			</output>
		</layer>
		<layer id="285" name="/transformer/h.0/ln_2/Constant_1" type="Const" version="opset1">
			<data element_type="f32" shape="" offset="455716" size="4" />
			<rt_info>
				<attribute name="fused_names" version="0" value="/transformer/h.0/ln_2/Constant_1" />
			</rt_info>
			<output>
				<port id="0" precision="FP32" names="/transformer/h.0/ln_2/Constant_1_output_0" />
			</output>
		</layer>
		<layer id="286" name="/transformer/h.0/ln_2/Add" type="Add" version="opset1">
			<data auto_broadcast="numpy" />
			<rt_info>
				<attribute name="fused_names" version="0" value="/transformer/h.0/ln_2/Add" />
			</rt_info>
			<input>
				<port id="0" precision="FP32">
					<dim>-1</dim>
					<dim>-1</dim>
					<dim>1</dim>
				</port>
				<port id="1" precision="FP32" />
			</input>
			<output>
				<port id="2" precision="FP32" names="/transformer/h.0/ln_2/Add_output_0">
					<dim>-1</dim>
					<dim>-1</dim>
					<dim>1</dim>
				</port>
			</output>
		</layer>
		<layer id="287" name="/transformer/h.0/ln_2/Sqrt" type="Sqrt" version="opset1">
			<rt_info>
				<attribute name="fused_names" version="0" value="/transformer/h.0/ln_2/Sqrt" />
			</rt_info>
			<input>
				<port id="0" precision="FP32">
					<dim>-1</dim>
					<dim>-1</dim>
					<dim>1</dim>
				</port>
			</input>
			<output>
				<port id="1" precision="FP32" names="/transformer/h.0/ln_2/Sqrt_output_0">
					<dim>-1</dim>
					<dim>-1</dim>
					<dim>1</dim>
				</port>
			</output>
		</layer>
		<layer id="288" name="/transformer/h.0/ln_2/Div" type="Divide" version="opset1">
			<data auto_broadcast="numpy" m_pythondiv="true" />
			<rt_info>
				<attribute name="fused_names" version="0" value="/transformer/h.0/ln_2/Div" />
			</rt_info>
			<input>
				<port id="0" precision="FP32">
					<dim>-1</dim>
					<dim>-1</dim>
					<dim>32</dim>
				</port>
				<port id="1" precision="FP32">
					<dim>-1</dim>
					<dim>-1</dim>
					<dim>1</dim>
				</port>
			</input>
			<output>
				<port id="2" precision="FP32" names="/transformer/h.0/ln_2/Div_output_0">
					<dim>-1</dim>
					<dim>-1</dim>
					<dim>32</dim>
				</port>
			</output>
		</layer>
		<layer id="289" name="/transformer/h.0/ln_2/Mul" type="Multiply" version="opset1">
			<data auto_broadcast="numpy" />
			<rt_info>
				<attribute name="fused_names" version="0" value="/transformer/h.0/ln_2/Mul" />
			</rt_info>
			<input>
				<port id="0" precision="FP32">
					<dim>-1</dim>
					<dim>-1</dim>
					<dim>32</dim>
				</port>
				<port id="1" precision="FP32">
					<dim>32</dim>
				</port>
			</input>
			<output>
				<port id="2" precision="FP32" names="/transformer/h.0/ln_2/Mul_output_0">
					<dim>-1</dim>
					<dim>-1</dim>
					<dim>32</dim>
				</port>
			</output>
		</layer>
		<layer id="290" name="/transformer/h.0/ln_2/Add_1" type="Add" version="opset1">
			<data auto_broadcast="numpy" />
			<rt_info>
				<attribute name="fused_names" version="0" value="/transformer/h.0/ln_2/Add_1" />
			</rt_info>
			<input>
				<port id="0" precision="FP32">
					<dim>-1</dim>
					<dim>-1</dim>
					<dim>32</dim>
				</port>
				<port id="1" precision="FP32">
					<dim>32</dim>
				</port>
			</input>
			<output>
				<port id="2" precision="FP32" names="/transformer/h.0/ln_2/Add_1_output_0">
					<dim>-1</dim>
					<dim>-1</dim>
					<dim>32</dim>
				</port>
			</output>
		</layer>
		<layer id="291" name="Constant_4617375" type="Const" version="opset1">
			<data element_type="i64" shape="1" offset="390144" size="8" />
			<rt_info>
				<attribute name="fused_names" version="0" value="/transformer/h.0/mlp/c_fc/Concat, /transformer/h.0/mlp/c_fc/Constant_6" />
			</rt_info>
			<output>
				<port id="0" precision="I64">
					<dim>1</dim>
				</port>
			</output>
		</layer>
		<layer id="292" name="ShapeOf_4617373" type="Const" version="opset1">
			<data element_type="i64" shape="2" offset="472904" size="16" />
			<output>
				<port id="0" precision="I64">
					<dim>2</dim>
				</port>
			</output>
		</layer>
		<layer id="293" name="Constant_4617372" type="Const" version="opset1">
			<data element_type="i64" shape="1" offset="390160" size="8" />
			<output>
				<port id="0" precision="I64">
					<dim>1</dim>
				</port>
			</output>
		</layer>
		<layer id="294" name="Constant_4617371" type="Const" version="opset1">
			<data element_type="i64" shape="" offset="390160" size="8" />
			<output>
				<port id="0" precision="I64" />
			</output>
		</layer>
		<layer id="295" name="Gather_4617374" type="Gather" version="opset1">
			<input>
				<port id="0" precision="I64">
					<dim>2</dim>
				</port>
				<port id="1" precision="I64">
					<dim>1</dim>
				</port>
				<port id="2" precision="I64" />
			</input>
			<output>
				<port id="3" precision="I64">
					<dim>1</dim>
				</port>
			</output>
		</layer>
		<layer id="296" name="/transformer/h.0/mlp/c_fc/Concat" type="Concat" version="opset1">
			<data axis="0" />
			<rt_info>
				<attribute name="fused_names" version="0" value="/transformer/h.0/mlp/c_fc/Concat, /transformer/h.0/mlp/c_fc/Constant_6" />
			</rt_info>
			<input>
				<port id="0" precision="I64">
					<dim>1</dim>
				</port>
				<port id="1" precision="I64">
					<dim>1</dim>
				</port>
			</input>
			<output>
				<port id="2" precision="I64" names="/transformer/h.0/mlp/c_fc/Concat_output_0">
					<dim>2</dim>
				</port>
			</output>
		</layer>
		<layer id="297" name="/transformer/h.0/mlp/c_fc/Reshape" type="Reshape" version="opset1">
			<data special_zero="true" />
			<rt_info>
				<attribute name="fused_names" version="0" value="/transformer/h.0/mlp/c_fc/Reshape" />
			</rt_info>
			<input>
				<port id="0" precision="FP32">
					<dim>-1</dim>
					<dim>-1</dim>
					<dim>32</dim>
				</port>
				<port id="1" precision="I64">
					<dim>2</dim>
				</port>
			</input>
			<output>
				<port id="2" precision="FP32" names="/transformer/h.0/mlp/c_fc/Reshape_output_0">
					<dim>-1</dim>
					<dim>32</dim>
				</port>
			</output>
		</layer>
		<layer id="298" name="transformer.h.0.mlp.c_fc.weight" type="Const" version="opset1">
			<data element_type="f32" shape="32, 128" offset="472920" size="16384" />
			<rt_info>
				<attribute name="fused_names" version="0" value="transformer.h.0.mlp.c_fc.weight" />
			</rt_info>
			<output>
				<port id="0" precision="FP32" names="transformer.h.0.mlp.c_fc.weight">
					<dim>32</dim>
					<dim>128</dim>
				</port>
			</output>
		</layer>
		<layer id="299" name="/transformer/h.0/mlp/c_fc/Gemm/WithoutBiases" type="MatMul" version="opset1">
			<data transpose_a="false" transpose_b="false" />
			<rt_info>
				<attribute name="fused_names" version="0" value="/transformer/h.0/mlp/c_fc/Gemm/WithoutBiases" />
			</rt_info>
			<input>
				<port id="0" precision="FP32">
					<dim>-1</dim>
					<dim>32</dim>
				</port>
				<port id="1" precision="FP32">
					<dim>32</dim>
					<dim>128</dim>
				</port>
			</input>
			<output>
				<port id="2" precision="FP32">
					<dim>-1</dim>
					<dim>128</dim>
				</port>
			</output>
		</layer>
		<layer id="300" name="Constant_4611842" type="Const" version="opset1">
			<data element_type="f32" shape="" offset="468280" size="4" />
			<rt_info>
				<attribute name="fused_names" version="0" value="Constant_4611842" />
			</rt_info>
			<output>
				<port id="0" precision="FP32" />
			</output>
		</layer>
		<layer id="301" name="Multiply_4611845" type="Multiply" version="opset1">
			<data auto_broadcast="numpy" />
			<rt_info>
				<attribute name="fused_names" version="0" value="Multiply_4611845" />
			</rt_info>
			<input>
				<port id="0" precision="FP32">
					<dim>-1</dim>
					<dim>128</dim>
				</port>
				<port id="1" precision="FP32" />
			</input>
			<output>
				<port id="2" precision="FP32">
					<dim>-1</dim>
					<dim>128</dim>
				</port>
			</output>
		</layer>
		<layer id="302" name="Constant_4611843" type="Const" version="opset1">
			<data element_type="f32" shape="" offset="468280" size="4" />
			<rt_info>
				<attribute name="fused_names" version="0" value="Constant_4611843" />
			</rt_info>
			<output>
				<port id="0" precision="FP32" />
			</output>
		</layer>
		<layer id="303" name="transformer.h.1.mlp.c_fc.bias" type="Const" version="opset1">
			<data element_type="f32" shape="128" offset="489304" size="512" />
			<rt_info>
				<attribute name="fused_names" version="0" value="transformer.h.1.mlp.c_fc.bias" />
			</rt_info>
			<output>
				<port id="0" precision="FP32" names="transformer.h.0.mlp.c_fc.bias,transformer.h.1.mlp.c_fc.bias,transformer.h.2.mlp.c_fc.bias,transformer.h.3.mlp.c_fc.bias,transformer.h.4.mlp.c_fc.bias">
					<dim>128</dim>
				</port>
			</output>
		</layer>
		<layer id="304" name="Multiply_4611846" type="Multiply" version="opset1">
			<data auto_broadcast="numpy" />
			<rt_info>
				<attribute name="fused_names" version="0" value="Multiply_4611846" />
			</rt_info>
			<input>
				<port id="0" precision="FP32" />
				<port id="1" precision="FP32">
					<dim>128</dim>
				</port>
			</input>
			<output>
				<port id="2" precision="FP32">
					<dim>128</dim>
				</port>
			</output>
		</layer>
		<layer id="305" name="/transformer/h.0/mlp/c_fc/Gemm" type="Add" version="opset1">
			<data auto_broadcast="numpy" />
			<rt_info>
				<attribute name="fused_names" version="0" value="/transformer/h.0/mlp/c_fc/Gemm" />
			</rt_info>
			<input>
				<port id="0" precision="FP32">
					<dim>-1</dim>
					<dim>128</dim>
				</port>
				<port id="1" precision="FP32">
					<dim>128</dim>
				</port>
			</input>
			<output>
				<port id="2" precision="FP32" names="/transformer/h.0/mlp/c_fc/Gemm_output_0">
					<dim>-1</dim>
					<dim>128</dim>
				</port>
			</output>
		</layer>
		<layer id="306" name="/transformer/h.0/mlp/c_fc/Shape" type="ShapeOf" version="opset3">
			<data output_type="i64" />
			<rt_info>
				<attribute name="fused_names" version="0" value="/transformer/h.0/mlp/c_fc/Shape" />
			</rt_info>
			<input>
				<port id="0" precision="FP32">
					<dim>-1</dim>
					<dim>-1</dim>
					<dim>32</dim>
				</port>
			</input>
			<output>
				<port id="1" precision="I64" names="/transformer/h.0/mlp/c_fc/Shape_output_0">
					<dim>3</dim>
				</port>
			</output>
		</layer>
		<layer id="307" name="/transformer/h.0/mlp/c_fc/Constant" type="Const" version="opset1">
			<data element_type="i64" shape="" offset="390160" size="8" />
			<rt_info>
				<attribute name="fused_names" version="0" value="/transformer/h.0/mlp/c_fc/Constant" />
			</rt_info>
			<output>
				<port id="0" precision="I64" names="/transformer/h.0/mlp/c_fc/Constant_output_0" />
			</output>
		</layer>
		<layer id="308" name="Constant_4611812" type="Const" version="opset1">
			<data element_type="i64" shape="" offset="390160" size="8" />
			<rt_info>
				<attribute name="fused_names" version="0" value="Constant_4611812" />
			</rt_info>
			<output>
				<port id="0" precision="I64" />
			</output>
		</layer>
		<layer id="309" name="/transformer/h.0/mlp/c_fc/Gather" type="Gather" version="opset8">
			<data batch_dims="0" />
			<rt_info>
				<attribute name="fused_names" version="0" value="/transformer/h.0/mlp/c_fc/Constant, /transformer/h.0/mlp/c_fc/Gather, Constant_4611812" />
			</rt_info>
			<input>
				<port id="0" precision="I64">
					<dim>3</dim>
				</port>
				<port id="1" precision="I64" />
				<port id="2" precision="I64" />
			</input>
			<output>
				<port id="3" precision="I64" names="/transformer/h.0/mlp/c_fc/Gather_output_0" />
			</output>
		</layer>
		<layer id="310" name="Constant_304" type="Const" version="opset1">
			<data element_type="i64" shape="1" offset="390160" size="8" />
			<rt_info>
				<attribute name="fused_names" version="0" value="Constant_304" />
			</rt_info>
			<output>
				<port id="0" precision="I64" names="onnx::Unsqueeze_371">
					<dim>1</dim>
				</port>
			</output>
		</layer>
		<layer id="311" name="/transformer/h.0/mlp/c_fc/Unsqueeze_1" type="Unsqueeze" version="opset1">
			<rt_info>
				<attribute name="fused_names" version="0" value="/transformer/h.0/mlp/c_fc/Unsqueeze_1, Constant_304" />
			</rt_info>
			<input>
				<port id="0" precision="I64" />
				<port id="1" precision="I64">
					<dim>1</dim>
				</port>
			</input>
			<output>
				<port id="2" precision="I64" names="/transformer/h.0/mlp/c_fc/Unsqueeze_1_output_0">
					<dim>1</dim>
				</port>
			</output>
		</layer>
		<layer id="312" name="/transformer/h.0/mlp/c_fc/Shape_1" type="ShapeOf" version="opset3">
			<data output_type="i64" />
			<rt_info>
				<attribute name="fused_names" version="0" value="/transformer/h.0/mlp/c_fc/Shape_1" />
			</rt_info>
			<input>
				<port id="0" precision="FP32">
					<dim>-1</dim>
					<dim>-1</dim>
					<dim>32</dim>
				</port>
			</input>
			<output>
				<port id="1" precision="I64" names="/transformer/h.0/mlp/c_fc/Shape_1_output_0">
					<dim>3</dim>
				</port>
			</output>
		</layer>
		<layer id="313" name="/transformer/h.0/mlp/c_fc/Constant_1" type="Const" version="opset1">
			<data element_type="i64" shape="" offset="390152" size="8" />
			<rt_info>
				<attribute name="fused_names" version="0" value="/transformer/h.0/mlp/c_fc/Constant_1" />
			</rt_info>
			<output>
				<port id="0" precision="I64" names="/transformer/h.0/mlp/c_fc/Constant_1_output_0" />
			</output>
		</layer>
		<layer id="314" name="Constant_4611816" type="Const" version="opset1">
			<data element_type="i64" shape="" offset="390160" size="8" />
			<rt_info>
				<attribute name="fused_names" version="0" value="Constant_4611816" />
			</rt_info>
			<output>
				<port id="0" precision="I64" />
			</output>
		</layer>
		<layer id="315" name="/transformer/h.0/mlp/c_fc/Gather_1" type="Gather" version="opset8">
			<data batch_dims="0" />
			<rt_info>
				<attribute name="fused_names" version="0" value="/transformer/h.0/mlp/c_fc/Constant_1, /transformer/h.0/mlp/c_fc/Gather_1, Constant_4611816" />
			</rt_info>
			<input>
				<port id="0" precision="I64">
					<dim>3</dim>
				</port>
				<port id="1" precision="I64" />
				<port id="2" precision="I64" />
			</input>
			<output>
				<port id="3" precision="I64" names="/transformer/h.0/mlp/c_fc/Gather_1_output_0" />
			</output>
		</layer>
		<layer id="316" name="Constant_306" type="Const" version="opset1">
			<data element_type="i64" shape="1" offset="390160" size="8" />
			<rt_info>
				<attribute name="fused_names" version="0" value="Constant_306" />
			</rt_info>
			<output>
				<port id="0" precision="I64" names="onnx::Unsqueeze_373">
					<dim>1</dim>
				</port>
			</output>
		</layer>
		<layer id="317" name="/transformer/h.0/mlp/c_fc/Unsqueeze_2" type="Unsqueeze" version="opset1">
			<rt_info>
				<attribute name="fused_names" version="0" value="/transformer/h.0/mlp/c_fc/Unsqueeze_2, Constant_306" />
			</rt_info>
			<input>
				<port id="0" precision="I64" />
				<port id="1" precision="I64">
					<dim>1</dim>
				</port>
			</input>
			<output>
				<port id="2" precision="I64" names="/transformer/h.0/mlp/c_fc/Unsqueeze_2_output_0">
					<dim>1</dim>
				</port>
			</output>
		</layer>
		<layer id="318" name="/transformer/h.0/mlp/c_fc/Constant_7" type="Const" version="opset1">
			<data element_type="i64" shape="1" offset="489816" size="8" />
			<rt_info>
…
		<edge from-layer="922" from-port="2" to-layer="924" to-port="0" />
		<edge from-layer="923" from-port="0" to-layer="924" to-port="1" />
		<edge from-layer="924" from-port="2" to-layer="927" to-port="0" />
		<edge from-layer="925" from-port="0" to-layer="926" to-port="0" />
		<edge from-layer="926" from-port="2" to-layer="927" to-port="1" />
		<edge from-layer="927" from-port="2" to-layer="942" to-port="0" />
		<edge from-layer="928" from-port="1" to-layer="931" to-port="0" />
		<edge from-layer="929" from-port="0" to-layer="931" to-port="1" />
		<edge from-layer="930" from-port="0" to-layer="931" to-port="2" />
		<edge from-layer="931" from-port="3" to-layer="933" to-port="0" />
		<edge from-layer="932" from-port="0" to-layer="933" to-port="1" />
		<edge from-layer="933" from-port="2" to-layer="941" to-port="0" />
		<edge from-layer="934" from-port="1" to-layer="937" to-port="0" />
		<edge from-layer="935" from-port="0" to-layer="937" to-port="1" />
		<edge from-layer="936" from-port="0" to-layer="937" to-port="2" />
		<edge from-layer="937" from-port="3" to-layer="939" to-port="0" />
		<edge from-layer="938" from-port="0" to-layer="939" to-port="1" />
		<edge from-layer="939" from-port="2" to-layer="941" to-port="1" />
		<edge from-layer="940" from-port="0" to-layer="941" to-port="2" />
		<edge from-layer="941" from-port="3" to-layer="942" to-port="1" />
		<edge from-layer="942" from-port="2" to-layer="943" to-port="1" />
		<edge from-layer="943" from-port="2" to-layer="945" to-port="0" />
		<edge from-layer="943" from-port="2" to-layer="946" to-port="0" />
		<edge from-layer="943" from-port="2" to-layer="1148" to-port="1" />
		<edge from-layer="944" from-port="0" to-layer="945" to-port="1" />
		<edge from-layer="945" from-port="2" to-layer="946" to-port="1" />
		<edge from-layer="946" from-port="2" to-layer="948" to-port="0" />
		<edge from-layer="946" from-port="2" to-layer="954" to-port="0" />
		<edge from-layer="947" from-port="0" to-layer="948" to-port="1" />
		<edge from-layer="948" from-port="2" to-layer="950" to-port="0" />
		<edge from-layer="949" from-port="0" to-layer="950" to-port="1" />
		<edge from-layer="950" from-port="2" to-layer="952" to-port="0" />
		<edge from-layer="951" from-port="0" to-layer="952" to-port="1" />
		<edge from-layer="952" from-port="2" to-layer="953" to-port="0" />
		<edge from-layer="953" from-port="1" to-layer="954" to-port="1" />
		<edge from-layer="954" from-port="2" to-layer="955" to-port="0" />
		<edge from-layer="955" from-port="2" to-layer="956" to-port="0" />
		<edge from-layer="956" from-port="2" to-layer="977" to-port="0" />
		<edge from-layer="956" from-port="2" to-layer="971" to-port="0" />
		<edge from-layer="956" from-port="2" to-layer="963" to-port="0" />
		<edge from-layer="957" from-port="0" to-layer="962" to-port="0" />
		<edge from-layer="958" from-port="0" to-layer="961" to-port="0" />
		<edge from-layer="959" from-port="0" to-layer="961" to-port="1" />
		<edge from-layer="960" from-port="0" to-layer="961" to-port="2" />
		<edge from-layer="961" from-port="3" to-layer="962" to-port="1" />
		<edge from-layer="962" from-port="2" to-layer="963" to-port="1" />
		<edge from-layer="963" from-port="2" to-layer="965" to-port="0" />
		<edge from-layer="964" from-port="0" to-layer="965" to-port="1" />
		<edge from-layer="965" from-port="2" to-layer="967" to-port="0" />
		<edge from-layer="966" from-port="0" to-layer="967" to-port="1" />
		<edge from-layer="967" from-port="2" to-layer="970" to-port="0" />
		<edge from-layer="968" from-port="0" to-layer="969" to-port="0" />
		<edge from-layer="969" from-port="2" to-layer="970" to-port="1" />
		<edge from-layer="970" from-port="2" to-layer="985" to-port="0" />
		<edge from-layer="971" from-port="1" to-layer="974" to-port="0" />
		<edge from-layer="972" from-port="0" to-layer="974" to-port="1" />
		<edge from-layer="973" from-port="0" to-layer="974" to-port="2" />
		<edge from-layer="974" from-port="3" to-layer="976" to-port="0" />
		<edge from-layer="975" from-port="0" to-layer="976" to-port="1" />
		<edge from-layer="976" from-port="2" to-layer="984" to-port="0" />
		<edge from-layer="977" from-port="1" to-layer="980" to-port="0" />
		<edge from-layer="978" from-port="0" to-layer="980" to-port="1" />
		<edge from-layer="979" from-port="0" to-layer="980" to-port="2" />
		<edge from-layer="980" from-port="3" to-layer="982" to-port="0" />
		<edge from-layer="981" from-port="0" to-layer="982" to-port="1" />
		<edge from-layer="982" from-port="2" to-layer="984" to-port="1" />
		<edge from-layer="983" from-port="0" to-layer="984" to-port="2" />
		<edge from-layer="984" from-port="3" to-layer="985" to-port="1" />
		<edge from-layer="985" from-port="2" to-layer="988" to-port="0" />
		<edge from-layer="986" from-port="0" to-layer="988" to-port="1" />
		<edge from-layer="987" from-port="0" to-layer="988" to-port="2" />
		<edge from-layer="988" from-port="5" to-layer="1062" to-port="0" />
		<edge from-layer="988" from-port="5" to-layer="1068" to-port="0" />
		<edge from-layer="988" from-port="5" to-layer="1077" to-port="0" />
		<edge from-layer="988" from-port="4" to-layer="1004" to-port="0" />
		<edge from-layer="988" from-port="3" to-layer="1033" to-port="0" />
		<edge from-layer="988" from-port="3" to-layer="1018" to-port="0" />
		<edge from-layer="988" from-port="4" to-layer="989" to-port="0" />
		<edge from-layer="988" from-port="3" to-layer="1024" to-port="0" />
		<edge from-layer="988" from-port="4" to-layer="995" to-port="0" />
		<edge from-layer="989" from-port="1" to-layer="992" to-port="0" />
		<edge from-layer="990" from-port="0" to-layer="992" to-port="1" />
		<edge from-layer="991" from-port="0" to-layer="992" to-port="2" />
		<edge from-layer="992" from-port="3" to-layer="994" to-port="0" />
		<edge from-layer="993" from-port="0" to-layer="994" to-port="1" />
		<edge from-layer="994" from-port="2" to-layer="1003" to-port="0" />
		<edge from-layer="995" from-port="1" to-layer="998" to-port="0" />
		<edge from-layer="996" from-port="0" to-layer="998" to-port="1" />
		<edge from-layer="997" from-port="0" to-layer="998" to-port="2" />
		<edge from-layer="998" from-port="3" to-layer="1000" to-port="0" />
		<edge from-layer="999" from-port="0" to-layer="1000" to-port="1" />
		<edge from-layer="1000" from-port="2" to-layer="1003" to-port="1" />
		<edge from-layer="1001" from-port="0" to-layer="1003" to-port="2" />
		<edge from-layer="1002" from-port="0" to-layer="1003" to-port="3" />
		<edge from-layer="1003" from-port="4" to-layer="1004" to-port="1" />
		<edge from-layer="1004" from-port="2" to-layer="1006" to-port="0" />
		<edge from-layer="1005" from-port="0" to-layer="1006" to-port="1" />
		<edge from-layer="1006" from-port="2" to-layer="1007" to-port="1" />
		<edge from-layer="1007" from-port="2" to-layer="1320" to-port="0" />
		<edge from-layer="1007" from-port="2" to-layer="1060" to-port="1" />
		<edge from-layer="1007" from-port="2" to-layer="1008" to-port="0" />
		<edge from-layer="1008" from-port="1" to-layer="1015" to-port="0" />
		<edge from-layer="1009" from-port="0" to-layer="1015" to-port="1" />
		<edge from-layer="1010" from-port="0" to-layer="1015" to-port="2" />
		<edge from-layer="1011" from-port="0" to-layer="1013" to-port="0" />
		<edge from-layer="1012" from-port="0" to-layer="1013" to-port="1" />
		<edge from-layer="1013" from-port="2" to-layer="1015" to-port="3" />
		<edge from-layer="1014" from-port="0" to-layer="1015" to-port="4" />
		<edge from-layer="1015" from-port="5" to-layer="1017" to-port="0" />
		<edge from-layer="1016" from-port="0" to-layer="1017" to-port="1" />
		<edge from-layer="1017" from-port="2" to-layer="1050" to-port="0" />
		<edge from-layer="1017" from-port="2" to-layer="1056" to-port="0" />
		<edge from-layer="1017" from-port="2" to-layer="1046" to-port="0" />
		<edge from-layer="1018" from-port="1" to-layer="1021" to-port="0" />
		<edge from-layer="1019" from-port="0" to-layer="1021" to-port="1" />
		<edge from-layer="1020" from-port="0" to-layer="1021" to-port="2" />
		<edge from-layer="1021" from-port="3" to-layer="1023" to-port="0" />
		<edge from-layer="1022" from-port="0" to-layer="1023" to-port="1" />
		<edge from-layer="1023" from-port="2" to-layer="1032" to-port="0" />
		<edge from-layer="1024" from-port="1" to-layer="1027" to-port="0" />
		<edge from-layer="1025" from-port="0" to-layer="1027" to-port="1" />
		<edge from-layer="1026" from-port="0" to-layer="1027" to-port="2" />
		<edge from-layer="1027" from-port="3" to-layer="1029" to-port="0" />
		<edge from-layer="1028" from-port="0" to-layer="1029" to-port="1" />
		<edge from-layer="1029" from-port="2" to-layer="1032" to-port="1" />
		<edge from-layer="1030" from-port="0" to-layer="1032" to-port="2" />
		<edge from-layer="1031" from-port="0" to-layer="1032" to-port="3" />
		<edge from-layer="1032" from-port="4" to-layer="1033" to-port="1" />
		<edge from-layer="1033" from-port="2" to-layer="1035" to-port="0" />
		<edge from-layer="1034" from-port="0" to-layer="1035" to-port="1" />
		<edge from-layer="1035" from-port="2" to-layer="1060" to-port="0" />
		<edge from-layer="1035" from-port="2" to-layer="1036" to-port="0" />
		<edge from-layer="1036" from-port="1" to-layer="1043" to-port="0" />
		<edge from-layer="1037" from-port="0" to-layer="1043" to-port="1" />
		<edge from-layer="1038" from-port="0" to-layer="1043" to-port="2" />
		<edge from-layer="1039" from-port="0" to-layer="1041" to-port="0" />
		<edge from-layer="1040" from-port="0" to-layer="1041" to-port="1" />
		<edge from-layer="1041" from-port="2" to-layer="1043" to-port="3" />
		<edge from-layer="1042" from-port="0" to-layer="1043" to-port="4" />
		<edge from-layer="1043" from-port="5" to-layer="1045" to-port="0" />
		<edge from-layer="1044" from-port="0" to-layer="1045" to-port="1" />
		<edge from-layer="1045" from-port="2" to-layer="1046" to-port="1" />
		<edge from-layer="1046" from-port="2" to-layer="1048" to-port="0" />
		<edge from-layer="1047" from-port="0" to-layer="1048" to-port="1" />
		<edge from-layer="1048" from-port="2" to-layer="1053" to-port="1" />
		<edge from-layer="1049" from-port="0" to-layer="1050" to-port="1" />
		<edge from-layer="1050" from-port="2" to-layer="1053" to-port="2" />
		<edge from-layer="1051" from-port="0" to-layer="1053" to-port="3" />
		<edge from-layer="1052" from-port="0" to-layer="1053" to-port="4" />
		<edge from-layer="1053" from-port="5" to-layer="1059" to-port="0" />
		<edge from-layer="1054" from-port="0" to-layer="1059" to-port="1" />
		<edge from-layer="1055" from-port="0" to-layer="1056" to-port="1" />
		<edge from-layer="1056" from-port="2" to-layer="1059" to-port="2" />
		<edge from-layer="1057" from-port="0" to-layer="1059" to-port="3" />
		<edge from-layer="1058" from-port="0" to-layer="1059" to-port="4" />
		<edge from-layer="1059" from-port="5" to-layer="1097" to-port="0" />
		<edge from-layer="1060" from-port="2" to-layer="1095" to-port="0" />
		<edge from-layer="1061" from-port="0" to-layer="1094" to-port="0" />
		<edge from-layer="1062" from-port="1" to-layer="1065" to-port="0" />
		<edge from-layer="1063" from-port="0" to-layer="1065" to-port="1" />
		<edge from-layer="1064" from-port="0" to-layer="1065" to-port="2" />
		<edge from-layer="1065" from-port="3" to-layer="1067" to-port="0" />
		<edge from-layer="1066" from-port="0" to-layer="1067" to-port="1" />
		<edge from-layer="1067" from-port="2" to-layer="1076" to-port="0" />
		<edge from-layer="1068" from-port="1" to-layer="1071" to-port="0" />
		<edge from-layer="1069" from-port="0" to-layer="1071" to-port="1" />
		<edge from-layer="1070" from-port="0" to-layer="1071" to-port="2" />
		<edge from-layer="1071" from-port="3" to-layer="1073" to-port="0" />
		<edge from-layer="1072" from-port="0" to-layer="1073" to-port="1" />
		<edge from-layer="1073" from-port="2" to-layer="1076" to-port="1" />
		<edge from-layer="1074" from-port="0" to-layer="1076" to-port="2" />
		<edge from-layer="1075" from-port="0" to-layer="1076" to-port="3" />
		<edge from-layer="1076" from-port="4" to-layer="1077" to-port="1" />
		<edge from-layer="1077" from-port="2" to-layer="1079" to-port="0" />
		<edge from-layer="1078" from-port="0" to-layer="1079" to-port="1" />
		<edge from-layer="1079" from-port="2" to-layer="1080" to-port="1" />
		<edge from-layer="1080" from-port="2" to-layer="1319" to-port="0" />
		<edge from-layer="1080" from-port="2" to-layer="1101" to-port="1" />
		<edge from-layer="1080" from-port="2" to-layer="1081" to-port="0" />
		<edge from-layer="1081" from-port="1" to-layer="1088" to-port="0" />
		<edge from-layer="1082" from-port="0" to-layer="1088" to-port="1" />
		<edge from-layer="1083" from-port="0" to-layer="1088" to-port="2" />
		<edge from-layer="1084" from-port="0" to-layer="1086" to-port="0" />
		<edge from-layer="1085" from-port="0" to-layer="1086" to-port="1" />
		<edge from-layer="1086" from-port="2" to-layer="1088" to-port="3" />
		<edge from-layer="1087" from-port="0" to-layer="1088" to-port="4" />
		<edge from-layer="1088" from-port="5" to-layer="1090" to-port="0" />
		<edge from-layer="1089" from-port="0" to-layer="1090" to-port="1" />
		<edge from-layer="1090" from-port="2" to-layer="1091" to-port="0" />
		<edge from-layer="1091" from-port="1" to-layer="1093" to-port="0" />
		<edge from-layer="1092" from-port="0" to-layer="1093" to-port="1" />
		<edge from-layer="1093" from-port="2" to-layer="1094" to-port="1" />
		<edge from-layer="1094" from-port="2" to-layer="1095" to-port="1" />
		<edge from-layer="1095" from-port="2" to-layer="1096" to-port="0" />
		<edge from-layer="1096" from-port="1" to-layer="1097" to-port="1" />
		<edge from-layer="1097" from-port="3" to-layer="1098" to-port="0" />
		<edge from-layer="1098" from-port="2" to-layer="1099" to-port="0" />
		<edge from-layer="1099" from-port="1" to-layer="1100" to-port="0" />
		<edge from-layer="1100" from-port="1" to-layer="1101" to-port="0" />
		<edge from-layer="1101" from-port="2" to-layer="1103" to-port="0" />
		<edge from-layer="1102" from-port="0" to-layer="1103" to-port="1" />
		<edge from-layer="1103" from-port="2" to-layer="1104" to-port="0" />
		<edge from-layer="1103" from-port="2" to-layer="1118" to-port="0" />
		<edge from-layer="1103" from-port="2" to-layer="1110" to-port="0" />
		<edge from-layer="1104" from-port="1" to-layer="1107" to-port="0" />
		<edge from-layer="1105" from-port="0" to-layer="1107" to-port="1" />
		<edge from-layer="1106" from-port="0" to-layer="1107" to-port="2" />
		<edge from-layer="1107" from-port="3" to-layer="1109" to-port="0" />
		<edge from-layer="1108" from-port="0" to-layer="1109" to-port="1" />
		<edge from-layer="1109" from-port="2" to-layer="1117" to-port="0" />
		<edge from-layer="1110" from-port="1" to-layer="1113" to-port="0" />
		<edge from-layer="1111" from-port="0" to-layer="1113" to-port="1" />
		<edge from-layer="1112" from-port="0" to-layer="1113" to-port="2" />
		<edge from-layer="1113" from-port="3" to-layer="1115" to-port="0" />
		<edge from-layer="1114" from-port="0" to-layer="1115" to-port="1" />
		<edge from-layer="1115" from-port="2" to-layer="1117" to-port="1" />
		<edge from-layer="1116" from-port="0" to-layer="1117" to-port="2" />
		<edge from-layer="1117" from-port="3" to-layer="1118" to-port="1" />
		<edge from-layer="1118" from-port="2" to-layer="1139" to-port="0" />
		<edge from-layer="1118" from-port="2" to-layer="1133" to-port="0" />
		<edge from-layer="1118" from-port="2" to-layer="1125" to-port="0" />
		<edge from-layer="1119" from-port="0" to-layer="1124" to-port="0" />
		<edge from-layer="1120" from-port="0" to-layer="1123" to-port="0" />
		<edge from-layer="1121" from-port="0" to-layer="1123" to-port="1" />
		<edge from-layer="1122" from-port="0" to-layer="1123" to-port="2" />
		<edge from-layer="1123" from-port="3" to-layer="1124" to-port="1" />
		<edge from-layer="1124" from-port="2" to-layer="1125" to-port="1" />
		<edge from-layer="1125" from-port="2" to-layer="1127" to-port="0" />
		<edge from-layer="1126" from-port="0" to-layer="1127" to-port="1" />
		<edge from-layer="1127" from-port="2" to-layer="1129" to-port="0" />
		<edge from-layer="1128" from-port="0" to-layer="1129" to-port="1" />
		<edge from-layer="1129" from-port="2" to-layer="1132" to-port="0" />
		<edge from-layer="1130" from-port="0" to-layer="1131" to-port="0" />
		<edge from-layer="1131" from-port="2" to-layer="1132" to-port="1" />
		<edge from-layer="1132" from-port="2" to-layer="1147" to-port="0" />
		<edge from-layer="1133" from-port="1" to-layer="1136" to-port="0" />
		<edge from-layer="1134" from-port="0" to-layer="1136" to-port="1" />
		<edge from-layer="1135" from-port="0" to-layer="1136" to-port="2" />
		<edge from-layer="1136" from-port="3" to-layer="1138" to-port="0" />
		<edge from-layer="1137" from-port="0" to-layer="1138" to-port="1" />
		<edge from-layer="1138" from-port="2" to-layer="1146" to-port="0" />
		<edge from-layer="1139" from-port="1" to-layer="1142" to-port="0" />
		<edge from-layer="1140" from-port="0" to-layer="1142" to-port="1" />
		<edge from-layer="1141" from-port="0" to-layer="1142" to-port="2" />
		<edge from-layer="1142" from-port="3" to-layer="1144" to-port="0" />
		<edge from-layer="1143" from-port="0" to-layer="1144" to-port="1" />
		<edge from-layer="1144" from-port="2" to-layer="1146" to-port="1" />
		<edge from-layer="1145" from-port="0" to-layer="1146" to-port="2" />
		<edge from-layer="1146" from-port="3" to-layer="1147" to-port="1" />
		<edge from-layer="1147" from-port="2" to-layer="1148" to-port="0" />
		<edge from-layer="1148" from-port="2" to-layer="1151" to-port="0" />
		<edge from-layer="1148" from-port="2" to-layer="1150" to-port="0" />
		<edge from-layer="1148" from-port="2" to-layer="1233" to-port="0" />
		<edge from-layer="1149" from-port="0" to-layer="1150" to-port="1" />
		<edge from-layer="1150" from-port="2" to-layer="1151" to-port="1" />
		<edge from-layer="1151" from-port="2" to-layer="1159" to-port="0" />
		<edge from-layer="1151" from-port="2" to-layer="1153" to-port="0" />
		<edge from-layer="1152" from-port="0" to-layer="1153" to-port="1" />
		<edge from-layer="1153" from-port="2" to-layer="1155" to-port="0" />
		<edge from-layer="1154" from-port="0" to-layer="1155" to-port="1" />
		<edge from-layer="1155" from-port="2" to-layer="1157" to-port="0" />
		<edge from-layer="1156" from-port="0" to-layer="1157" to-port="1" />
		<edge from-layer="1157" from-port="2" to-layer="1158" to-port="0" />
		<edge from-layer="1158" from-port="1" to-layer="1159" to-port="1" />
		<edge from-layer="1159" from-port="2" to-layer="1160" to-port="0" />
		<edge from-layer="1160" from-port="2" to-layer="1161" to-port="0" />
		<edge from-layer="1161" from-port="2" to-layer="1182" to-port="0" />
		<edge from-layer="1161" from-port="2" to-layer="1176" to-port="0" />
		<edge from-layer="1161" from-port="2" to-layer="1168" to-port="0" />
		<edge from-layer="1162" from-port="0" to-layer="1167" to-port="0" />
		<edge from-layer="1163" from-port="0" to-layer="1166" to-port="0" />
		<edge from-layer="1164" from-port="0" to-layer="1166" to-port="1" />
		<edge from-layer="1165" from-port="0" to-layer="1166" to-port="2" />
		<edge from-layer="1166" from-port="3" to-layer="1167" to-port="1" />
		<edge from-layer="1167" from-port="2" to-layer="1168" to-port="1" />
		<edge from-layer="1168" from-port="2" to-layer="1170" to-port="0" />
		<edge from-layer="1169" from-port="0" to-layer="1170" to-port="1" />
		<edge from-layer="1170" from-port="2" to-layer="1172" to-port="0" />
		<edge from-layer="1171" from-port="0" to-layer="1172" to-port="1" />
		<edge from-layer="1172" from-port="2" to-layer="1175" to-port="0" />
		<edge from-layer="1173" from-port="0" to-layer="1174" to-port="0" />
		<edge from-layer="1174" from-port="2" to-layer="1175" to-port="1" />
		<edge from-layer="1175" from-port="2" to-layer="1190" to-port="0" />
		<edge from-layer="1176" from-port="1" to-layer="1179" to-port="0" />
		<edge from-layer="1177" from-port="0" to-layer="1179" to-port="1" />
		<edge from-layer="1178" from-port="0" to-layer="1179" to-port="2" />
		<edge from-layer="1179" from-port="3" to-layer="1181" to-port="0" />
		<edge from-layer="1180" from-port="0" to-layer="1181" to-port="1" />
		<edge from-layer="1181" from-port="2" to-layer="1189" to-port="0" />
		<edge from-layer="1182" from-port="1" to-layer="1185" to-port="0" />
		<edge from-layer="1183" from-port="0" to-layer="1185" to-port="1" />
		<edge from-layer="1184" from-port="0" to-layer="1185" to-port="2" />
		<edge from-layer="1185" from-port="3" to-layer="1187" to-port="0" />
		<edge from-layer="1186" from-port="0" to-layer="1187" to-port="1" />
		<edge from-layer="1187" from-port="2" to-layer="1189" to-port="1" />
		<edge from-layer="1188" from-port="0" to-layer="1189" to-port="2" />
		<edge from-layer="1189" from-port="3" to-layer="1190" to-port="1" />
		<edge from-layer="1190" from-port="2" to-layer="1192" to-port="0" />
		<edge from-layer="1190" from-port="2" to-layer="1194" to-port="0" />
		<edge from-layer="1190" from-port="2" to-layer="1197" to-port="0" />
		<edge from-layer="1191" from-port="0" to-layer="1192" to-port="1" />
		<edge from-layer="1192" from-port="2" to-layer="1203" to-port="0" />
		<edge from-layer="1193" from-port="0" to-layer="1194" to-port="1" />
		<edge from-layer="1194" from-port="2" to-layer="1196" to-port="0" />
		<edge from-layer="1195" from-port="0" to-layer="1196" to-port="1" />
		<edge from-layer="1196" from-port="2" to-layer="1197" to-port="1" />
		<edge from-layer="1197" from-port="2" to-layer="1199" to-port="0" />
		<edge from-layer="1198" from-port="0" to-layer="1199" to-port="1" />
		<edge from-layer="1199" from-port="2" to-layer="1200" to-port="0" />
		<edge from-layer="1200" from-port="1" to-layer="1202" to-port="0" />
		<edge from-layer="1201" from-port="0" to-layer="1202" to-port="1" />
		<edge from-layer="1202" from-port="2" to-layer="1203" to-port="1" />
		<edge from-layer="1203" from-port="2" to-layer="1224" to-port="0" />
		<edge from-layer="1203" from-port="2" to-layer="1218" to-port="0" />
		<edge from-layer="1203" from-port="2" to-layer="1210" to-port="0" />
		<edge from-layer="1204" from-port="0" to-layer="1209" to-port="0" />
		<edge from-layer="1205" from-port="0" to-layer="1208" to-port="0" />
		<edge from-layer="1206" from-port="0" to-layer="1208" to-port="1" />
		<edge from-layer="1207" from-port="0" to-layer="1208" to-port="2" />
		<edge from-layer="1208" from-port="3" to-layer="1209" to-port="1" />
		<edge from-layer="1209" from-port="2" to-layer="1210" to-port="1" />
		<edge from-layer="1210" from-port="2" to-layer="1212" to-port="0" />
		<edge from-layer="1211" from-port="0" to-layer="1212" to-port="1" />
		<edge from-layer="1212" from-port="2" to-layer="1214" to-port="0" />
		<edge from-layer="1213" from-port="0" to-layer="1214" to-port="1" />
		<edge from-layer="1214" from-port="2" to-layer="1217" to-port="0" />
		<edge from-layer="1215" from-port="0" to-layer="1216" to-port="0" />
		<edge from-layer="1216" from-port="2" to-layer="1217" to-port="1" />
		<edge from-layer="1217" from-port="2" to-layer="1232" to-port="0" />
		<edge from-layer="1218" from-port="1" to-layer="1221" to-port="0" />
		<edge from-layer="1219" from-port="0" to-layer="1221" to-port="1" />
		<edge from-layer="1220" from-port="0" to-layer="1221" to-port="2" />
		<edge from-layer="1221" from-port="3" to-layer="1223" to-port="0" />
		<edge from-layer="1222" from-port="0" to-layer="1223" to-port="1" />
		<edge from-layer="1223" from-port="2" to-layer="1231" to-port="0" />
		<edge from-layer="1224" from-port="1" to-layer="1227" to-port="0" />
		<edge from-layer="1225" from-port="0" to-layer="1227" to-port="1" />
		<edge from-layer="1226" from-port="0" to-layer="1227" to-port="2" />
		<edge from-layer="1227" from-port="3" to-layer="1229" to-port="0" />
		<edge from-layer="1228" from-port="0" to-layer="1229" to-port="1" />
		<edge from-layer="1229" from-port="2" to-layer="1231" to-port="1" />
		<edge from-layer="1230" from-port="0" to-layer="1231" to-port="2" />
		<edge from-layer="1231" from-port="3" to-layer="1232" to-port="1" />
		<edge from-layer="1232" from-port="2" to-layer="1233" to-port="1" />
		<edge from-layer="1233" from-port="2" to-layer="1236" to-port="0" />
		<edge from-layer="1233" from-port="2" to-layer="1448" to-port="1" />
		<edge from-layer="1233" from-port="2" to-layer="1235" to-port="0" />
		<edge from-layer="1234" from-port="0" to-layer="1235" to-port="1" />
		<edge from-layer="1235" from-port="2" to-layer="1236" to-port="1" />
		<edge from-layer="1236" from-port="2" to-layer="1238" to-port="0" />
		<edge from-layer="1236" from-port="2" to-layer="1244" to-port="0" />
		<edge from-layer="1237" from-port="0" to-layer="1238" to-port="1" />
		<edge from-layer="1238" from-port="2" to-layer="1240" to-port="0" />
		<edge from-layer="1239" from-port="0" to-layer="1240" to-port="1" />
		<edge from-layer="1240" from-port="2" to-layer="1242" to-port="0" />
		<edge from-layer="1241" from-port="0" to-layer="1242" to-port="1" />
		<edge from-layer="1242" from-port="2" to-layer="1243" to-port="0" />
		<edge from-layer="1243" from-port="1" to-layer="1244" to-port="1" />
		<edge from-layer="1244" from-port="2" to-layer="1245" to-port="0" />
		<edge from-layer="1245" from-port="2" to-layer="1246" to-port="0" />
		<edge from-layer="1246" from-port="2" to-layer="1267" to-port="0" />
		<edge from-layer="1246" from-port="2" to-layer="1261" to-port="0" />
		<edge from-layer="1246" from-port="2" to-layer="1253" to-port="0" />
		<edge from-layer="1247" from-port="0" to-layer="1252" to-port="0" />
		<edge from-layer="1248" from-port="0" to-layer="1251" to-port="0" />
		<edge from-layer="1249" from-port="0" to-layer="1251" to-port="1" />
		<edge from-layer="1250" from-port="0" to-layer="1251" to-port="2" />
		<edge from-layer="1251" from-port="3" to-layer="1252" to-port="1" />
		<edge from-layer="1252" from-port="2" to-layer="1253" to-port="1" />
		<edge from-layer="1253" from-port="2" to-layer="1255" to-port="0" />
		<edge from-layer="1254" from-port="0" to-layer="1255" to-port="1" />
		<edge from-layer="1255" from-port="2" to-layer="1257" to-port="0" />
		<edge from-layer="1256" from-port="0" to-layer="1257" to-port="1" />
		<edge from-layer="1257" from-port="2" to-layer="1260" to-port="0" />
		<edge from-layer="1258" from-port="0" to-layer="1259" to-port="0" />
		<edge from-layer="1259" from-port="2" to-layer="1260" to-port="1" />
		<edge from-layer="1260" from-port="2" to-layer="1275" to-port="0" />
		<edge from-layer="1261" from-port="1" to-layer="1264" to-port="0" />
		<edge from-layer="1262" from-port="0" to-layer="1264" to-port="1" />
		<edge from-layer="1263" from-port="0" to-layer="1264" to-port="2" />
		<edge from-layer="1264" from-port="3" to-layer="1266" to-port="0" />
		<edge from-layer="1265" from-port="0" to-layer="1266" to-port="1" />
		<edge from-layer="1266" from-port="2" to-layer="1274" to-port="0" />
		<edge from-layer="1267" from-port="1" to-layer="1270" to-port="0" />
		<edge from-layer="1268" from-port="0" to-layer="1270" to-port="1" />
		<edge from-layer="1269" from-port="0" to-layer="1270" to-port="2" />
		<edge from-layer="1270" from-port="3" to-layer="1272" to-port="0" />
		<edge from-layer="1271" from-port="0" to-layer="1272" to-port="1" />
		<edge from-layer="1272" from-port="2" to-layer="1274" to-port="1" />
		<edge from-layer="1273" from-port="0" to-layer="1274" to-port="2" />
		<edge from-layer="1274" from-port="3" to-layer="1275" to-port="1" />
		<edge from-layer="1275" from-port="2" to-layer="1278" to-port="0" />
		<edge from-layer="1276" from-port="0" to-layer="1278" to-port="1" />
		<edge from-layer="1277" from-port="0" to-layer="1278" to-port="2" />
		<edge from-layer="1278" from-port="4" to-layer="1314" to-port="0" />
		<edge from-layer="1278" from-port="3" to-layer="1337" to-port="0" />
		<edge from-layer="1278" from-port="3" to-layer="1343" to-port="0" />
		<edge from-layer="1278" from-port="5" to-layer="1294" to-port="0" />
		<edge from-layer="1278" from-port="3" to-layer="1352" to-port="0" />
		<edge from-layer="1278" from-port="5" to-layer="1285" to-port="0" />
		<edge from-layer="1278" from-port="4" to-layer="1299" to-port="0" />
		<edge from-layer="1278" from-port="4" to-layer="1305" to-port="0" />
		<edge from-layer="1278" from-port="5" to-layer="1279" to-port="0" />
		<edge from-layer="1279" from-port="1" to-layer="1282" to-port="0" />
		<edge from-layer="1280" from-port="0" to-layer="1282" to-port="1" />
		<edge from-layer="1281" from-port="0" to-layer="1282" to-port="2" />
		<edge from-layer="1282" from-port="3" to-layer="1284" to-port="0" />
		<edge from-layer="1283" from-port="0" to-layer="1284" to-port="1" />
		<edge from-layer="1284" from-port="2" to-layer="1293" to-port="0" />
		<edge from-layer="1285" from-port="1" to-layer="1288" to-port="0" />
		<edge from-layer="1286" from-port="0" to-layer="1288" to-port="1" />
		<edge from-layer="1287" from-port="0" to-layer="1288" to-port="2" />
		<edge from-layer="1288" from-port="3" to-layer="1290" to-port="0" />
		<edge from-layer="1289" from-port="0" to-layer="1290" to-port="1" />
		<edge from-layer="1290" from-port="2" to-layer="1293" to-port="1" />
		<edge from-layer="1291" from-port="0" to-layer="1293" to-port="2" />
		<edge from-layer="1292" from-port="0" to-layer="1293" to-port="3" />
		<edge from-layer="1293" from-port="4" to-layer="1294" to-port="1" />
		<edge from-layer="1294" from-port="2" to-layer="1296" to-port="0" />
		<edge from-layer="1295" from-port="0" to-layer="1296" to-port="1" />
		<edge from-layer="1296" from-port="2" to-layer="1297" to-port="1" />
		<edge from-layer="1297" from-port="2" to-layer="1298" to-port="0" />
		<edge from-layer="1297" from-port="2" to-layer="1381" to-port="0" />
		<edge from-layer="1297" from-port="2" to-layer="1401" to-port="1" />
		<edge from-layer="1299" from-port="1" to-layer="1302" to-port="0" />
		<edge from-layer="1300" from-port="0" to-layer="1302" to-port="1" />
		<edge from-layer="1301" from-port="0" to-layer="1302" to-port="2" />
		<edge from-layer="1302" from-port="3" to-layer="1304" to-port="0" />
		<edge from-layer="1303" from-port="0" to-layer="1304" to-port="1" />
		<edge from-layer="1304" from-port="2" to-layer="1313" to-port="0" />
		<edge from-layer="1305" from-port="1" to-layer="1308" to-port="0" />
		<edge from-layer="1306" from-port="0" to-layer="1308" to-port="1" />
		<edge from-layer="1307" from-port="0" to-layer="1308" to-port="2" />
		<edge from-layer="1308" from-port="3" to-layer="1310" to-port="0" />
		<edge from-layer="1309" from-port="0" to-layer="1310" to-port="1" />
		<edge from-layer="1310" from-port="2" to-layer="1313" to-port="1" />
		<edge from-layer="1311" from-port="0" to-layer="1313" to-port="2" />
		<edge from-layer="1312" from-port="0" to-layer="1313" to-port="3" />
		<edge from-layer="1313" from-port="4" to-layer="1314" to-port="1" />
		<edge from-layer="1314" from-port="2" to-layer="1316" to-port="0" />
		<edge from-layer="1315" from-port="0" to-layer="1316" to-port="1" />
		<edge from-layer="1316" from-port="2" to-layer="1317" to-port="1" />
		<edge from-layer="1317" from-port="2" to-layer="1318" to-port="0" />
		<edge from-layer="1317" from-port="2" to-layer="1379" to-port="1" />
		<edge from-layer="1317" from-port="2" to-layer="1327" to-port="0" />
		<edge from-layer="1327" from-port="1" to-layer="1334" to-port="0" />
		<edge from-layer="1328" from-port="0" to-layer="1334" to-port="1" />
		<edge from-layer="1329" from-port="0" to-layer="1334" to-port="2" />
		<edge from-layer="1330" from-port="0" to-layer="1332" to-port="0" />
		<edge from-layer="1331" from-port="0" to-layer="1332" to-port="1" />
		<edge from-layer="1332" from-port="2" to-layer="1334" to-port="3" />
		<edge from-layer="1333" from-port="0" to-layer="1334" to-port="4" />
		<edge from-layer="1334" from-port="5" to-layer="1336" to-port="0" />
		<edge from-layer="1335" from-port="0" to-layer="1336" to-port="1" />
		<edge from-layer="1336" from-port="2" to-layer="1375" to-port="0" />
		<edge from-layer="1336" from-port="2" to-layer="1369" to-port="0" />
		<edge from-layer="1336" from-port="2" to-layer="1365" to-port="0" />
		<edge from-layer="1337" from-port="1" to-layer="1340" to-port="0" />
		<edge from-layer="1338" from-port="0" to-layer="1340" to-port="1" />
		<edge from-layer="1339" from-port="0" to-layer="1340" to-port="2" />
		<edge from-layer="1340" from-port="3" to-layer="1342" to-port="0" />
		<edge from-layer="1341" from-port="0" to-layer="1342" to-port="1" />
		<edge from-layer="1342" from-port="2" to-layer="1351" to-port="0" />
		<edge from-layer="1343" from-port="1" to-layer="1346" to-port="0" />
		<edge from-layer="1344" from-port="0" to-layer="1346" to-port="1" />
		<edge from-layer="1345" from-port="0" to-layer="1346" to-port="2" />
		<edge from-layer="1346" from-port="3" to-layer="1348" to-port="0" />
		<edge from-layer="1347" from-port="0" to-layer="1348" to-port="1" />
		<edge from-layer="1348" from-port="2" to-layer="1351" to-port="1" />
		<edge from-layer="1349" from-port="0" to-layer="1351" to-port="2" />
		<edge from-layer="1350" from-port="0" to-layer="1351" to-port="3" />
		<edge from-layer="1351" from-port="4" to-layer="1352" to-port="1" />
		<edge from-layer="1352" from-port="2" to-layer="1354" to-port="0" />
		<edge from-layer="1353" from-port="0" to-layer="1354" to-port="1" />
		<edge from-layer="1354" from-port="2" to-layer="1355" to-port="0" />
		<edge from-layer="1354" from-port="2" to-layer="1379" to-port="0" />
		<edge from-layer="1355" from-port="1" to-layer="1362" to-port="0" />
		<edge from-layer="1356" from-port="0" to-layer="1362" to-port="1" />
		<edge from-layer="1357" from-port="0" to-layer="1362" to-port="2" />
		<edge from-layer="1358" from-port="0" to-layer="1360" to-port="0" />
		<edge from-layer="1359" from-port="0" to-layer="1360" to-port="1" />
		<edge from-layer="1360" from-port="2" to-layer="1362" to-port="3" />
		<edge from-layer="1361" from-port="0" to-layer="1362" to-port="4" />
		<edge from-layer="1362" from-port="5" to-layer="1364" to-port="0" />
		<edge from-layer="1363" from-port="0" to-layer="1364" to-port="1" />
		<edge from-layer="1364" from-port="2" to-layer="1365" to-port="1" />
		<edge from-layer="1365" from-port="2" to-layer="1367" to-port="0" />
		<edge from-layer="1366" from-port="0" to-layer="1367" to-port="1" />
		<edge from-layer="1367" from-port="2" to-layer="1372" to-port="1" />
		<edge from-layer="1368" from-port="0" to-layer="1369" to-port="1" />
		<edge from-layer="1369" from-port="2" to-layer="1372" to-port="2" />
		<edge from-layer="1370" from-port="0" to-layer="1372" to-port="3" />
		<edge from-layer="1371" from-port="0" to-layer="1372" to-port="4" />
		<edge from-layer="1372" from-port="5" to-layer="1378" to-port="0" />
		<edge from-layer="1373" from-port="0" to-layer="1378" to-port="1" />
		<edge from-layer="1374" from-port="0" to-layer="1375" to-port="1" />
		<edge from-layer="1375" from-port="2" to-layer="1378" to-port="2" />
		<edge from-layer="1376" from-port="0" to-layer="1378" to-port="3" />
		<edge from-layer="1377" from-port="0" to-layer="1378" to-port="4" />
		<edge from-layer="1378" from-port="5" to-layer="1397" to-port="0" />
		<edge from-layer="1379" from-port="2" to-layer="1395" to-port="0" />
		<edge from-layer="1380" from-port="0" to-layer="1394" to-port="0" />
		<edge from-layer="1381" from-port="1" to-layer="1388" to-port="0" />
		<edge from-layer="1382" from-port="0" to-layer="1388" to-port="1" />
		<edge from-layer="1383" from-port="0" to-layer="1388" to-port="2" />
		<edge from-layer="1384" from-port="0" to-layer="1386" to-port="0" />
		<edge from-layer="1385" from-port="0" to-layer="1386" to-port="1" />
		<edge from-layer="1386" from-port="2" to-layer="1388" to-port="3" />
		<edge from-layer="1387" from-port="0" to-layer="1388" to-port="4" />
		<edge from-layer="1388" from-port="5" to-layer="1390" to-port="0" />
		<edge from-layer="1389" from-port="0" to-layer="1390" to-port="1" />
		<edge from-layer="1390" from-port="2" to-layer="1391" to-port="0" />
		<edge from-layer="1391" from-port="1" to-layer="1393" to-port="0" />
		<edge from-layer="1392" from-port="0" to-layer="1393" to-port="1" />
		<edge from-layer="1393" from-port="2" to-layer="1394" to-port="1" />
		<edge from-layer="1394" from-port="2" to-layer="1395" to-port="1" />
		<edge from-layer="1395" from-port="2" to-layer="1396" to-port="0" />
		<edge from-layer="1396" from-port="1" to-layer="1397" to-port="1" />
		<edge from-layer="1397" from-port="3" to-layer="1398" to-port="0" />
		<edge from-layer="1398" from-port="2" to-layer="1399" to-port="0" />
		<edge from-layer="1399" from-port="1" to-layer="1400" to-port="0" />
		<edge from-layer="1400" from-port="1" to-layer="1401" to-port="0" />
		<edge from-layer="1401" from-port="2" to-layer="1403" to-port="0" />
		<edge from-layer="1402" from-port="0" to-layer="1403" to-port="1" />
		<edge from-layer="1403" from-port="2" to-layer="1418" to-port="0" />
		<edge from-layer="1403" from-port="2" to-layer="1404" to-port="0" />
		<edge from-layer="1403" from-port="2" to-layer="1410" to-port="0" />
		<edge from-layer="1404" from-port="1" to-layer="1407" to-port="0" />
		<edge from-layer="1405" from-port="0" to-layer="1407" to-port="1" />
		<edge from-layer="1406" from-port="0" to-layer="1407" to-port="2" />
		<edge from-layer="1407" from-port="3" to-layer="1409" to-port="0" />
		<edge from-layer="1408" from-port="0" to-layer="1409" to-port="1" />
		<edge from-layer="1409" from-port="2" to-layer="1417" to-port="0" />
		<edge from-layer="1410" from-port="1" to-layer="1413" to-port="0" />
		<edge from-layer="1411" from-port="0" to-layer="1413" to-port="1" />
		<edge from-layer="1412" from-port="0" to-layer="1413" to-port="2" />
		<edge from-layer="1413" from-port="3" to-layer="1415" to-port="0" />
		<edge from-layer="1414" from-port="0" to-layer="1415" to-port="1" />
		<edge from-layer="1415" from-port="2" to-layer="1417" to-port="1" />
		<edge from-layer="1416" from-port="0" to-layer="1417" to-port="2" />
		<edge from-layer="1417" from-port="3" to-layer="1418" to-port="1" />
		<edge from-layer="1418" from-port="2" to-layer="1425" to-port="0" />
		<edge from-layer="1418" from-port="2" to-layer="1433" to-port="0" />
		<edge from-layer="1418" from-port="2" to-layer="1439" to-port="0" />
		<edge from-layer="1419" from-port="0" to-layer="1424" to-port="0" />
		<edge from-layer="1420" from-port="0" to-layer="1423" to-port="0" />
		<edge from-layer="1421" from-port="0" to-layer="1423" to-port="1" />
		<edge from-layer="1422" from-port="0" to-layer="1423" to-port="2" />
		<edge from-layer="1423" from-port="3" to-layer="1424" to-port="1" />
		<edge from-layer="1424" from-port="2" to-layer="1425" to-port="1" />
		<edge from-layer="1425" from-port="2" to-layer="1427" to-port="0" />
		<edge from-layer="1426" from-port="0" to-layer="1427" to-port="1" />
		<edge from-layer="1427" from-port="2" to-layer="1429" to-port="0" />
		<edge from-layer="1428" from-port="0" to-layer="1429" to-port="1" />
		<edge from-layer="1429" from-port="2" to-layer="1432" to-port="0" />
		<edge from-layer="1430" from-port="0" to-layer="1431" to-port="0" />
		<edge from-layer="1431" from-port="2" to-layer="1432" to-port="1" />
		<edge from-layer="1432" from-port="2" to-layer="1447" to-port="0" />
		<edge from-layer="1433" from-port="1" to-layer="1436" to-port="0" />
		<edge from-layer="1434" from-port="0" to-layer="1436" to-port="1" />
		<edge from-layer="1435" from-port="0" to-layer="1436" to-port="2" />
		<edge from-layer="1436" from-port="3" to-layer="1438" to-port="0" />
		<edge from-layer="1437" from-port="0" to-layer="1438" to-port="1" />
		<edge from-layer="1438" from-port="2" to-layer="1446" to-port="0" />
		<edge from-layer="1439" from-port="1" to-layer="1442" to-port="0" />
		<edge from-layer="1440" from-port="0" to-layer="1442" to-port="1" />
		<edge from-layer="1441" from-port="0" to-layer="1442" to-port="2" />
		<edge from-layer="1442" from-port="3" to-layer="1444" to-port="0" />
		<edge from-layer="1443" from-port="0" to-layer="1444" to-port="1" />
		<edge from-layer="1444" from-port="2" to-layer="1446" to-port="1" />
		<edge from-layer="1445" from-port="0" to-layer="1446" to-port="2" />
		<edge from-layer="1446" from-port="3" to-layer="1447" to-port="1" />
		<edge from-layer="1447" from-port="2" to-layer="1448" to-port="0" />
		<edge from-layer="1448" from-port="2" to-layer="1450" to-port="0" />
		<edge from-layer="1448" from-port="2" to-layer="1451" to-port="0" />
		<edge from-layer="1448" from-port="2" to-layer="1533" to-port="0" />
		<edge from-layer="1449" from-port="0" to-layer="1450" to-port="1" />
		<edge from-layer="1450" from-port="2" to-layer="1451" to-port="1" />
		<edge from-layer="1451" from-port="2" to-layer="1453" to-port="0" />
		<edge from-layer="1451" from-port="2" to-layer="1459" to-port="0" />
		<edge from-layer="1452" from-port="0" to-layer="1453" to-port="1" />
		<edge from-layer="1453" from-port="2" to-layer="1455" to-port="0" />
		<edge from-layer="1454" from-port="0" to-layer="1455" to-port="1" />
		<edge from-layer="1455" from-port="2" to-layer="1457" to-port="0" />
		<edge from-layer="1456" from-port="0" to-layer="1457" to-port="1" />
		<edge from-layer="1457" from-port="2" to-layer="1458" to-port="0" />
		<edge from-layer="1458" from-port="1" to-layer="1459" to-port="1" />
		<edge from-layer="1459" from-port="2" to-layer="1460" to-port="0" />
		<edge from-layer="1460" from-port="2" to-layer="1461" to-port="0" />
		<edge from-layer="1461" from-port="2" to-layer="1468" to-port="0" />
		<edge from-layer="1461" from-port="2" to-layer="1476" to-port="0" />
		<edge from-layer="1461" from-port="2" to-layer="1482" to-port="0" />
		<edge from-layer="1462" from-port="0" to-layer="1467" to-port="0" />
		<edge from-layer="1463" from-port="0" to-layer="1466" to-port="0" />
		<edge from-layer="1464" from-port="0" to-layer="1466" to-port="1" />
		<edge from-layer="1465" from-port="0" to-layer="1466" to-port="2" />
		<edge from-layer="1466" from-port="3" to-layer="1467" to-port="1" />
		<edge from-layer="1467" from-port="2" to-layer="1468" to-port="1" />
		<edge from-layer="1468" from-port="2" to-layer="1470" to-port="0" />
		<edge from-layer="1469" from-port="0" to-layer="1470" to-port="1" />
		<edge from-layer="1470" from-port="2" to-layer="1472" to-port="0" />
		<edge from-layer="1471" from-port="0" to-layer="1472" to-port="1" />
		<edge from-layer="1472" from-port="2" to-layer="1475" to-port="0" />
		<edge from-layer="1473" from-port="0" to-layer="1474" to-port="0" />
		<edge from-layer="1474" from-port="2" to-layer="1475" to-port="1" />
		<edge from-layer="1475" from-port="2" to-layer="1490" to-port="0" />
		<edge from-layer="1476" from-port="1" to-layer="1479" to-port="0" />
		<edge from-layer="1477" from-port="0" to-layer="1479" to-port="1" />
		<edge from-layer="1478" from-port="0" to-layer="1479" to-port="2" />
		<edge from-layer="1479" from-port="3" to-layer="1481" to-port="0" />
		<edge from-layer="1480" from-port="0" to-layer="1481" to-port="1" />
		<edge from-layer="1481" from-port="2" to-layer="1489" to-port="0" />
		<edge from-layer="1482" from-port="1" to-layer="1485" to-port="0" />
		<edge from-layer="1483" from-port="0" to-layer="1485" to-port="1" />
		<edge from-layer="1484" from-port="0" to-layer="1485" to-port="2" />
		<edge from-layer="1485" from-port="3" to-layer="1487" to-port="0" />
		<edge from-layer="1486" from-port="0" to-layer="1487" to-port="1" />
		<edge from-layer="1487" from-port="2" to-layer="1489" to-port="1" />
		<edge from-layer="1488" from-port="0" to-layer="1489" to-port="2" />
		<edge from-layer="1489" from-port="3" to-layer="1490" to-port="1" />
		<edge from-layer="1490" from-port="2" to-layer="1494" to-port="0" />
		<edge from-layer="1490" from-port="2" to-layer="1492" to-port="0" />
		<edge from-layer="1490" from-port="2" to-layer="1497" to-port="0" />
		<edge from-layer="1491" from-port="0" to-layer="1492" to-port="1" />
		<edge from-layer="1492" from-port="2" to-layer="1503" to-port="0" />
		<edge from-layer="1493" from-port="0" to-layer="1494" to-port="1" />
		<edge from-layer="1494" from-port="2" to-layer="1496" to-port="0" />
		<edge from-layer="1495" from-port="0" to-layer="1496" to-port="1" />
		<edge from-layer="1496" from-port="2" to-layer="1497" to-port="1" />
		<edge from-layer="1497" from-port="2" to-layer="1499" to-port="0" />
		<edge from-layer="1498" from-port="0" to-layer="1499" to-port="1" />
		<edge from-layer="1499" from-port="2" to-layer="1500" to-port="0" />
		<edge from-layer="1500" from-port="1" to-layer="1502" to-port="0" />
		<edge from-layer="1501" from-port="0" to-layer="1502" to-port="1" />
		<edge from-layer="1502" from-port="2" to-layer="1503" to-port="1" />
		<edge from-layer="1503" from-port="2" to-layer="1510" to-port="0" />
		<edge from-layer="1503" from-port="2" to-layer="1524" to-port="0" />
		<edge from-layer="1503" from-port="2" to-layer="1518" to-port="0" />
		<edge from-layer="1504" from-port="0" to-layer="1509" to-port="0" />
		<edge from-layer="1505" from-port="0" to-layer="1508" to-port="0" />
		<edge from-layer="1506" from-port="0" to-layer="1508" to-port="1" />
		<edge from-layer="1507" from-port="0" to-layer="1508" to-port="2" />
		<edge from-layer="1508" from-port="3" to-layer="1509" to-port="1" />
		<edge from-layer="1509" from-port="2" to-layer="1510" to-port="1" />
		<edge from-layer="1510" from-port="2" to-layer="1512" to-port="0" />
		<edge from-layer="1511" from-port="0" to-layer="1512" to-port="1" />
		<edge from-layer="1512" from-port="2" to-layer="1514" to-port="0" />
		<edge from-layer="1513" from-port="0" to-layer="1514" to-port="1" />
		<edge from-layer="1514" from-port="2" to-layer="1517" to-port="0" />
		<edge from-layer="1515" from-port="0" to-layer="1516" to-port="0" />
		<edge from-layer="1516" from-port="2" to-layer="1517" to-port="1" />
		<edge from-layer="1517" from-port="2" to-layer="1532" to-port="0" />
		<edge from-layer="1518" from-port="1" to-layer="1521" to-port="0" />
		<edge from-layer="1519" from-port="0" to-layer="1521" to-port="1" />
		<edge from-layer="1520" from-port="0" to-layer="1521" to-port="2" />
		<edge from-layer="1521" from-port="3" to-layer="1523" to-port="0" />
		<edge from-layer="1522" from-port="0" to-layer="1523" to-port="1" />
		<edge from-layer="1523" from-port="2" to-layer="1531" to-port="0" />
		<edge from-layer="1524" from-port="1" to-layer="1527" to-port="0" />
		<edge from-layer="1525" from-port="0" to-layer="1527" to-port="1" />
		<edge from-layer="1526" from-port="0" to-layer="1527" to-port="2" />
		<edge from-layer="1527" from-port="3" to-layer="1529" to-port="0" />
		<edge from-layer="1528" from-port="0" to-layer="1529" to-port="1" />
		<edge from-layer="1529" from-port="2" to-layer="1531" to-port="1" />
		<edge from-layer="1530" from-port="0" to-layer="1531" to-port="2" />
		<edge from-layer="1531" from-port="3" to-layer="1532" to-port="1" />
		<edge from-layer="1532" from-port="2" to-layer="1533" to-port="1" />
		<edge from-layer="1533" from-port="2" to-layer="1536" to-port="0" />
		<edge from-layer="1533" from-port="2" to-layer="1535" to-port="0" />
		<edge from-layer="1534" from-port="0" to-layer="1535" to-port="1" />
		<edge from-layer="1535" from-port="2" to-layer="1536" to-port="1" />
		<edge from-layer="1536" from-port="2" to-layer="1544" to-port="0" />
		<edge from-layer="1536" from-port="2" to-layer="1538" to-port="0" />
		<edge from-layer="1537" from-port="0" to-layer="1538" to-port="1" />
		<edge from-layer="1538" from-port="2" to-layer="1540" to-port="0" />
		<edge from-layer="1539" from-port="0" to-layer="1540" to-port="1" />
		<edge from-layer="1540" from-port="2" to-layer="1542" to-port="0" />
		<edge from-layer="1541" from-port="0" to-layer="1542" to-port="1" />
		<edge from-layer="1542" from-port="2" to-layer="1543" to-port="0" />
		<edge from-layer="1543" from-port="1" to-layer="1544" to-port="1" />
		<edge from-layer="1544" from-port="2" to-layer="1545" to-port="0" />
		<edge from-layer="1545" from-port="2" to-layer="1546" to-port="0" />
		<edge from-layer="1546" from-port="2" to-layer="1568" to-port="0" />
		<edge from-layer="1547" from-port="1" to-layer="1550" to-port="0" />
		<edge from-layer="1548" from-port="0" to-layer="1550" to-port="1" />
		<edge from-layer="1549" from-port="0" to-layer="1550" to-port="2" />
		<edge from-layer="1550" from-port="3" to-layer="1552" to-port="0" />
		<edge from-layer="1551" from-port="0" to-layer="1552" to-port="1" />
		<edge from-layer="1552" from-port="2" to-layer="1567" to-port="0" />
		<edge from-layer="1553" from-port="0" to-layer="1554" to-port="1" />
		<edge from-layer="1554" from-port="2" to-layer="1567" to-port="1" />
		<edge from-layer="1555" from-port="1" to-layer="1562" to-port="0" />
		<edge from-layer="1556" from-port="0" to-layer="1562" to-port="1" />
		<edge from-layer="1557" from-port="0" to-layer="1562" to-port="2" />
		<edge from-layer="1558" from-port="0" to-layer="1560" to-port="0" />
		<edge from-layer="1559" from-port="0" to-layer="1560" to-port="1" />
		<edge from-layer="1560" from-port="2" to-layer="1562" to-port="3" />
		<edge from-layer="1561" from-port="0" to-layer="1562" to-port="4" />
		<edge from-layer="1562" from-port="5" to-layer="1564" to-port="0" />
		<edge from-layer="1563" from-port="0" to-layer="1564" to-port="1" />
		<edge from-layer="1564" from-port="2" to-layer="1566" to-port="0" />
		<edge from-layer="1565" from-port="0" to-layer="1566" to-port="1" />
		<edge from-layer="1566" from-port="2" to-layer="1567" to-port="2" />
		<edge from-layer="1567" from-port="3" to-layer="1568" to-port="1" />
		<edge from-layer="1568" from-port="2" to-layer="1570" to-port="0" />
		<edge from-layer="1569" from-port="0" to-layer="1570" to-port="1" />
		<edge from-layer="1570" from-port="2" to-layer="1571" to-port="0" />
	</edges>
	<rt_info />
</net>
